…
I1017 11:22:01.866220 28719 net.cpp:484] The NetState phase (0) differed from the phase (1) specified by a rule in layer data
I1017 11:22:01.866343 28719 net.cpp:120] Initializing net from parameters: 
name: "HEP_CLASSIFIER"
state {
  phase: TRAIN
  level: 0
  stage: ""
}
layer {
  name: "data"
  type: "DummyData"
  top: "data"
  top: "label"
  include {
    phase: TRAIN
  }
  dummy_data_param {
    data_filler {
      type: "gaussian"
      std: 1
    }
    data_filler {
      type: "constant"
      value: 0
    }
    shape {
      dim: 64
      dim: 3
      dim: 124
      dim: 124
    }
    shape {
      dim: 64
      dim: 1
      dim: 1
      dim: 1
    }
  }
}
layer {
  name: "conv1"
  type: "Convolution"
  bottom: "data"
  top: "conv1"
  convolution_param {
    num_output: 128
    pad: 0
    kernel_size: 3
    stride: 1
    weight_filler {
      type: "msra"
    }
    bias_filler {
      type: "constant"
      value: 0
    }
  }
}
layer {
  name: "relu1"
  type: "ReLU"
  bottom: "conv1"
  top: "conv1"
  relu_param {
    negative_slope: 0.1
  }
}
layer {
  name: "dropout1"
  type: "Dropout"
  bottom: "conv1"
  top: "drop1"
}
layer {
  name: "pool1"
  type: "Pooling"
  bottom: "drop1"
  top: "pool1"
  pooling_param {
    pool: MAX
    kernel_size: 2
    stride: 2
  }
}
layer {
  name: "conv2"
  type: "Convolution"
  bottom: "pool1"
  top: "conv2"
  convolution_param {
    num_output: 128
    pad: 0
    kernel_size: 3
    stride: 1
    weight_filler {
      type: "msra"
    }
    bias_filler {
      type: "constant"
      value: 0
    }
  }
}
layer {
  name: "relu2"
  type: "ReLU"
  bottom: "conv2"
  top: "conv2"
  relu_param {
    negative_slope: 0.1
  }
}
layer {
  name: "dropout2"
  type: "Dropout"
  bottom: "conv2"
  top: "drop2"
}
layer {
  name: "pool2"
  type: "Pooling"
  bottom: "drop2"
  top: "pool2"
  pooling_param {
    pool: MAX
    kernel_size: 2
    stride: 2
  }
}
layer {
  name: "conv3"
  type: "Convolution"
  bottom: "pool2"
  top: "conv3"
  convolution_param {
    num_output: 128
    pad: 0
    kernel_size: 3
    stride: 1
    weight_filler {
      type: "msra"
    }
    bias_filler {
      type: "constant"
      value: 0
    }
  }
}
layer {
  name: "relu3"
  type: "ReLU"
  bottom: "conv3"
  top: "conv3"
  relu_param {
    negative_slope: 0.1
  }
}
layer {
  name: "dropout3"
  type: "Dropout"
  bottom: "conv3"
  top: "drop3"
}
layer {
  name: "pool3"
  type: "Pooling"
  bottom: "drop3"
  top: "pool3"
  pooling_param {
    pool: MAX
    kernel_size: 2
    stride: 2
  }
}
layer {
  name: "conv4"
  type: "Convolution"
  bottom: "pool3"
  top: "conv4"
  convolution_param {
    num_output: 128
    pad: 0
    kernel_size: 3
    stride: 1
    weight_filler {
      type: "msra"
    }
    bias_filler {
      type: "constant"
      value: 0
    }
  }
}
layer {
  name: "relu4"
  type: "ReLU"
  bottom: "conv4"
  top: "conv4"
  relu_param {
    negative_slope: 0.1
  }
}
layer {
  name: "dropout4"
  type: "Dropout"
  bottom: "conv4"
  top: "drop4"
}
layer {
  name: "pool4"
  type: "Pooling"
  bottom: "drop4"
  top: "pool4"
  pooling_param {
    pool: MAX
    kernel_size: 2
    stride: 2
  }
}
layer {
  name: "fc1"
  type: "InnerProduct"
  bottom: "pool4"
  top: "fc1"
  inner_product_param {
    num_output: 1024
    weight_filler {
      type: "msra"
    }
    bias_filler {
      type: "constant"
      value: 0
    }
  }
}
layer {
  name: "dropout5"
  type: "Dropout"
  bottom: "fc1"
  top: "drop5"
}
layer {
  name: "fc2"
  type: "InnerProduct"
  bottom: "drop5"
  top: "fc2"
  inner_product_param {
    num_output: 2
    weight_filler {
      type: "msra"
    }
    bias_filler {
      type: "constant"
      value: 0
    }
  }
}
layer {
  name: "loss"
  type: "SoftmaxWithLoss"
  bottom: "fc2"
  bottom: "label"
}
I1017 11:22:01.866490 28719 layer_factory.hpp:114] Creating layer data
I1017 11:22:01.866502 28719 net.cpp:160] Creating Layer data
I1017 11:22:01.866504 28719 net.cpp:570] data -> data
I1017 11:22:01.866515 28719 net.cpp:570] data -> label
I1017 11:22:01.866703 28719 net.cpp:210] Setting up data
I1017 11:22:01.866710 28719 net.cpp:217] Top shape: 64 3 124 124 (2952192)
I1017 11:22:01.866720 28719 net.cpp:217] Top shape: 64 1 1 1 (64)
I1017 11:22:01.866724 28719 net.cpp:225] Memory required for data: 11809024
I1017 11:22:01.866726 28719 layer_factory.hpp:114] Creating layer conv1
I1017 11:22:01.866741 28719 net.cpp:160] Creating Layer conv1
I1017 11:22:01.866744 28719 net.cpp:596] conv1 <- data
I1017 11:22:01.866750 28719 net.cpp:570] conv1 -> conv1
I1017 11:22:01.891274 28719 net.cpp:210] Setting up conv1
I1017 11:22:01.891294 28719 net.cpp:217] Top shape: 64 128 122 122 (121929728)
I1017 11:22:01.891304 28719 net.cpp:225] Memory required for data: 499527936
I1017 11:22:01.891325 28719 layer_factory.hpp:114] Creating layer relu1
I1017 11:22:01.891360 28719 net.cpp:160] Creating Layer relu1
I1017 11:22:01.891367 28719 net.cpp:596] relu1 <- conv1
I1017 11:22:01.891376 28719 net.cpp:557] relu1 -> conv1 (in-place)
I1017 11:22:01.891404 28719 net.cpp:210] Setting up relu1
I1017 11:22:01.891415 28719 net.cpp:217] Top shape: 64 128 122 122 (121929728)
I1017 11:22:01.891432 28719 net.cpp:225] Memory required for data: 987246848
I1017 11:22:01.891436 28719 layer_factory.hpp:114] Creating layer dropout1
I1017 11:22:01.891444 28719 net.cpp:160] Creating Layer dropout1
I1017 11:22:01.891449 28719 net.cpp:596] dropout1 <- conv1
I1017 11:22:01.891456 28719 net.cpp:570] dropout1 -> drop1
I1017 11:22:01.891470 28719 net.cpp:210] Setting up dropout1
I1017 11:22:01.891482 28719 net.cpp:217] Top shape: 64 128 122 122 (121929728)
I1017 11:22:01.891490 28719 net.cpp:225] Memory required for data: 1474965760
I1017 11:22:01.891494 28719 layer_factory.hpp:114] Creating layer pool1
I1017 11:22:01.891510 28719 net.cpp:160] Creating Layer pool1
I1017 11:22:01.891522 28719 net.cpp:596] pool1 <- drop1
I1017 11:22:01.891531 28719 net.cpp:570] pool1 -> pool1
I1017 11:22:01.891558 28719 net.cpp:210] Setting up pool1
I1017 11:22:01.891564 28719 net.cpp:217] Top shape: 64 128 61 61 (30482432)
I1017 11:22:01.891571 28719 net.cpp:225] Memory required for data: 1596895488
I1017 11:22:01.891576 28719 layer_factory.hpp:114] Creating layer conv2
I1017 11:22:01.891599 28719 net.cpp:160] Creating Layer conv2
I1017 11:22:01.891604 28719 net.cpp:596] conv2 <- pool1
I1017 11:22:01.891613 28719 net.cpp:570] conv2 -> conv2
I1017 11:22:02.016101 28719 net.cpp:210] Setting up conv2
I1017 11:22:02.016139 28719 net.cpp:217] Top shape: 64 128 59 59 (28516352)
I1017 11:22:02.016152 28719 net.cpp:225] Memory required for data: 1710960896
I1017 11:22:02.016175 28719 layer_factory.hpp:114] Creating layer relu2
I1017 11:22:02.016199 28719 net.cpp:160] Creating Layer relu2
I1017 11:22:02.016206 28719 net.cpp:596] relu2 <- conv2
I1017 11:22:02.016213 28719 net.cpp:557] relu2 -> conv2 (in-place)
I1017 11:22:02.016244 28719 net.cpp:210] Setting up relu2
I1017 11:22:02.016294 28719 net.cpp:217] Top shape: 64 128 59 59 (28516352)
I1017 11:22:02.016356 28719 net.cpp:225] Memory required for data: 1825026304
I1017 11:22:02.016366 28719 layer_factory.hpp:114] Creating layer dropout2
I1017 11:22:02.016379 28719 net.cpp:160] Creating Layer dropout2
I1017 11:22:02.016384 28719 net.cpp:596] dropout2 <- conv2
I1017 11:22:02.016392 28719 net.cpp:570] dropout2 -> drop2
I1017 11:22:02.016407 28719 net.cpp:210] Setting up dropout2
I1017 11:22:02.016412 28719 net.cpp:217] Top shape: 64 128 59 59 (28516352)
I1017 11:22:02.016420 28719 net.cpp:225] Memory required for data: 1939091712
I1017 11:22:02.016424 28719 layer_factory.hpp:114] Creating layer pool2
I1017 11:22:02.016444 28719 net.cpp:160] Creating Layer pool2
I1017 11:22:02.016450 28719 net.cpp:596] pool2 <- drop2
I1017 11:22:02.016465 28719 net.cpp:570] pool2 -> pool2
I1017 11:22:02.016494 28719 net.cpp:210] Setting up pool2
I1017 11:22:02.016535 28719 net.cpp:217] Top shape: 64 128 30 30 (7372800)
I1017 11:22:02.016598 28719 net.cpp:225] Memory required for data: 1968582912
I1017 11:22:02.016633 28719 layer_factory.hpp:114] Creating layer conv3
I1017 11:22:02.016690 28719 net.cpp:160] Creating Layer conv3
I1017 11:22:02.016698 28719 net.cpp:596] conv3 <- pool2
I1017 11:22:02.016706 28719 net.cpp:570] conv3 -> conv3
I1017 11:22:02.051694 28719 net.cpp:210] Setting up conv3
I1017 11:22:02.051725 28719 net.cpp:217] Top shape: 64 128 28 28 (6422528)
I1017 11:22:02.051738 28719 net.cpp:225] Memory required for data: 1994273024
I1017 11:22:02.051760 28719 layer_factory.hpp:114] Creating layer relu3
I1017 11:22:02.051782 28719 net.cpp:160] Creating Layer relu3
I1017 11:22:02.051789 28719 net.cpp:596] relu3 <- conv3
I1017 11:22:02.051797 28719 net.cpp:557] relu3 -> conv3 (in-place)
I1017 11:22:02.051828 28719 net.cpp:210] Setting up relu3
I1017 11:22:02.051858 28719 net.cpp:217] Top shape: 64 128 28 28 (6422528)
I1017 11:22:02.051890 28719 net.cpp:225] Memory required for data: 2019963136
I1017 11:22:02.051946 28719 layer_factory.hpp:114] Creating layer dropout3
I1017 11:22:02.051997 28719 net.cpp:160] Creating Layer dropout3
I1017 11:22:02.052039 28719 net.cpp:596] dropout3 <- conv3
I1017 11:22:02.052083 28719 net.cpp:570] dropout3 -> drop3
I1017 11:22:02.052139 28719 net.cpp:210] Setting up dropout3
I1017 11:22:02.052145 28719 net.cpp:217] Top shape: 64 128 28 28 (6422528)
I1017 11:22:02.052152 28719 net.cpp:225] Memory required for data: 2045653248
I1017 11:22:02.052157 28719 layer_factory.hpp:114] Creating layer pool3
I1017 11:22:02.052177 28719 net.cpp:160] Creating Layer pool3
I1017 11:22:02.052194 28719 net.cpp:596] pool3 <- drop3
I1017 11:22:02.052228 28719 net.cpp:570] pool3 -> pool3
I1017 11:22:02.052307 28719 net.cpp:210] Setting up pool3
I1017 11:22:02.052316 28719 net.cpp:217] Top shape: 64 128 14 14 (1605632)
I1017 11:22:02.052322 28719 net.cpp:225] Memory required for data: 2052075776
I1017 11:22:02.052327 28719 layer_factory.hpp:114] Creating layer conv4
I1017 11:22:02.052356 28719 net.cpp:160] Creating Layer conv4
I1017 11:22:02.052389 28719 net.cpp:596] conv4 <- pool3
I1017 11:22:02.052446 28719 net.cpp:570] conv4 -> conv4
I1017 11:22:02.066460 28719 net.cpp:210] Setting up conv4
I1017 11:22:02.066473 28719 net.cpp:217] Top shape: 64 128 12 12 (1179648)
I1017 11:22:02.066480 28719 net.cpp:225] Memory required for data: 2056794368
I1017 11:22:02.066491 28719 layer_factory.hpp:114] Creating layer relu4
I1017 11:22:02.066506 28719 net.cpp:160] Creating Layer relu4
I1017 11:22:02.066512 28719 net.cpp:596] relu4 <- conv4
I1017 11:22:02.066521 28719 net.cpp:557] relu4 -> conv4 (in-place)
I1017 11:22:02.066541 28719 net.cpp:210] Setting up relu4
I1017 11:22:02.066570 28719 net.cpp:217] Top shape: 64 128 12 12 (1179648)
I1017 11:22:02.066599 28719 net.cpp:225] Memory required for data: 2061512960
I1017 11:22:02.066640 28719 layer_factory.hpp:114] Creating layer dropout4
I1017 11:22:02.066689 28719 net.cpp:160] Creating Layer dropout4
I1017 11:22:02.066720 28719 net.cpp:596] dropout4 <- conv4
I1017 11:22:02.066761 28719 net.cpp:570] dropout4 -> drop4
I1017 11:22:02.066802 28719 net.cpp:210] Setting up dropout4
I1017 11:22:02.066836 28719 net.cpp:217] Top shape: 64 128 12 12 (1179648)
I1017 11:22:02.066901 28719 net.cpp:225] Memory required for data: 2066231552
I1017 11:22:02.066910 28719 layer_factory.hpp:114] Creating layer pool4
I1017 11:22:02.066932 28719 net.cpp:160] Creating Layer pool4
I1017 11:22:02.066948 28719 net.cpp:596] pool4 <- drop4
I1017 11:22:02.066982 28719 net.cpp:570] pool4 -> pool4
I1017 11:22:02.067064 28719 net.cpp:210] Setting up pool4
I1017 11:22:02.067071 28719 net.cpp:217] Top shape: 64 128 6 6 (294912)
I1017 11:22:02.067078 28719 net.cpp:225] Memory required for data: 2067411200
I1017 11:22:02.067086 28719 layer_factory.hpp:114] Creating layer fc1
I1017 11:22:02.067107 28719 net.cpp:160] Creating Layer fc1
I1017 11:22:02.067112 28719 net.cpp:596] fc1 <- pool4
I1017 11:22:02.067121 28719 net.cpp:570] fc1 -> fc1
I1017 11:22:02.136777 28719 net.cpp:210] Setting up fc1
I1017 11:22:02.136788 28719 net.cpp:217] Top shape: 64 1024 (65536)
I1017 11:22:02.136796 28719 net.cpp:225] Memory required for data: 2067673344
I1017 11:22:02.136811 28719 layer_factory.hpp:114] Creating layer dropout5
I1017 11:22:02.136821 28719 net.cpp:160] Creating Layer dropout5
I1017 11:22:02.136826 28719 net.cpp:596] dropout5 <- fc1
I1017 11:22:02.136834 28719 net.cpp:570] dropout5 -> drop5
I1017 11:22:02.136850 28719 net.cpp:210] Setting up dropout5
I1017 11:22:02.136855 28719 net.cpp:217] Top shape: 64 1024 (65536)
I1017 11:22:02.136862 28719 net.cpp:225] Memory required for data: 2067935488
I1017 11:22:02.136868 28719 layer_factory.hpp:114] Creating layer fc2
I1017 11:22:02.136879 28719 net.cpp:160] Creating Layer fc2
I1017 11:22:02.136885 28719 net.cpp:596] fc2 <- drop5
I1017 11:22:02.136893 28719 net.cpp:570] fc2 -> fc2
I1017 11:22:02.136970 28719 net.cpp:210] Setting up fc2
I1017 11:22:02.136981 28719 net.cpp:217] Top shape: 64 2 (128)
I1017 11:22:02.136988 28719 net.cpp:225] Memory required for data: 2067936000
I1017 11:22:02.136999 28719 layer_factory.hpp:114] Creating layer loss
I1017 11:22:02.137012 28719 net.cpp:160] Creating Layer loss
I1017 11:22:02.137017 28719 net.cpp:596] loss <- fc2
I1017 11:22:02.137023 28719 net.cpp:596] loss <- label
I1017 11:22:02.137037 28719 net.cpp:570] loss -> (automatic)
I1017 11:22:02.137048 28719 layer_factory.hpp:114] Creating layer loss
…
