…
I1017 11:23:54.565925 28933 net.cpp:484] The NetState phase (0) differed from the phase (1) specified by a rule in layer data
I1017 11:23:54.566011 28933 net.cpp:120] Initializing net from parameters: 
name: "HEP_CLASSIFIER"
state {
  phase: TRAIN
  level: 0
  stage: ""
}
layer {
  name: "data"
  type: "DummyData"
  top: "data"
  top: "label"
  include {
    phase: TRAIN
  }
  dummy_data_param {
    data_filler {
      type: "gaussian"
      std: 1
    }
    data_filler {
      type: "constant"
      value: 0
    }
    shape {
      dim: 64
      dim: 3
      dim: 124
      dim: 124
    }
    shape {
      dim: 64
      dim: 1
      dim: 1
      dim: 1
    }
  }
}
layer {
  name: "conv1"
  type: "Convolution"
  bottom: "data"
  top: "conv1"
  convolution_param {
    num_output: 128
    pad: 0
    kernel_size: 3
    stride: 1
    weight_filler {
      type: "msra"
    }
    bias_filler {
      type: "constant"
      value: 0
    }
  }
}
layer {
  name: "relu1"
  type: "ReLU"
  bottom: "conv1"
  top: "conv1"
  relu_param {
    negative_slope: 0.1
  }
}
layer {
  name: "dropout1"
  type: "Dropout"
  bottom: "conv1"
  top: "drop1"
}
layer {
  name: "pool1"
  type: "Pooling"
  bottom: "drop1"
  top: "pool1"
  pooling_param {
    pool: MAX
    kernel_size: 2
    stride: 2
  }
}
layer {
  name: "conv2"
  type: "Convolution"
  bottom: "pool1"
  top: "conv2"
  convolution_param {
    num_output: 128
    pad: 0
    kernel_size: 3
    stride: 1
    weight_filler {
      type: "msra"
    }
    bias_filler {
      type: "constant"
      value: 0
    }
  }
}
layer {
  name: "relu2"
  type: "ReLU"
  bottom: "conv2"
  top: "conv2"
  relu_param {
    negative_slope: 0.1
  }
}
layer {
  name: "dropout2"
  type: "Dropout"
  bottom: "conv2"
  top: "drop2"
}
layer {
  name: "pool2"
  type: "Pooling"
  bottom: "drop2"
  top: "pool2"
  pooling_param {
    pool: MAX
    kernel_size: 2
    stride: 2
  }
}
layer {
  name: "conv3"
  type: "Convolution"
  bottom: "pool2"
  top: "conv3"
  convolution_param {
    num_output: 128
    pad: 0
    kernel_size: 3
    stride: 1
    weight_filler {
      type: "msra"
    }
    bias_filler {
      type: "constant"
      value: 0
    }
  }
}
layer {
  name: "relu3"
  type: "ReLU"
  bottom: "conv3"
  top: "conv3"
  relu_param {
    negative_slope: 0.1
  }
}
layer {
  name: "dropout3"
  type: "Dropout"
  bottom: "conv3"
  top: "drop3"
}
layer {
  name: "pool3"
  type: "Pooling"
  bottom: "drop3"
  top: "pool3"
  pooling_param {
    pool: MAX
    kernel_size: 2
    stride: 2
  }
}
layer {
  name: "conv4"
  type: "Convolution"
  bottom: "pool3"
  top: "conv4"
  convolution_param {
    num_output: 128
    pad: 0
    kernel_size: 3
    stride: 1
    weight_filler {
      type: "msra"
    }
    bias_filler {
      type: "constant"
      value: 0
    }
  }
}
layer {
  name: "relu4"
  type: "ReLU"
  bottom: "conv4"
  top: "conv4"
  relu_param {
    negative_slope: 0.1
  }
}
layer {
  name: "dropout4"
  type: "Dropout"
  bottom: "conv4"
  top: "drop4"
}
layer {
  name: "pool4"
  type: "Pooling"
  bottom: "drop4"
  top: "pool4"
  pooling_param {
    pool: MAX
    kernel_size: 2
    stride: 2
  }
}
layer {
  name: "fc1"
  type: "InnerProduct"
  bottom: "pool4"
  top: "fc1"
  inner_product_param {
    num_output: 1024
    weight_filler {
      type: "msra"
    }
    bias_filler {
      type: "constant"
      value: 0
    }
  }
}
layer {
  name: "dropout5"
  type: "Dropout"
  bottom: "fc1"
  top: "drop5"
}
layer {
  name: "fc2"
  type: "InnerProduct"
  bottom: "drop5"
  top: "fc2"
  inner_product_param {
    num_output: 2
    weight_filler {
      type: "msra"
    }
    bias_filler {
      type: "constant"
      value: 0
    }
  }
}
layer {
  name: "loss"
  type: "SoftmaxWithLoss"
  bottom: "fc2"
  bottom: "label"
}
I1017 11:23:54.566141 28933 layer_factory.hpp:114] Creating layer data
I1017 11:23:54.566153 28933 net.cpp:160] Creating Layer data
I1017 11:23:54.566155 28933 net.cpp:570] data -> data
I1017 11:23:54.566167 28933 net.cpp:570] data -> label
I1017 11:23:54.566339 28933 net.cpp:210] Setting up data
I1017 11:23:54.566345 28933 net.cpp:217] Top shape: 64 3 124 124 (2952192)
I1017 11:23:54.566355 28933 net.cpp:217] Top shape: 64 1 1 1 (64)
I1017 11:23:54.566359 28933 net.cpp:225] Memory required for data: 11809024
I1017 11:23:54.566362 28933 layer_factory.hpp:114] Creating layer conv1
I1017 11:23:54.566376 28933 net.cpp:160] Creating Layer conv1
I1017 11:23:54.566380 28933 net.cpp:596] conv1 <- data
I1017 11:23:54.566387 28933 net.cpp:570] conv1 -> conv1
I1017 11:23:54.575790 28933 net.cpp:210] Setting up conv1
I1017 11:23:54.575803 28933 net.cpp:217] Top shape: 64 128 122 122 (121929728)
I1017 11:23:54.575809 28933 net.cpp:225] Memory required for data: 499527936
I1017 11:23:54.575819 28933 layer_factory.hpp:114] Creating layer relu1
I1017 11:23:54.575829 28933 net.cpp:160] Creating Layer relu1
I1017 11:23:54.575831 28933 net.cpp:596] relu1 <- conv1
I1017 11:23:54.575835 28933 net.cpp:557] relu1 -> conv1 (in-place)
I1017 11:23:54.575850 28933 net.cpp:210] Setting up relu1
I1017 11:23:54.575855 28933 net.cpp:217] Top shape: 64 128 122 122 (121929728)
I1017 11:23:54.575857 28933 net.cpp:225] Memory required for data: 987246848
I1017 11:23:54.575860 28933 layer_factory.hpp:114] Creating layer dropout1
I1017 11:23:54.575865 28933 net.cpp:160] Creating Layer dropout1
I1017 11:23:54.575872 28933 net.cpp:596] dropout1 <- conv1
I1017 11:23:54.575875 28933 net.cpp:570] dropout1 -> drop1
I1017 11:23:54.575881 28933 net.cpp:210] Setting up dropout1
I1017 11:23:54.575882 28933 net.cpp:217] Top shape: 64 128 122 122 (121929728)
I1017 11:23:54.575886 28933 net.cpp:225] Memory required for data: 1474965760
I1017 11:23:54.575886 28933 layer_factory.hpp:114] Creating layer pool1
I1017 11:23:54.575893 28933 net.cpp:160] Creating Layer pool1
I1017 11:23:54.575901 28933 net.cpp:596] pool1 <- drop1
I1017 11:23:54.575903 28933 net.cpp:570] pool1 -> pool1
I1017 11:23:54.575918 28933 net.cpp:210] Setting up pool1
I1017 11:23:54.575922 28933 net.cpp:217] Top shape: 64 128 61 61 (30482432)
I1017 11:23:54.575928 28933 net.cpp:225] Memory required for data: 1596895488
I1017 11:23:54.575930 28933 layer_factory.hpp:114] Creating layer conv2
I1017 11:23:54.575942 28933 net.cpp:160] Creating Layer conv2
I1017 11:23:54.575945 28933 net.cpp:596] conv2 <- pool1
I1017 11:23:54.575950 28933 net.cpp:570] conv2 -> conv2
I1017 11:23:54.586802 28933 net.cpp:210] Setting up conv2
I1017 11:23:54.586814 28933 net.cpp:217] Top shape: 64 128 59 59 (28516352)
I1017 11:23:54.586822 28933 net.cpp:225] Memory required for data: 1710960896
I1017 11:23:54.586833 28933 layer_factory.hpp:114] Creating layer relu2
I1017 11:23:54.586841 28933 net.cpp:160] Creating Layer relu2
I1017 11:23:54.586843 28933 net.cpp:596] relu2 <- conv2
I1017 11:23:54.586849 28933 net.cpp:557] relu2 -> conv2 (in-place)
I1017 11:23:54.586861 28933 net.cpp:210] Setting up relu2
I1017 11:23:54.586864 28933 net.cpp:217] Top shape: 64 128 59 59 (28516352)
I1017 11:23:54.586868 28933 net.cpp:225] Memory required for data: 1825026304
I1017 11:23:54.586869 28933 layer_factory.hpp:114] Creating layer dropout2
I1017 11:23:54.586872 28933 net.cpp:160] Creating Layer dropout2
I1017 11:23:54.586874 28933 net.cpp:596] dropout2 <- conv2
I1017 11:23:54.586879 28933 net.cpp:570] dropout2 -> drop2
I1017 11:23:54.586884 28933 net.cpp:210] Setting up dropout2
I1017 11:23:54.586885 28933 net.cpp:217] Top shape: 64 128 59 59 (28516352)
I1017 11:23:54.586889 28933 net.cpp:225] Memory required for data: 1939091712
I1017 11:23:54.586890 28933 layer_factory.hpp:114] Creating layer pool2
I1017 11:23:54.586899 28933 net.cpp:160] Creating Layer pool2
I1017 11:23:54.586900 28933 net.cpp:596] pool2 <- drop2
I1017 11:23:54.586902 28933 net.cpp:570] pool2 -> pool2
I1017 11:23:54.586915 28933 net.cpp:210] Setting up pool2
I1017 11:23:54.586917 28933 net.cpp:217] Top shape: 64 128 30 30 (7372800)
I1017 11:23:54.586920 28933 net.cpp:225] Memory required for data: 1968582912
I1017 11:23:54.586921 28933 layer_factory.hpp:114] Creating layer conv3
I1017 11:23:54.586932 28933 net.cpp:160] Creating Layer conv3
I1017 11:23:54.586935 28933 net.cpp:596] conv3 <- pool2
I1017 11:23:54.586938 28933 net.cpp:570] conv3 -> conv3
I1017 11:23:54.592772 28933 net.cpp:210] Setting up conv3
I1017 11:23:54.592779 28933 net.cpp:217] Top shape: 64 128 28 28 (6422528)
I1017 11:23:54.592783 28933 net.cpp:225] Memory required for data: 1994273024
I1017 11:23:54.592792 28933 layer_factory.hpp:114] Creating layer relu3
I1017 11:23:54.592798 28933 net.cpp:160] Creating Layer relu3
I1017 11:23:54.592800 28933 net.cpp:596] relu3 <- conv3
I1017 11:23:54.592805 28933 net.cpp:557] relu3 -> conv3 (in-place)
I1017 11:23:54.592815 28933 net.cpp:210] Setting up relu3
I1017 11:23:54.592824 28933 net.cpp:217] Top shape: 64 128 28 28 (6422528)
I1017 11:23:54.592828 28933 net.cpp:225] Memory required for data: 2019963136
I1017 11:23:54.592829 28933 layer_factory.hpp:114] Creating layer dropout3
I1017 11:23:54.592833 28933 net.cpp:160] Creating Layer dropout3
I1017 11:23:54.592834 28933 net.cpp:596] dropout3 <- conv3
I1017 11:23:54.592838 28933 net.cpp:570] dropout3 -> drop3
I1017 11:23:54.592841 28933 net.cpp:210] Setting up dropout3
I1017 11:23:54.592844 28933 net.cpp:217] Top shape: 64 128 28 28 (6422528)
I1017 11:23:54.592849 28933 net.cpp:225] Memory required for data: 2045653248
I1017 11:23:54.592854 28933 layer_factory.hpp:114] Creating layer pool3
I1017 11:23:54.592859 28933 net.cpp:160] Creating Layer pool3
I1017 11:23:54.592860 28933 net.cpp:596] pool3 <- drop3
I1017 11:23:54.592864 28933 net.cpp:570] pool3 -> pool3
I1017 11:23:54.592875 28933 net.cpp:210] Setting up pool3
I1017 11:23:54.592878 28933 net.cpp:217] Top shape: 64 128 14 14 (1605632)
I1017 11:23:54.592880 28933 net.cpp:225] Memory required for data: 2052075776
I1017 11:23:54.592882 28933 layer_factory.hpp:114] Creating layer conv4
I1017 11:23:54.592895 28933 net.cpp:160] Creating Layer conv4
I1017 11:23:54.592897 28933 net.cpp:596] conv4 <- pool3
I1017 11:23:54.592900 28933 net.cpp:570] conv4 -> conv4
I1017 11:23:54.597451 28933 net.cpp:210] Setting up conv4
I1017 11:23:54.597460 28933 net.cpp:217] Top shape: 64 128 12 12 (1179648)
I1017 11:23:54.597465 28933 net.cpp:225] Memory required for data: 2056794368
I1017 11:23:54.597470 28933 layer_factory.hpp:114] Creating layer relu4
I1017 11:23:54.597476 28933 net.cpp:160] Creating Layer relu4
I1017 11:23:54.597477 28933 net.cpp:596] relu4 <- conv4
I1017 11:23:54.597482 28933 net.cpp:557] relu4 -> conv4 (in-place)
I1017 11:23:54.597491 28933 net.cpp:210] Setting up relu4
I1017 11:23:54.597493 28933 net.cpp:217] Top shape: 64 128 12 12 (1179648)
I1017 11:23:54.597496 28933 net.cpp:225] Memory required for data: 2061512960
I1017 11:23:54.597498 28933 layer_factory.hpp:114] Creating layer dropout4
I1017 11:23:54.597501 28933 net.cpp:160] Creating Layer dropout4
I1017 11:23:54.597503 28933 net.cpp:596] dropout4 <- conv4
I1017 11:23:54.597507 28933 net.cpp:570] dropout4 -> drop4
I1017 11:23:54.597512 28933 net.cpp:210] Setting up dropout4
I1017 11:23:54.597513 28933 net.cpp:217] Top shape: 64 128 12 12 (1179648)
I1017 11:23:54.597517 28933 net.cpp:225] Memory required for data: 2066231552
I1017 11:23:54.597517 28933 layer_factory.hpp:114] Creating layer pool4
I1017 11:23:54.597525 28933 net.cpp:160] Creating Layer pool4
I1017 11:23:54.597538 28933 net.cpp:596] pool4 <- drop4
I1017 11:23:54.597543 28933 net.cpp:570] pool4 -> pool4
I1017 11:23:54.597553 28933 net.cpp:210] Setting up pool4
I1017 11:23:54.597555 28933 net.cpp:217] Top shape: 64 128 6 6 (294912)
I1017 11:23:54.597560 28933 net.cpp:225] Memory required for data: 2067411200
I1017 11:23:54.597563 28933 layer_factory.hpp:114] Creating layer fc1
I1017 11:23:54.597573 28933 net.cpp:160] Creating Layer fc1
I1017 11:23:54.597579 28933 net.cpp:596] fc1 <- pool4
I1017 11:23:54.597584 28933 net.cpp:570] fc1 -> fc1
I1017 11:23:54.652266 28933 net.cpp:210] Setting up fc1
I1017 11:23:54.652274 28933 net.cpp:217] Top shape: 64 1024 (65536)
I1017 11:23:54.652281 28933 net.cpp:225] Memory required for data: 2067673344
I1017 11:23:54.652287 28933 layer_factory.hpp:114] Creating layer dropout5
I1017 11:23:54.652292 28933 net.cpp:160] Creating Layer dropout5
I1017 11:23:54.652294 28933 net.cpp:596] dropout5 <- fc1
I1017 11:23:54.652298 28933 net.cpp:570] dropout5 -> drop5
I1017 11:23:54.652304 28933 net.cpp:210] Setting up dropout5
I1017 11:23:54.652305 28933 net.cpp:217] Top shape: 64 1024 (65536)
I1017 11:23:54.652308 28933 net.cpp:225] Memory required for data: 2067935488
I1017 11:23:54.652310 28933 layer_factory.hpp:114] Creating layer fc2
I1017 11:23:54.652318 28933 net.cpp:160] Creating Layer fc2
I1017 11:23:54.652319 28933 net.cpp:596] fc2 <- drop5
I1017 11:23:54.652323 28933 net.cpp:570] fc2 -> fc2
I1017 11:23:54.652370 28933 net.cpp:210] Setting up fc2
I1017 11:23:54.652375 28933 net.cpp:217] Top shape: 64 2 (128)
I1017 11:23:54.652379 28933 net.cpp:225] Memory required for data: 2067936000
I1017 11:23:54.652382 28933 layer_factory.hpp:114] Creating layer loss
I1017 11:23:54.652403 28933 net.cpp:160] Creating Layer loss
I1017 11:23:54.652405 28933 net.cpp:596] loss <- fc2
I1017 11:23:54.652408 28933 net.cpp:596] loss <- label
I1017 11:23:54.652413 28933 net.cpp:570] loss -> (automatic)
I1017 11:23:54.652420 28933 layer_factory.hpp:114] Creating layer loss
…
