…
I1017 11:22:34.752595 28820 net.cpp:484] The NetState phase (0) differed from the phase (1) specified by a rule in layer data
I1017 11:22:34.752687 28820 net.cpp:120] Initializing net from parameters: 
name: "HEP_CLASSIFIER"
state {
  phase: TRAIN
  level: 0
  stage: ""
}
layer {
  name: "data"
  type: "DummyData"
  top: "data"
  top: "label"
  include {
    phase: TRAIN
  }
  dummy_data_param {
    data_filler {
      type: "gaussian"
      std: 1
    }
    data_filler {
      type: "constant"
      value: 0
    }
    shape {
      dim: 64
      dim: 3
      dim: 124
      dim: 124
    }
    shape {
      dim: 64
      dim: 1
      dim: 1
      dim: 1
    }
  }
}
layer {
  name: "conv1"
  type: "Convolution"
  bottom: "data"
  top: "conv1"
  convolution_param {
    num_output: 128
    pad: 0
    kernel_size: 3
    stride: 1
    weight_filler {
      type: "msra"
    }
    bias_filler {
      type: "constant"
      value: 0
    }
  }
}
layer {
  name: "relu1"
  type: "ReLU"
  bottom: "conv1"
  top: "conv1"
  relu_param {
    negative_slope: 0.1
  }
}
layer {
  name: "dropout1"
  type: "Dropout"
  bottom: "conv1"
  top: "drop1"
}
layer {
  name: "pool1"
  type: "Pooling"
  bottom: "drop1"
  top: "pool1"
  pooling_param {
    pool: MAX
    kernel_size: 2
    stride: 2
  }
}
layer {
  name: "conv2"
  type: "Convolution"
  bottom: "pool1"
  top: "conv2"
  convolution_param {
    num_output: 128
    pad: 0
    kernel_size: 3
    stride: 1
    weight_filler {
      type: "msra"
    }
    bias_filler {
      type: "constant"
      value: 0
    }
  }
}
layer {
  name: "relu2"
  type: "ReLU"
  bottom: "conv2"
  top: "conv2"
  relu_param {
    negative_slope: 0.1
  }
}
layer {
  name: "dropout2"
  type: "Dropout"
  bottom: "conv2"
  top: "drop2"
}
layer {
  name: "pool2"
  type: "Pooling"
  bottom: "drop2"
  top: "pool2"
  pooling_param {
    pool: MAX
    kernel_size: 2
    stride: 2
  }
}
layer {
  name: "conv3"
  type: "Convolution"
  bottom: "pool2"
  top: "conv3"
  convolution_param {
    num_output: 128
    pad: 0
    kernel_size: 3
    stride: 1
    weight_filler {
      type: "msra"
    }
    bias_filler {
      type: "constant"
      value: 0
    }
  }
}
layer {
  name: "relu3"
  type: "ReLU"
  bottom: "conv3"
  top: "conv3"
  relu_param {
    negative_slope: 0.1
  }
}
layer {
  name: "dropout3"
  type: "Dropout"
  bottom: "conv3"
  top: "drop3"
}
layer {
  name: "pool3"
  type: "Pooling"
  bottom: "drop3"
  top: "pool3"
  pooling_param {
    pool: MAX
    kernel_size: 2
    stride: 2
  }
}
layer {
  name: "conv4"
  type: "Convolution"
  bottom: "pool3"
  top: "conv4"
  convolution_param {
    num_output: 128
    pad: 0
    kernel_size: 3
    stride: 1
    weight_filler {
      type: "msra"
    }
    bias_filler {
      type: "constant"
      value: 0
    }
  }
}
layer {
  name: "relu4"
  type: "ReLU"
  bottom: "conv4"
  top: "conv4"
  relu_param {
    negative_slope: 0.1
  }
}
layer {
  name: "dropout4"
  type: "Dropout"
  bottom: "conv4"
  top: "drop4"
}
layer {
  name: "pool4"
  type: "Pooling"
  bottom: "drop4"
  top: "pool4"
  pooling_param {
    pool: MAX
    kernel_size: 2
    stride: 2
  }
}
layer {
  name: "fc1"
  type: "InnerProduct"
  bottom: "pool4"
  top: "fc1"
  inner_product_param {
    num_output: 1024
    weight_filler {
      type: "msra"
    }
    bias_filler {
      type: "constant"
      value: 0
    }
  }
}
layer {
  name: "dropout5"
  type: "Dropout"
  bottom: "fc1"
  top: "drop5"
}
layer {
  name: "fc2"
  type: "InnerProduct"
  bottom: "drop5"
  top: "fc2"
  inner_product_param {
    num_output: 2
    weight_filler {
      type: "msra"
    }
    bias_filler {
      type: "constant"
      value: 0
    }
  }
}
layer {
  name: "loss"
  type: "SoftmaxWithLoss"
  bottom: "fc2"
  bottom: "label"
}
I1017 11:22:34.752811 28820 layer_factory.hpp:114] Creating layer data
I1017 11:22:34.752820 28820 net.cpp:160] Creating Layer data
I1017 11:22:34.752825 28820 net.cpp:570] data -> data
I1017 11:22:34.752835 28820 net.cpp:570] data -> label
I1017 11:22:34.752995 28820 net.cpp:210] Setting up data
I1017 11:22:34.753001 28820 net.cpp:217] Top shape: 64 3 124 124 (2952192)
I1017 11:22:34.753012 28820 net.cpp:217] Top shape: 64 1 1 1 (64)
I1017 11:22:34.753015 28820 net.cpp:225] Memory required for data: 11809024
I1017 11:22:34.753018 28820 layer_factory.hpp:114] Creating layer conv1
I1017 11:22:34.753032 28820 net.cpp:160] Creating Layer conv1
I1017 11:22:34.753036 28820 net.cpp:596] conv1 <- data
I1017 11:22:34.753042 28820 net.cpp:570] conv1 -> conv1
I1017 11:22:34.764935 28820 net.cpp:210] Setting up conv1
I1017 11:22:34.764945 28820 net.cpp:217] Top shape: 64 128 122 122 (121929728)
I1017 11:22:34.764951 28820 net.cpp:225] Memory required for data: 499527936
I1017 11:22:34.764977 28820 layer_factory.hpp:114] Creating layer relu1
I1017 11:22:34.764988 28820 net.cpp:160] Creating Layer relu1
I1017 11:22:34.764998 28820 net.cpp:596] relu1 <- conv1
I1017 11:22:34.765002 28820 net.cpp:557] relu1 -> conv1 (in-place)
I1017 11:22:34.765019 28820 net.cpp:210] Setting up relu1
I1017 11:22:34.765023 28820 net.cpp:217] Top shape: 64 128 122 122 (121929728)
I1017 11:22:34.765027 28820 net.cpp:225] Memory required for data: 987246848
I1017 11:22:34.765029 28820 layer_factory.hpp:114] Creating layer dropout1
I1017 11:22:34.765033 28820 net.cpp:160] Creating Layer dropout1
I1017 11:22:34.765035 28820 net.cpp:596] dropout1 <- conv1
I1017 11:22:34.765040 28820 net.cpp:570] dropout1 -> drop1
I1017 11:22:34.765048 28820 net.cpp:210] Setting up dropout1
I1017 11:22:34.765053 28820 net.cpp:217] Top shape: 64 128 122 122 (121929728)
I1017 11:22:34.765056 28820 net.cpp:225] Memory required for data: 1474965760
I1017 11:22:34.765058 28820 layer_factory.hpp:114] Creating layer pool1
I1017 11:22:34.765066 28820 net.cpp:160] Creating Layer pool1
I1017 11:22:34.765069 28820 net.cpp:596] pool1 <- drop1
I1017 11:22:34.765072 28820 net.cpp:570] pool1 -> pool1
I1017 11:22:34.765091 28820 net.cpp:210] Setting up pool1
I1017 11:22:34.765095 28820 net.cpp:217] Top shape: 64 128 61 61 (30482432)
I1017 11:22:34.765099 28820 net.cpp:225] Memory required for data: 1596895488
I1017 11:22:34.765100 28820 layer_factory.hpp:114] Creating layer conv2
I1017 11:22:34.765113 28820 net.cpp:160] Creating Layer conv2
I1017 11:22:34.765117 28820 net.cpp:596] conv2 <- pool1
I1017 11:22:34.765122 28820 net.cpp:570] conv2 -> conv2
I1017 11:22:34.797858 28820 net.cpp:210] Setting up conv2
I1017 11:22:34.797900 28820 net.cpp:217] Top shape: 64 128 59 59 (28516352)
I1017 11:22:34.797909 28820 net.cpp:225] Memory required for data: 1710960896
I1017 11:22:34.797929 28820 layer_factory.hpp:114] Creating layer relu2
I1017 11:22:34.797945 28820 net.cpp:160] Creating Layer relu2
I1017 11:22:34.797947 28820 net.cpp:596] relu2 <- conv2
I1017 11:22:34.797955 28820 net.cpp:557] relu2 -> conv2 (in-place)
I1017 11:22:34.797989 28820 net.cpp:210] Setting up relu2
I1017 11:22:34.797992 28820 net.cpp:217] Top shape: 64 128 59 59 (28516352)
I1017 11:22:34.797996 28820 net.cpp:225] Memory required for data: 1825026304
I1017 11:22:34.797997 28820 layer_factory.hpp:114] Creating layer dropout2
I1017 11:22:34.798003 28820 net.cpp:160] Creating Layer dropout2
I1017 11:22:34.798005 28820 net.cpp:596] dropout2 <- conv2
I1017 11:22:34.798010 28820 net.cpp:570] dropout2 -> drop2
I1017 11:22:34.798017 28820 net.cpp:210] Setting up dropout2
I1017 11:22:34.798019 28820 net.cpp:217] Top shape: 64 128 59 59 (28516352)
I1017 11:22:34.798022 28820 net.cpp:225] Memory required for data: 1939091712
I1017 11:22:34.798024 28820 layer_factory.hpp:114] Creating layer pool2
I1017 11:22:34.798050 28820 net.cpp:160] Creating Layer pool2
I1017 11:22:34.798053 28820 net.cpp:596] pool2 <- drop2
I1017 11:22:34.798056 28820 net.cpp:570] pool2 -> pool2
I1017 11:22:34.798071 28820 net.cpp:210] Setting up pool2
I1017 11:22:34.798081 28820 net.cpp:217] Top shape: 64 128 30 30 (7372800)
I1017 11:22:34.798085 28820 net.cpp:225] Memory required for data: 1968582912
I1017 11:22:34.798087 28820 layer_factory.hpp:114] Creating layer conv3
I1017 11:22:34.798108 28820 net.cpp:160] Creating Layer conv3
I1017 11:22:34.798116 28820 net.cpp:596] conv3 <- pool2
I1017 11:22:34.798121 28820 net.cpp:570] conv3 -> conv3
I1017 11:22:34.809960 28820 net.cpp:210] Setting up conv3
I1017 11:22:34.809969 28820 net.cpp:217] Top shape: 64 128 28 28 (6422528)
I1017 11:22:34.809974 28820 net.cpp:225] Memory required for data: 1994273024
I1017 11:22:34.809994 28820 layer_factory.hpp:114] Creating layer relu3
I1017 11:22:34.810003 28820 net.cpp:160] Creating Layer relu3
I1017 11:22:34.810005 28820 net.cpp:596] relu3 <- conv3
I1017 11:22:34.810010 28820 net.cpp:557] relu3 -> conv3 (in-place)
I1017 11:22:34.810024 28820 net.cpp:210] Setting up relu3
I1017 11:22:34.810029 28820 net.cpp:217] Top shape: 64 128 28 28 (6422528)
I1017 11:22:34.810034 28820 net.cpp:225] Memory required for data: 2019963136
I1017 11:22:34.810036 28820 layer_factory.hpp:114] Creating layer dropout3
I1017 11:22:34.810051 28820 net.cpp:160] Creating Layer dropout3
I1017 11:22:34.810055 28820 net.cpp:596] dropout3 <- conv3
I1017 11:22:34.810060 28820 net.cpp:570] dropout3 -> drop3
I1017 11:22:34.810065 28820 net.cpp:210] Setting up dropout3
I1017 11:22:34.810067 28820 net.cpp:217] Top shape: 64 128 28 28 (6422528)
I1017 11:22:34.810073 28820 net.cpp:225] Memory required for data: 2045653248
I1017 11:22:34.810075 28820 layer_factory.hpp:114] Creating layer pool3
I1017 11:22:34.810092 28820 net.cpp:160] Creating Layer pool3
I1017 11:22:34.810096 28820 net.cpp:596] pool3 <- drop3
I1017 11:22:34.810101 28820 net.cpp:570] pool3 -> pool3
I1017 11:22:34.810115 28820 net.cpp:210] Setting up pool3
I1017 11:22:34.810118 28820 net.cpp:217] Top shape: 64 128 14 14 (1605632)
I1017 11:22:34.810122 28820 net.cpp:225] Memory required for data: 2052075776
I1017 11:22:34.810123 28820 layer_factory.hpp:114] Creating layer conv4
I1017 11:22:34.810137 28820 net.cpp:160] Creating Layer conv4
I1017 11:22:34.810148 28820 net.cpp:596] conv4 <- pool3
I1017 11:22:34.810151 28820 net.cpp:570] conv4 -> conv4
I1017 11:22:34.816897 28820 net.cpp:210] Setting up conv4
I1017 11:22:34.816905 28820 net.cpp:217] Top shape: 64 128 12 12 (1179648)
I1017 11:22:34.816910 28820 net.cpp:225] Memory required for data: 2056794368
I1017 11:22:34.816927 28820 layer_factory.hpp:114] Creating layer relu4
I1017 11:22:34.816934 28820 net.cpp:160] Creating Layer relu4
I1017 11:22:34.816936 28820 net.cpp:596] relu4 <- conv4
I1017 11:22:34.816942 28820 net.cpp:557] relu4 -> conv4 (in-place)
I1017 11:22:34.816953 28820 net.cpp:210] Setting up relu4
I1017 11:22:34.816956 28820 net.cpp:217] Top shape: 64 128 12 12 (1179648)
I1017 11:22:34.816958 28820 net.cpp:225] Memory required for data: 2061512960
I1017 11:22:34.816961 28820 layer_factory.hpp:114] Creating layer dropout4
I1017 11:22:34.816977 28820 net.cpp:160] Creating Layer dropout4
I1017 11:22:34.816978 28820 net.cpp:596] dropout4 <- conv4
I1017 11:22:34.816983 28820 net.cpp:570] dropout4 -> drop4
I1017 11:22:34.816988 28820 net.cpp:210] Setting up dropout4
I1017 11:22:34.816990 28820 net.cpp:217] Top shape: 64 128 12 12 (1179648)
I1017 11:22:34.816993 28820 net.cpp:225] Memory required for data: 2066231552
I1017 11:22:34.816995 28820 layer_factory.hpp:114] Creating layer pool4
I1017 11:22:34.817003 28820 net.cpp:160] Creating Layer pool4
I1017 11:22:34.817005 28820 net.cpp:596] pool4 <- drop4
I1017 11:22:34.817011 28820 net.cpp:570] pool4 -> pool4
I1017 11:22:34.817039 28820 net.cpp:210] Setting up pool4
I1017 11:22:34.817044 28820 net.cpp:217] Top shape: 64 128 6 6 (294912)
I1017 11:22:34.817046 28820 net.cpp:225] Memory required for data: 2067411200
I1017 11:22:34.817050 28820 layer_factory.hpp:114] Creating layer fc1
I1017 11:22:34.817073 28820 net.cpp:160] Creating Layer fc1
I1017 11:22:34.817085 28820 net.cpp:596] fc1 <- pool4
I1017 11:22:34.817091 28820 net.cpp:570] fc1 -> fc1
I1017 11:22:34.877096 28820 net.cpp:210] Setting up fc1
I1017 11:22:34.877104 28820 net.cpp:217] Top shape: 64 1024 (65536)
I1017 11:22:34.877109 28820 net.cpp:225] Memory required for data: 2067673344
I1017 11:22:34.877128 28820 layer_factory.hpp:114] Creating layer dropout5
I1017 11:22:34.877133 28820 net.cpp:160] Creating Layer dropout5
I1017 11:22:34.877136 28820 net.cpp:596] dropout5 <- fc1
I1017 11:22:34.877142 28820 net.cpp:570] dropout5 -> drop5
I1017 11:22:34.877148 28820 net.cpp:210] Setting up dropout5
I1017 11:22:34.877151 28820 net.cpp:217] Top shape: 64 1024 (65536)
I1017 11:22:34.877153 28820 net.cpp:225] Memory required for data: 2067935488
I1017 11:22:34.877156 28820 layer_factory.hpp:114] Creating layer fc2
I1017 11:22:34.877173 28820 net.cpp:160] Creating Layer fc2
I1017 11:22:34.877176 28820 net.cpp:596] fc2 <- drop5
I1017 11:22:34.877179 28820 net.cpp:570] fc2 -> fc2
I1017 11:22:34.877230 28820 net.cpp:210] Setting up fc2
I1017 11:22:34.877234 28820 net.cpp:217] Top shape: 64 2 (128)
I1017 11:22:34.877238 28820 net.cpp:225] Memory required for data: 2067936000
I1017 11:22:34.877243 28820 layer_factory.hpp:114] Creating layer loss
I1017 11:22:34.877249 28820 net.cpp:160] Creating Layer loss
I1017 11:22:34.877251 28820 net.cpp:596] loss <- fc2
I1017 11:22:34.877267 28820 net.cpp:596] loss <- label
I1017 11:22:34.877274 28820 net.cpp:570] loss -> (automatic)
I1017 11:22:34.877287 28820 layer_factory.hpp:114] Creating layer loss
…
