…
I1017 11:23:04.125938 28870 net.cpp:484] The NetState phase (0) differed from the phase (1) specified by a rule in layer data
I1017 11:23:04.126026 28870 net.cpp:120] Initializing net from parameters: 
name: "HEP_CLASSIFIER"
state {
  phase: TRAIN
  level: 0
  stage: ""
}
layer {
  name: "data"
  type: "DummyData"
  top: "data"
  top: "label"
  include {
    phase: TRAIN
  }
  dummy_data_param {
    data_filler {
      type: "gaussian"
      std: 1
    }
    data_filler {
      type: "constant"
      value: 0
    }
    shape {
      dim: 64
      dim: 3
      dim: 124
      dim: 124
    }
    shape {
      dim: 64
      dim: 1
      dim: 1
      dim: 1
    }
  }
}
layer {
  name: "conv1"
  type: "Convolution"
  bottom: "data"
  top: "conv1"
  convolution_param {
    num_output: 128
    pad: 0
    kernel_size: 3
    stride: 1
    weight_filler {
      type: "msra"
    }
    bias_filler {
      type: "constant"
      value: 0
    }
  }
}
layer {
  name: "relu1"
  type: "ReLU"
  bottom: "conv1"
  top: "conv1"
  relu_param {
    negative_slope: 0.1
  }
}
layer {
  name: "dropout1"
  type: "Dropout"
  bottom: "conv1"
  top: "drop1"
}
layer {
  name: "pool1"
  type: "Pooling"
  bottom: "drop1"
  top: "pool1"
  pooling_param {
    pool: MAX
    kernel_size: 2
    stride: 2
  }
}
layer {
  name: "conv2"
  type: "Convolution"
  bottom: "pool1"
  top: "conv2"
  convolution_param {
    num_output: 128
    pad: 0
    kernel_size: 3
    stride: 1
    weight_filler {
      type: "msra"
    }
    bias_filler {
      type: "constant"
      value: 0
    }
  }
}
layer {
  name: "relu2"
  type: "ReLU"
  bottom: "conv2"
  top: "conv2"
  relu_param {
    negative_slope: 0.1
  }
}
layer {
  name: "dropout2"
  type: "Dropout"
  bottom: "conv2"
  top: "drop2"
}
layer {
  name: "pool2"
  type: "Pooling"
  bottom: "drop2"
  top: "pool2"
  pooling_param {
    pool: MAX
    kernel_size: 2
    stride: 2
  }
}
layer {
  name: "conv3"
  type: "Convolution"
  bottom: "pool2"
  top: "conv3"
  convolution_param {
    num_output: 128
    pad: 0
    kernel_size: 3
    stride: 1
    weight_filler {
      type: "msra"
    }
    bias_filler {
      type: "constant"
      value: 0
    }
  }
}
layer {
  name: "relu3"
  type: "ReLU"
  bottom: "conv3"
  top: "conv3"
  relu_param {
    negative_slope: 0.1
  }
}
layer {
  name: "dropout3"
  type: "Dropout"
  bottom: "conv3"
  top: "drop3"
}
layer {
  name: "pool3"
  type: "Pooling"
  bottom: "drop3"
  top: "pool3"
  pooling_param {
    pool: MAX
    kernel_size: 2
    stride: 2
  }
}
layer {
  name: "conv4"
  type: "Convolution"
  bottom: "pool3"
  top: "conv4"
  convolution_param {
    num_output: 128
    pad: 0
    kernel_size: 3
    stride: 1
    weight_filler {
      type: "msra"
    }
    bias_filler {
      type: "constant"
      value: 0
    }
  }
}
layer {
  name: "relu4"
  type: "ReLU"
  bottom: "conv4"
  top: "conv4"
  relu_param {
    negative_slope: 0.1
  }
}
layer {
  name: "dropout4"
  type: "Dropout"
  bottom: "conv4"
  top: "drop4"
}
layer {
  name: "pool4"
  type: "Pooling"
  bottom: "drop4"
  top: "pool4"
  pooling_param {
    pool: MAX
    kernel_size: 2
    stride: 2
  }
}
layer {
  name: "fc1"
  type: "InnerProduct"
  bottom: "pool4"
  top: "fc1"
  inner_product_param {
    num_output: 1024
    weight_filler {
      type: "msra"
    }
    bias_filler {
      type: "constant"
      value: 0
    }
  }
}
layer {
  name: "dropout5"
  type: "Dropout"
  bottom: "fc1"
  top: "drop5"
}
layer {
  name: "fc2"
  type: "InnerProduct"
  bottom: "drop5"
  top: "fc2"
  inner_product_param {
    num_output: 2
    weight_filler {
      type: "msra"
    }
    bias_filler {
      type: "constant"
      value: 0
    }
  }
}
layer {
  name: "loss"
  type: "SoftmaxWithLoss"
  bottom: "fc2"
  bottom: "label"
}
I1017 11:23:04.126163 28870 layer_factory.hpp:114] Creating layer data
I1017 11:23:04.126173 28870 net.cpp:160] Creating Layer data
I1017 11:23:04.126176 28870 net.cpp:570] data -> data
I1017 11:23:04.126188 28870 net.cpp:570] data -> label
I1017 11:23:04.126372 28870 net.cpp:210] Setting up data
I1017 11:23:04.126380 28870 net.cpp:217] Top shape: 64 3 124 124 (2952192)
I1017 11:23:04.126390 28870 net.cpp:217] Top shape: 64 1 1 1 (64)
I1017 11:23:04.126394 28870 net.cpp:225] Memory required for data: 11809024
I1017 11:23:04.126397 28870 layer_factory.hpp:114] Creating layer conv1
I1017 11:23:04.126412 28870 net.cpp:160] Creating Layer conv1
I1017 11:23:04.126416 28870 net.cpp:596] conv1 <- data
I1017 11:23:04.126422 28870 net.cpp:570] conv1 -> conv1
I1017 11:23:04.136682 28870 net.cpp:210] Setting up conv1
I1017 11:23:04.136696 28870 net.cpp:217] Top shape: 64 128 122 122 (121929728)
I1017 11:23:04.136713 28870 net.cpp:225] Memory required for data: 499527936
I1017 11:23:04.136726 28870 layer_factory.hpp:114] Creating layer relu1
I1017 11:23:04.136736 28870 net.cpp:160] Creating Layer relu1
I1017 11:23:04.136742 28870 net.cpp:596] relu1 <- conv1
I1017 11:23:04.136747 28870 net.cpp:557] relu1 -> conv1 (in-place)
I1017 11:23:04.136770 28870 net.cpp:210] Setting up relu1
I1017 11:23:04.136772 28870 net.cpp:217] Top shape: 64 128 122 122 (121929728)
I1017 11:23:04.136776 28870 net.cpp:225] Memory required for data: 987246848
I1017 11:23:04.136778 28870 layer_factory.hpp:114] Creating layer dropout1
I1017 11:23:04.136783 28870 net.cpp:160] Creating Layer dropout1
I1017 11:23:04.136785 28870 net.cpp:596] dropout1 <- conv1
I1017 11:23:04.136790 28870 net.cpp:570] dropout1 -> drop1
I1017 11:23:04.136795 28870 net.cpp:210] Setting up dropout1
I1017 11:23:04.136801 28870 net.cpp:217] Top shape: 64 128 122 122 (121929728)
I1017 11:23:04.136803 28870 net.cpp:225] Memory required for data: 1474965760
I1017 11:23:04.136806 28870 layer_factory.hpp:114] Creating layer pool1
I1017 11:23:04.136813 28870 net.cpp:160] Creating Layer pool1
I1017 11:23:04.136819 28870 net.cpp:596] pool1 <- drop1
I1017 11:23:04.136823 28870 net.cpp:570] pool1 -> pool1
I1017 11:23:04.136840 28870 net.cpp:210] Setting up pool1
I1017 11:23:04.136844 28870 net.cpp:217] Top shape: 64 128 61 61 (30482432)
I1017 11:23:04.136847 28870 net.cpp:225] Memory required for data: 1596895488
I1017 11:23:04.136848 28870 layer_factory.hpp:114] Creating layer conv2
I1017 11:23:04.136862 28870 net.cpp:160] Creating Layer conv2
I1017 11:23:04.136864 28870 net.cpp:596] conv2 <- pool1
I1017 11:23:04.136869 28870 net.cpp:570] conv2 -> conv2
I1017 11:23:04.154780 28870 net.cpp:210] Setting up conv2
I1017 11:23:04.154814 28870 net.cpp:217] Top shape: 64 128 59 59 (28516352)
I1017 11:23:04.154820 28870 net.cpp:225] Memory required for data: 1710960896
I1017 11:23:04.154832 28870 layer_factory.hpp:114] Creating layer relu2
I1017 11:23:04.154842 28870 net.cpp:160] Creating Layer relu2
I1017 11:23:04.154845 28870 net.cpp:596] relu2 <- conv2
I1017 11:23:04.154852 28870 net.cpp:557] relu2 -> conv2 (in-place)
I1017 11:23:04.154867 28870 net.cpp:210] Setting up relu2
I1017 11:23:04.154871 28870 net.cpp:217] Top shape: 64 128 59 59 (28516352)
I1017 11:23:04.154875 28870 net.cpp:225] Memory required for data: 1825026304
I1017 11:23:04.154877 28870 layer_factory.hpp:114] Creating layer dropout2
I1017 11:23:04.154881 28870 net.cpp:160] Creating Layer dropout2
I1017 11:23:04.154883 28870 net.cpp:596] dropout2 <- conv2
I1017 11:23:04.154887 28870 net.cpp:570] dropout2 -> drop2
I1017 11:23:04.154893 28870 net.cpp:210] Setting up dropout2
I1017 11:23:04.154901 28870 net.cpp:217] Top shape: 64 128 59 59 (28516352)
I1017 11:23:04.154903 28870 net.cpp:225] Memory required for data: 1939091712
I1017 11:23:04.154906 28870 layer_factory.hpp:114] Creating layer pool2
I1017 11:23:04.154916 28870 net.cpp:160] Creating Layer pool2
I1017 11:23:04.154919 28870 net.cpp:596] pool2 <- drop2
I1017 11:23:04.154923 28870 net.cpp:570] pool2 -> pool2
I1017 11:23:04.154935 28870 net.cpp:210] Setting up pool2
I1017 11:23:04.154940 28870 net.cpp:217] Top shape: 64 128 30 30 (7372800)
I1017 11:23:04.154943 28870 net.cpp:225] Memory required for data: 1968582912
I1017 11:23:04.154945 28870 layer_factory.hpp:114] Creating layer conv3
I1017 11:23:04.154958 28870 net.cpp:160] Creating Layer conv3
I1017 11:23:04.154961 28870 net.cpp:596] conv3 <- pool2
I1017 11:23:04.154966 28870 net.cpp:570] conv3 -> conv3
I1017 11:23:04.162807 28870 net.cpp:210] Setting up conv3
I1017 11:23:04.162817 28870 net.cpp:217] Top shape: 64 128 28 28 (6422528)
I1017 11:23:04.162822 28870 net.cpp:225] Memory required for data: 1994273024
I1017 11:23:04.162832 28870 layer_factory.hpp:114] Creating layer relu3
I1017 11:23:04.162840 28870 net.cpp:160] Creating Layer relu3
I1017 11:23:04.162842 28870 net.cpp:596] relu3 <- conv3
I1017 11:23:04.162848 28870 net.cpp:557] relu3 -> conv3 (in-place)
I1017 11:23:04.162874 28870 net.cpp:210] Setting up relu3
I1017 11:23:04.162880 28870 net.cpp:217] Top shape: 64 128 28 28 (6422528)
I1017 11:23:04.162883 28870 net.cpp:225] Memory required for data: 2019963136
I1017 11:23:04.162886 28870 layer_factory.hpp:114] Creating layer dropout3
I1017 11:23:04.162890 28870 net.cpp:160] Creating Layer dropout3
I1017 11:23:04.162892 28870 net.cpp:596] dropout3 <- conv3
I1017 11:23:04.162897 28870 net.cpp:570] dropout3 -> drop3
I1017 11:23:04.162902 28870 net.cpp:210] Setting up dropout3
I1017 11:23:04.162904 28870 net.cpp:217] Top shape: 64 128 28 28 (6422528)
I1017 11:23:04.162907 28870 net.cpp:225] Memory required for data: 2045653248
I1017 11:23:04.162909 28870 layer_factory.hpp:114] Creating layer pool3
I1017 11:23:04.162915 28870 net.cpp:160] Creating Layer pool3
I1017 11:23:04.162917 28870 net.cpp:596] pool3 <- drop3
I1017 11:23:04.162920 28870 net.cpp:570] pool3 -> pool3
I1017 11:23:04.162935 28870 net.cpp:210] Setting up pool3
I1017 11:23:04.162936 28870 net.cpp:217] Top shape: 64 128 14 14 (1605632)
I1017 11:23:04.162940 28870 net.cpp:225] Memory required for data: 2052075776
I1017 11:23:04.162941 28870 layer_factory.hpp:114] Creating layer conv4
I1017 11:23:04.162952 28870 net.cpp:160] Creating Layer conv4
I1017 11:23:04.162955 28870 net.cpp:596] conv4 <- pool3
I1017 11:23:04.162958 28870 net.cpp:570] conv4 -> conv4
I1017 11:23:04.168151 28870 net.cpp:210] Setting up conv4
I1017 11:23:04.168159 28870 net.cpp:217] Top shape: 64 128 12 12 (1179648)
I1017 11:23:04.168162 28870 net.cpp:225] Memory required for data: 2056794368
I1017 11:23:04.168180 28870 layer_factory.hpp:114] Creating layer relu4
I1017 11:23:04.168189 28870 net.cpp:160] Creating Layer relu4
I1017 11:23:04.168190 28870 net.cpp:596] relu4 <- conv4
I1017 11:23:04.168195 28870 net.cpp:557] relu4 -> conv4 (in-place)
I1017 11:23:04.168205 28870 net.cpp:210] Setting up relu4
I1017 11:23:04.168207 28870 net.cpp:217] Top shape: 64 128 12 12 (1179648)
I1017 11:23:04.168210 28870 net.cpp:225] Memory required for data: 2061512960
I1017 11:23:04.168223 28870 layer_factory.hpp:114] Creating layer dropout4
I1017 11:23:04.168229 28870 net.cpp:160] Creating Layer dropout4
I1017 11:23:04.168231 28870 net.cpp:596] dropout4 <- conv4
I1017 11:23:04.168234 28870 net.cpp:570] dropout4 -> drop4
I1017 11:23:04.168239 28870 net.cpp:210] Setting up dropout4
I1017 11:23:04.168241 28870 net.cpp:217] Top shape: 64 128 12 12 (1179648)
I1017 11:23:04.168244 28870 net.cpp:225] Memory required for data: 2066231552
I1017 11:23:04.168246 28870 layer_factory.hpp:114] Creating layer pool4
I1017 11:23:04.168253 28870 net.cpp:160] Creating Layer pool4
I1017 11:23:04.168274 28870 net.cpp:596] pool4 <- drop4
I1017 11:23:04.168280 28870 net.cpp:570] pool4 -> pool4
I1017 11:23:04.168297 28870 net.cpp:210] Setting up pool4
I1017 11:23:04.168300 28870 net.cpp:217] Top shape: 64 128 6 6 (294912)
I1017 11:23:04.168303 28870 net.cpp:225] Memory required for data: 2067411200
I1017 11:23:04.168308 28870 layer_factory.hpp:114] Creating layer fc1
I1017 11:23:04.168318 28870 net.cpp:160] Creating Layer fc1
I1017 11:23:04.168323 28870 net.cpp:596] fc1 <- pool4
I1017 11:23:04.168328 28870 net.cpp:570] fc1 -> fc1
I1017 11:23:04.223448 28870 net.cpp:210] Setting up fc1
I1017 11:23:04.223458 28870 net.cpp:217] Top shape: 64 1024 (65536)
I1017 11:23:04.223461 28870 net.cpp:225] Memory required for data: 2067673344
I1017 11:23:04.223482 28870 layer_factory.hpp:114] Creating layer dropout5
I1017 11:23:04.223487 28870 net.cpp:160] Creating Layer dropout5
I1017 11:23:04.223490 28870 net.cpp:596] dropout5 <- fc1
I1017 11:23:04.223507 28870 net.cpp:570] dropout5 -> drop5
I1017 11:23:04.223513 28870 net.cpp:210] Setting up dropout5
I1017 11:23:04.223515 28870 net.cpp:217] Top shape: 64 1024 (65536)
I1017 11:23:04.223518 28870 net.cpp:225] Memory required for data: 2067935488
I1017 11:23:04.223520 28870 layer_factory.hpp:114] Creating layer fc2
I1017 11:23:04.223526 28870 net.cpp:160] Creating Layer fc2
I1017 11:23:04.223528 28870 net.cpp:596] fc2 <- drop5
I1017 11:23:04.223544 28870 net.cpp:570] fc2 -> fc2
I1017 11:23:04.223582 28870 net.cpp:210] Setting up fc2
I1017 11:23:04.223598 28870 net.cpp:217] Top shape: 64 2 (128)
I1017 11:23:04.223601 28870 net.cpp:225] Memory required for data: 2067936000
I1017 11:23:04.223606 28870 layer_factory.hpp:114] Creating layer loss
I1017 11:23:04.223613 28870 net.cpp:160] Creating Layer loss
I1017 11:23:04.223626 28870 net.cpp:596] loss <- fc2
I1017 11:23:04.223628 28870 net.cpp:596] loss <- label
I1017 11:23:04.223645 28870 net.cpp:570] loss -> (automatic)
I1017 11:23:04.223652 28870 layer_factory.hpp:114] Creating layer loss
…
