…
I1017 11:21:47.001447 28658 net.cpp:484] The NetState phase (0) differed from the phase (1) specified by a rule in layer data
I1017 11:21:47.001538 28658 net.cpp:120] Initializing net from parameters: 
name: "HEP_CLASSIFIER"
state {
  phase: TRAIN
  level: 0
  stage: ""
}
layer {
  name: "data"
  type: "DummyData"
  top: "data"
  top: "label"
  include {
    phase: TRAIN
  }
  dummy_data_param {
    data_filler {
      type: "gaussian"
      std: 1
    }
    data_filler {
      type: "constant"
      value: 0
    }
    shape {
      dim: 64
      dim: 3
      dim: 124
      dim: 124
    }
    shape {
      dim: 64
      dim: 1
      dim: 1
      dim: 1
    }
  }
}
layer {
  name: "conv1"
  type: "Convolution"
  bottom: "data"
  top: "conv1"
  convolution_param {
    num_output: 128
    pad: 0
    kernel_size: 3
    stride: 1
    weight_filler {
      type: "msra"
    }
    bias_filler {
      type: "constant"
      value: 0
    }
  }
}
layer {
  name: "relu1"
  type: "ReLU"
  bottom: "conv1"
  top: "conv1"
  relu_param {
    negative_slope: 0.1
  }
}
layer {
  name: "dropout1"
  type: "Dropout"
  bottom: "conv1"
  top: "drop1"
}
layer {
  name: "pool1"
  type: "Pooling"
  bottom: "drop1"
  top: "pool1"
  pooling_param {
    pool: MAX
    kernel_size: 2
    stride: 2
  }
}
layer {
  name: "conv2"
  type: "Convolution"
  bottom: "pool1"
  top: "conv2"
  convolution_param {
    num_output: 128
    pad: 0
    kernel_size: 3
    stride: 1
    weight_filler {
      type: "msra"
    }
    bias_filler {
      type: "constant"
      value: 0
    }
  }
}
layer {
  name: "relu2"
  type: "ReLU"
  bottom: "conv2"
  top: "conv2"
  relu_param {
    negative_slope: 0.1
  }
}
layer {
  name: "dropout2"
  type: "Dropout"
  bottom: "conv2"
  top: "drop2"
}
layer {
  name: "pool2"
  type: "Pooling"
  bottom: "drop2"
  top: "pool2"
  pooling_param {
    pool: MAX
    kernel_size: 2
    stride: 2
  }
}
layer {
  name: "conv3"
  type: "Convolution"
  bottom: "pool2"
  top: "conv3"
  convolution_param {
    num_output: 128
    pad: 0
    kernel_size: 3
    stride: 1
    weight_filler {
      type: "msra"
    }
    bias_filler {
      type: "constant"
      value: 0
    }
  }
}
layer {
  name: "relu3"
  type: "ReLU"
  bottom: "conv3"
  top: "conv3"
  relu_param {
    negative_slope: 0.1
  }
}
layer {
  name: "dropout3"
  type: "Dropout"
  bottom: "conv3"
  top: "drop3"
}
layer {
  name: "pool3"
  type: "Pooling"
  bottom: "drop3"
  top: "pool3"
  pooling_param {
    pool: MAX
    kernel_size: 2
    stride: 2
  }
}
layer {
  name: "conv4"
  type: "Convolution"
  bottom: "pool3"
  top: "conv4"
  convolution_param {
    num_output: 128
    pad: 0
    kernel_size: 3
    stride: 1
    weight_filler {
      type: "msra"
    }
    bias_filler {
      type: "constant"
      value: 0
    }
  }
}
layer {
  name: "relu4"
  type: "ReLU"
  bottom: "conv4"
  top: "conv4"
  relu_param {
    negative_slope: 0.1
  }
}
layer {
  name: "dropout4"
  type: "Dropout"
  bottom: "conv4"
  top: "drop4"
}
layer {
  name: "pool4"
  type: "Pooling"
  bottom: "drop4"
  top: "pool4"
  pooling_param {
    pool: MAX
    kernel_size: 2
    stride: 2
  }
}
layer {
  name: "fc1"
  type: "InnerProduct"
  bottom: "pool4"
  top: "fc1"
  inner_product_param {
    num_output: 1024
    weight_filler {
      type: "msra"
    }
    bias_filler {
      type: "constant"
      value: 0
    }
  }
}
layer {
  name: "dropout5"
  type: "Dropout"
  bottom: "fc1"
  top: "drop5"
}
layer {
  name: "fc2"
  type: "InnerProduct"
  bottom: "drop5"
  top: "fc2"
  inner_product_param {
    num_output: 2
    weight_filler {
      type: "msra"
    }
    bias_filler {
      type: "constant"
      value: 0
    }
  }
}
layer {
  name: "loss"
  type: "SoftmaxWithLoss"
  bottom: "fc2"
  bottom: "label"
}
I1017 11:21:47.001677 28658 layer_factory.hpp:114] Creating layer data
I1017 11:21:47.001688 28658 net.cpp:160] Creating Layer data
I1017 11:21:47.001690 28658 net.cpp:570] data -> data
I1017 11:21:47.001701 28658 net.cpp:570] data -> label
I1017 11:21:47.001937 28658 net.cpp:210] Setting up data
I1017 11:21:47.001945 28658 net.cpp:217] Top shape: 64 3 124 124 (2952192)
I1017 11:21:47.001955 28658 net.cpp:217] Top shape: 64 1 1 1 (64)
I1017 11:21:47.001958 28658 net.cpp:225] Memory required for data: 11809024
I1017 11:21:47.001961 28658 layer_factory.hpp:114] Creating layer conv1
I1017 11:21:47.001976 28658 net.cpp:160] Creating Layer conv1
I1017 11:21:47.001981 28658 net.cpp:596] conv1 <- data
I1017 11:21:47.001986 28658 net.cpp:570] conv1 -> conv1
I1017 11:21:47.026790 28658 net.cpp:210] Setting up conv1
I1017 11:21:47.026809 28658 net.cpp:217] Top shape: 64 128 122 122 (121929728)
I1017 11:21:47.026816 28658 net.cpp:225] Memory required for data: 499527936
I1017 11:21:47.026831 28658 layer_factory.hpp:114] Creating layer relu1
I1017 11:21:47.026845 28658 net.cpp:160] Creating Layer relu1
I1017 11:21:47.026849 28658 net.cpp:596] relu1 <- conv1
I1017 11:21:47.026854 28658 net.cpp:557] relu1 -> conv1 (in-place)
I1017 11:21:47.026873 28658 net.cpp:210] Setting up relu1
I1017 11:21:47.026876 28658 net.cpp:217] Top shape: 64 128 122 122 (121929728)
I1017 11:21:47.026880 28658 net.cpp:225] Memory required for data: 987246848
I1017 11:21:47.026882 28658 layer_factory.hpp:114] Creating layer dropout1
I1017 11:21:47.026885 28658 net.cpp:160] Creating Layer dropout1
I1017 11:21:47.026887 28658 net.cpp:596] dropout1 <- conv1
I1017 11:21:47.026891 28658 net.cpp:570] dropout1 -> drop1
I1017 11:21:47.026897 28658 net.cpp:210] Setting up dropout1
I1017 11:21:47.026899 28658 net.cpp:217] Top shape: 64 128 122 122 (121929728)
I1017 11:21:47.026901 28658 net.cpp:225] Memory required for data: 1474965760
I1017 11:21:47.026904 28658 layer_factory.hpp:114] Creating layer pool1
I1017 11:21:47.026912 28658 net.cpp:160] Creating Layer pool1
I1017 11:21:47.026918 28658 net.cpp:596] pool1 <- drop1
I1017 11:21:47.026921 28658 net.cpp:570] pool1 -> pool1
I1017 11:21:47.026942 28658 net.cpp:210] Setting up pool1
I1017 11:21:47.026949 28658 net.cpp:217] Top shape: 64 128 61 61 (30482432)
I1017 11:21:47.026955 28658 net.cpp:225] Memory required for data: 1596895488
I1017 11:21:47.026957 28658 layer_factory.hpp:114] Creating layer conv2
I1017 11:21:47.026971 28658 net.cpp:160] Creating Layer conv2
I1017 11:21:47.026974 28658 net.cpp:596] conv2 <- pool1
I1017 11:21:47.026979 28658 net.cpp:570] conv2 -> conv2
I1017 11:21:47.194377 28658 net.cpp:210] Setting up conv2
I1017 11:21:47.194409 28658 net.cpp:217] Top shape: 64 128 59 59 (28516352)
I1017 11:21:47.194418 28658 net.cpp:225] Memory required for data: 1710960896
I1017 11:21:47.194434 28658 layer_factory.hpp:114] Creating layer relu2
I1017 11:21:47.194449 28658 net.cpp:160] Creating Layer relu2
I1017 11:21:47.194453 28658 net.cpp:596] relu2 <- conv2
I1017 11:21:47.194459 28658 net.cpp:557] relu2 -> conv2 (in-place)
I1017 11:21:47.194494 28658 net.cpp:210] Setting up relu2
I1017 11:21:47.194497 28658 net.cpp:217] Top shape: 64 128 59 59 (28516352)
I1017 11:21:47.194500 28658 net.cpp:225] Memory required for data: 1825026304
I1017 11:21:47.194502 28658 layer_factory.hpp:114] Creating layer dropout2
I1017 11:21:47.194507 28658 net.cpp:160] Creating Layer dropout2
I1017 11:21:47.194509 28658 net.cpp:596] dropout2 <- conv2
I1017 11:21:47.194515 28658 net.cpp:570] dropout2 -> drop2
I1017 11:21:47.194522 28658 net.cpp:210] Setting up dropout2
I1017 11:21:47.194525 28658 net.cpp:217] Top shape: 64 128 59 59 (28516352)
I1017 11:21:47.194527 28658 net.cpp:225] Memory required for data: 1939091712
I1017 11:21:47.194530 28658 layer_factory.hpp:114] Creating layer pool2
I1017 11:21:47.194540 28658 net.cpp:160] Creating Layer pool2
I1017 11:21:47.194542 28658 net.cpp:596] pool2 <- drop2
I1017 11:21:47.194545 28658 net.cpp:570] pool2 -> pool2
I1017 11:21:47.194573 28658 net.cpp:210] Setting up pool2
I1017 11:21:47.194584 28658 net.cpp:217] Top shape: 64 128 30 30 (7372800)
I1017 11:21:47.194587 28658 net.cpp:225] Memory required for data: 1968582912
I1017 11:21:47.194589 28658 layer_factory.hpp:114] Creating layer conv3
I1017 11:21:47.194604 28658 net.cpp:160] Creating Layer conv3
I1017 11:21:47.194607 28658 net.cpp:596] conv3 <- pool2
I1017 11:21:47.194617 28658 net.cpp:570] conv3 -> conv3
I1017 11:21:47.238884 28658 net.cpp:210] Setting up conv3
I1017 11:21:47.238911 28658 net.cpp:217] Top shape: 64 128 28 28 (6422528)
I1017 11:21:47.238922 28658 net.cpp:225] Memory required for data: 1994273024
I1017 11:21:47.238939 28658 layer_factory.hpp:114] Creating layer relu3
I1017 11:21:47.238953 28658 net.cpp:160] Creating Layer relu3
I1017 11:21:47.238956 28658 net.cpp:596] relu3 <- conv3
I1017 11:21:47.238962 28658 net.cpp:557] relu3 -> conv3 (in-place)
I1017 11:21:47.238986 28658 net.cpp:210] Setting up relu3
I1017 11:21:47.239007 28658 net.cpp:217] Top shape: 64 128 28 28 (6422528)
I1017 11:21:47.239018 28658 net.cpp:225] Memory required for data: 2019963136
I1017 11:21:47.239020 28658 layer_factory.hpp:114] Creating layer dropout3
I1017 11:21:47.239027 28658 net.cpp:160] Creating Layer dropout3
I1017 11:21:47.239028 28658 net.cpp:596] dropout3 <- conv3
I1017 11:21:47.239034 28658 net.cpp:570] dropout3 -> drop3
I1017 11:21:47.239042 28658 net.cpp:210] Setting up dropout3
I1017 11:21:47.239044 28658 net.cpp:217] Top shape: 64 128 28 28 (6422528)
I1017 11:21:47.239048 28658 net.cpp:225] Memory required for data: 2045653248
I1017 11:21:47.239049 28658 layer_factory.hpp:114] Creating layer pool3
I1017 11:21:47.239069 28658 net.cpp:160] Creating Layer pool3
I1017 11:21:47.239074 28658 net.cpp:596] pool3 <- drop3
I1017 11:21:47.239078 28658 net.cpp:570] pool3 -> pool3
I1017 11:21:47.239094 28658 net.cpp:210] Setting up pool3
I1017 11:21:47.239096 28658 net.cpp:217] Top shape: 64 128 14 14 (1605632)
I1017 11:21:47.239099 28658 net.cpp:225] Memory required for data: 2052075776
I1017 11:21:47.239102 28658 layer_factory.hpp:114] Creating layer conv4
I1017 11:21:47.239123 28658 net.cpp:160] Creating Layer conv4
I1017 11:21:47.239125 28658 net.cpp:596] conv4 <- pool3
I1017 11:21:47.239130 28658 net.cpp:570] conv4 -> conv4
I1017 11:21:47.255416 28658 net.cpp:210] Setting up conv4
I1017 11:21:47.255429 28658 net.cpp:217] Top shape: 64 128 12 12 (1179648)
I1017 11:21:47.255445 28658 net.cpp:225] Memory required for data: 2056794368
I1017 11:21:47.255453 28658 layer_factory.hpp:114] Creating layer relu4
I1017 11:21:47.255462 28658 net.cpp:160] Creating Layer relu4
I1017 11:21:47.255465 28658 net.cpp:596] relu4 <- conv4
I1017 11:21:47.255470 28658 net.cpp:557] relu4 -> conv4 (in-place)
I1017 11:21:47.255492 28658 net.cpp:210] Setting up relu4
I1017 11:21:47.255494 28658 net.cpp:217] Top shape: 64 128 12 12 (1179648)
I1017 11:21:47.255497 28658 net.cpp:225] Memory required for data: 2061512960
I1017 11:21:47.255499 28658 layer_factory.hpp:114] Creating layer dropout4
I1017 11:21:47.255504 28658 net.cpp:160] Creating Layer dropout4
I1017 11:21:47.255517 28658 net.cpp:596] dropout4 <- conv4
I1017 11:21:47.255522 28658 net.cpp:570] dropout4 -> drop4
I1017 11:21:47.255527 28658 net.cpp:210] Setting up dropout4
I1017 11:21:47.255528 28658 net.cpp:217] Top shape: 64 128 12 12 (1179648)
I1017 11:21:47.255532 28658 net.cpp:225] Memory required for data: 2066231552
I1017 11:21:47.255533 28658 layer_factory.hpp:114] Creating layer pool4
I1017 11:21:47.255542 28658 net.cpp:160] Creating Layer pool4
I1017 11:21:47.255543 28658 net.cpp:596] pool4 <- drop4
I1017 11:21:47.255549 28658 net.cpp:570] pool4 -> pool4
I1017 11:21:47.255585 28658 net.cpp:210] Setting up pool4
I1017 11:21:47.255589 28658 net.cpp:217] Top shape: 64 128 6 6 (294912)
I1017 11:21:47.255591 28658 net.cpp:225] Memory required for data: 2067411200
I1017 11:21:47.255595 28658 layer_factory.hpp:114] Creating layer fc1
I1017 11:21:47.255619 28658 net.cpp:160] Creating Layer fc1
I1017 11:21:47.255620 28658 net.cpp:596] fc1 <- pool4
I1017 11:21:47.255635 28658 net.cpp:570] fc1 -> fc1
I1017 11:21:47.309952 28658 net.cpp:210] Setting up fc1
I1017 11:21:47.309958 28658 net.cpp:217] Top shape: 64 1024 (65536)
I1017 11:21:47.309962 28658 net.cpp:225] Memory required for data: 2067673344
I1017 11:21:47.309969 28658 layer_factory.hpp:114] Creating layer dropout5
I1017 11:21:47.309976 28658 net.cpp:160] Creating Layer dropout5
I1017 11:21:47.309978 28658 net.cpp:596] dropout5 <- fc1
I1017 11:21:47.309981 28658 net.cpp:570] dropout5 -> drop5
I1017 11:21:47.309988 28658 net.cpp:210] Setting up dropout5
I1017 11:21:47.309988 28658 net.cpp:217] Top shape: 64 1024 (65536)
I1017 11:21:47.309991 28658 net.cpp:225] Memory required for data: 2067935488
I1017 11:21:47.309993 28658 layer_factory.hpp:114] Creating layer fc2
I1017 11:21:47.309999 28658 net.cpp:160] Creating Layer fc2
I1017 11:21:47.310000 28658 net.cpp:596] fc2 <- drop5
I1017 11:21:47.310003 28658 net.cpp:570] fc2 -> fc2
I1017 11:21:47.310052 28658 net.cpp:210] Setting up fc2
I1017 11:21:47.310068 28658 net.cpp:217] Top shape: 64 2 (128)
I1017 11:21:47.310071 28658 net.cpp:225] Memory required for data: 2067936000
I1017 11:21:47.310076 28658 layer_factory.hpp:114] Creating layer loss
I1017 11:21:47.310082 28658 net.cpp:160] Creating Layer loss
I1017 11:21:47.310084 28658 net.cpp:596] loss <- fc2
I1017 11:21:47.310086 28658 net.cpp:596] loss <- label
I1017 11:21:47.310103 28658 net.cpp:570] loss -> (automatic)
I1017 11:21:47.310112 28658 layer_factory.hpp:114] Creating layer loss
…
