…
I1017 11:07:12.817549 250397 net.cpp:484] The NetState phase (0) differed from the phase (1) specified by a rule in layer data
I1017 11:07:12.818291 250397 net.cpp:120] Initializing net from parameters: 
name: "HEP_CLASSIFIER"
state {
  phase: TRAIN
  level: 0
  stage: ""
}
layer {
  name: "data"
  type: "DummyData"
  top: "data"
  top: "label"
  include {
    phase: TRAIN
  }
  dummy_data_param {
    data_filler {
      type: "gaussian"
      std: 1
    }
    data_filler {
      type: "constant"
      value: 0
    }
    shape {
      dim: 64
      dim: 3
      dim: 124
      dim: 124
    }
    shape {
      dim: 64
      dim: 1
      dim: 1
      dim: 1
    }
  }
}
layer {
  name: "conv1"
  type: "Convolution"
  bottom: "data"
  top: "conv1"
  convolution_param {
    num_output: 128
    pad: 0
    kernel_size: 3
    stride: 1
    weight_filler {
      type: "msra"
    }
    bias_filler {
      type: "constant"
      value: 0
    }
  }
}
layer {
  name: "relu1"
  type: "ReLU"
  bottom: "conv1"
  top: "conv1"
  relu_param {
    negative_slope: 0.1
  }
}
layer {
  name: "dropout1"
  type: "Dropout"
  bottom: "conv1"
  top: "drop1"
}
layer {
  name: "pool1"
  type: "Pooling"
  bottom: "drop1"
  top: "pool1"
  pooling_param {
    pool: MAX
    kernel_size: 2
    stride: 2
  }
}
layer {
  name: "conv2"
  type: "Convolution"
  bottom: "pool1"
  top: "conv2"
  convolution_param {
    num_output: 128
    pad: 0
    kernel_size: 3
    stride: 1
    weight_filler {
      type: "msra"
    }
    bias_filler {
      type: "constant"
      value: 0
    }
  }
}
layer {
  name: "relu2"
  type: "ReLU"
  bottom: "conv2"
  top: "conv2"
  relu_param {
    negative_slope: 0.1
  }
}
layer {
  name: "dropout2"
  type: "Dropout"
  bottom: "conv2"
  top: "drop2"
}
layer {
  name: "pool2"
  type: "Pooling"
  bottom: "drop2"
  top: "pool2"
  pooling_param {
    pool: MAX
    kernel_size: 2
    stride: 2
  }
}
layer {
  name: "conv3"
  type: "Convolution"
  bottom: "pool2"
  top: "conv3"
  convolution_param {
    num_output: 128
    pad: 0
    kernel_size: 3
    stride: 1
    weight_filler {
      type: "msra"
    }
    bias_filler {
      type: "constant"
      value: 0
    }
  }
}
layer {
  name: "relu3"
  type: "ReLU"
  bottom: "conv3"
  top: "conv3"
  relu_param {
    negative_slope: 0.1
  }
}
layer {
  name: "dropout3"
  type: "Dropout"
  bottom: "conv3"
  top: "drop3"
}
layer {
  name: "pool3"
  type: "Pooling"
  bottom: "drop3"
  top: "pool3"
  pooling_param {
    pool: MAX
    kernel_size: 2
    stride: 2
  }
}
layer {
  name: "conv4"
  type: "Convolution"
  bottom: "pool3"
  top: "conv4"
  convolution_param {
    num_output: 128
    pad: 0
    kernel_size: 3
    stride: 1
    weight_filler {
      type: "msra"
    }
    bias_filler {
      type: "constant"
      value: 0
    }
  }
}
layer {
  name: "relu4"
  type: "ReLU"
  bottom: "conv4"
  top: "conv4"
  relu_param {
    negative_slope: 0.1
  }
}
layer {
  name: "dropout4"
  type: "Dropout"
  bottom: "conv4"
  top: "drop4"
}
layer {
  name: "pool4"
  type: "Pooling"
  bottom: "drop4"
  top: "pool4"
  pooling_param {
    pool: MAX
    kernel_size: 2
    stride: 2
  }
}
layer {
  name: "fc1"
  type: "InnerProduct"
  bottom: "pool4"
  top: "fc1"
  inner_product_param {
    num_output: 1024
    weight_filler {
      type: "msra"
    }
    bias_filler {
      type: "constant"
      value: 0
    }
  }
}
layer {
  name: "dropout5"
  type: "Dropout"
  bottom: "fc1"
  top: "drop5"
}
layer {
  name: "fc2"
  type: "InnerProduct"
  bottom: "drop5"
  top: "fc2"
  inner_product_param {
    num_output: 2
    weight_filler {
      type: "msra"
    }
    bias_filler {
      type: "constant"
      value: 0
    }
  }
}
layer {
  name: "loss"
  type: "SoftmaxWithLoss"
  bottom: "fc2"
  bottom: "label"
}
I1017 11:07:12.819824 250397 layer_factory.hpp:114] Creating layer data
I1017 11:07:12.819902 250397 net.cpp:160] Creating Layer data
I1017 11:07:12.819938 250397 net.cpp:570] data -> data
I1017 11:07:12.820008 250397 net.cpp:570] data -> label
I1017 11:07:12.843093 250397 net.cpp:210] Setting up data
I1017 11:07:12.843204 250397 net.cpp:217] Top shape: 64 3 124 124 (2952192)
I1017 11:07:12.843268 250397 net.cpp:217] Top shape: 64 1 1 1 (64)
I1017 11:07:12.843307 250397 net.cpp:225] Memory required for data: 11809024
I1017 11:07:12.843343 250397 layer_factory.hpp:114] Creating layer conv1
I1017 11:07:12.843451 250397 net.cpp:160] Creating Layer conv1
I1017 11:07:12.843649 250397 net.cpp:596] conv1 <- data
I1017 11:07:12.843744 250397 net.cpp:570] conv1 -> conv1
I1017 11:07:13.006628 250397 net.cpp:210] Setting up conv1
I1017 11:07:13.006733 250397 net.cpp:217] Top shape: 64 128 122 122 (121929728)
I1017 11:07:13.006809 250397 net.cpp:225] Memory required for data: 499527936
I1017 11:07:13.006935 250397 layer_factory.hpp:114] Creating layer relu1
I1017 11:07:13.007048 250397 net.cpp:160] Creating Layer relu1
I1017 11:07:13.007097 250397 net.cpp:596] relu1 <- conv1
I1017 11:07:13.007153 250397 net.cpp:557] relu1 -> conv1 (in-place)
I1017 11:07:13.013048 250397 net.cpp:210] Setting up relu1
I1017 11:07:13.013136 250397 net.cpp:217] Top shape: 64 128 122 122 (121929728)
I1017 11:07:13.013185 250397 net.cpp:225] Memory required for data: 987246848
I1017 11:07:13.013217 250397 layer_factory.hpp:114] Creating layer dropout1
I1017 11:07:13.013267 250397 net.cpp:160] Creating Layer dropout1
I1017 11:07:13.013298 250397 net.cpp:596] dropout1 <- conv1
I1017 11:07:13.013340 250397 net.cpp:570] dropout1 -> drop1
I1017 11:07:13.013404 250397 net.cpp:210] Setting up dropout1
I1017 11:07:13.013437 250397 net.cpp:217] Top shape: 64 128 122 122 (121929728)
I1017 11:07:13.013475 250397 net.cpp:225] Memory required for data: 1474965760
I1017 11:07:13.013504 250397 layer_factory.hpp:114] Creating layer pool1
I1017 11:07:13.013581 250397 net.cpp:160] Creating Layer pool1
I1017 11:07:13.013651 250397 net.cpp:596] pool1 <- drop1
I1017 11:07:13.013782 250397 net.cpp:570] pool1 -> pool1
I1017 11:07:13.018735 250397 net.cpp:210] Setting up pool1
I1017 11:07:13.018826 250397 net.cpp:217] Top shape: 64 128 61 61 (30482432)
I1017 11:07:13.018868 250397 net.cpp:225] Memory required for data: 1596895488
I1017 11:07:13.018898 250397 layer_factory.hpp:114] Creating layer conv2
I1017 11:07:13.018975 250397 net.cpp:160] Creating Layer conv2
I1017 11:07:13.019011 250397 net.cpp:596] conv2 <- pool1
I1017 11:07:13.019057 250397 net.cpp:570] conv2 -> conv2
I1017 11:07:13.595553 250397 net.cpp:210] Setting up conv2
I1017 11:07:13.595690 250397 net.cpp:217] Top shape: 64 128 59 59 (28516352)
I1017 11:07:13.595759 250397 net.cpp:225] Memory required for data: 1710960896
I1017 11:07:13.595849 250397 layer_factory.hpp:114] Creating layer relu2
I1017 11:07:13.595942 250397 net.cpp:160] Creating Layer relu2
I1017 11:07:13.595986 250397 net.cpp:596] relu2 <- conv2
I1017 11:07:13.596045 250397 net.cpp:557] relu2 -> conv2 (in-place)
I1017 11:07:13.600602 250397 net.cpp:210] Setting up relu2
I1017 11:07:13.600689 250397 net.cpp:217] Top shape: 64 128 59 59 (28516352)
I1017 11:07:13.600735 250397 net.cpp:225] Memory required for data: 1825026304
I1017 11:07:13.600767 250397 layer_factory.hpp:114] Creating layer dropout2
I1017 11:07:13.600818 250397 net.cpp:160] Creating Layer dropout2
I1017 11:07:13.600852 250397 net.cpp:596] dropout2 <- conv2
I1017 11:07:13.600896 250397 net.cpp:570] dropout2 -> drop2
I1017 11:07:13.600962 250397 net.cpp:210] Setting up dropout2
I1017 11:07:13.600994 250397 net.cpp:217] Top shape: 64 128 59 59 (28516352)
I1017 11:07:13.601032 250397 net.cpp:225] Memory required for data: 1939091712
I1017 11:07:13.601085 250397 layer_factory.hpp:114] Creating layer pool2
I1017 11:07:13.601145 250397 net.cpp:160] Creating Layer pool2
I1017 11:07:13.601173 250397 net.cpp:596] pool2 <- drop2
I1017 11:07:13.601250 250397 net.cpp:570] pool2 -> pool2
I1017 11:07:13.605746 250397 net.cpp:210] Setting up pool2
I1017 11:07:13.605834 250397 net.cpp:217] Top shape: 64 128 30 30 (7372800)
I1017 11:07:13.605876 250397 net.cpp:225] Memory required for data: 1968582912
I1017 11:07:13.605906 250397 layer_factory.hpp:114] Creating layer conv3
I1017 11:07:13.606014 250397 net.cpp:160] Creating Layer conv3
I1017 11:07:13.606052 250397 net.cpp:596] conv3 <- pool2
I1017 11:07:13.606112 250397 net.cpp:570] conv3 -> conv3
I1017 11:07:13.816927 250397 net.cpp:210] Setting up conv3
I1017 11:07:13.817028 250397 net.cpp:217] Top shape: 64 128 28 28 (6422528)
I1017 11:07:13.817088 250397 net.cpp:225] Memory required for data: 1994273024
I1017 11:07:13.817173 250397 layer_factory.hpp:114] Creating layer relu3
I1017 11:07:13.817286 250397 net.cpp:160] Creating Layer relu3
I1017 11:07:13.817339 250397 net.cpp:596] relu3 <- conv3
I1017 11:07:13.817406 250397 net.cpp:557] relu3 -> conv3 (in-place)
I1017 11:07:13.822542 250397 net.cpp:210] Setting up relu3
I1017 11:07:13.822633 250397 net.cpp:217] Top shape: 64 128 28 28 (6422528)
I1017 11:07:13.822675 250397 net.cpp:225] Memory required for data: 2019963136
I1017 11:07:13.822706 250397 layer_factory.hpp:114] Creating layer dropout3
I1017 11:07:13.822770 250397 net.cpp:160] Creating Layer dropout3
I1017 11:07:13.822805 250397 net.cpp:596] dropout3 <- conv3
I1017 11:07:13.822849 250397 net.cpp:570] dropout3 -> drop3
I1017 11:07:13.822917 250397 net.cpp:210] Setting up dropout3
I1017 11:07:13.822954 250397 net.cpp:217] Top shape: 64 128 28 28 (6422528)
I1017 11:07:13.822998 250397 net.cpp:225] Memory required for data: 2045653248
I1017 11:07:13.823032 250397 layer_factory.hpp:114] Creating layer pool3
I1017 11:07:13.823118 250397 net.cpp:160] Creating Layer pool3
I1017 11:07:13.823195 250397 net.cpp:596] pool3 <- drop3
I1017 11:07:13.823281 250397 net.cpp:570] pool3 -> pool3
I1017 11:07:13.827911 250397 net.cpp:210] Setting up pool3
I1017 11:07:13.828006 250397 net.cpp:217] Top shape: 64 128 14 14 (1605632)
I1017 11:07:13.828054 250397 net.cpp:225] Memory required for data: 2052075776
I1017 11:07:13.828088 250397 layer_factory.hpp:114] Creating layer conv4
I1017 11:07:13.828200 250397 net.cpp:160] Creating Layer conv4
I1017 11:07:13.828248 250397 net.cpp:596] conv4 <- pool3
I1017 11:07:13.828325 250397 net.cpp:570] conv4 -> conv4
I1017 11:07:13.949054 250397 net.cpp:210] Setting up conv4
I1017 11:07:13.949144 250397 net.cpp:217] Top shape: 64 128 12 12 (1179648)
I1017 11:07:13.949221 250397 net.cpp:225] Memory required for data: 2056794368
I1017 11:07:13.949290 250397 layer_factory.hpp:114] Creating layer relu4
I1017 11:07:13.949364 250397 net.cpp:160] Creating Layer relu4
I1017 11:07:13.949400 250397 net.cpp:596] relu4 <- conv4
I1017 11:07:13.949452 250397 net.cpp:557] relu4 -> conv4 (in-place)
I1017 11:07:13.953982 250397 net.cpp:210] Setting up relu4
I1017 11:07:13.954072 250397 net.cpp:217] Top shape: 64 128 12 12 (1179648)
I1017 11:07:13.954118 250397 net.cpp:225] Memory required for data: 2061512960
I1017 11:07:13.954150 250397 layer_factory.hpp:114] Creating layer dropout4
I1017 11:07:13.954212 250397 net.cpp:160] Creating Layer dropout4
I1017 11:07:13.954246 250397 net.cpp:596] dropout4 <- conv4
I1017 11:07:13.954289 250397 net.cpp:570] dropout4 -> drop4
I1017 11:07:13.954358 250397 net.cpp:210] Setting up dropout4
I1017 11:07:13.954392 250397 net.cpp:217] Top shape: 64 128 12 12 (1179648)
I1017 11:07:13.954430 250397 net.cpp:225] Memory required for data: 2066231552
I1017 11:07:13.954463 250397 layer_factory.hpp:114] Creating layer pool4
I1017 11:07:13.954526 250397 net.cpp:160] Creating Layer pool4
I1017 11:07:13.954563 250397 net.cpp:596] pool4 <- drop4
I1017 11:07:13.954663 250397 net.cpp:570] pool4 -> pool4
I1017 11:07:13.959081 250397 net.cpp:210] Setting up pool4
I1017 11:07:13.959197 250397 net.cpp:217] Top shape: 64 128 6 6 (294912)
I1017 11:07:13.959244 250397 net.cpp:225] Memory required for data: 2067411200
I1017 11:07:13.959275 250397 layer_factory.hpp:114] Creating layer fc1
I1017 11:07:13.959357 250397 net.cpp:160] Creating Layer fc1
I1017 11:07:13.959396 250397 net.cpp:596] fc1 <- pool4
I1017 11:07:13.959446 250397 net.cpp:570] fc1 -> fc1
I1017 11:07:14.195361 250397 net.cpp:210] Setting up fc1
I1017 11:07:14.195449 250397 net.cpp:217] Top shape: 64 1024 (65536)
I1017 11:07:14.195514 250397 net.cpp:225] Memory required for data: 2067673344
I1017 11:07:14.195641 250397 layer_factory.hpp:114] Creating layer dropout5
I1017 11:07:14.195708 250397 net.cpp:160] Creating Layer dropout5
I1017 11:07:14.195735 250397 net.cpp:596] dropout5 <- fc1
I1017 11:07:14.195775 250397 net.cpp:570] dropout5 -> drop5
I1017 11:07:14.195844 250397 net.cpp:210] Setting up dropout5
I1017 11:07:14.195875 250397 net.cpp:217] Top shape: 64 1024 (65536)
I1017 11:07:14.195910 250397 net.cpp:225] Memory required for data: 2067935488
I1017 11:07:14.195937 250397 layer_factory.hpp:114] Creating layer fc2
I1017 11:07:14.196053 250397 net.cpp:160] Creating Layer fc2
I1017 11:07:14.196102 250397 net.cpp:596] fc2 <- drop5
I1017 11:07:14.196166 250397 net.cpp:570] fc2 -> fc2
I1017 11:07:14.199810 250397 net.cpp:210] Setting up fc2
I1017 11:07:14.199900 250397 net.cpp:217] Top shape: 64 2 (128)
I1017 11:07:14.199939 250397 net.cpp:225] Memory required for data: 2067936000
I1017 11:07:14.199993 250397 layer_factory.hpp:114] Creating layer loss
I1017 11:07:14.200057 250397 net.cpp:160] Creating Layer loss
I1017 11:07:14.200088 250397 net.cpp:596] loss <- fc2
I1017 11:07:14.200131 250397 net.cpp:596] loss <- label
I1017 11:07:14.200187 250397 net.cpp:570] loss -> (automatic)
I1017 11:07:14.200253 250397 layer_factory.hpp:114] Creating layer loss
…
