…
I1017 11:06:55.299546 250310 net.cpp:484] The NetState phase (0) differed from the phase (1) specified by a rule in layer data
I1017 11:06:55.300142 250310 net.cpp:120] Initializing net from parameters: 
name: "HEP_CLASSIFIER"
state {
  phase: TRAIN
  level: 0
  stage: ""
}
layer {
  name: "data"
  type: "DummyData"
  top: "data"
  top: "label"
  include {
    phase: TRAIN
  }
  dummy_data_param {
    data_filler {
      type: "gaussian"
      std: 1
    }
    data_filler {
      type: "constant"
      value: 0
    }
    shape {
      dim: 64
      dim: 3
      dim: 124
      dim: 124
    }
    shape {
      dim: 64
      dim: 1
      dim: 1
      dim: 1
    }
  }
}
layer {
  name: "conv1"
  type: "Convolution"
  bottom: "data"
  top: "conv1"
  convolution_param {
    num_output: 128
    pad: 0
    kernel_size: 3
    stride: 1
    weight_filler {
      type: "msra"
    }
    bias_filler {
      type: "constant"
      value: 0
    }
  }
}
layer {
  name: "relu1"
  type: "ReLU"
  bottom: "conv1"
  top: "conv1"
  relu_param {
    negative_slope: 0.1
  }
}
layer {
  name: "dropout1"
  type: "Dropout"
  bottom: "conv1"
  top: "drop1"
}
layer {
  name: "pool1"
  type: "Pooling"
  bottom: "drop1"
  top: "pool1"
  pooling_param {
    pool: MAX
    kernel_size: 2
    stride: 2
  }
}
layer {
  name: "conv2"
  type: "Convolution"
  bottom: "pool1"
  top: "conv2"
  convolution_param {
    num_output: 128
    pad: 0
    kernel_size: 3
    stride: 1
    weight_filler {
      type: "msra"
    }
    bias_filler {
      type: "constant"
      value: 0
    }
  }
}
layer {
  name: "relu2"
  type: "ReLU"
  bottom: "conv2"
  top: "conv2"
  relu_param {
    negative_slope: 0.1
  }
}
layer {
  name: "dropout2"
  type: "Dropout"
  bottom: "conv2"
  top: "drop2"
}
layer {
  name: "pool2"
  type: "Pooling"
  bottom: "drop2"
  top: "pool2"
  pooling_param {
    pool: MAX
    kernel_size: 2
    stride: 2
  }
}
layer {
  name: "conv3"
  type: "Convolution"
  bottom: "pool2"
  top: "conv3"
  convolution_param {
    num_output: 128
    pad: 0
    kernel_size: 3
    stride: 1
    weight_filler {
      type: "msra"
    }
    bias_filler {
      type: "constant"
      value: 0
    }
  }
}
layer {
  name: "relu3"
  type: "ReLU"
  bottom: "conv3"
  top: "conv3"
  relu_param {
    negative_slope: 0.1
  }
}
layer {
  name: "dropout3"
  type: "Dropout"
  bottom: "conv3"
  top: "drop3"
}
layer {
  name: "pool3"
  type: "Pooling"
  bottom: "drop3"
  top: "pool3"
  pooling_param {
    pool: MAX
    kernel_size: 2
    stride: 2
  }
}
layer {
  name: "conv4"
  type: "Convolution"
  bottom: "pool3"
  top: "conv4"
  convolution_param {
    num_output: 128
    pad: 0
    kernel_size: 3
    stride: 1
    weight_filler {
      type: "msra"
    }
    bias_filler {
      type: "constant"
      value: 0
    }
  }
}
layer {
  name: "relu4"
  type: "ReLU"
  bottom: "conv4"
  top: "conv4"
  relu_param {
    negative_slope: 0.1
  }
}
layer {
  name: "dropout4"
  type: "Dropout"
  bottom: "conv4"
  top: "drop4"
}
layer {
  name: "pool4"
  type: "Pooling"
  bottom: "drop4"
  top: "pool4"
  pooling_param {
    pool: MAX
    kernel_size: 2
    stride: 2
  }
}
layer {
  name: "fc1"
  type: "InnerProduct"
  bottom: "pool4"
  top: "fc1"
  inner_product_param {
    num_output: 1024
    weight_filler {
      type: "msra"
    }
    bias_filler {
      type: "constant"
      value: 0
    }
  }
}
layer {
  name: "dropout5"
  type: "Dropout"
  bottom: "fc1"
  top: "drop5"
}
layer {
  name: "fc2"
  type: "InnerProduct"
  bottom: "drop5"
  top: "fc2"
  inner_product_param {
    num_output: 2
    weight_filler {
      type: "msra"
    }
    bias_filler {
      type: "constant"
      value: 0
    }
  }
}
layer {
  name: "loss"
  type: "SoftmaxWithLoss"
  bottom: "fc2"
  bottom: "label"
}
I1017 11:06:55.301774 250310 layer_factory.hpp:114] Creating layer data
I1017 11:06:55.301856 250310 net.cpp:160] Creating Layer data
I1017 11:06:55.301890 250310 net.cpp:570] data -> data
I1017 11:06:55.301962 250310 net.cpp:570] data -> label
I1017 11:06:55.325147 250310 net.cpp:210] Setting up data
I1017 11:06:55.325256 250310 net.cpp:217] Top shape: 64 3 124 124 (2952192)
I1017 11:06:55.325320 250310 net.cpp:217] Top shape: 64 1 1 1 (64)
I1017 11:06:55.325357 250310 net.cpp:225] Memory required for data: 11809024
I1017 11:06:55.325390 250310 layer_factory.hpp:114] Creating layer conv1
I1017 11:06:55.325510 250310 net.cpp:160] Creating Layer conv1
I1017 11:06:55.325556 250310 net.cpp:596] conv1 <- data
I1017 11:06:55.325636 250310 net.cpp:570] conv1 -> conv1
I1017 11:06:55.507993 250310 net.cpp:210] Setting up conv1
I1017 11:06:55.508095 250310 net.cpp:217] Top shape: 64 128 122 122 (121929728)
I1017 11:06:55.508168 250310 net.cpp:225] Memory required for data: 499527936
I1017 11:06:55.508301 250310 layer_factory.hpp:114] Creating layer relu1
I1017 11:06:55.508419 250310 net.cpp:160] Creating Layer relu1
I1017 11:06:55.508476 250310 net.cpp:596] relu1 <- conv1
I1017 11:06:55.508548 250310 net.cpp:557] relu1 -> conv1 (in-place)
I1017 11:06:55.513702 250310 net.cpp:210] Setting up relu1
I1017 11:06:55.513790 250310 net.cpp:217] Top shape: 64 128 122 122 (121929728)
I1017 11:06:55.513833 250310 net.cpp:225] Memory required for data: 987246848
I1017 11:06:55.513864 250310 layer_factory.hpp:114] Creating layer dropout1
I1017 11:06:55.513913 250310 net.cpp:160] Creating Layer dropout1
I1017 11:06:55.513942 250310 net.cpp:596] dropout1 <- conv1
I1017 11:06:55.513984 250310 net.cpp:570] dropout1 -> drop1
I1017 11:06:55.514053 250310 net.cpp:210] Setting up dropout1
I1017 11:06:55.514086 250310 net.cpp:217] Top shape: 64 128 122 122 (121929728)
I1017 11:06:55.514127 250310 net.cpp:225] Memory required for data: 1474965760
I1017 11:06:55.514163 250310 layer_factory.hpp:114] Creating layer pool1
I1017 11:06:55.514248 250310 net.cpp:160] Creating Layer pool1
I1017 11:06:55.514325 250310 net.cpp:596] pool1 <- drop1
I1017 11:06:55.514572 250310 net.cpp:570] pool1 -> pool1
I1017 11:06:55.519186 250310 net.cpp:210] Setting up pool1
I1017 11:06:55.519273 250310 net.cpp:217] Top shape: 64 128 61 61 (30482432)
I1017 11:06:55.519318 250310 net.cpp:225] Memory required for data: 1596895488
I1017 11:06:55.519348 250310 layer_factory.hpp:114] Creating layer conv2
I1017 11:06:55.519428 250310 net.cpp:160] Creating Layer conv2
I1017 11:06:55.519460 250310 net.cpp:596] conv2 <- pool1
I1017 11:06:55.519505 250310 net.cpp:570] conv2 -> conv2
I1017 11:06:56.308229 250310 net.cpp:210] Setting up conv2
I1017 11:06:56.308318 250310 net.cpp:217] Top shape: 64 128 59 59 (28516352)
I1017 11:06:56.308379 250310 net.cpp:225] Memory required for data: 1710960896
I1017 11:06:56.308462 250310 layer_factory.hpp:114] Creating layer relu2
I1017 11:06:56.308554 250310 net.cpp:160] Creating Layer relu2
I1017 11:06:56.308600 250310 net.cpp:596] relu2 <- conv2
I1017 11:06:56.308661 250310 net.cpp:557] relu2 -> conv2 (in-place)
I1017 11:06:56.313730 250310 net.cpp:210] Setting up relu2
I1017 11:06:56.313819 250310 net.cpp:217] Top shape: 64 128 59 59 (28516352)
I1017 11:06:56.313864 250310 net.cpp:225] Memory required for data: 1825026304
I1017 11:06:56.313895 250310 layer_factory.hpp:114] Creating layer dropout2
I1017 11:06:56.313944 250310 net.cpp:160] Creating Layer dropout2
I1017 11:06:56.313973 250310 net.cpp:596] dropout2 <- conv2
I1017 11:06:56.314015 250310 net.cpp:570] dropout2 -> drop2
I1017 11:06:56.314086 250310 net.cpp:210] Setting up dropout2
I1017 11:06:56.314119 250310 net.cpp:217] Top shape: 64 128 59 59 (28516352)
I1017 11:06:56.314162 250310 net.cpp:225] Memory required for data: 1939091712
I1017 11:06:56.314224 250310 layer_factory.hpp:114] Creating layer pool2
I1017 11:06:56.314335 250310 net.cpp:160] Creating Layer pool2
I1017 11:06:56.314405 250310 net.cpp:596] pool2 <- drop2
I1017 11:06:56.314519 250310 net.cpp:570] pool2 -> pool2
I1017 11:06:56.318856 250310 net.cpp:210] Setting up pool2
I1017 11:06:56.318944 250310 net.cpp:217] Top shape: 64 128 30 30 (7372800)
I1017 11:06:56.318987 250310 net.cpp:225] Memory required for data: 1968582912
I1017 11:06:56.319015 250310 layer_factory.hpp:114] Creating layer conv3
I1017 11:06:56.319093 250310 net.cpp:160] Creating Layer conv3
I1017 11:06:56.319126 250310 net.cpp:596] conv3 <- pool2
I1017 11:06:56.319170 250310 net.cpp:570] conv3 -> conv3
I1017 11:06:56.580080 250310 net.cpp:210] Setting up conv3
I1017 11:06:56.580174 250310 net.cpp:217] Top shape: 64 128 28 28 (6422528)
I1017 11:06:56.580224 250310 net.cpp:225] Memory required for data: 1994273024
I1017 11:06:56.580298 250310 layer_factory.hpp:114] Creating layer relu3
I1017 11:06:56.580371 250310 net.cpp:160] Creating Layer relu3
I1017 11:06:56.580411 250310 net.cpp:596] relu3 <- conv3
I1017 11:06:56.580463 250310 net.cpp:557] relu3 -> conv3 (in-place)
I1017 11:06:56.585265 250310 net.cpp:210] Setting up relu3
I1017 11:06:56.585353 250310 net.cpp:217] Top shape: 64 128 28 28 (6422528)
I1017 11:06:56.585396 250310 net.cpp:225] Memory required for data: 2019963136
I1017 11:06:56.585425 250310 layer_factory.hpp:114] Creating layer dropout3
I1017 11:06:56.585470 250310 net.cpp:160] Creating Layer dropout3
I1017 11:06:56.585495 250310 net.cpp:596] dropout3 <- conv3
I1017 11:06:56.585535 250310 net.cpp:570] dropout3 -> drop3
I1017 11:06:56.585602 250310 net.cpp:210] Setting up dropout3
I1017 11:06:56.585634 250310 net.cpp:217] Top shape: 64 128 28 28 (6422528)
I1017 11:06:56.585672 250310 net.cpp:225] Memory required for data: 2045653248
I1017 11:06:56.585700 250310 layer_factory.hpp:114] Creating layer pool3
I1017 11:06:56.585757 250310 net.cpp:160] Creating Layer pool3
I1017 11:06:56.585791 250310 net.cpp:596] pool3 <- drop3
I1017 11:06:56.585837 250310 net.cpp:570] pool3 -> pool3
I1017 11:06:56.590200 250310 net.cpp:210] Setting up pool3
I1017 11:06:56.590286 250310 net.cpp:217] Top shape: 64 128 14 14 (1605632)
I1017 11:06:56.590325 250310 net.cpp:225] Memory required for data: 2052075776
I1017 11:06:56.590353 250310 layer_factory.hpp:114] Creating layer conv4
I1017 11:06:56.590427 250310 net.cpp:160] Creating Layer conv4
I1017 11:06:56.590456 250310 net.cpp:596] conv4 <- pool3
I1017 11:06:56.590502 250310 net.cpp:570] conv4 -> conv4
I1017 11:06:56.722895 250310 net.cpp:210] Setting up conv4
I1017 11:06:56.722980 250310 net.cpp:217] Top shape: 64 128 12 12 (1179648)
I1017 11:06:56.723024 250310 net.cpp:225] Memory required for data: 2056794368
I1017 11:06:56.723083 250310 layer_factory.hpp:114] Creating layer relu4
I1017 11:06:56.723145 250310 net.cpp:160] Creating Layer relu4
I1017 11:06:56.723176 250310 net.cpp:596] relu4 <- conv4
I1017 11:06:56.723220 250310 net.cpp:557] relu4 -> conv4 (in-place)
I1017 11:06:56.728233 250310 net.cpp:210] Setting up relu4
I1017 11:06:56.728322 250310 net.cpp:217] Top shape: 64 128 12 12 (1179648)
I1017 11:06:56.728363 250310 net.cpp:225] Memory required for data: 2061512960
I1017 11:06:56.728392 250310 layer_factory.hpp:114] Creating layer dropout4
I1017 11:06:56.728437 250310 net.cpp:160] Creating Layer dropout4
I1017 11:06:56.728461 250310 net.cpp:596] dropout4 <- conv4
I1017 11:06:56.728499 250310 net.cpp:570] dropout4 -> drop4
I1017 11:06:56.728564 250310 net.cpp:210] Setting up dropout4
I1017 11:06:56.728595 250310 net.cpp:217] Top shape: 64 128 12 12 (1179648)
I1017 11:06:56.728632 250310 net.cpp:225] Memory required for data: 2066231552
I1017 11:06:56.728662 250310 layer_factory.hpp:114] Creating layer pool4
I1017 11:06:56.728724 250310 net.cpp:160] Creating Layer pool4
I1017 11:06:56.728760 250310 net.cpp:596] pool4 <- drop4
I1017 11:06:56.728865 250310 net.cpp:570] pool4 -> pool4
I1017 11:06:56.733125 250310 net.cpp:210] Setting up pool4
I1017 11:06:56.733234 250310 net.cpp:217] Top shape: 64 128 6 6 (294912)
I1017 11:06:56.733275 250310 net.cpp:225] Memory required for data: 2067411200
I1017 11:06:56.733302 250310 layer_factory.hpp:114] Creating layer fc1
I1017 11:06:56.733374 250310 net.cpp:160] Creating Layer fc1
I1017 11:06:56.733407 250310 net.cpp:596] fc1 <- pool4
I1017 11:06:56.733463 250310 net.cpp:570] fc1 -> fc1
I1017 11:06:56.969374 250310 net.cpp:210] Setting up fc1
I1017 11:06:56.969463 250310 net.cpp:217] Top shape: 64 1024 (65536)
I1017 11:06:56.969503 250310 net.cpp:225] Memory required for data: 2067673344
I1017 11:06:56.969570 250310 layer_factory.hpp:114] Creating layer dropout5
I1017 11:06:56.969619 250310 net.cpp:160] Creating Layer dropout5
I1017 11:06:56.969643 250310 net.cpp:596] dropout5 <- fc1
I1017 11:06:56.969681 250310 net.cpp:570] dropout5 -> drop5
I1017 11:06:56.969743 250310 net.cpp:210] Setting up dropout5
I1017 11:06:56.969772 250310 net.cpp:217] Top shape: 64 1024 (65536)
I1017 11:06:56.969808 250310 net.cpp:225] Memory required for data: 2067935488
I1017 11:06:56.969837 250310 layer_factory.hpp:114] Creating layer fc2
I1017 11:06:56.969892 250310 net.cpp:160] Creating Layer fc2
I1017 11:06:56.969923 250310 net.cpp:596] fc2 <- drop5
I1017 11:06:56.970026 250310 net.cpp:570] fc2 -> fc2
I1017 11:06:56.973634 250310 net.cpp:210] Setting up fc2
I1017 11:06:56.973724 250310 net.cpp:217] Top shape: 64 2 (128)
I1017 11:06:56.973767 250310 net.cpp:225] Memory required for data: 2067936000
I1017 11:06:56.973824 250310 layer_factory.hpp:114] Creating layer loss
I1017 11:06:56.973891 250310 net.cpp:160] Creating Layer loss
I1017 11:06:56.973918 250310 net.cpp:596] loss <- fc2
I1017 11:06:56.973947 250310 net.cpp:596] loss <- label
I1017 11:06:56.973994 250310 net.cpp:570] loss -> (automatic)
I1017 11:06:56.974056 250310 layer_factory.hpp:114] Creating layer loss
…
