…
I1017 11:05:37.367913 249995 net.cpp:484] The NetState phase (0) differed from the phase (1) specified by a rule in layer data
I1017 11:05:37.368862 249995 net.cpp:120] Initializing net from parameters: 
name: "HEP_CLASSIFIER"
state {
  phase: TRAIN
  level: 0
  stage: ""
}
layer {
  name: "data"
  type: "DummyData"
  top: "data"
  top: "label"
  include {
    phase: TRAIN
  }
  dummy_data_param {
    data_filler {
      type: "gaussian"
      std: 1
    }
    data_filler {
      type: "constant"
      value: 0
    }
    shape {
      dim: 64
      dim: 3
      dim: 124
      dim: 124
    }
    shape {
      dim: 64
      dim: 1
      dim: 1
      dim: 1
    }
  }
}
layer {
  name: "conv1"
  type: "Convolution"
  bottom: "data"
  top: "conv1"
  convolution_param {
    num_output: 128
    pad: 0
    kernel_size: 3
    stride: 1
    weight_filler {
      type: "msra"
    }
    bias_filler {
      type: "constant"
      value: 0
    }
  }
}
layer {
  name: "relu1"
  type: "ReLU"
  bottom: "conv1"
  top: "conv1"
  relu_param {
    negative_slope: 0.1
  }
}
layer {
  name: "dropout1"
  type: "Dropout"
  bottom: "conv1"
  top: "drop1"
}
layer {
  name: "pool1"
  type: "Pooling"
  bottom: "drop1"
  top: "pool1"
  pooling_param {
    pool: MAX
    kernel_size: 2
    stride: 2
  }
}
layer {
  name: "conv2"
  type: "Convolution"
  bottom: "pool1"
  top: "conv2"
  convolution_param {
    num_output: 128
    pad: 0
    kernel_size: 3
    stride: 1
    weight_filler {
      type: "msra"
    }
    bias_filler {
      type: "constant"
      value: 0
    }
  }
}
layer {
  name: "relu2"
  type: "ReLU"
  bottom: "conv2"
  top: "conv2"
  relu_param {
    negative_slope: 0.1
  }
}
layer {
  name: "dropout2"
  type: "Dropout"
  bottom: "conv2"
  top: "drop2"
}
layer {
  name: "pool2"
  type: "Pooling"
  bottom: "drop2"
  top: "pool2"
  pooling_param {
    pool: MAX
    kernel_size: 2
    stride: 2
  }
}
layer {
  name: "conv3"
  type: "Convolution"
  bottom: "pool2"
  top: "conv3"
  convolution_param {
    num_output: 128
    pad: 0
    kernel_size: 3
    stride: 1
    weight_filler {
      type: "msra"
    }
    bias_filler {
      type: "constant"
      value: 0
    }
  }
}
layer {
  name: "relu3"
  type: "ReLU"
  bottom: "conv3"
  top: "conv3"
  relu_param {
    negative_slope: 0.1
  }
}
layer {
  name: "dropout3"
  type: "Dropout"
  bottom: "conv3"
  top: "drop3"
}
layer {
  name: "pool3"
  type: "Pooling"
  bottom: "drop3"
  top: "pool3"
  pooling_param {
    pool: MAX
    kernel_size: 2
    stride: 2
  }
}
layer {
  name: "conv4"
  type: "Convolution"
  bottom: "pool3"
  top: "conv4"
  convolution_param {
    num_output: 128
    pad: 0
    kernel_size: 3
    stride: 1
    weight_filler {
      type: "msra"
    }
    bias_filler {
      type: "constant"
      value: 0
    }
  }
}
layer {
  name: "relu4"
  type: "ReLU"
  bottom: "conv4"
  top: "conv4"
  relu_param {
    negative_slope: 0.1
  }
}
layer {
  name: "dropout4"
  type: "Dropout"
  bottom: "conv4"
  top: "drop4"
}
layer {
  name: "pool4"
  type: "Pooling"
  bottom: "drop4"
  top: "pool4"
  pooling_param {
    pool: MAX
    kernel_size: 2
    stride: 2
  }
}
layer {
  name: "fc1"
  type: "InnerProduct"
  bottom: "pool4"
  top: "fc1"
  inner_product_param {
    num_output: 1024
    weight_filler {
      type: "msra"
    }
    bias_filler {
      type: "constant"
      value: 0
    }
  }
}
layer {
  name: "dropout5"
  type: "Dropout"
  bottom: "fc1"
  top: "drop5"
}
layer {
  name: "fc2"
  type: "InnerProduct"
  bottom: "drop5"
  top: "fc2"
  inner_product_param {
    num_output: 2
    weight_filler {
      type: "msra"
    }
    bias_filler {
      type: "constant"
      value: 0
    }
  }
}
layer {
  name: "loss"
  type: "SoftmaxWithLoss"
  bottom: "fc2"
  bottom: "label"
}
I1017 11:05:37.370265 249995 layer_factory.hpp:114] Creating layer data
I1017 11:05:37.370344 249995 net.cpp:160] Creating Layer data
I1017 11:05:37.370380 249995 net.cpp:570] data -> data
I1017 11:05:37.370450 249995 net.cpp:570] data -> label
I1017 11:05:37.393457 249995 net.cpp:210] Setting up data
I1017 11:05:37.393568 249995 net.cpp:217] Top shape: 64 3 124 124 (2952192)
I1017 11:05:37.393628 249995 net.cpp:217] Top shape: 64 1 1 1 (64)
I1017 11:05:37.393663 249995 net.cpp:225] Memory required for data: 11809024
I1017 11:05:37.393697 249995 layer_factory.hpp:114] Creating layer conv1
I1017 11:05:37.393810 249995 net.cpp:160] Creating Layer conv1
I1017 11:05:37.393853 249995 net.cpp:596] conv1 <- data
I1017 11:05:37.393932 249995 net.cpp:570] conv1 -> conv1
I1017 11:05:37.600216 249995 net.cpp:210] Setting up conv1
I1017 11:05:37.600319 249995 net.cpp:217] Top shape: 64 128 122 122 (121929728)
I1017 11:05:37.600396 249995 net.cpp:225] Memory required for data: 499527936
I1017 11:05:37.600534 249995 layer_factory.hpp:114] Creating layer relu1
I1017 11:05:37.600657 249995 net.cpp:160] Creating Layer relu1
I1017 11:05:37.600716 249995 net.cpp:596] relu1 <- conv1
I1017 11:05:37.600791 249995 net.cpp:557] relu1 -> conv1 (in-place)
I1017 11:05:37.605945 249995 net.cpp:210] Setting up relu1
I1017 11:05:37.606034 249995 net.cpp:217] Top shape: 64 128 122 122 (121929728)
I1017 11:05:37.606081 249995 net.cpp:225] Memory required for data: 987246848
I1017 11:05:37.606114 249995 layer_factory.hpp:114] Creating layer dropout1
I1017 11:05:37.606168 249995 net.cpp:160] Creating Layer dropout1
I1017 11:05:37.606200 249995 net.cpp:596] dropout1 <- conv1
I1017 11:05:37.606248 249995 net.cpp:570] dropout1 -> drop1
I1017 11:05:37.606323 249995 net.cpp:210] Setting up dropout1
I1017 11:05:37.606375 249995 net.cpp:217] Top shape: 64 128 122 122 (121929728)
I1017 11:05:37.606451 249995 net.cpp:225] Memory required for data: 1474965760
I1017 11:05:37.606550 249995 layer_factory.hpp:114] Creating layer pool1
I1017 11:05:37.606757 249995 net.cpp:160] Creating Layer pool1
I1017 11:05:37.606834 249995 net.cpp:596] pool1 <- drop1
I1017 11:05:37.606946 249995 net.cpp:570] pool1 -> pool1
I1017 11:05:37.611487 249995 net.cpp:210] Setting up pool1
I1017 11:05:37.611614 249995 net.cpp:217] Top shape: 64 128 61 61 (30482432)
I1017 11:05:37.611712 249995 net.cpp:225] Memory required for data: 1596895488
I1017 11:05:37.611747 249995 layer_factory.hpp:114] Creating layer conv2
I1017 11:05:37.611834 249995 net.cpp:160] Creating Layer conv2
I1017 11:05:37.611871 249995 net.cpp:596] conv2 <- pool1
I1017 11:05:37.611935 249995 net.cpp:570] conv2 -> conv2
I1017 11:05:38.640498 249995 net.cpp:210] Setting up conv2
I1017 11:05:38.640593 249995 net.cpp:217] Top shape: 64 128 59 59 (28516352)
I1017 11:05:38.640655 249995 net.cpp:225] Memory required for data: 1710960896
I1017 11:05:38.640743 249995 layer_factory.hpp:114] Creating layer relu2
I1017 11:05:38.640830 249995 net.cpp:160] Creating Layer relu2
I1017 11:05:38.640877 249995 net.cpp:596] relu2 <- conv2
I1017 11:05:38.640943 249995 net.cpp:557] relu2 -> conv2 (in-place)
I1017 11:05:38.645980 249995 net.cpp:210] Setting up relu2
I1017 11:05:38.646069 249995 net.cpp:217] Top shape: 64 128 59 59 (28516352)
I1017 11:05:38.646116 249995 net.cpp:225] Memory required for data: 1825026304
I1017 11:05:38.646148 249995 layer_factory.hpp:114] Creating layer dropout2
I1017 11:05:38.646201 249995 net.cpp:160] Creating Layer dropout2
I1017 11:05:38.646232 249995 net.cpp:596] dropout2 <- conv2
I1017 11:05:38.646281 249995 net.cpp:570] dropout2 -> drop2
I1017 11:05:38.646358 249995 net.cpp:210] Setting up dropout2
I1017 11:05:38.646406 249995 net.cpp:217] Top shape: 64 128 59 59 (28516352)
I1017 11:05:38.646471 249995 net.cpp:225] Memory required for data: 1939091712
I1017 11:05:38.646607 249995 layer_factory.hpp:114] Creating layer pool2
I1017 11:05:38.646903 249995 net.cpp:160] Creating Layer pool2
I1017 11:05:38.646975 249995 net.cpp:596] pool2 <- drop2
I1017 11:05:38.647374 249995 net.cpp:570] pool2 -> pool2
I1017 11:05:38.651964 249995 net.cpp:210] Setting up pool2
I1017 11:05:38.652050 249995 net.cpp:217] Top shape: 64 128 30 30 (7372800)
I1017 11:05:38.652096 249995 net.cpp:225] Memory required for data: 1968582912
I1017 11:05:38.652124 249995 layer_factory.hpp:114] Creating layer conv3
I1017 11:05:38.652205 249995 net.cpp:160] Creating Layer conv3
I1017 11:05:38.652242 249995 net.cpp:596] conv3 <- pool2
I1017 11:05:38.652293 249995 net.cpp:570] conv3 -> conv3
I1017 11:05:38.974038 249995 net.cpp:210] Setting up conv3
I1017 11:05:38.974136 249995 net.cpp:217] Top shape: 64 128 28 28 (6422528)
I1017 11:05:38.974215 249995 net.cpp:225] Memory required for data: 1994273024
I1017 11:05:38.974334 249995 layer_factory.hpp:114] Creating layer relu3
I1017 11:05:38.974433 249995 net.cpp:160] Creating Layer relu3
I1017 11:05:38.974499 249995 net.cpp:596] relu3 <- conv3
I1017 11:05:38.974596 249995 net.cpp:557] relu3 -> conv3 (in-place)
I1017 11:05:38.979895 249995 net.cpp:210] Setting up relu3
I1017 11:05:38.979985 249995 net.cpp:217] Top shape: 64 128 28 28 (6422528)
I1017 11:05:38.980037 249995 net.cpp:225] Memory required for data: 2019963136
I1017 11:05:38.980077 249995 layer_factory.hpp:114] Creating layer dropout3
I1017 11:05:38.980132 249995 net.cpp:160] Creating Layer dropout3
I1017 11:05:38.980167 249995 net.cpp:596] dropout3 <- conv3
I1017 11:05:38.980223 249995 net.cpp:570] dropout3 -> drop3
I1017 11:05:38.980324 249995 net.cpp:210] Setting up dropout3
I1017 11:05:38.980376 249995 net.cpp:217] Top shape: 64 128 28 28 (6422528)
I1017 11:05:38.980500 249995 net.cpp:225] Memory required for data: 2045653248
I1017 11:05:38.980773 249995 layer_factory.hpp:114] Creating layer pool3
I1017 11:05:38.980916 249995 net.cpp:160] Creating Layer pool3
I1017 11:05:38.981218 249995 net.cpp:596] pool3 <- drop3
I1017 11:05:38.981355 249995 net.cpp:570] pool3 -> pool3
I1017 11:05:38.985613 249995 net.cpp:210] Setting up pool3
I1017 11:05:38.985700 249995 net.cpp:217] Top shape: 64 128 14 14 (1605632)
I1017 11:05:38.985752 249995 net.cpp:225] Memory required for data: 2052075776
I1017 11:05:38.985790 249995 layer_factory.hpp:114] Creating layer conv4
I1017 11:05:38.985880 249995 net.cpp:160] Creating Layer conv4
I1017 11:05:38.985923 249995 net.cpp:596] conv4 <- pool3
I1017 11:05:38.985980 249995 net.cpp:570] conv4 -> conv4
I1017 11:05:39.136168 249995 net.cpp:210] Setting up conv4
I1017 11:05:39.136258 249995 net.cpp:217] Top shape: 64 128 12 12 (1179648)
I1017 11:05:39.136317 249995 net.cpp:225] Memory required for data: 2056794368
I1017 11:05:39.136394 249995 layer_factory.hpp:114] Creating layer relu4
I1017 11:05:39.136466 249995 net.cpp:160] Creating Layer relu4
I1017 11:05:39.136507 249995 net.cpp:596] relu4 <- conv4
I1017 11:05:39.136560 249995 net.cpp:557] relu4 -> conv4 (in-place)
I1017 11:05:39.141614 249995 net.cpp:210] Setting up relu4
I1017 11:05:39.141703 249995 net.cpp:217] Top shape: 64 128 12 12 (1179648)
I1017 11:05:39.141755 249995 net.cpp:225] Memory required for data: 2061512960
I1017 11:05:39.141793 249995 layer_factory.hpp:114] Creating layer dropout4
I1017 11:05:39.141849 249995 net.cpp:160] Creating Layer dropout4
I1017 11:05:39.141882 249995 net.cpp:596] dropout4 <- conv4
I1017 11:05:39.141935 249995 net.cpp:570] dropout4 -> drop4
I1017 11:05:39.142020 249995 net.cpp:210] Setting up dropout4
I1017 11:05:39.142067 249995 net.cpp:217] Top shape: 64 128 12 12 (1179648)
I1017 11:05:39.142139 249995 net.cpp:225] Memory required for data: 2066231552
I1017 11:05:39.142251 249995 layer_factory.hpp:114] Creating layer pool4
I1017 11:05:39.142513 249995 net.cpp:160] Creating Layer pool4
I1017 11:05:39.142565 249995 net.cpp:596] pool4 <- drop4
I1017 11:05:39.142627 249995 net.cpp:570] pool4 -> pool4
I1017 11:05:39.146908 249995 net.cpp:210] Setting up pool4
I1017 11:05:39.147020 249995 net.cpp:217] Top shape: 64 128 6 6 (294912)
I1017 11:05:39.147073 249995 net.cpp:225] Memory required for data: 2067411200
I1017 11:05:39.147107 249995 layer_factory.hpp:114] Creating layer fc1
I1017 11:05:39.147187 249995 net.cpp:160] Creating Layer fc1
I1017 11:05:39.147223 249995 net.cpp:596] fc1 <- pool4
I1017 11:05:39.147276 249995 net.cpp:570] fc1 -> fc1
I1017 11:05:39.383483 249995 net.cpp:210] Setting up fc1
I1017 11:05:39.383616 249995 net.cpp:217] Top shape: 64 1024 (65536)
I1017 11:05:39.383671 249995 net.cpp:225] Memory required for data: 2067673344
I1017 11:05:39.383759 249995 layer_factory.hpp:114] Creating layer dropout5
I1017 11:05:39.383821 249995 net.cpp:160] Creating Layer dropout5
I1017 11:05:39.383857 249995 net.cpp:596] dropout5 <- fc1
I1017 11:05:39.383910 249995 net.cpp:570] dropout5 -> drop5
I1017 11:05:39.383999 249995 net.cpp:210] Setting up dropout5
I1017 11:05:39.384047 249995 net.cpp:217] Top shape: 64 1024 (65536)
I1017 11:05:39.384377 249995 net.cpp:225] Memory required for data: 2067935488
I1017 11:05:39.384446 249995 layer_factory.hpp:114] Creating layer fc2
I1017 11:05:39.384536 249995 net.cpp:160] Creating Layer fc2
I1017 11:05:39.384577 249995 net.cpp:596] fc2 <- drop5
I1017 11:05:39.384668 249995 net.cpp:570] fc2 -> fc2
I1017 11:05:39.388422 249995 net.cpp:210] Setting up fc2
I1017 11:05:39.388515 249995 net.cpp:217] Top shape: 64 2 (128)
I1017 11:05:39.388567 249995 net.cpp:225] Memory required for data: 2067936000
I1017 11:05:39.388639 249995 layer_factory.hpp:114] Creating layer loss
I1017 11:05:39.388717 249995 net.cpp:160] Creating Layer loss
I1017 11:05:39.388756 249995 net.cpp:596] loss <- fc2
I1017 11:05:39.388797 249995 net.cpp:596] loss <- label
I1017 11:05:39.388873 249995 net.cpp:570] loss -> (automatic)
I1017 11:05:39.389021 249995 layer_factory.hpp:114] Creating layer loss
…
