…
I1017 11:04:33.298809 249585 net.cpp:484] The NetState phase (0) differed from the phase (1) specified by a rule in layer data
I1017 11:04:33.299715 249585 net.cpp:120] Initializing net from parameters: 
name: "HEP_CLASSIFIER"
state {
  phase: TRAIN
  level: 0
  stage: ""
}
layer {
  name: "data"
  type: "DummyData"
  top: "data"
  top: "label"
  include {
    phase: TRAIN
  }
  dummy_data_param {
    data_filler {
      type: "gaussian"
      std: 1
    }
    data_filler {
      type: "constant"
      value: 0
    }
    shape {
      dim: 64
      dim: 3
      dim: 124
      dim: 124
    }
    shape {
      dim: 64
      dim: 1
      dim: 1
      dim: 1
    }
  }
}
layer {
  name: "conv1"
  type: "Convolution"
  bottom: "data"
  top: "conv1"
  convolution_param {
    num_output: 128
    pad: 0
    kernel_size: 3
    stride: 1
    weight_filler {
      type: "msra"
    }
    bias_filler {
      type: "constant"
      value: 0
    }
  }
}
layer {
  name: "relu1"
  type: "ReLU"
  bottom: "conv1"
  top: "conv1"
  relu_param {
    negative_slope: 0.1
  }
}
layer {
  name: "dropout1"
  type: "Dropout"
  bottom: "conv1"
  top: "drop1"
}
layer {
  name: "pool1"
  type: "Pooling"
  bottom: "drop1"
  top: "pool1"
  pooling_param {
    pool: MAX
    kernel_size: 2
    stride: 2
  }
}
layer {
  name: "conv2"
  type: "Convolution"
  bottom: "pool1"
  top: "conv2"
  convolution_param {
    num_output: 128
    pad: 0
    kernel_size: 3
    stride: 1
    weight_filler {
      type: "msra"
    }
    bias_filler {
      type: "constant"
      value: 0
    }
  }
}
layer {
  name: "relu2"
  type: "ReLU"
  bottom: "conv2"
  top: "conv2"
  relu_param {
    negative_slope: 0.1
  }
}
layer {
  name: "dropout2"
  type: "Dropout"
  bottom: "conv2"
  top: "drop2"
}
layer {
  name: "pool2"
  type: "Pooling"
  bottom: "drop2"
  top: "pool2"
  pooling_param {
    pool: MAX
    kernel_size: 2
    stride: 2
  }
}
layer {
  name: "conv3"
  type: "Convolution"
  bottom: "pool2"
  top: "conv3"
  convolution_param {
    num_output: 128
    pad: 0
    kernel_size: 3
    stride: 1
    weight_filler {
      type: "msra"
    }
    bias_filler {
      type: "constant"
      value: 0
    }
  }
}
layer {
  name: "relu3"
  type: "ReLU"
  bottom: "conv3"
  top: "conv3"
  relu_param {
    negative_slope: 0.1
  }
}
layer {
  name: "dropout3"
  type: "Dropout"
  bottom: "conv3"
  top: "drop3"
}
layer {
  name: "pool3"
  type: "Pooling"
  bottom: "drop3"
  top: "pool3"
  pooling_param {
    pool: MAX
    kernel_size: 2
    stride: 2
  }
}
layer {
  name: "conv4"
  type: "Convolution"
  bottom: "pool3"
  top: "conv4"
  convolution_param {
    num_output: 128
    pad: 0
    kernel_size: 3
    stride: 1
    weight_filler {
      type: "msra"
    }
    bias_filler {
      type: "constant"
      value: 0
    }
  }
}
layer {
  name: "relu4"
  type: "ReLU"
  bottom: "conv4"
  top: "conv4"
  relu_param {
    negative_slope: 0.1
  }
}
layer {
  name: "dropout4"
  type: "Dropout"
  bottom: "conv4"
  top: "drop4"
}
layer {
  name: "pool4"
  type: "Pooling"
  bottom: "drop4"
  top: "pool4"
  pooling_param {
    pool: MAX
    kernel_size: 2
    stride: 2
  }
}
layer {
  name: "fc1"
  type: "InnerProduct"
  bottom: "pool4"
  top: "fc1"
  inner_product_param {
    num_output: 1024
    weight_filler {
      type: "msra"
    }
    bias_filler {
      type: "constant"
      value: 0
    }
  }
}
layer {
  name: "dropout5"
  type: "Dropout"
  bottom: "fc1"
  top: "drop5"
}
layer {
  name: "fc2"
  type: "InnerProduct"
  bottom: "drop5"
  top: "fc2"
  inner_product_param {
    num_output: 2
    weight_filler {
      type: "msra"
    }
    bias_filler {
      type: "constant"
      value: 0
    }
  }
}
layer {
  name: "loss"
  type: "SoftmaxWithLoss"
  bottom: "fc2"
  bottom: "label"
}
I1017 11:04:33.301314 249585 layer_factory.hpp:114] Creating layer data
I1017 11:04:33.301394 249585 net.cpp:160] Creating Layer data
I1017 11:04:33.301427 249585 net.cpp:570] data -> data
I1017 11:04:33.301496 249585 net.cpp:570] data -> label
I1017 11:04:33.324661 249585 net.cpp:210] Setting up data
I1017 11:04:33.324769 249585 net.cpp:217] Top shape: 64 3 124 124 (2952192)
I1017 11:04:33.324829 249585 net.cpp:217] Top shape: 64 1 1 1 (64)
I1017 11:04:33.324865 249585 net.cpp:225] Memory required for data: 11809024
I1017 11:04:33.324899 249585 layer_factory.hpp:114] Creating layer conv1
I1017 11:04:33.325017 249585 net.cpp:160] Creating Layer conv1
I1017 11:04:33.325073 249585 net.cpp:596] conv1 <- data
I1017 11:04:33.325176 249585 net.cpp:570] conv1 -> conv1
I1017 11:04:33.531267 249585 net.cpp:210] Setting up conv1
I1017 11:04:33.531373 249585 net.cpp:217] Top shape: 64 128 122 122 (121929728)
I1017 11:04:33.531448 249585 net.cpp:225] Memory required for data: 499527936
I1017 11:04:33.531618 249585 layer_factory.hpp:114] Creating layer relu1
I1017 11:04:33.531752 249585 net.cpp:160] Creating Layer relu1
I1017 11:04:33.531810 249585 net.cpp:596] relu1 <- conv1
I1017 11:04:33.531899 249585 net.cpp:557] relu1 -> conv1 (in-place)
I1017 11:04:33.536705 249585 net.cpp:210] Setting up relu1
I1017 11:04:33.536795 249585 net.cpp:217] Top shape: 64 128 122 122 (121929728)
I1017 11:04:33.536840 249585 net.cpp:225] Memory required for data: 987246848
I1017 11:04:33.536875 249585 layer_factory.hpp:114] Creating layer dropout1
I1017 11:04:33.536926 249585 net.cpp:160] Creating Layer dropout1
I1017 11:04:33.536954 249585 net.cpp:596] dropout1 <- conv1
I1017 11:04:33.536998 249585 net.cpp:570] dropout1 -> drop1
I1017 11:04:33.537065 249585 net.cpp:210] Setting up dropout1
I1017 11:04:33.537104 249585 net.cpp:217] Top shape: 64 128 122 122 (121929728)
I1017 11:04:33.537147 249585 net.cpp:225] Memory required for data: 1474965760
I1017 11:04:33.537181 249585 layer_factory.hpp:114] Creating layer pool1
I1017 11:04:33.537282 249585 net.cpp:160] Creating Layer pool1
I1017 11:04:33.537456 249585 net.cpp:596] pool1 <- drop1
I1017 11:04:33.537542 249585 net.cpp:570] pool1 -> pool1
I1017 11:04:33.541972 249585 net.cpp:210] Setting up pool1
I1017 11:04:33.542062 249585 net.cpp:217] Top shape: 64 128 61 61 (30482432)
I1017 11:04:33.542104 249585 net.cpp:225] Memory required for data: 1596895488
I1017 11:04:33.542132 249585 layer_factory.hpp:114] Creating layer conv2
I1017 11:04:33.542210 249585 net.cpp:160] Creating Layer conv2
I1017 11:04:33.542242 249585 net.cpp:596] conv2 <- pool1
I1017 11:04:33.542287 249585 net.cpp:570] conv2 -> conv2
I1017 11:04:34.570745 249585 net.cpp:210] Setting up conv2
I1017 11:04:34.570837 249585 net.cpp:217] Top shape: 64 128 59 59 (28516352)
I1017 11:04:34.570899 249585 net.cpp:225] Memory required for data: 1710960896
I1017 11:04:34.570984 249585 layer_factory.hpp:114] Creating layer relu2
I1017 11:04:34.571074 249585 net.cpp:160] Creating Layer relu2
I1017 11:04:34.571123 249585 net.cpp:596] relu2 <- conv2
I1017 11:04:34.571183 249585 net.cpp:557] relu2 -> conv2 (in-place)
I1017 11:04:34.575628 249585 net.cpp:210] Setting up relu2
I1017 11:04:34.575711 249585 net.cpp:217] Top shape: 64 128 59 59 (28516352)
I1017 11:04:34.575757 249585 net.cpp:225] Memory required for data: 1825026304
I1017 11:04:34.575790 249585 layer_factory.hpp:114] Creating layer dropout2
I1017 11:04:34.575841 249585 net.cpp:160] Creating Layer dropout2
I1017 11:04:34.575872 249585 net.cpp:596] dropout2 <- conv2
I1017 11:04:34.575917 249585 net.cpp:570] dropout2 -> drop2
I1017 11:04:34.575992 249585 net.cpp:210] Setting up dropout2
I1017 11:04:34.576033 249585 net.cpp:217] Top shape: 64 128 59 59 (28516352)
I1017 11:04:34.576081 249585 net.cpp:225] Memory required for data: 1939091712
I1017 11:04:34.576153 249585 layer_factory.hpp:114] Creating layer pool2
I1017 11:04:34.576263 249585 net.cpp:160] Creating Layer pool2
I1017 11:04:34.576323 249585 net.cpp:596] pool2 <- drop2
I1017 11:04:34.576369 249585 net.cpp:570] pool2 -> pool2
I1017 11:04:34.580601 249585 net.cpp:210] Setting up pool2
I1017 11:04:34.580687 249585 net.cpp:217] Top shape: 64 128 30 30 (7372800)
I1017 11:04:34.580732 249585 net.cpp:225] Memory required for data: 1968582912
I1017 11:04:34.580761 249585 layer_factory.hpp:114] Creating layer conv3
I1017 11:04:34.580842 249585 net.cpp:160] Creating Layer conv3
I1017 11:04:34.580878 249585 net.cpp:596] conv3 <- pool2
I1017 11:04:34.580929 249585 net.cpp:570] conv3 -> conv3
I1017 11:04:34.901525 249585 net.cpp:210] Setting up conv3
I1017 11:04:34.901618 249585 net.cpp:217] Top shape: 64 128 28 28 (6422528)
I1017 11:04:34.901667 249585 net.cpp:225] Memory required for data: 1994273024
I1017 11:04:34.901742 249585 layer_factory.hpp:114] Creating layer relu3
I1017 11:04:34.901819 249585 net.cpp:160] Creating Layer relu3
I1017 11:04:34.901856 249585 net.cpp:596] relu3 <- conv3
I1017 11:04:34.901909 249585 net.cpp:557] relu3 -> conv3 (in-place)
I1017 11:04:34.906662 249585 net.cpp:210] Setting up relu3
I1017 11:04:34.906754 249585 net.cpp:217] Top shape: 64 128 28 28 (6422528)
I1017 11:04:34.906797 249585 net.cpp:225] Memory required for data: 2019963136
I1017 11:04:34.906829 249585 layer_factory.hpp:114] Creating layer dropout3
I1017 11:04:34.906877 249585 net.cpp:160] Creating Layer dropout3
I1017 11:04:34.906903 249585 net.cpp:596] dropout3 <- conv3
I1017 11:04:34.906942 249585 net.cpp:570] dropout3 -> drop3
I1017 11:04:34.907007 249585 net.cpp:210] Setting up dropout3
I1017 11:04:34.907040 249585 net.cpp:217] Top shape: 64 128 28 28 (6422528)
I1017 11:04:34.907081 249585 net.cpp:225] Memory required for data: 2045653248
I1017 11:04:34.907110 249585 layer_factory.hpp:114] Creating layer pool3
I1017 11:04:34.907167 249585 net.cpp:160] Creating Layer pool3
I1017 11:04:34.907199 249585 net.cpp:596] pool3 <- drop3
I1017 11:04:34.907270 249585 net.cpp:570] pool3 -> pool3
I1017 11:04:34.911540 249585 net.cpp:210] Setting up pool3
I1017 11:04:34.911731 249585 net.cpp:217] Top shape: 64 128 14 14 (1605632)
I1017 11:04:34.911775 249585 net.cpp:225] Memory required for data: 2052075776
I1017 11:04:34.911804 249585 layer_factory.hpp:114] Creating layer conv4
I1017 11:04:34.911885 249585 net.cpp:160] Creating Layer conv4
I1017 11:04:34.911921 249585 net.cpp:596] conv4 <- pool3
I1017 11:04:34.911968 249585 net.cpp:570] conv4 -> conv4
I1017 11:04:35.061982 249585 net.cpp:210] Setting up conv4
I1017 11:04:35.062069 249585 net.cpp:217] Top shape: 64 128 12 12 (1179648)
I1017 11:04:35.062115 249585 net.cpp:225] Memory required for data: 2056794368
I1017 11:04:35.062175 249585 layer_factory.hpp:114] Creating layer relu4
I1017 11:04:35.062240 249585 net.cpp:160] Creating Layer relu4
I1017 11:04:35.062273 249585 net.cpp:596] relu4 <- conv4
I1017 11:04:35.062317 249585 net.cpp:557] relu4 -> conv4 (in-place)
I1017 11:04:35.067045 249585 net.cpp:210] Setting up relu4
I1017 11:04:35.067134 249585 net.cpp:217] Top shape: 64 128 12 12 (1179648)
I1017 11:04:35.067176 249585 net.cpp:225] Memory required for data: 2061512960
I1017 11:04:35.067208 249585 layer_factory.hpp:114] Creating layer dropout4
I1017 11:04:35.067253 249585 net.cpp:160] Creating Layer dropout4
I1017 11:04:35.067281 249585 net.cpp:596] dropout4 <- conv4
I1017 11:04:35.067317 249585 net.cpp:570] dropout4 -> drop4
I1017 11:04:35.067384 249585 net.cpp:210] Setting up dropout4
I1017 11:04:35.067415 249585 net.cpp:217] Top shape: 64 128 12 12 (1179648)
I1017 11:04:35.067454 249585 net.cpp:225] Memory required for data: 2066231552
I1017 11:04:35.067483 249585 layer_factory.hpp:114] Creating layer pool4
I1017 11:04:35.067541 249585 net.cpp:160] Creating Layer pool4
I1017 11:04:35.067612 249585 net.cpp:596] pool4 <- drop4
I1017 11:04:35.067689 249585 net.cpp:570] pool4 -> pool4
I1017 11:04:35.071856 249585 net.cpp:210] Setting up pool4
I1017 11:04:35.071967 249585 net.cpp:217] Top shape: 64 128 6 6 (294912)
I1017 11:04:35.072010 249585 net.cpp:225] Memory required for data: 2067411200
I1017 11:04:35.072037 249585 layer_factory.hpp:114] Creating layer fc1
I1017 11:04:35.072108 249585 net.cpp:160] Creating Layer fc1
I1017 11:04:35.072139 249585 net.cpp:596] fc1 <- pool4
I1017 11:04:35.072180 249585 net.cpp:570] fc1 -> fc1
I1017 11:04:35.307941 249585 net.cpp:210] Setting up fc1
I1017 11:04:35.308028 249585 net.cpp:217] Top shape: 64 1024 (65536)
I1017 11:04:35.308071 249585 net.cpp:225] Memory required for data: 2067673344
I1017 11:04:35.308140 249585 layer_factory.hpp:114] Creating layer dropout5
I1017 11:04:35.308189 249585 net.cpp:160] Creating Layer dropout5
I1017 11:04:35.308215 249585 net.cpp:596] dropout5 <- fc1
I1017 11:04:35.308253 249585 net.cpp:570] dropout5 -> drop5
I1017 11:04:35.308315 249585 net.cpp:210] Setting up dropout5
I1017 11:04:35.308344 249585 net.cpp:217] Top shape: 64 1024 (65536)
I1017 11:04:35.308380 249585 net.cpp:225] Memory required for data: 2067935488
I1017 11:04:35.308408 249585 layer_factory.hpp:114] Creating layer fc2
I1017 11:04:35.308465 249585 net.cpp:160] Creating Layer fc2
I1017 11:04:35.308498 249585 net.cpp:596] fc2 <- drop5
I1017 11:04:35.308583 249585 net.cpp:570] fc2 -> fc2
I1017 11:04:35.312060 249585 net.cpp:210] Setting up fc2
I1017 11:04:35.312151 249585 net.cpp:217] Top shape: 64 2 (128)
I1017 11:04:35.312192 249585 net.cpp:225] Memory required for data: 2067936000
I1017 11:04:35.312247 249585 layer_factory.hpp:114] Creating layer loss
I1017 11:04:35.312310 249585 net.cpp:160] Creating Layer loss
I1017 11:04:35.312340 249585 net.cpp:596] loss <- fc2
I1017 11:04:35.312366 249585 net.cpp:596] loss <- label
I1017 11:04:35.312415 249585 net.cpp:570] loss -> (automatic)
I1017 11:04:35.312479 249585 layer_factory.hpp:114] Creating layer loss
…
