…
I1017 11:03:48.338282 249231 net.cpp:484] The NetState phase (0) differed from the phase (1) specified by a rule in layer data
I1017 11:03:48.339141 249231 net.cpp:120] Initializing net from parameters: 
name: "HEP_CLASSIFIER"
state {
  phase: TRAIN
  level: 0
  stage: ""
}
layer {
  name: "data"
  type: "DummyData"
  top: "data"
  top: "label"
  include {
    phase: TRAIN
  }
  dummy_data_param {
    data_filler {
      type: "gaussian"
      std: 1
    }
    data_filler {
      type: "constant"
      value: 0
    }
    shape {
      dim: 64
      dim: 3
      dim: 124
      dim: 124
    }
    shape {
      dim: 64
      dim: 1
      dim: 1
      dim: 1
    }
  }
}
layer {
  name: "conv1"
  type: "Convolution"
  bottom: "data"
  top: "conv1"
  convolution_param {
    num_output: 128
    pad: 0
    kernel_size: 3
    stride: 1
    weight_filler {
      type: "msra"
    }
    bias_filler {
      type: "constant"
      value: 0
    }
  }
}
layer {
  name: "relu1"
  type: "ReLU"
  bottom: "conv1"
  top: "conv1"
  relu_param {
    negative_slope: 0.1
  }
}
layer {
  name: "dropout1"
  type: "Dropout"
  bottom: "conv1"
  top: "drop1"
}
layer {
  name: "pool1"
  type: "Pooling"
  bottom: "drop1"
  top: "pool1"
  pooling_param {
    pool: MAX
    kernel_size: 2
    stride: 2
  }
}
layer {
  name: "conv2"
  type: "Convolution"
  bottom: "pool1"
  top: "conv2"
  convolution_param {
    num_output: 128
    pad: 0
    kernel_size: 3
    stride: 1
    weight_filler {
      type: "msra"
    }
    bias_filler {
      type: "constant"
      value: 0
    }
  }
}
layer {
  name: "relu2"
  type: "ReLU"
  bottom: "conv2"
  top: "conv2"
  relu_param {
    negative_slope: 0.1
  }
}
layer {
  name: "dropout2"
  type: "Dropout"
  bottom: "conv2"
  top: "drop2"
}
layer {
  name: "pool2"
  type: "Pooling"
  bottom: "drop2"
  top: "pool2"
  pooling_param {
    pool: MAX
    kernel_size: 2
    stride: 2
  }
}
layer {
  name: "conv3"
  type: "Convolution"
  bottom: "pool2"
  top: "conv3"
  convolution_param {
    num_output: 128
    pad: 0
    kernel_size: 3
    stride: 1
    weight_filler {
      type: "msra"
    }
    bias_filler {
      type: "constant"
      value: 0
    }
  }
}
layer {
  name: "relu3"
  type: "ReLU"
  bottom: "conv3"
  top: "conv3"
  relu_param {
    negative_slope: 0.1
  }
}
layer {
  name: "dropout3"
  type: "Dropout"
  bottom: "conv3"
  top: "drop3"
}
layer {
  name: "pool3"
  type: "Pooling"
  bottom: "drop3"
  top: "pool3"
  pooling_param {
    pool: MAX
    kernel_size: 2
    stride: 2
  }
}
layer {
  name: "conv4"
  type: "Convolution"
  bottom: "pool3"
  top: "conv4"
  convolution_param {
    num_output: 128
    pad: 0
    kernel_size: 3
    stride: 1
    weight_filler {
      type: "msra"
    }
    bias_filler {
      type: "constant"
      value: 0
    }
  }
}
layer {
  name: "relu4"
  type: "ReLU"
  bottom: "conv4"
  top: "conv4"
  relu_param {
    negative_slope: 0.1
  }
}
layer {
  name: "dropout4"
  type: "Dropout"
  bottom: "conv4"
  top: "drop4"
}
layer {
  name: "pool4"
  type: "Pooling"
  bottom: "drop4"
  top: "pool4"
  pooling_param {
    pool: MAX
    kernel_size: 2
    stride: 2
  }
}
layer {
  name: "fc1"
  type: "InnerProduct"
  bottom: "pool4"
  top: "fc1"
  inner_product_param {
    num_output: 1024
    weight_filler {
      type: "msra"
    }
    bias_filler {
      type: "constant"
      value: 0
    }
  }
}
layer {
  name: "dropout5"
  type: "Dropout"
  bottom: "fc1"
  top: "drop5"
}
layer {
  name: "fc2"
  type: "InnerProduct"
  bottom: "drop5"
  top: "fc2"
  inner_product_param {
    num_output: 2
    weight_filler {
      type: "msra"
    }
    bias_filler {
      type: "constant"
      value: 0
    }
  }
}
layer {
  name: "loss"
  type: "SoftmaxWithLoss"
  bottom: "fc2"
  bottom: "label"
}
I1017 11:03:48.340497 249231 layer_factory.hpp:114] Creating layer data
I1017 11:03:48.340577 249231 net.cpp:160] Creating Layer data
I1017 11:03:48.340612 249231 net.cpp:570] data -> data
I1017 11:03:48.340683 249231 net.cpp:570] data -> label
I1017 11:03:48.363750 249231 net.cpp:210] Setting up data
I1017 11:03:48.363853 249231 net.cpp:217] Top shape: 64 3 124 124 (2952192)
I1017 11:03:48.363917 249231 net.cpp:217] Top shape: 64 1 1 1 (64)
I1017 11:03:48.363952 249231 net.cpp:225] Memory required for data: 11809024
I1017 11:03:48.363986 249231 layer_factory.hpp:114] Creating layer conv1
I1017 11:03:48.364102 249231 net.cpp:160] Creating Layer conv1
I1017 11:03:48.364150 249231 net.cpp:596] conv1 <- data
I1017 11:03:48.364259 249231 net.cpp:570] conv1 -> conv1
I1017 11:03:48.568969 249231 net.cpp:210] Setting up conv1
I1017 11:03:48.569073 249231 net.cpp:217] Top shape: 64 128 122 122 (121929728)
I1017 11:03:48.569146 249231 net.cpp:225] Memory required for data: 499527936
I1017 11:03:48.569275 249231 layer_factory.hpp:114] Creating layer relu1
I1017 11:03:48.569396 249231 net.cpp:160] Creating Layer relu1
I1017 11:03:48.569463 249231 net.cpp:596] relu1 <- conv1
I1017 11:03:48.569566 249231 net.cpp:557] relu1 -> conv1 (in-place)
I1017 11:03:48.574560 249231 net.cpp:210] Setting up relu1
I1017 11:03:48.574652 249231 net.cpp:217] Top shape: 64 128 122 122 (121929728)
I1017 11:03:48.574698 249231 net.cpp:225] Memory required for data: 987246848
I1017 11:03:48.574733 249231 layer_factory.hpp:114] Creating layer dropout1
I1017 11:03:48.574787 249231 net.cpp:160] Creating Layer dropout1
I1017 11:03:48.574817 249231 net.cpp:596] dropout1 <- conv1
I1017 11:03:48.574861 249231 net.cpp:570] dropout1 -> drop1
I1017 11:03:48.574934 249231 net.cpp:210] Setting up dropout1
I1017 11:03:48.574970 249231 net.cpp:217] Top shape: 64 128 122 122 (121929728)
I1017 11:03:48.575024 249231 net.cpp:225] Memory required for data: 1474965760
I1017 11:03:48.575083 249231 layer_factory.hpp:114] Creating layer pool1
I1017 11:03:48.575281 249231 net.cpp:160] Creating Layer pool1
I1017 11:03:48.575410 249231 net.cpp:596] pool1 <- drop1
I1017 11:03:48.575543 249231 net.cpp:570] pool1 -> pool1
I1017 11:03:48.580224 249231 net.cpp:210] Setting up pool1
I1017 11:03:48.580313 249231 net.cpp:217] Top shape: 64 128 61 61 (30482432)
I1017 11:03:48.580356 249231 net.cpp:225] Memory required for data: 1596895488
I1017 11:03:48.580385 249231 layer_factory.hpp:114] Creating layer conv2
I1017 11:03:48.580466 249231 net.cpp:160] Creating Layer conv2
I1017 11:03:48.580500 249231 net.cpp:596] conv2 <- pool1
I1017 11:03:48.580549 249231 net.cpp:570] conv2 -> conv2
I1017 11:03:49.608572 249231 net.cpp:210] Setting up conv2
I1017 11:03:49.608664 249231 net.cpp:217] Top shape: 64 128 59 59 (28516352)
I1017 11:03:49.608724 249231 net.cpp:225] Memory required for data: 1710960896
I1017 11:03:49.608809 249231 layer_factory.hpp:114] Creating layer relu2
I1017 11:03:49.608898 249231 net.cpp:160] Creating Layer relu2
I1017 11:03:49.608947 249231 net.cpp:596] relu2 <- conv2
I1017 11:03:49.609025 249231 net.cpp:557] relu2 -> conv2 (in-place)
I1017 11:03:49.613499 249231 net.cpp:210] Setting up relu2
I1017 11:03:49.613590 249231 net.cpp:217] Top shape: 64 128 59 59 (28516352)
I1017 11:03:49.613636 249231 net.cpp:225] Memory required for data: 1825026304
I1017 11:03:49.613667 249231 layer_factory.hpp:114] Creating layer dropout2
I1017 11:03:49.613718 249231 net.cpp:160] Creating Layer dropout2
I1017 11:03:49.613749 249231 net.cpp:596] dropout2 <- conv2
I1017 11:03:49.613790 249231 net.cpp:570] dropout2 -> drop2
I1017 11:03:49.613864 249231 net.cpp:210] Setting up dropout2
I1017 11:03:49.613899 249231 net.cpp:217] Top shape: 64 128 59 59 (28516352)
I1017 11:03:49.613942 249231 net.cpp:225] Memory required for data: 1939091712
I1017 11:03:49.614012 249231 layer_factory.hpp:114] Creating layer pool2
I1017 11:03:49.614094 249231 net.cpp:160] Creating Layer pool2
I1017 11:03:49.614223 249231 net.cpp:596] pool2 <- drop2
I1017 11:03:49.614286 249231 net.cpp:570] pool2 -> pool2
I1017 11:03:49.618559 249231 net.cpp:210] Setting up pool2
I1017 11:03:49.618646 249231 net.cpp:217] Top shape: 64 128 30 30 (7372800)
I1017 11:03:49.618690 249231 net.cpp:225] Memory required for data: 1968582912
I1017 11:03:49.618722 249231 layer_factory.hpp:114] Creating layer conv3
I1017 11:03:49.618803 249231 net.cpp:160] Creating Layer conv3
I1017 11:03:49.618835 249231 net.cpp:596] conv3 <- pool2
I1017 11:03:49.618882 249231 net.cpp:570] conv3 -> conv3
I1017 11:03:49.938565 249231 net.cpp:210] Setting up conv3
I1017 11:03:49.938655 249231 net.cpp:217] Top shape: 64 128 28 28 (6422528)
I1017 11:03:49.938704 249231 net.cpp:225] Memory required for data: 1994273024
I1017 11:03:49.938778 249231 layer_factory.hpp:114] Creating layer relu3
I1017 11:03:49.938850 249231 net.cpp:160] Creating Layer relu3
I1017 11:03:49.938887 249231 net.cpp:596] relu3 <- conv3
I1017 11:03:49.938937 249231 net.cpp:557] relu3 -> conv3 (in-place)
I1017 11:03:49.943639 249231 net.cpp:210] Setting up relu3
I1017 11:03:49.943723 249231 net.cpp:217] Top shape: 64 128 28 28 (6422528)
I1017 11:03:49.943765 249231 net.cpp:225] Memory required for data: 2019963136
I1017 11:03:49.943796 249231 layer_factory.hpp:114] Creating layer dropout3
I1017 11:03:49.943843 249231 net.cpp:160] Creating Layer dropout3
I1017 11:03:49.943871 249231 net.cpp:596] dropout3 <- conv3
I1017 11:03:49.943909 249231 net.cpp:570] dropout3 -> drop3
I1017 11:03:49.943979 249231 net.cpp:210] Setting up dropout3
I1017 11:03:49.944010 249231 net.cpp:217] Top shape: 64 128 28 28 (6422528)
I1017 11:03:49.944046 249231 net.cpp:225] Memory required for data: 2045653248
I1017 11:03:49.944078 249231 layer_factory.hpp:114] Creating layer pool3
I1017 11:03:49.944141 249231 net.cpp:160] Creating Layer pool3
I1017 11:03:49.944207 249231 net.cpp:596] pool3 <- drop3
I1017 11:03:49.944280 249231 net.cpp:570] pool3 -> pool3
I1017 11:03:49.948508 249231 net.cpp:210] Setting up pool3
I1017 11:03:49.948593 249231 net.cpp:217] Top shape: 64 128 14 14 (1605632)
I1017 11:03:49.948635 249231 net.cpp:225] Memory required for data: 2052075776
I1017 11:03:49.948664 249231 layer_factory.hpp:114] Creating layer conv4
I1017 11:03:49.948740 249231 net.cpp:160] Creating Layer conv4
I1017 11:03:49.948772 249231 net.cpp:596] conv4 <- pool3
I1017 11:03:49.948814 249231 net.cpp:570] conv4 -> conv4
I1017 11:03:50.098163 249231 net.cpp:210] Setting up conv4
I1017 11:03:50.098248 249231 net.cpp:217] Top shape: 64 128 12 12 (1179648)
I1017 11:03:50.098291 249231 net.cpp:225] Memory required for data: 2056794368
I1017 11:03:50.098351 249231 layer_factory.hpp:114] Creating layer relu4
I1017 11:03:50.098415 249231 net.cpp:160] Creating Layer relu4
I1017 11:03:50.098449 249231 net.cpp:596] relu4 <- conv4
I1017 11:03:50.098495 249231 net.cpp:557] relu4 -> conv4 (in-place)
I1017 11:03:50.103313 249231 net.cpp:210] Setting up relu4
I1017 11:03:50.103401 249231 net.cpp:217] Top shape: 64 128 12 12 (1179648)
I1017 11:03:50.103446 249231 net.cpp:225] Memory required for data: 2061512960
I1017 11:03:50.103478 249231 layer_factory.hpp:114] Creating layer dropout4
I1017 11:03:50.103526 249231 net.cpp:160] Creating Layer dropout4
I1017 11:03:50.103554 249231 net.cpp:596] dropout4 <- conv4
I1017 11:03:50.103633 249231 net.cpp:570] dropout4 -> drop4
I1017 11:03:50.103711 249231 net.cpp:210] Setting up dropout4
I1017 11:03:50.103742 249231 net.cpp:217] Top shape: 64 128 12 12 (1179648)
I1017 11:03:50.103781 249231 net.cpp:225] Memory required for data: 2066231552
I1017 11:03:50.103813 249231 layer_factory.hpp:114] Creating layer pool4
I1017 11:03:50.103873 249231 net.cpp:160] Creating Layer pool4
I1017 11:03:50.103935 249231 net.cpp:596] pool4 <- drop4
I1017 11:03:50.104007 249231 net.cpp:570] pool4 -> pool4
I1017 11:03:50.108250 249231 net.cpp:210] Setting up pool4
I1017 11:03:50.108358 249231 net.cpp:217] Top shape: 64 128 6 6 (294912)
I1017 11:03:50.108399 249231 net.cpp:225] Memory required for data: 2067411200
I1017 11:03:50.108429 249231 layer_factory.hpp:114] Creating layer fc1
I1017 11:03:50.108501 249231 net.cpp:160] Creating Layer fc1
I1017 11:03:50.108532 249231 net.cpp:596] fc1 <- pool4
I1017 11:03:50.108577 249231 net.cpp:570] fc1 -> fc1
I1017 11:03:50.344610 249231 net.cpp:210] Setting up fc1
I1017 11:03:50.344698 249231 net.cpp:217] Top shape: 64 1024 (65536)
I1017 11:03:50.344738 249231 net.cpp:225] Memory required for data: 2067673344
I1017 11:03:50.344807 249231 layer_factory.hpp:114] Creating layer dropout5
I1017 11:03:50.344856 249231 net.cpp:160] Creating Layer dropout5
I1017 11:03:50.344882 249231 net.cpp:596] dropout5 <- fc1
I1017 11:03:50.344921 249231 net.cpp:570] dropout5 -> drop5
I1017 11:03:50.344986 249231 net.cpp:210] Setting up dropout5
I1017 11:03:50.345013 249231 net.cpp:217] Top shape: 64 1024 (65536)
I1017 11:03:50.345048 249231 net.cpp:225] Memory required for data: 2067935488
I1017 11:03:50.345077 249231 layer_factory.hpp:114] Creating layer fc2
I1017 11:03:50.345134 249231 net.cpp:160] Creating Layer fc2
I1017 11:03:50.345165 249231 net.cpp:596] fc2 <- drop5
I1017 11:03:50.345276 249231 net.cpp:570] fc2 -> fc2
I1017 11:03:50.348611 249231 net.cpp:210] Setting up fc2
I1017 11:03:50.348701 249231 net.cpp:217] Top shape: 64 2 (128)
I1017 11:03:50.348742 249231 net.cpp:225] Memory required for data: 2067936000
I1017 11:03:50.348795 249231 layer_factory.hpp:114] Creating layer loss
I1017 11:03:50.348857 249231 net.cpp:160] Creating Layer loss
I1017 11:03:50.348887 249231 net.cpp:596] loss <- fc2
I1017 11:03:50.348915 249231 net.cpp:596] loss <- label
I1017 11:03:50.348961 249231 net.cpp:570] loss -> (automatic)
I1017 11:03:50.349025 249231 layer_factory.hpp:114] Creating layer loss
…
