…
I1017 11:04:55.691470 249741 net.cpp:484] The NetState phase (0) differed from the phase (1) specified by a rule in layer data
I1017 11:04:55.692364 249741 net.cpp:120] Initializing net from parameters: 
name: "HEP_CLASSIFIER"
state {
  phase: TRAIN
  level: 0
  stage: ""
}
layer {
  name: "data"
  type: "DummyData"
  top: "data"
  top: "label"
  include {
    phase: TRAIN
  }
  dummy_data_param {
    data_filler {
      type: "gaussian"
      std: 1
    }
    data_filler {
      type: "constant"
      value: 0
    }
    shape {
      dim: 64
      dim: 3
      dim: 124
      dim: 124
    }
    shape {
      dim: 64
      dim: 1
      dim: 1
      dim: 1
    }
  }
}
layer {
  name: "conv1"
  type: "Convolution"
  bottom: "data"
  top: "conv1"
  convolution_param {
    num_output: 128
    pad: 0
    kernel_size: 3
    stride: 1
    weight_filler {
      type: "msra"
    }
    bias_filler {
      type: "constant"
      value: 0
    }
  }
}
layer {
  name: "relu1"
  type: "ReLU"
  bottom: "conv1"
  top: "conv1"
  relu_param {
    negative_slope: 0.1
  }
}
layer {
  name: "dropout1"
  type: "Dropout"
  bottom: "conv1"
  top: "drop1"
}
layer {
  name: "pool1"
  type: "Pooling"
  bottom: "drop1"
  top: "pool1"
  pooling_param {
    pool: MAX
    kernel_size: 2
    stride: 2
  }
}
layer {
  name: "conv2"
  type: "Convolution"
  bottom: "pool1"
  top: "conv2"
  convolution_param {
    num_output: 128
    pad: 0
    kernel_size: 3
    stride: 1
    weight_filler {
      type: "msra"
    }
    bias_filler {
      type: "constant"
      value: 0
    }
  }
}
layer {
  name: "relu2"
  type: "ReLU"
  bottom: "conv2"
  top: "conv2"
  relu_param {
    negative_slope: 0.1
  }
}
layer {
  name: "dropout2"
  type: "Dropout"
  bottom: "conv2"
  top: "drop2"
}
layer {
  name: "pool2"
  type: "Pooling"
  bottom: "drop2"
  top: "pool2"
  pooling_param {
    pool: MAX
    kernel_size: 2
    stride: 2
  }
}
layer {
  name: "conv3"
  type: "Convolution"
  bottom: "pool2"
  top: "conv3"
  convolution_param {
    num_output: 128
    pad: 0
    kernel_size: 3
    stride: 1
    weight_filler {
      type: "msra"
    }
    bias_filler {
      type: "constant"
      value: 0
    }
  }
}
layer {
  name: "relu3"
  type: "ReLU"
  bottom: "conv3"
  top: "conv3"
  relu_param {
    negative_slope: 0.1
  }
}
layer {
  name: "dropout3"
  type: "Dropout"
  bottom: "conv3"
  top: "drop3"
}
layer {
  name: "pool3"
  type: "Pooling"
  bottom: "drop3"
  top: "pool3"
  pooling_param {
    pool: MAX
    kernel_size: 2
    stride: 2
  }
}
layer {
  name: "conv4"
  type: "Convolution"
  bottom: "pool3"
  top: "conv4"
  convolution_param {
    num_output: 128
    pad: 0
    kernel_size: 3
    stride: 1
    weight_filler {
      type: "msra"
    }
    bias_filler {
      type: "constant"
      value: 0
    }
  }
}
layer {
  name: "relu4"
  type: "ReLU"
  bottom: "conv4"
  top: "conv4"
  relu_param {
    negative_slope: 0.1
  }
}
layer {
  name: "dropout4"
  type: "Dropout"
  bottom: "conv4"
  top: "drop4"
}
layer {
  name: "pool4"
  type: "Pooling"
  bottom: "drop4"
  top: "pool4"
  pooling_param {
    pool: MAX
    kernel_size: 2
    stride: 2
  }
}
layer {
  name: "fc1"
  type: "InnerProduct"
  bottom: "pool4"
  top: "fc1"
  inner_product_param {
    num_output: 1024
    weight_filler {
      type: "msra"
    }
    bias_filler {
      type: "constant"
      value: 0
    }
  }
}
layer {
  name: "dropout5"
  type: "Dropout"
  bottom: "fc1"
  top: "drop5"
}
layer {
  name: "fc2"
  type: "InnerProduct"
  bottom: "drop5"
  top: "fc2"
  inner_product_param {
    num_output: 2
    weight_filler {
      type: "msra"
    }
    bias_filler {
      type: "constant"
      value: 0
    }
  }
}
layer {
  name: "loss"
  type: "SoftmaxWithLoss"
  bottom: "fc2"
  bottom: "label"
}
I1017 11:04:55.693660 249741 layer_factory.hpp:114] Creating layer data
I1017 11:04:55.693742 249741 net.cpp:160] Creating Layer data
I1017 11:04:55.693778 249741 net.cpp:570] data -> data
I1017 11:04:55.693848 249741 net.cpp:570] data -> label
I1017 11:04:55.716895 249741 net.cpp:210] Setting up data
I1017 11:04:55.717006 249741 net.cpp:217] Top shape: 64 3 124 124 (2952192)
I1017 11:04:55.717075 249741 net.cpp:217] Top shape: 64 1 1 1 (64)
I1017 11:04:55.717111 249741 net.cpp:225] Memory required for data: 11809024
I1017 11:04:55.717147 249741 layer_factory.hpp:114] Creating layer conv1
I1017 11:04:55.717272 249741 net.cpp:160] Creating Layer conv1
I1017 11:04:55.717321 249741 net.cpp:596] conv1 <- data
I1017 11:04:55.717403 249741 net.cpp:570] conv1 -> conv1
I1017 11:04:55.922833 249741 net.cpp:210] Setting up conv1
I1017 11:04:55.922938 249741 net.cpp:217] Top shape: 64 128 122 122 (121929728)
I1017 11:04:55.923009 249741 net.cpp:225] Memory required for data: 499527936
I1017 11:04:55.923138 249741 layer_factory.hpp:114] Creating layer relu1
I1017 11:04:55.923259 249741 net.cpp:160] Creating Layer relu1
I1017 11:04:55.923317 249741 net.cpp:596] relu1 <- conv1
I1017 11:04:55.923388 249741 net.cpp:557] relu1 -> conv1 (in-place)
I1017 11:04:55.928174 249741 net.cpp:210] Setting up relu1
I1017 11:04:55.928262 249741 net.cpp:217] Top shape: 64 128 122 122 (121929728)
I1017 11:04:55.928309 249741 net.cpp:225] Memory required for data: 987246848
I1017 11:04:55.928346 249741 layer_factory.hpp:114] Creating layer dropout1
I1017 11:04:55.928400 249741 net.cpp:160] Creating Layer dropout1
I1017 11:04:55.928433 249741 net.cpp:596] dropout1 <- conv1
I1017 11:04:55.928475 249741 net.cpp:570] dropout1 -> drop1
I1017 11:04:55.928551 249741 net.cpp:210] Setting up dropout1
I1017 11:04:55.928591 249741 net.cpp:217] Top shape: 64 128 122 122 (121929728)
I1017 11:04:55.928635 249741 net.cpp:225] Memory required for data: 1474965760
I1017 11:04:55.928673 249741 layer_factory.hpp:114] Creating layer pool1
I1017 11:04:55.928768 249741 net.cpp:160] Creating Layer pool1
I1017 11:04:55.928917 249741 net.cpp:596] pool1 <- drop1
I1017 11:04:55.929006 249741 net.cpp:570] pool1 -> pool1
I1017 11:04:55.933382 249741 net.cpp:210] Setting up pool1
I1017 11:04:55.933471 249741 net.cpp:217] Top shape: 64 128 61 61 (30482432)
I1017 11:04:55.933516 249741 net.cpp:225] Memory required for data: 1596895488
I1017 11:04:55.933547 249741 layer_factory.hpp:114] Creating layer conv2
I1017 11:04:55.933627 249741 net.cpp:160] Creating Layer conv2
I1017 11:04:55.933665 249741 net.cpp:596] conv2 <- pool1
I1017 11:04:55.933713 249741 net.cpp:570] conv2 -> conv2
I1017 11:04:56.957048 249741 net.cpp:210] Setting up conv2
I1017 11:04:56.957140 249741 net.cpp:217] Top shape: 64 128 59 59 (28516352)
I1017 11:04:56.957200 249741 net.cpp:225] Memory required for data: 1710960896
I1017 11:04:56.957284 249741 layer_factory.hpp:114] Creating layer relu2
I1017 11:04:56.957372 249741 net.cpp:160] Creating Layer relu2
I1017 11:04:56.957420 249741 net.cpp:596] relu2 <- conv2
I1017 11:04:56.957480 249741 net.cpp:557] relu2 -> conv2 (in-place)
I1017 11:04:56.961787 249741 net.cpp:210] Setting up relu2
I1017 11:04:56.961875 249741 net.cpp:217] Top shape: 64 128 59 59 (28516352)
I1017 11:04:56.961920 249741 net.cpp:225] Memory required for data: 1825026304
I1017 11:04:56.961957 249741 layer_factory.hpp:114] Creating layer dropout2
I1017 11:04:56.962010 249741 net.cpp:160] Creating Layer dropout2
I1017 11:04:56.962041 249741 net.cpp:596] dropout2 <- conv2
I1017 11:04:56.962088 249741 net.cpp:570] dropout2 -> drop2
I1017 11:04:56.962162 249741 net.cpp:210] Setting up dropout2
I1017 11:04:56.962200 249741 net.cpp:217] Top shape: 64 128 59 59 (28516352)
I1017 11:04:56.962244 249741 net.cpp:225] Memory required for data: 1939091712
I1017 11:04:56.962313 249741 layer_factory.hpp:114] Creating layer pool2
I1017 11:04:56.962419 249741 net.cpp:160] Creating Layer pool2
I1017 11:04:56.962462 249741 net.cpp:596] pool2 <- drop2
I1017 11:04:56.962515 249741 net.cpp:570] pool2 -> pool2
I1017 11:04:56.966672 249741 net.cpp:210] Setting up pool2
I1017 11:04:56.966758 249741 net.cpp:217] Top shape: 64 128 30 30 (7372800)
I1017 11:04:56.966805 249741 net.cpp:225] Memory required for data: 1968582912
I1017 11:04:56.966836 249741 layer_factory.hpp:114] Creating layer conv3
I1017 11:04:56.966917 249741 net.cpp:160] Creating Layer conv3
I1017 11:04:56.966958 249741 net.cpp:596] conv3 <- pool2
I1017 11:04:56.967010 249741 net.cpp:570] conv3 -> conv3
I1017 11:04:57.287274 249741 net.cpp:210] Setting up conv3
I1017 11:04:57.287367 249741 net.cpp:217] Top shape: 64 128 28 28 (6422528)
I1017 11:04:57.287420 249741 net.cpp:225] Memory required for data: 1994273024
I1017 11:04:57.287497 249741 layer_factory.hpp:114] Creating layer relu3
I1017 11:04:57.287605 249741 net.cpp:160] Creating Layer relu3
I1017 11:04:57.287652 249741 net.cpp:596] relu3 <- conv3
I1017 11:04:57.287708 249741 net.cpp:557] relu3 -> conv3 (in-place)
I1017 11:04:57.292433 249741 net.cpp:210] Setting up relu3
I1017 11:04:57.292520 249741 net.cpp:217] Top shape: 64 128 28 28 (6422528)
I1017 11:04:57.292562 249741 net.cpp:225] Memory required for data: 2019963136
I1017 11:04:57.292598 249741 layer_factory.hpp:114] Creating layer dropout3
I1017 11:04:57.292649 249741 net.cpp:160] Creating Layer dropout3
I1017 11:04:57.292680 249741 net.cpp:596] dropout3 <- conv3
I1017 11:04:57.292724 249741 net.cpp:570] dropout3 -> drop3
I1017 11:04:57.292795 249741 net.cpp:210] Setting up dropout3
I1017 11:04:57.292832 249741 net.cpp:217] Top shape: 64 128 28 28 (6422528)
I1017 11:04:57.292876 249741 net.cpp:225] Memory required for data: 2045653248
I1017 11:04:57.292910 249741 layer_factory.hpp:114] Creating layer pool3
I1017 11:04:57.292970 249741 net.cpp:160] Creating Layer pool3
I1017 11:04:57.293033 249741 net.cpp:596] pool3 <- drop3
I1017 11:04:57.293081 249741 net.cpp:570] pool3 -> pool3
I1017 11:04:57.297240 249741 net.cpp:210] Setting up pool3
I1017 11:04:57.297328 249741 net.cpp:217] Top shape: 64 128 14 14 (1605632)
I1017 11:04:57.297370 249741 net.cpp:225] Memory required for data: 2052075776
I1017 11:04:57.297400 249741 layer_factory.hpp:114] Creating layer conv4
I1017 11:04:57.297478 249741 net.cpp:160] Creating Layer conv4
I1017 11:04:57.297516 249741 net.cpp:596] conv4 <- pool3
I1017 11:04:57.297562 249741 net.cpp:570] conv4 -> conv4
I1017 11:04:57.447140 249741 net.cpp:210] Setting up conv4
I1017 11:04:57.447227 249741 net.cpp:217] Top shape: 64 128 12 12 (1179648)
I1017 11:04:57.447275 249741 net.cpp:225] Memory required for data: 2056794368
I1017 11:04:57.447338 249741 layer_factory.hpp:114] Creating layer relu4
I1017 11:04:57.447403 249741 net.cpp:160] Creating Layer relu4
I1017 11:04:57.447439 249741 net.cpp:596] relu4 <- conv4
I1017 11:04:57.447485 249741 net.cpp:557] relu4 -> conv4 (in-place)
I1017 11:04:57.452356 249741 net.cpp:210] Setting up relu4
I1017 11:04:57.452445 249741 net.cpp:217] Top shape: 64 128 12 12 (1179648)
I1017 11:04:57.452491 249741 net.cpp:225] Memory required for data: 2061512960
I1017 11:04:57.452524 249741 layer_factory.hpp:114] Creating layer dropout4
I1017 11:04:57.452574 249741 net.cpp:160] Creating Layer dropout4
I1017 11:04:57.452600 249741 net.cpp:596] dropout4 <- conv4
I1017 11:04:57.452638 249741 net.cpp:570] dropout4 -> drop4
I1017 11:04:57.452704 249741 net.cpp:210] Setting up dropout4
I1017 11:04:57.452738 249741 net.cpp:217] Top shape: 64 128 12 12 (1179648)
I1017 11:04:57.452775 249741 net.cpp:225] Memory required for data: 2066231552
I1017 11:04:57.452805 249741 layer_factory.hpp:114] Creating layer pool4
I1017 11:04:57.452867 249741 net.cpp:160] Creating Layer pool4
I1017 11:04:57.452906 249741 net.cpp:596] pool4 <- drop4
I1017 11:04:57.452986 249741 net.cpp:570] pool4 -> pool4
I1017 11:04:57.457125 249741 net.cpp:210] Setting up pool4
I1017 11:04:57.457236 249741 net.cpp:217] Top shape: 64 128 6 6 (294912)
I1017 11:04:57.457279 249741 net.cpp:225] Memory required for data: 2067411200
I1017 11:04:57.457309 249741 layer_factory.hpp:114] Creating layer fc1
I1017 11:04:57.457381 249741 net.cpp:160] Creating Layer fc1
I1017 11:04:57.457414 249741 net.cpp:596] fc1 <- pool4
I1017 11:04:57.457459 249741 net.cpp:570] fc1 -> fc1
I1017 11:04:57.693127 249741 net.cpp:210] Setting up fc1
I1017 11:04:57.693217 249741 net.cpp:217] Top shape: 64 1024 (65536)
I1017 11:04:57.693258 249741 net.cpp:225] Memory required for data: 2067673344
I1017 11:04:57.693325 249741 layer_factory.hpp:114] Creating layer dropout5
I1017 11:04:57.693374 249741 net.cpp:160] Creating Layer dropout5
I1017 11:04:57.693400 249741 net.cpp:596] dropout5 <- fc1
I1017 11:04:57.693439 249741 net.cpp:570] dropout5 -> drop5
I1017 11:04:57.693497 249741 net.cpp:210] Setting up dropout5
I1017 11:04:57.693524 249741 net.cpp:217] Top shape: 64 1024 (65536)
I1017 11:04:57.693558 249741 net.cpp:225] Memory required for data: 2067935488
I1017 11:04:57.693584 249741 layer_factory.hpp:114] Creating layer fc2
I1017 11:04:57.693639 249741 net.cpp:160] Creating Layer fc2
I1017 11:04:57.693672 249741 net.cpp:596] fc2 <- drop5
I1017 11:04:57.693753 249741 net.cpp:570] fc2 -> fc2
I1017 11:04:57.697213 249741 net.cpp:210] Setting up fc2
I1017 11:04:57.697301 249741 net.cpp:217] Top shape: 64 2 (128)
I1017 11:04:57.697341 249741 net.cpp:225] Memory required for data: 2067936000
I1017 11:04:57.697397 249741 layer_factory.hpp:114] Creating layer loss
I1017 11:04:57.697459 249741 net.cpp:160] Creating Layer loss
I1017 11:04:57.697489 249741 net.cpp:596] loss <- fc2
I1017 11:04:57.697516 249741 net.cpp:596] loss <- label
I1017 11:04:57.697559 249741 net.cpp:570] loss -> (automatic)
I1017 11:04:57.697623 249741 layer_factory.hpp:114] Creating layer loss
…
