…
I1017 11:12:40.890203 250834 net.cpp:484] The NetState phase (0) differed from the phase (1) specified by a rule in layer data
I1017 11:12:40.891367 250834 net.cpp:120] Initializing net from parameters: 
name: "HEP_CLASSIFIER"
state {
  phase: TRAIN
  level: 0
  stage: ""
}
layer {
  name: "data"
  type: "DummyData"
  top: "data"
  top: "label"
  include {
    phase: TRAIN
  }
  dummy_data_param {
    data_filler {
      type: "gaussian"
      std: 1
    }
    data_filler {
      type: "constant"
      value: 0
    }
    shape {
      dim: 64
      dim: 3
      dim: 124
      dim: 124
    }
    shape {
      dim: 64
      dim: 1
      dim: 1
      dim: 1
    }
  }
}
layer {
  name: "conv1"
  type: "Convolution"
  bottom: "data"
  top: "conv1"
  convolution_param {
    num_output: 128
    pad: 0
    kernel_size: 3
    stride: 1
    weight_filler {
      type: "msra"
    }
    bias_filler {
      type: "constant"
      value: 0
    }
  }
}
layer {
  name: "relu1"
  type: "ReLU"
  bottom: "conv1"
  top: "conv1"
  relu_param {
    negative_slope: 0.1
  }
}
layer {
  name: "dropout1"
  type: "Dropout"
  bottom: "conv1"
  top: "drop1"
}
layer {
  name: "pool1"
  type: "Pooling"
  bottom: "drop1"
  top: "pool1"
  pooling_param {
    pool: MAX
    kernel_size: 2
    stride: 2
  }
}
layer {
  name: "conv2"
  type: "Convolution"
  bottom: "pool1"
  top: "conv2"
  convolution_param {
    num_output: 128
    pad: 0
    kernel_size: 3
    stride: 1
    weight_filler {
      type: "msra"
    }
    bias_filler {
      type: "constant"
      value: 0
    }
  }
}
layer {
  name: "relu2"
  type: "ReLU"
  bottom: "conv2"
  top: "conv2"
  relu_param {
    negative_slope: 0.1
  }
}
layer {
  name: "dropout2"
  type: "Dropout"
  bottom: "conv2"
  top: "drop2"
}
layer {
  name: "pool2"
  type: "Pooling"
  bottom: "drop2"
  top: "pool2"
  pooling_param {
    pool: MAX
    kernel_size: 2
    stride: 2
  }
}
layer {
  name: "conv3"
  type: "Convolution"
  bottom: "pool2"
  top: "conv3"
  convolution_param {
    num_output: 128
    pad: 0
    kernel_size: 3
    stride: 1
    weight_filler {
      type: "msra"
    }
    bias_filler {
      type: "constant"
      value: 0
    }
  }
}
layer {
  name: "relu3"
  type: "ReLU"
  bottom: "conv3"
  top: "conv3"
  relu_param {
    negative_slope: 0.1
  }
}
layer {
  name: "dropout3"
  type: "Dropout"
  bottom: "conv3"
  top: "drop3"
}
layer {
  name: "pool3"
  type: "Pooling"
  bottom: "drop3"
  top: "pool3"
  pooling_param {
    pool: MAX
    kernel_size: 2
    stride: 2
  }
}
layer {
  name: "conv4"
  type: "Convolution"
  bottom: "pool3"
  top: "conv4"
  convolution_param {
    num_output: 128
    pad: 0
    kernel_size: 3
    stride: 1
    weight_filler {
      type: "msra"
    }
    bias_filler {
      type: "constant"
      value: 0
    }
  }
}
layer {
  name: "relu4"
  type: "ReLU"
  bottom: "conv4"
  top: "conv4"
  relu_param {
    negative_slope: 0.1
  }
}
layer {
  name: "dropout4"
  type: "Dropout"
  bottom: "conv4"
  top: "drop4"
}
layer {
  name: "pool4"
  type: "Pooling"
  bottom: "drop4"
  top: "pool4"
  pooling_param {
    pool: MAX
    kernel_size: 2
    stride: 2
  }
}
layer {
  name: "fc1"
  type: "InnerProduct"
  bottom: "pool4"
  top: "fc1"
  inner_product_param {
    num_output: 1024
    weight_filler {
      type: "msra"
    }
    bias_filler {
      type: "constant"
      value: 0
    }
  }
}
layer {
  name: "dropout5"
  type: "Dropout"
  bottom: "fc1"
  top: "drop5"
}
layer {
  name: "fc2"
  type: "InnerProduct"
  bottom: "drop5"
  top: "fc2"
  inner_product_param {
    num_output: 2
    weight_filler {
      type: "msra"
    }
    bias_filler {
      type: "constant"
      value: 0
    }
  }
}
layer {
  name: "loss"
  type: "SoftmaxWithLoss"
  bottom: "fc2"
  bottom: "label"
}
I1017 11:12:40.892859 250834 layer_factory.hpp:114] Creating layer data
I1017 11:12:40.892943 250834 net.cpp:160] Creating Layer data
I1017 11:12:40.892982 250834 net.cpp:570] data -> data
I1017 11:12:40.893056 250834 net.cpp:570] data -> label
I1017 11:12:40.916144 250834 net.cpp:210] Setting up data
I1017 11:12:40.916254 250834 net.cpp:217] Top shape: 64 3 124 124 (2952192)
I1017 11:12:40.916317 250834 net.cpp:217] Top shape: 64 1 1 1 (64)
I1017 11:12:40.916352 250834 net.cpp:225] Memory required for data: 11809024
I1017 11:12:40.916384 250834 layer_factory.hpp:114] Creating layer conv1
I1017 11:12:40.916501 250834 net.cpp:160] Creating Layer conv1
I1017 11:12:40.916550 250834 net.cpp:596] conv1 <- data
I1017 11:12:40.916633 250834 net.cpp:570] conv1 -> conv1
I1017 11:12:41.030907 250834 net.cpp:210] Setting up conv1
I1017 11:12:41.031021 250834 net.cpp:217] Top shape: 64 128 122 122 (121929728)
I1017 11:12:41.031061 250834 net.cpp:225] Memory required for data: 499527936
I1017 11:12:41.031143 250834 layer_factory.hpp:114] Creating layer relu1
I1017 11:12:41.031211 250834 net.cpp:160] Creating Layer relu1
I1017 11:12:41.031239 250834 net.cpp:596] relu1 <- conv1
I1017 11:12:41.031272 250834 net.cpp:557] relu1 -> conv1 (in-place)
I1017 11:12:41.035802 250834 net.cpp:210] Setting up relu1
I1017 11:12:41.035887 250834 net.cpp:217] Top shape: 64 128 122 122 (121929728)
I1017 11:12:41.035931 250834 net.cpp:225] Memory required for data: 987246848
I1017 11:12:41.036015 250834 layer_factory.hpp:114] Creating layer dropout1
I1017 11:12:41.036095 250834 net.cpp:160] Creating Layer dropout1
I1017 11:12:41.036223 250834 net.cpp:596] dropout1 <- conv1
I1017 11:12:41.036660 250834 net.cpp:570] dropout1 -> drop1
I1017 11:12:41.036864 250834 net.cpp:210] Setting up dropout1
I1017 11:12:41.036916 250834 net.cpp:217] Top shape: 64 128 122 122 (121929728)
I1017 11:12:41.036975 250834 net.cpp:225] Memory required for data: 1474965760
I1017 11:12:41.037017 250834 layer_factory.hpp:114] Creating layer pool1
I1017 11:12:41.037119 250834 net.cpp:160] Creating Layer pool1
I1017 11:12:41.037166 250834 net.cpp:596] pool1 <- drop1
I1017 11:12:41.037228 250834 net.cpp:570] pool1 -> pool1
I1017 11:12:41.041472 250834 net.cpp:210] Setting up pool1
I1017 11:12:41.041563 250834 net.cpp:217] Top shape: 64 128 61 61 (30482432)
I1017 11:12:41.041605 250834 net.cpp:225] Memory required for data: 1596895488
I1017 11:12:41.041635 250834 layer_factory.hpp:114] Creating layer conv2
I1017 11:12:41.041714 250834 net.cpp:160] Creating Layer conv2
I1017 11:12:41.041749 250834 net.cpp:596] conv2 <- pool1
I1017 11:12:41.041792 250834 net.cpp:570] conv2 -> conv2
I1017 11:12:41.137383 250834 net.cpp:210] Setting up conv2
I1017 11:12:41.137481 250834 net.cpp:217] Top shape: 64 128 59 59 (28516352)
I1017 11:12:41.137545 250834 net.cpp:225] Memory required for data: 1710960896
I1017 11:12:41.137632 250834 layer_factory.hpp:114] Creating layer relu2
I1017 11:12:41.137727 250834 net.cpp:160] Creating Layer relu2
I1017 11:12:41.137780 250834 net.cpp:596] relu2 <- conv2
I1017 11:12:41.137846 250834 net.cpp:557] relu2 -> conv2 (in-place)
I1017 11:12:41.142395 250834 net.cpp:210] Setting up relu2
I1017 11:12:41.142482 250834 net.cpp:217] Top shape: 64 128 59 59 (28516352)
I1017 11:12:41.142529 250834 net.cpp:225] Memory required for data: 1825026304
I1017 11:12:41.142565 250834 layer_factory.hpp:114] Creating layer dropout2
I1017 11:12:41.142616 250834 net.cpp:160] Creating Layer dropout2
I1017 11:12:41.142647 250834 net.cpp:596] dropout2 <- conv2
I1017 11:12:41.142689 250834 net.cpp:570] dropout2 -> drop2
I1017 11:12:41.142762 250834 net.cpp:210] Setting up dropout2
I1017 11:12:41.142799 250834 net.cpp:217] Top shape: 64 128 59 59 (28516352)
I1017 11:12:41.142839 250834 net.cpp:225] Memory required for data: 1939091712
I1017 11:12:41.142905 250834 layer_factory.hpp:114] Creating layer pool2
I1017 11:12:41.143035 250834 net.cpp:160] Creating Layer pool2
I1017 11:12:41.143347 250834 net.cpp:596] pool2 <- drop2
I1017 11:12:41.143784 250834 net.cpp:570] pool2 -> pool2
I1017 11:12:41.148383 250834 net.cpp:210] Setting up pool2
I1017 11:12:41.148469 250834 net.cpp:217] Top shape: 64 128 30 30 (7372800)
I1017 11:12:41.148514 250834 net.cpp:225] Memory required for data: 1968582912
I1017 11:12:41.148545 250834 layer_factory.hpp:114] Creating layer conv3
I1017 11:12:41.148622 250834 net.cpp:160] Creating Layer conv3
I1017 11:12:41.148658 250834 net.cpp:596] conv3 <- pool2
I1017 11:12:41.148705 250834 net.cpp:570] conv3 -> conv3
I1017 11:12:41.235862 250834 net.cpp:210] Setting up conv3
I1017 11:12:41.235954 250834 net.cpp:217] Top shape: 64 128 28 28 (6422528)
I1017 11:12:41.236009 250834 net.cpp:225] Memory required for data: 1994273024
I1017 11:12:41.236101 250834 layer_factory.hpp:114] Creating layer relu3
I1017 11:12:41.236181 250834 net.cpp:160] Creating Layer relu3
I1017 11:12:41.236220 250834 net.cpp:596] relu3 <- conv3
I1017 11:12:41.236268 250834 net.cpp:557] relu3 -> conv3 (in-place)
I1017 11:12:41.240778 250834 net.cpp:210] Setting up relu3
I1017 11:12:41.240865 250834 net.cpp:217] Top shape: 64 128 28 28 (6422528)
I1017 11:12:41.240912 250834 net.cpp:225] Memory required for data: 2019963136
I1017 11:12:41.240947 250834 layer_factory.hpp:114] Creating layer dropout3
I1017 11:12:41.240993 250834 net.cpp:160] Creating Layer dropout3
I1017 11:12:41.241024 250834 net.cpp:596] dropout3 <- conv3
I1017 11:12:41.241066 250834 net.cpp:570] dropout3 -> drop3
I1017 11:12:41.241140 250834 net.cpp:210] Setting up dropout3
I1017 11:12:41.241175 250834 net.cpp:217] Top shape: 64 128 28 28 (6422528)
I1017 11:12:41.241214 250834 net.cpp:225] Memory required for data: 2045653248
I1017 11:12:41.241245 250834 layer_factory.hpp:114] Creating layer pool3
I1017 11:12:41.241314 250834 net.cpp:160] Creating Layer pool3
I1017 11:12:41.241363 250834 net.cpp:596] pool3 <- drop3
I1017 11:12:41.241700 250834 net.cpp:570] pool3 -> pool3
I1017 11:12:41.246387 250834 net.cpp:210] Setting up pool3
I1017 11:12:41.246474 250834 net.cpp:217] Top shape: 64 128 14 14 (1605632)
I1017 11:12:41.246515 250834 net.cpp:225] Memory required for data: 2052075776
I1017 11:12:41.246544 250834 layer_factory.hpp:114] Creating layer conv4
I1017 11:12:41.246620 250834 net.cpp:160] Creating Layer conv4
I1017 11:12:41.246655 250834 net.cpp:596] conv4 <- pool3
I1017 11:12:41.246701 250834 net.cpp:570] conv4 -> conv4
I1017 11:12:41.327812 250834 net.cpp:210] Setting up conv4
I1017 11:12:41.327896 250834 net.cpp:217] Top shape: 64 128 12 12 (1179648)
I1017 11:12:41.327942 250834 net.cpp:225] Memory required for data: 2056794368
I1017 11:12:41.328006 250834 layer_factory.hpp:114] Creating layer relu4
I1017 11:12:41.328075 250834 net.cpp:160] Creating Layer relu4
I1017 11:12:41.328111 250834 net.cpp:596] relu4 <- conv4
I1017 11:12:41.328157 250834 net.cpp:557] relu4 -> conv4 (in-place)
I1017 11:12:41.332779 250834 net.cpp:210] Setting up relu4
I1017 11:12:41.332866 250834 net.cpp:217] Top shape: 64 128 12 12 (1179648)
I1017 11:12:41.332911 250834 net.cpp:225] Memory required for data: 2061512960
I1017 11:12:41.332945 250834 layer_factory.hpp:114] Creating layer dropout4
I1017 11:12:41.332993 250834 net.cpp:160] Creating Layer dropout4
I1017 11:12:41.333020 250834 net.cpp:596] dropout4 <- conv4
I1017 11:12:41.333061 250834 net.cpp:570] dropout4 -> drop4
I1017 11:12:41.333130 250834 net.cpp:210] Setting up dropout4
I1017 11:12:41.333163 250834 net.cpp:217] Top shape: 64 128 12 12 (1179648)
I1017 11:12:41.333202 250834 net.cpp:225] Memory required for data: 2066231552
I1017 11:12:41.333232 250834 layer_factory.hpp:114] Creating layer pool4
I1017 11:12:41.333299 250834 net.cpp:160] Creating Layer pool4
I1017 11:12:41.333348 250834 net.cpp:596] pool4 <- drop4
I1017 11:12:41.333472 250834 net.cpp:570] pool4 -> pool4
I1017 11:12:41.338243 250834 net.cpp:210] Setting up pool4
I1017 11:12:41.338352 250834 net.cpp:217] Top shape: 64 128 6 6 (294912)
I1017 11:12:41.338393 250834 net.cpp:225] Memory required for data: 2067411200
I1017 11:12:41.338423 250834 layer_factory.hpp:114] Creating layer fc1
I1017 11:12:41.338493 250834 net.cpp:160] Creating Layer fc1
I1017 11:12:41.338526 250834 net.cpp:596] fc1 <- pool4
I1017 11:12:41.338568 250834 net.cpp:570] fc1 -> fc1
I1017 11:12:41.574586 250834 net.cpp:210] Setting up fc1
I1017 11:12:41.574673 250834 net.cpp:217] Top shape: 64 1024 (65536)
I1017 11:12:41.574713 250834 net.cpp:225] Memory required for data: 2067673344
I1017 11:12:41.574780 250834 layer_factory.hpp:114] Creating layer dropout5
I1017 11:12:41.574831 250834 net.cpp:160] Creating Layer dropout5
I1017 11:12:41.574857 250834 net.cpp:596] dropout5 <- fc1
I1017 11:12:41.574894 250834 net.cpp:570] dropout5 -> drop5
I1017 11:12:41.574957 250834 net.cpp:210] Setting up dropout5
I1017 11:12:41.574985 250834 net.cpp:217] Top shape: 64 1024 (65536)
I1017 11:12:41.575021 250834 net.cpp:225] Memory required for data: 2067935488
I1017 11:12:41.575045 250834 layer_factory.hpp:114] Creating layer fc2
I1017 11:12:41.575122 250834 net.cpp:160] Creating Layer fc2
I1017 11:12:41.575217 250834 net.cpp:596] fc2 <- drop5
I1017 11:12:41.575557 250834 net.cpp:570] fc2 -> fc2
I1017 11:12:41.579231 250834 net.cpp:210] Setting up fc2
I1017 11:12:41.579318 250834 net.cpp:217] Top shape: 64 2 (128)
I1017 11:12:41.579356 250834 net.cpp:225] Memory required for data: 2067936000
I1017 11:12:41.579411 250834 layer_factory.hpp:114] Creating layer loss
I1017 11:12:41.579470 250834 net.cpp:160] Creating Layer loss
I1017 11:12:41.579499 250834 net.cpp:596] loss <- fc2
I1017 11:12:41.579526 250834 net.cpp:596] loss <- label
I1017 11:12:41.579602 250834 net.cpp:570] loss -> (automatic)
I1017 11:12:41.579682 250834 layer_factory.hpp:114] Creating layer loss
…
