…
I1017 11:08:57.150257 250644 net.cpp:484] The NetState phase (0) differed from the phase (1) specified by a rule in layer data
I1017 11:08:57.151285 250644 net.cpp:120] Initializing net from parameters: 
name: "HEP_CLASSIFIER"
state {
  phase: TRAIN
  level: 0
  stage: ""
}
layer {
  name: "data"
  type: "DummyData"
  top: "data"
  top: "label"
  include {
    phase: TRAIN
  }
  dummy_data_param {
    data_filler {
      type: "gaussian"
      std: 1
    }
    data_filler {
      type: "constant"
      value: 0
    }
    shape {
      dim: 64
      dim: 3
      dim: 124
      dim: 124
    }
    shape {
      dim: 64
      dim: 1
      dim: 1
      dim: 1
    }
  }
}
layer {
  name: "conv1"
  type: "Convolution"
  bottom: "data"
  top: "conv1"
  convolution_param {
    num_output: 128
    pad: 0
    kernel_size: 3
    stride: 1
    weight_filler {
      type: "msra"
    }
    bias_filler {
      type: "constant"
      value: 0
    }
  }
}
layer {
  name: "relu1"
  type: "ReLU"
  bottom: "conv1"
  top: "conv1"
  relu_param {
    negative_slope: 0.1
  }
}
layer {
  name: "dropout1"
  type: "Dropout"
  bottom: "conv1"
  top: "drop1"
}
layer {
  name: "pool1"
  type: "Pooling"
  bottom: "drop1"
  top: "pool1"
  pooling_param {
    pool: MAX
    kernel_size: 2
    stride: 2
  }
}
layer {
  name: "conv2"
  type: "Convolution"
  bottom: "pool1"
  top: "conv2"
  convolution_param {
    num_output: 128
    pad: 0
    kernel_size: 3
    stride: 1
    weight_filler {
      type: "msra"
    }
    bias_filler {
      type: "constant"
      value: 0
    }
  }
}
layer {
  name: "relu2"
  type: "ReLU"
  bottom: "conv2"
  top: "conv2"
  relu_param {
    negative_slope: 0.1
  }
}
layer {
  name: "dropout2"
  type: "Dropout"
  bottom: "conv2"
  top: "drop2"
}
layer {
  name: "pool2"
  type: "Pooling"
  bottom: "drop2"
  top: "pool2"
  pooling_param {
    pool: MAX
    kernel_size: 2
    stride: 2
  }
}
layer {
  name: "conv3"
  type: "Convolution"
  bottom: "pool2"
  top: "conv3"
  convolution_param {
    num_output: 128
    pad: 0
    kernel_size: 3
    stride: 1
    weight_filler {
      type: "msra"
    }
    bias_filler {
      type: "constant"
      value: 0
    }
  }
}
layer {
  name: "relu3"
  type: "ReLU"
  bottom: "conv3"
  top: "conv3"
  relu_param {
    negative_slope: 0.1
  }
}
layer {
  name: "dropout3"
  type: "Dropout"
  bottom: "conv3"
  top: "drop3"
}
layer {
  name: "pool3"
  type: "Pooling"
  bottom: "drop3"
  top: "pool3"
  pooling_param {
    pool: MAX
    kernel_size: 2
    stride: 2
  }
}
layer {
  name: "conv4"
  type: "Convolution"
  bottom: "pool3"
  top: "conv4"
  convolution_param {
    num_output: 128
    pad: 0
    kernel_size: 3
    stride: 1
    weight_filler {
      type: "msra"
    }
    bias_filler {
      type: "constant"
      value: 0
    }
  }
}
layer {
  name: "relu4"
  type: "ReLU"
  bottom: "conv4"
  top: "conv4"
  relu_param {
    negative_slope: 0.1
  }
}
layer {
  name: "dropout4"
  type: "Dropout"
  bottom: "conv4"
  top: "drop4"
}
layer {
  name: "pool4"
  type: "Pooling"
  bottom: "drop4"
  top: "pool4"
  pooling_param {
    pool: MAX
    kernel_size: 2
    stride: 2
  }
}
layer {
  name: "fc1"
  type: "InnerProduct"
  bottom: "pool4"
  top: "fc1"
  inner_product_param {
    num_output: 1024
    weight_filler {
      type: "msra"
    }
    bias_filler {
      type: "constant"
      value: 0
    }
  }
}
layer {
  name: "dropout5"
  type: "Dropout"
  bottom: "fc1"
  top: "drop5"
}
layer {
  name: "fc2"
  type: "InnerProduct"
  bottom: "drop5"
  top: "fc2"
  inner_product_param {
    num_output: 2
    weight_filler {
      type: "msra"
    }
    bias_filler {
      type: "constant"
      value: 0
    }
  }
}
layer {
  name: "loss"
  type: "SoftmaxWithLoss"
  bottom: "fc2"
  bottom: "label"
}
I1017 11:08:57.152711 250644 layer_factory.hpp:114] Creating layer data
I1017 11:08:57.152792 250644 net.cpp:160] Creating Layer data
I1017 11:08:57.152827 250644 net.cpp:570] data -> data
I1017 11:08:57.152897 250644 net.cpp:570] data -> label
I1017 11:08:57.175802 250644 net.cpp:210] Setting up data
I1017 11:08:57.175906 250644 net.cpp:217] Top shape: 64 3 124 124 (2952192)
I1017 11:08:57.175971 250644 net.cpp:217] Top shape: 64 1 1 1 (64)
I1017 11:08:57.176007 250644 net.cpp:225] Memory required for data: 11809024
I1017 11:08:57.176043 250644 layer_factory.hpp:114] Creating layer conv1
I1017 11:08:57.176163 250644 net.cpp:160] Creating Layer conv1
I1017 11:08:57.176211 250644 net.cpp:596] conv1 <- data
I1017 11:08:57.176291 250644 net.cpp:570] conv1 -> conv1
I1017 11:08:57.297112 250644 net.cpp:210] Setting up conv1
I1017 11:08:57.297194 250644 net.cpp:217] Top shape: 64 128 122 122 (121929728)
I1017 11:08:57.297235 250644 net.cpp:225] Memory required for data: 499527936
I1017 11:08:57.297312 250644 layer_factory.hpp:114] Creating layer relu1
I1017 11:08:57.297380 250644 net.cpp:160] Creating Layer relu1
I1017 11:08:57.297406 250644 net.cpp:596] relu1 <- conv1
I1017 11:08:57.297440 250644 net.cpp:557] relu1 -> conv1 (in-place)
I1017 11:08:57.301813 250644 net.cpp:210] Setting up relu1
I1017 11:08:57.301899 250644 net.cpp:217] Top shape: 64 128 122 122 (121929728)
I1017 11:08:57.301944 250644 net.cpp:225] Memory required for data: 987246848
I1017 11:08:57.301973 250644 layer_factory.hpp:114] Creating layer dropout1
I1017 11:08:57.302018 250644 net.cpp:160] Creating Layer dropout1
I1017 11:08:57.302040 250644 net.cpp:596] dropout1 <- conv1
I1017 11:08:57.302074 250644 net.cpp:570] dropout1 -> drop1
I1017 11:08:57.302132 250644 net.cpp:210] Setting up dropout1
I1017 11:08:57.302158 250644 net.cpp:217] Top shape: 64 128 122 122 (121929728)
I1017 11:08:57.302189 250644 net.cpp:225] Memory required for data: 1474965760
I1017 11:08:57.302215 250644 layer_factory.hpp:114] Creating layer pool1
I1017 11:08:57.302281 250644 net.cpp:160] Creating Layer pool1
I1017 11:08:57.302309 250644 net.cpp:596] pool1 <- drop1
I1017 11:08:57.302347 250644 net.cpp:570] pool1 -> pool1
I1017 11:08:57.307030 250644 net.cpp:210] Setting up pool1
I1017 11:08:57.307121 250644 net.cpp:217] Top shape: 64 128 61 61 (30482432)
I1017 11:08:57.307166 250644 net.cpp:225] Memory required for data: 1596895488
I1017 11:08:57.307195 250644 layer_factory.hpp:114] Creating layer conv2
I1017 11:08:57.307271 250644 net.cpp:160] Creating Layer conv2
I1017 11:08:57.307298 250644 net.cpp:596] conv2 <- pool1
I1017 11:08:57.307338 250644 net.cpp:570] conv2 -> conv2
I1017 11:08:57.448796 250644 net.cpp:210] Setting up conv2
I1017 11:08:57.448895 250644 net.cpp:217] Top shape: 64 128 59 59 (28516352)
I1017 11:08:57.448966 250644 net.cpp:225] Memory required for data: 1710960896
I1017 11:08:57.449057 250644 layer_factory.hpp:114] Creating layer relu2
I1017 11:08:57.449156 250644 net.cpp:160] Creating Layer relu2
I1017 11:08:57.449213 250644 net.cpp:596] relu2 <- conv2
I1017 11:08:57.449280 250644 net.cpp:557] relu2 -> conv2 (in-place)
I1017 11:08:57.454478 250644 net.cpp:210] Setting up relu2
I1017 11:08:57.454568 250644 net.cpp:217] Top shape: 64 128 59 59 (28516352)
I1017 11:08:57.454617 250644 net.cpp:225] Memory required for data: 1825026304
I1017 11:08:57.454650 250644 layer_factory.hpp:114] Creating layer dropout2
I1017 11:08:57.454701 250644 net.cpp:160] Creating Layer dropout2
I1017 11:08:57.454731 250644 net.cpp:596] dropout2 <- conv2
I1017 11:08:57.454776 250644 net.cpp:570] dropout2 -> drop2
I1017 11:08:57.454849 250644 net.cpp:210] Setting up dropout2
I1017 11:08:57.454885 250644 net.cpp:217] Top shape: 64 128 59 59 (28516352)
I1017 11:08:57.454924 250644 net.cpp:225] Memory required for data: 1939091712
I1017 11:08:57.454972 250644 layer_factory.hpp:114] Creating layer pool2
I1017 11:08:57.455047 250644 net.cpp:160] Creating Layer pool2
I1017 11:08:57.455090 250644 net.cpp:596] pool2 <- drop2
I1017 11:08:57.455163 250644 net.cpp:570] pool2 -> pool2
I1017 11:08:57.460000 250644 net.cpp:210] Setting up pool2
I1017 11:08:57.460094 250644 net.cpp:217] Top shape: 64 128 30 30 (7372800)
I1017 11:08:57.460145 250644 net.cpp:225] Memory required for data: 1968582912
I1017 11:08:57.460180 250644 layer_factory.hpp:114] Creating layer conv3
I1017 11:08:57.460266 250644 net.cpp:160] Creating Layer conv3
I1017 11:08:57.460309 250644 net.cpp:596] conv3 <- pool2
I1017 11:08:57.460368 250644 net.cpp:570] conv3 -> conv3
I1017 11:08:57.561420 250644 net.cpp:210] Setting up conv3
I1017 11:08:57.561523 250644 net.cpp:217] Top shape: 64 128 28 28 (6422528)
I1017 11:08:57.561592 250644 net.cpp:225] Memory required for data: 1994273024
I1017 11:08:57.561684 250644 layer_factory.hpp:114] Creating layer relu3
I1017 11:08:57.561781 250644 net.cpp:160] Creating Layer relu3
I1017 11:08:57.561831 250644 net.cpp:596] relu3 <- conv3
I1017 11:08:57.561892 250644 net.cpp:557] relu3 -> conv3 (in-place)
I1017 11:08:57.567050 250644 net.cpp:210] Setting up relu3
I1017 11:08:57.567139 250644 net.cpp:217] Top shape: 64 128 28 28 (6422528)
I1017 11:08:57.567185 250644 net.cpp:225] Memory required for data: 2019963136
I1017 11:08:57.567217 250644 layer_factory.hpp:114] Creating layer dropout3
I1017 11:08:57.567266 250644 net.cpp:160] Creating Layer dropout3
I1017 11:08:57.567298 250644 net.cpp:596] dropout3 <- conv3
I1017 11:08:57.567344 250644 net.cpp:570] dropout3 -> drop3
I1017 11:08:57.567416 250644 net.cpp:210] Setting up dropout3
I1017 11:08:57.567451 250644 net.cpp:217] Top shape: 64 128 28 28 (6422528)
I1017 11:08:57.567490 250644 net.cpp:225] Memory required for data: 2045653248
I1017 11:08:57.567528 250644 layer_factory.hpp:114] Creating layer pool3
I1017 11:08:57.567699 250644 net.cpp:160] Creating Layer pool3
I1017 11:08:57.568055 250644 net.cpp:596] pool3 <- drop3
I1017 11:08:57.568449 250644 net.cpp:570] pool3 -> pool3
I1017 11:08:57.573197 250644 net.cpp:210] Setting up pool3
I1017 11:08:57.573287 250644 net.cpp:217] Top shape: 64 128 14 14 (1605632)
I1017 11:08:57.573328 250644 net.cpp:225] Memory required for data: 2052075776
I1017 11:08:57.573356 250644 layer_factory.hpp:114] Creating layer conv4
I1017 11:08:57.573437 250644 net.cpp:160] Creating Layer conv4
I1017 11:08:57.573470 250644 net.cpp:596] conv4 <- pool3
I1017 11:08:57.573520 250644 net.cpp:570] conv4 -> conv4
I1017 11:08:57.659531 250644 net.cpp:210] Setting up conv4
I1017 11:08:57.659651 250644 net.cpp:217] Top shape: 64 128 12 12 (1179648)
I1017 11:08:57.659704 250644 net.cpp:225] Memory required for data: 2056794368
I1017 11:08:57.659771 250644 layer_factory.hpp:114] Creating layer relu4
I1017 11:08:57.659842 250644 net.cpp:160] Creating Layer relu4
I1017 11:08:57.659880 250644 net.cpp:596] relu4 <- conv4
I1017 11:08:57.659931 250644 net.cpp:557] relu4 -> conv4 (in-place)
I1017 11:08:57.664566 250644 net.cpp:210] Setting up relu4
I1017 11:08:57.664656 250644 net.cpp:217] Top shape: 64 128 12 12 (1179648)
I1017 11:08:57.664701 250644 net.cpp:225] Memory required for data: 2061512960
I1017 11:08:57.664734 250644 layer_factory.hpp:114] Creating layer dropout4
I1017 11:08:57.664782 250644 net.cpp:160] Creating Layer dropout4
I1017 11:08:57.664810 250644 net.cpp:596] dropout4 <- conv4
I1017 11:08:57.664855 250644 net.cpp:570] dropout4 -> drop4
I1017 11:08:57.664928 250644 net.cpp:210] Setting up dropout4
I1017 11:08:57.664963 250644 net.cpp:217] Top shape: 64 128 12 12 (1179648)
I1017 11:08:57.665000 250644 net.cpp:225] Memory required for data: 2066231552
I1017 11:08:57.665040 250644 layer_factory.hpp:114] Creating layer pool4
I1017 11:08:57.665122 250644 net.cpp:160] Creating Layer pool4
I1017 11:08:57.665174 250644 net.cpp:596] pool4 <- drop4
I1017 11:08:57.665510 250644 net.cpp:570] pool4 -> pool4
I1017 11:08:57.670317 250644 net.cpp:210] Setting up pool4
I1017 11:08:57.670430 250644 net.cpp:217] Top shape: 64 128 6 6 (294912)
I1017 11:08:57.670471 250644 net.cpp:225] Memory required for data: 2067411200
I1017 11:08:57.670500 250644 layer_factory.hpp:114] Creating layer fc1
I1017 11:08:57.670572 250644 net.cpp:160] Creating Layer fc1
I1017 11:08:57.670604 250644 net.cpp:596] fc1 <- pool4
I1017 11:08:57.670649 250644 net.cpp:570] fc1 -> fc1
I1017 11:08:57.906702 250644 net.cpp:210] Setting up fc1
I1017 11:08:57.906791 250644 net.cpp:217] Top shape: 64 1024 (65536)
I1017 11:08:57.906833 250644 net.cpp:225] Memory required for data: 2067673344
I1017 11:08:57.906901 250644 layer_factory.hpp:114] Creating layer dropout5
I1017 11:08:57.906951 250644 net.cpp:160] Creating Layer dropout5
I1017 11:08:57.906977 250644 net.cpp:596] dropout5 <- fc1
I1017 11:08:57.907016 250644 net.cpp:570] dropout5 -> drop5
I1017 11:08:57.907083 250644 net.cpp:210] Setting up dropout5
I1017 11:08:57.907119 250644 net.cpp:217] Top shape: 64 1024 (65536)
I1017 11:08:57.907173 250644 net.cpp:225] Memory required for data: 2067935488
I1017 11:08:57.907217 250644 layer_factory.hpp:114] Creating layer fc2
I1017 11:08:57.907344 250644 net.cpp:160] Creating Layer fc2
I1017 11:08:57.907655 250644 net.cpp:596] fc2 <- drop5
I1017 11:08:57.907738 250644 net.cpp:570] fc2 -> fc2
I1017 11:08:57.911762 250644 net.cpp:210] Setting up fc2
I1017 11:08:57.911854 250644 net.cpp:217] Top shape: 64 2 (128)
I1017 11:08:57.911893 250644 net.cpp:225] Memory required for data: 2067936000
I1017 11:08:57.911948 250644 layer_factory.hpp:114] Creating layer loss
I1017 11:08:57.912011 250644 net.cpp:160] Creating Layer loss
I1017 11:08:57.912044 250644 net.cpp:596] loss <- fc2
I1017 11:08:57.912072 250644 net.cpp:596] loss <- label
I1017 11:08:57.912156 250644 net.cpp:570] loss -> (automatic)
I1017 11:08:57.912250 250644 layer_factory.hpp:114] Creating layer loss
…
