…
I1017 11:07:30.308118 250465 net.cpp:484] The NetState phase (0) differed from the phase (1) specified by a rule in layer data
I1017 11:07:30.309200 250465 net.cpp:120] Initializing net from parameters: 
name: "HEP_CLASSIFIER"
state {
  phase: TRAIN
  level: 0
  stage: ""
}
layer {
  name: "data"
  type: "DummyData"
  top: "data"
  top: "label"
  include {
    phase: TRAIN
  }
  dummy_data_param {
    data_filler {
      type: "gaussian"
      std: 1
    }
    data_filler {
      type: "constant"
      value: 0
    }
    shape {
      dim: 64
      dim: 3
      dim: 124
      dim: 124
    }
    shape {
      dim: 64
      dim: 1
      dim: 1
      dim: 1
    }
  }
}
layer {
  name: "conv1"
  type: "Convolution"
  bottom: "data"
  top: "conv1"
  convolution_param {
    num_output: 128
    pad: 0
    kernel_size: 3
    stride: 1
    weight_filler {
      type: "msra"
    }
    bias_filler {
      type: "constant"
      value: 0
    }
  }
}
layer {
  name: "relu1"
  type: "ReLU"
  bottom: "conv1"
  top: "conv1"
  relu_param {
    negative_slope: 0.1
  }
}
layer {
  name: "dropout1"
  type: "Dropout"
  bottom: "conv1"
  top: "drop1"
}
layer {
  name: "pool1"
  type: "Pooling"
  bottom: "drop1"
  top: "pool1"
  pooling_param {
    pool: MAX
    kernel_size: 2
    stride: 2
  }
}
layer {
  name: "conv2"
  type: "Convolution"
  bottom: "pool1"
  top: "conv2"
  convolution_param {
    num_output: 128
    pad: 0
    kernel_size: 3
    stride: 1
    weight_filler {
      type: "msra"
    }
    bias_filler {
      type: "constant"
      value: 0
    }
  }
}
layer {
  name: "relu2"
  type: "ReLU"
  bottom: "conv2"
  top: "conv2"
  relu_param {
    negative_slope: 0.1
  }
}
layer {
  name: "dropout2"
  type: "Dropout"
  bottom: "conv2"
  top: "drop2"
}
layer {
  name: "pool2"
  type: "Pooling"
  bottom: "drop2"
  top: "pool2"
  pooling_param {
    pool: MAX
    kernel_size: 2
    stride: 2
  }
}
layer {
  name: "conv3"
  type: "Convolution"
  bottom: "pool2"
  top: "conv3"
  convolution_param {
    num_output: 128
    pad: 0
    kernel_size: 3
    stride: 1
    weight_filler {
      type: "msra"
    }
    bias_filler {
      type: "constant"
      value: 0
    }
  }
}
layer {
  name: "relu3"
  type: "ReLU"
  bottom: "conv3"
  top: "conv3"
  relu_param {
    negative_slope: 0.1
  }
}
layer {
  name: "dropout3"
  type: "Dropout"
  bottom: "conv3"
  top: "drop3"
}
layer {
  name: "pool3"
  type: "Pooling"
  bottom: "drop3"
  top: "pool3"
  pooling_param {
    pool: MAX
    kernel_size: 2
    stride: 2
  }
}
layer {
  name: "conv4"
  type: "Convolution"
  bottom: "pool3"
  top: "conv4"
  convolution_param {
    num_output: 128
    pad: 0
    kernel_size: 3
    stride: 1
    weight_filler {
      type: "msra"
    }
    bias_filler {
      type: "constant"
      value: 0
    }
  }
}
layer {
  name: "relu4"
  type: "ReLU"
  bottom: "conv4"
  top: "conv4"
  relu_param {
    negative_slope: 0.1
  }
}
layer {
  name: "dropout4"
  type: "Dropout"
  bottom: "conv4"
  top: "drop4"
}
layer {
  name: "pool4"
  type: "Pooling"
  bottom: "drop4"
  top: "pool4"
  pooling_param {
    pool: MAX
    kernel_size: 2
    stride: 2
  }
}
layer {
  name: "fc1"
  type: "InnerProduct"
  bottom: "pool4"
  top: "fc1"
  inner_product_param {
    num_output: 1024
    weight_filler {
      type: "msra"
    }
    bias_filler {
      type: "constant"
      value: 0
    }
  }
}
layer {
  name: "dropout5"
  type: "Dropout"
  bottom: "fc1"
  top: "drop5"
}
layer {
  name: "fc2"
  type: "InnerProduct"
  bottom: "drop5"
  top: "fc2"
  inner_product_param {
    num_output: 2
    weight_filler {
      type: "msra"
    }
    bias_filler {
      type: "constant"
      value: 0
    }
  }
}
layer {
  name: "loss"
  type: "SoftmaxWithLoss"
  bottom: "fc2"
  bottom: "label"
}
I1017 11:07:30.310670 250465 layer_factory.hpp:114] Creating layer data
I1017 11:07:30.310750 250465 net.cpp:160] Creating Layer data
I1017 11:07:30.310784 250465 net.cpp:570] data -> data
I1017 11:07:30.310854 250465 net.cpp:570] data -> label
I1017 11:07:30.333874 250465 net.cpp:210] Setting up data
I1017 11:07:30.333981 250465 net.cpp:217] Top shape: 64 3 124 124 (2952192)
I1017 11:07:30.334045 250465 net.cpp:217] Top shape: 64 1 1 1 (64)
I1017 11:07:30.334080 250465 net.cpp:225] Memory required for data: 11809024
I1017 11:07:30.334112 250465 layer_factory.hpp:114] Creating layer conv1
I1017 11:07:30.334233 250465 net.cpp:160] Creating Layer conv1
I1017 11:07:30.334281 250465 net.cpp:596] conv1 <- data
I1017 11:07:30.334364 250465 net.cpp:570] conv1 -> conv1
I1017 11:07:30.502738 250465 net.cpp:210] Setting up conv1
I1017 11:07:30.502840 250465 net.cpp:217] Top shape: 64 128 122 122 (121929728)
I1017 11:07:30.502910 250465 net.cpp:225] Memory required for data: 499527936
I1017 11:07:30.503032 250465 layer_factory.hpp:114] Creating layer relu1
I1017 11:07:30.503145 250465 net.cpp:160] Creating Layer relu1
I1017 11:07:30.503199 250465 net.cpp:596] relu1 <- conv1
I1017 11:07:30.503263 250465 net.cpp:557] relu1 -> conv1 (in-place)
I1017 11:07:30.509358 250465 net.cpp:210] Setting up relu1
I1017 11:07:30.509449 250465 net.cpp:217] Top shape: 64 128 122 122 (121929728)
I1017 11:07:30.509490 250465 net.cpp:225] Memory required for data: 987246848
I1017 11:07:30.509523 250465 layer_factory.hpp:114] Creating layer dropout1
I1017 11:07:30.509572 250465 net.cpp:160] Creating Layer dropout1
I1017 11:07:30.509601 250465 net.cpp:596] dropout1 <- conv1
I1017 11:07:30.509644 250465 net.cpp:570] dropout1 -> drop1
I1017 11:07:30.509714 250465 net.cpp:210] Setting up dropout1
I1017 11:07:30.509753 250465 net.cpp:217] Top shape: 64 128 122 122 (121929728)
I1017 11:07:30.509793 250465 net.cpp:225] Memory required for data: 1474965760
I1017 11:07:30.509827 250465 layer_factory.hpp:114] Creating layer pool1
I1017 11:07:30.509943 250465 net.cpp:160] Creating Layer pool1
I1017 11:07:30.510192 250465 net.cpp:596] pool1 <- drop1
I1017 11:07:30.510306 250465 net.cpp:570] pool1 -> pool1
I1017 11:07:30.515497 250465 net.cpp:210] Setting up pool1
I1017 11:07:30.515641 250465 net.cpp:217] Top shape: 64 128 61 61 (30482432)
I1017 11:07:30.515705 250465 net.cpp:225] Memory required for data: 1596895488
I1017 11:07:30.515743 250465 layer_factory.hpp:114] Creating layer conv2
I1017 11:07:30.515838 250465 net.cpp:160] Creating Layer conv2
I1017 11:07:30.516028 250465 net.cpp:596] conv2 <- pool1
I1017 11:07:30.516100 250465 net.cpp:570] conv2 -> conv2
I1017 11:07:30.963464 250465 net.cpp:210] Setting up conv2
I1017 11:07:30.963564 250465 net.cpp:217] Top shape: 64 128 59 59 (28516352)
I1017 11:07:30.963678 250465 net.cpp:225] Memory required for data: 1710960896
I1017 11:07:30.963775 250465 layer_factory.hpp:114] Creating layer relu2
I1017 11:07:30.963903 250465 net.cpp:160] Creating Layer relu2
I1017 11:07:30.963964 250465 net.cpp:596] relu2 <- conv2
I1017 11:07:30.964035 250465 net.cpp:557] relu2 -> conv2 (in-place)
I1017 11:07:30.969218 250465 net.cpp:210] Setting up relu2
I1017 11:07:30.969307 250465 net.cpp:217] Top shape: 64 128 59 59 (28516352)
I1017 11:07:30.969352 250465 net.cpp:225] Memory required for data: 1825026304
I1017 11:07:30.969384 250465 layer_factory.hpp:114] Creating layer dropout2
I1017 11:07:30.969447 250465 net.cpp:160] Creating Layer dropout2
I1017 11:07:30.969481 250465 net.cpp:596] dropout2 <- conv2
I1017 11:07:30.969527 250465 net.cpp:570] dropout2 -> drop2
I1017 11:07:30.969606 250465 net.cpp:210] Setting up dropout2
I1017 11:07:30.969643 250465 net.cpp:217] Top shape: 64 128 59 59 (28516352)
I1017 11:07:30.969684 250465 net.cpp:225] Memory required for data: 1939091712
I1017 11:07:30.969750 250465 layer_factory.hpp:114] Creating layer pool2
I1017 11:07:30.969940 250465 net.cpp:160] Creating Layer pool2
I1017 11:07:30.970012 250465 net.cpp:596] pool2 <- drop2
I1017 11:07:30.970093 250465 net.cpp:570] pool2 -> pool2
I1017 11:07:30.974668 250465 net.cpp:210] Setting up pool2
I1017 11:07:30.974757 250465 net.cpp:217] Top shape: 64 128 30 30 (7372800)
I1017 11:07:30.974802 250465 net.cpp:225] Memory required for data: 1968582912
I1017 11:07:30.974829 250465 layer_factory.hpp:114] Creating layer conv3
I1017 11:07:30.974944 250465 net.cpp:160] Creating Layer conv3
I1017 11:07:30.974985 250465 net.cpp:596] conv3 <- pool2
I1017 11:07:30.975044 250465 net.cpp:570] conv3 -> conv3
I1017 11:07:31.148561 250465 net.cpp:210] Setting up conv3
I1017 11:07:31.148665 250465 net.cpp:217] Top shape: 64 128 28 28 (6422528)
I1017 11:07:31.148730 250465 net.cpp:225] Memory required for data: 1994273024
I1017 11:07:31.148821 250465 layer_factory.hpp:114] Creating layer relu3
I1017 11:07:31.148946 250465 net.cpp:160] Creating Layer relu3
I1017 11:07:31.149003 250465 net.cpp:596] relu3 <- conv3
I1017 11:07:31.149071 250465 net.cpp:557] relu3 -> conv3 (in-place)
I1017 11:07:31.154233 250465 net.cpp:210] Setting up relu3
I1017 11:07:31.154322 250465 net.cpp:217] Top shape: 64 128 28 28 (6422528)
I1017 11:07:31.154366 250465 net.cpp:225] Memory required for data: 2019963136
I1017 11:07:31.154399 250465 layer_factory.hpp:114] Creating layer dropout3
I1017 11:07:31.154469 250465 net.cpp:160] Creating Layer dropout3
I1017 11:07:31.154506 250465 net.cpp:596] dropout3 <- conv3
I1017 11:07:31.154553 250465 net.cpp:570] dropout3 -> drop3
I1017 11:07:31.154630 250465 net.cpp:210] Setting up dropout3
I1017 11:07:31.154669 250465 net.cpp:217] Top shape: 64 128 28 28 (6422528)
I1017 11:07:31.154711 250465 net.cpp:225] Memory required for data: 2045653248
I1017 11:07:31.154747 250465 layer_factory.hpp:114] Creating layer pool3
I1017 11:07:31.154868 250465 net.cpp:160] Creating Layer pool3
I1017 11:07:31.155097 250465 net.cpp:596] pool3 <- drop3
I1017 11:07:31.155236 250465 net.cpp:570] pool3 -> pool3
I1017 11:07:31.159752 250465 net.cpp:210] Setting up pool3
I1017 11:07:31.159838 250465 net.cpp:217] Top shape: 64 128 14 14 (1605632)
I1017 11:07:31.159879 250465 net.cpp:225] Memory required for data: 2052075776
I1017 11:07:31.159909 250465 layer_factory.hpp:114] Creating layer conv4
I1017 11:07:31.160003 250465 net.cpp:160] Creating Layer conv4
I1017 11:07:31.160039 250465 net.cpp:596] conv4 <- pool3
I1017 11:07:31.160087 250465 net.cpp:570] conv4 -> conv4
I1017 11:07:31.266436 250465 net.cpp:210] Setting up conv4
I1017 11:07:31.266528 250465 net.cpp:217] Top shape: 64 128 12 12 (1179648)
I1017 11:07:31.266582 250465 net.cpp:225] Memory required for data: 2056794368
I1017 11:07:31.266647 250465 layer_factory.hpp:114] Creating layer relu4
I1017 11:07:31.266751 250465 net.cpp:160] Creating Layer relu4
I1017 11:07:31.266803 250465 net.cpp:596] relu4 <- conv4
I1017 11:07:31.266856 250465 net.cpp:557] relu4 -> conv4 (in-place)
I1017 11:07:31.272001 250465 net.cpp:210] Setting up relu4
I1017 11:07:31.272094 250465 net.cpp:217] Top shape: 64 128 12 12 (1179648)
I1017 11:07:31.272137 250465 net.cpp:225] Memory required for data: 2061512960
I1017 11:07:31.272169 250465 layer_factory.hpp:114] Creating layer dropout4
I1017 11:07:31.272218 250465 net.cpp:160] Creating Layer dropout4
I1017 11:07:31.272248 250465 net.cpp:596] dropout4 <- conv4
I1017 11:07:31.272291 250465 net.cpp:570] dropout4 -> drop4
I1017 11:07:31.272364 250465 net.cpp:210] Setting up dropout4
I1017 11:07:31.272397 250465 net.cpp:217] Top shape: 64 128 12 12 (1179648)
I1017 11:07:31.272433 250465 net.cpp:225] Memory required for data: 2066231552
I1017 11:07:31.272462 250465 layer_factory.hpp:114] Creating layer pool4
I1017 11:07:31.272552 250465 net.cpp:160] Creating Layer pool4
I1017 11:07:31.272589 250465 net.cpp:596] pool4 <- drop4
I1017 11:07:31.272639 250465 net.cpp:570] pool4 -> pool4
I1017 11:07:31.277220 250465 net.cpp:210] Setting up pool4
I1017 11:07:31.277333 250465 net.cpp:217] Top shape: 64 128 6 6 (294912)
I1017 11:07:31.277376 250465 net.cpp:225] Memory required for data: 2067411200
I1017 11:07:31.277405 250465 layer_factory.hpp:114] Creating layer fc1
I1017 11:07:31.277498 250465 net.cpp:160] Creating Layer fc1
I1017 11:07:31.277536 250465 net.cpp:596] fc1 <- pool4
I1017 11:07:31.277588 250465 net.cpp:570] fc1 -> fc1
I1017 11:07:31.513444 250465 net.cpp:210] Setting up fc1
I1017 11:07:31.513531 250465 net.cpp:217] Top shape: 64 1024 (65536)
I1017 11:07:31.513571 250465 net.cpp:225] Memory required for data: 2067673344
I1017 11:07:31.513638 250465 layer_factory.hpp:114] Creating layer dropout5
I1017 11:07:31.513689 250465 net.cpp:160] Creating Layer dropout5
I1017 11:07:31.513715 250465 net.cpp:596] dropout5 <- fc1
I1017 11:07:31.513769 250465 net.cpp:570] dropout5 -> drop5
I1017 11:07:31.513840 250465 net.cpp:210] Setting up dropout5
I1017 11:07:31.513869 250465 net.cpp:217] Top shape: 64 1024 (65536)
I1017 11:07:31.513906 250465 net.cpp:225] Memory required for data: 2067935488
I1017 11:07:31.513936 250465 layer_factory.hpp:114] Creating layer fc2
I1017 11:07:31.514000 250465 net.cpp:160] Creating Layer fc2
I1017 11:07:31.514086 250465 net.cpp:596] fc2 <- drop5
I1017 11:07:31.514303 250465 net.cpp:570] fc2 -> fc2
I1017 11:07:31.518179 250465 net.cpp:210] Setting up fc2
I1017 11:07:31.518271 250465 net.cpp:217] Top shape: 64 2 (128)
I1017 11:07:31.518312 250465 net.cpp:225] Memory required for data: 2067936000
I1017 11:07:31.518368 250465 layer_factory.hpp:114] Creating layer loss
I1017 11:07:31.518431 250465 net.cpp:160] Creating Layer loss
I1017 11:07:31.518461 250465 net.cpp:596] loss <- fc2
I1017 11:07:31.518489 250465 net.cpp:596] loss <- label
I1017 11:07:31.518537 250465 net.cpp:570] loss -> (automatic)
I1017 11:07:31.518599 250465 layer_factory.hpp:114] Creating layer loss
…
