…
I1017 11:07:50.248564 250526 net.cpp:484] The NetState phase (0) differed from the phase (1) specified by a rule in layer data
I1017 11:07:50.249426 250526 net.cpp:120] Initializing net from parameters: 
name: "HEP_CLASSIFIER"
state {
  phase: TRAIN
  level: 0
  stage: ""
}
layer {
  name: "data"
  type: "DummyData"
  top: "data"
  top: "label"
  include {
    phase: TRAIN
  }
  dummy_data_param {
    data_filler {
      type: "gaussian"
      std: 1
    }
    data_filler {
      type: "constant"
      value: 0
    }
    shape {
      dim: 64
      dim: 3
      dim: 124
      dim: 124
    }
    shape {
      dim: 64
      dim: 1
      dim: 1
      dim: 1
    }
  }
}
layer {
  name: "conv1"
  type: "Convolution"
  bottom: "data"
  top: "conv1"
  convolution_param {
    num_output: 128
    pad: 0
    kernel_size: 3
    stride: 1
    weight_filler {
      type: "msra"
    }
    bias_filler {
      type: "constant"
      value: 0
    }
  }
}
layer {
  name: "relu1"
  type: "ReLU"
  bottom: "conv1"
  top: "conv1"
  relu_param {
    negative_slope: 0.1
  }
}
layer {
  name: "dropout1"
  type: "Dropout"
  bottom: "conv1"
  top: "drop1"
}
layer {
  name: "pool1"
  type: "Pooling"
  bottom: "drop1"
  top: "pool1"
  pooling_param {
    pool: MAX
    kernel_size: 2
    stride: 2
  }
}
layer {
  name: "conv2"
  type: "Convolution"
  bottom: "pool1"
  top: "conv2"
  convolution_param {
    num_output: 128
    pad: 0
    kernel_size: 3
    stride: 1
    weight_filler {
      type: "msra"
    }
    bias_filler {
      type: "constant"
      value: 0
    }
  }
}
layer {
  name: "relu2"
  type: "ReLU"
  bottom: "conv2"
  top: "conv2"
  relu_param {
    negative_slope: 0.1
  }
}
layer {
  name: "dropout2"
  type: "Dropout"
  bottom: "conv2"
  top: "drop2"
}
layer {
  name: "pool2"
  type: "Pooling"
  bottom: "drop2"
  top: "pool2"
  pooling_param {
    pool: MAX
    kernel_size: 2
    stride: 2
  }
}
layer {
  name: "conv3"
  type: "Convolution"
  bottom: "pool2"
  top: "conv3"
  convolution_param {
    num_output: 128
    pad: 0
    kernel_size: 3
    stride: 1
    weight_filler {
      type: "msra"
    }
    bias_filler {
      type: "constant"
      value: 0
    }
  }
}
layer {
  name: "relu3"
  type: "ReLU"
  bottom: "conv3"
  top: "conv3"
  relu_param {
    negative_slope: 0.1
  }
}
layer {
  name: "dropout3"
  type: "Dropout"
  bottom: "conv3"
  top: "drop3"
}
layer {
  name: "pool3"
  type: "Pooling"
  bottom: "drop3"
  top: "pool3"
  pooling_param {
    pool: MAX
    kernel_size: 2
    stride: 2
  }
}
layer {
  name: "conv4"
  type: "Convolution"
  bottom: "pool3"
  top: "conv4"
  convolution_param {
    num_output: 128
    pad: 0
    kernel_size: 3
    stride: 1
    weight_filler {
      type: "msra"
    }
    bias_filler {
      type: "constant"
      value: 0
    }
  }
}
layer {
  name: "relu4"
  type: "ReLU"
  bottom: "conv4"
  top: "conv4"
  relu_param {
    negative_slope: 0.1
  }
}
layer {
  name: "dropout4"
  type: "Dropout"
  bottom: "conv4"
  top: "drop4"
}
layer {
  name: "pool4"
  type: "Pooling"
  bottom: "drop4"
  top: "pool4"
  pooling_param {
    pool: MAX
    kernel_size: 2
    stride: 2
  }
}
layer {
  name: "fc1"
  type: "InnerProduct"
  bottom: "pool4"
  top: "fc1"
  inner_product_param {
    num_output: 1024
    weight_filler {
      type: "msra"
    }
    bias_filler {
      type: "constant"
      value: 0
    }
  }
}
layer {
  name: "dropout5"
  type: "Dropout"
  bottom: "fc1"
  top: "drop5"
}
layer {
  name: "fc2"
  type: "InnerProduct"
  bottom: "drop5"
  top: "fc2"
  inner_product_param {
    num_output: 2
    weight_filler {
      type: "msra"
    }
    bias_filler {
      type: "constant"
      value: 0
    }
  }
}
layer {
  name: "loss"
  type: "SoftmaxWithLoss"
  bottom: "fc2"
  bottom: "label"
}
I1017 11:07:50.250808 250526 layer_factory.hpp:114] Creating layer data
I1017 11:07:50.250885 250526 net.cpp:160] Creating Layer data
I1017 11:07:50.250921 250526 net.cpp:570] data -> data
I1017 11:07:50.250989 250526 net.cpp:570] data -> label
I1017 11:07:50.274051 250526 net.cpp:210] Setting up data
I1017 11:07:50.274161 250526 net.cpp:217] Top shape: 64 3 124 124 (2952192)
I1017 11:07:50.274230 250526 net.cpp:217] Top shape: 64 1 1 1 (64)
I1017 11:07:50.274266 250526 net.cpp:225] Memory required for data: 11809024
I1017 11:07:50.274302 250526 layer_factory.hpp:114] Creating layer conv1
I1017 11:07:50.274425 250526 net.cpp:160] Creating Layer conv1
I1017 11:07:50.274474 250526 net.cpp:596] conv1 <- data
I1017 11:07:50.274560 250526 net.cpp:570] conv1 -> conv1
I1017 11:07:50.417223 250526 net.cpp:210] Setting up conv1
I1017 11:07:50.417321 250526 net.cpp:217] Top shape: 64 128 122 122 (121929728)
I1017 11:07:50.417385 250526 net.cpp:225] Memory required for data: 499527936
I1017 11:07:50.417498 250526 layer_factory.hpp:114] Creating layer relu1
I1017 11:07:50.417606 250526 net.cpp:160] Creating Layer relu1
I1017 11:07:50.417660 250526 net.cpp:596] relu1 <- conv1
I1017 11:07:50.417727 250526 net.cpp:557] relu1 -> conv1 (in-place)
I1017 11:07:50.423151 250526 net.cpp:210] Setting up relu1
I1017 11:07:50.423243 250526 net.cpp:217] Top shape: 64 128 122 122 (121929728)
I1017 11:07:50.423288 250526 net.cpp:225] Memory required for data: 987246848
I1017 11:07:50.423321 250526 layer_factory.hpp:114] Creating layer dropout1
I1017 11:07:50.423372 250526 net.cpp:160] Creating Layer dropout1
I1017 11:07:50.423400 250526 net.cpp:596] dropout1 <- conv1
I1017 11:07:50.423441 250526 net.cpp:570] dropout1 -> drop1
I1017 11:07:50.423509 250526 net.cpp:210] Setting up dropout1
I1017 11:07:50.423545 250526 net.cpp:217] Top shape: 64 128 122 122 (121929728)
I1017 11:07:50.423663 250526 net.cpp:225] Memory required for data: 1474965760
I1017 11:07:50.423720 250526 layer_factory.hpp:114] Creating layer pool1
I1017 11:07:50.424029 250526 net.cpp:160] Creating Layer pool1
I1017 11:07:50.424110 250526 net.cpp:596] pool1 <- drop1
I1017 11:07:50.424176 250526 net.cpp:570] pool1 -> pool1
I1017 11:07:50.428984 250526 net.cpp:210] Setting up pool1
I1017 11:07:50.429077 250526 net.cpp:217] Top shape: 64 128 61 61 (30482432)
I1017 11:07:50.429121 250526 net.cpp:225] Memory required for data: 1596895488
I1017 11:07:50.429150 250526 layer_factory.hpp:114] Creating layer conv2
I1017 11:07:50.429230 250526 net.cpp:160] Creating Layer conv2
I1017 11:07:50.429265 250526 net.cpp:596] conv2 <- pool1
I1017 11:07:50.429309 250526 net.cpp:570] conv2 -> conv2
I1017 11:07:50.753387 250526 net.cpp:210] Setting up conv2
I1017 11:07:50.753489 250526 net.cpp:217] Top shape: 64 128 59 59 (28516352)
I1017 11:07:50.753562 250526 net.cpp:225] Memory required for data: 1710960896
I1017 11:07:50.753661 250526 layer_factory.hpp:114] Creating layer relu2
I1017 11:07:50.753763 250526 net.cpp:160] Creating Layer relu2
I1017 11:07:50.753818 250526 net.cpp:596] relu2 <- conv2
I1017 11:07:50.753890 250526 net.cpp:557] relu2 -> conv2 (in-place)
I1017 11:07:50.759460 250526 net.cpp:210] Setting up relu2
I1017 11:07:50.759552 250526 net.cpp:217] Top shape: 64 128 59 59 (28516352)
I1017 11:07:50.759640 250526 net.cpp:225] Memory required for data: 1825026304
I1017 11:07:50.759677 250526 layer_factory.hpp:114] Creating layer dropout2
I1017 11:07:50.759728 250526 net.cpp:160] Creating Layer dropout2
I1017 11:07:50.759757 250526 net.cpp:596] dropout2 <- conv2
I1017 11:07:50.759799 250526 net.cpp:570] dropout2 -> drop2
I1017 11:07:50.759867 250526 net.cpp:210] Setting up dropout2
I1017 11:07:50.759907 250526 net.cpp:217] Top shape: 64 128 59 59 (28516352)
I1017 11:07:50.759950 250526 net.cpp:225] Memory required for data: 1939091712
I1017 11:07:50.760015 250526 layer_factory.hpp:114] Creating layer pool2
I1017 11:07:50.760149 250526 net.cpp:160] Creating Layer pool2
I1017 11:07:50.760383 250526 net.cpp:596] pool2 <- drop2
I1017 11:07:50.760529 250526 net.cpp:570] pool2 -> pool2
I1017 11:07:50.765346 250526 net.cpp:210] Setting up pool2
I1017 11:07:50.765434 250526 net.cpp:217] Top shape: 64 128 30 30 (7372800)
I1017 11:07:50.765476 250526 net.cpp:225] Memory required for data: 1968582912
I1017 11:07:50.765504 250526 layer_factory.hpp:114] Creating layer conv3
I1017 11:07:50.765605 250526 net.cpp:160] Creating Layer conv3
I1017 11:07:50.765645 250526 net.cpp:596] conv3 <- pool2
I1017 11:07:50.765694 250526 net.cpp:570] conv3 -> conv3
I1017 11:07:50.909906 250526 net.cpp:210] Setting up conv3
I1017 11:07:50.910012 250526 net.cpp:217] Top shape: 64 128 28 28 (6422528)
I1017 11:07:50.910080 250526 net.cpp:225] Memory required for data: 1994273024
I1017 11:07:50.910215 250526 layer_factory.hpp:114] Creating layer relu3
I1017 11:07:50.910315 250526 net.cpp:160] Creating Layer relu3
I1017 11:07:50.910367 250526 net.cpp:596] relu3 <- conv3
I1017 11:07:50.910432 250526 net.cpp:557] relu3 -> conv3 (in-place)
I1017 11:07:50.915755 250526 net.cpp:210] Setting up relu3
I1017 11:07:50.915853 250526 net.cpp:217] Top shape: 64 128 28 28 (6422528)
I1017 11:07:50.915900 250526 net.cpp:225] Memory required for data: 2019963136
I1017 11:07:50.915935 250526 layer_factory.hpp:114] Creating layer dropout3
I1017 11:07:50.915987 250526 net.cpp:160] Creating Layer dropout3
I1017 11:07:50.916018 250526 net.cpp:596] dropout3 <- conv3
I1017 11:07:50.916087 250526 net.cpp:570] dropout3 -> drop3
I1017 11:07:50.916168 250526 net.cpp:210] Setting up dropout3
I1017 11:07:50.916203 250526 net.cpp:217] Top shape: 64 128 28 28 (6422528)
I1017 11:07:50.916244 250526 net.cpp:225] Memory required for data: 2045653248
I1017 11:07:50.916283 250526 layer_factory.hpp:114] Creating layer pool3
I1017 11:07:50.916385 250526 net.cpp:160] Creating Layer pool3
I1017 11:07:50.916512 250526 net.cpp:596] pool3 <- drop3
I1017 11:07:50.916599 250526 net.cpp:570] pool3 -> pool3
I1017 11:07:50.920959 250526 net.cpp:210] Setting up pool3
I1017 11:07:50.921048 250526 net.cpp:217] Top shape: 64 128 14 14 (1605632)
I1017 11:07:50.921092 250526 net.cpp:225] Memory required for data: 2052075776
I1017 11:07:50.921120 250526 layer_factory.hpp:114] Creating layer conv4
I1017 11:07:50.921233 250526 net.cpp:160] Creating Layer conv4
I1017 11:07:50.921277 250526 net.cpp:596] conv4 <- pool3
I1017 11:07:50.921329 250526 net.cpp:570] conv4 -> conv4
I1017 11:07:51.018771 250526 net.cpp:210] Setting up conv4
I1017 11:07:51.018867 250526 net.cpp:217] Top shape: 64 128 12 12 (1179648)
I1017 11:07:51.018925 250526 net.cpp:225] Memory required for data: 2056794368
I1017 11:07:51.018999 250526 layer_factory.hpp:114] Creating layer relu4
I1017 11:07:51.019107 250526 net.cpp:160] Creating Layer relu4
I1017 11:07:51.019165 250526 net.cpp:596] relu4 <- conv4
I1017 11:07:51.019225 250526 net.cpp:557] relu4 -> conv4 (in-place)
I1017 11:07:51.024063 250526 net.cpp:210] Setting up relu4
I1017 11:07:51.024157 250526 net.cpp:217] Top shape: 64 128 12 12 (1179648)
I1017 11:07:51.024209 250526 net.cpp:225] Memory required for data: 2061512960
I1017 11:07:51.024243 250526 layer_factory.hpp:114] Creating layer dropout4
I1017 11:07:51.024293 250526 net.cpp:160] Creating Layer dropout4
I1017 11:07:51.024323 250526 net.cpp:596] dropout4 <- conv4
I1017 11:07:51.024364 250526 net.cpp:570] dropout4 -> drop4
I1017 11:07:51.024438 250526 net.cpp:210] Setting up dropout4
I1017 11:07:51.024478 250526 net.cpp:217] Top shape: 64 128 12 12 (1179648)
I1017 11:07:51.024520 250526 net.cpp:225] Memory required for data: 2066231552
I1017 11:07:51.024554 250526 layer_factory.hpp:114] Creating layer pool4
I1017 11:07:51.024672 250526 net.cpp:160] Creating Layer pool4
I1017 11:07:51.024763 250526 net.cpp:596] pool4 <- drop4
I1017 11:07:51.024875 250526 net.cpp:570] pool4 -> pool4
I1017 11:07:51.029206 250526 net.cpp:210] Setting up pool4
I1017 11:07:51.029322 250526 net.cpp:217] Top shape: 64 128 6 6 (294912)
I1017 11:07:51.029366 250526 net.cpp:225] Memory required for data: 2067411200
I1017 11:07:51.029394 250526 layer_factory.hpp:114] Creating layer fc1
I1017 11:07:51.029479 250526 net.cpp:160] Creating Layer fc1
I1017 11:07:51.029520 250526 net.cpp:596] fc1 <- pool4
I1017 11:07:51.029569 250526 net.cpp:570] fc1 -> fc1
I1017 11:07:51.265594 250526 net.cpp:210] Setting up fc1
I1017 11:07:51.265682 250526 net.cpp:217] Top shape: 64 1024 (65536)
I1017 11:07:51.265723 250526 net.cpp:225] Memory required for data: 2067673344
I1017 11:07:51.265791 250526 layer_factory.hpp:114] Creating layer dropout5
I1017 11:07:51.265856 250526 net.cpp:160] Creating Layer dropout5
I1017 11:07:51.265888 250526 net.cpp:596] dropout5 <- fc1
I1017 11:07:51.265928 250526 net.cpp:570] dropout5 -> drop5
I1017 11:07:51.265992 250526 net.cpp:210] Setting up dropout5
I1017 11:07:51.266022 250526 net.cpp:217] Top shape: 64 1024 (65536)
I1017 11:07:51.266057 250526 net.cpp:225] Memory required for data: 2067935488
I1017 11:07:51.266086 250526 layer_factory.hpp:114] Creating layer fc2
I1017 11:07:51.266147 250526 net.cpp:160] Creating Layer fc2
I1017 11:07:51.266235 250526 net.cpp:596] fc2 <- drop5
I1017 11:07:51.266371 250526 net.cpp:570] fc2 -> fc2
I1017 11:07:51.270062 250526 net.cpp:210] Setting up fc2
I1017 11:07:51.270157 250526 net.cpp:217] Top shape: 64 2 (128)
I1017 11:07:51.270201 250526 net.cpp:225] Memory required for data: 2067936000
I1017 11:07:51.270261 250526 layer_factory.hpp:114] Creating layer loss
I1017 11:07:51.270328 250526 net.cpp:160] Creating Layer loss
I1017 11:07:51.270359 250526 net.cpp:596] loss <- fc2
I1017 11:07:51.270387 250526 net.cpp:596] loss <- label
I1017 11:07:51.270436 250526 net.cpp:570] loss -> (automatic)
I1017 11:07:51.270504 250526 layer_factory.hpp:114] Creating layer loss
…
