…
I1109 13:14:29.964573 157457 net.cpp:484] The NetState phase (0) differed from the phase (1) specified by a rule in layer accuracy
I1109 13:14:29.964993 157457 net.cpp:120] Initializing net from parameters: 
name: "AlexNet"
state {
  phase: TRAIN
  level: 0
  stage: ""
}
layer {
  name: "data"
  type: "DummyData"
  top: "data"
  top: "label"
  include {
    phase: TRAIN
  }
  dummy_data_param {
    data_filler {
      type: "gaussian"
      std: 1
    }
    data_filler {
      type: "constant"
      value: 0
    }
    shape {
      dim: 32
      dim: 3
      dim: 227
      dim: 227
    }
    shape {
      dim: 32
      dim: 1
      dim: 1
      dim: 1
    }
  }
}
layer {
  name: "conv1"
  type: "Convolution"
  bottom: "data"
  top: "conv1"
  param {
    lr_mult: 1
    decay_mult: 1
  }
  param {
    lr_mult: 2
    decay_mult: 0
  }
  convolution_param {
    num_output: 96
    kernel_size: 11
    stride: 4
    weight_filler {
      type: "gaussian"
      std: 0.01
    }
    bias_filler {
      type: "constant"
      value: 0
    }
    engine: MKL2017
  }
}
layer {
  name: "relu1"
  type: "ReLU"
  bottom: "conv1"
  top: "conv1"
  relu_param {
    engine: MKL2017
  }
}
layer {
  name: "norm1"
  type: "LRN"
  bottom: "conv1"
  top: "norm1"
  lrn_param {
    local_size: 5
    alpha: 0.0001
    beta: 0.75
    engine: MKL2017
  }
}
layer {
  name: "pool1"
  type: "Pooling"
  bottom: "norm1"
  top: "pool1"
  pooling_param {
    pool: MAX
    kernel_size: 3
    stride: 2
    engine: MKL2017
  }
}
layer {
  name: "conv2"
  type: "Convolution"
  bottom: "pool1"
  top: "conv2"
  param {
    lr_mult: 1
    decay_mult: 1
  }
  param {
    lr_mult: 2
    decay_mult: 0
  }
  convolution_param {
    num_output: 256
    pad: 2
    kernel_size: 5
    group: 2
    weight_filler {
      type: "gaussian"
      std: 0.01
    }
    bias_filler {
      type: "constant"
      value: 0.1
    }
    engine: MKL2017
  }
}
layer {
  name: "relu2"
  type: "ReLU"
  bottom: "conv2"
  top: "conv2"
  relu_param {
    engine: MKL2017
  }
}
layer {
  name: "norm2"
  type: "LRN"
  bottom: "conv2"
  top: "norm2"
  lrn_param {
    local_size: 5
    alpha: 0.0001
    beta: 0.75
    engine: MKL2017
  }
}
layer {
  name: "pool2"
  type: "Pooling"
  bottom: "norm2"
  top: "pool2"
  pooling_param {
    pool: MAX
    kernel_size: 3
    stride: 2
    engine: MKL2017
  }
}
layer {
  name: "conv3"
  type: "Convolution"
  bottom: "pool2"
  top: "conv3"
  param {
    lr_mult: 1
    decay_mult: 1
  }
  param {
    lr_mult: 2
    decay_mult: 0
  }
  convolution_param {
    num_output: 384
    pad: 1
    kernel_size: 3
    weight_filler {
      type: "gaussian"
      std: 0.01
    }
    bias_filler {
      type: "constant"
      value: 0
    }
    engine: MKL2017
  }
}
layer {
  name: "relu3"
  type: "ReLU"
  bottom: "conv3"
  top: "conv3"
  relu_param {
    engine: MKL2017
  }
}
layer {
  name: "conv4"
  type: "Convolution"
  bottom: "conv3"
  top: "conv4"
  param {
    lr_mult: 1
    decay_mult: 1
  }
  param {
    lr_mult: 2
    decay_mult: 0
  }
  convolution_param {
    num_output: 384
    pad: 1
    kernel_size: 3
    group: 2
    weight_filler {
      type: "gaussian"
      std: 0.01
    }
    bias_filler {
      type: "constant"
      value: 0.1
    }
    engine: MKL2017
  }
}
layer {
  name: "relu4"
  type: "ReLU"
  bottom: "conv4"
  top: "conv4"
  relu_param {
    engine: MKL2017
  }
}
layer {
  name: "conv5"
  type: "Convolution"
  bottom: "conv4"
  top: "conv5"
  param {
    lr_mult: 1
    decay_mult: 1
  }
  param {
    lr_mult: 2
    decay_mult: 0
  }
  convolution_param {
    num_output: 256
    pad: 1
    kernel_size: 3
    group: 2
    weight_filler {
      type: "gaussian"
      std: 0.01
    }
    bias_filler {
      type: "constant"
      value: 0.1
    }
    engine: MKL2017
  }
}
layer {
  name: "relu5"
  type: "ReLU"
  bottom: "conv5"
  top: "conv5"
  relu_param {
    engine: MKL2017
  }
}
layer {
  name: "pool5"
  type: "Pooling"
  bottom: "conv5"
  top: "pool5"
  pooling_param {
    pool: MAX
    kernel_size: 3
    stride: 2
    engine: MKL2017
  }
}
layer {
  name: "fc6"
  type: "InnerProduct"
  bottom: "pool5"
  top: "fc6"
  param {
    lr_mult: 1
    decay_mult: 1
  }
  param {
    lr_mult: 2
    decay_mult: 0
  }
  inner_product_param {
    num_output: 4096
    weight_filler {
      type: "gaussian"
      std: 0.005
    }
    bias_filler {
      type: "constant"
      value: 0.1
    }
  }
}
layer {
  name: "relu6"
  type: "ReLU"
  bottom: "fc6"
  top: "fc6"
}
layer {
  name: "drop6"
  type: "Dropout"
  bottom: "fc6"
  top: "fc6"
  dropout_param {
    dropout_ratio: 0.5
  }
}
layer {
  name: "fc7"
  type: "InnerProduct"
  bottom: "fc6"
  top: "fc7"
  param {
    lr_mult: 1
    decay_mult: 1
  }
  param {
    lr_mult: 2
    decay_mult: 0
  }
  inner_product_param {
    num_output: 4096
    weight_filler {
      type: "gaussian"
      std: 0.005
    }
    bias_filler {
      type: "constant"
      value: 0.1
    }
  }
}
layer {
  name: "relu7"
  type: "ReLU"
  bottom: "fc7"
  top: "fc7"
}
layer {
  name: "drop7"
  type: "Dropout"
  bottom: "fc7"
  top: "fc7"
  dropout_param {
    dropout_ratio: 0.5
  }
}
layer {
  name: "fc8"
  type: "InnerProduct"
  bottom: "fc7"
  top: "fc8"
  param {
    lr_mult: 1
    decay_mult: 1
  }
  param {
    lr_mult: 2
    decay_mult: 0
  }
  inner_product_param {
    num_output: 1000
    weight_filler {
      type: "gaussian"
      std: 0.01
    }
    bias_filler {
      type: "constant"
      value: 0
    }
  }
}
layer {
  name: "loss"
  type: "SoftmaxWithLoss"
  bottom: "fc8"
  bottom: "label"
  top: "loss"
}
I1109 13:14:29.968137 157457 layer_factory.hpp:114] Creating layer data
I1109 13:14:29.968220 157457 net.cpp:160] Creating Layer data
I1109 13:14:29.968258 157457 net.cpp:570] data -> data
I1109 13:14:29.968322 157457 net.cpp:570] data -> label
I1109 13:14:29.993309 157457 net.cpp:210] Setting up data
I1109 13:14:29.993417 157457 net.cpp:217] Top shape: 32 3 227 227 (4946784)
I1109 13:14:29.993492 157457 net.cpp:217] Top shape: 32 1 1 1 (32)
I1109 13:14:29.993538 157457 net.cpp:225] Memory required for data: 19787264
I1109 13:14:29.993582 157457 layer_factory.hpp:114] Creating layer conv1
I1109 13:14:29.993713 157457 net.cpp:160] Creating Layer conv1
I1109 13:14:29.993754 157457 net.cpp:596] conv1 <- data
I1109 13:14:29.993818 157457 net.cpp:570] conv1 -> conv1
I1109 13:14:30.085701 157457 net.cpp:210] Setting up conv1
I1109 13:14:30.085794 157457 net.cpp:217] Top shape: 32 96 55 55 (9292800)
I1109 13:14:30.085853 157457 net.cpp:225] Memory required for data: 56958464
I1109 13:14:30.085970 157457 layer_factory.hpp:114] Creating layer relu1
I1109 13:14:30.086041 157457 net.cpp:160] Creating Layer relu1
I1109 13:14:30.086071 157457 net.cpp:596] relu1 <- conv1
I1109 13:14:30.086107 157457 net.cpp:557] relu1 -> conv1 (in-place)
I1109 13:14:30.086215 157457 net.cpp:210] Setting up relu1
I1109 13:14:30.086243 157457 net.cpp:217] Top shape: 32 96 55 55 (9292800)
I1109 13:14:30.086272 157457 net.cpp:225] Memory required for data: 94129664
I1109 13:14:30.086295 157457 layer_factory.hpp:114] Creating layer norm1
I1109 13:14:30.086367 157457 net.cpp:160] Creating Layer norm1
I1109 13:14:30.086387 157457 net.cpp:596] norm1 <- conv1
I1109 13:14:30.086426 157457 net.cpp:570] norm1 -> norm1
I1109 13:14:30.086498 157457 net.cpp:210] Setting up norm1
I1109 13:14:30.086520 157457 net.cpp:217] Top shape: 32 96 55 55 (9292800)
I1109 13:14:30.086611 157457 net.cpp:225] Memory required for data: 131300864
I1109 13:14:30.086633 157457 layer_factory.hpp:114] Creating layer pool1
I1109 13:14:30.086674 157457 net.cpp:160] Creating Layer pool1
I1109 13:14:30.086694 157457 net.cpp:596] pool1 <- norm1
I1109 13:14:30.086729 157457 net.cpp:570] pool1 -> pool1
I1109 13:14:30.086810 157457 net.cpp:210] Setting up pool1
I1109 13:14:30.086833 157457 net.cpp:217] Top shape: 32 96 27 27 (2239488)
I1109 13:14:30.086858 157457 net.cpp:225] Memory required for data: 140258816
I1109 13:14:30.086877 157457 layer_factory.hpp:114] Creating layer conv2
I1109 13:14:30.086940 157457 net.cpp:160] Creating Layer conv2
I1109 13:14:30.086959 157457 net.cpp:596] conv2 <- pool1
I1109 13:14:30.086988 157457 net.cpp:570] conv2 -> conv2
I1109 13:14:30.193114 157457 net.cpp:210] Setting up conv2
I1109 13:14:30.193207 157457 net.cpp:217] Top shape: 32 256 27 27 (5971968)
I1109 13:14:30.193253 157457 net.cpp:225] Memory required for data: 164146688
I1109 13:14:30.193358 157457 layer_factory.hpp:114] Creating layer relu2
I1109 13:14:30.193426 157457 net.cpp:160] Creating Layer relu2
I1109 13:14:30.193460 157457 net.cpp:596] relu2 <- conv2
I1109 13:14:30.193506 157457 net.cpp:557] relu2 -> conv2 (in-place)
I1109 13:14:30.193608 157457 net.cpp:210] Setting up relu2
I1109 13:14:30.193639 157457 net.cpp:217] Top shape: 32 256 27 27 (5971968)
I1109 13:14:30.193673 157457 net.cpp:225] Memory required for data: 188034560
I1109 13:14:30.193701 157457 layer_factory.hpp:114] Creating layer norm2
I1109 13:14:30.193774 157457 net.cpp:160] Creating Layer norm2
I1109 13:14:30.193795 157457 net.cpp:596] norm2 <- conv2
I1109 13:14:30.193828 157457 net.cpp:570] norm2 -> norm2
I1109 13:14:30.193897 157457 net.cpp:210] Setting up norm2
I1109 13:14:30.193922 157457 net.cpp:217] Top shape: 32 256 27 27 (5971968)
I1109 13:14:30.193951 157457 net.cpp:225] Memory required for data: 211922432
I1109 13:14:30.193972 157457 layer_factory.hpp:114] Creating layer pool2
I1109 13:14:30.194011 157457 net.cpp:160] Creating Layer pool2
I1109 13:14:30.194031 157457 net.cpp:596] pool2 <- norm2
I1109 13:14:30.194082 157457 net.cpp:570] pool2 -> pool2
I1109 13:14:30.194152 157457 net.cpp:210] Setting up pool2
I1109 13:14:30.194175 157457 net.cpp:217] Top shape: 32 256 13 13 (1384448)
I1109 13:14:30.194203 157457 net.cpp:225] Memory required for data: 217460224
I1109 13:14:30.194224 157457 layer_factory.hpp:114] Creating layer conv3
I1109 13:14:30.194308 157457 net.cpp:160] Creating Layer conv3
I1109 13:14:30.194330 157457 net.cpp:596] conv3 <- pool2
I1109 13:14:30.194362 157457 net.cpp:570] conv3 -> conv3
I1109 13:14:30.299603 157457 net.cpp:210] Setting up conv3
I1109 13:14:30.299703 157457 net.cpp:217] Top shape: 32 384 13 13 (2076672)
I1109 13:14:30.299806 157457 net.cpp:225] Memory required for data: 225766912
I1109 13:14:30.299890 157457 layer_factory.hpp:114] Creating layer relu3
I1109 13:14:30.299970 157457 net.cpp:160] Creating Layer relu3
I1109 13:14:30.300011 157457 net.cpp:596] relu3 <- conv3
I1109 13:14:30.300082 157457 net.cpp:557] relu3 -> conv3 (in-place)
I1109 13:14:30.300194 157457 net.cpp:210] Setting up relu3
I1109 13:14:30.300230 157457 net.cpp:217] Top shape: 32 384 13 13 (2076672)
I1109 13:14:30.300292 157457 net.cpp:225] Memory required for data: 234073600
I1109 13:14:30.300317 157457 layer_factory.hpp:114] Creating layer conv4
I1109 13:14:30.300405 157457 net.cpp:160] Creating Layer conv4
I1109 13:14:30.300432 157457 net.cpp:596] conv4 <- conv3
I1109 13:14:30.300479 157457 net.cpp:570] conv4 -> conv4
I1109 13:14:30.393020 157457 net.cpp:210] Setting up conv4
I1109 13:14:30.393115 157457 net.cpp:217] Top shape: 32 384 13 13 (2076672)
I1109 13:14:30.393167 157457 net.cpp:225] Memory required for data: 242380288
I1109 13:14:30.393267 157457 layer_factory.hpp:114] Creating layer relu4
I1109 13:14:30.393347 157457 net.cpp:160] Creating Layer relu4
I1109 13:14:30.393389 157457 net.cpp:596] relu4 <- conv4
I1109 13:14:30.393441 157457 net.cpp:557] relu4 -> conv4 (in-place)
I1109 13:14:30.393550 157457 net.cpp:210] Setting up relu4
I1109 13:14:30.393702 157457 net.cpp:217] Top shape: 32 384 13 13 (2076672)
I1109 13:14:30.393743 157457 net.cpp:225] Memory required for data: 250686976
I1109 13:14:30.393772 157457 layer_factory.hpp:114] Creating layer conv5
I1109 13:14:30.393869 157457 net.cpp:160] Creating Layer conv5
I1109 13:14:30.393899 157457 net.cpp:596] conv5 <- conv4
I1109 13:14:30.393949 157457 net.cpp:570] conv5 -> conv5
I1109 13:14:30.470255 157457 net.cpp:210] Setting up conv5
I1109 13:14:30.470352 157457 net.cpp:217] Top shape: 32 256 13 13 (1384448)
I1109 13:14:30.470405 157457 net.cpp:225] Memory required for data: 256224768
I1109 13:14:30.470520 157457 layer_factory.hpp:114] Creating layer relu5
I1109 13:14:30.470609 157457 net.cpp:160] Creating Layer relu5
I1109 13:14:30.470652 157457 net.cpp:596] relu5 <- conv5
I1109 13:14:30.470705 157457 net.cpp:557] relu5 -> conv5 (in-place)
I1109 13:14:30.470813 157457 net.cpp:210] Setting up relu5
I1109 13:14:30.470854 157457 net.cpp:217] Top shape: 32 256 13 13 (1384448)
I1109 13:14:30.470918 157457 net.cpp:225] Memory required for data: 261762560
I1109 13:14:30.470944 157457 layer_factory.hpp:114] Creating layer pool5
I1109 13:14:30.471014 157457 net.cpp:160] Creating Layer pool5
I1109 13:14:30.471040 157457 net.cpp:596] pool5 <- conv5
I1109 13:14:30.471076 157457 net.cpp:570] pool5 -> pool5
I1109 13:14:30.471169 157457 net.cpp:210] Setting up pool5
I1109 13:14:30.471197 157457 net.cpp:217] Top shape: 32 256 6 6 (294912)
I1109 13:14:30.471227 157457 net.cpp:225] Memory required for data: 262942208
I1109 13:14:30.471251 157457 layer_factory.hpp:114] Creating layer fc6
I1109 13:14:30.471333 157457 net.cpp:160] Creating Layer fc6
I1109 13:14:30.471359 157457 net.cpp:596] fc6 <- pool5
I1109 13:14:30.471398 157457 net.cpp:570] fc6 -> fc6
I1109 13:14:32.231883 157457 net.cpp:210] Setting up fc6
I1109 13:14:32.232002 157457 net.cpp:217] Top shape: 32 4096 (131072)
I1109 13:14:32.232049 157457 net.cpp:225] Memory required for data: 263466496
I1109 13:14:32.232146 157457 layer_factory.hpp:114] Creating layer relu6
I1109 13:14:32.232272 157457 net.cpp:160] Creating Layer relu6
I1109 13:14:32.232323 157457 net.cpp:596] relu6 <- fc6
I1109 13:14:32.232388 157457 net.cpp:557] relu6 -> fc6 (in-place)
I1109 13:14:32.232538 157457 net.cpp:210] Setting up relu6
I1109 13:14:32.232573 157457 net.cpp:217] Top shape: 32 4096 (131072)
I1109 13:14:32.232605 157457 net.cpp:225] Memory required for data: 263990784
I1109 13:14:32.232630 157457 layer_factory.hpp:114] Creating layer drop6
I1109 13:14:32.232691 157457 net.cpp:160] Creating Layer drop6
I1109 13:14:32.232714 157457 net.cpp:596] drop6 <- fc6
I1109 13:14:32.232748 157457 net.cpp:557] drop6 -> fc6 (in-place)
I1109 13:14:32.232842 157457 net.cpp:210] Setting up drop6
I1109 13:14:32.232872 157457 net.cpp:217] Top shape: 32 4096 (131072)
I1109 13:14:32.232903 157457 net.cpp:225] Memory required for data: 264515072
I1109 13:14:32.232925 157457 layer_factory.hpp:114] Creating layer fc7
I1109 13:14:32.232975 157457 net.cpp:160] Creating Layer fc7
I1109 13:14:32.232996 157457 net.cpp:596] fc7 <- fc6
I1109 13:14:32.233044 157457 net.cpp:570] fc7 -> fc7
I1109 13:14:33.018615 157457 net.cpp:210] Setting up fc7
I1109 13:14:33.018740 157457 net.cpp:217] Top shape: 32 4096 (131072)
I1109 13:14:33.018792 157457 net.cpp:225] Memory required for data: 265039360
I1109 13:14:33.018896 157457 layer_factory.hpp:114] Creating layer relu7
I1109 13:14:33.019027 157457 net.cpp:160] Creating Layer relu7
I1109 13:14:33.019084 157457 net.cpp:596] relu7 <- fc7
I1109 13:14:33.019156 157457 net.cpp:557] relu7 -> fc7 (in-place)
I1109 13:14:33.019314 157457 net.cpp:210] Setting up relu7
I1109 13:14:33.019347 157457 net.cpp:217] Top shape: 32 4096 (131072)
I1109 13:14:33.019381 157457 net.cpp:225] Memory required for data: 265563648
I1109 13:14:33.019405 157457 layer_factory.hpp:114] Creating layer drop7
I1109 13:14:33.019454 157457 net.cpp:160] Creating Layer drop7
I1109 13:14:33.019477 157457 net.cpp:596] drop7 <- fc7
I1109 13:14:33.019508 157457 net.cpp:557] drop7 -> fc7 (in-place)
I1109 13:14:33.019640 157457 net.cpp:210] Setting up drop7
I1109 13:14:33.019668 157457 net.cpp:217] Top shape: 32 4096 (131072)
I1109 13:14:33.019698 157457 net.cpp:225] Memory required for data: 266087936
I1109 13:14:33.019721 157457 layer_factory.hpp:114] Creating layer fc8
I1109 13:14:33.019774 157457 net.cpp:160] Creating Layer fc8
I1109 13:14:33.019796 157457 net.cpp:596] fc8 <- fc7
I1109 13:14:33.019840 157457 net.cpp:570] fc8 -> fc8
I1109 13:14:33.211786 157457 net.cpp:210] Setting up fc8
I1109 13:14:33.211902 157457 net.cpp:217] Top shape: 32 1000 (32000)
I1109 13:14:33.211942 157457 net.cpp:225] Memory required for data: 266215936
I1109 13:14:33.212060 157457 layer_factory.hpp:114] Creating layer loss
I1109 13:14:33.212143 157457 net.cpp:160] Creating Layer loss
I1109 13:14:33.212189 157457 net.cpp:596] loss <- fc8
I1109 13:14:33.212226 157457 net.cpp:596] loss <- label
I1109 13:14:33.212276 157457 net.cpp:570] loss -> loss
I1109 13:14:33.212363 157457 layer_factory.hpp:114] Creating layer loss
…
