…
I1109 13:18:23.827324 157747 net.cpp:484] The NetState phase (0) differed from the phase (1) specified by a rule in layer accuracy
I1109 13:18:23.827708 157747 net.cpp:120] Initializing net from parameters: 
name: "AlexNet"
state {
  phase: TRAIN
  level: 0
  stage: ""
}
layer {
  name: "data"
  type: "DummyData"
  top: "data"
  top: "label"
  include {
    phase: TRAIN
  }
  dummy_data_param {
    data_filler {
      type: "gaussian"
      std: 1
    }
    data_filler {
      type: "constant"
      value: 0
    }
    shape {
      dim: 32
      dim: 3
      dim: 227
      dim: 227
    }
    shape {
      dim: 32
      dim: 1
      dim: 1
      dim: 1
    }
  }
}
layer {
  name: "conv1"
  type: "Convolution"
  bottom: "data"
  top: "conv1"
  param {
    lr_mult: 1
    decay_mult: 1
  }
  param {
    lr_mult: 2
    decay_mult: 0
  }
  convolution_param {
    num_output: 96
    kernel_size: 11
    stride: 4
    weight_filler {
      type: "gaussian"
      std: 0.01
    }
    bias_filler {
      type: "constant"
      value: 0
    }
    engine: MKL2017
  }
}
layer {
  name: "relu1"
  type: "ReLU"
  bottom: "conv1"
  top: "conv1"
  relu_param {
    engine: MKL2017
  }
}
layer {
  name: "norm1"
  type: "LRN"
  bottom: "conv1"
  top: "norm1"
  lrn_param {
    local_size: 5
    alpha: 0.0001
    beta: 0.75
    engine: MKL2017
  }
}
layer {
  name: "pool1"
  type: "Pooling"
  bottom: "norm1"
  top: "pool1"
  pooling_param {
    pool: MAX
    kernel_size: 3
    stride: 2
    engine: MKL2017
  }
}
layer {
  name: "conv2"
  type: "Convolution"
  bottom: "pool1"
  top: "conv2"
  param {
    lr_mult: 1
    decay_mult: 1
  }
  param {
    lr_mult: 2
    decay_mult: 0
  }
  convolution_param {
    num_output: 256
    pad: 2
    kernel_size: 5
    group: 2
    weight_filler {
      type: "gaussian"
      std: 0.01
    }
    bias_filler {
      type: "constant"
      value: 0.1
    }
    engine: MKL2017
  }
}
layer {
  name: "relu2"
  type: "ReLU"
  bottom: "conv2"
  top: "conv2"
  relu_param {
    engine: MKL2017
  }
}
layer {
  name: "norm2"
  type: "LRN"
  bottom: "conv2"
  top: "norm2"
  lrn_param {
    local_size: 5
    alpha: 0.0001
    beta: 0.75
    engine: MKL2017
  }
}
layer {
  name: "pool2"
  type: "Pooling"
  bottom: "norm2"
  top: "pool2"
  pooling_param {
    pool: MAX
    kernel_size: 3
    stride: 2
    engine: MKL2017
  }
}
layer {
  name: "conv3"
  type: "Convolution"
  bottom: "pool2"
  top: "conv3"
  param {
    lr_mult: 1
    decay_mult: 1
  }
  param {
    lr_mult: 2
    decay_mult: 0
  }
  convolution_param {
    num_output: 384
    pad: 1
    kernel_size: 3
    weight_filler {
      type: "gaussian"
      std: 0.01
    }
    bias_filler {
      type: "constant"
      value: 0
    }
    engine: MKL2017
  }
}
layer {
  name: "relu3"
  type: "ReLU"
  bottom: "conv3"
  top: "conv3"
  relu_param {
    engine: MKL2017
  }
}
layer {
  name: "conv4"
  type: "Convolution"
  bottom: "conv3"
  top: "conv4"
  param {
    lr_mult: 1
    decay_mult: 1
  }
  param {
    lr_mult: 2
    decay_mult: 0
  }
  convolution_param {
    num_output: 384
    pad: 1
    kernel_size: 3
    group: 2
    weight_filler {
      type: "gaussian"
      std: 0.01
    }
    bias_filler {
      type: "constant"
      value: 0.1
    }
    engine: MKL2017
  }
}
layer {
  name: "relu4"
  type: "ReLU"
  bottom: "conv4"
  top: "conv4"
  relu_param {
    engine: MKL2017
  }
}
layer {
  name: "conv5"
  type: "Convolution"
  bottom: "conv4"
  top: "conv5"
  param {
    lr_mult: 1
    decay_mult: 1
  }
  param {
    lr_mult: 2
    decay_mult: 0
  }
  convolution_param {
    num_output: 256
    pad: 1
    kernel_size: 3
    group: 2
    weight_filler {
      type: "gaussian"
      std: 0.01
    }
    bias_filler {
      type: "constant"
      value: 0.1
    }
    engine: MKL2017
  }
}
layer {
  name: "relu5"
  type: "ReLU"
  bottom: "conv5"
  top: "conv5"
  relu_param {
    engine: MKL2017
  }
}
layer {
  name: "pool5"
  type: "Pooling"
  bottom: "conv5"
  top: "pool5"
  pooling_param {
    pool: MAX
    kernel_size: 3
    stride: 2
    engine: MKL2017
  }
}
layer {
  name: "fc6"
  type: "InnerProduct"
  bottom: "pool5"
  top: "fc6"
  param {
    lr_mult: 1
    decay_mult: 1
  }
  param {
    lr_mult: 2
    decay_mult: 0
  }
  inner_product_param {
    num_output: 4096
    weight_filler {
      type: "gaussian"
      std: 0.005
    }
    bias_filler {
      type: "constant"
      value: 0.1
    }
  }
}
layer {
  name: "relu6"
  type: "ReLU"
  bottom: "fc6"
  top: "fc6"
}
layer {
  name: "drop6"
  type: "Dropout"
  bottom: "fc6"
  top: "fc6"
  dropout_param {
    dropout_ratio: 0.5
  }
}
layer {
  name: "fc7"
  type: "InnerProduct"
  bottom: "fc6"
  top: "fc7"
  param {
    lr_mult: 1
    decay_mult: 1
  }
  param {
    lr_mult: 2
    decay_mult: 0
  }
  inner_product_param {
    num_output: 4096
    weight_filler {
      type: "gaussian"
      std: 0.005
    }
    bias_filler {
      type: "constant"
      value: 0.1
    }
  }
}
layer {
  name: "relu7"
  type: "ReLU"
  bottom: "fc7"
  top: "fc7"
}
layer {
  name: "drop7"
  type: "Dropout"
  bottom: "fc7"
  top: "fc7"
  dropout_param {
    dropout_ratio: 0.5
  }
}
layer {
  name: "fc8"
  type: "InnerProduct"
  bottom: "fc7"
  top: "fc8"
  param {
    lr_mult: 1
    decay_mult: 1
  }
  param {
    lr_mult: 2
    decay_mult: 0
  }
  inner_product_param {
    num_output: 1000
    weight_filler {
      type: "gaussian"
      std: 0.01
    }
    bias_filler {
      type: "constant"
      value: 0
    }
  }
}
layer {
  name: "loss"
  type: "SoftmaxWithLoss"
  bottom: "fc8"
  bottom: "label"
  top: "loss"
}
I1109 13:18:23.830761 157747 layer_factory.hpp:114] Creating layer data
I1109 13:18:23.830860 157747 net.cpp:160] Creating Layer data
I1109 13:18:23.830895 157747 net.cpp:570] data -> data
I1109 13:18:23.830955 157747 net.cpp:570] data -> label
I1109 13:18:23.855602 157747 net.cpp:210] Setting up data
I1109 13:18:23.855710 157747 net.cpp:217] Top shape: 32 3 227 227 (4946784)
I1109 13:18:23.855777 157747 net.cpp:217] Top shape: 32 1 1 1 (32)
I1109 13:18:23.855815 157747 net.cpp:225] Memory required for data: 19787264
I1109 13:18:23.855857 157747 layer_factory.hpp:114] Creating layer conv1
I1109 13:18:23.856017 157747 net.cpp:160] Creating Layer conv1
I1109 13:18:23.856062 157747 net.cpp:596] conv1 <- data
I1109 13:18:23.856127 157747 net.cpp:570] conv1 -> conv1
I1109 13:18:23.946435 157747 net.cpp:210] Setting up conv1
I1109 13:18:23.946528 157747 net.cpp:217] Top shape: 32 96 55 55 (9292800)
I1109 13:18:23.946588 157747 net.cpp:225] Memory required for data: 56958464
I1109 13:18:23.946665 157747 layer_factory.hpp:114] Creating layer relu1
I1109 13:18:23.946732 157747 net.cpp:160] Creating Layer relu1
I1109 13:18:23.946760 157747 net.cpp:596] relu1 <- conv1
I1109 13:18:23.946827 157747 net.cpp:557] relu1 -> conv1 (in-place)
I1109 13:18:23.946938 157747 net.cpp:210] Setting up relu1
I1109 13:18:23.946964 157747 net.cpp:217] Top shape: 32 96 55 55 (9292800)
I1109 13:18:23.946996 157747 net.cpp:225] Memory required for data: 94129664
I1109 13:18:23.947022 157747 layer_factory.hpp:114] Creating layer norm1
I1109 13:18:23.947068 157747 net.cpp:160] Creating Layer norm1
I1109 13:18:23.947116 157747 net.cpp:596] norm1 <- conv1
I1109 13:18:23.947156 157747 net.cpp:570] norm1 -> norm1
I1109 13:18:23.947230 157747 net.cpp:210] Setting up norm1
I1109 13:18:23.947252 157747 net.cpp:217] Top shape: 32 96 55 55 (9292800)
I1109 13:18:23.947350 157747 net.cpp:225] Memory required for data: 131300864
I1109 13:18:23.947373 157747 layer_factory.hpp:114] Creating layer pool1
I1109 13:18:23.947417 157747 net.cpp:160] Creating Layer pool1
I1109 13:18:23.947437 157747 net.cpp:596] pool1 <- norm1
I1109 13:18:23.947473 157747 net.cpp:570] pool1 -> pool1
I1109 13:18:23.947558 157747 net.cpp:210] Setting up pool1
I1109 13:18:23.947582 157747 net.cpp:217] Top shape: 32 96 27 27 (2239488)
I1109 13:18:23.947607 157747 net.cpp:225] Memory required for data: 140258816
I1109 13:18:23.947626 157747 layer_factory.hpp:114] Creating layer conv2
I1109 13:18:23.947690 157747 net.cpp:160] Creating Layer conv2
I1109 13:18:23.947710 157747 net.cpp:596] conv2 <- pool1
I1109 13:18:23.947741 157747 net.cpp:570] conv2 -> conv2
I1109 13:18:24.049331 157747 net.cpp:210] Setting up conv2
I1109 13:18:24.049417 157747 net.cpp:217] Top shape: 32 256 27 27 (5971968)
I1109 13:18:24.049461 157747 net.cpp:225] Memory required for data: 164146688
I1109 13:18:24.049530 157747 layer_factory.hpp:114] Creating layer relu2
I1109 13:18:24.049600 157747 net.cpp:160] Creating Layer relu2
I1109 13:18:24.049633 157747 net.cpp:596] relu2 <- conv2
I1109 13:18:24.049707 157747 net.cpp:557] relu2 -> conv2 (in-place)
I1109 13:18:24.049815 157747 net.cpp:210] Setting up relu2
I1109 13:18:24.049847 157747 net.cpp:217] Top shape: 32 256 27 27 (5971968)
I1109 13:18:24.049882 157747 net.cpp:225] Memory required for data: 188034560
I1109 13:18:24.049911 157747 layer_factory.hpp:114] Creating layer norm2
I1109 13:18:24.049984 157747 net.cpp:160] Creating Layer norm2
I1109 13:18:24.050004 157747 net.cpp:596] norm2 <- conv2
I1109 13:18:24.050036 157747 net.cpp:570] norm2 -> norm2
I1109 13:18:24.050110 157747 net.cpp:210] Setting up norm2
I1109 13:18:24.050137 157747 net.cpp:217] Top shape: 32 256 27 27 (5971968)
I1109 13:18:24.050164 157747 net.cpp:225] Memory required for data: 211922432
I1109 13:18:24.050184 157747 layer_factory.hpp:114] Creating layer pool2
I1109 13:18:24.050222 157747 net.cpp:160] Creating Layer pool2
I1109 13:18:24.050242 157747 net.cpp:596] pool2 <- norm2
I1109 13:18:24.050292 157747 net.cpp:570] pool2 -> pool2
I1109 13:18:24.050369 157747 net.cpp:210] Setting up pool2
I1109 13:18:24.050391 157747 net.cpp:217] Top shape: 32 256 13 13 (1384448)
I1109 13:18:24.050417 157747 net.cpp:225] Memory required for data: 217460224
I1109 13:18:24.050437 157747 layer_factory.hpp:114] Creating layer conv3
I1109 13:18:24.050519 157747 net.cpp:160] Creating Layer conv3
I1109 13:18:24.050541 157747 net.cpp:596] conv3 <- pool2
I1109 13:18:24.050572 157747 net.cpp:570] conv3 -> conv3
I1109 13:18:24.152617 157747 net.cpp:210] Setting up conv3
I1109 13:18:24.152717 157747 net.cpp:217] Top shape: 32 384 13 13 (2076672)
I1109 13:18:24.152849 157747 net.cpp:225] Memory required for data: 225766912
I1109 13:18:24.152943 157747 layer_factory.hpp:114] Creating layer relu3
I1109 13:18:24.153029 157747 net.cpp:160] Creating Layer relu3
I1109 13:18:24.153069 157747 net.cpp:596] relu3 <- conv3
I1109 13:18:24.153148 157747 net.cpp:557] relu3 -> conv3 (in-place)
I1109 13:18:24.153266 157747 net.cpp:210] Setting up relu3
I1109 13:18:24.153301 157747 net.cpp:217] Top shape: 32 384 13 13 (2076672)
I1109 13:18:24.153338 157747 net.cpp:225] Memory required for data: 234073600
I1109 13:18:24.153364 157747 layer_factory.hpp:114] Creating layer conv4
I1109 13:18:24.153457 157747 net.cpp:160] Creating Layer conv4
I1109 13:18:24.153486 157747 net.cpp:596] conv4 <- conv3
I1109 13:18:24.153535 157747 net.cpp:570] conv4 -> conv4
I1109 13:18:24.244355 157747 net.cpp:210] Setting up conv4
I1109 13:18:24.244453 157747 net.cpp:217] Top shape: 32 384 13 13 (2076672)
I1109 13:18:24.244504 157747 net.cpp:225] Memory required for data: 242380288
I1109 13:18:24.244571 157747 layer_factory.hpp:114] Creating layer relu4
I1109 13:18:24.244679 157747 net.cpp:160] Creating Layer relu4
I1109 13:18:24.244721 157747 net.cpp:596] relu4 <- conv4
I1109 13:18:24.244776 157747 net.cpp:557] relu4 -> conv4 (in-place)
I1109 13:18:24.244932 157747 net.cpp:210] Setting up relu4
I1109 13:18:24.245059 157747 net.cpp:217] Top shape: 32 384 13 13 (2076672)
I1109 13:18:24.245105 157747 net.cpp:225] Memory required for data: 250686976
I1109 13:18:24.245134 157747 layer_factory.hpp:114] Creating layer conv5
I1109 13:18:24.245236 157747 net.cpp:160] Creating Layer conv5
I1109 13:18:24.245267 157747 net.cpp:596] conv5 <- conv4
I1109 13:18:24.245318 157747 net.cpp:570] conv5 -> conv5
I1109 13:18:24.319617 157747 net.cpp:210] Setting up conv5
I1109 13:18:24.319710 157747 net.cpp:217] Top shape: 32 256 13 13 (1384448)
I1109 13:18:24.319766 157747 net.cpp:225] Memory required for data: 256224768
I1109 13:18:24.319882 157747 layer_factory.hpp:114] Creating layer relu5
I1109 13:18:24.319972 157747 net.cpp:160] Creating Layer relu5
I1109 13:18:24.320013 157747 net.cpp:596] relu5 <- conv5
I1109 13:18:24.320068 157747 net.cpp:557] relu5 -> conv5 (in-place)
I1109 13:18:24.320180 157747 net.cpp:210] Setting up relu5
I1109 13:18:24.320219 157747 net.cpp:217] Top shape: 32 256 13 13 (1384448)
I1109 13:18:24.320257 157747 net.cpp:225] Memory required for data: 261762560
I1109 13:18:24.320286 157747 layer_factory.hpp:114] Creating layer pool5
I1109 13:18:24.320361 157747 net.cpp:160] Creating Layer pool5
I1109 13:18:24.320390 157747 net.cpp:596] pool5 <- conv5
I1109 13:18:24.320458 157747 net.cpp:570] pool5 -> pool5
I1109 13:18:24.320590 157747 net.cpp:210] Setting up pool5
I1109 13:18:24.320623 157747 net.cpp:217] Top shape: 32 256 6 6 (294912)
I1109 13:18:24.320683 157747 net.cpp:225] Memory required for data: 262942208
I1109 13:18:24.320708 157747 layer_factory.hpp:114] Creating layer fc6
I1109 13:18:24.320832 157747 net.cpp:160] Creating Layer fc6
I1109 13:18:24.320870 157747 net.cpp:596] fc6 <- pool5
I1109 13:18:24.320915 157747 net.cpp:570] fc6 -> fc6
I1109 13:18:26.078519 157747 net.cpp:210] Setting up fc6
I1109 13:18:26.078639 157747 net.cpp:217] Top shape: 32 4096 (131072)
I1109 13:18:26.078686 157747 net.cpp:225] Memory required for data: 263466496
I1109 13:18:26.078780 157747 layer_factory.hpp:114] Creating layer relu6
I1109 13:18:26.078905 157747 net.cpp:160] Creating Layer relu6
I1109 13:18:26.078956 157747 net.cpp:596] relu6 <- fc6
I1109 13:18:26.079027 157747 net.cpp:557] relu6 -> fc6 (in-place)
I1109 13:18:26.079154 157747 net.cpp:210] Setting up relu6
I1109 13:18:26.079216 157747 net.cpp:217] Top shape: 32 4096 (131072)
I1109 13:18:26.079247 157747 net.cpp:225] Memory required for data: 263990784
I1109 13:18:26.079272 157747 layer_factory.hpp:114] Creating layer drop6
I1109 13:18:26.079332 157747 net.cpp:160] Creating Layer drop6
I1109 13:18:26.079356 157747 net.cpp:596] drop6 <- fc6
I1109 13:18:26.079391 157747 net.cpp:557] drop6 -> fc6 (in-place)
I1109 13:18:26.079448 157747 net.cpp:210] Setting up drop6
I1109 13:18:26.079470 157747 net.cpp:217] Top shape: 32 4096 (131072)
I1109 13:18:26.079496 157747 net.cpp:225] Memory required for data: 264515072
I1109 13:18:26.079517 157747 layer_factory.hpp:114] Creating layer fc7
I1109 13:18:26.079562 157747 net.cpp:160] Creating Layer fc7
I1109 13:18:26.079581 157747 net.cpp:596] fc7 <- fc6
I1109 13:18:26.079625 157747 net.cpp:570] fc7 -> fc7
I1109 13:18:26.863646 157747 net.cpp:210] Setting up fc7
I1109 13:18:26.863765 157747 net.cpp:217] Top shape: 32 4096 (131072)
I1109 13:18:26.863808 157747 net.cpp:225] Memory required for data: 265039360
I1109 13:18:26.863888 157747 layer_factory.hpp:114] Creating layer relu7
I1109 13:18:26.863973 157747 net.cpp:160] Creating Layer relu7
I1109 13:18:26.864050 157747 net.cpp:596] relu7 <- fc7
I1109 13:18:26.864115 157747 net.cpp:557] relu7 -> fc7 (in-place)
I1109 13:18:26.864241 157747 net.cpp:210] Setting up relu7
I1109 13:18:26.864274 157747 net.cpp:217] Top shape: 32 4096 (131072)
I1109 13:18:26.864334 157747 net.cpp:225] Memory required for data: 265563648
I1109 13:18:26.864358 157747 layer_factory.hpp:114] Creating layer drop7
I1109 13:18:26.864405 157747 net.cpp:160] Creating Layer drop7
I1109 13:18:26.864425 157747 net.cpp:596] drop7 <- fc7
I1109 13:18:26.864456 157747 net.cpp:557] drop7 -> fc7 (in-place)
I1109 13:18:26.864583 157747 net.cpp:210] Setting up drop7
I1109 13:18:26.864605 157747 net.cpp:217] Top shape: 32 4096 (131072)
I1109 13:18:26.864632 157747 net.cpp:225] Memory required for data: 266087936
I1109 13:18:26.864655 157747 layer_factory.hpp:114] Creating layer fc8
I1109 13:18:26.864706 157747 net.cpp:160] Creating Layer fc8
I1109 13:18:26.864727 157747 net.cpp:596] fc8 <- fc7
I1109 13:18:26.864768 157747 net.cpp:570] fc8 -> fc8
I1109 13:18:27.056519 157747 net.cpp:210] Setting up fc8
I1109 13:18:27.056634 157747 net.cpp:217] Top shape: 32 1000 (32000)
I1109 13:18:27.056674 157747 net.cpp:225] Memory required for data: 266215936
I1109 13:18:27.056754 157747 layer_factory.hpp:114] Creating layer loss
I1109 13:18:27.056897 157747 net.cpp:160] Creating Layer loss
I1109 13:18:27.056946 157747 net.cpp:596] loss <- fc8
I1109 13:18:27.056988 157747 net.cpp:596] loss <- label
I1109 13:18:27.057049 157747 net.cpp:570] loss -> loss
I1109 13:18:27.057137 157747 layer_factory.hpp:114] Creating layer loss
…
