…
I1109 13:17:10.273527 157665 net.cpp:484] The NetState phase (0) differed from the phase (1) specified by a rule in layer accuracy
I1109 13:17:10.273984 157665 net.cpp:120] Initializing net from parameters: 
name: "AlexNet"
state {
  phase: TRAIN
  level: 0
  stage: ""
}
layer {
  name: "data"
  type: "DummyData"
  top: "data"
  top: "label"
  include {
    phase: TRAIN
  }
  dummy_data_param {
    data_filler {
      type: "gaussian"
      std: 1
    }
    data_filler {
      type: "constant"
      value: 0
    }
    shape {
      dim: 32
      dim: 3
      dim: 227
      dim: 227
    }
    shape {
      dim: 32
      dim: 1
      dim: 1
      dim: 1
    }
  }
}
layer {
  name: "conv1"
  type: "Convolution"
  bottom: "data"
  top: "conv1"
  param {
    lr_mult: 1
    decay_mult: 1
  }
  param {
    lr_mult: 2
    decay_mult: 0
  }
  convolution_param {
    num_output: 96
    kernel_size: 11
    stride: 4
    weight_filler {
      type: "gaussian"
      std: 0.01
    }
    bias_filler {
      type: "constant"
      value: 0
    }
    engine: MKL2017
  }
}
layer {
  name: "relu1"
  type: "ReLU"
  bottom: "conv1"
  top: "conv1"
  relu_param {
    engine: MKL2017
  }
}
layer {
  name: "norm1"
  type: "LRN"
  bottom: "conv1"
  top: "norm1"
  lrn_param {
    local_size: 5
    alpha: 0.0001
    beta: 0.75
    engine: MKL2017
  }
}
layer {
  name: "pool1"
  type: "Pooling"
  bottom: "norm1"
  top: "pool1"
  pooling_param {
    pool: MAX
    kernel_size: 3
    stride: 2
    engine: MKL2017
  }
}
layer {
  name: "conv2"
  type: "Convolution"
  bottom: "pool1"
  top: "conv2"
  param {
    lr_mult: 1
    decay_mult: 1
  }
  param {
    lr_mult: 2
    decay_mult: 0
  }
  convolution_param {
    num_output: 256
    pad: 2
    kernel_size: 5
    group: 2
    weight_filler {
      type: "gaussian"
      std: 0.01
    }
    bias_filler {
      type: "constant"
      value: 0.1
    }
    engine: MKL2017
  }
}
layer {
  name: "relu2"
  type: "ReLU"
  bottom: "conv2"
  top: "conv2"
  relu_param {
    engine: MKL2017
  }
}
layer {
  name: "norm2"
  type: "LRN"
  bottom: "conv2"
  top: "norm2"
  lrn_param {
    local_size: 5
    alpha: 0.0001
    beta: 0.75
    engine: MKL2017
  }
}
layer {
  name: "pool2"
  type: "Pooling"
  bottom: "norm2"
  top: "pool2"
  pooling_param {
    pool: MAX
    kernel_size: 3
    stride: 2
    engine: MKL2017
  }
}
layer {
  name: "conv3"
  type: "Convolution"
  bottom: "pool2"
  top: "conv3"
  param {
    lr_mult: 1
    decay_mult: 1
  }
  param {
    lr_mult: 2
    decay_mult: 0
  }
  convolution_param {
    num_output: 384
    pad: 1
    kernel_size: 3
    weight_filler {
      type: "gaussian"
      std: 0.01
    }
    bias_filler {
      type: "constant"
      value: 0
    }
    engine: MKL2017
  }
}
layer {
  name: "relu3"
  type: "ReLU"
  bottom: "conv3"
  top: "conv3"
  relu_param {
    engine: MKL2017
  }
}
layer {
  name: "conv4"
  type: "Convolution"
  bottom: "conv3"
  top: "conv4"
  param {
    lr_mult: 1
    decay_mult: 1
  }
  param {
    lr_mult: 2
    decay_mult: 0
  }
  convolution_param {
    num_output: 384
    pad: 1
    kernel_size: 3
    group: 2
    weight_filler {
      type: "gaussian"
      std: 0.01
    }
    bias_filler {
      type: "constant"
      value: 0.1
    }
    engine: MKL2017
  }
}
layer {
  name: "relu4"
  type: "ReLU"
  bottom: "conv4"
  top: "conv4"
  relu_param {
    engine: MKL2017
  }
}
layer {
  name: "conv5"
  type: "Convolution"
  bottom: "conv4"
  top: "conv5"
  param {
    lr_mult: 1
    decay_mult: 1
  }
  param {
    lr_mult: 2
    decay_mult: 0
  }
  convolution_param {
    num_output: 256
    pad: 1
    kernel_size: 3
    group: 2
    weight_filler {
      type: "gaussian"
      std: 0.01
    }
    bias_filler {
      type: "constant"
      value: 0.1
    }
    engine: MKL2017
  }
}
layer {
  name: "relu5"
  type: "ReLU"
  bottom: "conv5"
  top: "conv5"
  relu_param {
    engine: MKL2017
  }
}
layer {
  name: "pool5"
  type: "Pooling"
  bottom: "conv5"
  top: "pool5"
  pooling_param {
    pool: MAX
    kernel_size: 3
    stride: 2
    engine: MKL2017
  }
}
layer {
  name: "fc6"
  type: "InnerProduct"
  bottom: "pool5"
  top: "fc6"
  param {
    lr_mult: 1
    decay_mult: 1
  }
  param {
    lr_mult: 2
    decay_mult: 0
  }
  inner_product_param {
    num_output: 4096
    weight_filler {
      type: "gaussian"
      std: 0.005
    }
    bias_filler {
      type: "constant"
      value: 0.1
    }
  }
}
layer {
  name: "relu6"
  type: "ReLU"
  bottom: "fc6"
  top: "fc6"
}
layer {
  name: "drop6"
  type: "Dropout"
  bottom: "fc6"
  top: "fc6"
  dropout_param {
    dropout_ratio: 0.5
  }
}
layer {
  name: "fc7"
  type: "InnerProduct"
  bottom: "fc6"
  top: "fc7"
  param {
    lr_mult: 1
    decay_mult: 1
  }
  param {
    lr_mult: 2
    decay_mult: 0
  }
  inner_product_param {
    num_output: 4096
    weight_filler {
      type: "gaussian"
      std: 0.005
    }
    bias_filler {
      type: "constant"
      value: 0.1
    }
  }
}
layer {
  name: "relu7"
  type: "ReLU"
  bottom: "fc7"
  top: "fc7"
}
layer {
  name: "drop7"
  type: "Dropout"
  bottom: "fc7"
  top: "fc7"
  dropout_param {
    dropout_ratio: 0.5
  }
}
layer {
  name: "fc8"
  type: "InnerProduct"
  bottom: "fc7"
  top: "fc8"
  param {
    lr_mult: 1
    decay_mult: 1
  }
  param {
    lr_mult: 2
    decay_mult: 0
  }
  inner_product_param {
    num_output: 1000
    weight_filler {
      type: "gaussian"
      std: 0.01
    }
    bias_filler {
      type: "constant"
      value: 0
    }
  }
}
layer {
  name: "loss"
  type: "SoftmaxWithLoss"
  bottom: "fc8"
  bottom: "label"
  top: "loss"
}
I1109 13:17:10.277061 157665 layer_factory.hpp:114] Creating layer data
I1109 13:17:10.277130 157665 net.cpp:160] Creating Layer data
I1109 13:17:10.277165 157665 net.cpp:570] data -> data
I1109 13:17:10.277223 157665 net.cpp:570] data -> label
I1109 13:17:10.302561 157665 net.cpp:210] Setting up data
I1109 13:17:10.302671 157665 net.cpp:217] Top shape: 32 3 227 227 (4946784)
I1109 13:17:10.302743 157665 net.cpp:217] Top shape: 32 1 1 1 (32)
I1109 13:17:10.302785 157665 net.cpp:225] Memory required for data: 19787264
I1109 13:17:10.302824 157665 layer_factory.hpp:114] Creating layer conv1
I1109 13:17:10.302949 157665 net.cpp:160] Creating Layer conv1
I1109 13:17:10.302994 157665 net.cpp:596] conv1 <- data
I1109 13:17:10.303056 157665 net.cpp:570] conv1 -> conv1
I1109 13:17:10.396054 157665 net.cpp:210] Setting up conv1
I1109 13:17:10.396148 157665 net.cpp:217] Top shape: 32 96 55 55 (9292800)
I1109 13:17:10.396206 157665 net.cpp:225] Memory required for data: 56958464
I1109 13:17:10.396322 157665 layer_factory.hpp:114] Creating layer relu1
I1109 13:17:10.396390 157665 net.cpp:160] Creating Layer relu1
I1109 13:17:10.396420 157665 net.cpp:596] relu1 <- conv1
I1109 13:17:10.396456 157665 net.cpp:557] relu1 -> conv1 (in-place)
I1109 13:17:10.396564 157665 net.cpp:210] Setting up relu1
I1109 13:17:10.396590 157665 net.cpp:217] Top shape: 32 96 55 55 (9292800)
I1109 13:17:10.396620 157665 net.cpp:225] Memory required for data: 94129664
I1109 13:17:10.396642 157665 layer_factory.hpp:114] Creating layer norm1
I1109 13:17:10.396689 157665 net.cpp:160] Creating Layer norm1
I1109 13:17:10.396709 157665 net.cpp:596] norm1 <- conv1
I1109 13:17:10.396775 157665 net.cpp:570] norm1 -> norm1
I1109 13:17:10.396879 157665 net.cpp:210] Setting up norm1
I1109 13:17:10.396900 157665 net.cpp:217] Top shape: 32 96 55 55 (9292800)
I1109 13:17:10.396998 157665 net.cpp:225] Memory required for data: 131300864
I1109 13:17:10.397022 157665 layer_factory.hpp:114] Creating layer pool1
I1109 13:17:10.397068 157665 net.cpp:160] Creating Layer pool1
I1109 13:17:10.397086 157665 net.cpp:596] pool1 <- norm1
I1109 13:17:10.397121 157665 net.cpp:570] pool1 -> pool1
I1109 13:17:10.397205 157665 net.cpp:210] Setting up pool1
I1109 13:17:10.397228 157665 net.cpp:217] Top shape: 32 96 27 27 (2239488)
I1109 13:17:10.397253 157665 net.cpp:225] Memory required for data: 140258816
I1109 13:17:10.397272 157665 layer_factory.hpp:114] Creating layer conv2
I1109 13:17:10.397336 157665 net.cpp:160] Creating Layer conv2
I1109 13:17:10.397354 157665 net.cpp:596] conv2 <- pool1
I1109 13:17:10.397385 157665 net.cpp:570] conv2 -> conv2
I1109 13:17:10.501672 157665 net.cpp:210] Setting up conv2
I1109 13:17:10.501761 157665 net.cpp:217] Top shape: 32 256 27 27 (5971968)
I1109 13:17:10.501807 157665 net.cpp:225] Memory required for data: 164146688
I1109 13:17:10.501914 157665 layer_factory.hpp:114] Creating layer relu2
I1109 13:17:10.501979 157665 net.cpp:160] Creating Layer relu2
I1109 13:17:10.502012 157665 net.cpp:596] relu2 <- conv2
I1109 13:17:10.502053 157665 net.cpp:557] relu2 -> conv2 (in-place)
I1109 13:17:10.502159 157665 net.cpp:210] Setting up relu2
I1109 13:17:10.502190 157665 net.cpp:217] Top shape: 32 256 27 27 (5971968)
I1109 13:17:10.502223 157665 net.cpp:225] Memory required for data: 188034560
I1109 13:17:10.502246 157665 layer_factory.hpp:114] Creating layer norm2
I1109 13:17:10.502291 157665 net.cpp:160] Creating Layer norm2
I1109 13:17:10.502339 157665 net.cpp:596] norm2 <- conv2
I1109 13:17:10.502370 157665 net.cpp:570] norm2 -> norm2
I1109 13:17:10.502441 157665 net.cpp:210] Setting up norm2
I1109 13:17:10.502465 157665 net.cpp:217] Top shape: 32 256 27 27 (5971968)
I1109 13:17:10.502490 157665 net.cpp:225] Memory required for data: 211922432
I1109 13:17:10.502511 157665 layer_factory.hpp:114] Creating layer pool2
I1109 13:17:10.502549 157665 net.cpp:160] Creating Layer pool2
I1109 13:17:10.502568 157665 net.cpp:596] pool2 <- norm2
I1109 13:17:10.502624 157665 net.cpp:570] pool2 -> pool2
I1109 13:17:10.502704 157665 net.cpp:210] Setting up pool2
I1109 13:17:10.502729 157665 net.cpp:217] Top shape: 32 256 13 13 (1384448)
I1109 13:17:10.502756 157665 net.cpp:225] Memory required for data: 217460224
I1109 13:17:10.502777 157665 layer_factory.hpp:114] Creating layer conv3
I1109 13:17:10.502862 157665 net.cpp:160] Creating Layer conv3
I1109 13:17:10.502885 157665 net.cpp:596] conv3 <- pool2
I1109 13:17:10.502918 157665 net.cpp:570] conv3 -> conv3
I1109 13:17:10.604979 157665 net.cpp:210] Setting up conv3
I1109 13:17:10.605075 157665 net.cpp:217] Top shape: 32 384 13 13 (2076672)
I1109 13:17:10.605182 157665 net.cpp:225] Memory required for data: 225766912
I1109 13:17:10.605268 157665 layer_factory.hpp:114] Creating layer relu3
I1109 13:17:10.605347 157665 net.cpp:160] Creating Layer relu3
I1109 13:17:10.605386 157665 net.cpp:596] relu3 <- conv3
I1109 13:17:10.605455 157665 net.cpp:557] relu3 -> conv3 (in-place)
I1109 13:17:10.605566 157665 net.cpp:210] Setting up relu3
I1109 13:17:10.605600 157665 net.cpp:217] Top shape: 32 384 13 13 (2076672)
I1109 13:17:10.605635 157665 net.cpp:225] Memory required for data: 234073600
I1109 13:17:10.605690 157665 layer_factory.hpp:114] Creating layer conv4
I1109 13:17:10.605782 157665 net.cpp:160] Creating Layer conv4
I1109 13:17:10.605808 157665 net.cpp:596] conv4 <- conv3
I1109 13:17:10.605856 157665 net.cpp:570] conv4 -> conv4
I1109 13:17:10.696265 157665 net.cpp:210] Setting up conv4
I1109 13:17:10.696362 157665 net.cpp:217] Top shape: 32 384 13 13 (2076672)
I1109 13:17:10.696413 157665 net.cpp:225] Memory required for data: 242380288
I1109 13:17:10.696517 157665 layer_factory.hpp:114] Creating layer relu4
I1109 13:17:10.696599 157665 net.cpp:160] Creating Layer relu4
I1109 13:17:10.696642 157665 net.cpp:596] relu4 <- conv4
I1109 13:17:10.696696 157665 net.cpp:557] relu4 -> conv4 (in-place)
I1109 13:17:10.696847 157665 net.cpp:210] Setting up relu4
I1109 13:17:10.696969 157665 net.cpp:217] Top shape: 32 384 13 13 (2076672)
I1109 13:17:10.697016 157665 net.cpp:225] Memory required for data: 250686976
I1109 13:17:10.697074 157665 layer_factory.hpp:114] Creating layer conv5
I1109 13:17:10.697170 157665 net.cpp:160] Creating Layer conv5
I1109 13:17:10.697201 157665 net.cpp:596] conv5 <- conv4
I1109 13:17:10.697252 157665 net.cpp:570] conv5 -> conv5
I1109 13:17:10.771142 157665 net.cpp:210] Setting up conv5
I1109 13:17:10.771242 157665 net.cpp:217] Top shape: 32 256 13 13 (1384448)
I1109 13:17:10.771298 157665 net.cpp:225] Memory required for data: 256224768
I1109 13:17:10.771417 157665 layer_factory.hpp:114] Creating layer relu5
I1109 13:17:10.771504 157665 net.cpp:160] Creating Layer relu5
I1109 13:17:10.771549 157665 net.cpp:596] relu5 <- conv5
I1109 13:17:10.771605 157665 net.cpp:557] relu5 -> conv5 (in-place)
I1109 13:17:10.771716 157665 net.cpp:210] Setting up relu5
I1109 13:17:10.771757 157665 net.cpp:217] Top shape: 32 256 13 13 (1384448)
I1109 13:17:10.771822 157665 net.cpp:225] Memory required for data: 261762560
I1109 13:17:10.771852 157665 layer_factory.hpp:114] Creating layer pool5
I1109 13:17:10.771925 157665 net.cpp:160] Creating Layer pool5
I1109 13:17:10.771955 157665 net.cpp:596] pool5 <- conv5
I1109 13:17:10.771996 157665 net.cpp:570] pool5 -> pool5
I1109 13:17:10.772096 157665 net.cpp:210] Setting up pool5
I1109 13:17:10.772127 157665 net.cpp:217] Top shape: 32 256 6 6 (294912)
I1109 13:17:10.772158 157665 net.cpp:225] Memory required for data: 262942208
I1109 13:17:10.772183 157665 layer_factory.hpp:114] Creating layer fc6
I1109 13:17:10.772265 157665 net.cpp:160] Creating Layer fc6
I1109 13:17:10.772295 157665 net.cpp:596] fc6 <- pool5
I1109 13:17:10.772334 157665 net.cpp:570] fc6 -> fc6
I1109 13:17:12.536550 157665 net.cpp:210] Setting up fc6
I1109 13:17:12.536670 157665 net.cpp:217] Top shape: 32 4096 (131072)
I1109 13:17:12.536720 157665 net.cpp:225] Memory required for data: 263466496
I1109 13:17:12.536896 157665 layer_factory.hpp:114] Creating layer relu6
I1109 13:17:12.537000 157665 net.cpp:160] Creating Layer relu6
I1109 13:17:12.537058 157665 net.cpp:596] relu6 <- fc6
I1109 13:17:12.537144 157665 net.cpp:557] relu6 -> fc6 (in-place)
I1109 13:17:12.537297 157665 net.cpp:210] Setting up relu6
I1109 13:17:12.537348 157665 net.cpp:217] Top shape: 32 4096 (131072)
I1109 13:17:12.537386 157665 net.cpp:225] Memory required for data: 263990784
I1109 13:17:12.537418 157665 layer_factory.hpp:114] Creating layer drop6
I1109 13:17:12.537499 157665 net.cpp:160] Creating Layer drop6
I1109 13:17:12.537528 157665 net.cpp:596] drop6 <- fc6
I1109 13:17:12.537566 157665 net.cpp:557] drop6 -> fc6 (in-place)
I1109 13:17:12.537632 157665 net.cpp:210] Setting up drop6
I1109 13:17:12.537655 157665 net.cpp:217] Top shape: 32 4096 (131072)
I1109 13:17:12.537685 157665 net.cpp:225] Memory required for data: 264515072
I1109 13:17:12.537709 157665 layer_factory.hpp:114] Creating layer fc7
I1109 13:17:12.537758 157665 net.cpp:160] Creating Layer fc7
I1109 13:17:12.537781 157665 net.cpp:596] fc7 <- fc6
I1109 13:17:12.537830 157665 net.cpp:570] fc7 -> fc7
I1109 13:17:13.324362 157665 net.cpp:210] Setting up fc7
I1109 13:17:13.324484 157665 net.cpp:217] Top shape: 32 4096 (131072)
I1109 13:17:13.324534 157665 net.cpp:225] Memory required for data: 265039360
I1109 13:17:13.324635 157665 layer_factory.hpp:114] Creating layer relu7
I1109 13:17:13.324765 157665 net.cpp:160] Creating Layer relu7
I1109 13:17:13.324857 157665 net.cpp:596] relu7 <- fc7
I1109 13:17:13.324923 157665 net.cpp:557] relu7 -> fc7 (in-place)
I1109 13:17:13.325057 157665 net.cpp:210] Setting up relu7
I1109 13:17:13.325095 157665 net.cpp:217] Top shape: 32 4096 (131072)
I1109 13:17:13.325158 157665 net.cpp:225] Memory required for data: 265563648
I1109 13:17:13.325186 157665 layer_factory.hpp:114] Creating layer drop7
I1109 13:17:13.325238 157665 net.cpp:160] Creating Layer drop7
I1109 13:17:13.325263 157665 net.cpp:596] drop7 <- fc7
I1109 13:17:13.325297 157665 net.cpp:557] drop7 -> fc7 (in-place)
I1109 13:17:13.325431 157665 net.cpp:210] Setting up drop7
I1109 13:17:13.325461 157665 net.cpp:217] Top shape: 32 4096 (131072)
I1109 13:17:13.325491 157665 net.cpp:225] Memory required for data: 266087936
I1109 13:17:13.325513 157665 layer_factory.hpp:114] Creating layer fc8
I1109 13:17:13.325569 157665 net.cpp:160] Creating Layer fc8
I1109 13:17:13.325592 157665 net.cpp:596] fc8 <- fc7
I1109 13:17:13.325637 157665 net.cpp:570] fc8 -> fc8
I1109 13:17:13.517598 157665 net.cpp:210] Setting up fc8
I1109 13:17:13.517716 157665 net.cpp:217] Top shape: 32 1000 (32000)
I1109 13:17:13.517760 157665 net.cpp:225] Memory required for data: 266215936
I1109 13:17:13.517849 157665 layer_factory.hpp:114] Creating layer loss
I1109 13:17:13.517971 157665 net.cpp:160] Creating Layer loss
I1109 13:17:13.518021 157665 net.cpp:596] loss <- fc8
I1109 13:17:13.518059 157665 net.cpp:596] loss <- label
I1109 13:17:13.518110 157665 net.cpp:570] loss -> loss
I1109 13:17:13.518225 157665 layer_factory.hpp:114] Creating layer loss
…
