…
I1109 13:15:37.644400 157584 net.cpp:484] The NetState phase (0) differed from the phase (1) specified by a rule in layer accuracy
I1109 13:15:37.644775 157584 net.cpp:120] Initializing net from parameters: 
name: "AlexNet"
state {
  phase: TRAIN
  level: 0
  stage: ""
}
layer {
  name: "data"
  type: "DummyData"
  top: "data"
  top: "label"
  include {
    phase: TRAIN
  }
  dummy_data_param {
    data_filler {
      type: "gaussian"
      std: 1
    }
    data_filler {
      type: "constant"
      value: 0
    }
    shape {
      dim: 32
      dim: 3
      dim: 227
      dim: 227
    }
    shape {
      dim: 32
      dim: 1
      dim: 1
      dim: 1
    }
  }
}
layer {
  name: "conv1"
  type: "Convolution"
  bottom: "data"
  top: "conv1"
  param {
    lr_mult: 1
    decay_mult: 1
  }
  param {
    lr_mult: 2
    decay_mult: 0
  }
  convolution_param {
    num_output: 96
    kernel_size: 11
    stride: 4
    weight_filler {
      type: "gaussian"
      std: 0.01
    }
    bias_filler {
      type: "constant"
      value: 0
    }
    engine: MKL2017
  }
}
layer {
  name: "relu1"
  type: "ReLU"
  bottom: "conv1"
  top: "conv1"
  relu_param {
    engine: MKL2017
  }
}
layer {
  name: "norm1"
  type: "LRN"
  bottom: "conv1"
  top: "norm1"
  lrn_param {
    local_size: 5
    alpha: 0.0001
    beta: 0.75
    engine: MKL2017
  }
}
layer {
  name: "pool1"
  type: "Pooling"
  bottom: "norm1"
  top: "pool1"
  pooling_param {
    pool: MAX
    kernel_size: 3
    stride: 2
    engine: MKL2017
  }
}
layer {
  name: "conv2"
  type: "Convolution"
  bottom: "pool1"
  top: "conv2"
  param {
    lr_mult: 1
    decay_mult: 1
  }
  param {
    lr_mult: 2
    decay_mult: 0
  }
  convolution_param {
    num_output: 256
    pad: 2
    kernel_size: 5
    group: 2
    weight_filler {
      type: "gaussian"
      std: 0.01
    }
    bias_filler {
      type: "constant"
      value: 0.1
    }
    engine: MKL2017
  }
}
layer {
  name: "relu2"
  type: "ReLU"
  bottom: "conv2"
  top: "conv2"
  relu_param {
    engine: MKL2017
  }
}
layer {
  name: "norm2"
  type: "LRN"
  bottom: "conv2"
  top: "norm2"
  lrn_param {
    local_size: 5
    alpha: 0.0001
    beta: 0.75
    engine: MKL2017
  }
}
layer {
  name: "pool2"
  type: "Pooling"
  bottom: "norm2"
  top: "pool2"
  pooling_param {
    pool: MAX
    kernel_size: 3
    stride: 2
    engine: MKL2017
  }
}
layer {
  name: "conv3"
  type: "Convolution"
  bottom: "pool2"
  top: "conv3"
  param {
    lr_mult: 1
    decay_mult: 1
  }
  param {
    lr_mult: 2
    decay_mult: 0
  }
  convolution_param {
    num_output: 384
    pad: 1
    kernel_size: 3
    weight_filler {
      type: "gaussian"
      std: 0.01
    }
    bias_filler {
      type: "constant"
      value: 0
    }
    engine: MKL2017
  }
}
layer {
  name: "relu3"
  type: "ReLU"
  bottom: "conv3"
  top: "conv3"
  relu_param {
    engine: MKL2017
  }
}
layer {
  name: "conv4"
  type: "Convolution"
  bottom: "conv3"
  top: "conv4"
  param {
    lr_mult: 1
    decay_mult: 1
  }
  param {
    lr_mult: 2
    decay_mult: 0
  }
  convolution_param {
    num_output: 384
    pad: 1
    kernel_size: 3
    group: 2
    weight_filler {
      type: "gaussian"
      std: 0.01
    }
    bias_filler {
      type: "constant"
      value: 0.1
    }
    engine: MKL2017
  }
}
layer {
  name: "relu4"
  type: "ReLU"
  bottom: "conv4"
  top: "conv4"
  relu_param {
    engine: MKL2017
  }
}
layer {
  name: "conv5"
  type: "Convolution"
  bottom: "conv4"
  top: "conv5"
  param {
    lr_mult: 1
    decay_mult: 1
  }
  param {
    lr_mult: 2
    decay_mult: 0
  }
  convolution_param {
    num_output: 256
    pad: 1
    kernel_size: 3
    group: 2
    weight_filler {
      type: "gaussian"
      std: 0.01
    }
    bias_filler {
      type: "constant"
      value: 0.1
    }
    engine: MKL2017
  }
}
layer {
  name: "relu5"
  type: "ReLU"
  bottom: "conv5"
  top: "conv5"
  relu_param {
    engine: MKL2017
  }
}
layer {
  name: "pool5"
  type: "Pooling"
  bottom: "conv5"
  top: "pool5"
  pooling_param {
    pool: MAX
    kernel_size: 3
    stride: 2
    engine: MKL2017
  }
}
layer {
  name: "fc6"
  type: "InnerProduct"
  bottom: "pool5"
  top: "fc6"
  param {
    lr_mult: 1
    decay_mult: 1
  }
  param {
    lr_mult: 2
    decay_mult: 0
  }
  inner_product_param {
    num_output: 4096
    weight_filler {
      type: "gaussian"
      std: 0.005
    }
    bias_filler {
      type: "constant"
      value: 0.1
    }
  }
}
layer {
  name: "relu6"
  type: "ReLU"
  bottom: "fc6"
  top: "fc6"
}
layer {
  name: "drop6"
  type: "Dropout"
  bottom: "fc6"
  top: "fc6"
  dropout_param {
    dropout_ratio: 0.5
  }
}
layer {
  name: "fc7"
  type: "InnerProduct"
  bottom: "fc6"
  top: "fc7"
  param {
    lr_mult: 1
    decay_mult: 1
  }
  param {
    lr_mult: 2
    decay_mult: 0
  }
  inner_product_param {
    num_output: 4096
    weight_filler {
      type: "gaussian"
      std: 0.005
    }
    bias_filler {
      type: "constant"
      value: 0.1
    }
  }
}
layer {
  name: "relu7"
  type: "ReLU"
  bottom: "fc7"
  top: "fc7"
}
layer {
  name: "drop7"
  type: "Dropout"
  bottom: "fc7"
  top: "fc7"
  dropout_param {
    dropout_ratio: 0.5
  }
}
layer {
  name: "fc8"
  type: "InnerProduct"
  bottom: "fc7"
  top: "fc8"
  param {
    lr_mult: 1
    decay_mult: 1
  }
  param {
    lr_mult: 2
    decay_mult: 0
  }
  inner_product_param {
    num_output: 1000
    weight_filler {
      type: "gaussian"
      std: 0.01
    }
    bias_filler {
      type: "constant"
      value: 0
    }
  }
}
layer {
  name: "loss"
  type: "SoftmaxWithLoss"
  bottom: "fc8"
  bottom: "label"
  top: "loss"
}
I1109 13:15:37.647840 157584 layer_factory.hpp:114] Creating layer data
I1109 13:15:37.647907 157584 net.cpp:160] Creating Layer data
I1109 13:15:37.647943 157584 net.cpp:570] data -> data
I1109 13:15:37.648002 157584 net.cpp:570] data -> label
I1109 13:15:37.671636 157584 net.cpp:210] Setting up data
I1109 13:15:37.671743 157584 net.cpp:217] Top shape: 32 3 227 227 (4946784)
I1109 13:15:37.671847 157584 net.cpp:217] Top shape: 32 1 1 1 (32)
I1109 13:15:37.671890 157584 net.cpp:225] Memory required for data: 19787264
I1109 13:15:37.671932 157584 layer_factory.hpp:114] Creating layer conv1
I1109 13:15:37.672060 157584 net.cpp:160] Creating Layer conv1
I1109 13:15:37.672098 157584 net.cpp:596] conv1 <- data
I1109 13:15:37.672163 157584 net.cpp:570] conv1 -> conv1
I1109 13:15:37.764283 157584 net.cpp:210] Setting up conv1
I1109 13:15:37.764377 157584 net.cpp:217] Top shape: 32 96 55 55 (9292800)
I1109 13:15:37.764434 157584 net.cpp:225] Memory required for data: 56958464
I1109 13:15:37.764547 157584 layer_factory.hpp:114] Creating layer relu1
I1109 13:15:37.764616 157584 net.cpp:160] Creating Layer relu1
I1109 13:15:37.764643 157584 net.cpp:596] relu1 <- conv1
I1109 13:15:37.764680 157584 net.cpp:557] relu1 -> conv1 (in-place)
I1109 13:15:37.764827 157584 net.cpp:210] Setting up relu1
I1109 13:15:37.764858 157584 net.cpp:217] Top shape: 32 96 55 55 (9292800)
I1109 13:15:37.764886 157584 net.cpp:225] Memory required for data: 94129664
I1109 13:15:37.764909 157584 layer_factory.hpp:114] Creating layer norm1
I1109 13:15:37.764983 157584 net.cpp:160] Creating Layer norm1
I1109 13:15:37.765003 157584 net.cpp:596] norm1 <- conv1
I1109 13:15:37.765040 157584 net.cpp:570] norm1 -> norm1
I1109 13:15:37.765115 157584 net.cpp:210] Setting up norm1
I1109 13:15:37.765136 157584 net.cpp:217] Top shape: 32 96 55 55 (9292800)
I1109 13:15:37.765230 157584 net.cpp:225] Memory required for data: 131300864
I1109 13:15:37.765254 157584 layer_factory.hpp:114] Creating layer pool1
I1109 13:15:37.765296 157584 net.cpp:160] Creating Layer pool1
I1109 13:15:37.765316 157584 net.cpp:596] pool1 <- norm1
I1109 13:15:37.765352 157584 net.cpp:570] pool1 -> pool1
I1109 13:15:37.765435 157584 net.cpp:210] Setting up pool1
I1109 13:15:37.765460 157584 net.cpp:217] Top shape: 32 96 27 27 (2239488)
I1109 13:15:37.765486 157584 net.cpp:225] Memory required for data: 140258816
I1109 13:15:37.765506 157584 layer_factory.hpp:114] Creating layer conv2
I1109 13:15:37.765569 157584 net.cpp:160] Creating Layer conv2
I1109 13:15:37.765589 157584 net.cpp:596] conv2 <- pool1
I1109 13:15:37.765619 157584 net.cpp:570] conv2 -> conv2
I1109 13:15:37.871153 157584 net.cpp:210] Setting up conv2
I1109 13:15:37.871243 157584 net.cpp:217] Top shape: 32 256 27 27 (5971968)
I1109 13:15:37.871287 157584 net.cpp:225] Memory required for data: 164146688
I1109 13:15:37.871392 157584 layer_factory.hpp:114] Creating layer relu2
I1109 13:15:37.871462 157584 net.cpp:160] Creating Layer relu2
I1109 13:15:37.871495 157584 net.cpp:596] relu2 <- conv2
I1109 13:15:37.871541 157584 net.cpp:557] relu2 -> conv2 (in-place)
I1109 13:15:37.871645 157584 net.cpp:210] Setting up relu2
I1109 13:15:37.871677 157584 net.cpp:217] Top shape: 32 256 27 27 (5971968)
I1109 13:15:37.871711 157584 net.cpp:225] Memory required for data: 188034560
I1109 13:15:37.871739 157584 layer_factory.hpp:114] Creating layer norm2
I1109 13:15:37.871811 157584 net.cpp:160] Creating Layer norm2
I1109 13:15:37.871831 157584 net.cpp:596] norm2 <- conv2
I1109 13:15:37.871863 157584 net.cpp:570] norm2 -> norm2
I1109 13:15:37.871937 157584 net.cpp:210] Setting up norm2
I1109 13:15:37.871958 157584 net.cpp:217] Top shape: 32 256 27 27 (5971968)
I1109 13:15:37.871984 157584 net.cpp:225] Memory required for data: 211922432
I1109 13:15:37.872005 157584 layer_factory.hpp:114] Creating layer pool2
I1109 13:15:37.872045 157584 net.cpp:160] Creating Layer pool2
I1109 13:15:37.872066 157584 net.cpp:596] pool2 <- norm2
I1109 13:15:37.872115 157584 net.cpp:570] pool2 -> pool2
I1109 13:15:37.872190 157584 net.cpp:210] Setting up pool2
I1109 13:15:37.872215 157584 net.cpp:217] Top shape: 32 256 13 13 (1384448)
I1109 13:15:37.872241 157584 net.cpp:225] Memory required for data: 217460224
I1109 13:15:37.872262 157584 layer_factory.hpp:114] Creating layer conv3
I1109 13:15:37.872344 157584 net.cpp:160] Creating Layer conv3
I1109 13:15:37.872365 157584 net.cpp:596] conv3 <- pool2
I1109 13:15:37.872398 157584 net.cpp:570] conv3 -> conv3
I1109 13:15:37.978042 157584 net.cpp:210] Setting up conv3
I1109 13:15:37.978138 157584 net.cpp:217] Top shape: 32 384 13 13 (2076672)
I1109 13:15:37.978240 157584 net.cpp:225] Memory required for data: 225766912
I1109 13:15:37.978324 157584 layer_factory.hpp:114] Creating layer relu3
I1109 13:15:37.978405 157584 net.cpp:160] Creating Layer relu3
I1109 13:15:37.978446 157584 net.cpp:596] relu3 <- conv3
I1109 13:15:37.978518 157584 net.cpp:557] relu3 -> conv3 (in-place)
I1109 13:15:37.978631 157584 net.cpp:210] Setting up relu3
I1109 13:15:37.978664 157584 net.cpp:217] Top shape: 32 384 13 13 (2076672)
I1109 13:15:37.978699 157584 net.cpp:225] Memory required for data: 234073600
I1109 13:15:37.978752 157584 layer_factory.hpp:114] Creating layer conv4
I1109 13:15:37.978843 157584 net.cpp:160] Creating Layer conv4
I1109 13:15:37.978869 157584 net.cpp:596] conv4 <- conv3
I1109 13:15:37.978915 157584 net.cpp:570] conv4 -> conv4
I1109 13:15:38.071234 157584 net.cpp:210] Setting up conv4
I1109 13:15:38.071348 157584 net.cpp:217] Top shape: 32 384 13 13 (2076672)
I1109 13:15:38.071393 157584 net.cpp:225] Memory required for data: 242380288
I1109 13:15:38.071455 157584 layer_factory.hpp:114] Creating layer relu4
I1109 13:15:38.071519 157584 net.cpp:160] Creating Layer relu4
I1109 13:15:38.071545 157584 net.cpp:596] relu4 <- conv4
I1109 13:15:38.071585 157584 net.cpp:557] relu4 -> conv4 (in-place)
I1109 13:15:38.071683 157584 net.cpp:210] Setting up relu4
I1109 13:15:38.071799 157584 net.cpp:217] Top shape: 32 384 13 13 (2076672)
I1109 13:15:38.071838 157584 net.cpp:225] Memory required for data: 250686976
I1109 13:15:38.071864 157584 layer_factory.hpp:114] Creating layer conv5
I1109 13:15:38.071959 157584 net.cpp:160] Creating Layer conv5
I1109 13:15:38.071987 157584 net.cpp:596] conv5 <- conv4
I1109 13:15:38.072037 157584 net.cpp:570] conv5 -> conv5
I1109 13:15:38.148033 157584 net.cpp:210] Setting up conv5
I1109 13:15:38.148152 157584 net.cpp:217] Top shape: 32 256 13 13 (1384448)
I1109 13:15:38.148201 157584 net.cpp:225] Memory required for data: 256224768
I1109 13:15:38.148280 157584 layer_factory.hpp:114] Creating layer relu5
I1109 13:15:38.148351 157584 net.cpp:160] Creating Layer relu5
I1109 13:15:38.148382 157584 net.cpp:596] relu5 <- conv5
I1109 13:15:38.148425 157584 net.cpp:557] relu5 -> conv5 (in-place)
I1109 13:15:38.148526 157584 net.cpp:210] Setting up relu5
I1109 13:15:38.148561 157584 net.cpp:217] Top shape: 32 256 13 13 (1384448)
I1109 13:15:38.148597 157584 net.cpp:225] Memory required for data: 261762560
I1109 13:15:38.148624 157584 layer_factory.hpp:114] Creating layer pool5
I1109 13:15:38.148725 157584 net.cpp:160] Creating Layer pool5
I1109 13:15:38.148752 157584 net.cpp:596] pool5 <- conv5
I1109 13:15:38.148836 157584 net.cpp:570] pool5 -> pool5
I1109 13:15:38.148950 157584 net.cpp:210] Setting up pool5
I1109 13:15:38.148983 157584 net.cpp:217] Top shape: 32 256 6 6 (294912)
I1109 13:15:38.149015 157584 net.cpp:225] Memory required for data: 262942208
I1109 13:15:38.149040 157584 layer_factory.hpp:114] Creating layer fc6
I1109 13:15:38.149128 157584 net.cpp:160] Creating Layer fc6
I1109 13:15:38.149158 157584 net.cpp:596] fc6 <- pool5
I1109 13:15:38.149197 157584 net.cpp:570] fc6 -> fc6
I1109 13:15:39.916522 157584 net.cpp:210] Setting up fc6
I1109 13:15:39.916647 157584 net.cpp:217] Top shape: 32 4096 (131072)
I1109 13:15:39.916697 157584 net.cpp:225] Memory required for data: 263466496
I1109 13:15:39.916867 157584 layer_factory.hpp:114] Creating layer relu6
I1109 13:15:39.916971 157584 net.cpp:160] Creating Layer relu6
I1109 13:15:39.917026 157584 net.cpp:596] relu6 <- fc6
I1109 13:15:39.917093 157584 net.cpp:557] relu6 -> fc6 (in-place)
I1109 13:15:39.917222 157584 net.cpp:210] Setting up relu6
I1109 13:15:39.917259 157584 net.cpp:217] Top shape: 32 4096 (131072)
I1109 13:15:39.917295 157584 net.cpp:225] Memory required for data: 263990784
I1109 13:15:39.917322 157584 layer_factory.hpp:114] Creating layer drop6
I1109 13:15:39.917387 157584 net.cpp:160] Creating Layer drop6
I1109 13:15:39.917412 157584 net.cpp:596] drop6 <- fc6
I1109 13:15:39.917448 157584 net.cpp:557] drop6 -> fc6 (in-place)
I1109 13:15:39.917510 157584 net.cpp:210] Setting up drop6
I1109 13:15:39.917534 157584 net.cpp:217] Top shape: 32 4096 (131072)
I1109 13:15:39.917563 157584 net.cpp:225] Memory required for data: 264515072
I1109 13:15:39.917587 157584 layer_factory.hpp:114] Creating layer fc7
I1109 13:15:39.917636 157584 net.cpp:160] Creating Layer fc7
I1109 13:15:39.917657 157584 net.cpp:596] fc7 <- fc6
I1109 13:15:39.917703 157584 net.cpp:570] fc7 -> fc7
I1109 13:15:40.706774 157584 net.cpp:210] Setting up fc7
I1109 13:15:40.706894 157584 net.cpp:217] Top shape: 32 4096 (131072)
I1109 13:15:40.706943 157584 net.cpp:225] Memory required for data: 265039360
I1109 13:15:40.707041 157584 layer_factory.hpp:114] Creating layer relu7
I1109 13:15:40.707166 157584 net.cpp:160] Creating Layer relu7
I1109 13:15:40.707222 157584 net.cpp:596] relu7 <- fc7
I1109 13:15:40.707285 157584 net.cpp:557] relu7 -> fc7 (in-place)
I1109 13:15:40.707435 157584 net.cpp:210] Setting up relu7
I1109 13:15:40.707469 157584 net.cpp:217] Top shape: 32 4096 (131072)
I1109 13:15:40.707501 157584 net.cpp:225] Memory required for data: 265563648
I1109 13:15:40.707527 157584 layer_factory.hpp:114] Creating layer drop7
I1109 13:15:40.707576 157584 net.cpp:160] Creating Layer drop7
I1109 13:15:40.707598 157584 net.cpp:596] drop7 <- fc7
I1109 13:15:40.707630 157584 net.cpp:557] drop7 -> fc7 (in-place)
I1109 13:15:40.707762 157584 net.cpp:210] Setting up drop7
I1109 13:15:40.707788 157584 net.cpp:217] Top shape: 32 4096 (131072)
I1109 13:15:40.707818 157584 net.cpp:225] Memory required for data: 266087936
I1109 13:15:40.707839 157584 layer_factory.hpp:114] Creating layer fc8
I1109 13:15:40.707891 157584 net.cpp:160] Creating Layer fc8
I1109 13:15:40.707912 157584 net.cpp:596] fc8 <- fc7
I1109 13:15:40.707954 157584 net.cpp:570] fc8 -> fc8
I1109 13:15:40.900001 157584 net.cpp:210] Setting up fc8
I1109 13:15:40.900121 157584 net.cpp:217] Top shape: 32 1000 (32000)
I1109 13:15:40.900161 157584 net.cpp:225] Memory required for data: 266215936
I1109 13:15:40.900276 157584 layer_factory.hpp:114] Creating layer loss
I1109 13:15:40.900357 157584 net.cpp:160] Creating Layer loss
I1109 13:15:40.900399 157584 net.cpp:596] loss <- fc8
I1109 13:15:40.900437 157584 net.cpp:596] loss <- label
I1109 13:15:40.900487 157584 net.cpp:570] loss -> loss
I1109 13:15:40.900568 157584 layer_factory.hpp:114] Creating layer loss
…
