…
I1109 02:08:13.774891 141990 net.cpp:484] The NetState phase (0) differed from the phase (1) specified by a rule in layer accuracy
I1109 02:08:14.411010 141990 net.cpp:120] Initializing net from parameters: 
name: "AlexNet"
state {
  phase: TRAIN
  level: 0
  stage: ""
}
layer {
  name: "data"
  type: "DummyData"
  top: "data"
  top: "label"
  include {
    phase: TRAIN
  }
  dummy_data_param {
    data_filler {
      type: "gaussian"
      std: 1
    }
    data_filler {
      type: "constant"
      value: 0
    }
    shape {
      dim: 32
      dim: 3
      dim: 227
      dim: 227
    }
    shape {
      dim: 32
      dim: 1
      dim: 1
      dim: 1
    }
  }
}
layer {
  name: "conv1"
  type: "Convolution"
  bottom: "data"
  top: "conv1"
  param {
    lr_mult: 1
    decay_mult: 1
  }
  param {
    lr_mult: 2
    decay_mult: 0
  }
  convolution_param {
    num_output: 96
    kernel_size: 11
    stride: 4
    weight_filler {
      type: "gaussian"
      std: 0.01
    }
    bias_filler {
      type: "constant"
      value: 0
    }
    engine: MKL2017
  }
}
layer {
  name: "relu1"
  type: "ReLU"
  bottom: "conv1"
  top: "conv1"
  relu_param {
    engine: MKL2017
  }
}
layer {
  name: "norm1"
  type: "LRN"
  bottom: "conv1"
  top: "norm1"
  lrn_param {
    local_size: 5
    alpha: 0.0001
    beta: 0.75
    engine: MKL2017
  }
}
layer {
  name: "pool1"
  type: "Pooling"
  bottom: "norm1"
  top: "pool1"
  pooling_param {
    pool: MAX
    kernel_size: 3
    stride: 2
    engine: MKL2017
  }
}
layer {
  name: "conv2"
  type: "Convolution"
  bottom: "pool1"
  top: "conv2"
  param {
    lr_mult: 1
    decay_mult: 1
  }
  param {
    lr_mult: 2
    decay_mult: 0
  }
  convolution_param {
    num_output: 256
    pad: 2
    kernel_size: 5
    group: 2
    weight_filler {
      type: "gaussian"
      std: 0.01
    }
    bias_filler {
      type: "constant"
      value: 0.1
    }
    engine: MKL2017
  }
}
layer {
  name: "relu2"
  type: "ReLU"
  bottom: "conv2"
  top: "conv2"
  relu_param {
    engine: MKL2017
  }
}
layer {
  name: "norm2"
  type: "LRN"
  bottom: "conv2"
  top: "norm2"
  lrn_param {
    local_size: 5
    alpha: 0.0001
    beta: 0.75
    engine: MKL2017
  }
}
layer {
  name: "pool2"
  type: "Pooling"
  bottom: "norm2"
  top: "pool2"
  pooling_param {
    pool: MAX
    kernel_size: 3
    stride: 2
    engine: MKL2017
  }
}
layer {
  name: "conv3"
  type: "Convolution"
  bottom: "pool2"
  top: "conv3"
  param {
    lr_mult: 1
    decay_mult: 1
  }
  param {
    lr_mult: 2
    decay_mult: 0
  }
  convolution_param {
    num_output: 384
    pad: 1
    kernel_size: 3
    weight_filler {
      type: "gaussian"
      std: 0.01
    }
    bias_filler {
      type: "constant"
      value: 0
    }
    engine: MKL2017
  }
}
layer {
  name: "relu3"
  type: "ReLU"
  bottom: "conv3"
  top: "conv3"
  relu_param {
    engine: MKL2017
  }
}
layer {
  name: "conv4"
  type: "Convolution"
  bottom: "conv3"
  top: "conv4"
  param {
    lr_mult: 1
    decay_mult: 1
  }
  param {
    lr_mult: 2
    decay_mult: 0
  }
  convolution_param {
    num_output: 384
    pad: 1
    kernel_size: 3
    group: 2
    weight_filler {
      type: "gaussian"
      std: 0.01
    }
    bias_filler {
      type: "constant"
      value: 0.1
    }
    engine: MKL2017
  }
}
layer {
  name: "relu4"
  type: "ReLU"
  bottom: "conv4"
  top: "conv4"
  relu_param {
    engine: MKL2017
  }
}
layer {
  name: "conv5"
  type: "Convolution"
  bottom: "conv4"
  top: "conv5"
  param {
    lr_mult: 1
    decay_mult: 1
  }
  param {
    lr_mult: 2
    decay_mult: 0
  }
  convolution_param {
    num_output: 256
    pad: 1
    kernel_size: 3
    group: 2
    weight_filler {
      type: "gaussian"
      std: 0.01
    }
    bias_filler {
      type: "constant"
      value: 0.1
    }
    engine: MKL2017
  }
}
layer {
  name: "relu5"
  type: "ReLU"
  bottom: "conv5"
  top: "conv5"
  relu_param {
    engine: MKL2017
  }
}
layer {
  name: "pool5"
  type: "Pooling"
  bottom: "conv5"
  top: "pool5"
  pooling_param {
    pool: MAX
    kernel_size: 3
    stride: 2
    engine: MKL2017
  }
}
layer {
  name: "fc6"
  type: "InnerProduct"
  bottom: "pool5"
  top: "fc6"
  param {
    lr_mult: 1
    decay_mult: 1
  }
  param {
    lr_mult: 2
    decay_mult: 0
  }
  inner_product_param {
    num_output: 4096
    weight_filler {
      type: "gaussian"
      std: 0.005
    }
    bias_filler {
      type: "constant"
      value: 0.1
    }
  }
}
layer {
  name: "relu6"
  type: "ReLU"
  bottom: "fc6"
  top: "fc6"
}
layer {
  name: "drop6"
  type: "Dropout"
  bottom: "fc6"
  top: "fc6"
  dropout_param {
    dropout_ratio: 0.5
  }
}
layer {
  name: "fc7"
  type: "InnerProduct"
  bottom: "fc6"
  top: "fc7"
  param {
    lr_mult: 1
    decay_mult: 1
  }
  param {
    lr_mult: 2
    decay_mult: 0
  }
  inner_product_param {
    num_output: 4096
    weight_filler {
      type: "gaussian"
      std: 0.005
    }
    bias_filler {
      type: "constant"
      value: 0.1
    }
  }
}
layer {
  name: "relu7"
  type: "ReLU"
  bottom: "fc7"
  top: "fc7"
}
layer {
  name: "drop7"
  type: "Dropout"
  bottom: "fc7"
  top: "fc7"
  dropout_param {
    dropout_ratio: 0.5
  }
}
layer {
  name: "fc8"
  type: "InnerProduct"
  bottom: "fc7"
  top: "fc8"
  param {
    lr_mult: 1
    decay_mult: 1
  }
  param {
    lr_mult: 2
    decay_mult: 0
  }
  inner_product_param {
    num_output: 1000
    weight_filler {
      type: "gaussian"
      std: 0.01
    }
    bias_filler {
      type: "constant"
      value: 0
    }
  }
}
layer {
  name: "loss"
  type: "SoftmaxWithLoss"
  bottom: "fc8"
  bottom: "label"
  top: "loss"
}
I1109 02:08:16.886390 141990 layer_factory.hpp:114] Creating layer data
I1109 02:08:17.033943 141990 net.cpp:160] Creating Layer data
I1109 02:08:17.082245 141990 net.cpp:570] data -> data
I1109 02:08:17.550375 141990 net.cpp:570] data -> label
I1109 02:08:24.648706 141990 net.cpp:210] Setting up data
I1109 02:08:24.728646 141990 net.cpp:217] Top shape: 32 3 227 227 (4946784)
I1109 02:08:24.832610 141990 net.cpp:217] Top shape: 32 1 1 1 (32)
I1109 02:08:24.839952 141990 net.cpp:225] Memory required for data: 19787264
I1109 02:08:24.907562 141990 layer_factory.hpp:114] Creating layer conv1
I1109 02:08:25.234233 141990 net.cpp:160] Creating Layer conv1
I1109 02:08:25.284124 141990 net.cpp:596] conv1 <- data
I1109 02:08:25.405484 141990 net.cpp:570] conv1 -> conv1
I1109 02:08:58.093659 141990 net.cpp:210] Setting up conv1
I1109 02:08:58.100010 141990 net.cpp:217] Top shape: 32 96 55 55 (9292800)
I1109 02:08:58.100389 141990 net.cpp:225] Memory required for data: 56958464
I1109 02:08:58.382355 141990 layer_factory.hpp:114] Creating layer relu1
I1109 02:08:58.501807 141990 net.cpp:160] Creating Layer relu1
I1109 02:08:58.506317 141990 net.cpp:596] relu1 <- conv1
I1109 02:08:58.538425 141990 net.cpp:557] relu1 -> conv1 (in-place)
I1109 02:08:58.728829 141990 net.cpp:210] Setting up relu1
I1109 02:08:58.731276 141990 net.cpp:217] Top shape: 32 96 55 55 (9292800)
I1109 02:08:58.731608 141990 net.cpp:225] Memory required for data: 94129664
I1109 02:08:58.731803 141990 layer_factory.hpp:114] Creating layer norm1
I1109 02:08:58.836020 141990 net.cpp:160] Creating Layer norm1
I1109 02:08:58.836328 141990 net.cpp:596] norm1 <- conv1
I1109 02:08:58.838898 141990 net.cpp:570] norm1 -> norm1
I1109 02:08:59.060969 141990 net.cpp:210] Setting up norm1
I1109 02:08:59.073904 141990 net.cpp:217] Top shape: 32 96 55 55 (9292800)
I1109 02:08:59.074292 141990 net.cpp:225] Memory required for data: 131300864
I1109 02:08:59.074606 141990 layer_factory.hpp:114] Creating layer pool1
I1109 02:08:59.168769 141990 net.cpp:160] Creating Layer pool1
I1109 02:08:59.169127 141990 net.cpp:596] pool1 <- norm1
I1109 02:08:59.183845 141990 net.cpp:570] pool1 -> pool1
I1109 02:08:59.486423 141990 net.cpp:210] Setting up pool1
I1109 02:08:59.489028 141990 net.cpp:217] Top shape: 32 96 27 27 (2239488)
I1109 02:08:59.489367 141990 net.cpp:225] Memory required for data: 140258816
I1109 02:08:59.489590 141990 layer_factory.hpp:114] Creating layer conv2
I1109 02:08:59.490000 141990 net.cpp:160] Creating Layer conv2
I1109 02:08:59.490244 141990 net.cpp:596] conv2 <- pool1
I1109 02:08:59.490512 141990 net.cpp:570] conv2 -> conv2
I1109 02:09:05.232383 141990 net.cpp:210] Setting up conv2
I1109 02:09:05.232717 141990 net.cpp:217] Top shape: 32 256 27 27 (5971968)
I1109 02:09:05.233211 141990 net.cpp:225] Memory required for data: 164146688
I1109 02:09:05.284356 141990 layer_factory.hpp:114] Creating layer relu2
I1109 02:09:05.284768 141990 net.cpp:160] Creating Layer relu2
I1109 02:09:05.285140 141990 net.cpp:596] relu2 <- conv2
I1109 02:09:05.285406 141990 net.cpp:557] relu2 -> conv2 (in-place)
I1109 02:09:05.285890 141990 net.cpp:210] Setting up relu2
I1109 02:09:05.286162 141990 net.cpp:217] Top shape: 32 256 27 27 (5971968)
I1109 02:09:05.286403 141990 net.cpp:225] Memory required for data: 188034560
I1109 02:09:05.286597 141990 layer_factory.hpp:114] Creating layer norm2
I1109 02:09:05.286864 141990 net.cpp:160] Creating Layer norm2
I1109 02:09:05.287050 141990 net.cpp:596] norm2 <- conv2
I1109 02:09:05.287271 141990 net.cpp:570] norm2 -> norm2
I1109 02:09:05.289551 141990 net.cpp:210] Setting up norm2
I1109 02:09:05.289858 141990 net.cpp:217] Top shape: 32 256 27 27 (5971968)
I1109 02:09:05.290088 141990 net.cpp:225] Memory required for data: 211922432
I1109 02:09:05.290274 141990 layer_factory.hpp:114] Creating layer pool2
I1109 02:09:05.290555 141990 net.cpp:160] Creating Layer pool2
I1109 02:09:05.290769 141990 net.cpp:596] pool2 <- norm2
I1109 02:09:05.291038 141990 net.cpp:570] pool2 -> pool2
I1109 02:09:05.291573 141990 net.cpp:210] Setting up pool2
I1109 02:09:05.291877 141990 net.cpp:217] Top shape: 32 256 13 13 (1384448)
I1109 02:09:05.292098 141990 net.cpp:225] Memory required for data: 217460224
I1109 02:09:05.292297 141990 layer_factory.hpp:114] Creating layer conv3
I1109 02:09:05.293225 141990 net.cpp:160] Creating Layer conv3
I1109 02:09:05.293516 141990 net.cpp:596] conv3 <- pool2
I1109 02:09:05.293766 141990 net.cpp:570] conv3 -> conv3
I1109 02:09:05.745928 141990 net.cpp:210] Setting up conv3
I1109 02:09:05.748551 141990 net.cpp:217] Top shape: 32 384 13 13 (2076672)
I1109 02:09:05.748985 141990 net.cpp:225] Memory required for data: 225766912
I1109 02:09:05.752164 141990 layer_factory.hpp:114] Creating layer relu3
I1109 02:09:05.752606 141990 net.cpp:160] Creating Layer relu3
I1109 02:09:05.752938 141990 net.cpp:596] relu3 <- conv3
I1109 02:09:05.753214 141990 net.cpp:557] relu3 -> conv3 (in-place)
I1109 02:09:05.757475 141990 net.cpp:210] Setting up relu3
I1109 02:09:05.757793 141990 net.cpp:217] Top shape: 32 384 13 13 (2076672)
I1109 02:09:05.758050 141990 net.cpp:225] Memory required for data: 234073600
I1109 02:09:05.758249 141990 layer_factory.hpp:114] Creating layer conv4
I1109 02:09:05.758620 141990 net.cpp:160] Creating Layer conv4
I1109 02:09:05.758911 141990 net.cpp:596] conv4 <- conv3
I1109 02:09:05.759174 141990 net.cpp:570] conv4 -> conv4
I1109 02:09:06.001862 141990 net.cpp:210] Setting up conv4
I1109 02:09:06.006391 141990 net.cpp:217] Top shape: 32 384 13 13 (2076672)
I1109 02:09:06.006827 141990 net.cpp:225] Memory required for data: 242380288
I1109 02:09:06.007134 141990 layer_factory.hpp:114] Creating layer relu4
I1109 02:09:06.007418 141990 net.cpp:160] Creating Layer relu4
I1109 02:09:06.007640 141990 net.cpp:596] relu4 <- conv4
I1109 02:09:06.007866 141990 net.cpp:557] relu4 -> conv4 (in-place)
I1109 02:09:06.020151 141990 net.cpp:210] Setting up relu4
I1109 02:09:06.020494 141990 net.cpp:217] Top shape: 32 384 13 13 (2076672)
I1109 02:09:06.020931 141990 net.cpp:225] Memory required for data: 250686976
I1109 02:09:06.021152 141990 layer_factory.hpp:114] Creating layer conv5
I1109 02:09:06.021517 141990 net.cpp:160] Creating Layer conv5
I1109 02:09:06.021756 141990 net.cpp:596] conv5 <- conv4
I1109 02:09:06.022001 141990 net.cpp:570] conv5 -> conv5
I1109 02:09:06.216336 141990 net.cpp:210] Setting up conv5
I1109 02:09:06.216717 141990 net.cpp:217] Top shape: 32 256 13 13 (1384448)
I1109 02:09:06.217185 141990 net.cpp:225] Memory required for data: 256224768
I1109 02:09:06.221911 141990 layer_factory.hpp:114] Creating layer relu5
I1109 02:09:06.222349 141990 net.cpp:160] Creating Layer relu5
I1109 02:09:06.222611 141990 net.cpp:596] relu5 <- conv5
I1109 02:09:06.222890 141990 net.cpp:557] relu5 -> conv5 (in-place)
I1109 02:09:06.223441 141990 net.cpp:210] Setting up relu5
I1109 02:09:06.223731 141990 net.cpp:217] Top shape: 32 256 13 13 (1384448)
I1109 02:09:06.223975 141990 net.cpp:225] Memory required for data: 261762560
I1109 02:09:06.224180 141990 layer_factory.hpp:114] Creating layer pool5
I1109 02:09:06.224436 141990 net.cpp:160] Creating Layer pool5
I1109 02:09:06.224647 141990 net.cpp:596] pool5 <- conv5
I1109 02:09:06.224921 141990 net.cpp:570] pool5 -> pool5
I1109 02:09:06.225389 141990 net.cpp:210] Setting up pool5
I1109 02:09:06.225654 141990 net.cpp:217] Top shape: 32 256 6 6 (294912)
I1109 02:09:06.225911 141990 net.cpp:225] Memory required for data: 262942208
I1109 02:09:06.226099 141990 layer_factory.hpp:114] Creating layer fc6
I1109 02:09:06.280732 141990 net.cpp:160] Creating Layer fc6
I1109 02:09:06.281081 141990 net.cpp:596] fc6 <- pool5
I1109 02:09:06.281450 141990 net.cpp:570] fc6 -> fc6
I1109 02:09:10.366942 141990 net.cpp:210] Setting up fc6
I1109 02:09:10.367243 141990 net.cpp:217] Top shape: 32 4096 (131072)
I1109 02:09:10.369329 141990 net.cpp:225] Memory required for data: 263466496
I1109 02:09:10.369637 141990 layer_factory.hpp:114] Creating layer relu6
I1109 02:09:10.372114 141990 net.cpp:160] Creating Layer relu6
I1109 02:09:10.372414 141990 net.cpp:596] relu6 <- fc6
I1109 02:09:10.372632 141990 net.cpp:557] relu6 -> fc6 (in-place)
I1109 02:09:10.373083 141990 net.cpp:210] Setting up relu6
I1109 02:09:10.373347 141990 net.cpp:217] Top shape: 32 4096 (131072)
I1109 02:09:10.373569 141990 net.cpp:225] Memory required for data: 263990784
I1109 02:09:10.373754 141990 layer_factory.hpp:114] Creating layer drop6
I1109 02:09:10.393718 141990 net.cpp:160] Creating Layer drop6
I1109 02:09:10.394016 141990 net.cpp:596] drop6 <- fc6
I1109 02:09:10.394384 141990 net.cpp:557] drop6 -> fc6 (in-place)
I1109 02:09:10.498523 141990 net.cpp:210] Setting up drop6
I1109 02:09:10.498816 141990 net.cpp:217] Top shape: 32 4096 (131072)
I1109 02:09:10.499156 141990 net.cpp:225] Memory required for data: 264515072
I1109 02:09:10.499403 141990 layer_factory.hpp:114] Creating layer fc7
I1109 02:09:10.499671 141990 net.cpp:160] Creating Layer fc7
I1109 02:09:10.499871 141990 net.cpp:596] fc7 <- fc6
I1109 02:09:10.500247 141990 net.cpp:570] fc7 -> fc7
I1109 02:09:12.210561 141990 net.cpp:210] Setting up fc7
I1109 02:09:12.210927 141990 net.cpp:217] Top shape: 32 4096 (131072)
I1109 02:09:12.211374 141990 net.cpp:225] Memory required for data: 265039360
I1109 02:09:12.211704 141990 layer_factory.hpp:114] Creating layer relu7
I1109 02:09:12.212030 141990 net.cpp:160] Creating Layer relu7
I1109 02:09:12.212280 141990 net.cpp:596] relu7 <- fc7
I1109 02:09:12.212523 141990 net.cpp:557] relu7 -> fc7 (in-place)
I1109 02:09:12.213004 141990 net.cpp:210] Setting up relu7
I1109 02:09:12.213307 141990 net.cpp:217] Top shape: 32 4096 (131072)
I1109 02:09:12.213554 141990 net.cpp:225] Memory required for data: 265563648
I1109 02:09:12.213755 141990 layer_factory.hpp:114] Creating layer drop7
I1109 02:09:12.213994 141990 net.cpp:160] Creating Layer drop7
I1109 02:09:12.214236 141990 net.cpp:596] drop7 <- fc7
I1109 02:09:12.214476 141990 net.cpp:557] drop7 -> fc7 (in-place)
I1109 02:09:12.214762 141990 net.cpp:210] Setting up drop7
I1109 02:09:12.215057 141990 net.cpp:217] Top shape: 32 4096 (131072)
I1109 02:09:12.215272 141990 net.cpp:225] Memory required for data: 266087936
I1109 02:09:12.215453 141990 layer_factory.hpp:114] Creating layer fc8
I1109 02:09:12.215721 141990 net.cpp:160] Creating Layer fc8
I1109 02:09:12.215929 141990 net.cpp:596] fc8 <- fc7
I1109 02:09:12.216161 141990 net.cpp:570] fc8 -> fc8
I1109 02:09:12.637686 141990 net.cpp:210] Setting up fc8
I1109 02:09:12.638041 141990 net.cpp:217] Top shape: 32 1000 (32000)
I1109 02:09:12.638427 141990 net.cpp:225] Memory required for data: 266215936
I1109 02:09:12.638757 141990 layer_factory.hpp:114] Creating layer loss
I1109 02:09:12.663478 141990 net.cpp:160] Creating Layer loss
I1109 02:09:12.663794 141990 net.cpp:596] loss <- fc8
I1109 02:09:12.664860 141990 net.cpp:596] loss <- label
I1109 02:09:12.692467 141990 net.cpp:570] loss -> loss
I1109 02:09:12.730665 141990 layer_factory.hpp:114] Creating layer loss
…
