…
I1109 03:33:29.758244 145038 net.cpp:484] The NetState phase (0) differed from the phase (1) specified by a rule in layer accuracy
I1109 03:33:30.389441 145038 net.cpp:120] Initializing net from parameters: 
name: "AlexNet"
state {
  phase: TRAIN
  level: 0
  stage: ""
}
layer {
  name: "data"
  type: "DummyData"
  top: "data"
  top: "label"
  include {
    phase: TRAIN
  }
  dummy_data_param {
    data_filler {
      type: "gaussian"
      std: 1
    }
    data_filler {
      type: "constant"
      value: 0
    }
    shape {
      dim: 32
      dim: 3
      dim: 227
      dim: 227
    }
    shape {
      dim: 32
      dim: 1
      dim: 1
      dim: 1
    }
  }
}
layer {
  name: "conv1"
  type: "Convolution"
  bottom: "data"
  top: "conv1"
  param {
    lr_mult: 1
    decay_mult: 1
  }
  param {
    lr_mult: 2
    decay_mult: 0
  }
  convolution_param {
    num_output: 96
    kernel_size: 11
    stride: 4
    weight_filler {
      type: "gaussian"
      std: 0.01
    }
    bias_filler {
      type: "constant"
      value: 0
    }
    engine: MKL2017
  }
}
layer {
  name: "relu1"
  type: "ReLU"
  bottom: "conv1"
  top: "conv1"
  relu_param {
    engine: MKL2017
  }
}
layer {
  name: "norm1"
  type: "LRN"
  bottom: "conv1"
  top: "norm1"
  lrn_param {
    local_size: 5
    alpha: 0.0001
    beta: 0.75
    engine: MKL2017
  }
}
layer {
  name: "pool1"
  type: "Pooling"
  bottom: "norm1"
  top: "pool1"
  pooling_param {
    pool: MAX
    kernel_size: 3
    stride: 2
    engine: MKL2017
  }
}
layer {
  name: "conv2"
  type: "Convolution"
  bottom: "pool1"
  top: "conv2"
  param {
    lr_mult: 1
    decay_mult: 1
  }
  param {
    lr_mult: 2
    decay_mult: 0
  }
  convolution_param {
    num_output: 256
    pad: 2
    kernel_size: 5
    group: 2
    weight_filler {
      type: "gaussian"
      std: 0.01
    }
    bias_filler {
      type: "constant"
      value: 0.1
    }
    engine: MKL2017
  }
}
layer {
  name: "relu2"
  type: "ReLU"
  bottom: "conv2"
  top: "conv2"
  relu_param {
    engine: MKL2017
  }
}
layer {
  name: "norm2"
  type: "LRN"
  bottom: "conv2"
  top: "norm2"
  lrn_param {
    local_size: 5
    alpha: 0.0001
    beta: 0.75
    engine: MKL2017
  }
}
layer {
  name: "pool2"
  type: "Pooling"
  bottom: "norm2"
  top: "pool2"
  pooling_param {
    pool: MAX
    kernel_size: 3
    stride: 2
    engine: MKL2017
  }
}
layer {
  name: "conv3"
  type: "Convolution"
  bottom: "pool2"
  top: "conv3"
  param {
    lr_mult: 1
    decay_mult: 1
  }
  param {
    lr_mult: 2
    decay_mult: 0
  }
  convolution_param {
    num_output: 384
    pad: 1
    kernel_size: 3
    weight_filler {
      type: "gaussian"
      std: 0.01
    }
    bias_filler {
      type: "constant"
      value: 0
    }
    engine: MKL2017
  }
}
layer {
  name: "relu3"
  type: "ReLU"
  bottom: "conv3"
  top: "conv3"
  relu_param {
    engine: MKL2017
  }
}
layer {
  name: "conv4"
  type: "Convolution"
  bottom: "conv3"
  top: "conv4"
  param {
    lr_mult: 1
    decay_mult: 1
  }
  param {
    lr_mult: 2
    decay_mult: 0
  }
  convolution_param {
    num_output: 384
    pad: 1
    kernel_size: 3
    group: 2
    weight_filler {
      type: "gaussian"
      std: 0.01
    }
    bias_filler {
      type: "constant"
      value: 0.1
    }
    engine: MKL2017
  }
}
layer {
  name: "relu4"
  type: "ReLU"
  bottom: "conv4"
  top: "conv4"
  relu_param {
    engine: MKL2017
  }
}
layer {
  name: "conv5"
  type: "Convolution"
  bottom: "conv4"
  top: "conv5"
  param {
    lr_mult: 1
    decay_mult: 1
  }
  param {
    lr_mult: 2
    decay_mult: 0
  }
  convolution_param {
    num_output: 256
    pad: 1
    kernel_size: 3
    group: 2
    weight_filler {
      type: "gaussian"
      std: 0.01
    }
    bias_filler {
      type: "constant"
      value: 0.1
    }
    engine: MKL2017
  }
}
layer {
  name: "relu5"
  type: "ReLU"
  bottom: "conv5"
  top: "conv5"
  relu_param {
    engine: MKL2017
  }
}
layer {
  name: "pool5"
  type: "Pooling"
  bottom: "conv5"
  top: "pool5"
  pooling_param {
    pool: MAX
    kernel_size: 3
    stride: 2
    engine: MKL2017
  }
}
layer {
  name: "fc6"
  type: "InnerProduct"
  bottom: "pool5"
  top: "fc6"
  param {
    lr_mult: 1
    decay_mult: 1
  }
  param {
    lr_mult: 2
    decay_mult: 0
  }
  inner_product_param {
    num_output: 4096
    weight_filler {
      type: "gaussian"
      std: 0.005
    }
    bias_filler {
      type: "constant"
      value: 0.1
    }
  }
}
layer {
  name: "relu6"
  type: "ReLU"
  bottom: "fc6"
  top: "fc6"
}
layer {
  name: "drop6"
  type: "Dropout"
  bottom: "fc6"
  top: "fc6"
  dropout_param {
    dropout_ratio: 0.5
  }
}
layer {
  name: "fc7"
  type: "InnerProduct"
  bottom: "fc6"
  top: "fc7"
  param {
    lr_mult: 1
    decay_mult: 1
  }
  param {
    lr_mult: 2
    decay_mult: 0
  }
  inner_product_param {
    num_output: 4096
    weight_filler {
      type: "gaussian"
      std: 0.005
    }
    bias_filler {
      type: "constant"
      value: 0.1
    }
  }
}
layer {
  name: "relu7"
  type: "ReLU"
  bottom: "fc7"
  top: "fc7"
}
layer {
  name: "drop7"
  type: "Dropout"
  bottom: "fc7"
  top: "fc7"
  dropout_param {
    dropout_ratio: 0.5
  }
}
layer {
  name: "fc8"
  type: "InnerProduct"
  bottom: "fc7"
  top: "fc8"
  param {
    lr_mult: 1
    decay_mult: 1
  }
  param {
    lr_mult: 2
    decay_mult: 0
  }
  inner_product_param {
    num_output: 1000
    weight_filler {
      type: "gaussian"
      std: 0.01
    }
    bias_filler {
      type: "constant"
      value: 0
    }
  }
}
layer {
  name: "loss"
  type: "SoftmaxWithLoss"
  bottom: "fc8"
  bottom: "label"
  top: "loss"
}
I1109 03:33:32.834697 145038 layer_factory.hpp:114] Creating layer data
I1109 03:33:32.980923 145038 net.cpp:160] Creating Layer data
I1109 03:33:33.029307 145038 net.cpp:570] data -> data
I1109 03:33:33.491943 145038 net.cpp:570] data -> label
I1109 03:33:40.514871 145038 net.cpp:210] Setting up data
I1109 03:33:40.594156 145038 net.cpp:217] Top shape: 32 3 227 227 (4946784)
I1109 03:33:40.698868 145038 net.cpp:217] Top shape: 32 1 1 1 (32)
I1109 03:33:40.706064 145038 net.cpp:225] Memory required for data: 19787264
I1109 03:33:40.773466 145038 layer_factory.hpp:114] Creating layer conv1
I1109 03:33:41.100891 145038 net.cpp:160] Creating Layer conv1
I1109 03:33:41.150722 145038 net.cpp:596] conv1 <- data
I1109 03:33:41.269964 145038 net.cpp:570] conv1 -> conv1
I1109 03:34:13.963341 145038 net.cpp:210] Setting up conv1
I1109 03:34:13.970616 145038 net.cpp:217] Top shape: 32 96 55 55 (9292800)
I1109 03:34:13.971001 145038 net.cpp:225] Memory required for data: 56958464
I1109 03:34:14.253644 145038 layer_factory.hpp:114] Creating layer relu1
I1109 03:34:14.375411 145038 net.cpp:160] Creating Layer relu1
I1109 03:34:14.380086 145038 net.cpp:596] relu1 <- conv1
I1109 03:34:14.413959 145038 net.cpp:557] relu1 -> conv1 (in-place)
I1109 03:34:14.611484 145038 net.cpp:210] Setting up relu1
I1109 03:34:14.613941 145038 net.cpp:217] Top shape: 32 96 55 55 (9292800)
I1109 03:34:14.614295 145038 net.cpp:225] Memory required for data: 94129664
I1109 03:34:14.614511 145038 layer_factory.hpp:114] Creating layer norm1
I1109 03:34:14.723565 145038 net.cpp:160] Creating Layer norm1
I1109 03:34:14.723881 145038 net.cpp:596] norm1 <- conv1
I1109 03:34:14.726529 145038 net.cpp:570] norm1 -> norm1
I1109 03:34:14.961781 145038 net.cpp:210] Setting up norm1
I1109 03:34:14.974897 145038 net.cpp:217] Top shape: 32 96 55 55 (9292800)
I1109 03:34:14.975280 145038 net.cpp:225] Memory required for data: 131300864
I1109 03:34:14.975584 145038 layer_factory.hpp:114] Creating layer pool1
I1109 03:34:15.070410 145038 net.cpp:160] Creating Layer pool1
I1109 03:34:15.070721 145038 net.cpp:596] pool1 <- norm1
I1109 03:34:15.085835 145038 net.cpp:570] pool1 -> pool1
I1109 03:34:15.391662 145038 net.cpp:210] Setting up pool1
I1109 03:34:15.394191 145038 net.cpp:217] Top shape: 32 96 27 27 (2239488)
I1109 03:34:15.394536 145038 net.cpp:225] Memory required for data: 140258816
I1109 03:34:15.394759 145038 layer_factory.hpp:114] Creating layer conv2
I1109 03:34:15.395140 145038 net.cpp:160] Creating Layer conv2
I1109 03:34:15.395371 145038 net.cpp:596] conv2 <- pool1
I1109 03:34:15.395618 145038 net.cpp:570] conv2 -> conv2
I1109 03:34:21.202111 145038 net.cpp:210] Setting up conv2
I1109 03:34:21.202426 145038 net.cpp:217] Top shape: 32 256 27 27 (5971968)
I1109 03:34:21.202822 145038 net.cpp:225] Memory required for data: 164146688
I1109 03:34:21.252377 145038 layer_factory.hpp:114] Creating layer relu2
I1109 03:34:21.252771 145038 net.cpp:160] Creating Layer relu2
I1109 03:34:21.253156 145038 net.cpp:596] relu2 <- conv2
I1109 03:34:21.253480 145038 net.cpp:557] relu2 -> conv2 (in-place)
I1109 03:34:21.253942 145038 net.cpp:210] Setting up relu2
I1109 03:34:21.254209 145038 net.cpp:217] Top shape: 32 256 27 27 (5971968)
I1109 03:34:21.254451 145038 net.cpp:225] Memory required for data: 188034560
I1109 03:34:21.254649 145038 layer_factory.hpp:114] Creating layer norm2
I1109 03:34:21.254909 145038 net.cpp:160] Creating Layer norm2
I1109 03:34:21.255115 145038 net.cpp:596] norm2 <- conv2
I1109 03:34:21.255352 145038 net.cpp:570] norm2 -> norm2
I1109 03:34:21.257470 145038 net.cpp:210] Setting up norm2
I1109 03:34:21.257779 145038 net.cpp:217] Top shape: 32 256 27 27 (5971968)
I1109 03:34:21.258008 145038 net.cpp:225] Memory required for data: 211922432
I1109 03:34:21.258231 145038 layer_factory.hpp:114] Creating layer pool2
I1109 03:34:21.258561 145038 net.cpp:160] Creating Layer pool2
I1109 03:34:21.258895 145038 net.cpp:596] pool2 <- norm2
I1109 03:34:21.259186 145038 net.cpp:570] pool2 -> pool2
I1109 03:34:21.259584 145038 net.cpp:210] Setting up pool2
I1109 03:34:21.259825 145038 net.cpp:217] Top shape: 32 256 13 13 (1384448)
I1109 03:34:21.260046 145038 net.cpp:225] Memory required for data: 217460224
I1109 03:34:21.260243 145038 layer_factory.hpp:114] Creating layer conv3
I1109 03:34:21.261214 145038 net.cpp:160] Creating Layer conv3
I1109 03:34:21.261615 145038 net.cpp:596] conv3 <- pool2
I1109 03:34:21.261945 145038 net.cpp:570] conv3 -> conv3
I1109 03:34:21.738649 145038 net.cpp:210] Setting up conv3
I1109 03:34:21.741153 145038 net.cpp:217] Top shape: 32 384 13 13 (2076672)
I1109 03:34:21.741521 145038 net.cpp:225] Memory required for data: 225766912
I1109 03:34:21.744716 145038 layer_factory.hpp:114] Creating layer relu3
I1109 03:34:21.745193 145038 net.cpp:160] Creating Layer relu3
I1109 03:34:21.745478 145038 net.cpp:596] relu3 <- conv3
I1109 03:34:21.745723 145038 net.cpp:557] relu3 -> conv3 (in-place)
I1109 03:34:21.749799 145038 net.cpp:210] Setting up relu3
I1109 03:34:21.750149 145038 net.cpp:217] Top shape: 32 384 13 13 (2076672)
I1109 03:34:21.750413 145038 net.cpp:225] Memory required for data: 234073600
I1109 03:34:21.750641 145038 layer_factory.hpp:114] Creating layer conv4
I1109 03:34:21.750996 145038 net.cpp:160] Creating Layer conv4
I1109 03:34:21.751241 145038 net.cpp:596] conv4 <- conv3
I1109 03:34:21.751482 145038 net.cpp:570] conv4 -> conv4
I1109 03:34:21.993850 145038 net.cpp:210] Setting up conv4
I1109 03:34:21.994236 145038 net.cpp:217] Top shape: 32 384 13 13 (2076672)
I1109 03:34:21.994654 145038 net.cpp:225] Memory required for data: 242380288
I1109 03:34:21.994966 145038 layer_factory.hpp:114] Creating layer relu4
I1109 03:34:21.995251 145038 net.cpp:160] Creating Layer relu4
I1109 03:34:21.995478 145038 net.cpp:596] relu4 <- conv4
I1109 03:34:21.995714 145038 net.cpp:557] relu4 -> conv4 (in-place)
I1109 03:34:22.007972 145038 net.cpp:210] Setting up relu4
I1109 03:34:22.008339 145038 net.cpp:217] Top shape: 32 384 13 13 (2076672)
I1109 03:34:22.008718 145038 net.cpp:225] Memory required for data: 250686976
I1109 03:34:22.009009 145038 layer_factory.hpp:114] Creating layer conv5
I1109 03:34:22.009377 145038 net.cpp:160] Creating Layer conv5
I1109 03:34:22.009620 145038 net.cpp:596] conv5 <- conv4
I1109 03:34:22.009869 145038 net.cpp:570] conv5 -> conv5
I1109 03:34:22.177930 145038 net.cpp:210] Setting up conv5
I1109 03:34:22.178329 145038 net.cpp:217] Top shape: 32 256 13 13 (1384448)
I1109 03:34:22.178766 145038 net.cpp:225] Memory required for data: 256224768
I1109 03:34:22.183401 145038 layer_factory.hpp:114] Creating layer relu5
I1109 03:34:22.183809 145038 net.cpp:160] Creating Layer relu5
I1109 03:34:22.184101 145038 net.cpp:596] relu5 <- conv5
I1109 03:34:22.184383 145038 net.cpp:557] relu5 -> conv5 (in-place)
I1109 03:34:22.184964 145038 net.cpp:210] Setting up relu5
I1109 03:34:22.185283 145038 net.cpp:217] Top shape: 32 256 13 13 (1384448)
I1109 03:34:22.185547 145038 net.cpp:225] Memory required for data: 261762560
I1109 03:34:22.185767 145038 layer_factory.hpp:114] Creating layer pool5
I1109 03:34:22.186038 145038 net.cpp:160] Creating Layer pool5
I1109 03:34:22.186265 145038 net.cpp:596] pool5 <- conv5
I1109 03:34:22.186499 145038 net.cpp:570] pool5 -> pool5
I1109 03:34:22.186918 145038 net.cpp:210] Setting up pool5
I1109 03:34:22.187181 145038 net.cpp:217] Top shape: 32 256 6 6 (294912)
I1109 03:34:22.187417 145038 net.cpp:225] Memory required for data: 262942208
I1109 03:34:22.187611 145038 layer_factory.hpp:114] Creating layer fc6
I1109 03:34:22.242271 145038 net.cpp:160] Creating Layer fc6
I1109 03:34:22.242581 145038 net.cpp:596] fc6 <- pool5
I1109 03:34:22.242954 145038 net.cpp:570] fc6 -> fc6
I1109 03:34:26.330611 145038 net.cpp:210] Setting up fc6
I1109 03:34:26.330916 145038 net.cpp:217] Top shape: 32 4096 (131072)
I1109 03:34:26.333046 145038 net.cpp:225] Memory required for data: 263466496
I1109 03:34:26.333359 145038 layer_factory.hpp:114] Creating layer relu6
I1109 03:34:26.335813 145038 net.cpp:160] Creating Layer relu6
I1109 03:34:26.336108 145038 net.cpp:596] relu6 <- fc6
I1109 03:34:26.336333 145038 net.cpp:557] relu6 -> fc6 (in-place)
I1109 03:34:26.336745 145038 net.cpp:210] Setting up relu6
I1109 03:34:26.337044 145038 net.cpp:217] Top shape: 32 4096 (131072)
I1109 03:34:26.337308 145038 net.cpp:225] Memory required for data: 263990784
I1109 03:34:26.337507 145038 layer_factory.hpp:114] Creating layer drop6
I1109 03:34:26.357810 145038 net.cpp:160] Creating Layer drop6
I1109 03:34:26.358125 145038 net.cpp:596] drop6 <- fc6
I1109 03:34:26.358497 145038 net.cpp:557] drop6 -> fc6 (in-place)
I1109 03:34:26.463824 145038 net.cpp:210] Setting up drop6
I1109 03:34:26.464181 145038 net.cpp:217] Top shape: 32 4096 (131072)
I1109 03:34:26.464673 145038 net.cpp:225] Memory required for data: 264515072
I1109 03:34:26.464967 145038 layer_factory.hpp:114] Creating layer fc7
I1109 03:34:26.465273 145038 net.cpp:160] Creating Layer fc7
I1109 03:34:26.465512 145038 net.cpp:596] fc7 <- fc6
I1109 03:34:26.465934 145038 net.cpp:570] fc7 -> fc7
I1109 03:34:28.176014 145038 net.cpp:210] Setting up fc7
I1109 03:34:28.176370 145038 net.cpp:217] Top shape: 32 4096 (131072)
I1109 03:34:28.176762 145038 net.cpp:225] Memory required for data: 265039360
I1109 03:34:28.177155 145038 layer_factory.hpp:114] Creating layer relu7
I1109 03:34:28.177464 145038 net.cpp:160] Creating Layer relu7
I1109 03:34:28.177700 145038 net.cpp:596] relu7 <- fc7
I1109 03:34:28.177930 145038 net.cpp:557] relu7 -> fc7 (in-place)
I1109 03:34:28.178354 145038 net.cpp:210] Setting up relu7
I1109 03:34:28.178623 145038 net.cpp:217] Top shape: 32 4096 (131072)
I1109 03:34:28.178855 145038 net.cpp:225] Memory required for data: 265563648
I1109 03:34:28.179088 145038 layer_factory.hpp:114] Creating layer drop7
I1109 03:34:28.179333 145038 net.cpp:160] Creating Layer drop7
I1109 03:34:28.179569 145038 net.cpp:596] drop7 <- fc7
I1109 03:34:28.179782 145038 net.cpp:557] drop7 -> fc7 (in-place)
I1109 03:34:28.180032 145038 net.cpp:210] Setting up drop7
I1109 03:34:28.180229 145038 net.cpp:217] Top shape: 32 4096 (131072)
I1109 03:34:28.180438 145038 net.cpp:225] Memory required for data: 266087936
I1109 03:34:28.180619 145038 layer_factory.hpp:114] Creating layer fc8
I1109 03:34:28.180929 145038 net.cpp:160] Creating Layer fc8
I1109 03:34:28.181154 145038 net.cpp:596] fc8 <- fc7
I1109 03:34:28.181381 145038 net.cpp:570] fc8 -> fc8
I1109 03:34:28.605120 145038 net.cpp:210] Setting up fc8
I1109 03:34:28.605494 145038 net.cpp:217] Top shape: 32 1000 (32000)
I1109 03:34:28.605953 145038 net.cpp:225] Memory required for data: 266215936
I1109 03:34:28.606276 145038 layer_factory.hpp:114] Creating layer loss
I1109 03:34:28.631203 145038 net.cpp:160] Creating Layer loss
I1109 03:34:28.631520 145038 net.cpp:596] loss <- fc8
I1109 03:34:28.632536 145038 net.cpp:596] loss <- label
I1109 03:34:28.660410 145038 net.cpp:570] loss -> loss
I1109 03:34:28.698667 145038 layer_factory.hpp:114] Creating layer loss
…
