…
I1109 00:01:51.657011 136895 net.cpp:484] The NetState phase (0) differed from the phase (1) specified by a rule in layer accuracy
I1109 00:01:52.286317 136895 net.cpp:120] Initializing net from parameters: 
name: "AlexNet"
state {
  phase: TRAIN
  level: 0
  stage: ""
}
layer {
  name: "data"
  type: "DummyData"
  top: "data"
  top: "label"
  include {
    phase: TRAIN
  }
  dummy_data_param {
    data_filler {
      type: "gaussian"
      std: 1
    }
    data_filler {
      type: "constant"
      value: 0
    }
    shape {
      dim: 32
      dim: 3
      dim: 227
      dim: 227
    }
    shape {
      dim: 32
      dim: 1
      dim: 1
      dim: 1
    }
  }
}
layer {
  name: "conv1"
  type: "Convolution"
  bottom: "data"
  top: "conv1"
  param {
    lr_mult: 1
    decay_mult: 1
  }
  param {
    lr_mult: 2
    decay_mult: 0
  }
  convolution_param {
    num_output: 96
    kernel_size: 11
    stride: 4
    weight_filler {
      type: "gaussian"
      std: 0.01
    }
    bias_filler {
      type: "constant"
      value: 0
    }
    engine: MKL2017
  }
}
layer {
  name: "relu1"
  type: "ReLU"
  bottom: "conv1"
  top: "conv1"
  relu_param {
    engine: MKL2017
  }
}
layer {
  name: "norm1"
  type: "LRN"
  bottom: "conv1"
  top: "norm1"
  lrn_param {
    local_size: 5
    alpha: 0.0001
    beta: 0.75
    engine: MKL2017
  }
}
layer {
  name: "pool1"
  type: "Pooling"
  bottom: "norm1"
  top: "pool1"
  pooling_param {
    pool: MAX
    kernel_size: 3
    stride: 2
    engine: MKL2017
  }
}
layer {
  name: "conv2"
  type: "Convolution"
  bottom: "pool1"
  top: "conv2"
  param {
    lr_mult: 1
    decay_mult: 1
  }
  param {
    lr_mult: 2
    decay_mult: 0
  }
  convolution_param {
    num_output: 256
    pad: 2
    kernel_size: 5
    group: 2
    weight_filler {
      type: "gaussian"
      std: 0.01
    }
    bias_filler {
      type: "constant"
      value: 0.1
    }
    engine: MKL2017
  }
}
layer {
  name: "relu2"
  type: "ReLU"
  bottom: "conv2"
  top: "conv2"
  relu_param {
    engine: MKL2017
  }
}
layer {
  name: "norm2"
  type: "LRN"
  bottom: "conv2"
  top: "norm2"
  lrn_param {
    local_size: 5
    alpha: 0.0001
    beta: 0.75
    engine: MKL2017
  }
}
layer {
  name: "pool2"
  type: "Pooling"
  bottom: "norm2"
  top: "pool2"
  pooling_param {
    pool: MAX
    kernel_size: 3
    stride: 2
    engine: MKL2017
  }
}
layer {
  name: "conv3"
  type: "Convolution"
  bottom: "pool2"
  top: "conv3"
  param {
    lr_mult: 1
    decay_mult: 1
  }
  param {
    lr_mult: 2
    decay_mult: 0
  }
  convolution_param {
    num_output: 384
    pad: 1
    kernel_size: 3
    weight_filler {
      type: "gaussian"
      std: 0.01
    }
    bias_filler {
      type: "constant"
      value: 0
    }
    engine: MKL2017
  }
}
layer {
  name: "relu3"
  type: "ReLU"
  bottom: "conv3"
  top: "conv3"
  relu_param {
    engine: MKL2017
  }
}
layer {
  name: "conv4"
  type: "Convolution"
  bottom: "conv3"
  top: "conv4"
  param {
    lr_mult: 1
    decay_mult: 1
  }
  param {
    lr_mult: 2
    decay_mult: 0
  }
  convolution_param {
    num_output: 384
    pad: 1
    kernel_size: 3
    group: 2
    weight_filler {
      type: "gaussian"
      std: 0.01
    }
    bias_filler {
      type: "constant"
      value: 0.1
    }
    engine: MKL2017
  }
}
layer {
  name: "relu4"
  type: "ReLU"
  bottom: "conv4"
  top: "conv4"
  relu_param {
    engine: MKL2017
  }
}
layer {
  name: "conv5"
  type: "Convolution"
  bottom: "conv4"
  top: "conv5"
  param {
    lr_mult: 1
    decay_mult: 1
  }
  param {
    lr_mult: 2
    decay_mult: 0
  }
  convolution_param {
    num_output: 256
    pad: 1
    kernel_size: 3
    group: 2
    weight_filler {
      type: "gaussian"
      std: 0.01
    }
    bias_filler {
      type: "constant"
      value: 0.1
    }
    engine: MKL2017
  }
}
layer {
  name: "relu5"
  type: "ReLU"
  bottom: "conv5"
  top: "conv5"
  relu_param {
    engine: MKL2017
  }
}
layer {
  name: "pool5"
  type: "Pooling"
  bottom: "conv5"
  top: "pool5"
  pooling_param {
    pool: MAX
    kernel_size: 3
    stride: 2
    engine: MKL2017
  }
}
layer {
  name: "fc6"
  type: "InnerProduct"
  bottom: "pool5"
  top: "fc6"
  param {
    lr_mult: 1
    decay_mult: 1
  }
  param {
    lr_mult: 2
    decay_mult: 0
  }
  inner_product_param {
    num_output: 4096
    weight_filler {
      type: "gaussian"
      std: 0.005
    }
    bias_filler {
      type: "constant"
      value: 0.1
    }
  }
}
layer {
  name: "relu6"
  type: "ReLU"
  bottom: "fc6"
  top: "fc6"
}
layer {
  name: "drop6"
  type: "Dropout"
  bottom: "fc6"
  top: "fc6"
  dropout_param {
    dropout_ratio: 0.5
  }
}
layer {
  name: "fc7"
  type: "InnerProduct"
  bottom: "fc6"
  top: "fc7"
  param {
    lr_mult: 1
    decay_mult: 1
  }
  param {
    lr_mult: 2
    decay_mult: 0
  }
  inner_product_param {
    num_output: 4096
    weight_filler {
      type: "gaussian"
      std: 0.005
    }
    bias_filler {
      type: "constant"
      value: 0.1
    }
  }
}
layer {
  name: "relu7"
  type: "ReLU"
  bottom: "fc7"
  top: "fc7"
}
layer {
  name: "drop7"
  type: "Dropout"
  bottom: "fc7"
  top: "fc7"
  dropout_param {
    dropout_ratio: 0.5
  }
}
layer {
  name: "fc8"
  type: "InnerProduct"
  bottom: "fc7"
  top: "fc8"
  param {
    lr_mult: 1
    decay_mult: 1
  }
  param {
    lr_mult: 2
    decay_mult: 0
  }
  inner_product_param {
    num_output: 1000
    weight_filler {
      type: "gaussian"
      std: 0.01
    }
    bias_filler {
      type: "constant"
      value: 0
    }
  }
}
layer {
  name: "loss"
  type: "SoftmaxWithLoss"
  bottom: "fc8"
  bottom: "label"
  top: "loss"
}
I1109 00:01:54.729241 136895 layer_factory.hpp:114] Creating layer data
I1109 00:01:54.875516 136895 net.cpp:160] Creating Layer data
I1109 00:01:54.923535 136895 net.cpp:570] data -> data
I1109 00:01:55.392498 136895 net.cpp:570] data -> label
I1109 00:02:02.408234 136895 net.cpp:210] Setting up data
I1109 00:02:02.487479 136895 net.cpp:217] Top shape: 32 3 227 227 (4946784)
I1109 00:02:02.590634 136895 net.cpp:217] Top shape: 32 1 1 1 (32)
I1109 00:02:02.597940 136895 net.cpp:225] Memory required for data: 19787264
I1109 00:02:02.665189 136895 layer_factory.hpp:114] Creating layer conv1
I1109 00:02:02.988523 136895 net.cpp:160] Creating Layer conv1
I1109 00:02:03.042487 136895 net.cpp:596] conv1 <- data
I1109 00:02:03.162470 136895 net.cpp:570] conv1 -> conv1
I1109 00:02:35.782451 136895 net.cpp:210] Setting up conv1
I1109 00:02:35.789602 136895 net.cpp:217] Top shape: 32 96 55 55 (9292800)
I1109 00:02:35.789963 136895 net.cpp:225] Memory required for data: 56958464
I1109 00:02:36.066481 136895 layer_factory.hpp:114] Creating layer relu1
I1109 00:02:36.186270 136895 net.cpp:160] Creating Layer relu1
I1109 00:02:36.190907 136895 net.cpp:596] relu1 <- conv1
I1109 00:02:36.222731 136895 net.cpp:557] relu1 -> conv1 (in-place)
I1109 00:02:36.410918 136895 net.cpp:210] Setting up relu1
I1109 00:02:36.413408 136895 net.cpp:217] Top shape: 32 96 55 55 (9292800)
I1109 00:02:36.413789 136895 net.cpp:225] Memory required for data: 94129664
I1109 00:02:36.414013 136895 layer_factory.hpp:114] Creating layer norm1
I1109 00:02:36.518070 136895 net.cpp:160] Creating Layer norm1
I1109 00:02:36.518385 136895 net.cpp:596] norm1 <- conv1
I1109 00:02:36.520969 136895 net.cpp:570] norm1 -> norm1
I1109 00:02:36.748086 136895 net.cpp:210] Setting up norm1
I1109 00:02:36.761015 136895 net.cpp:217] Top shape: 32 96 55 55 (9292800)
I1109 00:02:36.761397 136895 net.cpp:225] Memory required for data: 131300864
I1109 00:02:36.761708 136895 layer_factory.hpp:114] Creating layer pool1
I1109 00:02:36.854616 136895 net.cpp:160] Creating Layer pool1
I1109 00:02:36.854933 136895 net.cpp:596] pool1 <- norm1
I1109 00:02:36.869698 136895 net.cpp:570] pool1 -> pool1
I1109 00:02:37.168161 136895 net.cpp:210] Setting up pool1
I1109 00:02:37.170675 136895 net.cpp:217] Top shape: 32 96 27 27 (2239488)
I1109 00:02:37.170999 136895 net.cpp:225] Memory required for data: 140258816
I1109 00:02:37.171248 136895 layer_factory.hpp:114] Creating layer conv2
I1109 00:02:37.171617 136895 net.cpp:160] Creating Layer conv2
I1109 00:02:37.171870 136895 net.cpp:596] conv2 <- pool1
I1109 00:02:37.172103 136895 net.cpp:570] conv2 -> conv2
I1109 00:02:42.900722 136895 net.cpp:210] Setting up conv2
I1109 00:02:42.901093 136895 net.cpp:217] Top shape: 32 256 27 27 (5971968)
I1109 00:02:42.901474 136895 net.cpp:225] Memory required for data: 164146688
I1109 00:02:42.951887 136895 layer_factory.hpp:114] Creating layer relu2
I1109 00:02:42.952276 136895 net.cpp:160] Creating Layer relu2
I1109 00:02:42.952611 136895 net.cpp:596] relu2 <- conv2
I1109 00:02:42.952947 136895 net.cpp:557] relu2 -> conv2 (in-place)
I1109 00:02:42.953397 136895 net.cpp:210] Setting up relu2
I1109 00:02:42.953657 136895 net.cpp:217] Top shape: 32 256 27 27 (5971968)
I1109 00:02:42.953888 136895 net.cpp:225] Memory required for data: 188034560
I1109 00:02:42.954077 136895 layer_factory.hpp:114] Creating layer norm2
I1109 00:02:42.954320 136895 net.cpp:160] Creating Layer norm2
I1109 00:02:42.954519 136895 net.cpp:596] norm2 <- conv2
I1109 00:02:42.954782 136895 net.cpp:570] norm2 -> norm2
I1109 00:02:42.956920 136895 net.cpp:210] Setting up norm2
I1109 00:02:42.957237 136895 net.cpp:217] Top shape: 32 256 27 27 (5971968)
I1109 00:02:42.957479 136895 net.cpp:225] Memory required for data: 211922432
I1109 00:02:42.957708 136895 layer_factory.hpp:114] Creating layer pool2
I1109 00:02:42.958679 136895 net.cpp:160] Creating Layer pool2
I1109 00:02:42.959002 136895 net.cpp:596] pool2 <- norm2
I1109 00:02:42.959285 136895 net.cpp:570] pool2 -> pool2
I1109 00:02:42.959692 136895 net.cpp:210] Setting up pool2
I1109 00:02:42.959940 136895 net.cpp:217] Top shape: 32 256 13 13 (1384448)
I1109 00:02:42.960165 136895 net.cpp:225] Memory required for data: 217460224
I1109 00:02:42.960362 136895 layer_factory.hpp:114] Creating layer conv3
I1109 00:02:42.960747 136895 net.cpp:160] Creating Layer conv3
I1109 00:02:42.961097 136895 net.cpp:596] conv3 <- pool2
I1109 00:02:42.961400 136895 net.cpp:570] conv3 -> conv3
I1109 00:02:43.413372 136895 net.cpp:210] Setting up conv3
I1109 00:02:43.415794 136895 net.cpp:217] Top shape: 32 384 13 13 (2076672)
I1109 00:02:43.416146 136895 net.cpp:225] Memory required for data: 225766912
I1109 00:02:43.419682 136895 layer_factory.hpp:114] Creating layer relu3
I1109 00:02:43.420162 136895 net.cpp:160] Creating Layer relu3
I1109 00:02:43.420490 136895 net.cpp:596] relu3 <- conv3
I1109 00:02:43.420860 136895 net.cpp:557] relu3 -> conv3 (in-place)
I1109 00:02:43.425292 136895 net.cpp:210] Setting up relu3
I1109 00:02:43.425637 136895 net.cpp:217] Top shape: 32 384 13 13 (2076672)
I1109 00:02:43.425935 136895 net.cpp:225] Memory required for data: 234073600
I1109 00:02:43.426167 136895 layer_factory.hpp:114] Creating layer conv4
I1109 00:02:43.426573 136895 net.cpp:160] Creating Layer conv4
I1109 00:02:43.426883 136895 net.cpp:596] conv4 <- conv3
I1109 00:02:43.427153 136895 net.cpp:570] conv4 -> conv4
I1109 00:02:43.695583 136895 net.cpp:210] Setting up conv4
I1109 00:02:43.695973 136895 net.cpp:217] Top shape: 32 384 13 13 (2076672)
I1109 00:02:43.696398 136895 net.cpp:225] Memory required for data: 242380288
I1109 00:02:43.696730 136895 layer_factory.hpp:114] Creating layer relu4
I1109 00:02:43.697088 136895 net.cpp:160] Creating Layer relu4
I1109 00:02:43.697329 136895 net.cpp:596] relu4 <- conv4
I1109 00:02:43.697582 136895 net.cpp:557] relu4 -> conv4 (in-place)
I1109 00:02:43.709882 136895 net.cpp:210] Setting up relu4
I1109 00:02:43.710232 136895 net.cpp:217] Top shape: 32 384 13 13 (2076672)
I1109 00:02:43.710609 136895 net.cpp:225] Memory required for data: 250686976
I1109 00:02:43.710959 136895 layer_factory.hpp:114] Creating layer conv5
I1109 00:02:43.711349 136895 net.cpp:160] Creating Layer conv5
I1109 00:02:43.711606 136895 net.cpp:596] conv5 <- conv4
I1109 00:02:43.711872 136895 net.cpp:570] conv5 -> conv5
I1109 00:02:43.881796 136895 net.cpp:210] Setting up conv5
I1109 00:02:43.882195 136895 net.cpp:217] Top shape: 32 256 13 13 (1384448)
I1109 00:02:43.882644 136895 net.cpp:225] Memory required for data: 256224768
I1109 00:02:43.887377 136895 layer_factory.hpp:114] Creating layer relu5
I1109 00:02:43.887830 136895 net.cpp:160] Creating Layer relu5
I1109 00:02:43.888120 136895 net.cpp:596] relu5 <- conv5
I1109 00:02:43.888450 136895 net.cpp:557] relu5 -> conv5 (in-place)
I1109 00:02:43.889545 136895 net.cpp:210] Setting up relu5
I1109 00:02:43.889922 136895 net.cpp:217] Top shape: 32 256 13 13 (1384448)
I1109 00:02:43.890197 136895 net.cpp:225] Memory required for data: 261762560
I1109 00:02:43.890425 136895 layer_factory.hpp:114] Creating layer pool5
I1109 00:02:43.890748 136895 net.cpp:160] Creating Layer pool5
I1109 00:02:43.890995 136895 net.cpp:596] pool5 <- conv5
I1109 00:02:43.891335 136895 net.cpp:570] pool5 -> pool5
I1109 00:02:43.891757 136895 net.cpp:210] Setting up pool5
I1109 00:02:43.892026 136895 net.cpp:217] Top shape: 32 256 6 6 (294912)
I1109 00:02:43.892262 136895 net.cpp:225] Memory required for data: 262942208
I1109 00:02:43.892453 136895 layer_factory.hpp:114] Creating layer fc6
I1109 00:02:43.947399 136895 net.cpp:160] Creating Layer fc6
I1109 00:02:43.947708 136895 net.cpp:596] fc6 <- pool5
I1109 00:02:43.948083 136895 net.cpp:570] fc6 -> fc6
I1109 00:02:48.033962 136895 net.cpp:210] Setting up fc6
I1109 00:02:48.034268 136895 net.cpp:217] Top shape: 32 4096 (131072)
I1109 00:02:48.036392 136895 net.cpp:225] Memory required for data: 263466496
I1109 00:02:48.036708 136895 layer_factory.hpp:114] Creating layer relu6
I1109 00:02:48.039242 136895 net.cpp:160] Creating Layer relu6
I1109 00:02:48.039541 136895 net.cpp:596] relu6 <- fc6
I1109 00:02:48.039777 136895 net.cpp:557] relu6 -> fc6 (in-place)
I1109 00:02:48.040205 136895 net.cpp:210] Setting up relu6
I1109 00:02:48.040458 136895 net.cpp:217] Top shape: 32 4096 (131072)
I1109 00:02:48.040693 136895 net.cpp:225] Memory required for data: 263990784
I1109 00:02:48.040937 136895 layer_factory.hpp:114] Creating layer drop6
I1109 00:02:48.060927 136895 net.cpp:160] Creating Layer drop6
I1109 00:02:48.061238 136895 net.cpp:596] drop6 <- fc6
I1109 00:02:48.061673 136895 net.cpp:557] drop6 -> fc6 (in-place)
I1109 00:02:48.165031 136895 net.cpp:210] Setting up drop6
I1109 00:02:48.165328 136895 net.cpp:217] Top shape: 32 4096 (131072)
I1109 00:02:48.165693 136895 net.cpp:225] Memory required for data: 264515072
I1109 00:02:48.165911 136895 layer_factory.hpp:114] Creating layer fc7
I1109 00:02:48.166194 136895 net.cpp:160] Creating Layer fc7
I1109 00:02:48.166412 136895 net.cpp:596] fc7 <- fc6
I1109 00:02:48.166800 136895 net.cpp:570] fc7 -> fc7
I1109 00:02:49.877483 136895 net.cpp:210] Setting up fc7
I1109 00:02:49.877820 136895 net.cpp:217] Top shape: 32 4096 (131072)
I1109 00:02:49.878213 136895 net.cpp:225] Memory required for data: 265039360
I1109 00:02:49.878525 136895 layer_factory.hpp:114] Creating layer relu7
I1109 00:02:49.878829 136895 net.cpp:160] Creating Layer relu7
I1109 00:02:49.879055 136895 net.cpp:596] relu7 <- fc7
I1109 00:02:49.879286 136895 net.cpp:557] relu7 -> fc7 (in-place)
I1109 00:02:49.879721 136895 net.cpp:210] Setting up relu7
I1109 00:02:49.879983 136895 net.cpp:217] Top shape: 32 4096 (131072)
I1109 00:02:49.880216 136895 net.cpp:225] Memory required for data: 265563648
I1109 00:02:49.880403 136895 layer_factory.hpp:114] Creating layer drop7
I1109 00:02:49.880661 136895 net.cpp:160] Creating Layer drop7
I1109 00:02:49.880919 136895 net.cpp:596] drop7 <- fc7
I1109 00:02:49.881181 136895 net.cpp:557] drop7 -> fc7 (in-place)
I1109 00:02:49.881515 136895 net.cpp:210] Setting up drop7
I1109 00:02:49.881723 136895 net.cpp:217] Top shape: 32 4096 (131072)
I1109 00:02:49.881963 136895 net.cpp:225] Memory required for data: 266087936
I1109 00:02:49.882143 136895 layer_factory.hpp:114] Creating layer fc8
I1109 00:02:49.882385 136895 net.cpp:160] Creating Layer fc8
I1109 00:02:49.882575 136895 net.cpp:596] fc8 <- fc7
I1109 00:02:49.882796 136895 net.cpp:570] fc8 -> fc8
I1109 00:02:50.306287 136895 net.cpp:210] Setting up fc8
I1109 00:02:50.306632 136895 net.cpp:217] Top shape: 32 1000 (32000)
I1109 00:02:50.307003 136895 net.cpp:225] Memory required for data: 266215936
I1109 00:02:50.307334 136895 layer_factory.hpp:114] Creating layer loss
I1109 00:02:50.331733 136895 net.cpp:160] Creating Layer loss
I1109 00:02:50.332051 136895 net.cpp:596] loss <- fc8
I1109 00:02:50.333113 136895 net.cpp:596] loss <- label
I1109 00:02:50.360318 136895 net.cpp:570] loss -> loss
I1109 00:02:50.398067 136895 layer_factory.hpp:114] Creating layer loss
…
