…
I1109 01:44:20.924243 141405 net.cpp:484] The NetState phase (0) differed from the phase (1) specified by a rule in layer accuracy
I1109 01:44:21.555542 141405 net.cpp:120] Initializing net from parameters: 
name: "AlexNet"
state {
  phase: TRAIN
  level: 0
  stage: ""
}
layer {
  name: "data"
  type: "DummyData"
  top: "data"
  top: "label"
  include {
    phase: TRAIN
  }
  dummy_data_param {
    data_filler {
      type: "gaussian"
      std: 1
    }
    data_filler {
      type: "constant"
      value: 0
    }
    shape {
      dim: 32
      dim: 3
      dim: 227
      dim: 227
    }
    shape {
      dim: 32
      dim: 1
      dim: 1
      dim: 1
    }
  }
}
layer {
  name: "conv1"
  type: "Convolution"
  bottom: "data"
  top: "conv1"
  param {
    lr_mult: 1
    decay_mult: 1
  }
  param {
    lr_mult: 2
    decay_mult: 0
  }
  convolution_param {
    num_output: 96
    kernel_size: 11
    stride: 4
    weight_filler {
      type: "gaussian"
      std: 0.01
    }
    bias_filler {
      type: "constant"
      value: 0
    }
    engine: MKL2017
  }
}
layer {
  name: "relu1"
  type: "ReLU"
  bottom: "conv1"
  top: "conv1"
  relu_param {
    engine: MKL2017
  }
}
layer {
  name: "norm1"
  type: "LRN"
  bottom: "conv1"
  top: "norm1"
  lrn_param {
    local_size: 5
    alpha: 0.0001
    beta: 0.75
    engine: MKL2017
  }
}
layer {
  name: "pool1"
  type: "Pooling"
  bottom: "norm1"
  top: "pool1"
  pooling_param {
    pool: MAX
    kernel_size: 3
    stride: 2
    engine: MKL2017
  }
}
layer {
  name: "conv2"
  type: "Convolution"
  bottom: "pool1"
  top: "conv2"
  param {
    lr_mult: 1
    decay_mult: 1
  }
  param {
    lr_mult: 2
    decay_mult: 0
  }
  convolution_param {
    num_output: 256
    pad: 2
    kernel_size: 5
    group: 2
    weight_filler {
      type: "gaussian"
      std: 0.01
    }
    bias_filler {
      type: "constant"
      value: 0.1
    }
    engine: MKL2017
  }
}
layer {
  name: "relu2"
  type: "ReLU"
  bottom: "conv2"
  top: "conv2"
  relu_param {
    engine: MKL2017
  }
}
layer {
  name: "norm2"
  type: "LRN"
  bottom: "conv2"
  top: "norm2"
  lrn_param {
    local_size: 5
    alpha: 0.0001
    beta: 0.75
    engine: MKL2017
  }
}
layer {
  name: "pool2"
  type: "Pooling"
  bottom: "norm2"
  top: "pool2"
  pooling_param {
    pool: MAX
    kernel_size: 3
    stride: 2
    engine: MKL2017
  }
}
layer {
  name: "conv3"
  type: "Convolution"
  bottom: "pool2"
  top: "conv3"
  param {
    lr_mult: 1
    decay_mult: 1
  }
  param {
    lr_mult: 2
    decay_mult: 0
  }
  convolution_param {
    num_output: 384
    pad: 1
    kernel_size: 3
    weight_filler {
      type: "gaussian"
      std: 0.01
    }
    bias_filler {
      type: "constant"
      value: 0
    }
    engine: MKL2017
  }
}
layer {
  name: "relu3"
  type: "ReLU"
  bottom: "conv3"
  top: "conv3"
  relu_param {
    engine: MKL2017
  }
}
layer {
  name: "conv4"
  type: "Convolution"
  bottom: "conv3"
  top: "conv4"
  param {
    lr_mult: 1
    decay_mult: 1
  }
  param {
    lr_mult: 2
    decay_mult: 0
  }
  convolution_param {
    num_output: 384
    pad: 1
    kernel_size: 3
    group: 2
    weight_filler {
      type: "gaussian"
      std: 0.01
    }
    bias_filler {
      type: "constant"
      value: 0.1
    }
    engine: MKL2017
  }
}
layer {
  name: "relu4"
  type: "ReLU"
  bottom: "conv4"
  top: "conv4"
  relu_param {
    engine: MKL2017
  }
}
layer {
  name: "conv5"
  type: "Convolution"
  bottom: "conv4"
  top: "conv5"
  param {
    lr_mult: 1
    decay_mult: 1
  }
  param {
    lr_mult: 2
    decay_mult: 0
  }
  convolution_param {
    num_output: 256
    pad: 1
    kernel_size: 3
    group: 2
    weight_filler {
      type: "gaussian"
      std: 0.01
    }
    bias_filler {
      type: "constant"
      value: 0.1
    }
    engine: MKL2017
  }
}
layer {
  name: "relu5"
  type: "ReLU"
  bottom: "conv5"
  top: "conv5"
  relu_param {
    engine: MKL2017
  }
}
layer {
  name: "pool5"
  type: "Pooling"
  bottom: "conv5"
  top: "pool5"
  pooling_param {
    pool: MAX
    kernel_size: 3
    stride: 2
    engine: MKL2017
  }
}
layer {
  name: "fc6"
  type: "InnerProduct"
  bottom: "pool5"
  top: "fc6"
  param {
    lr_mult: 1
    decay_mult: 1
  }
  param {
    lr_mult: 2
    decay_mult: 0
  }
  inner_product_param {
    num_output: 4096
    weight_filler {
      type: "gaussian"
      std: 0.005
    }
    bias_filler {
      type: "constant"
      value: 0.1
    }
  }
}
layer {
  name: "relu6"
  type: "ReLU"
  bottom: "fc6"
  top: "fc6"
}
layer {
  name: "drop6"
  type: "Dropout"
  bottom: "fc6"
  top: "fc6"
  dropout_param {
    dropout_ratio: 0.5
  }
}
layer {
  name: "fc7"
  type: "InnerProduct"
  bottom: "fc6"
  top: "fc7"
  param {
    lr_mult: 1
    decay_mult: 1
  }
  param {
    lr_mult: 2
    decay_mult: 0
  }
  inner_product_param {
    num_output: 4096
    weight_filler {
      type: "gaussian"
      std: 0.005
    }
    bias_filler {
      type: "constant"
      value: 0.1
    }
  }
}
layer {
  name: "relu7"
  type: "ReLU"
  bottom: "fc7"
  top: "fc7"
}
layer {
  name: "drop7"
  type: "Dropout"
  bottom: "fc7"
  top: "fc7"
  dropout_param {
    dropout_ratio: 0.5
  }
}
layer {
  name: "fc8"
  type: "InnerProduct"
  bottom: "fc7"
  top: "fc8"
  param {
    lr_mult: 1
    decay_mult: 1
  }
  param {
    lr_mult: 2
    decay_mult: 0
  }
  inner_product_param {
    num_output: 1000
    weight_filler {
      type: "gaussian"
      std: 0.01
    }
    bias_filler {
      type: "constant"
      value: 0
    }
  }
}
layer {
  name: "loss"
  type: "SoftmaxWithLoss"
  bottom: "fc8"
  bottom: "label"
  top: "loss"
}
I1109 01:44:24.008569 141405 layer_factory.hpp:114] Creating layer data
I1109 01:44:24.158547 141405 net.cpp:160] Creating Layer data
I1109 01:44:24.209161 141405 net.cpp:570] data -> data
I1109 01:44:24.675463 141405 net.cpp:570] data -> label
I1109 01:44:31.722272 141405 net.cpp:210] Setting up data
I1109 01:44:31.801367 141405 net.cpp:217] Top shape: 32 3 227 227 (4946784)
I1109 01:44:31.908041 141405 net.cpp:217] Top shape: 32 1 1 1 (32)
I1109 01:44:31.915814 141405 net.cpp:225] Memory required for data: 19787264
I1109 01:44:31.985592 141405 layer_factory.hpp:114] Creating layer conv1
I1109 01:44:32.313904 141405 net.cpp:160] Creating Layer conv1
I1109 01:44:32.363801 141405 net.cpp:596] conv1 <- data
I1109 01:44:32.482764 141405 net.cpp:570] conv1 -> conv1
I1109 01:45:05.404870 141405 net.cpp:210] Setting up conv1
I1109 01:45:05.412394 141405 net.cpp:217] Top shape: 32 96 55 55 (9292800)
I1109 01:45:05.412773 141405 net.cpp:225] Memory required for data: 56958464
I1109 01:45:05.701063 141405 layer_factory.hpp:114] Creating layer relu1
I1109 01:45:05.822016 141405 net.cpp:160] Creating Layer relu1
I1109 01:45:05.826578 141405 net.cpp:596] relu1 <- conv1
I1109 01:45:05.859052 141405 net.cpp:557] relu1 -> conv1 (in-place)
I1109 01:45:06.049090 141405 net.cpp:210] Setting up relu1
I1109 01:45:06.051492 141405 net.cpp:217] Top shape: 32 96 55 55 (9292800)
I1109 01:45:06.051827 141405 net.cpp:225] Memory required for data: 94129664
I1109 01:45:06.052026 141405 layer_factory.hpp:114] Creating layer norm1
I1109 01:45:06.162981 141405 net.cpp:160] Creating Layer norm1
I1109 01:45:06.163287 141405 net.cpp:596] norm1 <- conv1
I1109 01:45:06.165817 141405 net.cpp:570] norm1 -> norm1
I1109 01:45:06.387711 141405 net.cpp:210] Setting up norm1
I1109 01:45:06.400598 141405 net.cpp:217] Top shape: 32 96 55 55 (9292800)
I1109 01:45:06.401011 141405 net.cpp:225] Memory required for data: 131300864
I1109 01:45:06.401305 141405 layer_factory.hpp:114] Creating layer pool1
I1109 01:45:06.498571 141405 net.cpp:160] Creating Layer pool1
I1109 01:45:06.498893 141405 net.cpp:596] pool1 <- norm1
I1109 01:45:06.514186 141405 net.cpp:570] pool1 -> pool1
I1109 01:45:06.818172 141405 net.cpp:210] Setting up pool1
I1109 01:45:06.820652 141405 net.cpp:217] Top shape: 32 96 27 27 (2239488)
I1109 01:45:06.821022 141405 net.cpp:225] Memory required for data: 140258816
I1109 01:45:06.821228 141405 layer_factory.hpp:114] Creating layer conv2
I1109 01:45:06.821614 141405 net.cpp:160] Creating Layer conv2
I1109 01:45:06.821838 141405 net.cpp:596] conv2 <- pool1
I1109 01:45:06.822100 141405 net.cpp:570] conv2 -> conv2
I1109 01:45:12.589051 141405 net.cpp:210] Setting up conv2
I1109 01:45:12.589395 141405 net.cpp:217] Top shape: 32 256 27 27 (5971968)
I1109 01:45:12.589766 141405 net.cpp:225] Memory required for data: 164146688
I1109 01:45:12.640430 141405 layer_factory.hpp:114] Creating layer relu2
I1109 01:45:12.640911 141405 net.cpp:160] Creating Layer relu2
I1109 01:45:12.641222 141405 net.cpp:596] relu2 <- conv2
I1109 01:45:12.641490 141405 net.cpp:557] relu2 -> conv2 (in-place)
I1109 01:45:12.641963 141405 net.cpp:210] Setting up relu2
I1109 01:45:12.642237 141405 net.cpp:217] Top shape: 32 256 27 27 (5971968)
I1109 01:45:12.642473 141405 net.cpp:225] Memory required for data: 188034560
I1109 01:45:12.642668 141405 layer_factory.hpp:114] Creating layer norm2
I1109 01:45:12.642920 141405 net.cpp:160] Creating Layer norm2
I1109 01:45:12.643120 141405 net.cpp:596] norm2 <- conv2
I1109 01:45:12.643362 141405 net.cpp:570] norm2 -> norm2
I1109 01:45:12.645483 141405 net.cpp:210] Setting up norm2
I1109 01:45:12.645793 141405 net.cpp:217] Top shape: 32 256 27 27 (5971968)
I1109 01:45:12.646023 141405 net.cpp:225] Memory required for data: 211922432
I1109 01:45:12.646208 141405 layer_factory.hpp:114] Creating layer pool2
I1109 01:45:12.647011 141405 net.cpp:160] Creating Layer pool2
I1109 01:45:12.647294 141405 net.cpp:596] pool2 <- norm2
I1109 01:45:12.647529 141405 net.cpp:570] pool2 -> pool2
I1109 01:45:12.647953 141405 net.cpp:210] Setting up pool2
I1109 01:45:12.648262 141405 net.cpp:217] Top shape: 32 256 13 13 (1384448)
I1109 01:45:12.648608 141405 net.cpp:225] Memory required for data: 217460224
I1109 01:45:12.648908 141405 layer_factory.hpp:114] Creating layer conv3
I1109 01:45:12.649245 141405 net.cpp:160] Creating Layer conv3
I1109 01:45:12.649456 141405 net.cpp:596] conv3 <- pool2
I1109 01:45:12.649695 141405 net.cpp:570] conv3 -> conv3
I1109 01:45:13.154336 141405 net.cpp:210] Setting up conv3
I1109 01:45:13.156733 141405 net.cpp:217] Top shape: 32 384 13 13 (2076672)
I1109 01:45:13.157135 141405 net.cpp:225] Memory required for data: 225766912
I1109 01:45:13.160133 141405 layer_factory.hpp:114] Creating layer relu3
I1109 01:45:13.160534 141405 net.cpp:160] Creating Layer relu3
I1109 01:45:13.160825 141405 net.cpp:596] relu3 <- conv3
I1109 01:45:13.161134 141405 net.cpp:557] relu3 -> conv3 (in-place)
I1109 01:45:13.165261 141405 net.cpp:210] Setting up relu3
I1109 01:45:13.165573 141405 net.cpp:217] Top shape: 32 384 13 13 (2076672)
I1109 01:45:13.165819 141405 net.cpp:225] Memory required for data: 234073600
I1109 01:45:13.166012 141405 layer_factory.hpp:114] Creating layer conv4
I1109 01:45:13.166368 141405 net.cpp:160] Creating Layer conv4
I1109 01:45:13.166616 141405 net.cpp:596] conv4 <- conv3
I1109 01:45:13.166862 141405 net.cpp:570] conv4 -> conv4
I1109 01:45:13.407212 141405 net.cpp:210] Setting up conv4
I1109 01:45:13.407594 141405 net.cpp:217] Top shape: 32 384 13 13 (2076672)
I1109 01:45:13.407984 141405 net.cpp:225] Memory required for data: 242380288
I1109 01:45:13.408311 141405 layer_factory.hpp:114] Creating layer relu4
I1109 01:45:13.408592 141405 net.cpp:160] Creating Layer relu4
I1109 01:45:13.408849 141405 net.cpp:596] relu4 <- conv4
I1109 01:45:13.409098 141405 net.cpp:557] relu4 -> conv4 (in-place)
I1109 01:45:13.421315 141405 net.cpp:210] Setting up relu4
I1109 01:45:13.421663 141405 net.cpp:217] Top shape: 32 384 13 13 (2076672)
I1109 01:45:13.422036 141405 net.cpp:225] Memory required for data: 250686976
I1109 01:45:13.422274 141405 layer_factory.hpp:114] Creating layer conv5
I1109 01:45:13.422631 141405 net.cpp:160] Creating Layer conv5
I1109 01:45:13.422864 141405 net.cpp:596] conv5 <- conv4
I1109 01:45:13.423105 141405 net.cpp:570] conv5 -> conv5
I1109 01:45:13.591648 141405 net.cpp:210] Setting up conv5
I1109 01:45:13.592036 141405 net.cpp:217] Top shape: 32 256 13 13 (1384448)
I1109 01:45:13.592444 141405 net.cpp:225] Memory required for data: 256224768
I1109 01:45:13.597192 141405 layer_factory.hpp:114] Creating layer relu5
I1109 01:45:13.597594 141405 net.cpp:160] Creating Layer relu5
I1109 01:45:13.597838 141405 net.cpp:596] relu5 <- conv5
I1109 01:45:13.598098 141405 net.cpp:557] relu5 -> conv5 (in-place)
I1109 01:45:13.598592 141405 net.cpp:210] Setting up relu5
I1109 01:45:13.598898 141405 net.cpp:217] Top shape: 32 256 13 13 (1384448)
I1109 01:45:13.599205 141405 net.cpp:225] Memory required for data: 261762560
I1109 01:45:13.599441 141405 layer_factory.hpp:114] Creating layer pool5
I1109 01:45:13.599699 141405 net.cpp:160] Creating Layer pool5
I1109 01:45:13.599907 141405 net.cpp:596] pool5 <- conv5
I1109 01:45:13.600126 141405 net.cpp:570] pool5 -> pool5
I1109 01:45:13.600509 141405 net.cpp:210] Setting up pool5
I1109 01:45:13.600754 141405 net.cpp:217] Top shape: 32 256 6 6 (294912)
I1109 01:45:13.601038 141405 net.cpp:225] Memory required for data: 262942208
I1109 01:45:13.601227 141405 layer_factory.hpp:114] Creating layer fc6
I1109 01:45:13.655690 141405 net.cpp:160] Creating Layer fc6
I1109 01:45:13.655997 141405 net.cpp:596] fc6 <- pool5
I1109 01:45:13.656386 141405 net.cpp:570] fc6 -> fc6
I1109 01:45:17.746808 141405 net.cpp:210] Setting up fc6
I1109 01:45:17.747112 141405 net.cpp:217] Top shape: 32 4096 (131072)
I1109 01:45:17.749177 141405 net.cpp:225] Memory required for data: 263466496
I1109 01:45:17.749481 141405 layer_factory.hpp:114] Creating layer relu6
I1109 01:45:17.751945 141405 net.cpp:160] Creating Layer relu6
I1109 01:45:17.752239 141405 net.cpp:596] relu6 <- fc6
I1109 01:45:17.752465 141405 net.cpp:557] relu6 -> fc6 (in-place)
I1109 01:45:17.752923 141405 net.cpp:210] Setting up relu6
I1109 01:45:17.753191 141405 net.cpp:217] Top shape: 32 4096 (131072)
I1109 01:45:17.753412 141405 net.cpp:225] Memory required for data: 263990784
I1109 01:45:17.753594 141405 layer_factory.hpp:114] Creating layer drop6
I1109 01:45:17.773461 141405 net.cpp:160] Creating Layer drop6
I1109 01:45:17.773764 141405 net.cpp:596] drop6 <- fc6
I1109 01:45:17.774127 141405 net.cpp:557] drop6 -> fc6 (in-place)
I1109 01:45:17.879071 141405 net.cpp:210] Setting up drop6
I1109 01:45:17.879370 141405 net.cpp:217] Top shape: 32 4096 (131072)
I1109 01:45:17.879729 141405 net.cpp:225] Memory required for data: 264515072
I1109 01:45:17.879935 141405 layer_factory.hpp:114] Creating layer fc7
I1109 01:45:17.880197 141405 net.cpp:160] Creating Layer fc7
I1109 01:45:17.880395 141405 net.cpp:596] fc7 <- fc6
I1109 01:45:17.880903 141405 net.cpp:570] fc7 -> fc7
I1109 01:45:19.594070 141405 net.cpp:210] Setting up fc7
I1109 01:45:19.594424 141405 net.cpp:217] Top shape: 32 4096 (131072)
I1109 01:45:19.594830 141405 net.cpp:225] Memory required for data: 265039360
I1109 01:45:19.595180 141405 layer_factory.hpp:114] Creating layer relu7
I1109 01:45:19.595490 141405 net.cpp:160] Creating Layer relu7
I1109 01:45:19.595726 141405 net.cpp:596] relu7 <- fc7
I1109 01:45:19.595968 141405 net.cpp:557] relu7 -> fc7 (in-place)
I1109 01:45:19.596396 141405 net.cpp:210] Setting up relu7
I1109 01:45:19.596683 141405 net.cpp:217] Top shape: 32 4096 (131072)
I1109 01:45:19.596976 141405 net.cpp:225] Memory required for data: 265563648
I1109 01:45:19.597172 141405 layer_factory.hpp:114] Creating layer drop7
I1109 01:45:19.597431 141405 net.cpp:160] Creating Layer drop7
I1109 01:45:19.597645 141405 net.cpp:596] drop7 <- fc7
I1109 01:45:19.597899 141405 net.cpp:557] drop7 -> fc7 (in-place)
I1109 01:45:19.598177 141405 net.cpp:210] Setting up drop7
I1109 01:45:19.598462 141405 net.cpp:217] Top shape: 32 4096 (131072)
I1109 01:45:19.598671 141405 net.cpp:225] Memory required for data: 266087936
I1109 01:45:19.598852 141405 layer_factory.hpp:114] Creating layer fc8
I1109 01:45:19.599098 141405 net.cpp:160] Creating Layer fc8
I1109 01:45:19.599293 141405 net.cpp:596] fc8 <- fc7
I1109 01:45:19.599517 141405 net.cpp:570] fc8 -> fc8
I1109 01:45:20.023433 141405 net.cpp:210] Setting up fc8
I1109 01:45:20.023787 141405 net.cpp:217] Top shape: 32 1000 (32000)
I1109 01:45:20.024183 141405 net.cpp:225] Memory required for data: 266215936
I1109 01:45:20.024520 141405 layer_factory.hpp:114] Creating layer loss
I1109 01:45:20.049679 141405 net.cpp:160] Creating Layer loss
I1109 01:45:20.050000 141405 net.cpp:596] loss <- fc8
I1109 01:45:20.050896 141405 net.cpp:596] loss <- label
I1109 01:45:20.078897 141405 net.cpp:570] loss -> loss
I1109 01:45:20.117446 141405 layer_factory.hpp:114] Creating layer loss
…
