…
I1109 03:46:21.733942 145289 net.cpp:484] The NetState phase (0) differed from the phase (1) specified by a rule in layer accuracy
I1109 03:46:22.364454 145289 net.cpp:120] Initializing net from parameters: 
name: "AlexNet"
state {
  phase: TRAIN
  level: 0
  stage: ""
}
layer {
  name: "data"
  type: "DummyData"
  top: "data"
  top: "label"
  include {
    phase: TRAIN
  }
  dummy_data_param {
    data_filler {
      type: "gaussian"
      std: 1
    }
    data_filler {
      type: "constant"
      value: 0
    }
    shape {
      dim: 32
      dim: 3
      dim: 227
      dim: 227
    }
    shape {
      dim: 32
      dim: 1
      dim: 1
      dim: 1
    }
  }
}
layer {
  name: "conv1"
  type: "Convolution"
  bottom: "data"
  top: "conv1"
  param {
    lr_mult: 1
    decay_mult: 1
  }
  param {
    lr_mult: 2
    decay_mult: 0
  }
  convolution_param {
    num_output: 96
    kernel_size: 11
    stride: 4
    weight_filler {
      type: "gaussian"
      std: 0.01
    }
    bias_filler {
      type: "constant"
      value: 0
    }
    engine: MKL2017
  }
}
layer {
  name: "relu1"
  type: "ReLU"
  bottom: "conv1"
  top: "conv1"
  relu_param {
    engine: MKL2017
  }
}
layer {
  name: "norm1"
  type: "LRN"
  bottom: "conv1"
  top: "norm1"
  lrn_param {
    local_size: 5
    alpha: 0.0001
    beta: 0.75
    engine: MKL2017
  }
}
layer {
  name: "pool1"
  type: "Pooling"
  bottom: "norm1"
  top: "pool1"
  pooling_param {
    pool: MAX
    kernel_size: 3
    stride: 2
    engine: MKL2017
  }
}
layer {
  name: "conv2"
  type: "Convolution"
  bottom: "pool1"
  top: "conv2"
  param {
    lr_mult: 1
    decay_mult: 1
  }
  param {
    lr_mult: 2
    decay_mult: 0
  }
  convolution_param {
    num_output: 256
    pad: 2
    kernel_size: 5
    group: 2
    weight_filler {
      type: "gaussian"
      std: 0.01
    }
    bias_filler {
      type: "constant"
      value: 0.1
    }
    engine: MKL2017
  }
}
layer {
  name: "relu2"
  type: "ReLU"
  bottom: "conv2"
  top: "conv2"
  relu_param {
    engine: MKL2017
  }
}
layer {
  name: "norm2"
  type: "LRN"
  bottom: "conv2"
  top: "norm2"
  lrn_param {
    local_size: 5
    alpha: 0.0001
    beta: 0.75
    engine: MKL2017
  }
}
layer {
  name: "pool2"
  type: "Pooling"
  bottom: "norm2"
  top: "pool2"
  pooling_param {
    pool: MAX
    kernel_size: 3
    stride: 2
    engine: MKL2017
  }
}
layer {
  name: "conv3"
  type: "Convolution"
  bottom: "pool2"
  top: "conv3"
  param {
    lr_mult: 1
    decay_mult: 1
  }
  param {
    lr_mult: 2
    decay_mult: 0
  }
  convolution_param {
    num_output: 384
    pad: 1
    kernel_size: 3
    weight_filler {
      type: "gaussian"
      std: 0.01
    }
    bias_filler {
      type: "constant"
      value: 0
    }
    engine: MKL2017
  }
}
layer {
  name: "relu3"
  type: "ReLU"
  bottom: "conv3"
  top: "conv3"
  relu_param {
    engine: MKL2017
  }
}
layer {
  name: "conv4"
  type: "Convolution"
  bottom: "conv3"
  top: "conv4"
  param {
    lr_mult: 1
    decay_mult: 1
  }
  param {
    lr_mult: 2
    decay_mult: 0
  }
  convolution_param {
    num_output: 384
    pad: 1
    kernel_size: 3
    group: 2
    weight_filler {
      type: "gaussian"
      std: 0.01
    }
    bias_filler {
      type: "constant"
      value: 0.1
    }
    engine: MKL2017
  }
}
layer {
  name: "relu4"
  type: "ReLU"
  bottom: "conv4"
  top: "conv4"
  relu_param {
    engine: MKL2017
  }
}
layer {
  name: "conv5"
  type: "Convolution"
  bottom: "conv4"
  top: "conv5"
  param {
    lr_mult: 1
    decay_mult: 1
  }
  param {
    lr_mult: 2
    decay_mult: 0
  }
  convolution_param {
    num_output: 256
    pad: 1
    kernel_size: 3
    group: 2
    weight_filler {
      type: "gaussian"
      std: 0.01
    }
    bias_filler {
      type: "constant"
      value: 0.1
    }
    engine: MKL2017
  }
}
layer {
  name: "relu5"
  type: "ReLU"
  bottom: "conv5"
  top: "conv5"
  relu_param {
    engine: MKL2017
  }
}
layer {
  name: "pool5"
  type: "Pooling"
  bottom: "conv5"
  top: "pool5"
  pooling_param {
    pool: MAX
    kernel_size: 3
    stride: 2
    engine: MKL2017
  }
}
layer {
  name: "fc6"
  type: "InnerProduct"
  bottom: "pool5"
  top: "fc6"
  param {
    lr_mult: 1
    decay_mult: 1
  }
  param {
    lr_mult: 2
    decay_mult: 0
  }
  inner_product_param {
    num_output: 4096
    weight_filler {
      type: "gaussian"
      std: 0.005
    }
    bias_filler {
      type: "constant"
      value: 0.1
    }
  }
}
layer {
  name: "relu6"
  type: "ReLU"
  bottom: "fc6"
  top: "fc6"
}
layer {
  name: "drop6"
  type: "Dropout"
  bottom: "fc6"
  top: "fc6"
  dropout_param {
    dropout_ratio: 0.5
  }
}
layer {
  name: "fc7"
  type: "InnerProduct"
  bottom: "fc6"
  top: "fc7"
  param {
    lr_mult: 1
    decay_mult: 1
  }
  param {
    lr_mult: 2
    decay_mult: 0
  }
  inner_product_param {
    num_output: 4096
    weight_filler {
      type: "gaussian"
      std: 0.005
    }
    bias_filler {
      type: "constant"
      value: 0.1
    }
  }
}
layer {
  name: "relu7"
  type: "ReLU"
  bottom: "fc7"
  top: "fc7"
}
layer {
  name: "drop7"
  type: "Dropout"
  bottom: "fc7"
  top: "fc7"
  dropout_param {
    dropout_ratio: 0.5
  }
}
layer {
  name: "fc8"
  type: "InnerProduct"
  bottom: "fc7"
  top: "fc8"
  param {
    lr_mult: 1
    decay_mult: 1
  }
  param {
    lr_mult: 2
    decay_mult: 0
  }
  inner_product_param {
    num_output: 1000
    weight_filler {
      type: "gaussian"
      std: 0.01
    }
    bias_filler {
      type: "constant"
      value: 0
    }
  }
}
layer {
  name: "loss"
  type: "SoftmaxWithLoss"
  bottom: "fc8"
  bottom: "label"
  top: "loss"
}
I1109 03:46:24.806566 145289 layer_factory.hpp:114] Creating layer data
I1109 03:46:24.952742 145289 net.cpp:160] Creating Layer data
I1109 03:46:25.000514 145289 net.cpp:570] data -> data
I1109 03:46:25.466233 145289 net.cpp:570] data -> label
I1109 03:46:32.478268 145289 net.cpp:210] Setting up data
I1109 03:46:32.556699 145289 net.cpp:217] Top shape: 32 3 227 227 (4946784)
I1109 03:46:32.660876 145289 net.cpp:217] Top shape: 32 1 1 1 (32)
I1109 03:46:32.668020 145289 net.cpp:225] Memory required for data: 19787264
I1109 03:46:32.736702 145289 layer_factory.hpp:114] Creating layer conv1
I1109 03:46:33.062458 145289 net.cpp:160] Creating Layer conv1
I1109 03:46:33.111917 145289 net.cpp:596] conv1 <- data
I1109 03:46:33.230832 145289 net.cpp:570] conv1 -> conv1
I1109 03:47:06.065019 145289 net.cpp:210] Setting up conv1
I1109 03:47:06.072670 145289 net.cpp:217] Top shape: 32 96 55 55 (9292800)
I1109 03:47:06.073142 145289 net.cpp:225] Memory required for data: 56958464
I1109 03:47:06.354238 145289 layer_factory.hpp:114] Creating layer relu1
I1109 03:47:06.474045 145289 net.cpp:160] Creating Layer relu1
I1109 03:47:06.478597 145289 net.cpp:596] relu1 <- conv1
I1109 03:47:06.510627 145289 net.cpp:557] relu1 -> conv1 (in-place)
I1109 03:47:06.698797 145289 net.cpp:210] Setting up relu1
I1109 03:47:06.701273 145289 net.cpp:217] Top shape: 32 96 55 55 (9292800)
I1109 03:47:06.701616 145289 net.cpp:225] Memory required for data: 94129664
I1109 03:47:06.701859 145289 layer_factory.hpp:114] Creating layer norm1
I1109 03:47:06.805716 145289 net.cpp:160] Creating Layer norm1
I1109 03:47:06.806028 145289 net.cpp:596] norm1 <- conv1
I1109 03:47:06.808570 145289 net.cpp:570] norm1 -> norm1
I1109 03:47:07.032416 145289 net.cpp:210] Setting up norm1
I1109 03:47:07.045341 145289 net.cpp:217] Top shape: 32 96 55 55 (9292800)
I1109 03:47:07.045727 145289 net.cpp:225] Memory required for data: 131300864
I1109 03:47:07.046033 145289 layer_factory.hpp:114] Creating layer pool1
I1109 03:47:07.138649 145289 net.cpp:160] Creating Layer pool1
I1109 03:47:07.138967 145289 net.cpp:596] pool1 <- norm1
I1109 03:47:07.153781 145289 net.cpp:570] pool1 -> pool1
I1109 03:47:07.451979 145289 net.cpp:210] Setting up pool1
I1109 03:47:07.454505 145289 net.cpp:217] Top shape: 32 96 27 27 (2239488)
I1109 03:47:07.454875 145289 net.cpp:225] Memory required for data: 140258816
I1109 03:47:07.455109 145289 layer_factory.hpp:114] Creating layer conv2
I1109 03:47:07.455569 145289 net.cpp:160] Creating Layer conv2
I1109 03:47:07.455792 145289 net.cpp:596] conv2 <- pool1
I1109 03:47:07.456027 145289 net.cpp:570] conv2 -> conv2
I1109 03:47:13.198801 145289 net.cpp:210] Setting up conv2
I1109 03:47:13.199126 145289 net.cpp:217] Top shape: 32 256 27 27 (5971968)
I1109 03:47:13.199568 145289 net.cpp:225] Memory required for data: 164146688
I1109 03:47:13.249603 145289 layer_factory.hpp:114] Creating layer relu2
I1109 03:47:13.250001 145289 net.cpp:160] Creating Layer relu2
I1109 03:47:13.250366 145289 net.cpp:596] relu2 <- conv2
I1109 03:47:13.250641 145289 net.cpp:557] relu2 -> conv2 (in-place)
I1109 03:47:13.251093 145289 net.cpp:210] Setting up relu2
I1109 03:47:13.251368 145289 net.cpp:217] Top shape: 32 256 27 27 (5971968)
I1109 03:47:13.251619 145289 net.cpp:225] Memory required for data: 188034560
I1109 03:47:13.251814 145289 layer_factory.hpp:114] Creating layer norm2
I1109 03:47:13.252060 145289 net.cpp:160] Creating Layer norm2
I1109 03:47:13.252256 145289 net.cpp:596] norm2 <- conv2
I1109 03:47:13.252528 145289 net.cpp:570] norm2 -> norm2
I1109 03:47:13.254649 145289 net.cpp:210] Setting up norm2
I1109 03:47:13.254981 145289 net.cpp:217] Top shape: 32 256 27 27 (5971968)
I1109 03:47:13.255236 145289 net.cpp:225] Memory required for data: 211922432
I1109 03:47:13.255445 145289 layer_factory.hpp:114] Creating layer pool2
I1109 03:47:13.256379 145289 net.cpp:160] Creating Layer pool2
I1109 03:47:13.256682 145289 net.cpp:596] pool2 <- norm2
I1109 03:47:13.256999 145289 net.cpp:570] pool2 -> pool2
I1109 03:47:13.257452 145289 net.cpp:210] Setting up pool2
I1109 03:47:13.257700 145289 net.cpp:217] Top shape: 32 256 13 13 (1384448)
I1109 03:47:13.257967 145289 net.cpp:225] Memory required for data: 217460224
I1109 03:47:13.258235 145289 layer_factory.hpp:114] Creating layer conv3
I1109 03:47:13.258709 145289 net.cpp:160] Creating Layer conv3
I1109 03:47:13.258945 145289 net.cpp:596] conv3 <- pool2
I1109 03:47:13.259193 145289 net.cpp:570] conv3 -> conv3
I1109 03:47:13.709777 145289 net.cpp:210] Setting up conv3
I1109 03:47:13.712244 145289 net.cpp:217] Top shape: 32 384 13 13 (2076672)
I1109 03:47:13.712604 145289 net.cpp:225] Memory required for data: 225766912
I1109 03:47:13.715878 145289 layer_factory.hpp:114] Creating layer relu3
I1109 03:47:13.716325 145289 net.cpp:160] Creating Layer relu3
I1109 03:47:13.716593 145289 net.cpp:596] relu3 <- conv3
I1109 03:47:13.716889 145289 net.cpp:557] relu3 -> conv3 (in-place)
I1109 03:47:13.721077 145289 net.cpp:210] Setting up relu3
I1109 03:47:13.721416 145289 net.cpp:217] Top shape: 32 384 13 13 (2076672)
I1109 03:47:13.721699 145289 net.cpp:225] Memory required for data: 234073600
I1109 03:47:13.721920 145289 layer_factory.hpp:114] Creating layer conv4
I1109 03:47:13.722313 145289 net.cpp:160] Creating Layer conv4
I1109 03:47:13.722594 145289 net.cpp:596] conv4 <- conv3
I1109 03:47:13.722865 145289 net.cpp:570] conv4 -> conv4
I1109 03:47:13.965168 145289 net.cpp:210] Setting up conv4
I1109 03:47:13.965564 145289 net.cpp:217] Top shape: 32 384 13 13 (2076672)
I1109 03:47:13.965968 145289 net.cpp:225] Memory required for data: 242380288
I1109 03:47:13.966321 145289 layer_factory.hpp:114] Creating layer relu4
I1109 03:47:13.966630 145289 net.cpp:160] Creating Layer relu4
I1109 03:47:13.966873 145289 net.cpp:596] relu4 <- conv4
I1109 03:47:13.967118 145289 net.cpp:557] relu4 -> conv4 (in-place)
I1109 03:47:13.979461 145289 net.cpp:210] Setting up relu4
I1109 03:47:13.979811 145289 net.cpp:217] Top shape: 32 384 13 13 (2076672)
I1109 03:47:13.980188 145289 net.cpp:225] Memory required for data: 250686976
I1109 03:47:13.980445 145289 layer_factory.hpp:114] Creating layer conv5
I1109 03:47:13.980860 145289 net.cpp:160] Creating Layer conv5
I1109 03:47:13.981130 145289 net.cpp:596] conv5 <- conv4
I1109 03:47:13.981391 145289 net.cpp:570] conv5 -> conv5
I1109 03:47:14.151198 145289 net.cpp:210] Setting up conv5
I1109 03:47:14.151598 145289 net.cpp:217] Top shape: 32 256 13 13 (1384448)
I1109 03:47:14.152050 145289 net.cpp:225] Memory required for data: 256224768
I1109 03:47:14.156761 145289 layer_factory.hpp:114] Creating layer relu5
I1109 03:47:14.157245 145289 net.cpp:160] Creating Layer relu5
I1109 03:47:14.157546 145289 net.cpp:596] relu5 <- conv5
I1109 03:47:14.157829 145289 net.cpp:557] relu5 -> conv5 (in-place)
I1109 03:47:14.158299 145289 net.cpp:210] Setting up relu5
I1109 03:47:14.158596 145289 net.cpp:217] Top shape: 32 256 13 13 (1384448)
I1109 03:47:14.158860 145289 net.cpp:225] Memory required for data: 261762560
I1109 03:47:14.159081 145289 layer_factory.hpp:114] Creating layer pool5
I1109 03:47:14.159385 145289 net.cpp:160] Creating Layer pool5
I1109 03:47:14.159618 145289 net.cpp:596] pool5 <- conv5
I1109 03:47:14.159864 145289 net.cpp:570] pool5 -> pool5
I1109 03:47:14.160292 145289 net.cpp:210] Setting up pool5
I1109 03:47:14.160552 145289 net.cpp:217] Top shape: 32 256 6 6 (294912)
I1109 03:47:14.160818 145289 net.cpp:225] Memory required for data: 262942208
I1109 03:47:14.161041 145289 layer_factory.hpp:114] Creating layer fc6
I1109 03:47:14.215605 145289 net.cpp:160] Creating Layer fc6
I1109 03:47:14.215917 145289 net.cpp:596] fc6 <- pool5
I1109 03:47:14.216320 145289 net.cpp:570] fc6 -> fc6
I1109 03:47:18.357745 145289 net.cpp:210] Setting up fc6
I1109 03:47:18.358096 145289 net.cpp:217] Top shape: 32 4096 (131072)
I1109 03:47:18.360100 145289 net.cpp:225] Memory required for data: 263466496
I1109 03:47:18.360415 145289 layer_factory.hpp:114] Creating layer relu6
I1109 03:47:18.362911 145289 net.cpp:160] Creating Layer relu6
I1109 03:47:18.363211 145289 net.cpp:596] relu6 <- fc6
I1109 03:47:18.363445 145289 net.cpp:557] relu6 -> fc6 (in-place)
I1109 03:47:18.363862 145289 net.cpp:210] Setting up relu6
I1109 03:47:18.364151 145289 net.cpp:217] Top shape: 32 4096 (131072)
I1109 03:47:18.364392 145289 net.cpp:225] Memory required for data: 263990784
I1109 03:47:18.364593 145289 layer_factory.hpp:114] Creating layer drop6
I1109 03:47:18.384451 145289 net.cpp:160] Creating Layer drop6
I1109 03:47:18.384759 145289 net.cpp:596] drop6 <- fc6
I1109 03:47:18.385176 145289 net.cpp:557] drop6 -> fc6 (in-place)
I1109 03:47:18.487960 145289 net.cpp:210] Setting up drop6
I1109 03:47:18.488263 145289 net.cpp:217] Top shape: 32 4096 (131072)
I1109 03:47:18.488605 145289 net.cpp:225] Memory required for data: 264515072
I1109 03:47:18.488893 145289 layer_factory.hpp:114] Creating layer fc7
I1109 03:47:18.489171 145289 net.cpp:160] Creating Layer fc7
I1109 03:47:18.489389 145289 net.cpp:596] fc7 <- fc6
I1109 03:47:18.489775 145289 net.cpp:570] fc7 -> fc7
I1109 03:47:20.203610 145289 net.cpp:210] Setting up fc7
I1109 03:47:20.203966 145289 net.cpp:217] Top shape: 32 4096 (131072)
I1109 03:47:20.204419 145289 net.cpp:225] Memory required for data: 265039360
I1109 03:47:20.204769 145289 layer_factory.hpp:114] Creating layer relu7
I1109 03:47:20.205150 145289 net.cpp:160] Creating Layer relu7
I1109 03:47:20.205399 145289 net.cpp:596] relu7 <- fc7
I1109 03:47:20.205651 145289 net.cpp:557] relu7 -> fc7 (in-place)
I1109 03:47:20.206096 145289 net.cpp:210] Setting up relu7
I1109 03:47:20.206374 145289 net.cpp:217] Top shape: 32 4096 (131072)
I1109 03:47:20.206656 145289 net.cpp:225] Memory required for data: 265563648
I1109 03:47:20.206873 145289 layer_factory.hpp:114] Creating layer drop7
I1109 03:47:20.207128 145289 net.cpp:160] Creating Layer drop7
I1109 03:47:20.207371 145289 net.cpp:596] drop7 <- fc7
I1109 03:47:20.207623 145289 net.cpp:557] drop7 -> fc7 (in-place)
I1109 03:47:20.207890 145289 net.cpp:210] Setting up drop7
I1109 03:47:20.208096 145289 net.cpp:217] Top shape: 32 4096 (131072)
I1109 03:47:20.208317 145289 net.cpp:225] Memory required for data: 266087936
I1109 03:47:20.208504 145289 layer_factory.hpp:114] Creating layer fc8
I1109 03:47:20.208756 145289 net.cpp:160] Creating Layer fc8
I1109 03:47:20.209017 145289 net.cpp:596] fc8 <- fc7
I1109 03:47:20.209250 145289 net.cpp:570] fc8 -> fc8
I1109 03:47:20.632946 145289 net.cpp:210] Setting up fc8
I1109 03:47:20.633298 145289 net.cpp:217] Top shape: 32 1000 (32000)
I1109 03:47:20.633671 145289 net.cpp:225] Memory required for data: 266215936
I1109 03:47:20.634008 145289 layer_factory.hpp:114] Creating layer loss
I1109 03:47:20.658427 145289 net.cpp:160] Creating Layer loss
I1109 03:47:20.658741 145289 net.cpp:596] loss <- fc8
I1109 03:47:20.659761 145289 net.cpp:596] loss <- label
I1109 03:47:20.687185 145289 net.cpp:570] loss -> loss
I1109 03:47:20.724845 145289 layer_factory.hpp:114] Creating layer loss
…
