…
I1109 01:05:46.777665 139398 net.cpp:484] The NetState phase (0) differed from the phase (1) specified by a rule in layer accuracy
I1109 01:05:47.407905 139398 net.cpp:120] Initializing net from parameters: 
name: "AlexNet"
state {
  phase: TRAIN
  level: 0
  stage: ""
}
layer {
  name: "data"
  type: "DummyData"
  top: "data"
  top: "label"
  include {
    phase: TRAIN
  }
  dummy_data_param {
    data_filler {
      type: "gaussian"
      std: 1
    }
    data_filler {
      type: "constant"
      value: 0
    }
    shape {
      dim: 32
      dim: 3
      dim: 227
      dim: 227
    }
    shape {
      dim: 32
      dim: 1
      dim: 1
      dim: 1
    }
  }
}
layer {
  name: "conv1"
  type: "Convolution"
  bottom: "data"
  top: "conv1"
  param {
    lr_mult: 1
    decay_mult: 1
  }
  param {
    lr_mult: 2
    decay_mult: 0
  }
  convolution_param {
    num_output: 96
    kernel_size: 11
    stride: 4
    weight_filler {
      type: "gaussian"
      std: 0.01
    }
    bias_filler {
      type: "constant"
      value: 0
    }
    engine: MKL2017
  }
}
layer {
  name: "relu1"
  type: "ReLU"
  bottom: "conv1"
  top: "conv1"
  relu_param {
    engine: MKL2017
  }
}
layer {
  name: "norm1"
  type: "LRN"
  bottom: "conv1"
  top: "norm1"
  lrn_param {
    local_size: 5
    alpha: 0.0001
    beta: 0.75
    engine: MKL2017
  }
}
layer {
  name: "pool1"
  type: "Pooling"
  bottom: "norm1"
  top: "pool1"
  pooling_param {
    pool: MAX
    kernel_size: 3
    stride: 2
    engine: MKL2017
  }
}
layer {
  name: "conv2"
  type: "Convolution"
  bottom: "pool1"
  top: "conv2"
  param {
    lr_mult: 1
    decay_mult: 1
  }
  param {
    lr_mult: 2
    decay_mult: 0
  }
  convolution_param {
    num_output: 256
    pad: 2
    kernel_size: 5
    group: 2
    weight_filler {
      type: "gaussian"
      std: 0.01
    }
    bias_filler {
      type: "constant"
      value: 0.1
    }
    engine: MKL2017
  }
}
layer {
  name: "relu2"
  type: "ReLU"
  bottom: "conv2"
  top: "conv2"
  relu_param {
    engine: MKL2017
  }
}
layer {
  name: "norm2"
  type: "LRN"
  bottom: "conv2"
  top: "norm2"
  lrn_param {
    local_size: 5
    alpha: 0.0001
    beta: 0.75
    engine: MKL2017
  }
}
layer {
  name: "pool2"
  type: "Pooling"
  bottom: "norm2"
  top: "pool2"
  pooling_param {
    pool: MAX
    kernel_size: 3
    stride: 2
    engine: MKL2017
  }
}
layer {
  name: "conv3"
  type: "Convolution"
  bottom: "pool2"
  top: "conv3"
  param {
    lr_mult: 1
    decay_mult: 1
  }
  param {
    lr_mult: 2
    decay_mult: 0
  }
  convolution_param {
    num_output: 384
    pad: 1
    kernel_size: 3
    weight_filler {
      type: "gaussian"
      std: 0.01
    }
    bias_filler {
      type: "constant"
      value: 0
    }
    engine: MKL2017
  }
}
layer {
  name: "relu3"
  type: "ReLU"
  bottom: "conv3"
  top: "conv3"
  relu_param {
    engine: MKL2017
  }
}
layer {
  name: "conv4"
  type: "Convolution"
  bottom: "conv3"
  top: "conv4"
  param {
    lr_mult: 1
    decay_mult: 1
  }
  param {
    lr_mult: 2
    decay_mult: 0
  }
  convolution_param {
    num_output: 384
    pad: 1
    kernel_size: 3
    group: 2
    weight_filler {
      type: "gaussian"
      std: 0.01
    }
    bias_filler {
      type: "constant"
      value: 0.1
    }
    engine: MKL2017
  }
}
layer {
  name: "relu4"
  type: "ReLU"
  bottom: "conv4"
  top: "conv4"
  relu_param {
    engine: MKL2017
  }
}
layer {
  name: "conv5"
  type: "Convolution"
  bottom: "conv4"
  top: "conv5"
  param {
    lr_mult: 1
    decay_mult: 1
  }
  param {
    lr_mult: 2
    decay_mult: 0
  }
  convolution_param {
    num_output: 256
    pad: 1
    kernel_size: 3
    group: 2
    weight_filler {
      type: "gaussian"
      std: 0.01
    }
    bias_filler {
      type: "constant"
      value: 0.1
    }
    engine: MKL2017
  }
}
layer {
  name: "relu5"
  type: "ReLU"
  bottom: "conv5"
  top: "conv5"
  relu_param {
    engine: MKL2017
  }
}
layer {
  name: "pool5"
  type: "Pooling"
  bottom: "conv5"
  top: "pool5"
  pooling_param {
    pool: MAX
    kernel_size: 3
    stride: 2
    engine: MKL2017
  }
}
layer {
  name: "fc6"
  type: "InnerProduct"
  bottom: "pool5"
  top: "fc6"
  param {
    lr_mult: 1
    decay_mult: 1
  }
  param {
    lr_mult: 2
    decay_mult: 0
  }
  inner_product_param {
    num_output: 4096
    weight_filler {
      type: "gaussian"
      std: 0.005
    }
    bias_filler {
      type: "constant"
      value: 0.1
    }
  }
}
layer {
  name: "relu6"
  type: "ReLU"
  bottom: "fc6"
  top: "fc6"
}
layer {
  name: "drop6"
  type: "Dropout"
  bottom: "fc6"
  top: "fc6"
  dropout_param {
    dropout_ratio: 0.5
  }
}
layer {
  name: "fc7"
  type: "InnerProduct"
  bottom: "fc6"
  top: "fc7"
  param {
    lr_mult: 1
    decay_mult: 1
  }
  param {
    lr_mult: 2
    decay_mult: 0
  }
  inner_product_param {
    num_output: 4096
    weight_filler {
      type: "gaussian"
      std: 0.005
    }
    bias_filler {
      type: "constant"
      value: 0.1
    }
  }
}
layer {
  name: "relu7"
  type: "ReLU"
  bottom: "fc7"
  top: "fc7"
}
layer {
  name: "drop7"
  type: "Dropout"
  bottom: "fc7"
  top: "fc7"
  dropout_param {
    dropout_ratio: 0.5
  }
}
layer {
  name: "fc8"
  type: "InnerProduct"
  bottom: "fc7"
  top: "fc8"
  param {
    lr_mult: 1
    decay_mult: 1
  }
  param {
    lr_mult: 2
    decay_mult: 0
  }
  inner_product_param {
    num_output: 1000
    weight_filler {
      type: "gaussian"
      std: 0.01
    }
    bias_filler {
      type: "constant"
      value: 0
    }
  }
}
layer {
  name: "loss"
  type: "SoftmaxWithLoss"
  bottom: "fc8"
  bottom: "label"
  top: "loss"
}
I1109 01:05:49.854411 139398 layer_factory.hpp:114] Creating layer data
I1109 01:05:50.001531 139398 net.cpp:160] Creating Layer data
I1109 01:05:50.053915 139398 net.cpp:570] data -> data
I1109 01:05:50.517240 139398 net.cpp:570] data -> label
I1109 01:05:57.558506 139398 net.cpp:210] Setting up data
I1109 01:05:57.637676 139398 net.cpp:217] Top shape: 32 3 227 227 (4946784)
I1109 01:05:57.741070 139398 net.cpp:217] Top shape: 32 1 1 1 (32)
I1109 01:05:57.749694 139398 net.cpp:225] Memory required for data: 19787264
I1109 01:05:57.817173 139398 layer_factory.hpp:114] Creating layer conv1
I1109 01:05:58.144606 139398 net.cpp:160] Creating Layer conv1
I1109 01:05:58.194352 139398 net.cpp:596] conv1 <- data
I1109 01:05:58.313441 139398 net.cpp:570] conv1 -> conv1
I1109 01:06:30.922826 139398 net.cpp:210] Setting up conv1
I1109 01:06:30.929150 139398 net.cpp:217] Top shape: 32 96 55 55 (9292800)
I1109 01:06:30.929522 139398 net.cpp:225] Memory required for data: 56958464
I1109 01:06:31.211264 139398 layer_factory.hpp:114] Creating layer relu1
I1109 01:06:31.330607 139398 net.cpp:160] Creating Layer relu1
I1109 01:06:31.335224 139398 net.cpp:596] relu1 <- conv1
I1109 01:06:31.367156 139398 net.cpp:557] relu1 -> conv1 (in-place)
I1109 01:06:31.557564 139398 net.cpp:210] Setting up relu1
I1109 01:06:31.559989 139398 net.cpp:217] Top shape: 32 96 55 55 (9292800)
I1109 01:06:31.560333 139398 net.cpp:225] Memory required for data: 94129664
I1109 01:06:31.560572 139398 layer_factory.hpp:114] Creating layer norm1
I1109 01:06:31.665736 139398 net.cpp:160] Creating Layer norm1
I1109 01:06:31.666050 139398 net.cpp:596] norm1 <- conv1
I1109 01:06:31.668558 139398 net.cpp:570] norm1 -> norm1
I1109 01:06:31.892691 139398 net.cpp:210] Setting up norm1
I1109 01:06:31.905674 139398 net.cpp:217] Top shape: 32 96 55 55 (9292800)
I1109 01:06:31.906055 139398 net.cpp:225] Memory required for data: 131300864
I1109 01:06:31.906363 139398 layer_factory.hpp:114] Creating layer pool1
I1109 01:06:31.999116 139398 net.cpp:160] Creating Layer pool1
I1109 01:06:31.999428 139398 net.cpp:596] pool1 <- norm1
I1109 01:06:32.014127 139398 net.cpp:570] pool1 -> pool1
I1109 01:06:32.312963 139398 net.cpp:210] Setting up pool1
I1109 01:06:32.315425 139398 net.cpp:217] Top shape: 32 96 27 27 (2239488)
I1109 01:06:32.315752 139398 net.cpp:225] Memory required for data: 140258816
I1109 01:06:32.315997 139398 layer_factory.hpp:114] Creating layer conv2
I1109 01:06:32.316359 139398 net.cpp:160] Creating Layer conv2
I1109 01:06:32.316676 139398 net.cpp:596] conv2 <- pool1
I1109 01:06:32.316962 139398 net.cpp:570] conv2 -> conv2
I1109 01:06:38.095021 139398 net.cpp:210] Setting up conv2
I1109 01:06:38.095335 139398 net.cpp:217] Top shape: 32 256 27 27 (5971968)
I1109 01:06:38.095778 139398 net.cpp:225] Memory required for data: 164146688
I1109 01:06:38.148170 139398 layer_factory.hpp:114] Creating layer relu2
I1109 01:06:38.148597 139398 net.cpp:160] Creating Layer relu2
I1109 01:06:38.149010 139398 net.cpp:596] relu2 <- conv2
I1109 01:06:38.149327 139398 net.cpp:557] relu2 -> conv2 (in-place)
I1109 01:06:38.149811 139398 net.cpp:210] Setting up relu2
I1109 01:06:38.150074 139398 net.cpp:217] Top shape: 32 256 27 27 (5971968)
I1109 01:06:38.150305 139398 net.cpp:225] Memory required for data: 188034560
I1109 01:06:38.150487 139398 layer_factory.hpp:114] Creating layer norm2
I1109 01:06:38.150727 139398 net.cpp:160] Creating Layer norm2
I1109 01:06:38.150923 139398 net.cpp:596] norm2 <- conv2
I1109 01:06:38.151147 139398 net.cpp:570] norm2 -> norm2
I1109 01:06:38.153319 139398 net.cpp:210] Setting up norm2
I1109 01:06:38.153627 139398 net.cpp:217] Top shape: 32 256 27 27 (5971968)
I1109 01:06:38.153856 139398 net.cpp:225] Memory required for data: 211922432
I1109 01:06:38.154043 139398 layer_factory.hpp:114] Creating layer pool2
I1109 01:06:38.154325 139398 net.cpp:160] Creating Layer pool2
I1109 01:06:38.154573 139398 net.cpp:596] pool2 <- norm2
I1109 01:06:38.154817 139398 net.cpp:570] pool2 -> pool2
I1109 01:06:38.155359 139398 net.cpp:210] Setting up pool2
I1109 01:06:38.155658 139398 net.cpp:217] Top shape: 32 256 13 13 (1384448)
I1109 01:06:38.155880 139398 net.cpp:225] Memory required for data: 217460224
I1109 01:06:38.156077 139398 layer_factory.hpp:114] Creating layer conv3
I1109 01:06:38.156994 139398 net.cpp:160] Creating Layer conv3
I1109 01:06:38.157292 139398 net.cpp:596] conv3 <- pool2
I1109 01:06:38.157582 139398 net.cpp:570] conv3 -> conv3
I1109 01:06:38.663244 139398 net.cpp:210] Setting up conv3
I1109 01:06:38.665690 139398 net.cpp:217] Top shape: 32 384 13 13 (2076672)
I1109 01:06:38.666038 139398 net.cpp:225] Memory required for data: 225766912
I1109 01:06:38.669109 139398 layer_factory.hpp:114] Creating layer relu3
I1109 01:06:38.669541 139398 net.cpp:160] Creating Layer relu3
I1109 01:06:38.669807 139398 net.cpp:596] relu3 <- conv3
I1109 01:06:38.670059 139398 net.cpp:557] relu3 -> conv3 (in-place)
I1109 01:06:38.674159 139398 net.cpp:210] Setting up relu3
I1109 01:06:38.674481 139398 net.cpp:217] Top shape: 32 384 13 13 (2076672)
I1109 01:06:38.674743 139398 net.cpp:225] Memory required for data: 234073600
I1109 01:06:38.674948 139398 layer_factory.hpp:114] Creating layer conv4
I1109 01:06:38.675330 139398 net.cpp:160] Creating Layer conv4
I1109 01:06:38.675603 139398 net.cpp:596] conv4 <- conv3
I1109 01:06:38.675871 139398 net.cpp:570] conv4 -> conv4
I1109 01:06:38.918915 139398 net.cpp:210] Setting up conv4
I1109 01:06:38.919298 139398 net.cpp:217] Top shape: 32 384 13 13 (2076672)
I1109 01:06:38.919688 139398 net.cpp:225] Memory required for data: 242380288
I1109 01:06:38.920044 139398 layer_factory.hpp:114] Creating layer relu4
I1109 01:06:38.920336 139398 net.cpp:160] Creating Layer relu4
I1109 01:06:38.920562 139398 net.cpp:596] relu4 <- conv4
I1109 01:06:38.920867 139398 net.cpp:557] relu4 -> conv4 (in-place)
I1109 01:06:38.933285 139398 net.cpp:210] Setting up relu4
I1109 01:06:38.933660 139398 net.cpp:217] Top shape: 32 384 13 13 (2076672)
I1109 01:06:38.934069 139398 net.cpp:225] Memory required for data: 250686976
I1109 01:06:38.934311 139398 layer_factory.hpp:114] Creating layer conv5
I1109 01:06:38.934681 139398 net.cpp:160] Creating Layer conv5
I1109 01:06:38.934926 139398 net.cpp:596] conv5 <- conv4
I1109 01:06:38.935171 139398 net.cpp:570] conv5 -> conv5
I1109 01:06:39.106359 139398 net.cpp:210] Setting up conv5
I1109 01:06:39.106788 139398 net.cpp:217] Top shape: 32 256 13 13 (1384448)
I1109 01:06:39.107344 139398 net.cpp:225] Memory required for data: 256224768
I1109 01:06:39.112246 139398 layer_factory.hpp:114] Creating layer relu5
I1109 01:06:39.112686 139398 net.cpp:160] Creating Layer relu5
I1109 01:06:39.113039 139398 net.cpp:596] relu5 <- conv5
I1109 01:06:39.113435 139398 net.cpp:557] relu5 -> conv5 (in-place)
I1109 01:06:39.113922 139398 net.cpp:210] Setting up relu5
I1109 01:06:39.114228 139398 net.cpp:217] Top shape: 32 256 13 13 (1384448)
I1109 01:06:39.114495 139398 net.cpp:225] Memory required for data: 261762560
I1109 01:06:39.114713 139398 layer_factory.hpp:114] Creating layer pool5
I1109 01:06:39.114987 139398 net.cpp:160] Creating Layer pool5
I1109 01:06:39.115217 139398 net.cpp:596] pool5 <- conv5
I1109 01:06:39.115496 139398 net.cpp:570] pool5 -> pool5
I1109 01:06:39.115926 139398 net.cpp:210] Setting up pool5
I1109 01:06:39.116224 139398 net.cpp:217] Top shape: 32 256 6 6 (294912)
I1109 01:06:39.116456 139398 net.cpp:225] Memory required for data: 262942208
I1109 01:06:39.116644 139398 layer_factory.hpp:114] Creating layer fc6
I1109 01:06:39.172055 139398 net.cpp:160] Creating Layer fc6
I1109 01:06:39.172366 139398 net.cpp:596] fc6 <- pool5
I1109 01:06:39.172775 139398 net.cpp:570] fc6 -> fc6
I1109 01:06:43.258538 139398 net.cpp:210] Setting up fc6
I1109 01:06:43.258843 139398 net.cpp:217] Top shape: 32 4096 (131072)
I1109 01:06:43.260891 139398 net.cpp:225] Memory required for data: 263466496
I1109 01:06:43.261210 139398 layer_factory.hpp:114] Creating layer relu6
I1109 01:06:43.263659 139398 net.cpp:160] Creating Layer relu6
I1109 01:06:43.263955 139398 net.cpp:596] relu6 <- fc6
I1109 01:06:43.264179 139398 net.cpp:557] relu6 -> fc6 (in-place)
I1109 01:06:43.264660 139398 net.cpp:210] Setting up relu6
I1109 01:06:43.264961 139398 net.cpp:217] Top shape: 32 4096 (131072)
I1109 01:06:43.265190 139398 net.cpp:225] Memory required for data: 263990784
I1109 01:06:43.265377 139398 layer_factory.hpp:114] Creating layer drop6
I1109 01:06:43.285102 139398 net.cpp:160] Creating Layer drop6
I1109 01:06:43.285406 139398 net.cpp:596] drop6 <- fc6
I1109 01:06:43.285778 139398 net.cpp:557] drop6 -> fc6 (in-place)
I1109 01:06:43.388603 139398 net.cpp:210] Setting up drop6
I1109 01:06:43.388953 139398 net.cpp:217] Top shape: 32 4096 (131072)
I1109 01:06:43.389305 139398 net.cpp:225] Memory required for data: 264515072
I1109 01:06:43.389545 139398 layer_factory.hpp:114] Creating layer fc7
I1109 01:06:43.389817 139398 net.cpp:160] Creating Layer fc7
I1109 01:06:43.390027 139398 net.cpp:596] fc7 <- fc6
I1109 01:06:43.390415 139398 net.cpp:570] fc7 -> fc7
I1109 01:06:45.102655 139398 net.cpp:210] Setting up fc7
I1109 01:06:45.103024 139398 net.cpp:217] Top shape: 32 4096 (131072)
I1109 01:06:45.103479 139398 net.cpp:225] Memory required for data: 265039360
I1109 01:06:45.103814 139398 layer_factory.hpp:114] Creating layer relu7
I1109 01:06:45.104146 139398 net.cpp:160] Creating Layer relu7
I1109 01:06:45.104400 139398 net.cpp:596] relu7 <- fc7
I1109 01:06:45.104645 139398 net.cpp:557] relu7 -> fc7 (in-place)
I1109 01:06:45.105147 139398 net.cpp:210] Setting up relu7
I1109 01:06:45.105443 139398 net.cpp:217] Top shape: 32 4096 (131072)
I1109 01:06:45.105690 139398 net.cpp:225] Memory required for data: 265563648
I1109 01:06:45.105892 139398 layer_factory.hpp:114] Creating layer drop7
I1109 01:06:45.106163 139398 net.cpp:160] Creating Layer drop7
I1109 01:06:45.106384 139398 net.cpp:596] drop7 <- fc7
I1109 01:06:45.106627 139398 net.cpp:557] drop7 -> fc7 (in-place)
I1109 01:06:45.106986 139398 net.cpp:210] Setting up drop7
I1109 01:06:45.107195 139398 net.cpp:217] Top shape: 32 4096 (131072)
I1109 01:06:45.107416 139398 net.cpp:225] Memory required for data: 266087936
I1109 01:06:45.107604 139398 layer_factory.hpp:114] Creating layer fc8
I1109 01:06:45.107877 139398 net.cpp:160] Creating Layer fc8
I1109 01:06:45.108086 139398 net.cpp:596] fc8 <- fc7
I1109 01:06:45.108317 139398 net.cpp:570] fc8 -> fc8
I1109 01:06:45.531306 139398 net.cpp:210] Setting up fc8
I1109 01:06:45.531677 139398 net.cpp:217] Top shape: 32 1000 (32000)
I1109 01:06:45.532095 139398 net.cpp:225] Memory required for data: 266215936
I1109 01:06:45.532446 139398 layer_factory.hpp:114] Creating layer loss
I1109 01:06:45.557659 139398 net.cpp:160] Creating Layer loss
I1109 01:06:45.557979 139398 net.cpp:596] loss <- fc8
I1109 01:06:45.559026 139398 net.cpp:596] loss <- label
I1109 01:06:45.586690 139398 net.cpp:570] loss -> loss
I1109 01:06:45.624981 139398 layer_factory.hpp:114] Creating layer loss
…
