…
I1109 01:56:11.670449 141706 net.cpp:484] The NetState phase (0) differed from the phase (1) specified by a rule in layer accuracy
I1109 01:56:12.302198 141706 net.cpp:120] Initializing net from parameters: 
name: "AlexNet"
state {
  phase: TRAIN
  level: 0
  stage: ""
}
layer {
  name: "data"
  type: "DummyData"
  top: "data"
  top: "label"
  include {
    phase: TRAIN
  }
  dummy_data_param {
    data_filler {
      type: "gaussian"
      std: 1
    }
    data_filler {
      type: "constant"
      value: 0
    }
    shape {
      dim: 32
      dim: 3
      dim: 227
      dim: 227
    }
    shape {
      dim: 32
      dim: 1
      dim: 1
      dim: 1
    }
  }
}
layer {
  name: "conv1"
  type: "Convolution"
  bottom: "data"
  top: "conv1"
  param {
    lr_mult: 1
    decay_mult: 1
  }
  param {
    lr_mult: 2
    decay_mult: 0
  }
  convolution_param {
    num_output: 96
    kernel_size: 11
    stride: 4
    weight_filler {
      type: "gaussian"
      std: 0.01
    }
    bias_filler {
      type: "constant"
      value: 0
    }
    engine: MKL2017
  }
}
layer {
  name: "relu1"
  type: "ReLU"
  bottom: "conv1"
  top: "conv1"
  relu_param {
    engine: MKL2017
  }
}
layer {
  name: "norm1"
  type: "LRN"
  bottom: "conv1"
  top: "norm1"
  lrn_param {
    local_size: 5
    alpha: 0.0001
    beta: 0.75
    engine: MKL2017
  }
}
layer {
  name: "pool1"
  type: "Pooling"
  bottom: "norm1"
  top: "pool1"
  pooling_param {
    pool: MAX
    kernel_size: 3
    stride: 2
    engine: MKL2017
  }
}
layer {
  name: "conv2"
  type: "Convolution"
  bottom: "pool1"
  top: "conv2"
  param {
    lr_mult: 1
    decay_mult: 1
  }
  param {
    lr_mult: 2
    decay_mult: 0
  }
  convolution_param {
    num_output: 256
    pad: 2
    kernel_size: 5
    group: 2
    weight_filler {
      type: "gaussian"
      std: 0.01
    }
    bias_filler {
      type: "constant"
      value: 0.1
    }
    engine: MKL2017
  }
}
layer {
  name: "relu2"
  type: "ReLU"
  bottom: "conv2"
  top: "conv2"
  relu_param {
    engine: MKL2017
  }
}
layer {
  name: "norm2"
  type: "LRN"
  bottom: "conv2"
  top: "norm2"
  lrn_param {
    local_size: 5
    alpha: 0.0001
    beta: 0.75
    engine: MKL2017
  }
}
layer {
  name: "pool2"
  type: "Pooling"
  bottom: "norm2"
  top: "pool2"
  pooling_param {
    pool: MAX
    kernel_size: 3
    stride: 2
    engine: MKL2017
  }
}
layer {
  name: "conv3"
  type: "Convolution"
  bottom: "pool2"
  top: "conv3"
  param {
    lr_mult: 1
    decay_mult: 1
  }
  param {
    lr_mult: 2
    decay_mult: 0
  }
  convolution_param {
    num_output: 384
    pad: 1
    kernel_size: 3
    weight_filler {
      type: "gaussian"
      std: 0.01
    }
    bias_filler {
      type: "constant"
      value: 0
    }
    engine: MKL2017
  }
}
layer {
  name: "relu3"
  type: "ReLU"
  bottom: "conv3"
  top: "conv3"
  relu_param {
    engine: MKL2017
  }
}
layer {
  name: "conv4"
  type: "Convolution"
  bottom: "conv3"
  top: "conv4"
  param {
    lr_mult: 1
    decay_mult: 1
  }
  param {
    lr_mult: 2
    decay_mult: 0
  }
  convolution_param {
    num_output: 384
    pad: 1
    kernel_size: 3
    group: 2
    weight_filler {
      type: "gaussian"
      std: 0.01
    }
    bias_filler {
      type: "constant"
      value: 0.1
    }
    engine: MKL2017
  }
}
layer {
  name: "relu4"
  type: "ReLU"
  bottom: "conv4"
  top: "conv4"
  relu_param {
    engine: MKL2017
  }
}
layer {
  name: "conv5"
  type: "Convolution"
  bottom: "conv4"
  top: "conv5"
  param {
    lr_mult: 1
    decay_mult: 1
  }
  param {
    lr_mult: 2
    decay_mult: 0
  }
  convolution_param {
    num_output: 256
    pad: 1
    kernel_size: 3
    group: 2
    weight_filler {
      type: "gaussian"
      std: 0.01
    }
    bias_filler {
      type: "constant"
      value: 0.1
    }
    engine: MKL2017
  }
}
layer {
  name: "relu5"
  type: "ReLU"
  bottom: "conv5"
  top: "conv5"
  relu_param {
    engine: MKL2017
  }
}
layer {
  name: "pool5"
  type: "Pooling"
  bottom: "conv5"
  top: "pool5"
  pooling_param {
    pool: MAX
    kernel_size: 3
    stride: 2
    engine: MKL2017
  }
}
layer {
  name: "fc6"
  type: "InnerProduct"
  bottom: "pool5"
  top: "fc6"
  param {
    lr_mult: 1
    decay_mult: 1
  }
  param {
    lr_mult: 2
    decay_mult: 0
  }
  inner_product_param {
    num_output: 4096
    weight_filler {
      type: "gaussian"
      std: 0.005
    }
    bias_filler {
      type: "constant"
      value: 0.1
    }
  }
}
layer {
  name: "relu6"
  type: "ReLU"
  bottom: "fc6"
  top: "fc6"
}
layer {
  name: "drop6"
  type: "Dropout"
  bottom: "fc6"
  top: "fc6"
  dropout_param {
    dropout_ratio: 0.5
  }
}
layer {
  name: "fc7"
  type: "InnerProduct"
  bottom: "fc6"
  top: "fc7"
  param {
    lr_mult: 1
    decay_mult: 1
  }
  param {
    lr_mult: 2
    decay_mult: 0
  }
  inner_product_param {
    num_output: 4096
    weight_filler {
      type: "gaussian"
      std: 0.005
    }
    bias_filler {
      type: "constant"
      value: 0.1
    }
  }
}
layer {
  name: "relu7"
  type: "ReLU"
  bottom: "fc7"
  top: "fc7"
}
layer {
  name: "drop7"
  type: "Dropout"
  bottom: "fc7"
  top: "fc7"
  dropout_param {
    dropout_ratio: 0.5
  }
}
layer {
  name: "fc8"
  type: "InnerProduct"
  bottom: "fc7"
  top: "fc8"
  param {
    lr_mult: 1
    decay_mult: 1
  }
  param {
    lr_mult: 2
    decay_mult: 0
  }
  inner_product_param {
    num_output: 1000
    weight_filler {
      type: "gaussian"
      std: 0.01
    }
    bias_filler {
      type: "constant"
      value: 0
    }
  }
}
layer {
  name: "loss"
  type: "SoftmaxWithLoss"
  bottom: "fc8"
  bottom: "label"
  top: "loss"
}
I1109 01:56:14.735340 141706 layer_factory.hpp:114] Creating layer data
I1109 01:56:14.881709 141706 net.cpp:160] Creating Layer data
I1109 01:56:14.930094 141706 net.cpp:570] data -> data
I1109 01:56:15.392884 141706 net.cpp:570] data -> label
I1109 01:56:22.450409 141706 net.cpp:210] Setting up data
I1109 01:56:22.529191 141706 net.cpp:217] Top shape: 32 3 227 227 (4946784)
I1109 01:56:22.633105 141706 net.cpp:217] Top shape: 32 1 1 1 (32)
I1109 01:56:22.640408 141706 net.cpp:225] Memory required for data: 19787264
I1109 01:56:22.707628 141706 layer_factory.hpp:114] Creating layer conv1
I1109 01:56:23.034663 141706 net.cpp:160] Creating Layer conv1
I1109 01:56:23.084391 141706 net.cpp:596] conv1 <- data
I1109 01:56:23.203379 141706 net.cpp:570] conv1 -> conv1
I1109 01:56:56.030565 141706 net.cpp:210] Setting up conv1
I1109 01:56:56.037438 141706 net.cpp:217] Top shape: 32 96 55 55 (9292800)
I1109 01:56:56.037830 141706 net.cpp:225] Memory required for data: 56958464
I1109 01:56:56.323196 141706 layer_factory.hpp:114] Creating layer relu1
I1109 01:56:56.443670 141706 net.cpp:160] Creating Layer relu1
I1109 01:56:56.448225 141706 net.cpp:596] relu1 <- conv1
I1109 01:56:56.480360 141706 net.cpp:557] relu1 -> conv1 (in-place)
I1109 01:56:56.669409 141706 net.cpp:210] Setting up relu1
I1109 01:56:56.671857 141706 net.cpp:217] Top shape: 32 96 55 55 (9292800)
I1109 01:56:56.672202 141706 net.cpp:225] Memory required for data: 94129664
I1109 01:56:56.672415 141706 layer_factory.hpp:114] Creating layer norm1
I1109 01:56:56.778916 141706 net.cpp:160] Creating Layer norm1
I1109 01:56:56.779233 141706 net.cpp:596] norm1 <- conv1
I1109 01:56:56.781828 141706 net.cpp:570] norm1 -> norm1
I1109 01:56:57.004974 141706 net.cpp:210] Setting up norm1
I1109 01:56:57.020016 141706 net.cpp:217] Top shape: 32 96 55 55 (9292800)
I1109 01:56:57.020396 141706 net.cpp:225] Memory required for data: 131300864
I1109 01:56:57.020704 141706 layer_factory.hpp:114] Creating layer pool1
I1109 01:56:57.114276 141706 net.cpp:160] Creating Layer pool1
I1109 01:56:57.114591 141706 net.cpp:596] pool1 <- norm1
I1109 01:56:57.129575 141706 net.cpp:570] pool1 -> pool1
I1109 01:56:57.442566 141706 net.cpp:210] Setting up pool1
I1109 01:56:57.445091 141706 net.cpp:217] Top shape: 32 96 27 27 (2239488)
I1109 01:56:57.445438 141706 net.cpp:225] Memory required for data: 140258816
I1109 01:56:57.445665 141706 layer_factory.hpp:114] Creating layer conv2
I1109 01:56:57.446035 141706 net.cpp:160] Creating Layer conv2
I1109 01:56:57.446260 141706 net.cpp:596] conv2 <- pool1
I1109 01:56:57.446506 141706 net.cpp:570] conv2 -> conv2
I1109 01:57:03.246069 141706 net.cpp:210] Setting up conv2
I1109 01:57:03.246389 141706 net.cpp:217] Top shape: 32 256 27 27 (5971968)
I1109 01:57:03.246829 141706 net.cpp:225] Memory required for data: 164146688
I1109 01:57:03.296484 141706 layer_factory.hpp:114] Creating layer relu2
I1109 01:57:03.296934 141706 net.cpp:160] Creating Layer relu2
I1109 01:57:03.297266 141706 net.cpp:596] relu2 <- conv2
I1109 01:57:03.297585 141706 net.cpp:557] relu2 -> conv2 (in-place)
I1109 01:57:03.298044 141706 net.cpp:210] Setting up relu2
I1109 01:57:03.298321 141706 net.cpp:217] Top shape: 32 256 27 27 (5971968)
I1109 01:57:03.298568 141706 net.cpp:225] Memory required for data: 188034560
I1109 01:57:03.298771 141706 layer_factory.hpp:114] Creating layer norm2
I1109 01:57:03.299024 141706 net.cpp:160] Creating Layer norm2
I1109 01:57:03.299228 141706 net.cpp:596] norm2 <- conv2
I1109 01:57:03.299470 141706 net.cpp:570] norm2 -> norm2
I1109 01:57:03.301612 141706 net.cpp:210] Setting up norm2
I1109 01:57:03.301931 141706 net.cpp:217] Top shape: 32 256 27 27 (5971968)
I1109 01:57:03.302168 141706 net.cpp:225] Memory required for data: 211922432
I1109 01:57:03.302359 141706 layer_factory.hpp:114] Creating layer pool2
I1109 01:57:03.303167 141706 net.cpp:160] Creating Layer pool2
I1109 01:57:03.303454 141706 net.cpp:596] pool2 <- norm2
I1109 01:57:03.303699 141706 net.cpp:570] pool2 -> pool2
I1109 01:57:03.304137 141706 net.cpp:210] Setting up pool2
I1109 01:57:03.304513 141706 net.cpp:217] Top shape: 32 256 13 13 (1384448)
I1109 01:57:03.304838 141706 net.cpp:225] Memory required for data: 217460224
I1109 01:57:03.305054 141706 layer_factory.hpp:114] Creating layer conv3
I1109 01:57:03.305393 141706 net.cpp:160] Creating Layer conv3
I1109 01:57:03.305618 141706 net.cpp:596] conv3 <- pool2
I1109 01:57:03.305858 141706 net.cpp:570] conv3 -> conv3
I1109 01:57:03.787977 141706 net.cpp:210] Setting up conv3
I1109 01:57:03.790417 141706 net.cpp:217] Top shape: 32 384 13 13 (2076672)
I1109 01:57:03.790776 141706 net.cpp:225] Memory required for data: 225766912
I1109 01:57:03.793934 141706 layer_factory.hpp:114] Creating layer relu3
I1109 01:57:03.794358 141706 net.cpp:160] Creating Layer relu3
I1109 01:57:03.794617 141706 net.cpp:596] relu3 <- conv3
I1109 01:57:03.794894 141706 net.cpp:557] relu3 -> conv3 (in-place)
I1109 01:57:03.798997 141706 net.cpp:210] Setting up relu3
I1109 01:57:03.799350 141706 net.cpp:217] Top shape: 32 384 13 13 (2076672)
I1109 01:57:03.799605 141706 net.cpp:225] Memory required for data: 234073600
I1109 01:57:03.799813 141706 layer_factory.hpp:114] Creating layer conv4
I1109 01:57:03.800184 141706 net.cpp:160] Creating Layer conv4
I1109 01:57:03.800446 141706 net.cpp:596] conv4 <- conv3
I1109 01:57:03.800703 141706 net.cpp:570] conv4 -> conv4
I1109 01:57:04.071640 141706 net.cpp:210] Setting up conv4
I1109 01:57:04.072033 141706 net.cpp:217] Top shape: 32 384 13 13 (2076672)
I1109 01:57:04.072443 141706 net.cpp:225] Memory required for data: 242380288
I1109 01:57:04.072959 141706 layer_factory.hpp:114] Creating layer relu4
I1109 01:57:04.073295 141706 net.cpp:160] Creating Layer relu4
I1109 01:57:04.073532 141706 net.cpp:596] relu4 <- conv4
I1109 01:57:04.073776 141706 net.cpp:557] relu4 -> conv4 (in-place)
I1109 01:57:04.085921 141706 net.cpp:210] Setting up relu4
I1109 01:57:04.086277 141706 net.cpp:217] Top shape: 32 384 13 13 (2076672)
I1109 01:57:04.086544 141706 net.cpp:225] Memory required for data: 250686976
I1109 01:57:04.086761 141706 layer_factory.hpp:114] Creating layer conv5
I1109 01:57:04.087172 141706 net.cpp:160] Creating Layer conv5
I1109 01:57:04.087425 141706 net.cpp:596] conv5 <- conv4
I1109 01:57:04.087678 141706 net.cpp:570] conv5 -> conv5
I1109 01:57:04.256052 141706 net.cpp:210] Setting up conv5
I1109 01:57:04.256453 141706 net.cpp:217] Top shape: 32 256 13 13 (1384448)
I1109 01:57:04.256981 141706 net.cpp:225] Memory required for data: 256224768
I1109 01:57:04.261687 141706 layer_factory.hpp:114] Creating layer relu5
I1109 01:57:04.262102 141706 net.cpp:160] Creating Layer relu5
I1109 01:57:04.262368 141706 net.cpp:596] relu5 <- conv5
I1109 01:57:04.262642 141706 net.cpp:557] relu5 -> conv5 (in-place)
I1109 01:57:04.263139 141706 net.cpp:210] Setting up relu5
I1109 01:57:04.263447 141706 net.cpp:217] Top shape: 32 256 13 13 (1384448)
I1109 01:57:04.263739 141706 net.cpp:225] Memory required for data: 261762560
I1109 01:57:04.263954 141706 layer_factory.hpp:114] Creating layer pool5
I1109 01:57:04.264217 141706 net.cpp:160] Creating Layer pool5
I1109 01:57:04.264441 141706 net.cpp:596] pool5 <- conv5
I1109 01:57:04.264669 141706 net.cpp:570] pool5 -> pool5
I1109 01:57:04.265125 141706 net.cpp:210] Setting up pool5
I1109 01:57:04.265391 141706 net.cpp:217] Top shape: 32 256 6 6 (294912)
I1109 01:57:04.265621 141706 net.cpp:225] Memory required for data: 262942208
I1109 01:57:04.265810 141706 layer_factory.hpp:114] Creating layer fc6
I1109 01:57:04.320567 141706 net.cpp:160] Creating Layer fc6
I1109 01:57:04.320921 141706 net.cpp:596] fc6 <- pool5
I1109 01:57:04.321305 141706 net.cpp:570] fc6 -> fc6
I1109 01:57:08.409864 141706 net.cpp:210] Setting up fc6
I1109 01:57:08.410171 141706 net.cpp:217] Top shape: 32 4096 (131072)
I1109 01:57:08.412221 141706 net.cpp:225] Memory required for data: 263466496
I1109 01:57:08.412534 141706 layer_factory.hpp:114] Creating layer relu6
I1109 01:57:08.415066 141706 net.cpp:160] Creating Layer relu6
I1109 01:57:08.415370 141706 net.cpp:596] relu6 <- fc6
I1109 01:57:08.415598 141706 net.cpp:557] relu6 -> fc6 (in-place)
I1109 01:57:08.416014 141706 net.cpp:210] Setting up relu6
I1109 01:57:08.416271 141706 net.cpp:217] Top shape: 32 4096 (131072)
I1109 01:57:08.416498 141706 net.cpp:225] Memory required for data: 263990784
I1109 01:57:08.416685 141706 layer_factory.hpp:114] Creating layer drop6
I1109 01:57:08.436704 141706 net.cpp:160] Creating Layer drop6
I1109 01:57:08.437057 141706 net.cpp:596] drop6 <- fc6
I1109 01:57:08.437434 141706 net.cpp:557] drop6 -> fc6 (in-place)
I1109 01:57:08.541512 141706 net.cpp:210] Setting up drop6
I1109 01:57:08.541813 141706 net.cpp:217] Top shape: 32 4096 (131072)
I1109 01:57:08.542153 141706 net.cpp:225] Memory required for data: 264515072
I1109 01:57:08.542403 141706 layer_factory.hpp:114] Creating layer fc7
I1109 01:57:08.542681 141706 net.cpp:160] Creating Layer fc7
I1109 01:57:08.542891 141706 net.cpp:596] fc7 <- fc6
I1109 01:57:08.543280 141706 net.cpp:570] fc7 -> fc7
I1109 01:57:10.255559 141706 net.cpp:210] Setting up fc7
I1109 01:57:10.255900 141706 net.cpp:217] Top shape: 32 4096 (131072)
I1109 01:57:10.256265 141706 net.cpp:225] Memory required for data: 265039360
I1109 01:57:10.256597 141706 layer_factory.hpp:114] Creating layer relu7
I1109 01:57:10.256932 141706 net.cpp:160] Creating Layer relu7
I1109 01:57:10.257170 141706 net.cpp:596] relu7 <- fc7
I1109 01:57:10.257398 141706 net.cpp:557] relu7 -> fc7 (in-place)
I1109 01:57:10.257815 141706 net.cpp:210] Setting up relu7
I1109 01:57:10.258082 141706 net.cpp:217] Top shape: 32 4096 (131072)
I1109 01:57:10.258306 141706 net.cpp:225] Memory required for data: 265563648
I1109 01:57:10.258497 141706 layer_factory.hpp:114] Creating layer drop7
I1109 01:57:10.258723 141706 net.cpp:160] Creating Layer drop7
I1109 01:57:10.258913 141706 net.cpp:596] drop7 <- fc7
I1109 01:57:10.259183 141706 net.cpp:557] drop7 -> fc7 (in-place)
I1109 01:57:10.259454 141706 net.cpp:210] Setting up drop7
I1109 01:57:10.259716 141706 net.cpp:217] Top shape: 32 4096 (131072)
I1109 01:57:10.259963 141706 net.cpp:225] Memory required for data: 266087936
I1109 01:57:10.260143 141706 layer_factory.hpp:114] Creating layer fc8
I1109 01:57:10.260385 141706 net.cpp:160] Creating Layer fc8
I1109 01:57:10.260573 141706 net.cpp:596] fc8 <- fc7
I1109 01:57:10.260831 141706 net.cpp:570] fc8 -> fc8
I1109 01:57:10.683053 141706 net.cpp:210] Setting up fc8
I1109 01:57:10.683403 141706 net.cpp:217] Top shape: 32 1000 (32000)
I1109 01:57:10.683796 141706 net.cpp:225] Memory required for data: 266215936
I1109 01:57:10.684098 141706 layer_factory.hpp:114] Creating layer loss
I1109 01:57:10.708375 141706 net.cpp:160] Creating Layer loss
I1109 01:57:10.708688 141706 net.cpp:596] loss <- fc8
I1109 01:57:10.709585 141706 net.cpp:596] loss <- label
I1109 01:57:10.736739 141706 net.cpp:570] loss -> loss
I1109 01:57:10.774482 141706 layer_factory.hpp:114] Creating layer loss
…
