…
I1108 23:28:20.862455 136042 net.cpp:484] The NetState phase (0) differed from the phase (1) specified by a rule in layer accuracy
I1108 23:28:21.487121 136042 net.cpp:120] Initializing net from parameters: 
name: "AlexNet"
state {
  phase: TRAIN
  level: 0
  stage: ""
}
layer {
  name: "data"
  type: "DummyData"
  top: "data"
  top: "label"
  include {
    phase: TRAIN
  }
  dummy_data_param {
    data_filler {
      type: "gaussian"
      std: 1
    }
    data_filler {
      type: "constant"
      value: 0
    }
    shape {
      dim: 32
      dim: 3
      dim: 227
      dim: 227
    }
    shape {
      dim: 32
      dim: 1
      dim: 1
      dim: 1
    }
  }
}
layer {
  name: "conv1"
  type: "Convolution"
  bottom: "data"
  top: "conv1"
  param {
    lr_mult: 1
    decay_mult: 1
  }
  param {
    lr_mult: 2
    decay_mult: 0
  }
  convolution_param {
    num_output: 96
    kernel_size: 11
    stride: 4
    weight_filler {
      type: "gaussian"
      std: 0.01
    }
    bias_filler {
      type: "constant"
      value: 0
    }
    engine: MKL2017
  }
}
layer {
  name: "relu1"
  type: "ReLU"
  bottom: "conv1"
  top: "conv1"
  relu_param {
    engine: MKL2017
  }
}
layer {
  name: "norm1"
  type: "LRN"
  bottom: "conv1"
  top: "norm1"
  lrn_param {
    local_size: 5
    alpha: 0.0001
    beta: 0.75
    engine: MKL2017
  }
}
layer {
  name: "pool1"
  type: "Pooling"
  bottom: "norm1"
  top: "pool1"
  pooling_param {
    pool: MAX
    kernel_size: 3
    stride: 2
    engine: MKL2017
  }
}
layer {
  name: "conv2"
  type: "Convolution"
  bottom: "pool1"
  top: "conv2"
  param {
    lr_mult: 1
    decay_mult: 1
  }
  param {
    lr_mult: 2
    decay_mult: 0
  }
  convolution_param {
    num_output: 256
    pad: 2
    kernel_size: 5
    group: 2
    weight_filler {
      type: "gaussian"
      std: 0.01
    }
    bias_filler {
      type: "constant"
      value: 0.1
    }
    engine: MKL2017
  }
}
layer {
  name: "relu2"
  type: "ReLU"
  bottom: "conv2"
  top: "conv2"
  relu_param {
    engine: MKL2017
  }
}
layer {
  name: "norm2"
  type: "LRN"
  bottom: "conv2"
  top: "norm2"
  lrn_param {
    local_size: 5
    alpha: 0.0001
    beta: 0.75
    engine: MKL2017
  }
}
layer {
  name: "pool2"
  type: "Pooling"
  bottom: "norm2"
  top: "pool2"
  pooling_param {
    pool: MAX
    kernel_size: 3
    stride: 2
    engine: MKL2017
  }
}
layer {
  name: "conv3"
  type: "Convolution"
  bottom: "pool2"
  top: "conv3"
  param {
    lr_mult: 1
    decay_mult: 1
  }
  param {
    lr_mult: 2
    decay_mult: 0
  }
  convolution_param {
    num_output: 384
    pad: 1
    kernel_size: 3
    weight_filler {
      type: "gaussian"
      std: 0.01
    }
    bias_filler {
      type: "constant"
      value: 0
    }
    engine: MKL2017
  }
}
layer {
  name: "relu3"
  type: "ReLU"
  bottom: "conv3"
  top: "conv3"
  relu_param {
    engine: MKL2017
  }
}
layer {
  name: "conv4"
  type: "Convolution"
  bottom: "conv3"
  top: "conv4"
  param {
    lr_mult: 1
    decay_mult: 1
  }
  param {
    lr_mult: 2
    decay_mult: 0
  }
  convolution_param {
    num_output: 384
    pad: 1
    kernel_size: 3
    group: 2
    weight_filler {
      type: "gaussian"
      std: 0.01
    }
    bias_filler {
      type: "constant"
      value: 0.1
    }
    engine: MKL2017
  }
}
layer {
  name: "relu4"
  type: "ReLU"
  bottom: "conv4"
  top: "conv4"
  relu_param {
    engine: MKL2017
  }
}
layer {
  name: "conv5"
  type: "Convolution"
  bottom: "conv4"
  top: "conv5"
  param {
    lr_mult: 1
    decay_mult: 1
  }
  param {
    lr_mult: 2
    decay_mult: 0
  }
  convolution_param {
    num_output: 256
    pad: 1
    kernel_size: 3
    group: 2
    weight_filler {
      type: "gaussian"
      std: 0.01
    }
    bias_filler {
      type: "constant"
      value: 0.1
    }
    engine: MKL2017
  }
}
layer {
  name: "relu5"
  type: "ReLU"
  bottom: "conv5"
  top: "conv5"
  relu_param {
    engine: MKL2017
  }
}
layer {
  name: "pool5"
  type: "Pooling"
  bottom: "conv5"
  top: "pool5"
  pooling_param {
    pool: MAX
    kernel_size: 3
    stride: 2
    engine: MKL2017
  }
}
layer {
  name: "fc6"
  type: "InnerProduct"
  bottom: "pool5"
  top: "fc6"
  param {
    lr_mult: 1
    decay_mult: 1
  }
  param {
    lr_mult: 2
    decay_mult: 0
  }
  inner_product_param {
    num_output: 4096
    weight_filler {
      type: "gaussian"
      std: 0.005
    }
    bias_filler {
      type: "constant"
      value: 0.1
    }
  }
}
layer {
  name: "relu6"
  type: "ReLU"
  bottom: "fc6"
  top: "fc6"
}
layer {
  name: "drop6"
  type: "Dropout"
  bottom: "fc6"
  top: "fc6"
  dropout_param {
    dropout_ratio: 0.5
  }
}
layer {
  name: "fc7"
  type: "InnerProduct"
  bottom: "fc6"
  top: "fc7"
  param {
    lr_mult: 1
    decay_mult: 1
  }
  param {
    lr_mult: 2
    decay_mult: 0
  }
  inner_product_param {
    num_output: 4096
    weight_filler {
      type: "gaussian"
      std: 0.005
    }
    bias_filler {
      type: "constant"
      value: 0.1
    }
  }
}
layer {
  name: "relu7"
  type: "ReLU"
  bottom: "fc7"
  top: "fc7"
}
layer {
  name: "drop7"
  type: "Dropout"
  bottom: "fc7"
  top: "fc7"
  dropout_param {
    dropout_ratio: 0.5
  }
}
layer {
  name: "fc8"
  type: "InnerProduct"
  bottom: "fc7"
  top: "fc8"
  param {
    lr_mult: 1
    decay_mult: 1
  }
  param {
    lr_mult: 2
    decay_mult: 0
  }
  inner_product_param {
    num_output: 1000
    weight_filler {
      type: "gaussian"
      std: 0.01
    }
    bias_filler {
      type: "constant"
      value: 0
    }
  }
}
layer {
  name: "loss"
  type: "SoftmaxWithLoss"
  bottom: "fc8"
  bottom: "label"
  top: "loss"
}
I1108 23:28:23.910548 136042 layer_factory.hpp:114] Creating layer data
I1108 23:28:24.056545 136042 net.cpp:160] Creating Layer data
I1108 23:28:24.104398 136042 net.cpp:570] data -> data
I1108 23:28:24.569362 136042 net.cpp:570] data -> label
I1108 23:28:31.536248 136042 net.cpp:210] Setting up data
I1108 23:28:31.618154 136042 net.cpp:217] Top shape: 32 3 227 227 (4946784)
I1108 23:28:31.721978 136042 net.cpp:217] Top shape: 32 1 1 1 (32)
I1108 23:28:31.729212 136042 net.cpp:225] Memory required for data: 19787264
I1108 23:28:31.795910 136042 layer_factory.hpp:114] Creating layer conv1
I1108 23:28:32.119140 136042 net.cpp:160] Creating Layer conv1
I1108 23:28:32.168274 136042 net.cpp:596] conv1 <- data
I1108 23:28:32.291317 136042 net.cpp:570] conv1 -> conv1
I1108 23:29:04.977851 136042 net.cpp:210] Setting up conv1
I1108 23:29:04.984694 136042 net.cpp:217] Top shape: 32 96 55 55 (9292800)
I1108 23:29:04.985158 136042 net.cpp:225] Memory required for data: 56958464
I1108 23:29:05.263978 136042 layer_factory.hpp:114] Creating layer relu1
I1108 23:29:05.383131 136042 net.cpp:160] Creating Layer relu1
I1108 23:29:05.387699 136042 net.cpp:596] relu1 <- conv1
I1108 23:29:05.419469 136042 net.cpp:557] relu1 -> conv1 (in-place)
I1108 23:29:05.611632 136042 net.cpp:210] Setting up relu1
I1108 23:29:05.614127 136042 net.cpp:217] Top shape: 32 96 55 55 (9292800)
I1108 23:29:05.614498 136042 net.cpp:225] Memory required for data: 94129664
I1108 23:29:05.614715 136042 layer_factory.hpp:114] Creating layer norm1
I1108 23:29:05.718842 136042 net.cpp:160] Creating Layer norm1
I1108 23:29:05.719154 136042 net.cpp:596] norm1 <- conv1
I1108 23:29:05.721709 136042 net.cpp:570] norm1 -> norm1
I1108 23:29:05.944649 136042 net.cpp:210] Setting up norm1
I1108 23:29:05.957506 136042 net.cpp:217] Top shape: 32 96 55 55 (9292800)
I1108 23:29:05.957880 136042 net.cpp:225] Memory required for data: 131300864
I1108 23:29:05.958214 136042 layer_factory.hpp:114] Creating layer pool1
I1108 23:29:06.050983 136042 net.cpp:160] Creating Layer pool1
I1108 23:29:06.051293 136042 net.cpp:596] pool1 <- norm1
I1108 23:29:06.065979 136042 net.cpp:570] pool1 -> pool1
I1108 23:29:06.363966 136042 net.cpp:210] Setting up pool1
I1108 23:29:06.366437 136042 net.cpp:217] Top shape: 32 96 27 27 (2239488)
I1108 23:29:06.366762 136042 net.cpp:225] Memory required for data: 140258816
I1108 23:29:06.367007 136042 layer_factory.hpp:114] Creating layer conv2
I1108 23:29:06.367374 136042 net.cpp:160] Creating Layer conv2
I1108 23:29:06.367591 136042 net.cpp:596] conv2 <- pool1
I1108 23:29:06.367828 136042 net.cpp:570] conv2 -> conv2
I1108 23:29:12.077703 136042 net.cpp:210] Setting up conv2
I1108 23:29:12.078016 136042 net.cpp:217] Top shape: 32 256 27 27 (5971968)
I1108 23:29:12.078408 136042 net.cpp:225] Memory required for data: 164146688
I1108 23:29:12.129670 136042 layer_factory.hpp:114] Creating layer relu2
I1108 23:29:12.130084 136042 net.cpp:160] Creating Layer relu2
I1108 23:29:12.130447 136042 net.cpp:596] relu2 <- conv2
I1108 23:29:12.130731 136042 net.cpp:557] relu2 -> conv2 (in-place)
I1108 23:29:12.131166 136042 net.cpp:210] Setting up relu2
I1108 23:29:12.131429 136042 net.cpp:217] Top shape: 32 256 27 27 (5971968)
I1108 23:29:12.131661 136042 net.cpp:225] Memory required for data: 188034560
I1108 23:29:12.131846 136042 layer_factory.hpp:114] Creating layer norm2
I1108 23:29:12.132082 136042 net.cpp:160] Creating Layer norm2
I1108 23:29:12.132272 136042 net.cpp:596] norm2 <- conv2
I1108 23:29:12.132535 136042 net.cpp:570] norm2 -> norm2
I1108 23:29:12.134579 136042 net.cpp:210] Setting up norm2
I1108 23:29:12.134902 136042 net.cpp:217] Top shape: 32 256 27 27 (5971968)
I1108 23:29:12.135145 136042 net.cpp:225] Memory required for data: 211922432
I1108 23:29:12.135344 136042 layer_factory.hpp:114] Creating layer pool2
I1108 23:29:12.136248 136042 net.cpp:160] Creating Layer pool2
I1108 23:29:12.136554 136042 net.cpp:596] pool2 <- norm2
I1108 23:29:12.136858 136042 net.cpp:570] pool2 -> pool2
I1108 23:29:12.137331 136042 net.cpp:210] Setting up pool2
I1108 23:29:12.137578 136042 net.cpp:217] Top shape: 32 256 13 13 (1384448)
I1108 23:29:12.137796 136042 net.cpp:225] Memory required for data: 217460224
I1108 23:29:12.137992 136042 layer_factory.hpp:114] Creating layer conv3
I1108 23:29:12.138365 136042 net.cpp:160] Creating Layer conv3
I1108 23:29:12.138725 136042 net.cpp:596] conv3 <- pool2
I1108 23:29:12.139047 136042 net.cpp:570] conv3 -> conv3
I1108 23:29:12.635665 136042 net.cpp:210] Setting up conv3
I1108 23:29:12.638025 136042 net.cpp:217] Top shape: 32 384 13 13 (2076672)
I1108 23:29:12.638366 136042 net.cpp:225] Memory required for data: 225766912
I1108 23:29:12.641361 136042 layer_factory.hpp:114] Creating layer relu3
I1108 23:29:12.641788 136042 net.cpp:160] Creating Layer relu3
I1108 23:29:12.642036 136042 net.cpp:596] relu3 <- conv3
I1108 23:29:12.642282 136042 net.cpp:557] relu3 -> conv3 (in-place)
I1108 23:29:12.646361 136042 net.cpp:210] Setting up relu3
I1108 23:29:12.646666 136042 net.cpp:217] Top shape: 32 384 13 13 (2076672)
I1108 23:29:12.646905 136042 net.cpp:225] Memory required for data: 234073600
I1108 23:29:12.647099 136042 layer_factory.hpp:114] Creating layer conv4
I1108 23:29:12.647482 136042 net.cpp:160] Creating Layer conv4
I1108 23:29:12.647742 136042 net.cpp:596] conv4 <- conv3
I1108 23:29:12.647999 136042 net.cpp:570] conv4 -> conv4
I1108 23:29:12.893352 136042 net.cpp:210] Setting up conv4
I1108 23:29:12.893753 136042 net.cpp:217] Top shape: 32 384 13 13 (2076672)
I1108 23:29:12.894177 136042 net.cpp:225] Memory required for data: 242380288
I1108 23:29:12.894502 136042 layer_factory.hpp:114] Creating layer relu4
I1108 23:29:12.894814 136042 net.cpp:160] Creating Layer relu4
I1108 23:29:12.895038 136042 net.cpp:596] relu4 <- conv4
I1108 23:29:12.895269 136042 net.cpp:557] relu4 -> conv4 (in-place)
I1108 23:29:12.907492 136042 net.cpp:210] Setting up relu4
I1108 23:29:12.907829 136042 net.cpp:217] Top shape: 32 384 13 13 (2076672)
I1108 23:29:12.908219 136042 net.cpp:225] Memory required for data: 250686976
I1108 23:29:12.908432 136042 layer_factory.hpp:114] Creating layer conv5
I1108 23:29:12.908838 136042 net.cpp:160] Creating Layer conv5
I1108 23:29:12.909101 136042 net.cpp:596] conv5 <- conv4
I1108 23:29:12.909348 136042 net.cpp:570] conv5 -> conv5
I1108 23:29:13.078950 136042 net.cpp:210] Setting up conv5
I1108 23:29:13.079329 136042 net.cpp:217] Top shape: 32 256 13 13 (1384448)
I1108 23:29:13.079722 136042 net.cpp:225] Memory required for data: 256224768
I1108 23:29:13.084386 136042 layer_factory.hpp:114] Creating layer relu5
I1108 23:29:13.084836 136042 net.cpp:160] Creating Layer relu5
I1108 23:29:13.085125 136042 net.cpp:596] relu5 <- conv5
I1108 23:29:13.085386 136042 net.cpp:557] relu5 -> conv5 (in-place)
I1108 23:29:13.085824 136042 net.cpp:210] Setting up relu5
I1108 23:29:13.086109 136042 net.cpp:217] Top shape: 32 256 13 13 (1384448)
I1108 23:29:13.086347 136042 net.cpp:225] Memory required for data: 261762560
I1108 23:29:13.086554 136042 layer_factory.hpp:114] Creating layer pool5
I1108 23:29:13.086810 136042 net.cpp:160] Creating Layer pool5
I1108 23:29:13.087016 136042 net.cpp:596] pool5 <- conv5
I1108 23:29:13.087268 136042 net.cpp:570] pool5 -> pool5
I1108 23:29:13.087676 136042 net.cpp:210] Setting up pool5
I1108 23:29:13.087963 136042 net.cpp:217] Top shape: 32 256 6 6 (294912)
I1108 23:29:13.088181 136042 net.cpp:225] Memory required for data: 262942208
I1108 23:29:13.088361 136042 layer_factory.hpp:114] Creating layer fc6
I1108 23:29:13.142213 136042 net.cpp:160] Creating Layer fc6
I1108 23:29:13.142518 136042 net.cpp:596] fc6 <- pool5
I1108 23:29:13.142874 136042 net.cpp:570] fc6 -> fc6
I1108 23:29:17.375531 136042 net.cpp:210] Setting up fc6
I1108 23:29:17.375833 136042 net.cpp:217] Top shape: 32 4096 (131072)
I1108 23:29:17.378042 136042 net.cpp:225] Memory required for data: 263466496
I1108 23:29:17.378355 136042 layer_factory.hpp:114] Creating layer relu6
I1108 23:29:17.380952 136042 net.cpp:160] Creating Layer relu6
I1108 23:29:17.381278 136042 net.cpp:596] relu6 <- fc6
I1108 23:29:17.381500 136042 net.cpp:557] relu6 -> fc6 (in-place)
I1108 23:29:17.381907 136042 net.cpp:210] Setting up relu6
I1108 23:29:17.382163 136042 net.cpp:217] Top shape: 32 4096 (131072)
I1108 23:29:17.382380 136042 net.cpp:225] Memory required for data: 263990784
I1108 23:29:17.382561 136042 layer_factory.hpp:114] Creating layer drop6
I1108 23:29:17.403167 136042 net.cpp:160] Creating Layer drop6
I1108 23:29:17.403484 136042 net.cpp:596] drop6 <- fc6
I1108 23:29:17.403885 136042 net.cpp:557] drop6 -> fc6 (in-place)
I1108 23:29:17.507678 136042 net.cpp:210] Setting up drop6
I1108 23:29:17.507967 136042 net.cpp:217] Top shape: 32 4096 (131072)
I1108 23:29:17.508357 136042 net.cpp:225] Memory required for data: 264515072
I1108 23:29:17.508608 136042 layer_factory.hpp:114] Creating layer fc7
I1108 23:29:17.508944 136042 net.cpp:160] Creating Layer fc7
I1108 23:29:17.509186 136042 net.cpp:596] fc7 <- fc6
I1108 23:29:17.509557 136042 net.cpp:570] fc7 -> fc7
I1108 23:29:19.235605 136042 net.cpp:210] Setting up fc7
I1108 23:29:19.235942 136042 net.cpp:217] Top shape: 32 4096 (131072)
I1108 23:29:19.236311 136042 net.cpp:225] Memory required for data: 265039360
I1108 23:29:19.236640 136042 layer_factory.hpp:114] Creating layer relu7
I1108 23:29:19.236979 136042 net.cpp:160] Creating Layer relu7
I1108 23:29:19.237211 136042 net.cpp:596] relu7 <- fc7
I1108 23:29:19.237439 136042 net.cpp:557] relu7 -> fc7 (in-place)
I1108 23:29:19.237854 136042 net.cpp:210] Setting up relu7
I1108 23:29:19.238118 136042 net.cpp:217] Top shape: 32 4096 (131072)
I1108 23:29:19.238346 136042 net.cpp:225] Memory required for data: 265563648
I1108 23:29:19.238533 136042 layer_factory.hpp:114] Creating layer drop7
I1108 23:29:19.238786 136042 net.cpp:160] Creating Layer drop7
I1108 23:29:19.238984 136042 net.cpp:596] drop7 <- fc7
I1108 23:29:19.239225 136042 net.cpp:557] drop7 -> fc7 (in-place)
I1108 23:29:19.239493 136042 net.cpp:210] Setting up drop7
I1108 23:29:19.239711 136042 net.cpp:217] Top shape: 32 4096 (131072)
I1108 23:29:19.239920 136042 net.cpp:225] Memory required for data: 266087936
I1108 23:29:19.240097 136042 layer_factory.hpp:114] Creating layer fc8
I1108 23:29:19.240334 136042 net.cpp:160] Creating Layer fc8
I1108 23:29:19.240525 136042 net.cpp:596] fc8 <- fc7
I1108 23:29:19.240742 136042 net.cpp:570] fc8 -> fc8
I1108 23:29:19.663746 136042 net.cpp:210] Setting up fc8
I1108 23:29:19.664106 136042 net.cpp:217] Top shape: 32 1000 (32000)
I1108 23:29:19.664510 136042 net.cpp:225] Memory required for data: 266215936
I1108 23:29:19.664894 136042 layer_factory.hpp:114] Creating layer loss
I1108 23:29:19.689699 136042 net.cpp:160] Creating Layer loss
I1108 23:29:19.690012 136042 net.cpp:596] loss <- fc8
I1108 23:29:19.690948 136042 net.cpp:596] loss <- label
I1108 23:29:19.718189 136042 net.cpp:570] loss -> loss
I1108 23:29:19.755893 136042 layer_factory.hpp:114] Creating layer loss
…
