…
I1109 01:33:03.523555 141166 net.cpp:484] The NetState phase (0) differed from the phase (1) specified by a rule in layer accuracy
I1109 01:33:04.156601 141166 net.cpp:120] Initializing net from parameters: 
name: "AlexNet"
state {
  phase: TRAIN
  level: 0
  stage: ""
}
layer {
  name: "data"
  type: "DummyData"
  top: "data"
  top: "label"
  include {
    phase: TRAIN
  }
  dummy_data_param {
    data_filler {
      type: "gaussian"
      std: 1
    }
    data_filler {
      type: "constant"
      value: 0
    }
    shape {
      dim: 32
      dim: 3
      dim: 227
      dim: 227
    }
    shape {
      dim: 32
      dim: 1
      dim: 1
      dim: 1
    }
  }
}
layer {
  name: "conv1"
  type: "Convolution"
  bottom: "data"
  top: "conv1"
  param {
    lr_mult: 1
    decay_mult: 1
  }
  param {
    lr_mult: 2
    decay_mult: 0
  }
  convolution_param {
    num_output: 96
    kernel_size: 11
    stride: 4
    weight_filler {
      type: "gaussian"
      std: 0.01
    }
    bias_filler {
      type: "constant"
      value: 0
    }
    engine: MKL2017
  }
}
layer {
  name: "relu1"
  type: "ReLU"
  bottom: "conv1"
  top: "conv1"
  relu_param {
    engine: MKL2017
  }
}
layer {
  name: "norm1"
  type: "LRN"
  bottom: "conv1"
  top: "norm1"
  lrn_param {
    local_size: 5
    alpha: 0.0001
    beta: 0.75
    engine: MKL2017
  }
}
layer {
  name: "pool1"
  type: "Pooling"
  bottom: "norm1"
  top: "pool1"
  pooling_param {
    pool: MAX
    kernel_size: 3
    stride: 2
    engine: MKL2017
  }
}
layer {
  name: "conv2"
  type: "Convolution"
  bottom: "pool1"
  top: "conv2"
  param {
    lr_mult: 1
    decay_mult: 1
  }
  param {
    lr_mult: 2
    decay_mult: 0
  }
  convolution_param {
    num_output: 256
    pad: 2
    kernel_size: 5
    group: 2
    weight_filler {
      type: "gaussian"
      std: 0.01
    }
    bias_filler {
      type: "constant"
      value: 0.1
    }
    engine: MKL2017
  }
}
layer {
  name: "relu2"
  type: "ReLU"
  bottom: "conv2"
  top: "conv2"
  relu_param {
    engine: MKL2017
  }
}
layer {
  name: "norm2"
  type: "LRN"
  bottom: "conv2"
  top: "norm2"
  lrn_param {
    local_size: 5
    alpha: 0.0001
    beta: 0.75
    engine: MKL2017
  }
}
layer {
  name: "pool2"
  type: "Pooling"
  bottom: "norm2"
  top: "pool2"
  pooling_param {
    pool: MAX
    kernel_size: 3
    stride: 2
    engine: MKL2017
  }
}
layer {
  name: "conv3"
  type: "Convolution"
  bottom: "pool2"
  top: "conv3"
  param {
    lr_mult: 1
    decay_mult: 1
  }
  param {
    lr_mult: 2
    decay_mult: 0
  }
  convolution_param {
    num_output: 384
    pad: 1
    kernel_size: 3
    weight_filler {
      type: "gaussian"
      std: 0.01
    }
    bias_filler {
      type: "constant"
      value: 0
    }
    engine: MKL2017
  }
}
layer {
  name: "relu3"
  type: "ReLU"
  bottom: "conv3"
  top: "conv3"
  relu_param {
    engine: MKL2017
  }
}
layer {
  name: "conv4"
  type: "Convolution"
  bottom: "conv3"
  top: "conv4"
  param {
    lr_mult: 1
    decay_mult: 1
  }
  param {
    lr_mult: 2
    decay_mult: 0
  }
  convolution_param {
    num_output: 384
    pad: 1
    kernel_size: 3
    group: 2
    weight_filler {
      type: "gaussian"
      std: 0.01
    }
    bias_filler {
      type: "constant"
      value: 0.1
    }
    engine: MKL2017
  }
}
layer {
  name: "relu4"
  type: "ReLU"
  bottom: "conv4"
  top: "conv4"
  relu_param {
    engine: MKL2017
  }
}
layer {
  name: "conv5"
  type: "Convolution"
  bottom: "conv4"
  top: "conv5"
  param {
    lr_mult: 1
    decay_mult: 1
  }
  param {
    lr_mult: 2
    decay_mult: 0
  }
  convolution_param {
    num_output: 256
    pad: 1
    kernel_size: 3
    group: 2
    weight_filler {
      type: "gaussian"
      std: 0.01
    }
    bias_filler {
      type: "constant"
      value: 0.1
    }
    engine: MKL2017
  }
}
layer {
  name: "relu5"
  type: "ReLU"
  bottom: "conv5"
  top: "conv5"
  relu_param {
    engine: MKL2017
  }
}
layer {
  name: "pool5"
  type: "Pooling"
  bottom: "conv5"
  top: "pool5"
  pooling_param {
    pool: MAX
    kernel_size: 3
    stride: 2
    engine: MKL2017
  }
}
layer {
  name: "fc6"
  type: "InnerProduct"
  bottom: "pool5"
  top: "fc6"
  param {
    lr_mult: 1
    decay_mult: 1
  }
  param {
    lr_mult: 2
    decay_mult: 0
  }
  inner_product_param {
    num_output: 4096
    weight_filler {
      type: "gaussian"
      std: 0.005
    }
    bias_filler {
      type: "constant"
      value: 0.1
    }
  }
}
layer {
  name: "relu6"
  type: "ReLU"
  bottom: "fc6"
  top: "fc6"
}
layer {
  name: "drop6"
  type: "Dropout"
  bottom: "fc6"
  top: "fc6"
  dropout_param {
    dropout_ratio: 0.5
  }
}
layer {
  name: "fc7"
  type: "InnerProduct"
  bottom: "fc6"
  top: "fc7"
  param {
    lr_mult: 1
    decay_mult: 1
  }
  param {
    lr_mult: 2
    decay_mult: 0
  }
  inner_product_param {
    num_output: 4096
    weight_filler {
      type: "gaussian"
      std: 0.005
    }
    bias_filler {
      type: "constant"
      value: 0.1
    }
  }
}
layer {
  name: "relu7"
  type: "ReLU"
  bottom: "fc7"
  top: "fc7"
}
layer {
  name: "drop7"
  type: "Dropout"
  bottom: "fc7"
  top: "fc7"
  dropout_param {
    dropout_ratio: 0.5
  }
}
layer {
  name: "fc8"
  type: "InnerProduct"
  bottom: "fc7"
  top: "fc8"
  param {
    lr_mult: 1
    decay_mult: 1
  }
  param {
    lr_mult: 2
    decay_mult: 0
  }
  inner_product_param {
    num_output: 1000
    weight_filler {
      type: "gaussian"
      std: 0.01
    }
    bias_filler {
      type: "constant"
      value: 0
    }
  }
}
layer {
  name: "loss"
  type: "SoftmaxWithLoss"
  bottom: "fc8"
  bottom: "label"
  top: "loss"
}
I1109 01:33:06.576746 141166 layer_factory.hpp:114] Creating layer data
I1109 01:33:06.723291 141166 net.cpp:160] Creating Layer data
I1109 01:33:06.771066 141166 net.cpp:570] data -> data
I1109 01:33:07.231252 141166 net.cpp:570] data -> label
I1109 01:33:14.220018 141166 net.cpp:210] Setting up data
I1109 01:33:14.299793 141166 net.cpp:217] Top shape: 32 3 227 227 (4946784)
I1109 01:33:14.403326 141166 net.cpp:217] Top shape: 32 1 1 1 (32)
I1109 01:33:14.412051 141166 net.cpp:225] Memory required for data: 19787264
I1109 01:33:14.479348 141166 layer_factory.hpp:114] Creating layer conv1
I1109 01:33:14.803413 141166 net.cpp:160] Creating Layer conv1
I1109 01:33:14.853618 141166 net.cpp:596] conv1 <- data
I1109 01:33:14.972394 141166 net.cpp:570] conv1 -> conv1
I1109 01:33:47.767792 141166 net.cpp:210] Setting up conv1
I1109 01:33:47.774602 141166 net.cpp:217] Top shape: 32 96 55 55 (9292800)
I1109 01:33:47.774960 141166 net.cpp:225] Memory required for data: 56958464
I1109 01:33:48.055377 141166 layer_factory.hpp:114] Creating layer relu1
I1109 01:33:48.175009 141166 net.cpp:160] Creating Layer relu1
I1109 01:33:48.179554 141166 net.cpp:596] relu1 <- conv1
I1109 01:33:48.211732 141166 net.cpp:557] relu1 -> conv1 (in-place)
I1109 01:33:48.399852 141166 net.cpp:210] Setting up relu1
I1109 01:33:48.402331 141166 net.cpp:217] Top shape: 32 96 55 55 (9292800)
I1109 01:33:48.402680 141166 net.cpp:225] Memory required for data: 94129664
I1109 01:33:48.402931 141166 layer_factory.hpp:114] Creating layer norm1
I1109 01:33:48.506903 141166 net.cpp:160] Creating Layer norm1
I1109 01:33:48.507228 141166 net.cpp:596] norm1 <- conv1
I1109 01:33:48.509764 141166 net.cpp:570] norm1 -> norm1
I1109 01:33:48.733343 141166 net.cpp:210] Setting up norm1
I1109 01:33:48.746119 141166 net.cpp:217] Top shape: 32 96 55 55 (9292800)
I1109 01:33:48.746511 141166 net.cpp:225] Memory required for data: 131300864
I1109 01:33:48.746855 141166 layer_factory.hpp:114] Creating layer pool1
I1109 01:33:48.839448 141166 net.cpp:160] Creating Layer pool1
I1109 01:33:48.839769 141166 net.cpp:596] pool1 <- norm1
I1109 01:33:48.854497 141166 net.cpp:570] pool1 -> pool1
I1109 01:33:49.153240 141166 net.cpp:210] Setting up pool1
I1109 01:33:49.155697 141166 net.cpp:217] Top shape: 32 96 27 27 (2239488)
I1109 01:33:49.156028 141166 net.cpp:225] Memory required for data: 140258816
I1109 01:33:49.156247 141166 layer_factory.hpp:114] Creating layer conv2
I1109 01:33:49.156646 141166 net.cpp:160] Creating Layer conv2
I1109 01:33:49.156955 141166 net.cpp:596] conv2 <- pool1
I1109 01:33:49.157201 141166 net.cpp:570] conv2 -> conv2
I1109 01:33:54.869616 141166 net.cpp:210] Setting up conv2
I1109 01:33:54.869936 141166 net.cpp:217] Top shape: 32 256 27 27 (5971968)
I1109 01:33:54.870318 141166 net.cpp:225] Memory required for data: 164146688
I1109 01:33:54.920485 141166 layer_factory.hpp:114] Creating layer relu2
I1109 01:33:54.920979 141166 net.cpp:160] Creating Layer relu2
I1109 01:33:54.921344 141166 net.cpp:596] relu2 <- conv2
I1109 01:33:54.921664 141166 net.cpp:557] relu2 -> conv2 (in-place)
I1109 01:33:54.922138 141166 net.cpp:210] Setting up relu2
I1109 01:33:54.922425 141166 net.cpp:217] Top shape: 32 256 27 27 (5971968)
I1109 01:33:54.922684 141166 net.cpp:225] Memory required for data: 188034560
I1109 01:33:54.922896 141166 layer_factory.hpp:114] Creating layer norm2
I1109 01:33:54.923163 141166 net.cpp:160] Creating Layer norm2
I1109 01:33:54.923382 141166 net.cpp:596] norm2 <- conv2
I1109 01:33:54.923638 141166 net.cpp:570] norm2 -> norm2
I1109 01:33:54.925750 141166 net.cpp:210] Setting up norm2
I1109 01:33:54.926064 141166 net.cpp:217] Top shape: 32 256 27 27 (5971968)
I1109 01:33:54.926311 141166 net.cpp:225] Memory required for data: 211922432
I1109 01:33:54.926507 141166 layer_factory.hpp:114] Creating layer pool2
I1109 01:33:54.927355 141166 net.cpp:160] Creating Layer pool2
I1109 01:33:54.927764 141166 net.cpp:596] pool2 <- norm2
I1109 01:33:54.928092 141166 net.cpp:570] pool2 -> pool2
I1109 01:33:54.928504 141166 net.cpp:210] Setting up pool2
I1109 01:33:54.928746 141166 net.cpp:217] Top shape: 32 256 13 13 (1384448)
I1109 01:33:54.929024 141166 net.cpp:225] Memory required for data: 217460224
I1109 01:33:54.929227 141166 layer_factory.hpp:114] Creating layer conv3
I1109 01:33:54.929561 141166 net.cpp:160] Creating Layer conv3
I1109 01:33:54.929777 141166 net.cpp:596] conv3 <- pool2
I1109 01:33:54.930053 141166 net.cpp:570] conv3 -> conv3
I1109 01:33:55.406697 141166 net.cpp:210] Setting up conv3
I1109 01:33:55.409219 141166 net.cpp:217] Top shape: 32 384 13 13 (2076672)
I1109 01:33:55.409579 141166 net.cpp:225] Memory required for data: 225766912
I1109 01:33:55.412690 141166 layer_factory.hpp:114] Creating layer relu3
I1109 01:33:55.413161 141166 net.cpp:160] Creating Layer relu3
I1109 01:33:55.413427 141166 net.cpp:596] relu3 <- conv3
I1109 01:33:55.413712 141166 net.cpp:557] relu3 -> conv3 (in-place)
I1109 01:33:55.417788 141166 net.cpp:210] Setting up relu3
I1109 01:33:55.418175 141166 net.cpp:217] Top shape: 32 384 13 13 (2076672)
I1109 01:33:55.418530 141166 net.cpp:225] Memory required for data: 234073600
I1109 01:33:55.418735 141166 layer_factory.hpp:114] Creating layer conv4
I1109 01:33:55.419106 141166 net.cpp:160] Creating Layer conv4
I1109 01:33:55.419358 141166 net.cpp:596] conv4 <- conv3
I1109 01:33:55.419608 141166 net.cpp:570] conv4 -> conv4
I1109 01:33:55.662287 141166 net.cpp:210] Setting up conv4
I1109 01:33:55.662686 141166 net.cpp:217] Top shape: 32 384 13 13 (2076672)
I1109 01:33:55.663153 141166 net.cpp:225] Memory required for data: 242380288
I1109 01:33:55.663507 141166 layer_factory.hpp:114] Creating layer relu4
I1109 01:33:55.663817 141166 net.cpp:160] Creating Layer relu4
I1109 01:33:55.664057 141166 net.cpp:596] relu4 <- conv4
I1109 01:33:55.664299 141166 net.cpp:557] relu4 -> conv4 (in-place)
I1109 01:33:55.676429 141166 net.cpp:210] Setting up relu4
I1109 01:33:55.676910 141166 net.cpp:217] Top shape: 32 384 13 13 (2076672)
I1109 01:33:55.677291 141166 net.cpp:225] Memory required for data: 250686976
I1109 01:33:55.677530 141166 layer_factory.hpp:114] Creating layer conv5
I1109 01:33:55.677928 141166 net.cpp:160] Creating Layer conv5
I1109 01:33:55.678190 141166 net.cpp:596] conv5 <- conv4
I1109 01:33:55.678457 141166 net.cpp:570] conv5 -> conv5
I1109 01:33:55.849308 141166 net.cpp:210] Setting up conv5
I1109 01:33:55.849717 141166 net.cpp:217] Top shape: 32 256 13 13 (1384448)
I1109 01:33:55.850189 141166 net.cpp:225] Memory required for data: 256224768
I1109 01:33:55.854869 141166 layer_factory.hpp:114] Creating layer relu5
I1109 01:33:55.855288 141166 net.cpp:160] Creating Layer relu5
I1109 01:33:55.855554 141166 net.cpp:596] relu5 <- conv5
I1109 01:33:55.855845 141166 net.cpp:557] relu5 -> conv5 (in-place)
I1109 01:33:55.856355 141166 net.cpp:210] Setting up relu5
I1109 01:33:55.856670 141166 net.cpp:217] Top shape: 32 256 13 13 (1384448)
I1109 01:33:55.857072 141166 net.cpp:225] Memory required for data: 261762560
I1109 01:33:55.857339 141166 layer_factory.hpp:114] Creating layer pool5
I1109 01:33:55.857617 141166 net.cpp:160] Creating Layer pool5
I1109 01:33:55.857847 141166 net.cpp:596] pool5 <- conv5
I1109 01:33:55.858088 141166 net.cpp:570] pool5 -> pool5
I1109 01:33:55.858506 141166 net.cpp:210] Setting up pool5
I1109 01:33:55.858772 141166 net.cpp:217] Top shape: 32 256 6 6 (294912)
I1109 01:33:55.859005 141166 net.cpp:225] Memory required for data: 262942208
I1109 01:33:55.859199 141166 layer_factory.hpp:114] Creating layer fc6
I1109 01:33:55.915098 141166 net.cpp:160] Creating Layer fc6
I1109 01:33:55.915422 141166 net.cpp:596] fc6 <- pool5
I1109 01:33:55.915820 141166 net.cpp:570] fc6 -> fc6
I1109 01:34:00.010112 141166 net.cpp:210] Setting up fc6
I1109 01:34:00.010422 141166 net.cpp:217] Top shape: 32 4096 (131072)
I1109 01:34:00.012461 141166 net.cpp:225] Memory required for data: 263466496
I1109 01:34:00.012822 141166 layer_factory.hpp:114] Creating layer relu6
I1109 01:34:00.015306 141166 net.cpp:160] Creating Layer relu6
I1109 01:34:00.015605 141166 net.cpp:596] relu6 <- fc6
I1109 01:34:00.015838 141166 net.cpp:557] relu6 -> fc6 (in-place)
I1109 01:34:00.016261 141166 net.cpp:210] Setting up relu6
I1109 01:34:00.016516 141166 net.cpp:217] Top shape: 32 4096 (131072)
I1109 01:34:00.016822 141166 net.cpp:225] Memory required for data: 263990784
I1109 01:34:00.017045 141166 layer_factory.hpp:114] Creating layer drop6
I1109 01:34:00.037515 141166 net.cpp:160] Creating Layer drop6
I1109 01:34:00.037842 141166 net.cpp:596] drop6 <- fc6
I1109 01:34:00.038198 141166 net.cpp:557] drop6 -> fc6 (in-place)
I1109 01:34:00.141927 141166 net.cpp:210] Setting up drop6
I1109 01:34:00.142231 141166 net.cpp:217] Top shape: 32 4096 (131072)
I1109 01:34:00.142576 141166 net.cpp:225] Memory required for data: 264515072
I1109 01:34:00.142838 141166 layer_factory.hpp:114] Creating layer fc7
I1109 01:34:00.143113 141166 net.cpp:160] Creating Layer fc7
I1109 01:34:00.143323 141166 net.cpp:596] fc7 <- fc6
I1109 01:34:00.143707 141166 net.cpp:570] fc7 -> fc7
I1109 01:34:01.854648 141166 net.cpp:210] Setting up fc7
I1109 01:34:01.855026 141166 net.cpp:217] Top shape: 32 4096 (131072)
I1109 01:34:01.855391 141166 net.cpp:225] Memory required for data: 265039360
I1109 01:34:01.855700 141166 layer_factory.hpp:114] Creating layer relu7
I1109 01:34:01.856004 141166 net.cpp:160] Creating Layer relu7
I1109 01:34:01.856225 141166 net.cpp:596] relu7 <- fc7
I1109 01:34:01.856456 141166 net.cpp:557] relu7 -> fc7 (in-place)
I1109 01:34:01.856917 141166 net.cpp:210] Setting up relu7
I1109 01:34:01.857200 141166 net.cpp:217] Top shape: 32 4096 (131072)
I1109 01:34:01.857437 141166 net.cpp:225] Memory required for data: 265563648
I1109 01:34:01.857632 141166 layer_factory.hpp:114] Creating layer drop7
I1109 01:34:01.857858 141166 net.cpp:160] Creating Layer drop7
I1109 01:34:01.858050 141166 net.cpp:596] drop7 <- fc7
I1109 01:34:01.858325 141166 net.cpp:557] drop7 -> fc7 (in-place)
I1109 01:34:01.858600 141166 net.cpp:210] Setting up drop7
I1109 01:34:01.858834 141166 net.cpp:217] Top shape: 32 4096 (131072)
I1109 01:34:01.859046 141166 net.cpp:225] Memory required for data: 266087936
I1109 01:34:01.859228 141166 layer_factory.hpp:114] Creating layer fc8
I1109 01:34:01.859469 141166 net.cpp:160] Creating Layer fc8
I1109 01:34:01.859654 141166 net.cpp:596] fc8 <- fc7
I1109 01:34:01.859871 141166 net.cpp:570] fc8 -> fc8
I1109 01:34:02.284296 141166 net.cpp:210] Setting up fc8
I1109 01:34:02.284646 141166 net.cpp:217] Top shape: 32 1000 (32000)
I1109 01:34:02.285061 141166 net.cpp:225] Memory required for data: 266215936
I1109 01:34:02.285378 141166 layer_factory.hpp:114] Creating layer loss
I1109 01:34:02.310006 141166 net.cpp:160] Creating Layer loss
I1109 01:34:02.310328 141166 net.cpp:596] loss <- fc8
I1109 01:34:02.311266 141166 net.cpp:596] loss <- label
I1109 01:34:02.338699 141166 net.cpp:570] loss -> loss
I1109 01:34:02.376466 141166 layer_factory.hpp:114] Creating layer loss
…
