…
I1109 01:13:40.774411 139536 net.cpp:484] The NetState phase (0) differed from the phase (1) specified by a rule in layer accuracy
I1109 01:13:41.410280 139536 net.cpp:120] Initializing net from parameters: 
name: "AlexNet"
state {
  phase: TRAIN
  level: 0
  stage: ""
}
layer {
  name: "data"
  type: "DummyData"
  top: "data"
  top: "label"
  include {
    phase: TRAIN
  }
  dummy_data_param {
    data_filler {
      type: "gaussian"
      std: 1
    }
    data_filler {
      type: "constant"
      value: 0
    }
    shape {
      dim: 32
      dim: 3
      dim: 227
      dim: 227
    }
    shape {
      dim: 32
      dim: 1
      dim: 1
      dim: 1
    }
  }
}
layer {
  name: "conv1"
  type: "Convolution"
  bottom: "data"
  top: "conv1"
  param {
    lr_mult: 1
    decay_mult: 1
  }
  param {
    lr_mult: 2
    decay_mult: 0
  }
  convolution_param {
    num_output: 96
    kernel_size: 11
    stride: 4
    weight_filler {
      type: "gaussian"
      std: 0.01
    }
    bias_filler {
      type: "constant"
      value: 0
    }
    engine: MKL2017
  }
}
layer {
  name: "relu1"
  type: "ReLU"
  bottom: "conv1"
  top: "conv1"
  relu_param {
    engine: MKL2017
  }
}
layer {
  name: "norm1"
  type: "LRN"
  bottom: "conv1"
  top: "norm1"
  lrn_param {
    local_size: 5
    alpha: 0.0001
    beta: 0.75
    engine: MKL2017
  }
}
layer {
  name: "pool1"
  type: "Pooling"
  bottom: "norm1"
  top: "pool1"
  pooling_param {
    pool: MAX
    kernel_size: 3
    stride: 2
    engine: MKL2017
  }
}
layer {
  name: "conv2"
  type: "Convolution"
  bottom: "pool1"
  top: "conv2"
  param {
    lr_mult: 1
    decay_mult: 1
  }
  param {
    lr_mult: 2
    decay_mult: 0
  }
  convolution_param {
    num_output: 256
    pad: 2
    kernel_size: 5
    group: 2
    weight_filler {
      type: "gaussian"
      std: 0.01
    }
    bias_filler {
      type: "constant"
      value: 0.1
    }
    engine: MKL2017
  }
}
layer {
  name: "relu2"
  type: "ReLU"
  bottom: "conv2"
  top: "conv2"
  relu_param {
    engine: MKL2017
  }
}
layer {
  name: "norm2"
  type: "LRN"
  bottom: "conv2"
  top: "norm2"
  lrn_param {
    local_size: 5
    alpha: 0.0001
    beta: 0.75
    engine: MKL2017
  }
}
layer {
  name: "pool2"
  type: "Pooling"
  bottom: "norm2"
  top: "pool2"
  pooling_param {
    pool: MAX
    kernel_size: 3
    stride: 2
    engine: MKL2017
  }
}
layer {
  name: "conv3"
  type: "Convolution"
  bottom: "pool2"
  top: "conv3"
  param {
    lr_mult: 1
    decay_mult: 1
  }
  param {
    lr_mult: 2
    decay_mult: 0
  }
  convolution_param {
    num_output: 384
    pad: 1
    kernel_size: 3
    weight_filler {
      type: "gaussian"
      std: 0.01
    }
    bias_filler {
      type: "constant"
      value: 0
    }
    engine: MKL2017
  }
}
layer {
  name: "relu3"
  type: "ReLU"
  bottom: "conv3"
  top: "conv3"
  relu_param {
    engine: MKL2017
  }
}
layer {
  name: "conv4"
  type: "Convolution"
  bottom: "conv3"
  top: "conv4"
  param {
    lr_mult: 1
    decay_mult: 1
  }
  param {
    lr_mult: 2
    decay_mult: 0
  }
  convolution_param {
    num_output: 384
    pad: 1
    kernel_size: 3
    group: 2
    weight_filler {
      type: "gaussian"
      std: 0.01
    }
    bias_filler {
      type: "constant"
      value: 0.1
    }
    engine: MKL2017
  }
}
layer {
  name: "relu4"
  type: "ReLU"
  bottom: "conv4"
  top: "conv4"
  relu_param {
    engine: MKL2017
  }
}
layer {
  name: "conv5"
  type: "Convolution"
  bottom: "conv4"
  top: "conv5"
  param {
    lr_mult: 1
    decay_mult: 1
  }
  param {
    lr_mult: 2
    decay_mult: 0
  }
  convolution_param {
    num_output: 256
    pad: 1
    kernel_size: 3
    group: 2
    weight_filler {
      type: "gaussian"
      std: 0.01
    }
    bias_filler {
      type: "constant"
      value: 0.1
    }
    engine: MKL2017
  }
}
layer {
  name: "relu5"
  type: "ReLU"
  bottom: "conv5"
  top: "conv5"
  relu_param {
    engine: MKL2017
  }
}
layer {
  name: "pool5"
  type: "Pooling"
  bottom: "conv5"
  top: "pool5"
  pooling_param {
    pool: MAX
    kernel_size: 3
    stride: 2
    engine: MKL2017
  }
}
layer {
  name: "fc6"
  type: "InnerProduct"
  bottom: "pool5"
  top: "fc6"
  param {
    lr_mult: 1
    decay_mult: 1
  }
  param {
    lr_mult: 2
    decay_mult: 0
  }
  inner_product_param {
    num_output: 4096
    weight_filler {
      type: "gaussian"
      std: 0.005
    }
    bias_filler {
      type: "constant"
      value: 0.1
    }
  }
}
layer {
  name: "relu6"
  type: "ReLU"
  bottom: "fc6"
  top: "fc6"
}
layer {
  name: "drop6"
  type: "Dropout"
  bottom: "fc6"
  top: "fc6"
  dropout_param {
    dropout_ratio: 0.5
  }
}
layer {
  name: "fc7"
  type: "InnerProduct"
  bottom: "fc6"
  top: "fc7"
  param {
    lr_mult: 1
    decay_mult: 1
  }
  param {
    lr_mult: 2
    decay_mult: 0
  }
  inner_product_param {
    num_output: 4096
    weight_filler {
      type: "gaussian"
      std: 0.005
    }
    bias_filler {
      type: "constant"
      value: 0.1
    }
  }
}
layer {
  name: "relu7"
  type: "ReLU"
  bottom: "fc7"
  top: "fc7"
}
layer {
  name: "drop7"
  type: "Dropout"
  bottom: "fc7"
  top: "fc7"
  dropout_param {
    dropout_ratio: 0.5
  }
}
layer {
  name: "fc8"
  type: "InnerProduct"
  bottom: "fc7"
  top: "fc8"
  param {
    lr_mult: 1
    decay_mult: 1
  }
  param {
    lr_mult: 2
    decay_mult: 0
  }
  inner_product_param {
    num_output: 1000
    weight_filler {
      type: "gaussian"
      std: 0.01
    }
    bias_filler {
      type: "constant"
      value: 0
    }
  }
}
layer {
  name: "loss"
  type: "SoftmaxWithLoss"
  bottom: "fc8"
  bottom: "label"
  top: "loss"
}
I1109 01:13:43.858948 139536 layer_factory.hpp:114] Creating layer data
I1109 01:13:44.006649 139536 net.cpp:160] Creating Layer data
I1109 01:13:44.054519 139536 net.cpp:570] data -> data
I1109 01:13:44.525921 139536 net.cpp:570] data -> label
I1109 01:13:51.564754 139536 net.cpp:210] Setting up data
I1109 01:13:51.648720 139536 net.cpp:217] Top shape: 32 3 227 227 (4946784)
I1109 01:13:51.753885 139536 net.cpp:217] Top shape: 32 1 1 1 (32)
I1109 01:13:51.761104 139536 net.cpp:225] Memory required for data: 19787264
I1109 01:13:51.828585 139536 layer_factory.hpp:114] Creating layer conv1
I1109 01:13:52.157866 139536 net.cpp:160] Creating Layer conv1
I1109 01:13:52.210969 139536 net.cpp:596] conv1 <- data
I1109 01:13:52.331924 139536 net.cpp:570] conv1 -> conv1
I1109 01:14:25.265671 139536 net.cpp:210] Setting up conv1
I1109 01:14:25.272076 139536 net.cpp:217] Top shape: 32 96 55 55 (9292800)
I1109 01:14:25.272467 139536 net.cpp:225] Memory required for data: 56958464
I1109 01:14:25.558161 139536 layer_factory.hpp:114] Creating layer relu1
I1109 01:14:25.678241 139536 net.cpp:160] Creating Layer relu1
I1109 01:14:25.682862 139536 net.cpp:596] relu1 <- conv1
I1109 01:14:25.714993 139536 net.cpp:557] relu1 -> conv1 (in-place)
I1109 01:14:25.914957 139536 net.cpp:210] Setting up relu1
I1109 01:14:25.917414 139536 net.cpp:217] Top shape: 32 96 55 55 (9292800)
I1109 01:14:25.917757 139536 net.cpp:225] Memory required for data: 94129664
I1109 01:14:25.917970 139536 layer_factory.hpp:114] Creating layer norm1
I1109 01:14:26.022686 139536 net.cpp:160] Creating Layer norm1
I1109 01:14:26.023001 139536 net.cpp:596] norm1 <- conv1
I1109 01:14:26.025563 139536 net.cpp:570] norm1 -> norm1
I1109 01:14:26.246850 139536 net.cpp:210] Setting up norm1
I1109 01:14:26.259629 139536 net.cpp:217] Top shape: 32 96 55 55 (9292800)
I1109 01:14:26.260010 139536 net.cpp:225] Memory required for data: 131300864
I1109 01:14:26.260313 139536 layer_factory.hpp:114] Creating layer pool1
I1109 01:14:26.354768 139536 net.cpp:160] Creating Layer pool1
I1109 01:14:26.355082 139536 net.cpp:596] pool1 <- norm1
I1109 01:14:26.369810 139536 net.cpp:570] pool1 -> pool1
I1109 01:14:26.669605 139536 net.cpp:210] Setting up pool1
I1109 01:14:26.672052 139536 net.cpp:217] Top shape: 32 96 27 27 (2239488)
I1109 01:14:26.672381 139536 net.cpp:225] Memory required for data: 140258816
I1109 01:14:26.672600 139536 layer_factory.hpp:114] Creating layer conv2
I1109 01:14:26.672997 139536 net.cpp:160] Creating Layer conv2
I1109 01:14:26.673271 139536 net.cpp:596] conv2 <- pool1
I1109 01:14:26.673524 139536 net.cpp:570] conv2 -> conv2
I1109 01:14:32.418443 139536 net.cpp:210] Setting up conv2
I1109 01:14:32.418798 139536 net.cpp:217] Top shape: 32 256 27 27 (5971968)
I1109 01:14:32.419266 139536 net.cpp:225] Memory required for data: 164146688
I1109 01:14:32.470099 139536 layer_factory.hpp:114] Creating layer relu2
I1109 01:14:32.470533 139536 net.cpp:160] Creating Layer relu2
I1109 01:14:32.470897 139536 net.cpp:596] relu2 <- conv2
I1109 01:14:32.471165 139536 net.cpp:557] relu2 -> conv2 (in-place)
I1109 01:14:32.471659 139536 net.cpp:210] Setting up relu2
I1109 01:14:32.471926 139536 net.cpp:217] Top shape: 32 256 27 27 (5971968)
I1109 01:14:32.472159 139536 net.cpp:225] Memory required for data: 188034560
I1109 01:14:32.472350 139536 layer_factory.hpp:114] Creating layer norm2
I1109 01:14:32.472595 139536 net.cpp:160] Creating Layer norm2
I1109 01:14:32.472828 139536 net.cpp:596] norm2 <- conv2
I1109 01:14:32.473120 139536 net.cpp:570] norm2 -> norm2
I1109 01:14:32.475188 139536 net.cpp:210] Setting up norm2
I1109 01:14:32.475494 139536 net.cpp:217] Top shape: 32 256 27 27 (5971968)
I1109 01:14:32.475734 139536 net.cpp:225] Memory required for data: 211922432
I1109 01:14:32.475929 139536 layer_factory.hpp:114] Creating layer pool2
I1109 01:14:32.476807 139536 net.cpp:160] Creating Layer pool2
I1109 01:14:32.477157 139536 net.cpp:596] pool2 <- norm2
I1109 01:14:32.477454 139536 net.cpp:570] pool2 -> pool2
I1109 01:14:32.477885 139536 net.cpp:210] Setting up pool2
I1109 01:14:32.478137 139536 net.cpp:217] Top shape: 32 256 13 13 (1384448)
I1109 01:14:32.478375 139536 net.cpp:225] Memory required for data: 217460224
I1109 01:14:32.478590 139536 layer_factory.hpp:114] Creating layer conv3
I1109 01:14:32.478947 139536 net.cpp:160] Creating Layer conv3
I1109 01:14:32.479178 139536 net.cpp:596] conv3 <- pool2
I1109 01:14:32.479437 139536 net.cpp:570] conv3 -> conv3
I1109 01:14:32.960449 139536 net.cpp:210] Setting up conv3
I1109 01:14:32.963486 139536 net.cpp:217] Top shape: 32 384 13 13 (2076672)
I1109 01:14:32.964006 139536 net.cpp:225] Memory required for data: 225766912
I1109 01:14:32.967401 139536 layer_factory.hpp:114] Creating layer relu3
I1109 01:14:32.967834 139536 net.cpp:160] Creating Layer relu3
I1109 01:14:32.968164 139536 net.cpp:596] relu3 <- conv3
I1109 01:14:32.968459 139536 net.cpp:557] relu3 -> conv3 (in-place)
I1109 01:14:32.972834 139536 net.cpp:210] Setting up relu3
I1109 01:14:32.973177 139536 net.cpp:217] Top shape: 32 384 13 13 (2076672)
I1109 01:14:32.973453 139536 net.cpp:225] Memory required for data: 234073600
I1109 01:14:32.973666 139536 layer_factory.hpp:114] Creating layer conv4
I1109 01:14:32.974048 139536 net.cpp:160] Creating Layer conv4
I1109 01:14:32.974319 139536 net.cpp:596] conv4 <- conv3
I1109 01:14:32.974583 139536 net.cpp:570] conv4 -> conv4
I1109 01:14:33.243438 139536 net.cpp:210] Setting up conv4
I1109 01:14:33.243870 139536 net.cpp:217] Top shape: 32 384 13 13 (2076672)
I1109 01:14:33.244279 139536 net.cpp:225] Memory required for data: 242380288
I1109 01:14:33.244633 139536 layer_factory.hpp:114] Creating layer relu4
I1109 01:14:33.244997 139536 net.cpp:160] Creating Layer relu4
I1109 01:14:33.245245 139536 net.cpp:596] relu4 <- conv4
I1109 01:14:33.245496 139536 net.cpp:557] relu4 -> conv4 (in-place)
I1109 01:14:33.257664 139536 net.cpp:210] Setting up relu4
I1109 01:14:33.257998 139536 net.cpp:217] Top shape: 32 384 13 13 (2076672)
I1109 01:14:33.258272 139536 net.cpp:225] Memory required for data: 250686976
I1109 01:14:33.258491 139536 layer_factory.hpp:114] Creating layer conv5
I1109 01:14:33.258882 139536 net.cpp:160] Creating Layer conv5
I1109 01:14:33.259141 139536 net.cpp:596] conv5 <- conv4
I1109 01:14:33.259412 139536 net.cpp:570] conv5 -> conv5
I1109 01:14:33.427460 139536 net.cpp:210] Setting up conv5
I1109 01:14:33.427857 139536 net.cpp:217] Top shape: 32 256 13 13 (1384448)
I1109 01:14:33.428319 139536 net.cpp:225] Memory required for data: 256224768
I1109 01:14:33.433009 139536 layer_factory.hpp:114] Creating layer relu5
I1109 01:14:33.433420 139536 net.cpp:160] Creating Layer relu5
I1109 01:14:33.433717 139536 net.cpp:596] relu5 <- conv5
I1109 01:14:33.434015 139536 net.cpp:557] relu5 -> conv5 (in-place)
I1109 01:14:33.434541 139536 net.cpp:210] Setting up relu5
I1109 01:14:33.434900 139536 net.cpp:217] Top shape: 32 256 13 13 (1384448)
I1109 01:14:33.435164 139536 net.cpp:225] Memory required for data: 261762560
I1109 01:14:33.435382 139536 layer_factory.hpp:114] Creating layer pool5
I1109 01:14:33.435652 139536 net.cpp:160] Creating Layer pool5
I1109 01:14:33.435873 139536 net.cpp:596] pool5 <- conv5
I1109 01:14:33.436105 139536 net.cpp:570] pool5 -> pool5
I1109 01:14:33.436501 139536 net.cpp:210] Setting up pool5
I1109 01:14:33.436758 139536 net.cpp:217] Top shape: 32 256 6 6 (294912)
I1109 01:14:33.437088 139536 net.cpp:225] Memory required for data: 262942208
I1109 01:14:33.437299 139536 layer_factory.hpp:114] Creating layer fc6
I1109 01:14:33.491490 139536 net.cpp:160] Creating Layer fc6
I1109 01:14:33.491803 139536 net.cpp:596] fc6 <- pool5
I1109 01:14:33.492197 139536 net.cpp:570] fc6 -> fc6
I1109 01:14:37.579253 139536 net.cpp:210] Setting up fc6
I1109 01:14:37.579563 139536 net.cpp:217] Top shape: 32 4096 (131072)
I1109 01:14:37.581662 139536 net.cpp:225] Memory required for data: 263466496
I1109 01:14:37.581977 139536 layer_factory.hpp:114] Creating layer relu6
I1109 01:14:37.584440 139536 net.cpp:160] Creating Layer relu6
I1109 01:14:37.584738 139536 net.cpp:596] relu6 <- fc6
I1109 01:14:37.585029 139536 net.cpp:557] relu6 -> fc6 (in-place)
I1109 01:14:37.585458 139536 net.cpp:210] Setting up relu6
I1109 01:14:37.585714 139536 net.cpp:217] Top shape: 32 4096 (131072)
I1109 01:14:37.585943 139536 net.cpp:225] Memory required for data: 263990784
I1109 01:14:37.586134 139536 layer_factory.hpp:114] Creating layer drop6
I1109 01:14:37.606515 139536 net.cpp:160] Creating Layer drop6
I1109 01:14:37.606838 139536 net.cpp:596] drop6 <- fc6
I1109 01:14:37.607190 139536 net.cpp:557] drop6 -> fc6 (in-place)
I1109 01:14:37.710752 139536 net.cpp:210] Setting up drop6
I1109 01:14:37.711050 139536 net.cpp:217] Top shape: 32 4096 (131072)
I1109 01:14:37.711391 139536 net.cpp:225] Memory required for data: 264515072
I1109 01:14:37.711637 139536 layer_factory.hpp:114] Creating layer fc7
I1109 01:14:37.711915 139536 net.cpp:160] Creating Layer fc7
I1109 01:14:37.712126 139536 net.cpp:596] fc7 <- fc6
I1109 01:14:37.712517 139536 net.cpp:570] fc7 -> fc7
I1109 01:14:39.425382 139536 net.cpp:210] Setting up fc7
I1109 01:14:39.425752 139536 net.cpp:217] Top shape: 32 4096 (131072)
I1109 01:14:39.426182 139536 net.cpp:225] Memory required for data: 265039360
I1109 01:14:39.426551 139536 layer_factory.hpp:114] Creating layer relu7
I1109 01:14:39.426890 139536 net.cpp:160] Creating Layer relu7
I1109 01:14:39.427144 139536 net.cpp:596] relu7 <- fc7
I1109 01:14:39.427404 139536 net.cpp:557] relu7 -> fc7 (in-place)
I1109 01:14:39.427862 139536 net.cpp:210] Setting up relu7
I1109 01:14:39.428154 139536 net.cpp:217] Top shape: 32 4096 (131072)
I1109 01:14:39.428411 139536 net.cpp:225] Memory required for data: 265563648
I1109 01:14:39.428617 139536 layer_factory.hpp:114] Creating layer drop7
I1109 01:14:39.428905 139536 net.cpp:160] Creating Layer drop7
I1109 01:14:39.429172 139536 net.cpp:596] drop7 <- fc7
I1109 01:14:39.429441 139536 net.cpp:557] drop7 -> fc7 (in-place)
I1109 01:14:39.429739 139536 net.cpp:210] Setting up drop7
I1109 01:14:39.430042 139536 net.cpp:217] Top shape: 32 4096 (131072)
I1109 01:14:39.430270 139536 net.cpp:225] Memory required for data: 266087936
I1109 01:14:39.430464 139536 layer_factory.hpp:114] Creating layer fc8
I1109 01:14:39.430729 139536 net.cpp:160] Creating Layer fc8
I1109 01:14:39.430938 139536 net.cpp:596] fc8 <- fc7
I1109 01:14:39.431174 139536 net.cpp:570] fc8 -> fc8
I1109 01:14:39.855365 139536 net.cpp:210] Setting up fc8
I1109 01:14:39.855734 139536 net.cpp:217] Top shape: 32 1000 (32000)
I1109 01:14:39.856151 139536 net.cpp:225] Memory required for data: 266215936
I1109 01:14:39.856508 139536 layer_factory.hpp:114] Creating layer loss
I1109 01:14:39.881235 139536 net.cpp:160] Creating Layer loss
I1109 01:14:39.881556 139536 net.cpp:596] loss <- fc8
I1109 01:14:39.882469 139536 net.cpp:596] loss <- label
I1109 01:14:39.910682 139536 net.cpp:570] loss -> loss
I1109 01:14:39.948699 139536 layer_factory.hpp:114] Creating layer loss
…
