…
I1109 03:38:31.374465 145154 net.cpp:484] The NetState phase (0) differed from the phase (1) specified by a rule in layer accuracy
I1109 03:38:32.016983 145154 net.cpp:120] Initializing net from parameters: 
name: "AlexNet"
state {
  phase: TRAIN
  level: 0
  stage: ""
}
layer {
  name: "data"
  type: "DummyData"
  top: "data"
  top: "label"
  include {
    phase: TRAIN
  }
  dummy_data_param {
    data_filler {
      type: "gaussian"
      std: 1
    }
    data_filler {
      type: "constant"
      value: 0
    }
    shape {
      dim: 32
      dim: 3
      dim: 227
      dim: 227
    }
    shape {
      dim: 32
      dim: 1
      dim: 1
      dim: 1
    }
  }
}
layer {
  name: "conv1"
  type: "Convolution"
  bottom: "data"
  top: "conv1"
  param {
    lr_mult: 1
    decay_mult: 1
  }
  param {
    lr_mult: 2
    decay_mult: 0
  }
  convolution_param {
    num_output: 96
    kernel_size: 11
    stride: 4
    weight_filler {
      type: "gaussian"
      std: 0.01
    }
    bias_filler {
      type: "constant"
      value: 0
    }
    engine: MKL2017
  }
}
layer {
  name: "relu1"
  type: "ReLU"
  bottom: "conv1"
  top: "conv1"
  relu_param {
    engine: MKL2017
  }
}
layer {
  name: "norm1"
  type: "LRN"
  bottom: "conv1"
  top: "norm1"
  lrn_param {
    local_size: 5
    alpha: 0.0001
    beta: 0.75
    engine: MKL2017
  }
}
layer {
  name: "pool1"
  type: "Pooling"
  bottom: "norm1"
  top: "pool1"
  pooling_param {
    pool: MAX
    kernel_size: 3
    stride: 2
    engine: MKL2017
  }
}
layer {
  name: "conv2"
  type: "Convolution"
  bottom: "pool1"
  top: "conv2"
  param {
    lr_mult: 1
    decay_mult: 1
  }
  param {
    lr_mult: 2
    decay_mult: 0
  }
  convolution_param {
    num_output: 256
    pad: 2
    kernel_size: 5
    group: 2
    weight_filler {
      type: "gaussian"
      std: 0.01
    }
    bias_filler {
      type: "constant"
      value: 0.1
    }
    engine: MKL2017
  }
}
layer {
  name: "relu2"
  type: "ReLU"
  bottom: "conv2"
  top: "conv2"
  relu_param {
    engine: MKL2017
  }
}
layer {
  name: "norm2"
  type: "LRN"
  bottom: "conv2"
  top: "norm2"
  lrn_param {
    local_size: 5
    alpha: 0.0001
    beta: 0.75
    engine: MKL2017
  }
}
layer {
  name: "pool2"
  type: "Pooling"
  bottom: "norm2"
  top: "pool2"
  pooling_param {
    pool: MAX
    kernel_size: 3
    stride: 2
    engine: MKL2017
  }
}
layer {
  name: "conv3"
  type: "Convolution"
  bottom: "pool2"
  top: "conv3"
  param {
    lr_mult: 1
    decay_mult: 1
  }
  param {
    lr_mult: 2
    decay_mult: 0
  }
  convolution_param {
    num_output: 384
    pad: 1
    kernel_size: 3
    weight_filler {
      type: "gaussian"
      std: 0.01
    }
    bias_filler {
      type: "constant"
      value: 0
    }
    engine: MKL2017
  }
}
layer {
  name: "relu3"
  type: "ReLU"
  bottom: "conv3"
  top: "conv3"
  relu_param {
    engine: MKL2017
  }
}
layer {
  name: "conv4"
  type: "Convolution"
  bottom: "conv3"
  top: "conv4"
  param {
    lr_mult: 1
    decay_mult: 1
  }
  param {
    lr_mult: 2
    decay_mult: 0
  }
  convolution_param {
    num_output: 384
    pad: 1
    kernel_size: 3
    group: 2
    weight_filler {
      type: "gaussian"
      std: 0.01
    }
    bias_filler {
      type: "constant"
      value: 0.1
    }
    engine: MKL2017
  }
}
layer {
  name: "relu4"
  type: "ReLU"
  bottom: "conv4"
  top: "conv4"
  relu_param {
    engine: MKL2017
  }
}
layer {
  name: "conv5"
  type: "Convolution"
  bottom: "conv4"
  top: "conv5"
  param {
    lr_mult: 1
    decay_mult: 1
  }
  param {
    lr_mult: 2
    decay_mult: 0
  }
  convolution_param {
    num_output: 256
    pad: 1
    kernel_size: 3
    group: 2
    weight_filler {
      type: "gaussian"
      std: 0.01
    }
    bias_filler {
      type: "constant"
      value: 0.1
    }
    engine: MKL2017
  }
}
layer {
  name: "relu5"
  type: "ReLU"
  bottom: "conv5"
  top: "conv5"
  relu_param {
    engine: MKL2017
  }
}
layer {
  name: "pool5"
  type: "Pooling"
  bottom: "conv5"
  top: "pool5"
  pooling_param {
    pool: MAX
    kernel_size: 3
    stride: 2
    engine: MKL2017
  }
}
layer {
  name: "fc6"
  type: "InnerProduct"
  bottom: "pool5"
  top: "fc6"
  param {
    lr_mult: 1
    decay_mult: 1
  }
  param {
    lr_mult: 2
    decay_mult: 0
  }
  inner_product_param {
    num_output: 4096
    weight_filler {
      type: "gaussian"
      std: 0.005
    }
    bias_filler {
      type: "constant"
      value: 0.1
    }
  }
}
layer {
  name: "relu6"
  type: "ReLU"
  bottom: "fc6"
  top: "fc6"
}
layer {
  name: "drop6"
  type: "Dropout"
  bottom: "fc6"
  top: "fc6"
  dropout_param {
    dropout_ratio: 0.5
  }
}
layer {
  name: "fc7"
  type: "InnerProduct"
  bottom: "fc6"
  top: "fc7"
  param {
    lr_mult: 1
    decay_mult: 1
  }
  param {
    lr_mult: 2
    decay_mult: 0
  }
  inner_product_param {
    num_output: 4096
    weight_filler {
      type: "gaussian"
      std: 0.005
    }
    bias_filler {
      type: "constant"
      value: 0.1
    }
  }
}
layer {
  name: "relu7"
  type: "ReLU"
  bottom: "fc7"
  top: "fc7"
}
layer {
  name: "drop7"
  type: "Dropout"
  bottom: "fc7"
  top: "fc7"
  dropout_param {
    dropout_ratio: 0.5
  }
}
layer {
  name: "fc8"
  type: "InnerProduct"
  bottom: "fc7"
  top: "fc8"
  param {
    lr_mult: 1
    decay_mult: 1
  }
  param {
    lr_mult: 2
    decay_mult: 0
  }
  inner_product_param {
    num_output: 1000
    weight_filler {
      type: "gaussian"
      std: 0.01
    }
    bias_filler {
      type: "constant"
      value: 0
    }
  }
}
layer {
  name: "loss"
  type: "SoftmaxWithLoss"
  bottom: "fc8"
  bottom: "label"
  top: "loss"
}
I1109 03:38:34.472467 145154 layer_factory.hpp:114] Creating layer data
I1109 03:38:34.621644 145154 net.cpp:160] Creating Layer data
I1109 03:38:34.669729 145154 net.cpp:570] data -> data
I1109 03:38:35.135038 145154 net.cpp:570] data -> label
I1109 03:38:42.208150 145154 net.cpp:210] Setting up data
I1109 03:38:42.287233 145154 net.cpp:217] Top shape: 32 3 227 227 (4946784)
I1109 03:38:42.391479 145154 net.cpp:217] Top shape: 32 1 1 1 (32)
I1109 03:38:42.398689 145154 net.cpp:225] Memory required for data: 19787264
I1109 03:38:42.467300 145154 layer_factory.hpp:114] Creating layer conv1
I1109 03:38:42.801347 145154 net.cpp:160] Creating Layer conv1
I1109 03:38:42.851150 145154 net.cpp:596] conv1 <- data
I1109 03:38:42.970893 145154 net.cpp:570] conv1 -> conv1
I1109 03:39:15.910284 145154 net.cpp:210] Setting up conv1
I1109 03:39:15.917243 145154 net.cpp:217] Top shape: 32 96 55 55 (9292800)
I1109 03:39:15.917632 145154 net.cpp:225] Memory required for data: 56958464
I1109 03:39:16.209010 145154 layer_factory.hpp:114] Creating layer relu1
I1109 03:39:16.333528 145154 net.cpp:160] Creating Layer relu1
I1109 03:39:16.338184 145154 net.cpp:596] relu1 <- conv1
I1109 03:39:16.371799 145154 net.cpp:557] relu1 -> conv1 (in-place)
I1109 03:39:16.567484 145154 net.cpp:210] Setting up relu1
I1109 03:39:16.569944 145154 net.cpp:217] Top shape: 32 96 55 55 (9292800)
I1109 03:39:16.570292 145154 net.cpp:225] Memory required for data: 94129664
I1109 03:39:16.570499 145154 layer_factory.hpp:114] Creating layer norm1
I1109 03:39:16.679292 145154 net.cpp:160] Creating Layer norm1
I1109 03:39:16.679615 145154 net.cpp:596] norm1 <- conv1
I1109 03:39:16.682183 145154 net.cpp:570] norm1 -> norm1
I1109 03:39:16.921017 145154 net.cpp:210] Setting up norm1
I1109 03:39:16.934180 145154 net.cpp:217] Top shape: 32 96 55 55 (9292800)
I1109 03:39:16.934557 145154 net.cpp:225] Memory required for data: 131300864
I1109 03:39:16.934919 145154 layer_factory.hpp:114] Creating layer pool1
I1109 03:39:17.030390 145154 net.cpp:160] Creating Layer pool1
I1109 03:39:17.030699 145154 net.cpp:596] pool1 <- norm1
I1109 03:39:17.045724 145154 net.cpp:570] pool1 -> pool1
I1109 03:39:17.350558 145154 net.cpp:210] Setting up pool1
I1109 03:39:17.353130 145154 net.cpp:217] Top shape: 32 96 27 27 (2239488)
I1109 03:39:17.353485 145154 net.cpp:225] Memory required for data: 140258816
I1109 03:39:17.353708 145154 layer_factory.hpp:114] Creating layer conv2
I1109 03:39:17.354090 145154 net.cpp:160] Creating Layer conv2
I1109 03:39:17.354310 145154 net.cpp:596] conv2 <- pool1
I1109 03:39:17.354539 145154 net.cpp:570] conv2 -> conv2
I1109 03:39:23.250622 145154 net.cpp:210] Setting up conv2
I1109 03:39:23.250955 145154 net.cpp:217] Top shape: 32 256 27 27 (5971968)
I1109 03:39:23.251413 145154 net.cpp:225] Memory required for data: 164146688
I1109 03:39:23.302657 145154 layer_factory.hpp:114] Creating layer relu2
I1109 03:39:23.303084 145154 net.cpp:160] Creating Layer relu2
I1109 03:39:23.303455 145154 net.cpp:596] relu2 <- conv2
I1109 03:39:23.303719 145154 net.cpp:557] relu2 -> conv2 (in-place)
I1109 03:39:23.304152 145154 net.cpp:210] Setting up relu2
I1109 03:39:23.304415 145154 net.cpp:217] Top shape: 32 256 27 27 (5971968)
I1109 03:39:23.304644 145154 net.cpp:225] Memory required for data: 188034560
I1109 03:39:23.304878 145154 layer_factory.hpp:114] Creating layer norm2
I1109 03:39:23.305136 145154 net.cpp:160] Creating Layer norm2
I1109 03:39:23.305337 145154 net.cpp:596] norm2 <- conv2
I1109 03:39:23.305593 145154 net.cpp:570] norm2 -> norm2
I1109 03:39:23.307638 145154 net.cpp:210] Setting up norm2
I1109 03:39:23.307945 145154 net.cpp:217] Top shape: 32 256 27 27 (5971968)
I1109 03:39:23.308176 145154 net.cpp:225] Memory required for data: 211922432
I1109 03:39:23.308394 145154 layer_factory.hpp:114] Creating layer pool2
I1109 03:39:23.309378 145154 net.cpp:160] Creating Layer pool2
I1109 03:39:23.309691 145154 net.cpp:596] pool2 <- norm2
I1109 03:39:23.309948 145154 net.cpp:570] pool2 -> pool2
I1109 03:39:23.310370 145154 net.cpp:210] Setting up pool2
I1109 03:39:23.310633 145154 net.cpp:217] Top shape: 32 256 13 13 (1384448)
I1109 03:39:23.310868 145154 net.cpp:225] Memory required for data: 217460224
I1109 03:39:23.311071 145154 layer_factory.hpp:114] Creating layer conv3
I1109 03:39:23.311419 145154 net.cpp:160] Creating Layer conv3
I1109 03:39:23.311700 145154 net.cpp:596] conv3 <- pool2
I1109 03:39:23.312019 145154 net.cpp:570] conv3 -> conv3
I1109 03:39:23.791998 145154 net.cpp:210] Setting up conv3
I1109 03:39:23.794422 145154 net.cpp:217] Top shape: 32 384 13 13 (2076672)
I1109 03:39:23.794772 145154 net.cpp:225] Memory required for data: 225766912
I1109 03:39:23.797890 145154 layer_factory.hpp:114] Creating layer relu3
I1109 03:39:23.798305 145154 net.cpp:160] Creating Layer relu3
I1109 03:39:23.798585 145154 net.cpp:596] relu3 <- conv3
I1109 03:39:23.798823 145154 net.cpp:557] relu3 -> conv3 (in-place)
I1109 03:39:23.802942 145154 net.cpp:210] Setting up relu3
I1109 03:39:23.803293 145154 net.cpp:217] Top shape: 32 384 13 13 (2076672)
I1109 03:39:23.803552 145154 net.cpp:225] Memory required for data: 234073600
I1109 03:39:23.803758 145154 layer_factory.hpp:114] Creating layer conv4
I1109 03:39:23.804149 145154 net.cpp:160] Creating Layer conv4
I1109 03:39:23.804407 145154 net.cpp:596] conv4 <- conv3
I1109 03:39:23.804649 145154 net.cpp:570] conv4 -> conv4
I1109 03:39:24.049742 145154 net.cpp:210] Setting up conv4
I1109 03:39:24.050132 145154 net.cpp:217] Top shape: 32 384 13 13 (2076672)
I1109 03:39:24.050530 145154 net.cpp:225] Memory required for data: 242380288
I1109 03:39:24.050865 145154 layer_factory.hpp:114] Creating layer relu4
I1109 03:39:24.051161 145154 net.cpp:160] Creating Layer relu4
I1109 03:39:24.051393 145154 net.cpp:596] relu4 <- conv4
I1109 03:39:24.051630 145154 net.cpp:557] relu4 -> conv4 (in-place)
I1109 03:39:24.064075 145154 net.cpp:210] Setting up relu4
I1109 03:39:24.064447 145154 net.cpp:217] Top shape: 32 384 13 13 (2076672)
I1109 03:39:24.064894 145154 net.cpp:225] Memory required for data: 250686976
I1109 03:39:24.065143 145154 layer_factory.hpp:114] Creating layer conv5
I1109 03:39:24.065510 145154 net.cpp:160] Creating Layer conv5
I1109 03:39:24.065752 145154 net.cpp:596] conv5 <- conv4
I1109 03:39:24.065994 145154 net.cpp:570] conv5 -> conv5
I1109 03:39:24.234340 145154 net.cpp:210] Setting up conv5
I1109 03:39:24.234724 145154 net.cpp:217] Top shape: 32 256 13 13 (1384448)
I1109 03:39:24.235167 145154 net.cpp:225] Memory required for data: 256224768
I1109 03:39:24.239787 145154 layer_factory.hpp:114] Creating layer relu5
I1109 03:39:24.240234 145154 net.cpp:160] Creating Layer relu5
I1109 03:39:24.240492 145154 net.cpp:596] relu5 <- conv5
I1109 03:39:24.240871 145154 net.cpp:557] relu5 -> conv5 (in-place)
I1109 03:39:24.241381 145154 net.cpp:210] Setting up relu5
I1109 03:39:24.241670 145154 net.cpp:217] Top shape: 32 256 13 13 (1384448)
I1109 03:39:24.241916 145154 net.cpp:225] Memory required for data: 261762560
I1109 03:39:24.242120 145154 layer_factory.hpp:114] Creating layer pool5
I1109 03:39:24.242373 145154 net.cpp:160] Creating Layer pool5
I1109 03:39:24.242589 145154 net.cpp:596] pool5 <- conv5
I1109 03:39:24.242843 145154 net.cpp:570] pool5 -> pool5
I1109 03:39:24.243260 145154 net.cpp:210] Setting up pool5
I1109 03:39:24.243561 145154 net.cpp:217] Top shape: 32 256 6 6 (294912)
I1109 03:39:24.243778 145154 net.cpp:225] Memory required for data: 262942208
I1109 03:39:24.243962 145154 layer_factory.hpp:114] Creating layer fc6
I1109 03:39:24.298899 145154 net.cpp:160] Creating Layer fc6
I1109 03:39:24.299208 145154 net.cpp:596] fc6 <- pool5
I1109 03:39:24.299602 145154 net.cpp:570] fc6 -> fc6
I1109 03:39:28.388984 145154 net.cpp:210] Setting up fc6
I1109 03:39:28.389291 145154 net.cpp:217] Top shape: 32 4096 (131072)
I1109 03:39:28.391414 145154 net.cpp:225] Memory required for data: 263466496
I1109 03:39:28.391724 145154 layer_factory.hpp:114] Creating layer relu6
I1109 03:39:28.394273 145154 net.cpp:160] Creating Layer relu6
I1109 03:39:28.394573 145154 net.cpp:596] relu6 <- fc6
I1109 03:39:28.394798 145154 net.cpp:557] relu6 -> fc6 (in-place)
I1109 03:39:28.395215 145154 net.cpp:210] Setting up relu6
I1109 03:39:28.395473 145154 net.cpp:217] Top shape: 32 4096 (131072)
I1109 03:39:28.395694 145154 net.cpp:225] Memory required for data: 263990784
I1109 03:39:28.395915 145154 layer_factory.hpp:114] Creating layer drop6
I1109 03:39:28.416108 145154 net.cpp:160] Creating Layer drop6
I1109 03:39:28.416416 145154 net.cpp:596] drop6 <- fc6
I1109 03:39:28.416831 145154 net.cpp:557] drop6 -> fc6 (in-place)
I1109 03:39:28.522912 145154 net.cpp:210] Setting up drop6
I1109 03:39:28.523213 145154 net.cpp:217] Top shape: 32 4096 (131072)
I1109 03:39:28.523550 145154 net.cpp:225] Memory required for data: 264515072
I1109 03:39:28.523792 145154 layer_factory.hpp:114] Creating layer fc7
I1109 03:39:28.524062 145154 net.cpp:160] Creating Layer fc7
I1109 03:39:28.524276 145154 net.cpp:596] fc7 <- fc6
I1109 03:39:28.524660 145154 net.cpp:570] fc7 -> fc7
I1109 03:39:30.235255 145154 net.cpp:210] Setting up fc7
I1109 03:39:30.235591 145154 net.cpp:217] Top shape: 32 4096 (131072)
I1109 03:39:30.235957 145154 net.cpp:225] Memory required for data: 265039360
I1109 03:39:30.236282 145154 layer_factory.hpp:114] Creating layer relu7
I1109 03:39:30.236582 145154 net.cpp:160] Creating Layer relu7
I1109 03:39:30.236842 145154 net.cpp:596] relu7 <- fc7
I1109 03:39:30.237090 145154 net.cpp:557] relu7 -> fc7 (in-place)
I1109 03:39:30.237514 145154 net.cpp:210] Setting up relu7
I1109 03:39:30.237783 145154 net.cpp:217] Top shape: 32 4096 (131072)
I1109 03:39:30.238014 145154 net.cpp:225] Memory required for data: 265563648
I1109 03:39:30.238236 145154 layer_factory.hpp:114] Creating layer drop7
I1109 03:39:30.238473 145154 net.cpp:160] Creating Layer drop7
I1109 03:39:30.238677 145154 net.cpp:596] drop7 <- fc7
I1109 03:39:30.238978 145154 net.cpp:557] drop7 -> fc7 (in-place)
I1109 03:39:30.239266 145154 net.cpp:210] Setting up drop7
I1109 03:39:30.239461 145154 net.cpp:217] Top shape: 32 4096 (131072)
I1109 03:39:30.239670 145154 net.cpp:225] Memory required for data: 266087936
I1109 03:39:30.239848 145154 layer_factory.hpp:114] Creating layer fc8
I1109 03:39:30.240090 145154 net.cpp:160] Creating Layer fc8
I1109 03:39:30.240278 145154 net.cpp:596] fc8 <- fc7
I1109 03:39:30.240499 145154 net.cpp:570] fc8 -> fc8
I1109 03:39:30.664476 145154 net.cpp:210] Setting up fc8
I1109 03:39:30.664918 145154 net.cpp:217] Top shape: 32 1000 (32000)
I1109 03:39:30.665324 145154 net.cpp:225] Memory required for data: 266215936
I1109 03:39:30.665658 145154 layer_factory.hpp:114] Creating layer loss
I1109 03:39:30.690351 145154 net.cpp:160] Creating Layer loss
I1109 03:39:30.690665 145154 net.cpp:596] loss <- fc8
I1109 03:39:30.691699 145154 net.cpp:596] loss <- label
I1109 03:39:30.719081 145154 net.cpp:570] loss -> loss
I1109 03:39:30.757087 145154 layer_factory.hpp:114] Creating layer loss
…
