…
I1109 02:43:23.522305 143881 net.cpp:484] The NetState phase (0) differed from the phase (1) specified by a rule in layer accuracy
I1109 02:43:24.155782 143881 net.cpp:120] Initializing net from parameters: 
name: "AlexNet"
state {
  phase: TRAIN
  level: 0
  stage: ""
}
layer {
  name: "data"
  type: "DummyData"
  top: "data"
  top: "label"
  include {
    phase: TRAIN
  }
  dummy_data_param {
    data_filler {
      type: "gaussian"
      std: 1
    }
    data_filler {
      type: "constant"
      value: 0
    }
    shape {
      dim: 32
      dim: 3
      dim: 227
      dim: 227
    }
    shape {
      dim: 32
      dim: 1
      dim: 1
      dim: 1
    }
  }
}
layer {
  name: "conv1"
  type: "Convolution"
  bottom: "data"
  top: "conv1"
  param {
    lr_mult: 1
    decay_mult: 1
  }
  param {
    lr_mult: 2
    decay_mult: 0
  }
  convolution_param {
    num_output: 96
    kernel_size: 11
    stride: 4
    weight_filler {
      type: "gaussian"
      std: 0.01
    }
    bias_filler {
      type: "constant"
      value: 0
    }
    engine: MKL2017
  }
}
layer {
  name: "relu1"
  type: "ReLU"
  bottom: "conv1"
  top: "conv1"
  relu_param {
    engine: MKL2017
  }
}
layer {
  name: "norm1"
  type: "LRN"
  bottom: "conv1"
  top: "norm1"
  lrn_param {
    local_size: 5
    alpha: 0.0001
    beta: 0.75
    engine: MKL2017
  }
}
layer {
  name: "pool1"
  type: "Pooling"
  bottom: "norm1"
  top: "pool1"
  pooling_param {
    pool: MAX
    kernel_size: 3
    stride: 2
    engine: MKL2017
  }
}
layer {
  name: "conv2"
  type: "Convolution"
  bottom: "pool1"
  top: "conv2"
  param {
    lr_mult: 1
    decay_mult: 1
  }
  param {
    lr_mult: 2
    decay_mult: 0
  }
  convolution_param {
    num_output: 256
    pad: 2
    kernel_size: 5
    group: 2
    weight_filler {
      type: "gaussian"
      std: 0.01
    }
    bias_filler {
      type: "constant"
      value: 0.1
    }
    engine: MKL2017
  }
}
layer {
  name: "relu2"
  type: "ReLU"
  bottom: "conv2"
  top: "conv2"
  relu_param {
    engine: MKL2017
  }
}
layer {
  name: "norm2"
  type: "LRN"
  bottom: "conv2"
  top: "norm2"
  lrn_param {
    local_size: 5
    alpha: 0.0001
    beta: 0.75
    engine: MKL2017
  }
}
layer {
  name: "pool2"
  type: "Pooling"
  bottom: "norm2"
  top: "pool2"
  pooling_param {
    pool: MAX
    kernel_size: 3
    stride: 2
    engine: MKL2017
  }
}
layer {
  name: "conv3"
  type: "Convolution"
  bottom: "pool2"
  top: "conv3"
  param {
    lr_mult: 1
    decay_mult: 1
  }
  param {
    lr_mult: 2
    decay_mult: 0
  }
  convolution_param {
    num_output: 384
    pad: 1
    kernel_size: 3
    weight_filler {
      type: "gaussian"
      std: 0.01
    }
    bias_filler {
      type: "constant"
      value: 0
    }
    engine: MKL2017
  }
}
layer {
  name: "relu3"
  type: "ReLU"
  bottom: "conv3"
  top: "conv3"
  relu_param {
    engine: MKL2017
  }
}
layer {
  name: "conv4"
  type: "Convolution"
  bottom: "conv3"
  top: "conv4"
  param {
    lr_mult: 1
    decay_mult: 1
  }
  param {
    lr_mult: 2
    decay_mult: 0
  }
  convolution_param {
    num_output: 384
    pad: 1
    kernel_size: 3
    group: 2
    weight_filler {
      type: "gaussian"
      std: 0.01
    }
    bias_filler {
      type: "constant"
      value: 0.1
    }
    engine: MKL2017
  }
}
layer {
  name: "relu4"
  type: "ReLU"
  bottom: "conv4"
  top: "conv4"
  relu_param {
    engine: MKL2017
  }
}
layer {
  name: "conv5"
  type: "Convolution"
  bottom: "conv4"
  top: "conv5"
  param {
    lr_mult: 1
    decay_mult: 1
  }
  param {
    lr_mult: 2
    decay_mult: 0
  }
  convolution_param {
    num_output: 256
    pad: 1
    kernel_size: 3
    group: 2
    weight_filler {
      type: "gaussian"
      std: 0.01
    }
    bias_filler {
      type: "constant"
      value: 0.1
    }
    engine: MKL2017
  }
}
layer {
  name: "relu5"
  type: "ReLU"
  bottom: "conv5"
  top: "conv5"
  relu_param {
    engine: MKL2017
  }
}
layer {
  name: "pool5"
  type: "Pooling"
  bottom: "conv5"
  top: "pool5"
  pooling_param {
    pool: MAX
    kernel_size: 3
    stride: 2
    engine: MKL2017
  }
}
layer {
  name: "fc6"
  type: "InnerProduct"
  bottom: "pool5"
  top: "fc6"
  param {
    lr_mult: 1
    decay_mult: 1
  }
  param {
    lr_mult: 2
    decay_mult: 0
  }
  inner_product_param {
    num_output: 4096
    weight_filler {
      type: "gaussian"
      std: 0.005
    }
    bias_filler {
      type: "constant"
      value: 0.1
    }
  }
}
layer {
  name: "relu6"
  type: "ReLU"
  bottom: "fc6"
  top: "fc6"
}
layer {
  name: "drop6"
  type: "Dropout"
  bottom: "fc6"
  top: "fc6"
  dropout_param {
    dropout_ratio: 0.5
  }
}
layer {
  name: "fc7"
  type: "InnerProduct"
  bottom: "fc6"
  top: "fc7"
  param {
    lr_mult: 1
    decay_mult: 1
  }
  param {
    lr_mult: 2
    decay_mult: 0
  }
  inner_product_param {
    num_output: 4096
    weight_filler {
      type: "gaussian"
      std: 0.005
    }
    bias_filler {
      type: "constant"
      value: 0.1
    }
  }
}
layer {
  name: "relu7"
  type: "ReLU"
  bottom: "fc7"
  top: "fc7"
}
layer {
  name: "drop7"
  type: "Dropout"
  bottom: "fc7"
  top: "fc7"
  dropout_param {
    dropout_ratio: 0.5
  }
}
layer {
  name: "fc8"
  type: "InnerProduct"
  bottom: "fc7"
  top: "fc8"
  param {
    lr_mult: 1
    decay_mult: 1
  }
  param {
    lr_mult: 2
    decay_mult: 0
  }
  inner_product_param {
    num_output: 1000
    weight_filler {
      type: "gaussian"
      std: 0.01
    }
    bias_filler {
      type: "constant"
      value: 0
    }
  }
}
layer {
  name: "loss"
  type: "SoftmaxWithLoss"
  bottom: "fc8"
  bottom: "label"
  top: "loss"
}
I1109 02:43:26.591646 143881 layer_factory.hpp:114] Creating layer data
I1109 02:43:26.738373 143881 net.cpp:160] Creating Layer data
I1109 02:43:26.786365 143881 net.cpp:570] data -> data
I1109 02:43:27.251669 143881 net.cpp:570] data -> label
I1109 02:43:34.261968 143881 net.cpp:210] Setting up data
I1109 02:43:34.340036 143881 net.cpp:217] Top shape: 32 3 227 227 (4946784)
I1109 02:43:34.443110 143881 net.cpp:217] Top shape: 32 1 1 1 (32)
I1109 02:43:34.450117 143881 net.cpp:225] Memory required for data: 19787264
I1109 02:43:34.516980 143881 layer_factory.hpp:114] Creating layer conv1
I1109 02:43:34.840914 143881 net.cpp:160] Creating Layer conv1
I1109 02:43:34.890384 143881 net.cpp:596] conv1 <- data
I1109 02:43:35.011310 143881 net.cpp:570] conv1 -> conv1
I1109 02:44:07.709583 143881 net.cpp:210] Setting up conv1
I1109 02:44:07.716955 143881 net.cpp:217] Top shape: 32 96 55 55 (9292800)
I1109 02:44:07.717366 143881 net.cpp:225] Memory required for data: 56958464
I1109 02:44:07.998349 143881 layer_factory.hpp:114] Creating layer relu1
I1109 02:44:08.117338 143881 net.cpp:160] Creating Layer relu1
I1109 02:44:08.121819 143881 net.cpp:596] relu1 <- conv1
I1109 02:44:08.153368 143881 net.cpp:557] relu1 -> conv1 (in-place)
I1109 02:44:08.340492 143881 net.cpp:210] Setting up relu1
I1109 02:44:08.342834 143881 net.cpp:217] Top shape: 32 96 55 55 (9292800)
I1109 02:44:08.343166 143881 net.cpp:225] Memory required for data: 94129664
I1109 02:44:08.343359 143881 layer_factory.hpp:114] Creating layer norm1
I1109 02:44:08.446151 143881 net.cpp:160] Creating Layer norm1
I1109 02:44:08.446480 143881 net.cpp:596] norm1 <- conv1
I1109 02:44:08.448863 143881 net.cpp:570] norm1 -> norm1
I1109 02:44:08.666726 143881 net.cpp:210] Setting up norm1
I1109 02:44:08.679116 143881 net.cpp:217] Top shape: 32 96 55 55 (9292800)
I1109 02:44:08.679507 143881 net.cpp:225] Memory required for data: 131300864
I1109 02:44:08.679723 143881 layer_factory.hpp:114] Creating layer pool1
I1109 02:44:08.770297 143881 net.cpp:160] Creating Layer pool1
I1109 02:44:08.770611 143881 net.cpp:596] pool1 <- norm1
I1109 02:44:08.785121 143881 net.cpp:570] pool1 -> pool1
I1109 02:44:09.081861 143881 net.cpp:210] Setting up pool1
I1109 02:44:09.084323 143881 net.cpp:217] Top shape: 32 96 27 27 (2239488)
I1109 02:44:09.084645 143881 net.cpp:225] Memory required for data: 140258816
I1109 02:44:09.084930 143881 layer_factory.hpp:114] Creating layer conv2
I1109 02:44:09.085311 143881 net.cpp:160] Creating Layer conv2
I1109 02:44:09.085539 143881 net.cpp:596] conv2 <- pool1
I1109 02:44:09.085803 143881 net.cpp:570] conv2 -> conv2
I1109 02:44:14.851256 143881 net.cpp:210] Setting up conv2
I1109 02:44:14.851575 143881 net.cpp:217] Top shape: 32 256 27 27 (5971968)
I1109 02:44:14.851990 143881 net.cpp:225] Memory required for data: 164146688
I1109 02:44:14.905838 143881 layer_factory.hpp:114] Creating layer relu2
I1109 02:44:14.906277 143881 net.cpp:160] Creating Layer relu2
I1109 02:44:14.906635 143881 net.cpp:596] relu2 <- conv2
I1109 02:44:14.906929 143881 net.cpp:557] relu2 -> conv2 (in-place)
I1109 02:44:14.907409 143881 net.cpp:210] Setting up relu2
I1109 02:44:14.907691 143881 net.cpp:217] Top shape: 32 256 27 27 (5971968)
I1109 02:44:14.907915 143881 net.cpp:225] Memory required for data: 188034560
I1109 02:44:14.908102 143881 layer_factory.hpp:114] Creating layer norm2
I1109 02:44:14.908341 143881 net.cpp:160] Creating Layer norm2
I1109 02:44:14.908542 143881 net.cpp:596] norm2 <- conv2
I1109 02:44:14.908856 143881 net.cpp:570] norm2 -> norm2
I1109 02:44:14.910928 143881 net.cpp:210] Setting up norm2
I1109 02:44:14.911232 143881 net.cpp:217] Top shape: 32 256 27 27 (5971968)
I1109 02:44:14.911460 143881 net.cpp:225] Memory required for data: 211922432
I1109 02:44:14.911644 143881 layer_factory.hpp:114] Creating layer pool2
I1109 02:44:14.912510 143881 net.cpp:160] Creating Layer pool2
I1109 02:44:14.912840 143881 net.cpp:596] pool2 <- norm2
I1109 02:44:14.913172 143881 net.cpp:570] pool2 -> pool2
I1109 02:44:14.913698 143881 net.cpp:210] Setting up pool2
I1109 02:44:14.913962 143881 net.cpp:217] Top shape: 32 256 13 13 (1384448)
I1109 02:44:14.914196 143881 net.cpp:225] Memory required for data: 217460224
I1109 02:44:14.914407 143881 layer_factory.hpp:114] Creating layer conv3
I1109 02:44:14.914752 143881 net.cpp:160] Creating Layer conv3
I1109 02:44:14.914986 143881 net.cpp:596] conv3 <- pool2
I1109 02:44:14.915241 143881 net.cpp:570] conv3 -> conv3
I1109 02:44:15.379905 143881 net.cpp:210] Setting up conv3
I1109 02:44:15.382392 143881 net.cpp:217] Top shape: 32 384 13 13 (2076672)
I1109 02:44:15.382757 143881 net.cpp:225] Memory required for data: 225766912
I1109 02:44:15.385923 143881 layer_factory.hpp:114] Creating layer relu3
I1109 02:44:15.386340 143881 net.cpp:160] Creating Layer relu3
I1109 02:44:15.386606 143881 net.cpp:596] relu3 <- conv3
I1109 02:44:15.386864 143881 net.cpp:557] relu3 -> conv3 (in-place)
I1109 02:44:15.391018 143881 net.cpp:210] Setting up relu3
I1109 02:44:15.391341 143881 net.cpp:217] Top shape: 32 384 13 13 (2076672)
I1109 02:44:15.391603 143881 net.cpp:225] Memory required for data: 234073600
I1109 02:44:15.391808 143881 layer_factory.hpp:114] Creating layer conv4
I1109 02:44:15.392180 143881 net.cpp:160] Creating Layer conv4
I1109 02:44:15.392449 143881 net.cpp:596] conv4 <- conv3
I1109 02:44:15.392709 143881 net.cpp:570] conv4 -> conv4
I1109 02:44:15.648246 143881 net.cpp:210] Setting up conv4
I1109 02:44:15.648648 143881 net.cpp:217] Top shape: 32 384 13 13 (2076672)
I1109 02:44:15.649085 143881 net.cpp:225] Memory required for data: 242380288
I1109 02:44:15.649423 143881 layer_factory.hpp:114] Creating layer relu4
I1109 02:44:15.649739 143881 net.cpp:160] Creating Layer relu4
I1109 02:44:15.649989 143881 net.cpp:596] relu4 <- conv4
I1109 02:44:15.650245 143881 net.cpp:557] relu4 -> conv4 (in-place)
I1109 02:44:15.662642 143881 net.cpp:210] Setting up relu4
I1109 02:44:15.662971 143881 net.cpp:217] Top shape: 32 384 13 13 (2076672)
I1109 02:44:15.663238 143881 net.cpp:225] Memory required for data: 250686976
I1109 02:44:15.663447 143881 layer_factory.hpp:114] Creating layer conv5
I1109 02:44:15.663828 143881 net.cpp:160] Creating Layer conv5
I1109 02:44:15.664090 143881 net.cpp:596] conv5 <- conv4
I1109 02:44:15.664346 143881 net.cpp:570] conv5 -> conv5
I1109 02:44:15.839979 143881 net.cpp:210] Setting up conv5
I1109 02:44:15.840389 143881 net.cpp:217] Top shape: 32 256 13 13 (1384448)
I1109 02:44:15.840816 143881 net.cpp:225] Memory required for data: 256224768
I1109 02:44:15.845572 143881 layer_factory.hpp:114] Creating layer relu5
I1109 02:44:15.845989 143881 net.cpp:160] Creating Layer relu5
I1109 02:44:15.846256 143881 net.cpp:596] relu5 <- conv5
I1109 02:44:15.846536 143881 net.cpp:557] relu5 -> conv5 (in-place)
I1109 02:44:15.847019 143881 net.cpp:210] Setting up relu5
I1109 02:44:15.847319 143881 net.cpp:217] Top shape: 32 256 13 13 (1384448)
I1109 02:44:15.847575 143881 net.cpp:225] Memory required for data: 261762560
I1109 02:44:15.847791 143881 layer_factory.hpp:114] Creating layer pool5
I1109 02:44:15.848067 143881 net.cpp:160] Creating Layer pool5
I1109 02:44:15.848292 143881 net.cpp:596] pool5 <- conv5
I1109 02:44:15.848532 143881 net.cpp:570] pool5 -> pool5
I1109 02:44:15.848995 143881 net.cpp:210] Setting up pool5
I1109 02:44:15.849287 143881 net.cpp:217] Top shape: 32 256 6 6 (294912)
I1109 02:44:15.849525 143881 net.cpp:225] Memory required for data: 262942208
I1109 02:44:15.849721 143881 layer_factory.hpp:114] Creating layer fc6
I1109 02:44:15.907095 143881 net.cpp:160] Creating Layer fc6
I1109 02:44:15.907423 143881 net.cpp:596] fc6 <- pool5
I1109 02:44:15.907773 143881 net.cpp:570] fc6 -> fc6
I1109 02:44:20.077261 143881 net.cpp:210] Setting up fc6
I1109 02:44:20.077563 143881 net.cpp:217] Top shape: 32 4096 (131072)
I1109 02:44:20.079587 143881 net.cpp:225] Memory required for data: 263466496
I1109 02:44:20.079891 143881 layer_factory.hpp:114] Creating layer relu6
I1109 02:44:20.082454 143881 net.cpp:160] Creating Layer relu6
I1109 02:44:20.082749 143881 net.cpp:596] relu6 <- fc6
I1109 02:44:20.082976 143881 net.cpp:557] relu6 -> fc6 (in-place)
I1109 02:44:20.083389 143881 net.cpp:210] Setting up relu6
I1109 02:44:20.083631 143881 net.cpp:217] Top shape: 32 4096 (131072)
I1109 02:44:20.083850 143881 net.cpp:225] Memory required for data: 263990784
I1109 02:44:20.084034 143881 layer_factory.hpp:114] Creating layer drop6
I1109 02:44:20.104215 143881 net.cpp:160] Creating Layer drop6
I1109 02:44:20.104533 143881 net.cpp:596] drop6 <- fc6
I1109 02:44:20.104913 143881 net.cpp:557] drop6 -> fc6 (in-place)
I1109 02:44:20.207561 143881 net.cpp:210] Setting up drop6
I1109 02:44:20.207857 143881 net.cpp:217] Top shape: 32 4096 (131072)
I1109 02:44:20.208189 143881 net.cpp:225] Memory required for data: 264515072
I1109 02:44:20.208431 143881 layer_factory.hpp:114] Creating layer fc7
I1109 02:44:20.208703 143881 net.cpp:160] Creating Layer fc7
I1109 02:44:20.208958 143881 net.cpp:596] fc7 <- fc6
I1109 02:44:20.209337 143881 net.cpp:570] fc7 -> fc7
I1109 02:44:21.921633 143881 net.cpp:210] Setting up fc7
I1109 02:44:21.922003 143881 net.cpp:217] Top shape: 32 4096 (131072)
I1109 02:44:21.922497 143881 net.cpp:225] Memory required for data: 265039360
I1109 02:44:21.922865 143881 layer_factory.hpp:114] Creating layer relu7
I1109 02:44:21.923198 143881 net.cpp:160] Creating Layer relu7
I1109 02:44:21.923454 143881 net.cpp:596] relu7 <- fc7
I1109 02:44:21.923714 143881 net.cpp:557] relu7 -> fc7 (in-place)
I1109 02:44:21.924170 143881 net.cpp:210] Setting up relu7
I1109 02:44:21.924458 143881 net.cpp:217] Top shape: 32 4096 (131072)
I1109 02:44:21.924710 143881 net.cpp:225] Memory required for data: 265563648
I1109 02:44:21.925007 143881 layer_factory.hpp:114] Creating layer drop7
I1109 02:44:21.925267 143881 net.cpp:160] Creating Layer drop7
I1109 02:44:21.925493 143881 net.cpp:596] drop7 <- fc7
I1109 02:44:21.925751 143881 net.cpp:557] drop7 -> fc7 (in-place)
I1109 02:44:21.926126 143881 net.cpp:210] Setting up drop7
I1109 02:44:21.926332 143881 net.cpp:217] Top shape: 32 4096 (131072)
I1109 02:44:21.926550 143881 net.cpp:225] Memory required for data: 266087936
I1109 02:44:21.926731 143881 layer_factory.hpp:114] Creating layer fc8
I1109 02:44:21.926981 143881 net.cpp:160] Creating Layer fc8
I1109 02:44:21.927186 143881 net.cpp:596] fc8 <- fc7
I1109 02:44:21.927415 143881 net.cpp:570] fc8 -> fc8
I1109 02:44:22.349445 143881 net.cpp:210] Setting up fc8
I1109 02:44:22.349795 143881 net.cpp:217] Top shape: 32 1000 (32000)
I1109 02:44:22.350220 143881 net.cpp:225] Memory required for data: 266215936
I1109 02:44:22.350524 143881 layer_factory.hpp:114] Creating layer loss
I1109 02:44:22.375324 143881 net.cpp:160] Creating Layer loss
I1109 02:44:22.375638 143881 net.cpp:596] loss <- fc8
I1109 02:44:22.376631 143881 net.cpp:596] loss <- label
I1109 02:44:22.404163 143881 net.cpp:570] loss -> loss
I1109 02:44:22.442214 143881 layer_factory.hpp:114] Creating layer loss
…
