…
I1109 01:38:46.169034 141286 net.cpp:484] The NetState phase (0) differed from the phase (1) specified by a rule in layer accuracy
I1109 01:38:46.801648 141286 net.cpp:120] Initializing net from parameters: 
name: "AlexNet"
state {
  phase: TRAIN
  level: 0
  stage: ""
}
layer {
  name: "data"
  type: "DummyData"
  top: "data"
  top: "label"
  include {
    phase: TRAIN
  }
  dummy_data_param {
    data_filler {
      type: "gaussian"
      std: 1
    }
    data_filler {
      type: "constant"
      value: 0
    }
    shape {
      dim: 32
      dim: 3
      dim: 227
      dim: 227
    }
    shape {
      dim: 32
      dim: 1
      dim: 1
      dim: 1
    }
  }
}
layer {
  name: "conv1"
  type: "Convolution"
  bottom: "data"
  top: "conv1"
  param {
    lr_mult: 1
    decay_mult: 1
  }
  param {
    lr_mult: 2
    decay_mult: 0
  }
  convolution_param {
    num_output: 96
    kernel_size: 11
    stride: 4
    weight_filler {
      type: "gaussian"
      std: 0.01
    }
    bias_filler {
      type: "constant"
      value: 0
    }
    engine: MKL2017
  }
}
layer {
  name: "relu1"
  type: "ReLU"
  bottom: "conv1"
  top: "conv1"
  relu_param {
    engine: MKL2017
  }
}
layer {
  name: "norm1"
  type: "LRN"
  bottom: "conv1"
  top: "norm1"
  lrn_param {
    local_size: 5
    alpha: 0.0001
    beta: 0.75
    engine: MKL2017
  }
}
layer {
  name: "pool1"
  type: "Pooling"
  bottom: "norm1"
  top: "pool1"
  pooling_param {
    pool: MAX
    kernel_size: 3
    stride: 2
    engine: MKL2017
  }
}
layer {
  name: "conv2"
  type: "Convolution"
  bottom: "pool1"
  top: "conv2"
  param {
    lr_mult: 1
    decay_mult: 1
  }
  param {
    lr_mult: 2
    decay_mult: 0
  }
  convolution_param {
    num_output: 256
    pad: 2
    kernel_size: 5
    group: 2
    weight_filler {
      type: "gaussian"
      std: 0.01
    }
    bias_filler {
      type: "constant"
      value: 0.1
    }
    engine: MKL2017
  }
}
layer {
  name: "relu2"
  type: "ReLU"
  bottom: "conv2"
  top: "conv2"
  relu_param {
    engine: MKL2017
  }
}
layer {
  name: "norm2"
  type: "LRN"
  bottom: "conv2"
  top: "norm2"
  lrn_param {
    local_size: 5
    alpha: 0.0001
    beta: 0.75
    engine: MKL2017
  }
}
layer {
  name: "pool2"
  type: "Pooling"
  bottom: "norm2"
  top: "pool2"
  pooling_param {
    pool: MAX
    kernel_size: 3
    stride: 2
    engine: MKL2017
  }
}
layer {
  name: "conv3"
  type: "Convolution"
  bottom: "pool2"
  top: "conv3"
  param {
    lr_mult: 1
    decay_mult: 1
  }
  param {
    lr_mult: 2
    decay_mult: 0
  }
  convolution_param {
    num_output: 384
    pad: 1
    kernel_size: 3
    weight_filler {
      type: "gaussian"
      std: 0.01
    }
    bias_filler {
      type: "constant"
      value: 0
    }
    engine: MKL2017
  }
}
layer {
  name: "relu3"
  type: "ReLU"
  bottom: "conv3"
  top: "conv3"
  relu_param {
    engine: MKL2017
  }
}
layer {
  name: "conv4"
  type: "Convolution"
  bottom: "conv3"
  top: "conv4"
  param {
    lr_mult: 1
    decay_mult: 1
  }
  param {
    lr_mult: 2
    decay_mult: 0
  }
  convolution_param {
    num_output: 384
    pad: 1
    kernel_size: 3
    group: 2
    weight_filler {
      type: "gaussian"
      std: 0.01
    }
    bias_filler {
      type: "constant"
      value: 0.1
    }
    engine: MKL2017
  }
}
layer {
  name: "relu4"
  type: "ReLU"
  bottom: "conv4"
  top: "conv4"
  relu_param {
    engine: MKL2017
  }
}
layer {
  name: "conv5"
  type: "Convolution"
  bottom: "conv4"
  top: "conv5"
  param {
    lr_mult: 1
    decay_mult: 1
  }
  param {
    lr_mult: 2
    decay_mult: 0
  }
  convolution_param {
    num_output: 256
    pad: 1
    kernel_size: 3
    group: 2
    weight_filler {
      type: "gaussian"
      std: 0.01
    }
    bias_filler {
      type: "constant"
      value: 0.1
    }
    engine: MKL2017
  }
}
layer {
  name: "relu5"
  type: "ReLU"
  bottom: "conv5"
  top: "conv5"
  relu_param {
    engine: MKL2017
  }
}
layer {
  name: "pool5"
  type: "Pooling"
  bottom: "conv5"
  top: "pool5"
  pooling_param {
    pool: MAX
    kernel_size: 3
    stride: 2
    engine: MKL2017
  }
}
layer {
  name: "fc6"
  type: "InnerProduct"
  bottom: "pool5"
  top: "fc6"
  param {
    lr_mult: 1
    decay_mult: 1
  }
  param {
    lr_mult: 2
    decay_mult: 0
  }
  inner_product_param {
    num_output: 4096
    weight_filler {
      type: "gaussian"
      std: 0.005
    }
    bias_filler {
      type: "constant"
      value: 0.1
    }
  }
}
layer {
  name: "relu6"
  type: "ReLU"
  bottom: "fc6"
  top: "fc6"
}
layer {
  name: "drop6"
  type: "Dropout"
  bottom: "fc6"
  top: "fc6"
  dropout_param {
    dropout_ratio: 0.5
  }
}
layer {
  name: "fc7"
  type: "InnerProduct"
  bottom: "fc6"
  top: "fc7"
  param {
    lr_mult: 1
    decay_mult: 1
  }
  param {
    lr_mult: 2
    decay_mult: 0
  }
  inner_product_param {
    num_output: 4096
    weight_filler {
      type: "gaussian"
      std: 0.005
    }
    bias_filler {
      type: "constant"
      value: 0.1
    }
  }
}
layer {
  name: "relu7"
  type: "ReLU"
  bottom: "fc7"
  top: "fc7"
}
layer {
  name: "drop7"
  type: "Dropout"
  bottom: "fc7"
  top: "fc7"
  dropout_param {
    dropout_ratio: 0.5
  }
}
layer {
  name: "fc8"
  type: "InnerProduct"
  bottom: "fc7"
  top: "fc8"
  param {
    lr_mult: 1
    decay_mult: 1
  }
  param {
    lr_mult: 2
    decay_mult: 0
  }
  inner_product_param {
    num_output: 1000
    weight_filler {
      type: "gaussian"
      std: 0.01
    }
    bias_filler {
      type: "constant"
      value: 0
    }
  }
}
layer {
  name: "loss"
  type: "SoftmaxWithLoss"
  bottom: "fc8"
  bottom: "label"
  top: "loss"
}
I1109 01:38:49.256521 141286 layer_factory.hpp:114] Creating layer data
I1109 01:38:49.403642 141286 net.cpp:160] Creating Layer data
I1109 01:38:49.451733 141286 net.cpp:570] data -> data
I1109 01:38:49.918670 141286 net.cpp:570] data -> label
I1109 01:38:56.973260 141286 net.cpp:210] Setting up data
I1109 01:38:57.051735 141286 net.cpp:217] Top shape: 32 3 227 227 (4946784)
I1109 01:38:57.155789 141286 net.cpp:217] Top shape: 32 1 1 1 (32)
I1109 01:38:57.162926 141286 net.cpp:225] Memory required for data: 19787264
I1109 01:38:57.230531 141286 layer_factory.hpp:114] Creating layer conv1
I1109 01:38:57.558456 141286 net.cpp:160] Creating Layer conv1
I1109 01:38:57.608664 141286 net.cpp:596] conv1 <- data
I1109 01:38:57.728816 141286 net.cpp:570] conv1 -> conv1
I1109 01:39:30.856158 141286 net.cpp:210] Setting up conv1
I1109 01:39:30.862701 141286 net.cpp:217] Top shape: 32 96 55 55 (9292800)
I1109 01:39:30.863080 141286 net.cpp:225] Memory required for data: 56958464
I1109 01:39:31.144558 141286 layer_factory.hpp:114] Creating layer relu1
I1109 01:39:31.264209 141286 net.cpp:160] Creating Layer relu1
I1109 01:39:31.268739 141286 net.cpp:596] relu1 <- conv1
I1109 01:39:31.300920 141286 net.cpp:557] relu1 -> conv1 (in-place)
I1109 01:39:31.489519 141286 net.cpp:210] Setting up relu1
I1109 01:39:31.491915 141286 net.cpp:217] Top shape: 32 96 55 55 (9292800)
I1109 01:39:31.492254 141286 net.cpp:225] Memory required for data: 94129664
I1109 01:39:31.492460 141286 layer_factory.hpp:114] Creating layer norm1
I1109 01:39:31.599510 141286 net.cpp:160] Creating Layer norm1
I1109 01:39:31.599825 141286 net.cpp:596] norm1 <- conv1
I1109 01:39:31.602426 141286 net.cpp:570] norm1 -> norm1
I1109 01:39:31.826122 141286 net.cpp:210] Setting up norm1
I1109 01:39:31.838912 141286 net.cpp:217] Top shape: 32 96 55 55 (9292800)
I1109 01:39:31.839296 141286 net.cpp:225] Memory required for data: 131300864
I1109 01:39:31.839603 141286 layer_factory.hpp:114] Creating layer pool1
I1109 01:39:31.935940 141286 net.cpp:160] Creating Layer pool1
I1109 01:39:31.936257 141286 net.cpp:596] pool1 <- norm1
I1109 01:39:31.951227 141286 net.cpp:570] pool1 -> pool1
I1109 01:39:32.254812 141286 net.cpp:210] Setting up pool1
I1109 01:39:32.257313 141286 net.cpp:217] Top shape: 32 96 27 27 (2239488)
I1109 01:39:32.257638 141286 net.cpp:225] Memory required for data: 140258816
I1109 01:39:32.257850 141286 layer_factory.hpp:114] Creating layer conv2
I1109 01:39:32.258194 141286 net.cpp:160] Creating Layer conv2
I1109 01:39:32.258417 141286 net.cpp:596] conv2 <- pool1
I1109 01:39:32.258682 141286 net.cpp:570] conv2 -> conv2
I1109 01:39:38.031550 141286 net.cpp:210] Setting up conv2
I1109 01:39:38.031886 141286 net.cpp:217] Top shape: 32 256 27 27 (5971968)
I1109 01:39:38.032269 141286 net.cpp:225] Memory required for data: 164146688
I1109 01:39:38.082370 141286 layer_factory.hpp:114] Creating layer relu2
I1109 01:39:38.082774 141286 net.cpp:160] Creating Layer relu2
I1109 01:39:38.083139 141286 net.cpp:596] relu2 <- conv2
I1109 01:39:38.083387 141286 net.cpp:557] relu2 -> conv2 (in-place)
I1109 01:39:38.083828 141286 net.cpp:210] Setting up relu2
I1109 01:39:38.084084 141286 net.cpp:217] Top shape: 32 256 27 27 (5971968)
I1109 01:39:38.084311 141286 net.cpp:225] Memory required for data: 188034560
I1109 01:39:38.084497 141286 layer_factory.hpp:114] Creating layer norm2
I1109 01:39:38.084738 141286 net.cpp:160] Creating Layer norm2
I1109 01:39:38.084990 141286 net.cpp:596] norm2 <- conv2
I1109 01:39:38.085247 141286 net.cpp:570] norm2 -> norm2
I1109 01:39:38.087316 141286 net.cpp:210] Setting up norm2
I1109 01:39:38.087616 141286 net.cpp:217] Top shape: 32 256 27 27 (5971968)
I1109 01:39:38.087843 141286 net.cpp:225] Memory required for data: 211922432
I1109 01:39:38.088029 141286 layer_factory.hpp:114] Creating layer pool2
I1109 01:39:38.088910 141286 net.cpp:160] Creating Layer pool2
I1109 01:39:38.089315 141286 net.cpp:596] pool2 <- norm2
I1109 01:39:38.089632 141286 net.cpp:570] pool2 -> pool2
I1109 01:39:38.090035 141286 net.cpp:210] Setting up pool2
I1109 01:39:38.090278 141286 net.cpp:217] Top shape: 32 256 13 13 (1384448)
I1109 01:39:38.090498 141286 net.cpp:225] Memory required for data: 217460224
I1109 01:39:38.090693 141286 layer_factory.hpp:114] Creating layer conv3
I1109 01:39:38.091014 141286 net.cpp:160] Creating Layer conv3
I1109 01:39:38.091228 141286 net.cpp:596] conv3 <- pool2
I1109 01:39:38.091465 141286 net.cpp:570] conv3 -> conv3
I1109 01:39:38.568121 141286 net.cpp:210] Setting up conv3
I1109 01:39:38.570588 141286 net.cpp:217] Top shape: 32 384 13 13 (2076672)
I1109 01:39:38.570943 141286 net.cpp:225] Memory required for data: 225766912
I1109 01:39:38.574059 141286 layer_factory.hpp:114] Creating layer relu3
I1109 01:39:38.574493 141286 net.cpp:160] Creating Layer relu3
I1109 01:39:38.574771 141286 net.cpp:596] relu3 <- conv3
I1109 01:39:38.575026 141286 net.cpp:557] relu3 -> conv3 (in-place)
I1109 01:39:38.579244 141286 net.cpp:210] Setting up relu3
I1109 01:39:38.579548 141286 net.cpp:217] Top shape: 32 384 13 13 (2076672)
I1109 01:39:38.579798 141286 net.cpp:225] Memory required for data: 234073600
I1109 01:39:38.579994 141286 layer_factory.hpp:114] Creating layer conv4
I1109 01:39:38.580389 141286 net.cpp:160] Creating Layer conv4
I1109 01:39:38.580656 141286 net.cpp:596] conv4 <- conv3
I1109 01:39:38.580970 141286 net.cpp:570] conv4 -> conv4
I1109 01:39:38.822510 141286 net.cpp:210] Setting up conv4
I1109 01:39:38.822896 141286 net.cpp:217] Top shape: 32 384 13 13 (2076672)
I1109 01:39:38.823292 141286 net.cpp:225] Memory required for data: 242380288
I1109 01:39:38.823637 141286 layer_factory.hpp:114] Creating layer relu4
I1109 01:39:38.823936 141286 net.cpp:160] Creating Layer relu4
I1109 01:39:38.824163 141286 net.cpp:596] relu4 <- conv4
I1109 01:39:38.824401 141286 net.cpp:557] relu4 -> conv4 (in-place)
I1109 01:39:38.836616 141286 net.cpp:210] Setting up relu4
I1109 01:39:38.837007 141286 net.cpp:217] Top shape: 32 384 13 13 (2076672)
I1109 01:39:38.837378 141286 net.cpp:225] Memory required for data: 250686976
I1109 01:39:38.837656 141286 layer_factory.hpp:114] Creating layer conv5
I1109 01:39:38.838047 141286 net.cpp:160] Creating Layer conv5
I1109 01:39:38.838286 141286 net.cpp:596] conv5 <- conv4
I1109 01:39:38.838529 141286 net.cpp:570] conv5 -> conv5
I1109 01:39:39.007102 141286 net.cpp:210] Setting up conv5
I1109 01:39:39.010082 141286 net.cpp:217] Top shape: 32 256 13 13 (1384448)
I1109 01:39:39.010540 141286 net.cpp:225] Memory required for data: 256224768
I1109 01:39:39.015270 141286 layer_factory.hpp:114] Creating layer relu5
I1109 01:39:39.015671 141286 net.cpp:160] Creating Layer relu5
I1109 01:39:39.015923 141286 net.cpp:596] relu5 <- conv5
I1109 01:39:39.016187 141286 net.cpp:557] relu5 -> conv5 (in-place)
I1109 01:39:39.016679 141286 net.cpp:210] Setting up relu5
I1109 01:39:39.017031 141286 net.cpp:217] Top shape: 32 256 13 13 (1384448)
I1109 01:39:39.017300 141286 net.cpp:225] Memory required for data: 261762560
I1109 01:39:39.017583 141286 layer_factory.hpp:114] Creating layer pool5
I1109 01:39:39.017877 141286 net.cpp:160] Creating Layer pool5
I1109 01:39:39.018093 141286 net.cpp:596] pool5 <- conv5
I1109 01:39:39.018314 141286 net.cpp:570] pool5 -> pool5
I1109 01:39:39.018710 141286 net.cpp:210] Setting up pool5
I1109 01:39:39.018966 141286 net.cpp:217] Top shape: 32 256 6 6 (294912)
I1109 01:39:39.019189 141286 net.cpp:225] Memory required for data: 262942208
I1109 01:39:39.019373 141286 layer_factory.hpp:114] Creating layer fc6
I1109 01:39:39.074128 141286 net.cpp:160] Creating Layer fc6
I1109 01:39:39.074437 141286 net.cpp:596] fc6 <- pool5
I1109 01:39:39.074810 141286 net.cpp:570] fc6 -> fc6
I1109 01:39:43.163564 141286 net.cpp:210] Setting up fc6
I1109 01:39:43.163867 141286 net.cpp:217] Top shape: 32 4096 (131072)
I1109 01:39:43.166049 141286 net.cpp:225] Memory required for data: 263466496
I1109 01:39:43.166357 141286 layer_factory.hpp:114] Creating layer relu6
I1109 01:39:43.168869 141286 net.cpp:160] Creating Layer relu6
I1109 01:39:43.169176 141286 net.cpp:596] relu6 <- fc6
I1109 01:39:43.169404 141286 net.cpp:557] relu6 -> fc6 (in-place)
I1109 01:39:43.169824 141286 net.cpp:210] Setting up relu6
I1109 01:39:43.170073 141286 net.cpp:217] Top shape: 32 4096 (131072)
I1109 01:39:43.170296 141286 net.cpp:225] Memory required for data: 263990784
I1109 01:39:43.170483 141286 layer_factory.hpp:114] Creating layer drop6
I1109 01:39:43.190407 141286 net.cpp:160] Creating Layer drop6
I1109 01:39:43.190711 141286 net.cpp:596] drop6 <- fc6
I1109 01:39:43.191105 141286 net.cpp:557] drop6 -> fc6 (in-place)
I1109 01:39:43.294332 141286 net.cpp:210] Setting up drop6
I1109 01:39:43.294626 141286 net.cpp:217] Top shape: 32 4096 (131072)
I1109 01:39:43.294991 141286 net.cpp:225] Memory required for data: 264515072
I1109 01:39:43.295204 141286 layer_factory.hpp:114] Creating layer fc7
I1109 01:39:43.295475 141286 net.cpp:160] Creating Layer fc7
I1109 01:39:43.295686 141286 net.cpp:596] fc7 <- fc6
I1109 01:39:43.296061 141286 net.cpp:570] fc7 -> fc7
I1109 01:39:45.009621 141286 net.cpp:210] Setting up fc7
I1109 01:39:45.009999 141286 net.cpp:217] Top shape: 32 4096 (131072)
I1109 01:39:45.010455 141286 net.cpp:225] Memory required for data: 265039360
I1109 01:39:45.010793 141286 layer_factory.hpp:114] Creating layer relu7
I1109 01:39:45.011137 141286 net.cpp:160] Creating Layer relu7
I1109 01:39:45.011394 141286 net.cpp:596] relu7 <- fc7
I1109 01:39:45.011656 141286 net.cpp:557] relu7 -> fc7 (in-place)
I1109 01:39:45.012187 141286 net.cpp:210] Setting up relu7
I1109 01:39:45.012477 141286 net.cpp:217] Top shape: 32 4096 (131072)
I1109 01:39:45.012727 141286 net.cpp:225] Memory required for data: 265563648
I1109 01:39:45.012995 141286 layer_factory.hpp:114] Creating layer drop7
I1109 01:39:45.013285 141286 net.cpp:160] Creating Layer drop7
I1109 01:39:45.013516 141286 net.cpp:596] drop7 <- fc7
I1109 01:39:45.013837 141286 net.cpp:557] drop7 -> fc7 (in-place)
I1109 01:39:45.014185 141286 net.cpp:210] Setting up drop7
I1109 01:39:45.014451 141286 net.cpp:217] Top shape: 32 4096 (131072)
I1109 01:39:45.014670 141286 net.cpp:225] Memory required for data: 266087936
I1109 01:39:45.014858 141286 layer_factory.hpp:114] Creating layer fc8
I1109 01:39:45.015110 141286 net.cpp:160] Creating Layer fc8
I1109 01:39:45.015313 141286 net.cpp:596] fc8 <- fc7
I1109 01:39:45.015540 141286 net.cpp:570] fc8 -> fc8
I1109 01:39:45.443354 141286 net.cpp:210] Setting up fc8
I1109 01:39:45.443711 141286 net.cpp:217] Top shape: 32 1000 (32000)
I1109 01:39:45.444102 141286 net.cpp:225] Memory required for data: 266215936
I1109 01:39:45.444438 141286 layer_factory.hpp:114] Creating layer loss
I1109 01:39:45.470782 141286 net.cpp:160] Creating Layer loss
I1109 01:39:45.471101 141286 net.cpp:596] loss <- fc8
I1109 01:39:45.472108 141286 net.cpp:596] loss <- label
I1109 01:39:45.500036 141286 net.cpp:570] loss -> loss
I1109 01:39:45.538322 141286 layer_factory.hpp:114] Creating layer loss
…
