…
I1109 00:13:34.281325 138227 net.cpp:484] The NetState phase (0) differed from the phase (1) specified by a rule in layer accuracy
I1109 00:13:34.918927 138227 net.cpp:120] Initializing net from parameters: 
name: "AlexNet"
state {
  phase: TRAIN
  level: 0
  stage: ""
}
layer {
  name: "data"
  type: "DummyData"
  top: "data"
  top: "label"
  include {
    phase: TRAIN
  }
  dummy_data_param {
    data_filler {
      type: "gaussian"
      std: 1
    }
    data_filler {
      type: "constant"
      value: 0
    }
    shape {
      dim: 32
      dim: 3
      dim: 227
      dim: 227
    }
    shape {
      dim: 32
      dim: 1
      dim: 1
      dim: 1
    }
  }
}
layer {
  name: "conv1"
  type: "Convolution"
  bottom: "data"
  top: "conv1"
  param {
    lr_mult: 1
    decay_mult: 1
  }
  param {
    lr_mult: 2
    decay_mult: 0
  }
  convolution_param {
    num_output: 96
    kernel_size: 11
    stride: 4
    weight_filler {
      type: "gaussian"
      std: 0.01
    }
    bias_filler {
      type: "constant"
      value: 0
    }
    engine: MKL2017
  }
}
layer {
  name: "relu1"
  type: "ReLU"
  bottom: "conv1"
  top: "conv1"
  relu_param {
    engine: MKL2017
  }
}
layer {
  name: "norm1"
  type: "LRN"
  bottom: "conv1"
  top: "norm1"
  lrn_param {
    local_size: 5
    alpha: 0.0001
    beta: 0.75
    engine: MKL2017
  }
}
layer {
  name: "pool1"
  type: "Pooling"
  bottom: "norm1"
  top: "pool1"
  pooling_param {
    pool: MAX
    kernel_size: 3
    stride: 2
    engine: MKL2017
  }
}
layer {
  name: "conv2"
  type: "Convolution"
  bottom: "pool1"
  top: "conv2"
  param {
    lr_mult: 1
    decay_mult: 1
  }
  param {
    lr_mult: 2
    decay_mult: 0
  }
  convolution_param {
    num_output: 256
    pad: 2
    kernel_size: 5
    group: 2
    weight_filler {
      type: "gaussian"
      std: 0.01
    }
    bias_filler {
      type: "constant"
      value: 0.1
    }
    engine: MKL2017
  }
}
layer {
  name: "relu2"
  type: "ReLU"
  bottom: "conv2"
  top: "conv2"
  relu_param {
    engine: MKL2017
  }
}
layer {
  name: "norm2"
  type: "LRN"
  bottom: "conv2"
  top: "norm2"
  lrn_param {
    local_size: 5
    alpha: 0.0001
    beta: 0.75
    engine: MKL2017
  }
}
layer {
  name: "pool2"
  type: "Pooling"
  bottom: "norm2"
  top: "pool2"
  pooling_param {
    pool: MAX
    kernel_size: 3
    stride: 2
    engine: MKL2017
  }
}
layer {
  name: "conv3"
  type: "Convolution"
  bottom: "pool2"
  top: "conv3"
  param {
    lr_mult: 1
    decay_mult: 1
  }
  param {
    lr_mult: 2
    decay_mult: 0
  }
  convolution_param {
    num_output: 384
    pad: 1
    kernel_size: 3
    weight_filler {
      type: "gaussian"
      std: 0.01
    }
    bias_filler {
      type: "constant"
      value: 0
    }
    engine: MKL2017
  }
}
layer {
  name: "relu3"
  type: "ReLU"
  bottom: "conv3"
  top: "conv3"
  relu_param {
    engine: MKL2017
  }
}
layer {
  name: "conv4"
  type: "Convolution"
  bottom: "conv3"
  top: "conv4"
  param {
    lr_mult: 1
    decay_mult: 1
  }
  param {
    lr_mult: 2
    decay_mult: 0
  }
  convolution_param {
    num_output: 384
    pad: 1
    kernel_size: 3
    group: 2
    weight_filler {
      type: "gaussian"
      std: 0.01
    }
    bias_filler {
      type: "constant"
      value: 0.1
    }
    engine: MKL2017
  }
}
layer {
  name: "relu4"
  type: "ReLU"
  bottom: "conv4"
  top: "conv4"
  relu_param {
    engine: MKL2017
  }
}
layer {
  name: "conv5"
  type: "Convolution"
  bottom: "conv4"
  top: "conv5"
  param {
    lr_mult: 1
    decay_mult: 1
  }
  param {
    lr_mult: 2
    decay_mult: 0
  }
  convolution_param {
    num_output: 256
    pad: 1
    kernel_size: 3
    group: 2
    weight_filler {
      type: "gaussian"
      std: 0.01
    }
    bias_filler {
      type: "constant"
      value: 0.1
    }
    engine: MKL2017
  }
}
layer {
  name: "relu5"
  type: "ReLU"
  bottom: "conv5"
  top: "conv5"
  relu_param {
    engine: MKL2017
  }
}
layer {
  name: "pool5"
  type: "Pooling"
  bottom: "conv5"
  top: "pool5"
  pooling_param {
    pool: MAX
    kernel_size: 3
    stride: 2
    engine: MKL2017
  }
}
layer {
  name: "fc6"
  type: "InnerProduct"
  bottom: "pool5"
  top: "fc6"
  param {
    lr_mult: 1
    decay_mult: 1
  }
  param {
    lr_mult: 2
    decay_mult: 0
  }
  inner_product_param {
    num_output: 4096
    weight_filler {
      type: "gaussian"
      std: 0.005
    }
    bias_filler {
      type: "constant"
      value: 0.1
    }
  }
}
layer {
  name: "relu6"
  type: "ReLU"
  bottom: "fc6"
  top: "fc6"
}
layer {
  name: "drop6"
  type: "Dropout"
  bottom: "fc6"
  top: "fc6"
  dropout_param {
    dropout_ratio: 0.5
  }
}
layer {
  name: "fc7"
  type: "InnerProduct"
  bottom: "fc6"
  top: "fc7"
  param {
    lr_mult: 1
    decay_mult: 1
  }
  param {
    lr_mult: 2
    decay_mult: 0
  }
  inner_product_param {
    num_output: 4096
    weight_filler {
      type: "gaussian"
      std: 0.005
    }
    bias_filler {
      type: "constant"
      value: 0.1
    }
  }
}
layer {
  name: "relu7"
  type: "ReLU"
  bottom: "fc7"
  top: "fc7"
}
layer {
  name: "drop7"
  type: "Dropout"
  bottom: "fc7"
  top: "fc7"
  dropout_param {
    dropout_ratio: 0.5
  }
}
layer {
  name: "fc8"
  type: "InnerProduct"
  bottom: "fc7"
  top: "fc8"
  param {
    lr_mult: 1
    decay_mult: 1
  }
  param {
    lr_mult: 2
    decay_mult: 0
  }
  inner_product_param {
    num_output: 1000
    weight_filler {
      type: "gaussian"
      std: 0.01
    }
    bias_filler {
      type: "constant"
      value: 0
    }
  }
}
layer {
  name: "loss"
  type: "SoftmaxWithLoss"
  bottom: "fc8"
  bottom: "label"
  top: "loss"
}
I1109 00:13:37.377408 138227 layer_factory.hpp:114] Creating layer data
I1109 00:13:37.524098 138227 net.cpp:160] Creating Layer data
I1109 00:13:37.571931 138227 net.cpp:570] data -> data
I1109 00:13:38.041154 138227 net.cpp:570] data -> label
I1109 00:13:45.100064 138227 net.cpp:210] Setting up data
I1109 00:13:45.189648 138227 net.cpp:217] Top shape: 32 3 227 227 (4946784)
I1109 00:13:45.293071 138227 net.cpp:217] Top shape: 32 1 1 1 (32)
I1109 00:13:45.300104 138227 net.cpp:225] Memory required for data: 19787264
I1109 00:13:45.367542 138227 layer_factory.hpp:114] Creating layer conv1
I1109 00:13:45.697146 138227 net.cpp:160] Creating Layer conv1
I1109 00:13:45.747350 138227 net.cpp:596] conv1 <- data
I1109 00:13:45.867130 138227 net.cpp:570] conv1 -> conv1
I1109 00:14:18.811393 138227 net.cpp:210] Setting up conv1
I1109 00:14:18.818219 138227 net.cpp:217] Top shape: 32 96 55 55 (9292800)
I1109 00:14:18.818612 138227 net.cpp:225] Memory required for data: 56958464
I1109 00:14:19.099093 138227 layer_factory.hpp:114] Creating layer relu1
I1109 00:14:19.223506 138227 net.cpp:160] Creating Layer relu1
I1109 00:14:19.228382 138227 net.cpp:596] relu1 <- conv1
I1109 00:14:19.261659 138227 net.cpp:557] relu1 -> conv1 (in-place)
I1109 00:14:19.453737 138227 net.cpp:210] Setting up relu1
I1109 00:14:19.456163 138227 net.cpp:217] Top shape: 32 96 55 55 (9292800)
I1109 00:14:19.456498 138227 net.cpp:225] Memory required for data: 94129664
I1109 00:14:19.456732 138227 layer_factory.hpp:114] Creating layer norm1
I1109 00:14:19.563138 138227 net.cpp:160] Creating Layer norm1
I1109 00:14:19.563467 138227 net.cpp:596] norm1 <- conv1
I1109 00:14:19.566150 138227 net.cpp:570] norm1 -> norm1
I1109 00:14:19.790024 138227 net.cpp:210] Setting up norm1
I1109 00:14:19.802891 138227 net.cpp:217] Top shape: 32 96 55 55 (9292800)
I1109 00:14:19.803274 138227 net.cpp:225] Memory required for data: 131300864
I1109 00:14:19.803611 138227 layer_factory.hpp:114] Creating layer pool1
I1109 00:14:19.897791 138227 net.cpp:160] Creating Layer pool1
I1109 00:14:19.898104 138227 net.cpp:596] pool1 <- norm1
I1109 00:14:19.912900 138227 net.cpp:570] pool1 -> pool1
I1109 00:14:20.216277 138227 net.cpp:210] Setting up pool1
I1109 00:14:20.218906 138227 net.cpp:217] Top shape: 32 96 27 27 (2239488)
I1109 00:14:20.219296 138227 net.cpp:225] Memory required for data: 140258816
I1109 00:14:20.219540 138227 layer_factory.hpp:114] Creating layer conv2
I1109 00:14:20.219956 138227 net.cpp:160] Creating Layer conv2
I1109 00:14:20.220201 138227 net.cpp:596] conv2 <- pool1
I1109 00:14:20.220458 138227 net.cpp:570] conv2 -> conv2
I1109 00:14:25.986338 138227 net.cpp:210] Setting up conv2
I1109 00:14:25.986673 138227 net.cpp:217] Top shape: 32 256 27 27 (5971968)
I1109 00:14:25.987068 138227 net.cpp:225] Memory required for data: 164146688
I1109 00:14:26.038014 138227 layer_factory.hpp:114] Creating layer relu2
I1109 00:14:26.038437 138227 net.cpp:160] Creating Layer relu2
I1109 00:14:26.038811 138227 net.cpp:596] relu2 <- conv2
I1109 00:14:26.039072 138227 net.cpp:557] relu2 -> conv2 (in-place)
I1109 00:14:26.039539 138227 net.cpp:210] Setting up relu2
I1109 00:14:26.039808 138227 net.cpp:217] Top shape: 32 256 27 27 (5971968)
I1109 00:14:26.040037 138227 net.cpp:225] Memory required for data: 188034560
I1109 00:14:26.040220 138227 layer_factory.hpp:114] Creating layer norm2
I1109 00:14:26.040462 138227 net.cpp:160] Creating Layer norm2
I1109 00:14:26.040660 138227 net.cpp:596] norm2 <- conv2
I1109 00:14:26.040971 138227 net.cpp:570] norm2 -> norm2
I1109 00:14:26.043033 138227 net.cpp:210] Setting up norm2
I1109 00:14:26.043341 138227 net.cpp:217] Top shape: 32 256 27 27 (5971968)
I1109 00:14:26.043573 138227 net.cpp:225] Memory required for data: 211922432
I1109 00:14:26.043761 138227 layer_factory.hpp:114] Creating layer pool2
I1109 00:14:26.044073 138227 net.cpp:160] Creating Layer pool2
I1109 00:14:26.044317 138227 net.cpp:596] pool2 <- norm2
I1109 00:14:26.044711 138227 net.cpp:570] pool2 -> pool2
I1109 00:14:26.045213 138227 net.cpp:210] Setting up pool2
I1109 00:14:26.045454 138227 net.cpp:217] Top shape: 32 256 13 13 (1384448)
I1109 00:14:26.045676 138227 net.cpp:225] Memory required for data: 217460224
I1109 00:14:26.045871 138227 layer_factory.hpp:114] Creating layer conv3
I1109 00:14:26.046196 138227 net.cpp:160] Creating Layer conv3
I1109 00:14:26.046413 138227 net.cpp:596] conv3 <- pool2
I1109 00:14:26.046653 138227 net.cpp:570] conv3 -> conv3
I1109 00:14:26.529115 138227 net.cpp:210] Setting up conv3
I1109 00:14:26.531582 138227 net.cpp:217] Top shape: 32 384 13 13 (2076672)
I1109 00:14:26.531947 138227 net.cpp:225] Memory required for data: 225766912
I1109 00:14:26.535118 138227 layer_factory.hpp:114] Creating layer relu3
I1109 00:14:26.535534 138227 net.cpp:160] Creating Layer relu3
I1109 00:14:26.535851 138227 net.cpp:596] relu3 <- conv3
I1109 00:14:26.536142 138227 net.cpp:557] relu3 -> conv3 (in-place)
I1109 00:14:26.540434 138227 net.cpp:210] Setting up relu3
I1109 00:14:26.540760 138227 net.cpp:217] Top shape: 32 384 13 13 (2076672)
I1109 00:14:26.541151 138227 net.cpp:225] Memory required for data: 234073600
I1109 00:14:26.541416 138227 layer_factory.hpp:114] Creating layer conv4
I1109 00:14:26.541807 138227 net.cpp:160] Creating Layer conv4
I1109 00:14:26.542083 138227 net.cpp:596] conv4 <- conv3
I1109 00:14:26.542393 138227 net.cpp:570] conv4 -> conv4
I1109 00:14:26.787066 138227 net.cpp:210] Setting up conv4
I1109 00:14:26.787457 138227 net.cpp:217] Top shape: 32 384 13 13 (2076672)
I1109 00:14:26.787928 138227 net.cpp:225] Memory required for data: 242380288
I1109 00:14:26.788282 138227 layer_factory.hpp:114] Creating layer relu4
I1109 00:14:26.788591 138227 net.cpp:160] Creating Layer relu4
I1109 00:14:26.788877 138227 net.cpp:596] relu4 <- conv4
I1109 00:14:26.789145 138227 net.cpp:557] relu4 -> conv4 (in-place)
I1109 00:14:26.801497 138227 net.cpp:210] Setting up relu4
I1109 00:14:26.801844 138227 net.cpp:217] Top shape: 32 384 13 13 (2076672)
I1109 00:14:26.802253 138227 net.cpp:225] Memory required for data: 250686976
I1109 00:14:26.802469 138227 layer_factory.hpp:114] Creating layer conv5
I1109 00:14:26.802835 138227 net.cpp:160] Creating Layer conv5
I1109 00:14:26.803084 138227 net.cpp:596] conv5 <- conv4
I1109 00:14:26.803331 138227 net.cpp:570] conv5 -> conv5
I1109 00:14:26.971882 138227 net.cpp:210] Setting up conv5
I1109 00:14:26.972270 138227 net.cpp:217] Top shape: 32 256 13 13 (1384448)
I1109 00:14:26.972698 138227 net.cpp:225] Memory required for data: 256224768
I1109 00:14:26.977475 138227 layer_factory.hpp:114] Creating layer relu5
I1109 00:14:26.977921 138227 net.cpp:160] Creating Layer relu5
I1109 00:14:26.978191 138227 net.cpp:596] relu5 <- conv5
I1109 00:14:26.978482 138227 net.cpp:557] relu5 -> conv5 (in-place)
I1109 00:14:26.979048 138227 net.cpp:210] Setting up relu5
I1109 00:14:26.979343 138227 net.cpp:217] Top shape: 32 256 13 13 (1384448)
I1109 00:14:26.979593 138227 net.cpp:225] Memory required for data: 261762560
I1109 00:14:26.979802 138227 layer_factory.hpp:114] Creating layer pool5
I1109 00:14:26.980067 138227 net.cpp:160] Creating Layer pool5
I1109 00:14:26.980285 138227 net.cpp:596] pool5 <- conv5
I1109 00:14:26.980514 138227 net.cpp:570] pool5 -> pool5
I1109 00:14:26.981001 138227 net.cpp:210] Setting up pool5
I1109 00:14:26.981341 138227 net.cpp:217] Top shape: 32 256 6 6 (294912)
I1109 00:14:26.981577 138227 net.cpp:225] Memory required for data: 262942208
I1109 00:14:26.981763 138227 layer_factory.hpp:114] Creating layer fc6
I1109 00:14:27.036260 138227 net.cpp:160] Creating Layer fc6
I1109 00:14:27.036568 138227 net.cpp:596] fc6 <- pool5
I1109 00:14:27.036983 138227 net.cpp:570] fc6 -> fc6
I1109 00:14:31.176061 138227 net.cpp:210] Setting up fc6
I1109 00:14:31.176398 138227 net.cpp:217] Top shape: 32 4096 (131072)
I1109 00:14:31.178603 138227 net.cpp:225] Memory required for data: 263466496
I1109 00:14:31.178920 138227 layer_factory.hpp:114] Creating layer relu6
I1109 00:14:31.181476 138227 net.cpp:160] Creating Layer relu6
I1109 00:14:31.181772 138227 net.cpp:596] relu6 <- fc6
I1109 00:14:31.182005 138227 net.cpp:557] relu6 -> fc6 (in-place)
I1109 00:14:31.182428 138227 net.cpp:210] Setting up relu6
I1109 00:14:31.182683 138227 net.cpp:217] Top shape: 32 4096 (131072)
I1109 00:14:31.182907 138227 net.cpp:225] Memory required for data: 263990784
I1109 00:14:31.183092 138227 layer_factory.hpp:114] Creating layer drop6
I1109 00:14:31.203398 138227 net.cpp:160] Creating Layer drop6
I1109 00:14:31.203704 138227 net.cpp:596] drop6 <- fc6
I1109 00:14:31.204061 138227 net.cpp:557] drop6 -> fc6 (in-place)
I1109 00:14:31.307080 138227 net.cpp:210] Setting up drop6
I1109 00:14:31.307375 138227 net.cpp:217] Top shape: 32 4096 (131072)
I1109 00:14:31.307714 138227 net.cpp:225] Memory required for data: 264515072
I1109 00:14:31.307958 138227 layer_factory.hpp:114] Creating layer fc7
I1109 00:14:31.308248 138227 net.cpp:160] Creating Layer fc7
I1109 00:14:31.308465 138227 net.cpp:596] fc7 <- fc6
I1109 00:14:31.308869 138227 net.cpp:570] fc7 -> fc7
I1109 00:14:33.033073 138227 net.cpp:210] Setting up fc7
I1109 00:14:33.033426 138227 net.cpp:217] Top shape: 32 4096 (131072)
I1109 00:14:33.033823 138227 net.cpp:225] Memory required for data: 265039360
I1109 00:14:33.034173 138227 layer_factory.hpp:114] Creating layer relu7
I1109 00:14:33.034492 138227 net.cpp:160] Creating Layer relu7
I1109 00:14:33.034736 138227 net.cpp:596] relu7 <- fc7
I1109 00:14:33.034976 138227 net.cpp:557] relu7 -> fc7 (in-place)
I1109 00:14:33.035410 138227 net.cpp:210] Setting up relu7
I1109 00:14:33.035688 138227 net.cpp:217] Top shape: 32 4096 (131072)
I1109 00:14:33.035926 138227 net.cpp:225] Memory required for data: 265563648
I1109 00:14:33.036151 138227 layer_factory.hpp:114] Creating layer drop7
I1109 00:14:33.036396 138227 net.cpp:160] Creating Layer drop7
I1109 00:14:33.036617 138227 net.cpp:596] drop7 <- fc7
I1109 00:14:33.036924 138227 net.cpp:557] drop7 -> fc7 (in-place)
I1109 00:14:33.037212 138227 net.cpp:210] Setting up drop7
I1109 00:14:33.037421 138227 net.cpp:217] Top shape: 32 4096 (131072)
I1109 00:14:33.037634 138227 net.cpp:225] Memory required for data: 266087936
I1109 00:14:33.037816 138227 layer_factory.hpp:114] Creating layer fc8
I1109 00:14:33.038086 138227 net.cpp:160] Creating Layer fc8
I1109 00:14:33.038290 138227 net.cpp:596] fc8 <- fc7
I1109 00:14:33.038518 138227 net.cpp:570] fc8 -> fc8
I1109 00:14:33.462442 138227 net.cpp:210] Setting up fc8
I1109 00:14:33.462785 138227 net.cpp:217] Top shape: 32 1000 (32000)
I1109 00:14:33.463162 138227 net.cpp:225] Memory required for data: 266215936
I1109 00:14:33.463485 138227 layer_factory.hpp:114] Creating layer loss
I1109 00:14:33.487959 138227 net.cpp:160] Creating Layer loss
I1109 00:14:33.488276 138227 net.cpp:596] loss <- fc8
I1109 00:14:33.489321 138227 net.cpp:596] loss <- label
I1109 00:14:33.516728 138227 net.cpp:570] loss -> loss
I1109 00:14:33.554787 138227 layer_factory.hpp:114] Creating layer loss
…
