…
I1109 00:33:12.302609 138669 net.cpp:484] The NetState phase (0) differed from the phase (1) specified by a rule in layer accuracy
I1109 00:33:12.932909 138669 net.cpp:120] Initializing net from parameters: 
name: "AlexNet"
state {
  phase: TRAIN
  level: 0
  stage: ""
}
layer {
  name: "data"
  type: "DummyData"
  top: "data"
  top: "label"
  include {
    phase: TRAIN
  }
  dummy_data_param {
    data_filler {
      type: "gaussian"
      std: 1
    }
    data_filler {
      type: "constant"
      value: 0
    }
    shape {
      dim: 32
      dim: 3
      dim: 227
      dim: 227
    }
    shape {
      dim: 32
      dim: 1
      dim: 1
      dim: 1
    }
  }
}
layer {
  name: "conv1"
  type: "Convolution"
  bottom: "data"
  top: "conv1"
  param {
    lr_mult: 1
    decay_mult: 1
  }
  param {
    lr_mult: 2
    decay_mult: 0
  }
  convolution_param {
    num_output: 96
    kernel_size: 11
    stride: 4
    weight_filler {
      type: "gaussian"
      std: 0.01
    }
    bias_filler {
      type: "constant"
      value: 0
    }
    engine: MKL2017
  }
}
layer {
  name: "relu1"
  type: "ReLU"
  bottom: "conv1"
  top: "conv1"
  relu_param {
    engine: MKL2017
  }
}
layer {
  name: "norm1"
  type: "LRN"
  bottom: "conv1"
  top: "norm1"
  lrn_param {
    local_size: 5
    alpha: 0.0001
    beta: 0.75
    engine: MKL2017
  }
}
layer {
  name: "pool1"
  type: "Pooling"
  bottom: "norm1"
  top: "pool1"
  pooling_param {
    pool: MAX
    kernel_size: 3
    stride: 2
    engine: MKL2017
  }
}
layer {
  name: "conv2"
  type: "Convolution"
  bottom: "pool1"
  top: "conv2"
  param {
    lr_mult: 1
    decay_mult: 1
  }
  param {
    lr_mult: 2
    decay_mult: 0
  }
  convolution_param {
    num_output: 256
    pad: 2
    kernel_size: 5
    group: 2
    weight_filler {
      type: "gaussian"
      std: 0.01
    }
    bias_filler {
      type: "constant"
      value: 0.1
    }
    engine: MKL2017
  }
}
layer {
  name: "relu2"
  type: "ReLU"
  bottom: "conv2"
  top: "conv2"
  relu_param {
    engine: MKL2017
  }
}
layer {
  name: "norm2"
  type: "LRN"
  bottom: "conv2"
  top: "norm2"
  lrn_param {
    local_size: 5
    alpha: 0.0001
    beta: 0.75
    engine: MKL2017
  }
}
layer {
  name: "pool2"
  type: "Pooling"
  bottom: "norm2"
  top: "pool2"
  pooling_param {
    pool: MAX
    kernel_size: 3
    stride: 2
    engine: MKL2017
  }
}
layer {
  name: "conv3"
  type: "Convolution"
  bottom: "pool2"
  top: "conv3"
  param {
    lr_mult: 1
    decay_mult: 1
  }
  param {
    lr_mult: 2
    decay_mult: 0
  }
  convolution_param {
    num_output: 384
    pad: 1
    kernel_size: 3
    weight_filler {
      type: "gaussian"
      std: 0.01
    }
    bias_filler {
      type: "constant"
      value: 0
    }
    engine: MKL2017
  }
}
layer {
  name: "relu3"
  type: "ReLU"
  bottom: "conv3"
  top: "conv3"
  relu_param {
    engine: MKL2017
  }
}
layer {
  name: "conv4"
  type: "Convolution"
  bottom: "conv3"
  top: "conv4"
  param {
    lr_mult: 1
    decay_mult: 1
  }
  param {
    lr_mult: 2
    decay_mult: 0
  }
  convolution_param {
    num_output: 384
    pad: 1
    kernel_size: 3
    group: 2
    weight_filler {
      type: "gaussian"
      std: 0.01
    }
    bias_filler {
      type: "constant"
      value: 0.1
    }
    engine: MKL2017
  }
}
layer {
  name: "relu4"
  type: "ReLU"
  bottom: "conv4"
  top: "conv4"
  relu_param {
    engine: MKL2017
  }
}
layer {
  name: "conv5"
  type: "Convolution"
  bottom: "conv4"
  top: "conv5"
  param {
    lr_mult: 1
    decay_mult: 1
  }
  param {
    lr_mult: 2
    decay_mult: 0
  }
  convolution_param {
    num_output: 256
    pad: 1
    kernel_size: 3
    group: 2
    weight_filler {
      type: "gaussian"
      std: 0.01
    }
    bias_filler {
      type: "constant"
      value: 0.1
    }
    engine: MKL2017
  }
}
layer {
  name: "relu5"
  type: "ReLU"
  bottom: "conv5"
  top: "conv5"
  relu_param {
    engine: MKL2017
  }
}
layer {
  name: "pool5"
  type: "Pooling"
  bottom: "conv5"
  top: "pool5"
  pooling_param {
    pool: MAX
    kernel_size: 3
    stride: 2
    engine: MKL2017
  }
}
layer {
  name: "fc6"
  type: "InnerProduct"
  bottom: "pool5"
  top: "fc6"
  param {
    lr_mult: 1
    decay_mult: 1
  }
  param {
    lr_mult: 2
    decay_mult: 0
  }
  inner_product_param {
    num_output: 4096
    weight_filler {
      type: "gaussian"
      std: 0.005
    }
    bias_filler {
      type: "constant"
      value: 0.1
    }
  }
}
layer {
  name: "relu6"
  type: "ReLU"
  bottom: "fc6"
  top: "fc6"
}
layer {
  name: "drop6"
  type: "Dropout"
  bottom: "fc6"
  top: "fc6"
  dropout_param {
    dropout_ratio: 0.5
  }
}
layer {
  name: "fc7"
  type: "InnerProduct"
  bottom: "fc6"
  top: "fc7"
  param {
    lr_mult: 1
    decay_mult: 1
  }
  param {
    lr_mult: 2
    decay_mult: 0
  }
  inner_product_param {
    num_output: 4096
    weight_filler {
      type: "gaussian"
      std: 0.005
    }
    bias_filler {
      type: "constant"
      value: 0.1
    }
  }
}
layer {
  name: "relu7"
  type: "ReLU"
  bottom: "fc7"
  top: "fc7"
}
layer {
  name: "drop7"
  type: "Dropout"
  bottom: "fc7"
  top: "fc7"
  dropout_param {
    dropout_ratio: 0.5
  }
}
layer {
  name: "fc8"
  type: "InnerProduct"
  bottom: "fc7"
  top: "fc8"
  param {
    lr_mult: 1
    decay_mult: 1
  }
  param {
    lr_mult: 2
    decay_mult: 0
  }
  inner_product_param {
    num_output: 1000
    weight_filler {
      type: "gaussian"
      std: 0.01
    }
    bias_filler {
      type: "constant"
      value: 0
    }
  }
}
layer {
  name: "loss"
  type: "SoftmaxWithLoss"
  bottom: "fc8"
  bottom: "label"
  top: "loss"
}
I1109 00:33:15.378710 138669 layer_factory.hpp:114] Creating layer data
I1109 00:33:15.525518 138669 net.cpp:160] Creating Layer data
I1109 00:33:15.575548 138669 net.cpp:570] data -> data
I1109 00:33:16.041283 138669 net.cpp:570] data -> label
I1109 00:33:23.082515 138669 net.cpp:210] Setting up data
I1109 00:33:23.162058 138669 net.cpp:217] Top shape: 32 3 227 227 (4946784)
I1109 00:33:23.265897 138669 net.cpp:217] Top shape: 32 1 1 1 (32)
I1109 00:33:23.273066 138669 net.cpp:225] Memory required for data: 19787264
I1109 00:33:23.343495 138669 layer_factory.hpp:114] Creating layer conv1
I1109 00:33:23.675642 138669 net.cpp:160] Creating Layer conv1
I1109 00:33:23.725392 138669 net.cpp:596] conv1 <- data
I1109 00:33:23.845011 138669 net.cpp:570] conv1 -> conv1
I1109 00:33:56.738620 138669 net.cpp:210] Setting up conv1
I1109 00:33:56.745708 138669 net.cpp:217] Top shape: 32 96 55 55 (9292800)
I1109 00:33:56.746106 138669 net.cpp:225] Memory required for data: 56958464
I1109 00:33:57.027050 138669 layer_factory.hpp:114] Creating layer relu1
I1109 00:33:57.147233 138669 net.cpp:160] Creating Layer relu1
I1109 00:33:57.151844 138669 net.cpp:596] relu1 <- conv1
I1109 00:33:57.184092 138669 net.cpp:557] relu1 -> conv1 (in-place)
I1109 00:33:57.372560 138669 net.cpp:210] Setting up relu1
I1109 00:33:57.374985 138669 net.cpp:217] Top shape: 32 96 55 55 (9292800)
I1109 00:33:57.375322 138669 net.cpp:225] Memory required for data: 94129664
I1109 00:33:57.375522 138669 layer_factory.hpp:114] Creating layer norm1
I1109 00:33:57.484690 138669 net.cpp:160] Creating Layer norm1
I1109 00:33:57.485064 138669 net.cpp:596] norm1 <- conv1
I1109 00:33:57.487629 138669 net.cpp:570] norm1 -> norm1
I1109 00:33:57.712618 138669 net.cpp:210] Setting up norm1
I1109 00:33:57.725611 138669 net.cpp:217] Top shape: 32 96 55 55 (9292800)
I1109 00:33:57.725986 138669 net.cpp:225] Memory required for data: 131300864
I1109 00:33:57.726290 138669 layer_factory.hpp:114] Creating layer pool1
I1109 00:33:57.819473 138669 net.cpp:160] Creating Layer pool1
I1109 00:33:57.819784 138669 net.cpp:596] pool1 <- norm1
I1109 00:33:57.834527 138669 net.cpp:570] pool1 -> pool1
I1109 00:33:58.135546 138669 net.cpp:210] Setting up pool1
I1109 00:33:58.138089 138669 net.cpp:217] Top shape: 32 96 27 27 (2239488)
I1109 00:33:58.138412 138669 net.cpp:225] Memory required for data: 140258816
I1109 00:33:58.138660 138669 layer_factory.hpp:114] Creating layer conv2
I1109 00:33:58.139035 138669 net.cpp:160] Creating Layer conv2
I1109 00:33:58.139291 138669 net.cpp:596] conv2 <- pool1
I1109 00:33:58.139523 138669 net.cpp:570] conv2 -> conv2
I1109 00:34:03.895375 138669 net.cpp:210] Setting up conv2
I1109 00:34:03.895711 138669 net.cpp:217] Top shape: 32 256 27 27 (5971968)
I1109 00:34:03.896114 138669 net.cpp:225] Memory required for data: 164146688
I1109 00:34:03.946535 138669 layer_factory.hpp:114] Creating layer relu2
I1109 00:34:03.946949 138669 net.cpp:160] Creating Layer relu2
I1109 00:34:03.947302 138669 net.cpp:596] relu2 <- conv2
I1109 00:34:03.947561 138669 net.cpp:557] relu2 -> conv2 (in-place)
I1109 00:34:03.948012 138669 net.cpp:210] Setting up relu2
I1109 00:34:03.948282 138669 net.cpp:217] Top shape: 32 256 27 27 (5971968)
I1109 00:34:03.948511 138669 net.cpp:225] Memory required for data: 188034560
I1109 00:34:03.948696 138669 layer_factory.hpp:114] Creating layer norm2
I1109 00:34:03.948988 138669 net.cpp:160] Creating Layer norm2
I1109 00:34:03.949188 138669 net.cpp:596] norm2 <- conv2
I1109 00:34:03.949419 138669 net.cpp:570] norm2 -> norm2
I1109 00:34:03.951534 138669 net.cpp:210] Setting up norm2
I1109 00:34:03.951840 138669 net.cpp:217] Top shape: 32 256 27 27 (5971968)
I1109 00:34:03.952069 138669 net.cpp:225] Memory required for data: 211922432
I1109 00:34:03.952256 138669 layer_factory.hpp:114] Creating layer pool2
I1109 00:34:03.953117 138669 net.cpp:160] Creating Layer pool2
I1109 00:34:03.953405 138669 net.cpp:596] pool2 <- norm2
I1109 00:34:03.953677 138669 net.cpp:570] pool2 -> pool2
I1109 00:34:03.954128 138669 net.cpp:210] Setting up pool2
I1109 00:34:03.954501 138669 net.cpp:217] Top shape: 32 256 13 13 (1384448)
I1109 00:34:03.954727 138669 net.cpp:225] Memory required for data: 217460224
I1109 00:34:03.954923 138669 layer_factory.hpp:114] Creating layer conv3
I1109 00:34:03.955257 138669 net.cpp:160] Creating Layer conv3
I1109 00:34:03.955482 138669 net.cpp:596] conv3 <- pool2
I1109 00:34:03.955724 138669 net.cpp:570] conv3 -> conv3
I1109 00:34:04.456323 138669 net.cpp:210] Setting up conv3
I1109 00:34:04.458767 138669 net.cpp:217] Top shape: 32 384 13 13 (2076672)
I1109 00:34:04.459131 138669 net.cpp:225] Memory required for data: 225766912
I1109 00:34:04.462167 138669 layer_factory.hpp:114] Creating layer relu3
I1109 00:34:04.462560 138669 net.cpp:160] Creating Layer relu3
I1109 00:34:04.462812 138669 net.cpp:596] relu3 <- conv3
I1109 00:34:04.463052 138669 net.cpp:557] relu3 -> conv3 (in-place)
I1109 00:34:04.467303 138669 net.cpp:210] Setting up relu3
I1109 00:34:04.467641 138669 net.cpp:217] Top shape: 32 384 13 13 (2076672)
I1109 00:34:04.467881 138669 net.cpp:225] Memory required for data: 234073600
I1109 00:34:04.468073 138669 layer_factory.hpp:114] Creating layer conv4
I1109 00:34:04.468436 138669 net.cpp:160] Creating Layer conv4
I1109 00:34:04.468690 138669 net.cpp:596] conv4 <- conv3
I1109 00:34:04.468994 138669 net.cpp:570] conv4 -> conv4
I1109 00:34:04.710831 138669 net.cpp:210] Setting up conv4
I1109 00:34:04.711212 138669 net.cpp:217] Top shape: 32 384 13 13 (2076672)
I1109 00:34:04.711596 138669 net.cpp:225] Memory required for data: 242380288
I1109 00:34:04.711933 138669 layer_factory.hpp:114] Creating layer relu4
I1109 00:34:04.712225 138669 net.cpp:160] Creating Layer relu4
I1109 00:34:04.712445 138669 net.cpp:596] relu4 <- conv4
I1109 00:34:04.712673 138669 net.cpp:557] relu4 -> conv4 (in-place)
I1109 00:34:04.724910 138669 net.cpp:210] Setting up relu4
I1109 00:34:04.725252 138669 net.cpp:217] Top shape: 32 384 13 13 (2076672)
I1109 00:34:04.725697 138669 net.cpp:225] Memory required for data: 250686976
I1109 00:34:04.725940 138669 layer_factory.hpp:114] Creating layer conv5
I1109 00:34:04.726306 138669 net.cpp:160] Creating Layer conv5
I1109 00:34:04.726541 138669 net.cpp:596] conv5 <- conv4
I1109 00:34:04.726783 138669 net.cpp:570] conv5 -> conv5
I1109 00:34:04.894877 138669 net.cpp:210] Setting up conv5
I1109 00:34:04.895269 138669 net.cpp:217] Top shape: 32 256 13 13 (1384448)
I1109 00:34:04.895673 138669 net.cpp:225] Memory required for data: 256224768
I1109 00:34:04.900319 138669 layer_factory.hpp:114] Creating layer relu5
I1109 00:34:04.900719 138669 net.cpp:160] Creating Layer relu5
I1109 00:34:04.901058 138669 net.cpp:596] relu5 <- conv5
I1109 00:34:04.901341 138669 net.cpp:557] relu5 -> conv5 (in-place)
I1109 00:34:04.901820 138669 net.cpp:210] Setting up relu5
I1109 00:34:04.902194 138669 net.cpp:217] Top shape: 32 256 13 13 (1384448)
I1109 00:34:04.902428 138669 net.cpp:225] Memory required for data: 261762560
I1109 00:34:04.902633 138669 layer_factory.hpp:114] Creating layer pool5
I1109 00:34:04.902890 138669 net.cpp:160] Creating Layer pool5
I1109 00:34:04.903101 138669 net.cpp:596] pool5 <- conv5
I1109 00:34:04.903321 138669 net.cpp:570] pool5 -> pool5
I1109 00:34:04.903720 138669 net.cpp:210] Setting up pool5
I1109 00:34:04.903975 138669 net.cpp:217] Top shape: 32 256 6 6 (294912)
I1109 00:34:04.904237 138669 net.cpp:225] Memory required for data: 262942208
I1109 00:34:04.904433 138669 layer_factory.hpp:114] Creating layer fc6
I1109 00:34:04.959162 138669 net.cpp:160] Creating Layer fc6
I1109 00:34:04.959470 138669 net.cpp:596] fc6 <- pool5
I1109 00:34:04.959870 138669 net.cpp:570] fc6 -> fc6
I1109 00:34:09.050470 138669 net.cpp:210] Setting up fc6
I1109 00:34:09.050772 138669 net.cpp:217] Top shape: 32 4096 (131072)
I1109 00:34:09.052938 138669 net.cpp:225] Memory required for data: 263466496
I1109 00:34:09.053253 138669 layer_factory.hpp:114] Creating layer relu6
I1109 00:34:09.055752 138669 net.cpp:160] Creating Layer relu6
I1109 00:34:09.056049 138669 net.cpp:596] relu6 <- fc6
I1109 00:34:09.056277 138669 net.cpp:557] relu6 -> fc6 (in-place)
I1109 00:34:09.056699 138669 net.cpp:210] Setting up relu6
I1109 00:34:09.057014 138669 net.cpp:217] Top shape: 32 4096 (131072)
I1109 00:34:09.057241 138669 net.cpp:225] Memory required for data: 263990784
I1109 00:34:09.057425 138669 layer_factory.hpp:114] Creating layer drop6
I1109 00:34:09.077149 138669 net.cpp:160] Creating Layer drop6
I1109 00:34:09.077450 138669 net.cpp:596] drop6 <- fc6
I1109 00:34:09.077821 138669 net.cpp:557] drop6 -> fc6 (in-place)
I1109 00:34:09.182649 138669 net.cpp:210] Setting up drop6
I1109 00:34:09.182950 138669 net.cpp:217] Top shape: 32 4096 (131072)
I1109 00:34:09.183341 138669 net.cpp:225] Memory required for data: 264515072
I1109 00:34:09.183588 138669 layer_factory.hpp:114] Creating layer fc7
I1109 00:34:09.183862 138669 net.cpp:160] Creating Layer fc7
I1109 00:34:09.184064 138669 net.cpp:596] fc7 <- fc6
I1109 00:34:09.184448 138669 net.cpp:570] fc7 -> fc7
I1109 00:34:10.894073 138669 net.cpp:210] Setting up fc7
I1109 00:34:10.894412 138669 net.cpp:217] Top shape: 32 4096 (131072)
I1109 00:34:10.894778 138669 net.cpp:225] Memory required for data: 265039360
I1109 00:34:10.895112 138669 layer_factory.hpp:114] Creating layer relu7
I1109 00:34:10.895411 138669 net.cpp:160] Creating Layer relu7
I1109 00:34:10.895632 138669 net.cpp:596] relu7 <- fc7
I1109 00:34:10.895865 138669 net.cpp:557] relu7 -> fc7 (in-place)
I1109 00:34:10.896292 138669 net.cpp:210] Setting up relu7
I1109 00:34:10.896559 138669 net.cpp:217] Top shape: 32 4096 (131072)
I1109 00:34:10.896826 138669 net.cpp:225] Memory required for data: 265563648
I1109 00:34:10.897027 138669 layer_factory.hpp:114] Creating layer drop7
I1109 00:34:10.897251 138669 net.cpp:160] Creating Layer drop7
I1109 00:34:10.897444 138669 net.cpp:596] drop7 <- fc7
I1109 00:34:10.897675 138669 net.cpp:557] drop7 -> fc7 (in-place)
I1109 00:34:10.897977 138669 net.cpp:210] Setting up drop7
I1109 00:34:10.898185 138669 net.cpp:217] Top shape: 32 4096 (131072)
I1109 00:34:10.898409 138669 net.cpp:225] Memory required for data: 266087936
I1109 00:34:10.898617 138669 layer_factory.hpp:114] Creating layer fc8
I1109 00:34:10.898859 138669 net.cpp:160] Creating Layer fc8
I1109 00:34:10.899046 138669 net.cpp:596] fc8 <- fc7
I1109 00:34:10.899266 138669 net.cpp:570] fc8 -> fc8
I1109 00:34:11.323036 138669 net.cpp:210] Setting up fc8
I1109 00:34:11.323403 138669 net.cpp:217] Top shape: 32 1000 (32000)
I1109 00:34:11.323870 138669 net.cpp:225] Memory required for data: 266215936
I1109 00:34:11.324200 138669 layer_factory.hpp:114] Creating layer loss
I1109 00:34:11.349272 138669 net.cpp:160] Creating Layer loss
I1109 00:34:11.349587 138669 net.cpp:596] loss <- fc8
I1109 00:34:11.350559 138669 net.cpp:596] loss <- label
I1109 00:34:11.377883 138669 net.cpp:570] loss -> loss
I1109 00:34:11.415694 138669 layer_factory.hpp:114] Creating layer loss
…
