…
I1109 00:19:10.265151 138384 net.cpp:484] The NetState phase (0) differed from the phase (1) specified by a rule in layer accuracy
I1109 00:19:10.896991 138384 net.cpp:120] Initializing net from parameters: 
name: "AlexNet"
state {
  phase: TRAIN
  level: 0
  stage: ""
}
layer {
  name: "data"
  type: "DummyData"
  top: "data"
  top: "label"
  include {
    phase: TRAIN
  }
  dummy_data_param {
    data_filler {
      type: "gaussian"
      std: 1
    }
    data_filler {
      type: "constant"
      value: 0
    }
    shape {
      dim: 32
      dim: 3
      dim: 227
      dim: 227
    }
    shape {
      dim: 32
      dim: 1
      dim: 1
      dim: 1
    }
  }
}
layer {
  name: "conv1"
  type: "Convolution"
  bottom: "data"
  top: "conv1"
  param {
    lr_mult: 1
    decay_mult: 1
  }
  param {
    lr_mult: 2
    decay_mult: 0
  }
  convolution_param {
    num_output: 96
    kernel_size: 11
    stride: 4
    weight_filler {
      type: "gaussian"
      std: 0.01
    }
    bias_filler {
      type: "constant"
      value: 0
    }
    engine: MKL2017
  }
}
layer {
  name: "relu1"
  type: "ReLU"
  bottom: "conv1"
  top: "conv1"
  relu_param {
    engine: MKL2017
  }
}
layer {
  name: "norm1"
  type: "LRN"
  bottom: "conv1"
  top: "norm1"
  lrn_param {
    local_size: 5
    alpha: 0.0001
    beta: 0.75
    engine: MKL2017
  }
}
layer {
  name: "pool1"
  type: "Pooling"
  bottom: "norm1"
  top: "pool1"
  pooling_param {
    pool: MAX
    kernel_size: 3
    stride: 2
    engine: MKL2017
  }
}
layer {
  name: "conv2"
  type: "Convolution"
  bottom: "pool1"
  top: "conv2"
  param {
    lr_mult: 1
    decay_mult: 1
  }
  param {
    lr_mult: 2
    decay_mult: 0
  }
  convolution_param {
    num_output: 256
    pad: 2
    kernel_size: 5
    group: 2
    weight_filler {
      type: "gaussian"
      std: 0.01
    }
    bias_filler {
      type: "constant"
      value: 0.1
    }
    engine: MKL2017
  }
}
layer {
  name: "relu2"
  type: "ReLU"
  bottom: "conv2"
  top: "conv2"
  relu_param {
    engine: MKL2017
  }
}
layer {
  name: "norm2"
  type: "LRN"
  bottom: "conv2"
  top: "norm2"
  lrn_param {
    local_size: 5
    alpha: 0.0001
    beta: 0.75
    engine: MKL2017
  }
}
layer {
  name: "pool2"
  type: "Pooling"
  bottom: "norm2"
  top: "pool2"
  pooling_param {
    pool: MAX
    kernel_size: 3
    stride: 2
    engine: MKL2017
  }
}
layer {
  name: "conv3"
  type: "Convolution"
  bottom: "pool2"
  top: "conv3"
  param {
    lr_mult: 1
    decay_mult: 1
  }
  param {
    lr_mult: 2
    decay_mult: 0
  }
  convolution_param {
    num_output: 384
    pad: 1
    kernel_size: 3
    weight_filler {
      type: "gaussian"
      std: 0.01
    }
    bias_filler {
      type: "constant"
      value: 0
    }
    engine: MKL2017
  }
}
layer {
  name: "relu3"
  type: "ReLU"
  bottom: "conv3"
  top: "conv3"
  relu_param {
    engine: MKL2017
  }
}
layer {
  name: "conv4"
  type: "Convolution"
  bottom: "conv3"
  top: "conv4"
  param {
    lr_mult: 1
    decay_mult: 1
  }
  param {
    lr_mult: 2
    decay_mult: 0
  }
  convolution_param {
    num_output: 384
    pad: 1
    kernel_size: 3
    group: 2
    weight_filler {
      type: "gaussian"
      std: 0.01
    }
    bias_filler {
      type: "constant"
      value: 0.1
    }
    engine: MKL2017
  }
}
layer {
  name: "relu4"
  type: "ReLU"
  bottom: "conv4"
  top: "conv4"
  relu_param {
    engine: MKL2017
  }
}
layer {
  name: "conv5"
  type: "Convolution"
  bottom: "conv4"
  top: "conv5"
  param {
    lr_mult: 1
    decay_mult: 1
  }
  param {
    lr_mult: 2
    decay_mult: 0
  }
  convolution_param {
    num_output: 256
    pad: 1
    kernel_size: 3
    group: 2
    weight_filler {
      type: "gaussian"
      std: 0.01
    }
    bias_filler {
      type: "constant"
      value: 0.1
    }
    engine: MKL2017
  }
}
layer {
  name: "relu5"
  type: "ReLU"
  bottom: "conv5"
  top: "conv5"
  relu_param {
    engine: MKL2017
  }
}
layer {
  name: "pool5"
  type: "Pooling"
  bottom: "conv5"
  top: "pool5"
  pooling_param {
    pool: MAX
    kernel_size: 3
    stride: 2
    engine: MKL2017
  }
}
layer {
  name: "fc6"
  type: "InnerProduct"
  bottom: "pool5"
  top: "fc6"
  param {
    lr_mult: 1
    decay_mult: 1
  }
  param {
    lr_mult: 2
    decay_mult: 0
  }
  inner_product_param {
    num_output: 4096
    weight_filler {
      type: "gaussian"
      std: 0.005
    }
    bias_filler {
      type: "constant"
      value: 0.1
    }
  }
}
layer {
  name: "relu6"
  type: "ReLU"
  bottom: "fc6"
  top: "fc6"
}
layer {
  name: "drop6"
  type: "Dropout"
  bottom: "fc6"
  top: "fc6"
  dropout_param {
    dropout_ratio: 0.5
  }
}
layer {
  name: "fc7"
  type: "InnerProduct"
  bottom: "fc6"
  top: "fc7"
  param {
    lr_mult: 1
    decay_mult: 1
  }
  param {
    lr_mult: 2
    decay_mult: 0
  }
  inner_product_param {
    num_output: 4096
    weight_filler {
      type: "gaussian"
      std: 0.005
    }
    bias_filler {
      type: "constant"
      value: 0.1
    }
  }
}
layer {
  name: "relu7"
  type: "ReLU"
  bottom: "fc7"
  top: "fc7"
}
layer {
  name: "drop7"
  type: "Dropout"
  bottom: "fc7"
  top: "fc7"
  dropout_param {
    dropout_ratio: 0.5
  }
}
layer {
  name: "fc8"
  type: "InnerProduct"
  bottom: "fc7"
  top: "fc8"
  param {
    lr_mult: 1
    decay_mult: 1
  }
  param {
    lr_mult: 2
    decay_mult: 0
  }
  inner_product_param {
    num_output: 1000
    weight_filler {
      type: "gaussian"
      std: 0.01
    }
    bias_filler {
      type: "constant"
      value: 0
    }
  }
}
layer {
  name: "loss"
  type: "SoftmaxWithLoss"
  bottom: "fc8"
  bottom: "label"
  top: "loss"
}
I1109 00:19:13.355038 138384 layer_factory.hpp:114] Creating layer data
I1109 00:19:13.502166 138384 net.cpp:160] Creating Layer data
I1109 00:19:13.550218 138384 net.cpp:570] data -> data
I1109 00:19:14.018079 138384 net.cpp:570] data -> label
I1109 00:19:21.227663 138384 net.cpp:210] Setting up data
I1109 00:19:21.308966 138384 net.cpp:217] Top shape: 32 3 227 227 (4946784)
I1109 00:19:21.415326 138384 net.cpp:217] Top shape: 32 1 1 1 (32)
I1109 00:19:21.422505 138384 net.cpp:225] Memory required for data: 19787264
I1109 00:19:21.489734 138384 layer_factory.hpp:114] Creating layer conv1
I1109 00:19:21.816390 138384 net.cpp:160] Creating Layer conv1
I1109 00:19:21.868541 138384 net.cpp:596] conv1 <- data
I1109 00:19:21.993294 138384 net.cpp:570] conv1 -> conv1
I1109 00:19:54.794127 138384 net.cpp:210] Setting up conv1
I1109 00:19:54.801259 138384 net.cpp:217] Top shape: 32 96 55 55 (9292800)
I1109 00:19:54.801609 138384 net.cpp:225] Memory required for data: 56958464
I1109 00:19:55.079969 138384 layer_factory.hpp:114] Creating layer relu1
I1109 00:19:55.205312 138384 net.cpp:160] Creating Layer relu1
I1109 00:19:55.209931 138384 net.cpp:596] relu1 <- conv1
I1109 00:19:55.242673 138384 net.cpp:557] relu1 -> conv1 (in-place)
I1109 00:19:55.432699 138384 net.cpp:210] Setting up relu1
I1109 00:19:55.435207 138384 net.cpp:217] Top shape: 32 96 55 55 (9292800)
I1109 00:19:55.435547 138384 net.cpp:225] Memory required for data: 94129664
I1109 00:19:55.435788 138384 layer_factory.hpp:114] Creating layer norm1
I1109 00:19:55.544963 138384 net.cpp:160] Creating Layer norm1
I1109 00:19:55.545331 138384 net.cpp:596] norm1 <- conv1
I1109 00:19:55.547888 138384 net.cpp:570] norm1 -> norm1
I1109 00:19:55.774199 138384 net.cpp:210] Setting up norm1
I1109 00:19:55.787158 138384 net.cpp:217] Top shape: 32 96 55 55 (9292800)
I1109 00:19:55.787567 138384 net.cpp:225] Memory required for data: 131300864
I1109 00:19:55.787899 138384 layer_factory.hpp:114] Creating layer pool1
I1109 00:19:55.882357 138384 net.cpp:160] Creating Layer pool1
I1109 00:19:55.882671 138384 net.cpp:596] pool1 <- norm1
I1109 00:19:55.898257 138384 net.cpp:570] pool1 -> pool1
I1109 00:19:56.201455 138384 net.cpp:210] Setting up pool1
I1109 00:19:56.203912 138384 net.cpp:217] Top shape: 32 96 27 27 (2239488)
I1109 00:19:56.204237 138384 net.cpp:225] Memory required for data: 140258816
I1109 00:19:56.204447 138384 layer_factory.hpp:114] Creating layer conv2
I1109 00:19:56.204866 138384 net.cpp:160] Creating Layer conv2
I1109 00:19:56.205121 138384 net.cpp:596] conv2 <- pool1
I1109 00:19:56.205394 138384 net.cpp:570] conv2 -> conv2
I1109 00:20:01.990972 138384 net.cpp:210] Setting up conv2
I1109 00:20:01.991303 138384 net.cpp:217] Top shape: 32 256 27 27 (5971968)
I1109 00:20:01.991735 138384 net.cpp:225] Memory required for data: 164146688
I1109 00:20:02.041817 138384 layer_factory.hpp:114] Creating layer relu2
I1109 00:20:02.042233 138384 net.cpp:160] Creating Layer relu2
I1109 00:20:02.042589 138384 net.cpp:596] relu2 <- conv2
I1109 00:20:02.042839 138384 net.cpp:557] relu2 -> conv2 (in-place)
I1109 00:20:02.043279 138384 net.cpp:210] Setting up relu2
I1109 00:20:02.043545 138384 net.cpp:217] Top shape: 32 256 27 27 (5971968)
I1109 00:20:02.043769 138384 net.cpp:225] Memory required for data: 188034560
I1109 00:20:02.043956 138384 layer_factory.hpp:114] Creating layer norm2
I1109 00:20:02.044198 138384 net.cpp:160] Creating Layer norm2
I1109 00:20:02.044389 138384 net.cpp:596] norm2 <- conv2
I1109 00:20:02.044616 138384 net.cpp:570] norm2 -> norm2
I1109 00:20:02.046742 138384 net.cpp:210] Setting up norm2
I1109 00:20:02.047052 138384 net.cpp:217] Top shape: 32 256 27 27 (5971968)
I1109 00:20:02.047278 138384 net.cpp:225] Memory required for data: 211922432
I1109 00:20:02.047466 138384 layer_factory.hpp:114] Creating layer pool2
I1109 00:20:02.048403 138384 net.cpp:160] Creating Layer pool2
I1109 00:20:02.048750 138384 net.cpp:596] pool2 <- norm2
I1109 00:20:02.049059 138384 net.cpp:570] pool2 -> pool2
I1109 00:20:02.049470 138384 net.cpp:210] Setting up pool2
I1109 00:20:02.049713 138384 net.cpp:217] Top shape: 32 256 13 13 (1384448)
I1109 00:20:02.049933 138384 net.cpp:225] Memory required for data: 217460224
I1109 00:20:02.050132 138384 layer_factory.hpp:114] Creating layer conv3
I1109 00:20:02.050462 138384 net.cpp:160] Creating Layer conv3
I1109 00:20:02.050709 138384 net.cpp:596] conv3 <- pool2
I1109 00:20:02.050966 138384 net.cpp:570] conv3 -> conv3
I1109 00:20:02.526612 138384 net.cpp:210] Setting up conv3
I1109 00:20:02.529016 138384 net.cpp:217] Top shape: 32 384 13 13 (2076672)
I1109 00:20:02.529367 138384 net.cpp:225] Memory required for data: 225766912
I1109 00:20:02.532361 138384 layer_factory.hpp:114] Creating layer relu3
I1109 00:20:02.532759 138384 net.cpp:160] Creating Layer relu3
I1109 00:20:02.533069 138384 net.cpp:596] relu3 <- conv3
I1109 00:20:02.533313 138384 net.cpp:557] relu3 -> conv3 (in-place)
I1109 00:20:02.537447 138384 net.cpp:210] Setting up relu3
I1109 00:20:02.537782 138384 net.cpp:217] Top shape: 32 384 13 13 (2076672)
I1109 00:20:02.538023 138384 net.cpp:225] Memory required for data: 234073600
I1109 00:20:02.538218 138384 layer_factory.hpp:114] Creating layer conv4
I1109 00:20:02.538584 138384 net.cpp:160] Creating Layer conv4
I1109 00:20:02.538837 138384 net.cpp:596] conv4 <- conv3
I1109 00:20:02.539083 138384 net.cpp:570] conv4 -> conv4
I1109 00:20:02.810027 138384 net.cpp:210] Setting up conv4
I1109 00:20:02.810420 138384 net.cpp:217] Top shape: 32 384 13 13 (2076672)
I1109 00:20:02.810824 138384 net.cpp:225] Memory required for data: 242380288
I1109 00:20:02.811164 138384 layer_factory.hpp:114] Creating layer relu4
I1109 00:20:02.811465 138384 net.cpp:160] Creating Layer relu4
I1109 00:20:02.811693 138384 net.cpp:596] relu4 <- conv4
I1109 00:20:02.811939 138384 net.cpp:557] relu4 -> conv4 (in-place)
I1109 00:20:02.824352 138384 net.cpp:210] Setting up relu4
I1109 00:20:02.824702 138384 net.cpp:217] Top shape: 32 384 13 13 (2076672)
I1109 00:20:02.825125 138384 net.cpp:225] Memory required for data: 250686976
I1109 00:20:02.825353 138384 layer_factory.hpp:114] Creating layer conv5
I1109 00:20:02.825747 138384 net.cpp:160] Creating Layer conv5
I1109 00:20:02.826006 138384 net.cpp:596] conv5 <- conv4
I1109 00:20:02.826262 138384 net.cpp:570] conv5 -> conv5
I1109 00:20:02.994627 138384 net.cpp:210] Setting up conv5
I1109 00:20:02.995023 138384 net.cpp:217] Top shape: 32 256 13 13 (1384448)
I1109 00:20:02.995434 138384 net.cpp:225] Memory required for data: 256224768
I1109 00:20:03.000030 138384 layer_factory.hpp:114] Creating layer relu5
I1109 00:20:03.004724 138384 net.cpp:160] Creating Layer relu5
I1109 00:20:03.007061 138384 net.cpp:596] relu5 <- conv5
I1109 00:20:03.007380 138384 net.cpp:557] relu5 -> conv5 (in-place)
I1109 00:20:03.007874 138384 net.cpp:210] Setting up relu5
I1109 00:20:03.008183 138384 net.cpp:217] Top shape: 32 256 13 13 (1384448)
I1109 00:20:03.008445 138384 net.cpp:225] Memory required for data: 261762560
I1109 00:20:03.008672 138384 layer_factory.hpp:114] Creating layer pool5
I1109 00:20:03.009008 138384 net.cpp:160] Creating Layer pool5
I1109 00:20:03.009248 138384 net.cpp:596] pool5 <- conv5
I1109 00:20:03.009487 138384 net.cpp:570] pool5 -> pool5
I1109 00:20:03.009905 138384 net.cpp:210] Setting up pool5
I1109 00:20:03.010180 138384 net.cpp:217] Top shape: 32 256 6 6 (294912)
I1109 00:20:03.010418 138384 net.cpp:225] Memory required for data: 262942208
I1109 00:20:03.010612 138384 layer_factory.hpp:114] Creating layer fc6
I1109 00:20:03.065033 138384 net.cpp:160] Creating Layer fc6
I1109 00:20:03.065342 138384 net.cpp:596] fc6 <- pool5
I1109 00:20:03.065699 138384 net.cpp:570] fc6 -> fc6
I1109 00:20:07.152760 138384 net.cpp:210] Setting up fc6
I1109 00:20:07.153111 138384 net.cpp:217] Top shape: 32 4096 (131072)
I1109 00:20:07.155297 138384 net.cpp:225] Memory required for data: 263466496
I1109 00:20:07.155602 138384 layer_factory.hpp:114] Creating layer relu6
I1109 00:20:07.158116 138384 net.cpp:160] Creating Layer relu6
I1109 00:20:07.158417 138384 net.cpp:596] relu6 <- fc6
I1109 00:20:07.158646 138384 net.cpp:557] relu6 -> fc6 (in-place)
I1109 00:20:07.159057 138384 net.cpp:210] Setting up relu6
I1109 00:20:07.159312 138384 net.cpp:217] Top shape: 32 4096 (131072)
I1109 00:20:07.159533 138384 net.cpp:225] Memory required for data: 263990784
I1109 00:20:07.159718 138384 layer_factory.hpp:114] Creating layer drop6
I1109 00:20:07.179693 138384 net.cpp:160] Creating Layer drop6
I1109 00:20:07.179999 138384 net.cpp:596] drop6 <- fc6
I1109 00:20:07.180398 138384 net.cpp:557] drop6 -> fc6 (in-place)
I1109 00:20:07.285024 138384 net.cpp:210] Setting up drop6
I1109 00:20:07.285316 138384 net.cpp:217] Top shape: 32 4096 (131072)
I1109 00:20:07.285670 138384 net.cpp:225] Memory required for data: 264515072
I1109 00:20:07.285876 138384 layer_factory.hpp:114] Creating layer fc7
I1109 00:20:07.286144 138384 net.cpp:160] Creating Layer fc7
I1109 00:20:07.286348 138384 net.cpp:596] fc7 <- fc6
I1109 00:20:07.286722 138384 net.cpp:570] fc7 -> fc7
I1109 00:20:08.999181 138384 net.cpp:210] Setting up fc7
I1109 00:20:08.999559 138384 net.cpp:217] Top shape: 32 4096 (131072)
I1109 00:20:09.000007 138384 net.cpp:225] Memory required for data: 265039360
I1109 00:20:09.000345 138384 layer_factory.hpp:114] Creating layer relu7
I1109 00:20:09.000684 138384 net.cpp:160] Creating Layer relu7
I1109 00:20:09.000996 138384 net.cpp:596] relu7 <- fc7
I1109 00:20:09.001272 138384 net.cpp:557] relu7 -> fc7 (in-place)
I1109 00:20:09.001729 138384 net.cpp:210] Setting up relu7
I1109 00:20:09.002029 138384 net.cpp:217] Top shape: 32 4096 (131072)
I1109 00:20:09.002282 138384 net.cpp:225] Memory required for data: 265563648
I1109 00:20:09.002487 138384 layer_factory.hpp:114] Creating layer drop7
I1109 00:20:09.002764 138384 net.cpp:160] Creating Layer drop7
I1109 00:20:09.002991 138384 net.cpp:596] drop7 <- fc7
I1109 00:20:09.003259 138384 net.cpp:557] drop7 -> fc7 (in-place)
I1109 00:20:09.003640 138384 net.cpp:210] Setting up drop7
I1109 00:20:09.003854 138384 net.cpp:217] Top shape: 32 4096 (131072)
I1109 00:20:09.004078 138384 net.cpp:225] Memory required for data: 266087936
I1109 00:20:09.004271 138384 layer_factory.hpp:114] Creating layer fc8
I1109 00:20:09.004531 138384 net.cpp:160] Creating Layer fc8
I1109 00:20:09.004741 138384 net.cpp:596] fc8 <- fc7
I1109 00:20:09.005043 138384 net.cpp:570] fc8 -> fc8
I1109 00:20:09.426471 138384 net.cpp:210] Setting up fc8
I1109 00:20:09.426867 138384 net.cpp:217] Top shape: 32 1000 (32000)
I1109 00:20:09.427291 138384 net.cpp:225] Memory required for data: 266215936
I1109 00:20:09.427629 138384 layer_factory.hpp:114] Creating layer loss
I1109 00:20:09.452723 138384 net.cpp:160] Creating Layer loss
I1109 00:20:09.453090 138384 net.cpp:596] loss <- fc8
I1109 00:20:09.454119 138384 net.cpp:596] loss <- label
I1109 00:20:09.481933 138384 net.cpp:570] loss -> loss
I1109 00:20:09.520238 138384 layer_factory.hpp:114] Creating layer loss
…
