…
I1109 02:37:29.132484 142675 net.cpp:484] The NetState phase (0) differed from the phase (1) specified by a rule in layer accuracy
I1109 02:37:29.767886 142675 net.cpp:120] Initializing net from parameters: 
name: "AlexNet"
state {
  phase: TRAIN
  level: 0
  stage: ""
}
layer {
  name: "data"
  type: "DummyData"
  top: "data"
  top: "label"
  include {
    phase: TRAIN
  }
  dummy_data_param {
    data_filler {
      type: "gaussian"
      std: 1
    }
    data_filler {
      type: "constant"
      value: 0
    }
    shape {
      dim: 32
      dim: 3
      dim: 227
      dim: 227
    }
    shape {
      dim: 32
      dim: 1
      dim: 1
      dim: 1
    }
  }
}
layer {
  name: "conv1"
  type: "Convolution"
  bottom: "data"
  top: "conv1"
  param {
    lr_mult: 1
    decay_mult: 1
  }
  param {
    lr_mult: 2
    decay_mult: 0
  }
  convolution_param {
    num_output: 96
    kernel_size: 11
    stride: 4
    weight_filler {
      type: "gaussian"
      std: 0.01
    }
    bias_filler {
      type: "constant"
      value: 0
    }
    engine: MKL2017
  }
}
layer {
  name: "relu1"
  type: "ReLU"
  bottom: "conv1"
  top: "conv1"
  relu_param {
    engine: MKL2017
  }
}
layer {
  name: "norm1"
  type: "LRN"
  bottom: "conv1"
  top: "norm1"
  lrn_param {
    local_size: 5
    alpha: 0.0001
    beta: 0.75
    engine: MKL2017
  }
}
layer {
  name: "pool1"
  type: "Pooling"
  bottom: "norm1"
  top: "pool1"
  pooling_param {
    pool: MAX
    kernel_size: 3
    stride: 2
    engine: MKL2017
  }
}
layer {
  name: "conv2"
  type: "Convolution"
  bottom: "pool1"
  top: "conv2"
  param {
    lr_mult: 1
    decay_mult: 1
  }
  param {
    lr_mult: 2
    decay_mult: 0
  }
  convolution_param {
    num_output: 256
    pad: 2
    kernel_size: 5
    group: 2
    weight_filler {
      type: "gaussian"
      std: 0.01
    }
    bias_filler {
      type: "constant"
      value: 0.1
    }
    engine: MKL2017
  }
}
layer {
  name: "relu2"
  type: "ReLU"
  bottom: "conv2"
  top: "conv2"
  relu_param {
    engine: MKL2017
  }
}
layer {
  name: "norm2"
  type: "LRN"
  bottom: "conv2"
  top: "norm2"
  lrn_param {
    local_size: 5
    alpha: 0.0001
    beta: 0.75
    engine: MKL2017
  }
}
layer {
  name: "pool2"
  type: "Pooling"
  bottom: "norm2"
  top: "pool2"
  pooling_param {
    pool: MAX
    kernel_size: 3
    stride: 2
    engine: MKL2017
  }
}
layer {
  name: "conv3"
  type: "Convolution"
  bottom: "pool2"
  top: "conv3"
  param {
    lr_mult: 1
    decay_mult: 1
  }
  param {
    lr_mult: 2
    decay_mult: 0
  }
  convolution_param {
    num_output: 384
    pad: 1
    kernel_size: 3
    weight_filler {
      type: "gaussian"
      std: 0.01
    }
    bias_filler {
      type: "constant"
      value: 0
    }
    engine: MKL2017
  }
}
layer {
  name: "relu3"
  type: "ReLU"
  bottom: "conv3"
  top: "conv3"
  relu_param {
    engine: MKL2017
  }
}
layer {
  name: "conv4"
  type: "Convolution"
  bottom: "conv3"
  top: "conv4"
  param {
    lr_mult: 1
    decay_mult: 1
  }
  param {
    lr_mult: 2
    decay_mult: 0
  }
  convolution_param {
    num_output: 384
    pad: 1
    kernel_size: 3
    group: 2
    weight_filler {
      type: "gaussian"
      std: 0.01
    }
    bias_filler {
      type: "constant"
      value: 0.1
    }
    engine: MKL2017
  }
}
layer {
  name: "relu4"
  type: "ReLU"
  bottom: "conv4"
  top: "conv4"
  relu_param {
    engine: MKL2017
  }
}
layer {
  name: "conv5"
  type: "Convolution"
  bottom: "conv4"
  top: "conv5"
  param {
    lr_mult: 1
    decay_mult: 1
  }
  param {
    lr_mult: 2
    decay_mult: 0
  }
  convolution_param {
    num_output: 256
    pad: 1
    kernel_size: 3
    group: 2
    weight_filler {
      type: "gaussian"
      std: 0.01
    }
    bias_filler {
      type: "constant"
      value: 0.1
    }
    engine: MKL2017
  }
}
layer {
  name: "relu5"
  type: "ReLU"
  bottom: "conv5"
  top: "conv5"
  relu_param {
    engine: MKL2017
  }
}
layer {
  name: "pool5"
  type: "Pooling"
  bottom: "conv5"
  top: "pool5"
  pooling_param {
    pool: MAX
    kernel_size: 3
    stride: 2
    engine: MKL2017
  }
}
layer {
  name: "fc6"
  type: "InnerProduct"
  bottom: "pool5"
  top: "fc6"
  param {
    lr_mult: 1
    decay_mult: 1
  }
  param {
    lr_mult: 2
    decay_mult: 0
  }
  inner_product_param {
    num_output: 4096
    weight_filler {
      type: "gaussian"
      std: 0.005
    }
    bias_filler {
      type: "constant"
      value: 0.1
    }
  }
}
layer {
  name: "relu6"
  type: "ReLU"
  bottom: "fc6"
  top: "fc6"
}
layer {
  name: "drop6"
  type: "Dropout"
  bottom: "fc6"
  top: "fc6"
  dropout_param {
    dropout_ratio: 0.5
  }
}
layer {
  name: "fc7"
  type: "InnerProduct"
  bottom: "fc6"
  top: "fc7"
  param {
    lr_mult: 1
    decay_mult: 1
  }
  param {
    lr_mult: 2
    decay_mult: 0
  }
  inner_product_param {
    num_output: 4096
    weight_filler {
      type: "gaussian"
      std: 0.005
    }
    bias_filler {
      type: "constant"
      value: 0.1
    }
  }
}
layer {
  name: "relu7"
  type: "ReLU"
  bottom: "fc7"
  top: "fc7"
}
layer {
  name: "drop7"
  type: "Dropout"
  bottom: "fc7"
  top: "fc7"
  dropout_param {
    dropout_ratio: 0.5
  }
}
layer {
  name: "fc8"
  type: "InnerProduct"
  bottom: "fc7"
  top: "fc8"
  param {
    lr_mult: 1
    decay_mult: 1
  }
  param {
    lr_mult: 2
    decay_mult: 0
  }
  inner_product_param {
    num_output: 1000
    weight_filler {
      type: "gaussian"
      std: 0.01
    }
    bias_filler {
      type: "constant"
      value: 0
    }
  }
}
layer {
  name: "loss"
  type: "SoftmaxWithLoss"
  bottom: "fc8"
  bottom: "label"
  top: "loss"
}
I1109 02:37:32.213984 142675 layer_factory.hpp:114] Creating layer data
I1109 02:37:32.360199 142675 net.cpp:160] Creating Layer data
I1109 02:37:32.408028 142675 net.cpp:570] data -> data
I1109 02:37:32.877365 142675 net.cpp:570] data -> label
I1109 02:37:39.930080 142675 net.cpp:210] Setting up data
I1109 02:37:40.010402 142675 net.cpp:217] Top shape: 32 3 227 227 (4946784)
I1109 02:37:40.114182 142675 net.cpp:217] Top shape: 32 1 1 1 (32)
I1109 02:37:40.121314 142675 net.cpp:225] Memory required for data: 19787264
I1109 02:37:40.188289 142675 layer_factory.hpp:114] Creating layer conv1
I1109 02:37:40.513216 142675 net.cpp:160] Creating Layer conv1
I1109 02:37:40.562949 142675 net.cpp:596] conv1 <- data
I1109 02:37:40.682709 142675 net.cpp:570] conv1 -> conv1
I1109 02:38:13.548372 142675 net.cpp:210] Setting up conv1
I1109 02:38:13.555276 142675 net.cpp:217] Top shape: 32 96 55 55 (9292800)
I1109 02:38:13.555676 142675 net.cpp:225] Memory required for data: 56958464
I1109 02:38:13.835160 142675 layer_factory.hpp:114] Creating layer relu1
I1109 02:38:13.955415 142675 net.cpp:160] Creating Layer relu1
I1109 02:38:13.959998 142675 net.cpp:596] relu1 <- conv1
I1109 02:38:13.991794 142675 net.cpp:557] relu1 -> conv1 (in-place)
I1109 02:38:14.181673 142675 net.cpp:210] Setting up relu1
I1109 02:38:14.184093 142675 net.cpp:217] Top shape: 32 96 55 55 (9292800)
I1109 02:38:14.184432 142675 net.cpp:225] Memory required for data: 94129664
I1109 02:38:14.184638 142675 layer_factory.hpp:114] Creating layer norm1
I1109 02:38:14.288547 142675 net.cpp:160] Creating Layer norm1
I1109 02:38:14.288899 142675 net.cpp:596] norm1 <- conv1
I1109 02:38:14.291458 142675 net.cpp:570] norm1 -> norm1
I1109 02:38:14.513528 142675 net.cpp:210] Setting up norm1
I1109 02:38:14.526206 142675 net.cpp:217] Top shape: 32 96 55 55 (9292800)
I1109 02:38:14.526587 142675 net.cpp:225] Memory required for data: 131300864
I1109 02:38:14.526917 142675 layer_factory.hpp:114] Creating layer pool1
I1109 02:38:14.619796 142675 net.cpp:160] Creating Layer pool1
I1109 02:38:14.620113 142675 net.cpp:596] pool1 <- norm1
I1109 02:38:14.634820 142675 net.cpp:570] pool1 -> pool1
I1109 02:38:14.934612 142675 net.cpp:210] Setting up pool1
I1109 02:38:14.937125 142675 net.cpp:217] Top shape: 32 96 27 27 (2239488)
I1109 02:38:14.937456 142675 net.cpp:225] Memory required for data: 140258816
I1109 02:38:14.937674 142675 layer_factory.hpp:114] Creating layer conv2
I1109 02:38:14.938073 142675 net.cpp:160] Creating Layer conv2
I1109 02:38:14.938308 142675 net.cpp:596] conv2 <- pool1
I1109 02:38:14.938565 142675 net.cpp:570] conv2 -> conv2
I1109 02:38:20.686707 142675 net.cpp:210] Setting up conv2
I1109 02:38:20.687018 142675 net.cpp:217] Top shape: 32 256 27 27 (5971968)
I1109 02:38:20.687386 142675 net.cpp:225] Memory required for data: 164146688
I1109 02:38:20.737503 142675 layer_factory.hpp:114] Creating layer relu2
I1109 02:38:20.737890 142675 net.cpp:160] Creating Layer relu2
I1109 02:38:20.738221 142675 net.cpp:596] relu2 <- conv2
I1109 02:38:20.738504 142675 net.cpp:557] relu2 -> conv2 (in-place)
I1109 02:38:20.738930 142675 net.cpp:210] Setting up relu2
I1109 02:38:20.739187 142675 net.cpp:217] Top shape: 32 256 27 27 (5971968)
I1109 02:38:20.739418 142675 net.cpp:225] Memory required for data: 188034560
I1109 02:38:20.739603 142675 layer_factory.hpp:114] Creating layer norm2
I1109 02:38:20.739840 142675 net.cpp:160] Creating Layer norm2
I1109 02:38:20.740028 142675 net.cpp:596] norm2 <- conv2
I1109 02:38:20.740248 142675 net.cpp:570] norm2 -> norm2
I1109 02:38:20.742429 142675 net.cpp:210] Setting up norm2
I1109 02:38:20.742739 142675 net.cpp:217] Top shape: 32 256 27 27 (5971968)
I1109 02:38:20.742967 142675 net.cpp:225] Memory required for data: 211922432
I1109 02:38:20.743154 142675 layer_factory.hpp:114] Creating layer pool2
I1109 02:38:20.743958 142675 net.cpp:160] Creating Layer pool2
I1109 02:38:20.744243 142675 net.cpp:596] pool2 <- norm2
I1109 02:38:20.744519 142675 net.cpp:570] pool2 -> pool2
I1109 02:38:20.745054 142675 net.cpp:210] Setting up pool2
I1109 02:38:20.745370 142675 net.cpp:217] Top shape: 32 256 13 13 (1384448)
I1109 02:38:20.745610 142675 net.cpp:225] Memory required for data: 217460224
I1109 02:38:20.745826 142675 layer_factory.hpp:114] Creating layer conv3
I1109 02:38:20.746181 142675 net.cpp:160] Creating Layer conv3
I1109 02:38:20.746417 142675 net.cpp:596] conv3 <- pool2
I1109 02:38:20.746668 142675 net.cpp:570] conv3 -> conv3
I1109 02:38:21.199260 142675 net.cpp:210] Setting up conv3
I1109 02:38:21.201800 142675 net.cpp:217] Top shape: 32 384 13 13 (2076672)
I1109 02:38:21.202157 142675 net.cpp:225] Memory required for data: 225766912
I1109 02:38:21.205437 142675 layer_factory.hpp:114] Creating layer relu3
I1109 02:38:21.205852 142675 net.cpp:160] Creating Layer relu3
I1109 02:38:21.206107 142675 net.cpp:596] relu3 <- conv3
I1109 02:38:21.206348 142675 net.cpp:557] relu3 -> conv3 (in-place)
I1109 02:38:21.210541 142675 net.cpp:210] Setting up relu3
I1109 02:38:21.210930 142675 net.cpp:217] Top shape: 32 384 13 13 (2076672)
I1109 02:38:21.211196 142675 net.cpp:225] Memory required for data: 234073600
I1109 02:38:21.211427 142675 layer_factory.hpp:114] Creating layer conv4
I1109 02:38:21.211788 142675 net.cpp:160] Creating Layer conv4
I1109 02:38:21.212049 142675 net.cpp:596] conv4 <- conv3
I1109 02:38:21.212293 142675 net.cpp:570] conv4 -> conv4
I1109 02:38:21.480989 142675 net.cpp:210] Setting up conv4
I1109 02:38:21.481374 142675 net.cpp:217] Top shape: 32 384 13 13 (2076672)
I1109 02:38:21.481791 142675 net.cpp:225] Memory required for data: 242380288
I1109 02:38:21.482117 142675 layer_factory.hpp:114] Creating layer relu4
I1109 02:38:21.482414 142675 net.cpp:160] Creating Layer relu4
I1109 02:38:21.482640 142675 net.cpp:596] relu4 <- conv4
I1109 02:38:21.482874 142675 net.cpp:557] relu4 -> conv4 (in-place)
I1109 02:38:21.495015 142675 net.cpp:210] Setting up relu4
I1109 02:38:21.495328 142675 net.cpp:217] Top shape: 32 384 13 13 (2076672)
I1109 02:38:21.495574 142675 net.cpp:225] Memory required for data: 250686976
I1109 02:38:21.495770 142675 layer_factory.hpp:114] Creating layer conv5
I1109 02:38:21.496129 142675 net.cpp:160] Creating Layer conv5
I1109 02:38:21.496368 142675 net.cpp:596] conv5 <- conv4
I1109 02:38:21.496603 142675 net.cpp:570] conv5 -> conv5
I1109 02:38:21.665256 142675 net.cpp:210] Setting up conv5
I1109 02:38:21.665657 142675 net.cpp:217] Top shape: 32 256 13 13 (1384448)
I1109 02:38:21.666105 142675 net.cpp:225] Memory required for data: 256224768
I1109 02:38:21.670711 142675 layer_factory.hpp:114] Creating layer relu5
I1109 02:38:21.671113 142675 net.cpp:160] Creating Layer relu5
I1109 02:38:21.671366 142675 net.cpp:596] relu5 <- conv5
I1109 02:38:21.671627 142675 net.cpp:557] relu5 -> conv5 (in-place)
I1109 02:38:21.672078 142675 net.cpp:210] Setting up relu5
I1109 02:38:21.672412 142675 net.cpp:217] Top shape: 32 256 13 13 (1384448)
I1109 02:38:21.672674 142675 net.cpp:225] Memory required for data: 261762560
I1109 02:38:21.673002 142675 layer_factory.hpp:114] Creating layer pool5
I1109 02:38:21.673300 142675 net.cpp:160] Creating Layer pool5
I1109 02:38:21.673509 142675 net.cpp:596] pool5 <- conv5
I1109 02:38:21.673725 142675 net.cpp:570] pool5 -> pool5
I1109 02:38:21.674123 142675 net.cpp:210] Setting up pool5
I1109 02:38:21.674386 142675 net.cpp:217] Top shape: 32 256 6 6 (294912)
I1109 02:38:21.674613 142675 net.cpp:225] Memory required for data: 262942208
I1109 02:38:21.674799 142675 layer_factory.hpp:114] Creating layer fc6
I1109 02:38:21.729511 142675 net.cpp:160] Creating Layer fc6
I1109 02:38:21.729822 142675 net.cpp:596] fc6 <- pool5
I1109 02:38:21.730187 142675 net.cpp:570] fc6 -> fc6
I1109 02:38:25.820093 142675 net.cpp:210] Setting up fc6
I1109 02:38:25.820426 142675 net.cpp:217] Top shape: 32 4096 (131072)
I1109 02:38:25.822612 142675 net.cpp:225] Memory required for data: 263466496
I1109 02:38:25.822957 142675 layer_factory.hpp:114] Creating layer relu6
I1109 02:38:25.825584 142675 net.cpp:160] Creating Layer relu6
I1109 02:38:25.825902 142675 net.cpp:596] relu6 <- fc6
I1109 02:38:25.826146 142675 net.cpp:557] relu6 -> fc6 (in-place)
I1109 02:38:25.826583 142675 net.cpp:210] Setting up relu6
I1109 02:38:25.826865 142675 net.cpp:217] Top shape: 32 4096 (131072)
I1109 02:38:25.827100 142675 net.cpp:225] Memory required for data: 263990784
I1109 02:38:25.827293 142675 layer_factory.hpp:114] Creating layer drop6
I1109 02:38:25.847790 142675 net.cpp:160] Creating Layer drop6
I1109 02:38:25.848104 142675 net.cpp:596] drop6 <- fc6
I1109 02:38:25.848551 142675 net.cpp:557] drop6 -> fc6 (in-place)
I1109 02:38:25.955025 142675 net.cpp:210] Setting up drop6
I1109 02:38:25.955322 142675 net.cpp:217] Top shape: 32 4096 (131072)
I1109 02:38:25.955667 142675 net.cpp:225] Memory required for data: 264515072
I1109 02:38:25.955916 142675 layer_factory.hpp:114] Creating layer fc7
I1109 02:38:25.956187 142675 net.cpp:160] Creating Layer fc7
I1109 02:38:25.956393 142675 net.cpp:596] fc7 <- fc6
I1109 02:38:25.956815 142675 net.cpp:570] fc7 -> fc7
I1109 02:38:27.672158 142675 net.cpp:210] Setting up fc7
I1109 02:38:27.672511 142675 net.cpp:217] Top shape: 32 4096 (131072)
I1109 02:38:27.672955 142675 net.cpp:225] Memory required for data: 265039360
I1109 02:38:27.673379 142675 layer_factory.hpp:114] Creating layer relu7
I1109 02:38:27.673717 142675 net.cpp:160] Creating Layer relu7
I1109 02:38:27.673967 142675 net.cpp:596] relu7 <- fc7
I1109 02:38:27.674221 142675 net.cpp:557] relu7 -> fc7 (in-place)
I1109 02:38:27.674661 142675 net.cpp:210] Setting up relu7
I1109 02:38:27.674943 142675 net.cpp:217] Top shape: 32 4096 (131072)
I1109 02:38:27.675189 142675 net.cpp:225] Memory required for data: 265563648
I1109 02:38:27.675387 142675 layer_factory.hpp:114] Creating layer drop7
I1109 02:38:27.675622 142675 net.cpp:160] Creating Layer drop7
I1109 02:38:27.675860 142675 net.cpp:596] drop7 <- fc7
I1109 02:38:27.676108 142675 net.cpp:557] drop7 -> fc7 (in-place)
I1109 02:38:27.676388 142675 net.cpp:210] Setting up drop7
I1109 02:38:27.676663 142675 net.cpp:217] Top shape: 32 4096 (131072)
I1109 02:38:27.676960 142675 net.cpp:225] Memory required for data: 266087936
I1109 02:38:27.677153 142675 layer_factory.hpp:114] Creating layer fc8
I1109 02:38:27.677408 142675 net.cpp:160] Creating Layer fc8
I1109 02:38:27.677605 142675 net.cpp:596] fc8 <- fc7
I1109 02:38:27.677829 142675 net.cpp:570] fc8 -> fc8
I1109 02:38:28.099921 142675 net.cpp:210] Setting up fc8
I1109 02:38:28.100272 142675 net.cpp:217] Top shape: 32 1000 (32000)
I1109 02:38:28.100643 142675 net.cpp:225] Memory required for data: 266215936
I1109 02:38:28.101022 142675 layer_factory.hpp:114] Creating layer loss
I1109 02:38:28.125499 142675 net.cpp:160] Creating Layer loss
I1109 02:38:28.125809 142675 net.cpp:596] loss <- fc8
I1109 02:38:28.126701 142675 net.cpp:596] loss <- label
I1109 02:38:28.153957 142675 net.cpp:570] loss -> loss
I1109 02:38:28.191546 142675 layer_factory.hpp:114] Creating layer loss
…
