…
I1109 02:49:42.886942 144052 net.cpp:484] The NetState phase (0) differed from the phase (1) specified by a rule in layer accuracy
I1109 02:49:43.516588 144052 net.cpp:120] Initializing net from parameters: 
name: "AlexNet"
state {
  phase: TRAIN
  level: 0
  stage: ""
}
layer {
  name: "data"
  type: "DummyData"
  top: "data"
  top: "label"
  include {
    phase: TRAIN
  }
  dummy_data_param {
    data_filler {
      type: "gaussian"
      std: 1
    }
    data_filler {
      type: "constant"
      value: 0
    }
    shape {
      dim: 32
      dim: 3
      dim: 227
      dim: 227
    }
    shape {
      dim: 32
      dim: 1
      dim: 1
      dim: 1
    }
  }
}
layer {
  name: "conv1"
  type: "Convolution"
  bottom: "data"
  top: "conv1"
  param {
    lr_mult: 1
    decay_mult: 1
  }
  param {
    lr_mult: 2
    decay_mult: 0
  }
  convolution_param {
    num_output: 96
    kernel_size: 11
    stride: 4
    weight_filler {
      type: "gaussian"
      std: 0.01
    }
    bias_filler {
      type: "constant"
      value: 0
    }
    engine: MKL2017
  }
}
layer {
  name: "relu1"
  type: "ReLU"
  bottom: "conv1"
  top: "conv1"
  relu_param {
    engine: MKL2017
  }
}
layer {
  name: "norm1"
  type: "LRN"
  bottom: "conv1"
  top: "norm1"
  lrn_param {
    local_size: 5
    alpha: 0.0001
    beta: 0.75
    engine: MKL2017
  }
}
layer {
  name: "pool1"
  type: "Pooling"
  bottom: "norm1"
  top: "pool1"
  pooling_param {
    pool: MAX
    kernel_size: 3
    stride: 2
    engine: MKL2017
  }
}
layer {
  name: "conv2"
  type: "Convolution"
  bottom: "pool1"
  top: "conv2"
  param {
    lr_mult: 1
    decay_mult: 1
  }
  param {
    lr_mult: 2
    decay_mult: 0
  }
  convolution_param {
    num_output: 256
    pad: 2
    kernel_size: 5
    group: 2
    weight_filler {
      type: "gaussian"
      std: 0.01
    }
    bias_filler {
      type: "constant"
      value: 0.1
    }
    engine: MKL2017
  }
}
layer {
  name: "relu2"
  type: "ReLU"
  bottom: "conv2"
  top: "conv2"
  relu_param {
    engine: MKL2017
  }
}
layer {
  name: "norm2"
  type: "LRN"
  bottom: "conv2"
  top: "norm2"
  lrn_param {
    local_size: 5
    alpha: 0.0001
    beta: 0.75
    engine: MKL2017
  }
}
layer {
  name: "pool2"
  type: "Pooling"
  bottom: "norm2"
  top: "pool2"
  pooling_param {
    pool: MAX
    kernel_size: 3
    stride: 2
    engine: MKL2017
  }
}
layer {
  name: "conv3"
  type: "Convolution"
  bottom: "pool2"
  top: "conv3"
  param {
    lr_mult: 1
    decay_mult: 1
  }
  param {
    lr_mult: 2
    decay_mult: 0
  }
  convolution_param {
    num_output: 384
    pad: 1
    kernel_size: 3
    weight_filler {
      type: "gaussian"
      std: 0.01
    }
    bias_filler {
      type: "constant"
      value: 0
    }
    engine: MKL2017
  }
}
layer {
  name: "relu3"
  type: "ReLU"
  bottom: "conv3"
  top: "conv3"
  relu_param {
    engine: MKL2017
  }
}
layer {
  name: "conv4"
  type: "Convolution"
  bottom: "conv3"
  top: "conv4"
  param {
    lr_mult: 1
    decay_mult: 1
  }
  param {
    lr_mult: 2
    decay_mult: 0
  }
  convolution_param {
    num_output: 384
    pad: 1
    kernel_size: 3
    group: 2
    weight_filler {
      type: "gaussian"
      std: 0.01
    }
    bias_filler {
      type: "constant"
      value: 0.1
    }
    engine: MKL2017
  }
}
layer {
  name: "relu4"
  type: "ReLU"
  bottom: "conv4"
  top: "conv4"
  relu_param {
    engine: MKL2017
  }
}
layer {
  name: "conv5"
  type: "Convolution"
  bottom: "conv4"
  top: "conv5"
  param {
    lr_mult: 1
    decay_mult: 1
  }
  param {
    lr_mult: 2
    decay_mult: 0
  }
  convolution_param {
    num_output: 256
    pad: 1
    kernel_size: 3
    group: 2
    weight_filler {
      type: "gaussian"
      std: 0.01
    }
    bias_filler {
      type: "constant"
      value: 0.1
    }
    engine: MKL2017
  }
}
layer {
  name: "relu5"
  type: "ReLU"
  bottom: "conv5"
  top: "conv5"
  relu_param {
    engine: MKL2017
  }
}
layer {
  name: "pool5"
  type: "Pooling"
  bottom: "conv5"
  top: "pool5"
  pooling_param {
    pool: MAX
    kernel_size: 3
    stride: 2
    engine: MKL2017
  }
}
layer {
  name: "fc6"
  type: "InnerProduct"
  bottom: "pool5"
  top: "fc6"
  param {
    lr_mult: 1
    decay_mult: 1
  }
  param {
    lr_mult: 2
    decay_mult: 0
  }
  inner_product_param {
    num_output: 4096
    weight_filler {
      type: "gaussian"
      std: 0.005
    }
    bias_filler {
      type: "constant"
      value: 0.1
    }
  }
}
layer {
  name: "relu6"
  type: "ReLU"
  bottom: "fc6"
  top: "fc6"
}
layer {
  name: "drop6"
  type: "Dropout"
  bottom: "fc6"
  top: "fc6"
  dropout_param {
    dropout_ratio: 0.5
  }
}
layer {
  name: "fc7"
  type: "InnerProduct"
  bottom: "fc6"
  top: "fc7"
  param {
    lr_mult: 1
    decay_mult: 1
  }
  param {
    lr_mult: 2
    decay_mult: 0
  }
  inner_product_param {
    num_output: 4096
    weight_filler {
      type: "gaussian"
      std: 0.005
    }
    bias_filler {
      type: "constant"
      value: 0.1
    }
  }
}
layer {
  name: "relu7"
  type: "ReLU"
  bottom: "fc7"
  top: "fc7"
}
layer {
  name: "drop7"
  type: "Dropout"
  bottom: "fc7"
  top: "fc7"
  dropout_param {
    dropout_ratio: 0.5
  }
}
layer {
  name: "fc8"
  type: "InnerProduct"
  bottom: "fc7"
  top: "fc8"
  param {
    lr_mult: 1
    decay_mult: 1
  }
  param {
    lr_mult: 2
    decay_mult: 0
  }
  inner_product_param {
    num_output: 1000
    weight_filler {
      type: "gaussian"
      std: 0.01
    }
    bias_filler {
      type: "constant"
      value: 0
    }
  }
}
layer {
  name: "loss"
  type: "SoftmaxWithLoss"
  bottom: "fc8"
  bottom: "label"
  top: "loss"
}
I1109 02:49:45.953474 144052 layer_factory.hpp:114] Creating layer data
I1109 02:49:46.100155 144052 net.cpp:160] Creating Layer data
I1109 02:49:46.147840 144052 net.cpp:570] data -> data
I1109 02:49:46.611330 144052 net.cpp:570] data -> label
I1109 02:49:53.651404 144052 net.cpp:210] Setting up data
I1109 02:49:53.730842 144052 net.cpp:217] Top shape: 32 3 227 227 (4946784)
I1109 02:49:53.834863 144052 net.cpp:217] Top shape: 32 1 1 1 (32)
I1109 02:49:53.841709 144052 net.cpp:225] Memory required for data: 19787264
I1109 02:49:53.910918 144052 layer_factory.hpp:114] Creating layer conv1
I1109 02:49:54.238461 144052 net.cpp:160] Creating Layer conv1
I1109 02:49:54.289247 144052 net.cpp:596] conv1 <- data
I1109 02:49:54.409255 144052 net.cpp:570] conv1 -> conv1
I1109 02:50:26.842164 144052 net.cpp:210] Setting up conv1
I1109 02:50:26.849292 144052 net.cpp:217] Top shape: 32 96 55 55 (9292800)
I1109 02:50:26.849695 144052 net.cpp:225] Memory required for data: 56958464
I1109 02:50:27.141158 144052 layer_factory.hpp:114] Creating layer relu1
I1109 02:50:27.261540 144052 net.cpp:160] Creating Layer relu1
I1109 02:50:27.266067 144052 net.cpp:596] relu1 <- conv1
I1109 02:50:27.298102 144052 net.cpp:557] relu1 -> conv1 (in-place)
I1109 02:50:27.486907 144052 net.cpp:210] Setting up relu1
I1109 02:50:27.489388 144052 net.cpp:217] Top shape: 32 96 55 55 (9292800)
I1109 02:50:27.489730 144052 net.cpp:225] Memory required for data: 94129664
I1109 02:50:27.489944 144052 layer_factory.hpp:114] Creating layer norm1
I1109 02:50:27.599870 144052 net.cpp:160] Creating Layer norm1
I1109 02:50:27.600196 144052 net.cpp:596] norm1 <- conv1
I1109 02:50:27.602792 144052 net.cpp:570] norm1 -> norm1
I1109 02:50:27.826696 144052 net.cpp:210] Setting up norm1
I1109 02:50:27.839447 144052 net.cpp:217] Top shape: 32 96 55 55 (9292800)
I1109 02:50:27.839834 144052 net.cpp:225] Memory required for data: 131300864
I1109 02:50:27.840170 144052 layer_factory.hpp:114] Creating layer pool1
I1109 02:50:27.934614 144052 net.cpp:160] Creating Layer pool1
I1109 02:50:27.934933 144052 net.cpp:596] pool1 <- norm1
I1109 02:50:27.949764 144052 net.cpp:570] pool1 -> pool1
I1109 02:50:28.251389 144052 net.cpp:210] Setting up pool1
I1109 02:50:28.253860 144052 net.cpp:217] Top shape: 32 96 27 27 (2239488)
I1109 02:50:28.254190 144052 net.cpp:225] Memory required for data: 140258816
I1109 02:50:28.254415 144052 layer_factory.hpp:114] Creating layer conv2
I1109 02:50:28.254819 144052 net.cpp:160] Creating Layer conv2
I1109 02:50:28.255061 144052 net.cpp:596] conv2 <- pool1
I1109 02:50:28.255321 144052 net.cpp:570] conv2 -> conv2
I1109 02:50:34.035656 144052 net.cpp:210] Setting up conv2
I1109 02:50:34.036005 144052 net.cpp:217] Top shape: 32 256 27 27 (5971968)
I1109 02:50:34.036407 144052 net.cpp:225] Memory required for data: 164146688
I1109 02:50:34.086846 144052 layer_factory.hpp:114] Creating layer relu2
I1109 02:50:34.087267 144052 net.cpp:160] Creating Layer relu2
I1109 02:50:34.087627 144052 net.cpp:596] relu2 <- conv2
I1109 02:50:34.087890 144052 net.cpp:557] relu2 -> conv2 (in-place)
I1109 02:50:34.088358 144052 net.cpp:210] Setting up relu2
I1109 02:50:34.088634 144052 net.cpp:217] Top shape: 32 256 27 27 (5971968)
I1109 02:50:34.088933 144052 net.cpp:225] Memory required for data: 188034560
I1109 02:50:34.089136 144052 layer_factory.hpp:114] Creating layer norm2
I1109 02:50:34.089395 144052 net.cpp:160] Creating Layer norm2
I1109 02:50:34.089596 144052 net.cpp:596] norm2 <- conv2
I1109 02:50:34.089831 144052 net.cpp:570] norm2 -> norm2
I1109 02:50:34.092027 144052 net.cpp:210] Setting up norm2
I1109 02:50:34.092336 144052 net.cpp:217] Top shape: 32 256 27 27 (5971968)
I1109 02:50:34.092581 144052 net.cpp:225] Memory required for data: 211922432
I1109 02:50:34.092818 144052 layer_factory.hpp:114] Creating layer pool2
I1109 02:50:34.093658 144052 net.cpp:160] Creating Layer pool2
I1109 02:50:34.094061 144052 net.cpp:596] pool2 <- norm2
I1109 02:50:34.094391 144052 net.cpp:570] pool2 -> pool2
I1109 02:50:34.094801 144052 net.cpp:210] Setting up pool2
I1109 02:50:34.095049 144052 net.cpp:217] Top shape: 32 256 13 13 (1384448)
I1109 02:50:34.095281 144052 net.cpp:225] Memory required for data: 217460224
I1109 02:50:34.095491 144052 layer_factory.hpp:114] Creating layer conv3
I1109 02:50:34.095830 144052 net.cpp:160] Creating Layer conv3
I1109 02:50:34.096051 144052 net.cpp:596] conv3 <- pool2
I1109 02:50:34.096303 144052 net.cpp:570] conv3 -> conv3
I1109 02:50:34.574600 144052 net.cpp:210] Setting up conv3
I1109 02:50:34.577033 144052 net.cpp:217] Top shape: 32 384 13 13 (2076672)
I1109 02:50:34.577389 144052 net.cpp:225] Memory required for data: 225766912
I1109 02:50:34.580432 144052 layer_factory.hpp:114] Creating layer relu3
I1109 02:50:34.580883 144052 net.cpp:160] Creating Layer relu3
I1109 02:50:34.581166 144052 net.cpp:596] relu3 <- conv3
I1109 02:50:34.581420 144052 net.cpp:557] relu3 -> conv3 (in-place)
I1109 02:50:34.585427 144052 net.cpp:210] Setting up relu3
I1109 02:50:34.585763 144052 net.cpp:217] Top shape: 32 384 13 13 (2076672)
I1109 02:50:34.586073 144052 net.cpp:225] Memory required for data: 234073600
I1109 02:50:34.586285 144052 layer_factory.hpp:114] Creating layer conv4
I1109 02:50:34.586664 144052 net.cpp:160] Creating Layer conv4
I1109 02:50:34.586925 144052 net.cpp:596] conv4 <- conv3
I1109 02:50:34.587183 144052 net.cpp:570] conv4 -> conv4
I1109 02:50:34.831720 144052 net.cpp:210] Setting up conv4
I1109 02:50:34.832118 144052 net.cpp:217] Top shape: 32 384 13 13 (2076672)
I1109 02:50:34.832556 144052 net.cpp:225] Memory required for data: 242380288
I1109 02:50:34.832924 144052 layer_factory.hpp:114] Creating layer relu4
I1109 02:50:34.833264 144052 net.cpp:160] Creating Layer relu4
I1109 02:50:34.833506 144052 net.cpp:596] relu4 <- conv4
I1109 02:50:34.833760 144052 net.cpp:557] relu4 -> conv4 (in-place)
I1109 02:50:34.846101 144052 net.cpp:210] Setting up relu4
I1109 02:50:34.846451 144052 net.cpp:217] Top shape: 32 384 13 13 (2076672)
I1109 02:50:34.846861 144052 net.cpp:225] Memory required for data: 250686976
I1109 02:50:34.847087 144052 layer_factory.hpp:114] Creating layer conv5
I1109 02:50:34.847470 144052 net.cpp:160] Creating Layer conv5
I1109 02:50:34.847721 144052 net.cpp:596] conv5 <- conv4
I1109 02:50:34.847986 144052 net.cpp:570] conv5 -> conv5
I1109 02:50:35.017179 144052 net.cpp:210] Setting up conv5
I1109 02:50:35.017571 144052 net.cpp:217] Top shape: 32 256 13 13 (1384448)
I1109 02:50:35.018019 144052 net.cpp:225] Memory required for data: 256224768
I1109 02:50:35.022552 144052 layer_factory.hpp:114] Creating layer relu5
I1109 02:50:35.022964 144052 net.cpp:160] Creating Layer relu5
I1109 02:50:35.023224 144052 net.cpp:596] relu5 <- conv5
I1109 02:50:35.023504 144052 net.cpp:557] relu5 -> conv5 (in-place)
I1109 02:50:35.024025 144052 net.cpp:210] Setting up relu5
I1109 02:50:35.024370 144052 net.cpp:217] Top shape: 32 256 13 13 (1384448)
I1109 02:50:35.024701 144052 net.cpp:225] Memory required for data: 261762560
I1109 02:50:35.024989 144052 layer_factory.hpp:114] Creating layer pool5
I1109 02:50:35.025274 144052 net.cpp:160] Creating Layer pool5
I1109 02:50:35.025506 144052 net.cpp:596] pool5 <- conv5
I1109 02:50:35.025749 144052 net.cpp:570] pool5 -> pool5
I1109 02:50:35.026162 144052 net.cpp:210] Setting up pool5
I1109 02:50:35.026428 144052 net.cpp:217] Top shape: 32 256 6 6 (294912)
I1109 02:50:35.026670 144052 net.cpp:225] Memory required for data: 262942208
I1109 02:50:35.026867 144052 layer_factory.hpp:114] Creating layer fc6
I1109 02:50:35.083179 144052 net.cpp:160] Creating Layer fc6
I1109 02:50:35.083494 144052 net.cpp:596] fc6 <- pool5
I1109 02:50:35.083870 144052 net.cpp:570] fc6 -> fc6
I1109 02:50:39.194689 144052 net.cpp:210] Setting up fc6
I1109 02:50:39.195026 144052 net.cpp:217] Top shape: 32 4096 (131072)
I1109 02:50:39.197268 144052 net.cpp:225] Memory required for data: 263466496
I1109 02:50:39.197630 144052 layer_factory.hpp:114] Creating layer relu6
I1109 02:50:39.200206 144052 net.cpp:160] Creating Layer relu6
I1109 02:50:39.200513 144052 net.cpp:596] relu6 <- fc6
I1109 02:50:39.200763 144052 net.cpp:557] relu6 -> fc6 (in-place)
I1109 02:50:39.201268 144052 net.cpp:210] Setting up relu6
I1109 02:50:39.201551 144052 net.cpp:217] Top shape: 32 4096 (131072)
I1109 02:50:39.201799 144052 net.cpp:225] Memory required for data: 263990784
I1109 02:50:39.202003 144052 layer_factory.hpp:114] Creating layer drop6
I1109 02:50:39.221892 144052 net.cpp:160] Creating Layer drop6
I1109 02:50:39.222285 144052 net.cpp:596] drop6 <- fc6
I1109 02:50:39.222672 144052 net.cpp:557] drop6 -> fc6 (in-place)
I1109 02:50:39.326109 144052 net.cpp:210] Setting up drop6
I1109 02:50:39.326409 144052 net.cpp:217] Top shape: 32 4096 (131072)
I1109 02:50:39.326755 144052 net.cpp:225] Memory required for data: 264515072
I1109 02:50:39.327004 144052 layer_factory.hpp:114] Creating layer fc7
I1109 02:50:39.327282 144052 net.cpp:160] Creating Layer fc7
I1109 02:50:39.327497 144052 net.cpp:596] fc7 <- fc6
I1109 02:50:39.327891 144052 net.cpp:570] fc7 -> fc7
I1109 02:50:41.050710 144052 net.cpp:210] Setting up fc7
I1109 02:50:41.051079 144052 net.cpp:217] Top shape: 32 4096 (131072)
I1109 02:50:41.051524 144052 net.cpp:225] Memory required for data: 265039360
I1109 02:50:41.051862 144052 layer_factory.hpp:114] Creating layer relu7
I1109 02:50:41.052202 144052 net.cpp:160] Creating Layer relu7
I1109 02:50:41.052458 144052 net.cpp:596] relu7 <- fc7
I1109 02:50:41.052729 144052 net.cpp:557] relu7 -> fc7 (in-place)
I1109 02:50:41.053254 144052 net.cpp:210] Setting up relu7
I1109 02:50:41.053580 144052 net.cpp:217] Top shape: 32 4096 (131072)
I1109 02:50:41.053854 144052 net.cpp:225] Memory required for data: 265563648
I1109 02:50:41.054083 144052 layer_factory.hpp:114] Creating layer drop7
I1109 02:50:41.054378 144052 net.cpp:160] Creating Layer drop7
I1109 02:50:41.054597 144052 net.cpp:596] drop7 <- fc7
I1109 02:50:41.054858 144052 net.cpp:557] drop7 -> fc7 (in-place)
I1109 02:50:41.055150 144052 net.cpp:210] Setting up drop7
I1109 02:50:41.055366 144052 net.cpp:217] Top shape: 32 4096 (131072)
I1109 02:50:41.055599 144052 net.cpp:225] Memory required for data: 266087936
I1109 02:50:41.055799 144052 layer_factory.hpp:114] Creating layer fc8
I1109 02:50:41.056063 144052 net.cpp:160] Creating Layer fc8
I1109 02:50:41.056274 144052 net.cpp:596] fc8 <- fc7
I1109 02:50:41.056556 144052 net.cpp:570] fc8 -> fc8
I1109 02:50:41.480820 144052 net.cpp:210] Setting up fc8
I1109 02:50:41.481186 144052 net.cpp:217] Top shape: 32 1000 (32000)
I1109 02:50:41.481637 144052 net.cpp:225] Memory required for data: 266215936
I1109 02:50:41.481979 144052 layer_factory.hpp:114] Creating layer loss
I1109 02:50:41.506523 144052 net.cpp:160] Creating Layer loss
I1109 02:50:41.506845 144052 net.cpp:596] loss <- fc8
I1109 02:50:41.507776 144052 net.cpp:596] loss <- label
I1109 02:50:41.535018 144052 net.cpp:570] loss -> loss
I1109 02:50:41.572562 144052 layer_factory.hpp:114] Creating layer loss
…
