…
I1109 00:53:11.353778 139123 net.cpp:484] The NetState phase (0) differed from the phase (1) specified by a rule in layer accuracy
I1109 00:53:11.994807 139123 net.cpp:120] Initializing net from parameters: 
name: "AlexNet"
state {
  phase: TRAIN
  level: 0
  stage: ""
}
layer {
  name: "data"
  type: "DummyData"
  top: "data"
  top: "label"
  include {
    phase: TRAIN
  }
  dummy_data_param {
    data_filler {
      type: "gaussian"
      std: 1
    }
    data_filler {
      type: "constant"
      value: 0
    }
    shape {
      dim: 32
      dim: 3
      dim: 227
      dim: 227
    }
    shape {
      dim: 32
      dim: 1
      dim: 1
      dim: 1
    }
  }
}
layer {
  name: "conv1"
  type: "Convolution"
  bottom: "data"
  top: "conv1"
  param {
    lr_mult: 1
    decay_mult: 1
  }
  param {
    lr_mult: 2
    decay_mult: 0
  }
  convolution_param {
    num_output: 96
    kernel_size: 11
    stride: 4
    weight_filler {
      type: "gaussian"
      std: 0.01
    }
    bias_filler {
      type: "constant"
      value: 0
    }
    engine: MKL2017
  }
}
layer {
  name: "relu1"
  type: "ReLU"
  bottom: "conv1"
  top: "conv1"
  relu_param {
    engine: MKL2017
  }
}
layer {
  name: "norm1"
  type: "LRN"
  bottom: "conv1"
  top: "norm1"
  lrn_param {
    local_size: 5
    alpha: 0.0001
    beta: 0.75
    engine: MKL2017
  }
}
layer {
  name: "pool1"
  type: "Pooling"
  bottom: "norm1"
  top: "pool1"
  pooling_param {
    pool: MAX
    kernel_size: 3
    stride: 2
    engine: MKL2017
  }
}
layer {
  name: "conv2"
  type: "Convolution"
  bottom: "pool1"
  top: "conv2"
  param {
    lr_mult: 1
    decay_mult: 1
  }
  param {
    lr_mult: 2
    decay_mult: 0
  }
  convolution_param {
    num_output: 256
    pad: 2
    kernel_size: 5
    group: 2
    weight_filler {
      type: "gaussian"
      std: 0.01
    }
    bias_filler {
      type: "constant"
      value: 0.1
    }
    engine: MKL2017
  }
}
layer {
  name: "relu2"
  type: "ReLU"
  bottom: "conv2"
  top: "conv2"
  relu_param {
    engine: MKL2017
  }
}
layer {
  name: "norm2"
  type: "LRN"
  bottom: "conv2"
  top: "norm2"
  lrn_param {
    local_size: 5
    alpha: 0.0001
    beta: 0.75
    engine: MKL2017
  }
}
layer {
  name: "pool2"
  type: "Pooling"
  bottom: "norm2"
  top: "pool2"
  pooling_param {
    pool: MAX
    kernel_size: 3
    stride: 2
    engine: MKL2017
  }
}
layer {
  name: "conv3"
  type: "Convolution"
  bottom: "pool2"
  top: "conv3"
  param {
    lr_mult: 1
    decay_mult: 1
  }
  param {
    lr_mult: 2
    decay_mult: 0
  }
  convolution_param {
    num_output: 384
    pad: 1
    kernel_size: 3
    weight_filler {
      type: "gaussian"
      std: 0.01
    }
    bias_filler {
      type: "constant"
      value: 0
    }
    engine: MKL2017
  }
}
layer {
  name: "relu3"
  type: "ReLU"
  bottom: "conv3"
  top: "conv3"
  relu_param {
    engine: MKL2017
  }
}
layer {
  name: "conv4"
  type: "Convolution"
  bottom: "conv3"
  top: "conv4"
  param {
    lr_mult: 1
    decay_mult: 1
  }
  param {
    lr_mult: 2
    decay_mult: 0
  }
  convolution_param {
    num_output: 384
    pad: 1
    kernel_size: 3
    group: 2
    weight_filler {
      type: "gaussian"
      std: 0.01
    }
    bias_filler {
      type: "constant"
      value: 0.1
    }
    engine: MKL2017
  }
}
layer {
  name: "relu4"
  type: "ReLU"
  bottom: "conv4"
  top: "conv4"
  relu_param {
    engine: MKL2017
  }
}
layer {
  name: "conv5"
  type: "Convolution"
  bottom: "conv4"
  top: "conv5"
  param {
    lr_mult: 1
    decay_mult: 1
  }
  param {
    lr_mult: 2
    decay_mult: 0
  }
  convolution_param {
    num_output: 256
    pad: 1
    kernel_size: 3
    group: 2
    weight_filler {
      type: "gaussian"
      std: 0.01
    }
    bias_filler {
      type: "constant"
      value: 0.1
    }
    engine: MKL2017
  }
}
layer {
  name: "relu5"
  type: "ReLU"
  bottom: "conv5"
  top: "conv5"
  relu_param {
    engine: MKL2017
  }
}
layer {
  name: "pool5"
  type: "Pooling"
  bottom: "conv5"
  top: "pool5"
  pooling_param {
    pool: MAX
    kernel_size: 3
    stride: 2
    engine: MKL2017
  }
}
layer {
  name: "fc6"
  type: "InnerProduct"
  bottom: "pool5"
  top: "fc6"
  param {
    lr_mult: 1
    decay_mult: 1
  }
  param {
    lr_mult: 2
    decay_mult: 0
  }
  inner_product_param {
    num_output: 4096
    weight_filler {
      type: "gaussian"
      std: 0.005
    }
    bias_filler {
      type: "constant"
      value: 0.1
    }
  }
}
layer {
  name: "relu6"
  type: "ReLU"
  bottom: "fc6"
  top: "fc6"
}
layer {
  name: "drop6"
  type: "Dropout"
  bottom: "fc6"
  top: "fc6"
  dropout_param {
    dropout_ratio: 0.5
  }
}
layer {
  name: "fc7"
  type: "InnerProduct"
  bottom: "fc6"
  top: "fc7"
  param {
    lr_mult: 1
    decay_mult: 1
  }
  param {
    lr_mult: 2
    decay_mult: 0
  }
  inner_product_param {
    num_output: 4096
    weight_filler {
      type: "gaussian"
      std: 0.005
    }
    bias_filler {
      type: "constant"
      value: 0.1
    }
  }
}
layer {
  name: "relu7"
  type: "ReLU"
  bottom: "fc7"
  top: "fc7"
}
layer {
  name: "drop7"
  type: "Dropout"
  bottom: "fc7"
  top: "fc7"
  dropout_param {
    dropout_ratio: 0.5
  }
}
layer {
  name: "fc8"
  type: "InnerProduct"
  bottom: "fc7"
  top: "fc8"
  param {
    lr_mult: 1
    decay_mult: 1
  }
  param {
    lr_mult: 2
    decay_mult: 0
  }
  inner_product_param {
    num_output: 1000
    weight_filler {
      type: "gaussian"
      std: 0.01
    }
    bias_filler {
      type: "constant"
      value: 0
    }
  }
}
layer {
  name: "loss"
  type: "SoftmaxWithLoss"
  bottom: "fc8"
  bottom: "label"
  top: "loss"
}
I1109 00:53:14.449437 139123 layer_factory.hpp:114] Creating layer data
I1109 00:53:14.596408 139123 net.cpp:160] Creating Layer data
I1109 00:53:14.644435 139123 net.cpp:570] data -> data
I1109 00:53:15.110832 139123 net.cpp:570] data -> label
I1109 00:53:22.165705 139123 net.cpp:210] Setting up data
I1109 00:53:22.245875 139123 net.cpp:217] Top shape: 32 3 227 227 (4946784)
I1109 00:53:22.350203 139123 net.cpp:217] Top shape: 32 1 1 1 (32)
I1109 00:53:22.357409 139123 net.cpp:225] Memory required for data: 19787264
I1109 00:53:22.425081 139123 layer_factory.hpp:114] Creating layer conv1
I1109 00:53:22.750427 139123 net.cpp:160] Creating Layer conv1
I1109 00:53:22.800252 139123 net.cpp:596] conv1 <- data
I1109 00:53:22.920492 139123 net.cpp:570] conv1 -> conv1
I1109 00:53:55.622194 139123 net.cpp:210] Setting up conv1
I1109 00:53:55.629060 139123 net.cpp:217] Top shape: 32 96 55 55 (9292800)
I1109 00:53:55.629446 139123 net.cpp:225] Memory required for data: 56958464
I1109 00:53:55.913588 139123 layer_factory.hpp:114] Creating layer relu1
I1109 00:53:56.033771 139123 net.cpp:160] Creating Layer relu1
I1109 00:53:56.038295 139123 net.cpp:596] relu1 <- conv1
I1109 00:53:56.071640 139123 net.cpp:557] relu1 -> conv1 (in-place)
I1109 00:53:56.262043 139123 net.cpp:210] Setting up relu1
I1109 00:53:56.264508 139123 net.cpp:217] Top shape: 32 96 55 55 (9292800)
I1109 00:53:56.264920 139123 net.cpp:225] Memory required for data: 94129664
I1109 00:53:56.265138 139123 layer_factory.hpp:114] Creating layer norm1
I1109 00:53:56.369513 139123 net.cpp:160] Creating Layer norm1
I1109 00:53:56.369827 139123 net.cpp:596] norm1 <- conv1
I1109 00:53:56.372356 139123 net.cpp:570] norm1 -> norm1
I1109 00:53:56.595115 139123 net.cpp:210] Setting up norm1
I1109 00:53:56.607972 139123 net.cpp:217] Top shape: 32 96 55 55 (9292800)
I1109 00:53:56.608341 139123 net.cpp:225] Memory required for data: 131300864
I1109 00:53:56.608640 139123 layer_factory.hpp:114] Creating layer pool1
I1109 00:53:56.702090 139123 net.cpp:160] Creating Layer pool1
I1109 00:53:56.702399 139123 net.cpp:596] pool1 <- norm1
I1109 00:53:56.717241 139123 net.cpp:570] pool1 -> pool1
I1109 00:53:57.017510 139123 net.cpp:210] Setting up pool1
I1109 00:53:57.019945 139123 net.cpp:217] Top shape: 32 96 27 27 (2239488)
I1109 00:53:57.020264 139123 net.cpp:225] Memory required for data: 140258816
I1109 00:53:57.020501 139123 layer_factory.hpp:114] Creating layer conv2
I1109 00:53:57.020912 139123 net.cpp:160] Creating Layer conv2
I1109 00:53:57.021184 139123 net.cpp:596] conv2 <- pool1
I1109 00:53:57.021415 139123 net.cpp:570] conv2 -> conv2
I1109 00:54:02.759673 139123 net.cpp:210] Setting up conv2
I1109 00:54:02.760012 139123 net.cpp:217] Top shape: 32 256 27 27 (5971968)
I1109 00:54:02.760406 139123 net.cpp:225] Memory required for data: 164146688
I1109 00:54:02.811148 139123 layer_factory.hpp:114] Creating layer relu2
I1109 00:54:02.811560 139123 net.cpp:160] Creating Layer relu2
I1109 00:54:02.811916 139123 net.cpp:596] relu2 <- conv2
I1109 00:54:02.812160 139123 net.cpp:557] relu2 -> conv2 (in-place)
I1109 00:54:02.812604 139123 net.cpp:210] Setting up relu2
I1109 00:54:02.812924 139123 net.cpp:217] Top shape: 32 256 27 27 (5971968)
I1109 00:54:02.813160 139123 net.cpp:225] Memory required for data: 188034560
I1109 00:54:02.813341 139123 layer_factory.hpp:114] Creating layer norm2
I1109 00:54:02.813578 139123 net.cpp:160] Creating Layer norm2
I1109 00:54:02.813772 139123 net.cpp:596] norm2 <- conv2
I1109 00:54:02.813999 139123 net.cpp:570] norm2 -> norm2
I1109 00:54:02.816210 139123 net.cpp:210] Setting up norm2
I1109 00:54:02.816517 139123 net.cpp:217] Top shape: 32 256 27 27 (5971968)
I1109 00:54:02.816740 139123 net.cpp:225] Memory required for data: 211922432
I1109 00:54:02.816972 139123 layer_factory.hpp:114] Creating layer pool2
I1109 00:54:02.817828 139123 net.cpp:160] Creating Layer pool2
I1109 00:54:02.818208 139123 net.cpp:596] pool2 <- norm2
I1109 00:54:02.818548 139123 net.cpp:570] pool2 -> pool2
I1109 00:54:02.818949 139123 net.cpp:210] Setting up pool2
I1109 00:54:02.819187 139123 net.cpp:217] Top shape: 32 256 13 13 (1384448)
I1109 00:54:02.819403 139123 net.cpp:225] Memory required for data: 217460224
I1109 00:54:02.819598 139123 layer_factory.hpp:114] Creating layer conv3
I1109 00:54:02.819921 139123 net.cpp:160] Creating Layer conv3
I1109 00:54:02.820137 139123 net.cpp:596] conv3 <- pool2
I1109 00:54:02.820374 139123 net.cpp:570] conv3 -> conv3
I1109 00:54:03.296545 139123 net.cpp:210] Setting up conv3
I1109 00:54:03.298966 139123 net.cpp:217] Top shape: 32 384 13 13 (2076672)
I1109 00:54:03.299310 139123 net.cpp:225] Memory required for data: 225766912
I1109 00:54:03.302407 139123 layer_factory.hpp:114] Creating layer relu3
I1109 00:54:03.302829 139123 net.cpp:160] Creating Layer relu3
I1109 00:54:03.303091 139123 net.cpp:596] relu3 <- conv3
I1109 00:54:03.303342 139123 net.cpp:557] relu3 -> conv3 (in-place)
I1109 00:54:03.307488 139123 net.cpp:210] Setting up relu3
I1109 00:54:03.307796 139123 net.cpp:217] Top shape: 32 384 13 13 (2076672)
I1109 00:54:03.308038 139123 net.cpp:225] Memory required for data: 234073600
I1109 00:54:03.308230 139123 layer_factory.hpp:114] Creating layer conv4
I1109 00:54:03.308588 139123 net.cpp:160] Creating Layer conv4
I1109 00:54:03.308889 139123 net.cpp:596] conv4 <- conv3
I1109 00:54:03.309237 139123 net.cpp:570] conv4 -> conv4
I1109 00:54:03.580381 139123 net.cpp:210] Setting up conv4
I1109 00:54:03.580838 139123 net.cpp:217] Top shape: 32 384 13 13 (2076672)
I1109 00:54:03.581254 139123 net.cpp:225] Memory required for data: 242380288
I1109 00:54:03.581593 139123 layer_factory.hpp:114] Creating layer relu4
I1109 00:54:03.581903 139123 net.cpp:160] Creating Layer relu4
I1109 00:54:03.582144 139123 net.cpp:596] relu4 <- conv4
I1109 00:54:03.582396 139123 net.cpp:557] relu4 -> conv4 (in-place)
I1109 00:54:03.594749 139123 net.cpp:210] Setting up relu4
I1109 00:54:03.595099 139123 net.cpp:217] Top shape: 32 384 13 13 (2076672)
I1109 00:54:03.595481 139123 net.cpp:225] Memory required for data: 250686976
I1109 00:54:03.595823 139123 layer_factory.hpp:114] Creating layer conv5
I1109 00:54:03.596215 139123 net.cpp:160] Creating Layer conv5
I1109 00:54:03.596457 139123 net.cpp:596] conv5 <- conv4
I1109 00:54:03.596700 139123 net.cpp:570] conv5 -> conv5
I1109 00:54:03.764489 139123 net.cpp:210] Setting up conv5
I1109 00:54:03.764924 139123 net.cpp:217] Top shape: 32 256 13 13 (1384448)
I1109 00:54:03.765374 139123 net.cpp:225] Memory required for data: 256224768
I1109 00:54:03.769953 139123 layer_factory.hpp:114] Creating layer relu5
I1109 00:54:03.770359 139123 net.cpp:160] Creating Layer relu5
I1109 00:54:03.770609 139123 net.cpp:596] relu5 <- conv5
I1109 00:54:03.770875 139123 net.cpp:557] relu5 -> conv5 (in-place)
I1109 00:54:03.771384 139123 net.cpp:210] Setting up relu5
I1109 00:54:03.771682 139123 net.cpp:217] Top shape: 32 256 13 13 (1384448)
I1109 00:54:03.771986 139123 net.cpp:225] Memory required for data: 261762560
I1109 00:54:03.772222 139123 layer_factory.hpp:114] Creating layer pool5
I1109 00:54:03.772476 139123 net.cpp:160] Creating Layer pool5
I1109 00:54:03.772686 139123 net.cpp:596] pool5 <- conv5
I1109 00:54:03.772965 139123 net.cpp:570] pool5 -> pool5
I1109 00:54:03.773371 139123 net.cpp:210] Setting up pool5
I1109 00:54:03.773625 139123 net.cpp:217] Top shape: 32 256 6 6 (294912)
I1109 00:54:03.773843 139123 net.cpp:225] Memory required for data: 262942208
I1109 00:54:03.774024 139123 layer_factory.hpp:114] Creating layer fc6
I1109 00:54:03.828264 139123 net.cpp:160] Creating Layer fc6
I1109 00:54:03.828577 139123 net.cpp:596] fc6 <- pool5
I1109 00:54:03.828989 139123 net.cpp:570] fc6 -> fc6
I1109 00:54:07.917268 139123 net.cpp:210] Setting up fc6
I1109 00:54:07.917570 139123 net.cpp:217] Top shape: 32 4096 (131072)
I1109 00:54:07.919620 139123 net.cpp:225] Memory required for data: 263466496
I1109 00:54:07.919924 139123 layer_factory.hpp:114] Creating layer relu6
I1109 00:54:07.922442 139123 net.cpp:160] Creating Layer relu6
I1109 00:54:07.922739 139123 net.cpp:596] relu6 <- fc6
I1109 00:54:07.922961 139123 net.cpp:557] relu6 -> fc6 (in-place)
I1109 00:54:07.923380 139123 net.cpp:210] Setting up relu6
I1109 00:54:07.923638 139123 net.cpp:217] Top shape: 32 4096 (131072)
I1109 00:54:07.923861 139123 net.cpp:225] Memory required for data: 263990784
I1109 00:54:07.924042 139123 layer_factory.hpp:114] Creating layer drop6
I1109 00:54:07.943961 139123 net.cpp:160] Creating Layer drop6
I1109 00:54:07.944265 139123 net.cpp:596] drop6 <- fc6
I1109 00:54:07.944622 139123 net.cpp:557] drop6 -> fc6 (in-place)
I1109 00:54:08.048827 139123 net.cpp:210] Setting up drop6
I1109 00:54:08.049127 139123 net.cpp:217] Top shape: 32 4096 (131072)
I1109 00:54:08.049490 139123 net.cpp:225] Memory required for data: 264515072
I1109 00:54:08.049698 139123 layer_factory.hpp:114] Creating layer fc7
I1109 00:54:08.049963 139123 net.cpp:160] Creating Layer fc7
I1109 00:54:08.050168 139123 net.cpp:596] fc7 <- fc6
I1109 00:54:08.050547 139123 net.cpp:570] fc7 -> fc7
I1109 00:54:09.762320 139123 net.cpp:210] Setting up fc7
I1109 00:54:09.762681 139123 net.cpp:217] Top shape: 32 4096 (131072)
I1109 00:54:09.763123 139123 net.cpp:225] Memory required for data: 265039360
I1109 00:54:09.763476 139123 layer_factory.hpp:114] Creating layer relu7
I1109 00:54:09.763830 139123 net.cpp:160] Creating Layer relu7
I1109 00:54:09.764070 139123 net.cpp:596] relu7 <- fc7
I1109 00:54:09.764318 139123 net.cpp:557] relu7 -> fc7 (in-place)
I1109 00:54:09.764766 139123 net.cpp:210] Setting up relu7
I1109 00:54:09.765103 139123 net.cpp:217] Top shape: 32 4096 (131072)
I1109 00:54:09.765380 139123 net.cpp:225] Memory required for data: 265563648
I1109 00:54:09.765584 139123 layer_factory.hpp:114] Creating layer drop7
I1109 00:54:09.765830 139123 net.cpp:160] Creating Layer drop7
I1109 00:54:09.766041 139123 net.cpp:596] drop7 <- fc7
I1109 00:54:09.766373 139123 net.cpp:557] drop7 -> fc7 (in-place)
I1109 00:54:09.766644 139123 net.cpp:210] Setting up drop7
I1109 00:54:09.766849 139123 net.cpp:217] Top shape: 32 4096 (131072)
I1109 00:54:09.767058 139123 net.cpp:225] Memory required for data: 266087936
I1109 00:54:09.767237 139123 layer_factory.hpp:114] Creating layer fc8
I1109 00:54:09.767483 139123 net.cpp:160] Creating Layer fc8
I1109 00:54:09.767676 139123 net.cpp:596] fc8 <- fc7
I1109 00:54:09.767900 139123 net.cpp:570] fc8 -> fc8
I1109 00:54:10.191875 139123 net.cpp:210] Setting up fc8
I1109 00:54:10.192230 139123 net.cpp:217] Top shape: 32 1000 (32000)
I1109 00:54:10.192617 139123 net.cpp:225] Memory required for data: 266215936
I1109 00:54:10.192991 139123 layer_factory.hpp:114] Creating layer loss
I1109 00:54:10.217691 139123 net.cpp:160] Creating Layer loss
I1109 00:54:10.218003 139123 net.cpp:596] loss <- fc8
I1109 00:54:10.218998 139123 net.cpp:596] loss <- label
I1109 00:54:10.246464 139123 net.cpp:570] loss -> loss
I1109 00:54:10.284370 139123 layer_factory.hpp:114] Creating layer loss
…
