…
I1109 00:24:54.190634 138496 net.cpp:484] The NetState phase (0) differed from the phase (1) specified by a rule in layer accuracy
I1109 00:24:54.823436 138496 net.cpp:120] Initializing net from parameters: 
name: "AlexNet"
state {
  phase: TRAIN
  level: 0
  stage: ""
}
layer {
  name: "data"
  type: "DummyData"
  top: "data"
  top: "label"
  include {
    phase: TRAIN
  }
  dummy_data_param {
    data_filler {
      type: "gaussian"
      std: 1
    }
    data_filler {
      type: "constant"
      value: 0
    }
    shape {
      dim: 32
      dim: 3
      dim: 227
      dim: 227
    }
    shape {
      dim: 32
      dim: 1
      dim: 1
      dim: 1
    }
  }
}
layer {
  name: "conv1"
  type: "Convolution"
  bottom: "data"
  top: "conv1"
  param {
    lr_mult: 1
    decay_mult: 1
  }
  param {
    lr_mult: 2
    decay_mult: 0
  }
  convolution_param {
    num_output: 96
    kernel_size: 11
    stride: 4
    weight_filler {
      type: "gaussian"
      std: 0.01
    }
    bias_filler {
      type: "constant"
      value: 0
    }
    engine: MKL2017
  }
}
layer {
  name: "relu1"
  type: "ReLU"
  bottom: "conv1"
  top: "conv1"
  relu_param {
    engine: MKL2017
  }
}
layer {
  name: "norm1"
  type: "LRN"
  bottom: "conv1"
  top: "norm1"
  lrn_param {
    local_size: 5
    alpha: 0.0001
    beta: 0.75
    engine: MKL2017
  }
}
layer {
  name: "pool1"
  type: "Pooling"
  bottom: "norm1"
  top: "pool1"
  pooling_param {
    pool: MAX
    kernel_size: 3
    stride: 2
    engine: MKL2017
  }
}
layer {
  name: "conv2"
  type: "Convolution"
  bottom: "pool1"
  top: "conv2"
  param {
    lr_mult: 1
    decay_mult: 1
  }
  param {
    lr_mult: 2
    decay_mult: 0
  }
  convolution_param {
    num_output: 256
    pad: 2
    kernel_size: 5
    group: 2
    weight_filler {
      type: "gaussian"
      std: 0.01
    }
    bias_filler {
      type: "constant"
      value: 0.1
    }
    engine: MKL2017
  }
}
layer {
  name: "relu2"
  type: "ReLU"
  bottom: "conv2"
  top: "conv2"
  relu_param {
    engine: MKL2017
  }
}
layer {
  name: "norm2"
  type: "LRN"
  bottom: "conv2"
  top: "norm2"
  lrn_param {
    local_size: 5
    alpha: 0.0001
    beta: 0.75
    engine: MKL2017
  }
}
layer {
  name: "pool2"
  type: "Pooling"
  bottom: "norm2"
  top: "pool2"
  pooling_param {
    pool: MAX
    kernel_size: 3
    stride: 2
    engine: MKL2017
  }
}
layer {
  name: "conv3"
  type: "Convolution"
  bottom: "pool2"
  top: "conv3"
  param {
    lr_mult: 1
    decay_mult: 1
  }
  param {
    lr_mult: 2
    decay_mult: 0
  }
  convolution_param {
    num_output: 384
    pad: 1
    kernel_size: 3
    weight_filler {
      type: "gaussian"
      std: 0.01
    }
    bias_filler {
      type: "constant"
      value: 0
    }
    engine: MKL2017
  }
}
layer {
  name: "relu3"
  type: "ReLU"
  bottom: "conv3"
  top: "conv3"
  relu_param {
    engine: MKL2017
  }
}
layer {
  name: "conv4"
  type: "Convolution"
  bottom: "conv3"
  top: "conv4"
  param {
    lr_mult: 1
    decay_mult: 1
  }
  param {
    lr_mult: 2
    decay_mult: 0
  }
  convolution_param {
    num_output: 384
    pad: 1
    kernel_size: 3
    group: 2
    weight_filler {
      type: "gaussian"
      std: 0.01
    }
    bias_filler {
      type: "constant"
      value: 0.1
    }
    engine: MKL2017
  }
}
layer {
  name: "relu4"
  type: "ReLU"
  bottom: "conv4"
  top: "conv4"
  relu_param {
    engine: MKL2017
  }
}
layer {
  name: "conv5"
  type: "Convolution"
  bottom: "conv4"
  top: "conv5"
  param {
    lr_mult: 1
    decay_mult: 1
  }
  param {
    lr_mult: 2
    decay_mult: 0
  }
  convolution_param {
    num_output: 256
    pad: 1
    kernel_size: 3
    group: 2
    weight_filler {
      type: "gaussian"
      std: 0.01
    }
    bias_filler {
      type: "constant"
      value: 0.1
    }
    engine: MKL2017
  }
}
layer {
  name: "relu5"
  type: "ReLU"
  bottom: "conv5"
  top: "conv5"
  relu_param {
    engine: MKL2017
  }
}
layer {
  name: "pool5"
  type: "Pooling"
  bottom: "conv5"
  top: "pool5"
  pooling_param {
    pool: MAX
    kernel_size: 3
    stride: 2
    engine: MKL2017
  }
}
layer {
  name: "fc6"
  type: "InnerProduct"
  bottom: "pool5"
  top: "fc6"
  param {
    lr_mult: 1
    decay_mult: 1
  }
  param {
    lr_mult: 2
    decay_mult: 0
  }
  inner_product_param {
    num_output: 4096
    weight_filler {
      type: "gaussian"
      std: 0.005
    }
    bias_filler {
      type: "constant"
      value: 0.1
    }
  }
}
layer {
  name: "relu6"
  type: "ReLU"
  bottom: "fc6"
  top: "fc6"
}
layer {
  name: "drop6"
  type: "Dropout"
  bottom: "fc6"
  top: "fc6"
  dropout_param {
    dropout_ratio: 0.5
  }
}
layer {
  name: "fc7"
  type: "InnerProduct"
  bottom: "fc6"
  top: "fc7"
  param {
    lr_mult: 1
    decay_mult: 1
  }
  param {
    lr_mult: 2
    decay_mult: 0
  }
  inner_product_param {
    num_output: 4096
    weight_filler {
      type: "gaussian"
      std: 0.005
    }
    bias_filler {
      type: "constant"
      value: 0.1
    }
  }
}
layer {
  name: "relu7"
  type: "ReLU"
  bottom: "fc7"
  top: "fc7"
}
layer {
  name: "drop7"
  type: "Dropout"
  bottom: "fc7"
  top: "fc7"
  dropout_param {
    dropout_ratio: 0.5
  }
}
layer {
  name: "fc8"
  type: "InnerProduct"
  bottom: "fc7"
  top: "fc8"
  param {
    lr_mult: 1
    decay_mult: 1
  }
  param {
    lr_mult: 2
    decay_mult: 0
  }
  inner_product_param {
    num_output: 1000
    weight_filler {
      type: "gaussian"
      std: 0.01
    }
    bias_filler {
      type: "constant"
      value: 0
    }
  }
}
layer {
  name: "loss"
  type: "SoftmaxWithLoss"
  bottom: "fc8"
  bottom: "label"
  top: "loss"
}
I1109 00:24:57.278214 138496 layer_factory.hpp:114] Creating layer data
I1109 00:24:57.426553 138496 net.cpp:160] Creating Layer data
I1109 00:24:57.474709 138496 net.cpp:570] data -> data
I1109 00:24:57.943174 138496 net.cpp:570] data -> label
I1109 00:25:05.008180 138496 net.cpp:210] Setting up data
I1109 00:25:05.089999 138496 net.cpp:217] Top shape: 32 3 227 227 (4946784)
I1109 00:25:05.193752 138496 net.cpp:217] Top shape: 32 1 1 1 (32)
I1109 00:25:05.201020 138496 net.cpp:225] Memory required for data: 19787264
I1109 00:25:05.273192 138496 layer_factory.hpp:114] Creating layer conv1
I1109 00:25:05.600709 138496 net.cpp:160] Creating Layer conv1
I1109 00:25:05.651026 138496 net.cpp:596] conv1 <- data
I1109 00:25:05.770422 138496 net.cpp:570] conv1 -> conv1
I1109 00:25:38.606298 138496 net.cpp:210] Setting up conv1
I1109 00:25:38.613085 138496 net.cpp:217] Top shape: 32 96 55 55 (9292800)
I1109 00:25:38.613461 138496 net.cpp:225] Memory required for data: 56958464
I1109 00:25:38.898960 138496 layer_factory.hpp:114] Creating layer relu1
I1109 00:25:39.019351 138496 net.cpp:160] Creating Layer relu1
I1109 00:25:39.023911 138496 net.cpp:596] relu1 <- conv1
I1109 00:25:39.057255 138496 net.cpp:557] relu1 -> conv1 (in-place)
I1109 00:25:39.249013 138496 net.cpp:210] Setting up relu1
I1109 00:25:39.251385 138496 net.cpp:217] Top shape: 32 96 55 55 (9292800)
I1109 00:25:39.251732 138496 net.cpp:225] Memory required for data: 94129664
I1109 00:25:39.251971 138496 layer_factory.hpp:114] Creating layer norm1
I1109 00:25:39.356086 138496 net.cpp:160] Creating Layer norm1
I1109 00:25:39.356405 138496 net.cpp:596] norm1 <- conv1
I1109 00:25:39.358973 138496 net.cpp:570] norm1 -> norm1
I1109 00:25:39.583981 138496 net.cpp:210] Setting up norm1
I1109 00:25:39.597123 138496 net.cpp:217] Top shape: 32 96 55 55 (9292800)
I1109 00:25:39.597512 138496 net.cpp:225] Memory required for data: 131300864
I1109 00:25:39.597828 138496 layer_factory.hpp:114] Creating layer pool1
I1109 00:25:39.692504 138496 net.cpp:160] Creating Layer pool1
I1109 00:25:39.692884 138496 net.cpp:596] pool1 <- norm1
I1109 00:25:39.707653 138496 net.cpp:570] pool1 -> pool1
I1109 00:25:40.008893 138496 net.cpp:210] Setting up pool1
I1109 00:25:40.011399 138496 net.cpp:217] Top shape: 32 96 27 27 (2239488)
I1109 00:25:40.011724 138496 net.cpp:225] Memory required for data: 140258816
I1109 00:25:40.011932 138496 layer_factory.hpp:114] Creating layer conv2
I1109 00:25:40.012312 138496 net.cpp:160] Creating Layer conv2
I1109 00:25:40.012545 138496 net.cpp:596] conv2 <- pool1
I1109 00:25:40.012863 138496 net.cpp:570] conv2 -> conv2
I1109 00:25:45.765436 138496 net.cpp:210] Setting up conv2
I1109 00:25:45.765795 138496 net.cpp:217] Top shape: 32 256 27 27 (5971968)
I1109 00:25:45.766192 138496 net.cpp:225] Memory required for data: 164146688
I1109 00:25:45.818853 138496 layer_factory.hpp:114] Creating layer relu2
I1109 00:25:45.819279 138496 net.cpp:160] Creating Layer relu2
I1109 00:25:45.819658 138496 net.cpp:596] relu2 <- conv2
I1109 00:25:45.819916 138496 net.cpp:557] relu2 -> conv2 (in-place)
I1109 00:25:45.820389 138496 net.cpp:210] Setting up relu2
I1109 00:25:45.820653 138496 net.cpp:217] Top shape: 32 256 27 27 (5971968)
I1109 00:25:45.820972 138496 net.cpp:225] Memory required for data: 188034560
I1109 00:25:45.821193 138496 layer_factory.hpp:114] Creating layer norm2
I1109 00:25:45.821432 138496 net.cpp:160] Creating Layer norm2
I1109 00:25:45.821629 138496 net.cpp:596] norm2 <- conv2
I1109 00:25:45.821853 138496 net.cpp:570] norm2 -> norm2
I1109 00:25:45.823974 138496 net.cpp:210] Setting up norm2
I1109 00:25:45.824281 138496 net.cpp:217] Top shape: 32 256 27 27 (5971968)
I1109 00:25:45.824511 138496 net.cpp:225] Memory required for data: 211922432
I1109 00:25:45.824697 138496 layer_factory.hpp:114] Creating layer pool2
I1109 00:25:45.825672 138496 net.cpp:160] Creating Layer pool2
I1109 00:25:45.826068 138496 net.cpp:596] pool2 <- norm2
I1109 00:25:45.826357 138496 net.cpp:570] pool2 -> pool2
I1109 00:25:45.826757 138496 net.cpp:210] Setting up pool2
I1109 00:25:45.826998 138496 net.cpp:217] Top shape: 32 256 13 13 (1384448)
I1109 00:25:45.827216 138496 net.cpp:225] Memory required for data: 217460224
I1109 00:25:45.827410 138496 layer_factory.hpp:114] Creating layer conv3
I1109 00:25:45.827736 138496 net.cpp:160] Creating Layer conv3
I1109 00:25:45.827950 138496 net.cpp:596] conv3 <- pool2
I1109 00:25:45.828183 138496 net.cpp:570] conv3 -> conv3
I1109 00:25:46.344203 138496 net.cpp:210] Setting up conv3
I1109 00:25:46.346652 138496 net.cpp:217] Top shape: 32 384 13 13 (2076672)
I1109 00:25:46.347009 138496 net.cpp:225] Memory required for data: 225766912
I1109 00:25:46.350178 138496 layer_factory.hpp:114] Creating layer relu3
I1109 00:25:46.350623 138496 net.cpp:160] Creating Layer relu3
I1109 00:25:46.350884 138496 net.cpp:596] relu3 <- conv3
I1109 00:25:46.351140 138496 net.cpp:557] relu3 -> conv3 (in-place)
I1109 00:25:46.355294 138496 net.cpp:210] Setting up relu3
I1109 00:25:46.355603 138496 net.cpp:217] Top shape: 32 384 13 13 (2076672)
I1109 00:25:46.355850 138496 net.cpp:225] Memory required for data: 234073600
I1109 00:25:46.356078 138496 layer_factory.hpp:114] Creating layer conv4
I1109 00:25:46.356454 138496 net.cpp:160] Creating Layer conv4
I1109 00:25:46.356748 138496 net.cpp:596] conv4 <- conv3
I1109 00:25:46.357106 138496 net.cpp:570] conv4 -> conv4
I1109 00:25:46.602262 138496 net.cpp:210] Setting up conv4
I1109 00:25:46.602651 138496 net.cpp:217] Top shape: 32 384 13 13 (2076672)
I1109 00:25:46.603076 138496 net.cpp:225] Memory required for data: 242380288
I1109 00:25:46.603391 138496 layer_factory.hpp:114] Creating layer relu4
I1109 00:25:46.603687 138496 net.cpp:160] Creating Layer relu4
I1109 00:25:46.603912 138496 net.cpp:596] relu4 <- conv4
I1109 00:25:46.604146 138496 net.cpp:557] relu4 -> conv4 (in-place)
I1109 00:25:46.616716 138496 net.cpp:210] Setting up relu4
I1109 00:25:46.617151 138496 net.cpp:217] Top shape: 32 384 13 13 (2076672)
I1109 00:25:46.617511 138496 net.cpp:225] Memory required for data: 250686976
I1109 00:25:46.617753 138496 layer_factory.hpp:114] Creating layer conv5
I1109 00:25:46.618113 138496 net.cpp:160] Creating Layer conv5
I1109 00:25:46.618356 138496 net.cpp:596] conv5 <- conv4
I1109 00:25:46.618597 138496 net.cpp:570] conv5 -> conv5
I1109 00:25:46.789381 138496 net.cpp:210] Setting up conv5
I1109 00:25:46.789772 138496 net.cpp:217] Top shape: 32 256 13 13 (1384448)
I1109 00:25:46.790182 138496 net.cpp:225] Memory required for data: 256224768
I1109 00:25:46.794788 138496 layer_factory.hpp:114] Creating layer relu5
I1109 00:25:46.795230 138496 net.cpp:160] Creating Layer relu5
I1109 00:25:46.795497 138496 net.cpp:596] relu5 <- conv5
I1109 00:25:46.795778 138496 net.cpp:557] relu5 -> conv5 (in-place)
I1109 00:25:46.796339 138496 net.cpp:210] Setting up relu5
I1109 00:25:46.796629 138496 net.cpp:217] Top shape: 32 256 13 13 (1384448)
I1109 00:25:46.796937 138496 net.cpp:225] Memory required for data: 261762560
I1109 00:25:46.797157 138496 layer_factory.hpp:114] Creating layer pool5
I1109 00:25:46.797418 138496 net.cpp:160] Creating Layer pool5
I1109 00:25:46.797636 138496 net.cpp:596] pool5 <- conv5
I1109 00:25:46.797857 138496 net.cpp:570] pool5 -> pool5
I1109 00:25:46.798305 138496 net.cpp:210] Setting up pool5
I1109 00:25:46.798598 138496 net.cpp:217] Top shape: 32 256 6 6 (294912)
I1109 00:25:46.798818 138496 net.cpp:225] Memory required for data: 262942208
I1109 00:25:46.799000 138496 layer_factory.hpp:114] Creating layer fc6
I1109 00:25:46.854964 138496 net.cpp:160] Creating Layer fc6
I1109 00:25:46.855275 138496 net.cpp:596] fc6 <- pool5
I1109 00:25:46.855696 138496 net.cpp:570] fc6 -> fc6
I1109 00:25:50.939323 138496 net.cpp:210] Setting up fc6
I1109 00:25:50.939633 138496 net.cpp:217] Top shape: 32 4096 (131072)
I1109 00:25:50.941735 138496 net.cpp:225] Memory required for data: 263466496
I1109 00:25:50.942044 138496 layer_factory.hpp:114] Creating layer relu6
I1109 00:25:50.944468 138496 net.cpp:160] Creating Layer relu6
I1109 00:25:50.944845 138496 net.cpp:596] relu6 <- fc6
I1109 00:25:50.945086 138496 net.cpp:557] relu6 -> fc6 (in-place)
I1109 00:25:50.945502 138496 net.cpp:210] Setting up relu6
I1109 00:25:50.945758 138496 net.cpp:217] Top shape: 32 4096 (131072)
I1109 00:25:50.945978 138496 net.cpp:225] Memory required for data: 263990784
I1109 00:25:50.946161 138496 layer_factory.hpp:114] Creating layer drop6
I1109 00:25:50.965988 138496 net.cpp:160] Creating Layer drop6
I1109 00:25:50.966296 138496 net.cpp:596] drop6 <- fc6
I1109 00:25:50.966683 138496 net.cpp:557] drop6 -> fc6 (in-place)
I1109 00:25:51.070034 138496 net.cpp:210] Setting up drop6
I1109 00:25:51.070333 138496 net.cpp:217] Top shape: 32 4096 (131072)
I1109 00:25:51.070662 138496 net.cpp:225] Memory required for data: 264515072
I1109 00:25:51.070905 138496 layer_factory.hpp:114] Creating layer fc7
I1109 00:25:51.071171 138496 net.cpp:160] Creating Layer fc7
I1109 00:25:51.071379 138496 net.cpp:596] fc7 <- fc6
I1109 00:25:51.071759 138496 net.cpp:570] fc7 -> fc7
I1109 00:25:52.783121 138496 net.cpp:210] Setting up fc7
I1109 00:25:52.783473 138496 net.cpp:217] Top shape: 32 4096 (131072)
I1109 00:25:52.783870 138496 net.cpp:225] Memory required for data: 265039360
I1109 00:25:52.784227 138496 layer_factory.hpp:114] Creating layer relu7
I1109 00:25:52.784540 138496 net.cpp:160] Creating Layer relu7
I1109 00:25:52.784823 138496 net.cpp:596] relu7 <- fc7
I1109 00:25:52.785090 138496 net.cpp:557] relu7 -> fc7 (in-place)
I1109 00:25:52.785533 138496 net.cpp:210] Setting up relu7
I1109 00:25:52.785810 138496 net.cpp:217] Top shape: 32 4096 (131072)
I1109 00:25:52.786051 138496 net.cpp:225] Memory required for data: 265563648
I1109 00:25:52.786281 138496 layer_factory.hpp:114] Creating layer drop7
I1109 00:25:52.786525 138496 net.cpp:160] Creating Layer drop7
I1109 00:25:52.786739 138496 net.cpp:596] drop7 <- fc7
I1109 00:25:52.787014 138496 net.cpp:557] drop7 -> fc7 (in-place)
I1109 00:25:52.787276 138496 net.cpp:210] Setting up drop7
I1109 00:25:52.787478 138496 net.cpp:217] Top shape: 32 4096 (131072)
I1109 00:25:52.787693 138496 net.cpp:225] Memory required for data: 266087936
I1109 00:25:52.787873 138496 layer_factory.hpp:114] Creating layer fc8
I1109 00:25:52.788117 138496 net.cpp:160] Creating Layer fc8
I1109 00:25:52.788310 138496 net.cpp:596] fc8 <- fc7
I1109 00:25:52.788529 138496 net.cpp:570] fc8 -> fc8
I1109 00:25:53.213567 138496 net.cpp:210] Setting up fc8
I1109 00:25:53.213946 138496 net.cpp:217] Top shape: 32 1000 (32000)
I1109 00:25:53.214393 138496 net.cpp:225] Memory required for data: 266215936
I1109 00:25:53.214721 138496 layer_factory.hpp:114] Creating layer loss
I1109 00:25:53.239761 138496 net.cpp:160] Creating Layer loss
I1109 00:25:53.240090 138496 net.cpp:596] loss <- fc8
I1109 00:25:53.241189 138496 net.cpp:596] loss <- label
I1109 00:25:53.268923 138496 net.cpp:570] loss -> loss
I1109 00:25:53.306946 138496 layer_factory.hpp:114] Creating layer loss
…
