…
I1109 03:14:29.872262 144581 net.cpp:484] The NetState phase (0) differed from the phase (1) specified by a rule in layer accuracy
I1109 03:14:30.501627 144581 net.cpp:120] Initializing net from parameters: 
name: "AlexNet"
state {
  phase: TRAIN
  level: 0
  stage: ""
}
layer {
  name: "data"
  type: "DummyData"
  top: "data"
  top: "label"
  include {
    phase: TRAIN
  }
  dummy_data_param {
    data_filler {
      type: "gaussian"
      std: 1
    }
    data_filler {
      type: "constant"
      value: 0
    }
    shape {
      dim: 32
      dim: 3
      dim: 227
      dim: 227
    }
    shape {
      dim: 32
      dim: 1
      dim: 1
      dim: 1
    }
  }
}
layer {
  name: "conv1"
  type: "Convolution"
  bottom: "data"
  top: "conv1"
  param {
    lr_mult: 1
    decay_mult: 1
  }
  param {
    lr_mult: 2
    decay_mult: 0
  }
  convolution_param {
    num_output: 96
    kernel_size: 11
    stride: 4
    weight_filler {
      type: "gaussian"
      std: 0.01
    }
    bias_filler {
      type: "constant"
      value: 0
    }
    engine: MKL2017
  }
}
layer {
  name: "relu1"
  type: "ReLU"
  bottom: "conv1"
  top: "conv1"
  relu_param {
    engine: MKL2017
  }
}
layer {
  name: "norm1"
  type: "LRN"
  bottom: "conv1"
  top: "norm1"
  lrn_param {
    local_size: 5
    alpha: 0.0001
    beta: 0.75
    engine: MKL2017
  }
}
layer {
  name: "pool1"
  type: "Pooling"
  bottom: "norm1"
  top: "pool1"
  pooling_param {
    pool: MAX
    kernel_size: 3
    stride: 2
    engine: MKL2017
  }
}
layer {
  name: "conv2"
  type: "Convolution"
  bottom: "pool1"
  top: "conv2"
  param {
    lr_mult: 1
    decay_mult: 1
  }
  param {
    lr_mult: 2
    decay_mult: 0
  }
  convolution_param {
    num_output: 256
    pad: 2
    kernel_size: 5
    group: 2
    weight_filler {
      type: "gaussian"
      std: 0.01
    }
    bias_filler {
      type: "constant"
      value: 0.1
    }
    engine: MKL2017
  }
}
layer {
  name: "relu2"
  type: "ReLU"
  bottom: "conv2"
  top: "conv2"
  relu_param {
    engine: MKL2017
  }
}
layer {
  name: "norm2"
  type: "LRN"
  bottom: "conv2"
  top: "norm2"
  lrn_param {
    local_size: 5
    alpha: 0.0001
    beta: 0.75
    engine: MKL2017
  }
}
layer {
  name: "pool2"
  type: "Pooling"
  bottom: "norm2"
  top: "pool2"
  pooling_param {
    pool: MAX
    kernel_size: 3
    stride: 2
    engine: MKL2017
  }
}
layer {
  name: "conv3"
  type: "Convolution"
  bottom: "pool2"
  top: "conv3"
  param {
    lr_mult: 1
    decay_mult: 1
  }
  param {
    lr_mult: 2
    decay_mult: 0
  }
  convolution_param {
    num_output: 384
    pad: 1
    kernel_size: 3
    weight_filler {
      type: "gaussian"
      std: 0.01
    }
    bias_filler {
      type: "constant"
      value: 0
    }
    engine: MKL2017
  }
}
layer {
  name: "relu3"
  type: "ReLU"
  bottom: "conv3"
  top: "conv3"
  relu_param {
    engine: MKL2017
  }
}
layer {
  name: "conv4"
  type: "Convolution"
  bottom: "conv3"
  top: "conv4"
  param {
    lr_mult: 1
    decay_mult: 1
  }
  param {
    lr_mult: 2
    decay_mult: 0
  }
  convolution_param {
    num_output: 384
    pad: 1
    kernel_size: 3
    group: 2
    weight_filler {
      type: "gaussian"
      std: 0.01
    }
    bias_filler {
      type: "constant"
      value: 0.1
    }
    engine: MKL2017
  }
}
layer {
  name: "relu4"
  type: "ReLU"
  bottom: "conv4"
  top: "conv4"
  relu_param {
    engine: MKL2017
  }
}
layer {
  name: "conv5"
  type: "Convolution"
  bottom: "conv4"
  top: "conv5"
  param {
    lr_mult: 1
    decay_mult: 1
  }
  param {
    lr_mult: 2
    decay_mult: 0
  }
  convolution_param {
    num_output: 256
    pad: 1
    kernel_size: 3
    group: 2
    weight_filler {
      type: "gaussian"
      std: 0.01
    }
    bias_filler {
      type: "constant"
      value: 0.1
    }
    engine: MKL2017
  }
}
layer {
  name: "relu5"
  type: "ReLU"
  bottom: "conv5"
  top: "conv5"
  relu_param {
    engine: MKL2017
  }
}
layer {
  name: "pool5"
  type: "Pooling"
  bottom: "conv5"
  top: "pool5"
  pooling_param {
    pool: MAX
    kernel_size: 3
    stride: 2
    engine: MKL2017
  }
}
layer {
  name: "fc6"
  type: "InnerProduct"
  bottom: "pool5"
  top: "fc6"
  param {
    lr_mult: 1
    decay_mult: 1
  }
  param {
    lr_mult: 2
    decay_mult: 0
  }
  inner_product_param {
    num_output: 4096
    weight_filler {
      type: "gaussian"
      std: 0.005
    }
    bias_filler {
      type: "constant"
      value: 0.1
    }
  }
}
layer {
  name: "relu6"
  type: "ReLU"
  bottom: "fc6"
  top: "fc6"
}
layer {
  name: "drop6"
  type: "Dropout"
  bottom: "fc6"
  top: "fc6"
  dropout_param {
    dropout_ratio: 0.5
  }
}
layer {
  name: "fc7"
  type: "InnerProduct"
  bottom: "fc6"
  top: "fc7"
  param {
    lr_mult: 1
    decay_mult: 1
  }
  param {
    lr_mult: 2
    decay_mult: 0
  }
  inner_product_param {
    num_output: 4096
    weight_filler {
      type: "gaussian"
      std: 0.005
    }
    bias_filler {
      type: "constant"
      value: 0.1
    }
  }
}
layer {
  name: "relu7"
  type: "ReLU"
  bottom: "fc7"
  top: "fc7"
}
layer {
  name: "drop7"
  type: "Dropout"
  bottom: "fc7"
  top: "fc7"
  dropout_param {
    dropout_ratio: 0.5
  }
}
layer {
  name: "fc8"
  type: "InnerProduct"
  bottom: "fc7"
  top: "fc8"
  param {
    lr_mult: 1
    decay_mult: 1
  }
  param {
    lr_mult: 2
    decay_mult: 0
  }
  inner_product_param {
    num_output: 1000
    weight_filler {
      type: "gaussian"
      std: 0.01
    }
    bias_filler {
      type: "constant"
      value: 0
    }
  }
}
layer {
  name: "loss"
  type: "SoftmaxWithLoss"
  bottom: "fc8"
  bottom: "label"
  top: "loss"
}
I1109 03:14:32.941654 144581 layer_factory.hpp:114] Creating layer data
I1109 03:14:33.087769 144581 net.cpp:160] Creating Layer data
I1109 03:14:33.135494 144581 net.cpp:570] data -> data
I1109 03:14:33.595055 144581 net.cpp:570] data -> label
I1109 03:14:40.600122 144581 net.cpp:210] Setting up data
I1109 03:14:40.678738 144581 net.cpp:217] Top shape: 32 3 227 227 (4946784)
I1109 03:14:40.784673 144581 net.cpp:217] Top shape: 32 1 1 1 (32)
I1109 03:14:40.792402 144581 net.cpp:225] Memory required for data: 19787264
I1109 03:14:40.861258 144581 layer_factory.hpp:114] Creating layer conv1
I1109 03:14:41.191707 144581 net.cpp:160] Creating Layer conv1
I1109 03:14:41.241616 144581 net.cpp:596] conv1 <- data
I1109 03:14:41.360249 144581 net.cpp:570] conv1 -> conv1
I1109 03:15:14.062727 144581 net.cpp:210] Setting up conv1
I1109 03:15:14.069875 144581 net.cpp:217] Top shape: 32 96 55 55 (9292800)
I1109 03:15:14.070231 144581 net.cpp:225] Memory required for data: 56958464
I1109 03:15:14.355648 144581 layer_factory.hpp:114] Creating layer relu1
I1109 03:15:14.477143 144581 net.cpp:160] Creating Layer relu1
I1109 03:15:14.481747 144581 net.cpp:596] relu1 <- conv1
I1109 03:15:14.515318 144581 net.cpp:557] relu1 -> conv1 (in-place)
I1109 03:15:14.705950 144581 net.cpp:210] Setting up relu1
I1109 03:15:14.708364 144581 net.cpp:217] Top shape: 32 96 55 55 (9292800)
I1109 03:15:14.708714 144581 net.cpp:225] Memory required for data: 94129664
I1109 03:15:14.709010 144581 layer_factory.hpp:114] Creating layer norm1
I1109 03:15:14.814208 144581 net.cpp:160] Creating Layer norm1
I1109 03:15:14.814529 144581 net.cpp:596] norm1 <- conv1
I1109 03:15:14.817121 144581 net.cpp:570] norm1 -> norm1
I1109 03:15:15.040161 144581 net.cpp:210] Setting up norm1
I1109 03:15:15.053037 144581 net.cpp:217] Top shape: 32 96 55 55 (9292800)
I1109 03:15:15.053426 144581 net.cpp:225] Memory required for data: 131300864
I1109 03:15:15.053735 144581 layer_factory.hpp:114] Creating layer pool1
I1109 03:15:15.149006 144581 net.cpp:160] Creating Layer pool1
I1109 03:15:15.149328 144581 net.cpp:596] pool1 <- norm1
I1109 03:15:15.164095 144581 net.cpp:570] pool1 -> pool1
I1109 03:15:15.465466 144581 net.cpp:210] Setting up pool1
I1109 03:15:15.467936 144581 net.cpp:217] Top shape: 32 96 27 27 (2239488)
I1109 03:15:15.468272 144581 net.cpp:225] Memory required for data: 140258816
I1109 03:15:15.468536 144581 layer_factory.hpp:114] Creating layer conv2
I1109 03:15:15.468977 144581 net.cpp:160] Creating Layer conv2
I1109 03:15:15.469216 144581 net.cpp:596] conv2 <- pool1
I1109 03:15:15.469460 144581 net.cpp:570] conv2 -> conv2
I1109 03:15:21.276048 144581 net.cpp:210] Setting up conv2
I1109 03:15:21.276376 144581 net.cpp:217] Top shape: 32 256 27 27 (5971968)
I1109 03:15:21.276768 144581 net.cpp:225] Memory required for data: 164146688
I1109 03:15:21.327150 144581 layer_factory.hpp:114] Creating layer relu2
I1109 03:15:21.327558 144581 net.cpp:160] Creating Layer relu2
I1109 03:15:21.327924 144581 net.cpp:596] relu2 <- conv2
I1109 03:15:21.328197 144581 net.cpp:557] relu2 -> conv2 (in-place)
I1109 03:15:21.328644 144581 net.cpp:210] Setting up relu2
I1109 03:15:21.328964 144581 net.cpp:217] Top shape: 32 256 27 27 (5971968)
I1109 03:15:21.329210 144581 net.cpp:225] Memory required for data: 188034560
I1109 03:15:21.329404 144581 layer_factory.hpp:114] Creating layer norm2
I1109 03:15:21.329653 144581 net.cpp:160] Creating Layer norm2
I1109 03:15:21.329854 144581 net.cpp:596] norm2 <- conv2
I1109 03:15:21.330119 144581 net.cpp:570] norm2 -> norm2
I1109 03:15:21.332142 144581 net.cpp:210] Setting up norm2
I1109 03:15:21.332458 144581 net.cpp:217] Top shape: 32 256 27 27 (5971968)
I1109 03:15:21.332700 144581 net.cpp:225] Memory required for data: 211922432
I1109 03:15:21.332975 144581 layer_factory.hpp:114] Creating layer pool2
I1109 03:15:21.333947 144581 net.cpp:160] Creating Layer pool2
I1109 03:15:21.334246 144581 net.cpp:596] pool2 <- norm2
I1109 03:15:21.334499 144581 net.cpp:570] pool2 -> pool2
I1109 03:15:21.334908 144581 net.cpp:210] Setting up pool2
I1109 03:15:21.335162 144581 net.cpp:217] Top shape: 32 256 13 13 (1384448)
I1109 03:15:21.335389 144581 net.cpp:225] Memory required for data: 217460224
I1109 03:15:21.335633 144581 layer_factory.hpp:114] Creating layer conv3
I1109 03:15:21.336079 144581 net.cpp:160] Creating Layer conv3
I1109 03:15:21.336403 144581 net.cpp:596] conv3 <- pool2
I1109 03:15:21.336671 144581 net.cpp:570] conv3 -> conv3
I1109 03:15:21.817616 144581 net.cpp:210] Setting up conv3
I1109 03:15:21.820060 144581 net.cpp:217] Top shape: 32 384 13 13 (2076672)
I1109 03:15:21.820446 144581 net.cpp:225] Memory required for data: 225766912
I1109 03:15:21.823689 144581 layer_factory.hpp:114] Creating layer relu3
I1109 03:15:21.824156 144581 net.cpp:160] Creating Layer relu3
I1109 03:15:21.824422 144581 net.cpp:596] relu3 <- conv3
I1109 03:15:21.824683 144581 net.cpp:557] relu3 -> conv3 (in-place)
I1109 03:15:21.828848 144581 net.cpp:210] Setting up relu3
I1109 03:15:21.829203 144581 net.cpp:217] Top shape: 32 384 13 13 (2076672)
I1109 03:15:21.829604 144581 net.cpp:225] Memory required for data: 234073600
I1109 03:15:21.829846 144581 layer_factory.hpp:114] Creating layer conv4
I1109 03:15:21.830211 144581 net.cpp:160] Creating Layer conv4
I1109 03:15:21.830477 144581 net.cpp:596] conv4 <- conv3
I1109 03:15:21.830737 144581 net.cpp:570] conv4 -> conv4
I1109 03:15:22.073447 144581 net.cpp:210] Setting up conv4
I1109 03:15:22.073849 144581 net.cpp:217] Top shape: 32 384 13 13 (2076672)
I1109 03:15:22.074249 144581 net.cpp:225] Memory required for data: 242380288
I1109 03:15:22.074604 144581 layer_factory.hpp:114] Creating layer relu4
I1109 03:15:22.074910 144581 net.cpp:160] Creating Layer relu4
I1109 03:15:22.075150 144581 net.cpp:596] relu4 <- conv4
I1109 03:15:22.075400 144581 net.cpp:557] relu4 -> conv4 (in-place)
I1109 03:15:22.087805 144581 net.cpp:210] Setting up relu4
I1109 03:15:22.088160 144581 net.cpp:217] Top shape: 32 384 13 13 (2076672)
I1109 03:15:22.088543 144581 net.cpp:225] Memory required for data: 250686976
I1109 03:15:22.088830 144581 layer_factory.hpp:114] Creating layer conv5
I1109 03:15:22.089231 144581 net.cpp:160] Creating Layer conv5
I1109 03:15:22.089486 144581 net.cpp:596] conv5 <- conv4
I1109 03:15:22.089745 144581 net.cpp:570] conv5 -> conv5
I1109 03:15:22.259388 144581 net.cpp:210] Setting up conv5
I1109 03:15:22.259801 144581 net.cpp:217] Top shape: 32 256 13 13 (1384448)
I1109 03:15:22.260256 144581 net.cpp:225] Memory required for data: 256224768
I1109 03:15:22.265054 144581 layer_factory.hpp:114] Creating layer relu5
I1109 03:15:22.265481 144581 net.cpp:160] Creating Layer relu5
I1109 03:15:22.265782 144581 net.cpp:596] relu5 <- conv5
I1109 03:15:22.266064 144581 net.cpp:557] relu5 -> conv5 (in-place)
I1109 03:15:22.266538 144581 net.cpp:210] Setting up relu5
I1109 03:15:22.266834 144581 net.cpp:217] Top shape: 32 256 13 13 (1384448)
I1109 03:15:22.267094 144581 net.cpp:225] Memory required for data: 261762560
I1109 03:15:22.267344 144581 layer_factory.hpp:114] Creating layer pool5
I1109 03:15:22.267627 144581 net.cpp:160] Creating Layer pool5
I1109 03:15:22.267868 144581 net.cpp:596] pool5 <- conv5
I1109 03:15:22.268136 144581 net.cpp:570] pool5 -> pool5
I1109 03:15:22.268546 144581 net.cpp:210] Setting up pool5
I1109 03:15:22.268851 144581 net.cpp:217] Top shape: 32 256 6 6 (294912)
I1109 03:15:22.269109 144581 net.cpp:225] Memory required for data: 262942208
I1109 03:15:22.269302 144581 layer_factory.hpp:114] Creating layer fc6
I1109 03:15:22.324019 144581 net.cpp:160] Creating Layer fc6
I1109 03:15:22.324338 144581 net.cpp:596] fc6 <- pool5
I1109 03:15:22.324717 144581 net.cpp:570] fc6 -> fc6
I1109 03:15:26.415623 144581 net.cpp:210] Setting up fc6
I1109 03:15:26.415938 144581 net.cpp:217] Top shape: 32 4096 (131072)
I1109 03:15:26.418057 144581 net.cpp:225] Memory required for data: 263466496
I1109 03:15:26.418380 144581 layer_factory.hpp:114] Creating layer relu6
I1109 03:15:26.420892 144581 net.cpp:160] Creating Layer relu6
I1109 03:15:26.421201 144581 net.cpp:596] relu6 <- fc6
I1109 03:15:26.421439 144581 net.cpp:557] relu6 -> fc6 (in-place)
I1109 03:15:26.421866 144581 net.cpp:210] Setting up relu6
I1109 03:15:26.422158 144581 net.cpp:217] Top shape: 32 4096 (131072)
I1109 03:15:26.422401 144581 net.cpp:225] Memory required for data: 263990784
I1109 03:15:26.422611 144581 layer_factory.hpp:114] Creating layer drop6
I1109 03:15:26.442781 144581 net.cpp:160] Creating Layer drop6
I1109 03:15:26.443097 144581 net.cpp:596] drop6 <- fc6
I1109 03:15:26.443503 144581 net.cpp:557] drop6 -> fc6 (in-place)
I1109 03:15:26.547603 144581 net.cpp:210] Setting up drop6
I1109 03:15:26.547911 144581 net.cpp:217] Top shape: 32 4096 (131072)
I1109 03:15:26.548259 144581 net.cpp:225] Memory required for data: 264515072
I1109 03:15:26.548511 144581 layer_factory.hpp:114] Creating layer fc7
I1109 03:15:26.548828 144581 net.cpp:160] Creating Layer fc7
I1109 03:15:26.549067 144581 net.cpp:596] fc7 <- fc6
I1109 03:15:26.549469 144581 net.cpp:570] fc7 -> fc7
I1109 03:15:28.261710 144581 net.cpp:210] Setting up fc7
I1109 03:15:28.262084 144581 net.cpp:217] Top shape: 32 4096 (131072)
I1109 03:15:28.262529 144581 net.cpp:225] Memory required for data: 265039360
I1109 03:15:28.262866 144581 layer_factory.hpp:114] Creating layer relu7
I1109 03:15:28.263205 144581 net.cpp:160] Creating Layer relu7
I1109 03:15:28.263458 144581 net.cpp:596] relu7 <- fc7
I1109 03:15:28.263726 144581 net.cpp:557] relu7 -> fc7 (in-place)
I1109 03:15:28.264189 144581 net.cpp:210] Setting up relu7
I1109 03:15:28.264478 144581 net.cpp:217] Top shape: 32 4096 (131072)
I1109 03:15:28.264731 144581 net.cpp:225] Memory required for data: 265563648
I1109 03:15:28.265034 144581 layer_factory.hpp:114] Creating layer drop7
I1109 03:15:28.265300 144581 net.cpp:160] Creating Layer drop7
I1109 03:15:28.265527 144581 net.cpp:596] drop7 <- fc7
I1109 03:15:28.265823 144581 net.cpp:557] drop7 -> fc7 (in-place)
I1109 03:15:28.266103 144581 net.cpp:210] Setting up drop7
I1109 03:15:28.266314 144581 net.cpp:217] Top shape: 32 4096 (131072)
I1109 03:15:28.266536 144581 net.cpp:225] Memory required for data: 266087936
I1109 03:15:28.266726 144581 layer_factory.hpp:114] Creating layer fc8
I1109 03:15:28.266983 144581 net.cpp:160] Creating Layer fc8
I1109 03:15:28.267184 144581 net.cpp:596] fc8 <- fc7
I1109 03:15:28.267413 144581 net.cpp:570] fc8 -> fc8
I1109 03:15:28.691860 144581 net.cpp:210] Setting up fc8
I1109 03:15:28.692224 144581 net.cpp:217] Top shape: 32 1000 (32000)
I1109 03:15:28.692641 144581 net.cpp:225] Memory required for data: 266215936
I1109 03:15:28.693003 144581 layer_factory.hpp:114] Creating layer loss
I1109 03:15:28.717963 144581 net.cpp:160] Creating Layer loss
I1109 03:15:28.718291 144581 net.cpp:596] loss <- fc8
I1109 03:15:28.719297 144581 net.cpp:596] loss <- label
I1109 03:15:28.747107 144581 net.cpp:570] loss -> loss
I1109 03:15:28.785631 144581 layer_factory.hpp:114] Creating layer loss
…
