…
I1109 02:31:23.132992 142520 net.cpp:484] The NetState phase (0) differed from the phase (1) specified by a rule in layer accuracy
I1109 02:31:23.774179 142520 net.cpp:120] Initializing net from parameters: 
name: "AlexNet"
state {
  phase: TRAIN
  level: 0
  stage: ""
}
layer {
  name: "data"
  type: "DummyData"
  top: "data"
  top: "label"
  include {
    phase: TRAIN
  }
  dummy_data_param {
    data_filler {
      type: "gaussian"
      std: 1
    }
    data_filler {
      type: "constant"
      value: 0
    }
    shape {
      dim: 32
      dim: 3
      dim: 227
      dim: 227
    }
    shape {
      dim: 32
      dim: 1
      dim: 1
      dim: 1
    }
  }
}
layer {
  name: "conv1"
  type: "Convolution"
  bottom: "data"
  top: "conv1"
  param {
    lr_mult: 1
    decay_mult: 1
  }
  param {
    lr_mult: 2
    decay_mult: 0
  }
  convolution_param {
    num_output: 96
    kernel_size: 11
    stride: 4
    weight_filler {
      type: "gaussian"
      std: 0.01
    }
    bias_filler {
      type: "constant"
      value: 0
    }
    engine: MKL2017
  }
}
layer {
  name: "relu1"
  type: "ReLU"
  bottom: "conv1"
  top: "conv1"
  relu_param {
    engine: MKL2017
  }
}
layer {
  name: "norm1"
  type: "LRN"
  bottom: "conv1"
  top: "norm1"
  lrn_param {
    local_size: 5
    alpha: 0.0001
    beta: 0.75
    engine: MKL2017
  }
}
layer {
  name: "pool1"
  type: "Pooling"
  bottom: "norm1"
  top: "pool1"
  pooling_param {
    pool: MAX
    kernel_size: 3
    stride: 2
    engine: MKL2017
  }
}
layer {
  name: "conv2"
  type: "Convolution"
  bottom: "pool1"
  top: "conv2"
  param {
    lr_mult: 1
    decay_mult: 1
  }
  param {
    lr_mult: 2
    decay_mult: 0
  }
  convolution_param {
    num_output: 256
    pad: 2
    kernel_size: 5
    group: 2
    weight_filler {
      type: "gaussian"
      std: 0.01
    }
    bias_filler {
      type: "constant"
      value: 0.1
    }
    engine: MKL2017
  }
}
layer {
  name: "relu2"
  type: "ReLU"
  bottom: "conv2"
  top: "conv2"
  relu_param {
    engine: MKL2017
  }
}
layer {
  name: "norm2"
  type: "LRN"
  bottom: "conv2"
  top: "norm2"
  lrn_param {
    local_size: 5
    alpha: 0.0001
    beta: 0.75
    engine: MKL2017
  }
}
layer {
  name: "pool2"
  type: "Pooling"
  bottom: "norm2"
  top: "pool2"
  pooling_param {
    pool: MAX
    kernel_size: 3
    stride: 2
    engine: MKL2017
  }
}
layer {
  name: "conv3"
  type: "Convolution"
  bottom: "pool2"
  top: "conv3"
  param {
    lr_mult: 1
    decay_mult: 1
  }
  param {
    lr_mult: 2
    decay_mult: 0
  }
  convolution_param {
    num_output: 384
    pad: 1
    kernel_size: 3
    weight_filler {
      type: "gaussian"
      std: 0.01
    }
    bias_filler {
      type: "constant"
      value: 0
    }
    engine: MKL2017
  }
}
layer {
  name: "relu3"
  type: "ReLU"
  bottom: "conv3"
  top: "conv3"
  relu_param {
    engine: MKL2017
  }
}
layer {
  name: "conv4"
  type: "Convolution"
  bottom: "conv3"
  top: "conv4"
  param {
    lr_mult: 1
    decay_mult: 1
  }
  param {
    lr_mult: 2
    decay_mult: 0
  }
  convolution_param {
    num_output: 384
    pad: 1
    kernel_size: 3
    group: 2
    weight_filler {
      type: "gaussian"
      std: 0.01
    }
    bias_filler {
      type: "constant"
      value: 0.1
    }
    engine: MKL2017
  }
}
layer {
  name: "relu4"
  type: "ReLU"
  bottom: "conv4"
  top: "conv4"
  relu_param {
    engine: MKL2017
  }
}
layer {
  name: "conv5"
  type: "Convolution"
  bottom: "conv4"
  top: "conv5"
  param {
    lr_mult: 1
    decay_mult: 1
  }
  param {
    lr_mult: 2
    decay_mult: 0
  }
  convolution_param {
    num_output: 256
    pad: 1
    kernel_size: 3
    group: 2
    weight_filler {
      type: "gaussian"
      std: 0.01
    }
    bias_filler {
      type: "constant"
      value: 0.1
    }
    engine: MKL2017
  }
}
layer {
  name: "relu5"
  type: "ReLU"
  bottom: "conv5"
  top: "conv5"
  relu_param {
    engine: MKL2017
  }
}
layer {
  name: "pool5"
  type: "Pooling"
  bottom: "conv5"
  top: "pool5"
  pooling_param {
    pool: MAX
    kernel_size: 3
    stride: 2
    engine: MKL2017
  }
}
layer {
  name: "fc6"
  type: "InnerProduct"
  bottom: "pool5"
  top: "fc6"
  param {
    lr_mult: 1
    decay_mult: 1
  }
  param {
    lr_mult: 2
    decay_mult: 0
  }
  inner_product_param {
    num_output: 4096
    weight_filler {
      type: "gaussian"
      std: 0.005
    }
    bias_filler {
      type: "constant"
      value: 0.1
    }
  }
}
layer {
  name: "relu6"
  type: "ReLU"
  bottom: "fc6"
  top: "fc6"
}
layer {
  name: "drop6"
  type: "Dropout"
  bottom: "fc6"
  top: "fc6"
  dropout_param {
    dropout_ratio: 0.5
  }
}
layer {
  name: "fc7"
  type: "InnerProduct"
  bottom: "fc6"
  top: "fc7"
  param {
    lr_mult: 1
    decay_mult: 1
  }
  param {
    lr_mult: 2
    decay_mult: 0
  }
  inner_product_param {
    num_output: 4096
    weight_filler {
      type: "gaussian"
      std: 0.005
    }
    bias_filler {
      type: "constant"
      value: 0.1
    }
  }
}
layer {
  name: "relu7"
  type: "ReLU"
  bottom: "fc7"
  top: "fc7"
}
layer {
  name: "drop7"
  type: "Dropout"
  bottom: "fc7"
  top: "fc7"
  dropout_param {
    dropout_ratio: 0.5
  }
}
layer {
  name: "fc8"
  type: "InnerProduct"
  bottom: "fc7"
  top: "fc8"
  param {
    lr_mult: 1
    decay_mult: 1
  }
  param {
    lr_mult: 2
    decay_mult: 0
  }
  inner_product_param {
    num_output: 1000
    weight_filler {
      type: "gaussian"
      std: 0.01
    }
    bias_filler {
      type: "constant"
      value: 0
    }
  }
}
layer {
  name: "loss"
  type: "SoftmaxWithLoss"
  bottom: "fc8"
  bottom: "label"
  top: "loss"
}
I1109 02:31:26.221583 142520 layer_factory.hpp:114] Creating layer data
I1109 02:31:26.368870 142520 net.cpp:160] Creating Layer data
I1109 02:31:26.417146 142520 net.cpp:570] data -> data
I1109 02:31:26.888234 142520 net.cpp:570] data -> label
I1109 02:31:33.919522 142520 net.cpp:210] Setting up data
I1109 02:31:33.998320 142520 net.cpp:217] Top shape: 32 3 227 227 (4946784)
I1109 02:31:34.101564 142520 net.cpp:217] Top shape: 32 1 1 1 (32)
I1109 02:31:34.108762 142520 net.cpp:225] Memory required for data: 19787264
I1109 02:31:34.179285 142520 layer_factory.hpp:114] Creating layer conv1
I1109 02:31:34.506788 142520 net.cpp:160] Creating Layer conv1
I1109 02:31:34.556565 142520 net.cpp:596] conv1 <- data
I1109 02:31:34.675701 142520 net.cpp:570] conv1 -> conv1
I1109 02:32:07.303203 142520 net.cpp:210] Setting up conv1
I1109 02:32:07.310106 142520 net.cpp:217] Top shape: 32 96 55 55 (9292800)
I1109 02:32:07.310462 142520 net.cpp:225] Memory required for data: 56958464
I1109 02:32:07.592056 142520 layer_factory.hpp:114] Creating layer relu1
I1109 02:32:07.712335 142520 net.cpp:160] Creating Layer relu1
I1109 02:32:07.717087 142520 net.cpp:596] relu1 <- conv1
I1109 02:32:07.749172 142520 net.cpp:557] relu1 -> conv1 (in-place)
I1109 02:32:07.938323 142520 net.cpp:210] Setting up relu1
I1109 02:32:07.940697 142520 net.cpp:217] Top shape: 32 96 55 55 (9292800)
I1109 02:32:07.941092 142520 net.cpp:225] Memory required for data: 94129664
I1109 02:32:07.941298 142520 layer_factory.hpp:114] Creating layer norm1
I1109 02:32:08.045825 142520 net.cpp:160] Creating Layer norm1
I1109 02:32:08.046134 142520 net.cpp:596] norm1 <- conv1
I1109 02:32:08.048631 142520 net.cpp:570] norm1 -> norm1
I1109 02:32:08.270900 142520 net.cpp:210] Setting up norm1
I1109 02:32:08.285037 142520 net.cpp:217] Top shape: 32 96 55 55 (9292800)
I1109 02:32:08.285421 142520 net.cpp:225] Memory required for data: 131300864
I1109 02:32:08.285763 142520 layer_factory.hpp:114] Creating layer pool1
I1109 02:32:08.379242 142520 net.cpp:160] Creating Layer pool1
I1109 02:32:08.379555 142520 net.cpp:596] pool1 <- norm1
I1109 02:32:08.394331 142520 net.cpp:570] pool1 -> pool1
I1109 02:32:08.694160 142520 net.cpp:210] Setting up pool1
I1109 02:32:08.696599 142520 net.cpp:217] Top shape: 32 96 27 27 (2239488)
I1109 02:32:08.696977 142520 net.cpp:225] Memory required for data: 140258816
I1109 02:32:08.697227 142520 layer_factory.hpp:114] Creating layer conv2
I1109 02:32:08.697600 142520 net.cpp:160] Creating Layer conv2
I1109 02:32:08.697857 142520 net.cpp:596] conv2 <- pool1
I1109 02:32:08.698094 142520 net.cpp:570] conv2 -> conv2
I1109 02:32:14.421008 142520 net.cpp:210] Setting up conv2
I1109 02:32:14.421339 142520 net.cpp:217] Top shape: 32 256 27 27 (5971968)
I1109 02:32:14.421711 142520 net.cpp:225] Memory required for data: 164146688
I1109 02:32:14.471982 142520 layer_factory.hpp:114] Creating layer relu2
I1109 02:32:14.472395 142520 net.cpp:160] Creating Layer relu2
I1109 02:32:14.472744 142520 net.cpp:596] relu2 <- conv2
I1109 02:32:14.473042 142520 net.cpp:557] relu2 -> conv2 (in-place)
I1109 02:32:14.473516 142520 net.cpp:210] Setting up relu2
I1109 02:32:14.473774 142520 net.cpp:217] Top shape: 32 256 27 27 (5971968)
I1109 02:32:14.474001 142520 net.cpp:225] Memory required for data: 188034560
I1109 02:32:14.474185 142520 layer_factory.hpp:114] Creating layer norm2
I1109 02:32:14.474423 142520 net.cpp:160] Creating Layer norm2
I1109 02:32:14.474618 142520 net.cpp:596] norm2 <- conv2
I1109 02:32:14.474843 142520 net.cpp:570] norm2 -> norm2
I1109 02:32:14.477118 142520 net.cpp:210] Setting up norm2
I1109 02:32:14.477427 142520 net.cpp:217] Top shape: 32 256 27 27 (5971968)
I1109 02:32:14.477653 142520 net.cpp:225] Memory required for data: 211922432
I1109 02:32:14.477838 142520 layer_factory.hpp:114] Creating layer pool2
I1109 02:32:14.478772 142520 net.cpp:160] Creating Layer pool2
I1109 02:32:14.479112 142520 net.cpp:596] pool2 <- norm2
I1109 02:32:14.479357 142520 net.cpp:570] pool2 -> pool2
I1109 02:32:14.479755 142520 net.cpp:210] Setting up pool2
I1109 02:32:14.479990 142520 net.cpp:217] Top shape: 32 256 13 13 (1384448)
I1109 02:32:14.480207 142520 net.cpp:225] Memory required for data: 217460224
I1109 02:32:14.480401 142520 layer_factory.hpp:114] Creating layer conv3
I1109 02:32:14.480722 142520 net.cpp:160] Creating Layer conv3
I1109 02:32:14.480998 142520 net.cpp:596] conv3 <- pool2
I1109 02:32:14.481243 142520 net.cpp:570] conv3 -> conv3
I1109 02:32:14.962874 142520 net.cpp:210] Setting up conv3
I1109 02:32:14.965334 142520 net.cpp:217] Top shape: 32 384 13 13 (2076672)
I1109 02:32:14.965688 142520 net.cpp:225] Memory required for data: 225766912
I1109 02:32:14.968734 142520 layer_factory.hpp:114] Creating layer relu3
I1109 02:32:14.969229 142520 net.cpp:160] Creating Layer relu3
I1109 02:32:14.969497 142520 net.cpp:596] relu3 <- conv3
I1109 02:32:14.969781 142520 net.cpp:557] relu3 -> conv3 (in-place)
I1109 02:32:14.973923 142520 net.cpp:210] Setting up relu3
I1109 02:32:14.974231 142520 net.cpp:217] Top shape: 32 384 13 13 (2076672)
I1109 02:32:14.974534 142520 net.cpp:225] Memory required for data: 234073600
I1109 02:32:14.974751 142520 layer_factory.hpp:114] Creating layer conv4
I1109 02:32:14.975158 142520 net.cpp:160] Creating Layer conv4
I1109 02:32:14.975419 142520 net.cpp:596] conv4 <- conv3
I1109 02:32:14.975674 142520 net.cpp:570] conv4 -> conv4
I1109 02:32:15.222991 142520 net.cpp:210] Setting up conv4
I1109 02:32:15.223376 142520 net.cpp:217] Top shape: 32 384 13 13 (2076672)
I1109 02:32:15.223822 142520 net.cpp:225] Memory required for data: 242380288
I1109 02:32:15.224174 142520 layer_factory.hpp:114] Creating layer relu4
I1109 02:32:15.224467 142520 net.cpp:160] Creating Layer relu4
I1109 02:32:15.224694 142520 net.cpp:596] relu4 <- conv4
I1109 02:32:15.224994 142520 net.cpp:557] relu4 -> conv4 (in-place)
I1109 02:32:15.237622 142520 net.cpp:210] Setting up relu4
I1109 02:32:15.237967 142520 net.cpp:217] Top shape: 32 384 13 13 (2076672)
I1109 02:32:15.238363 142520 net.cpp:225] Memory required for data: 250686976
I1109 02:32:15.238579 142520 layer_factory.hpp:114] Creating layer conv5
I1109 02:32:15.238940 142520 net.cpp:160] Creating Layer conv5
I1109 02:32:15.239181 142520 net.cpp:596] conv5 <- conv4
I1109 02:32:15.239425 142520 net.cpp:570] conv5 -> conv5
I1109 02:32:15.407970 142520 net.cpp:210] Setting up conv5
I1109 02:32:15.408360 142520 net.cpp:217] Top shape: 32 256 13 13 (1384448)
I1109 02:32:15.408828 142520 net.cpp:225] Memory required for data: 256224768
I1109 02:32:15.413554 142520 layer_factory.hpp:114] Creating layer relu5
I1109 02:32:15.413970 142520 net.cpp:160] Creating Layer relu5
I1109 02:32:15.414240 142520 net.cpp:596] relu5 <- conv5
I1109 02:32:15.414526 142520 net.cpp:557] relu5 -> conv5 (in-place)
I1109 02:32:15.415074 142520 net.cpp:210] Setting up relu5
I1109 02:32:15.415390 142520 net.cpp:217] Top shape: 32 256 13 13 (1384448)
I1109 02:32:15.415644 142520 net.cpp:225] Memory required for data: 261762560
I1109 02:32:15.415854 142520 layer_factory.hpp:114] Creating layer pool5
I1109 02:32:15.416113 142520 net.cpp:160] Creating Layer pool5
I1109 02:32:15.416330 142520 net.cpp:596] pool5 <- conv5
I1109 02:32:15.416553 142520 net.cpp:570] pool5 -> pool5
I1109 02:32:15.416997 142520 net.cpp:210] Setting up pool5
I1109 02:32:15.417271 142520 net.cpp:217] Top shape: 32 256 6 6 (294912)
I1109 02:32:15.417541 142520 net.cpp:225] Memory required for data: 262942208
I1109 02:32:15.417742 142520 layer_factory.hpp:114] Creating layer fc6
I1109 02:32:15.472762 142520 net.cpp:160] Creating Layer fc6
I1109 02:32:15.473230 142520 net.cpp:596] fc6 <- pool5
I1109 02:32:15.473788 142520 net.cpp:570] fc6 -> fc6
I1109 02:32:19.586675 142520 net.cpp:210] Setting up fc6
I1109 02:32:19.586977 142520 net.cpp:217] Top shape: 32 4096 (131072)
I1109 02:32:19.589100 142520 net.cpp:225] Memory required for data: 263466496
I1109 02:32:19.589413 142520 layer_factory.hpp:114] Creating layer relu6
I1109 02:32:19.591897 142520 net.cpp:160] Creating Layer relu6
I1109 02:32:19.592190 142520 net.cpp:596] relu6 <- fc6
I1109 02:32:19.592422 142520 net.cpp:557] relu6 -> fc6 (in-place)
I1109 02:32:19.592890 142520 net.cpp:210] Setting up relu6
I1109 02:32:19.593160 142520 net.cpp:217] Top shape: 32 4096 (131072)
I1109 02:32:19.593421 142520 net.cpp:225] Memory required for data: 263990784
I1109 02:32:19.593618 142520 layer_factory.hpp:114] Creating layer drop6
I1109 02:32:19.613579 142520 net.cpp:160] Creating Layer drop6
I1109 02:32:19.613883 142520 net.cpp:596] drop6 <- fc6
I1109 02:32:19.614253 142520 net.cpp:557] drop6 -> fc6 (in-place)
I1109 02:32:19.717360 142520 net.cpp:210] Setting up drop6
I1109 02:32:19.717654 142520 net.cpp:217] Top shape: 32 4096 (131072)
I1109 02:32:19.718055 142520 net.cpp:225] Memory required for data: 264515072
I1109 02:32:19.718299 142520 layer_factory.hpp:114] Creating layer fc7
I1109 02:32:19.718569 142520 net.cpp:160] Creating Layer fc7
I1109 02:32:19.718777 142520 net.cpp:596] fc7 <- fc6
I1109 02:32:19.719166 142520 net.cpp:570] fc7 -> fc7
I1109 02:32:21.430397 142520 net.cpp:210] Setting up fc7
I1109 02:32:21.430730 142520 net.cpp:217] Top shape: 32 4096 (131072)
I1109 02:32:21.431143 142520 net.cpp:225] Memory required for data: 265039360
I1109 02:32:21.431481 142520 layer_factory.hpp:114] Creating layer relu7
I1109 02:32:21.431771 142520 net.cpp:160] Creating Layer relu7
I1109 02:32:21.431988 142520 net.cpp:596] relu7 <- fc7
I1109 02:32:21.432214 142520 net.cpp:557] relu7 -> fc7 (in-place)
I1109 02:32:21.432636 142520 net.cpp:210] Setting up relu7
I1109 02:32:21.432950 142520 net.cpp:217] Top shape: 32 4096 (131072)
I1109 02:32:21.433177 142520 net.cpp:225] Memory required for data: 265563648
I1109 02:32:21.433362 142520 layer_factory.hpp:114] Creating layer drop7
I1109 02:32:21.433583 142520 net.cpp:160] Creating Layer drop7
I1109 02:32:21.433774 142520 net.cpp:596] drop7 <- fc7
I1109 02:32:21.434003 142520 net.cpp:557] drop7 -> fc7 (in-place)
I1109 02:32:21.434309 142520 net.cpp:210] Setting up drop7
I1109 02:32:21.434520 142520 net.cpp:217] Top shape: 32 4096 (131072)
I1109 02:32:21.434765 142520 net.cpp:225] Memory required for data: 266087936
I1109 02:32:21.434942 142520 layer_factory.hpp:114] Creating layer fc8
I1109 02:32:21.435185 142520 net.cpp:160] Creating Layer fc8
I1109 02:32:21.435377 142520 net.cpp:596] fc8 <- fc7
I1109 02:32:21.435597 142520 net.cpp:570] fc8 -> fc8
I1109 02:32:21.859313 142520 net.cpp:210] Setting up fc8
I1109 02:32:21.859679 142520 net.cpp:217] Top shape: 32 1000 (32000)
I1109 02:32:21.860119 142520 net.cpp:225] Memory required for data: 266215936
I1109 02:32:21.860450 142520 layer_factory.hpp:114] Creating layer loss
I1109 02:32:21.885275 142520 net.cpp:160] Creating Layer loss
I1109 02:32:21.885591 142520 net.cpp:596] loss <- fc8
I1109 02:32:21.886569 142520 net.cpp:596] loss <- label
I1109 02:32:21.914867 142520 net.cpp:570] loss -> loss
I1109 02:32:21.953085 142520 layer_factory.hpp:114] Creating layer loss
…
