…
I1109 02:02:34.238358 141869 net.cpp:484] The NetState phase (0) differed from the phase (1) specified by a rule in layer accuracy
I1109 02:02:34.864235 141869 net.cpp:120] Initializing net from parameters: 
name: "AlexNet"
state {
  phase: TRAIN
  level: 0
  stage: ""
}
layer {
  name: "data"
  type: "DummyData"
  top: "data"
  top: "label"
  include {
    phase: TRAIN
  }
  dummy_data_param {
    data_filler {
      type: "gaussian"
      std: 1
    }
    data_filler {
      type: "constant"
      value: 0
    }
    shape {
      dim: 32
      dim: 3
      dim: 227
      dim: 227
    }
    shape {
      dim: 32
      dim: 1
      dim: 1
      dim: 1
    }
  }
}
layer {
  name: "conv1"
  type: "Convolution"
  bottom: "data"
  top: "conv1"
  param {
    lr_mult: 1
    decay_mult: 1
  }
  param {
    lr_mult: 2
    decay_mult: 0
  }
  convolution_param {
    num_output: 96
    kernel_size: 11
    stride: 4
    weight_filler {
      type: "gaussian"
      std: 0.01
    }
    bias_filler {
      type: "constant"
      value: 0
    }
    engine: MKL2017
  }
}
layer {
  name: "relu1"
  type: "ReLU"
  bottom: "conv1"
  top: "conv1"
  relu_param {
    engine: MKL2017
  }
}
layer {
  name: "norm1"
  type: "LRN"
  bottom: "conv1"
  top: "norm1"
  lrn_param {
    local_size: 5
    alpha: 0.0001
    beta: 0.75
    engine: MKL2017
  }
}
layer {
  name: "pool1"
  type: "Pooling"
  bottom: "norm1"
  top: "pool1"
  pooling_param {
    pool: MAX
    kernel_size: 3
    stride: 2
    engine: MKL2017
  }
}
layer {
  name: "conv2"
  type: "Convolution"
  bottom: "pool1"
  top: "conv2"
  param {
    lr_mult: 1
    decay_mult: 1
  }
  param {
    lr_mult: 2
    decay_mult: 0
  }
  convolution_param {
    num_output: 256
    pad: 2
    kernel_size: 5
    group: 2
    weight_filler {
      type: "gaussian"
      std: 0.01
    }
    bias_filler {
      type: "constant"
      value: 0.1
    }
    engine: MKL2017
  }
}
layer {
  name: "relu2"
  type: "ReLU"
  bottom: "conv2"
  top: "conv2"
  relu_param {
    engine: MKL2017
  }
}
layer {
  name: "norm2"
  type: "LRN"
  bottom: "conv2"
  top: "norm2"
  lrn_param {
    local_size: 5
    alpha: 0.0001
    beta: 0.75
    engine: MKL2017
  }
}
layer {
  name: "pool2"
  type: "Pooling"
  bottom: "norm2"
  top: "pool2"
  pooling_param {
    pool: MAX
    kernel_size: 3
    stride: 2
    engine: MKL2017
  }
}
layer {
  name: "conv3"
  type: "Convolution"
  bottom: "pool2"
  top: "conv3"
  param {
    lr_mult: 1
    decay_mult: 1
  }
  param {
    lr_mult: 2
    decay_mult: 0
  }
  convolution_param {
    num_output: 384
    pad: 1
    kernel_size: 3
    weight_filler {
      type: "gaussian"
      std: 0.01
    }
    bias_filler {
      type: "constant"
      value: 0
    }
    engine: MKL2017
  }
}
layer {
  name: "relu3"
  type: "ReLU"
  bottom: "conv3"
  top: "conv3"
  relu_param {
    engine: MKL2017
  }
}
layer {
  name: "conv4"
  type: "Convolution"
  bottom: "conv3"
  top: "conv4"
  param {
    lr_mult: 1
    decay_mult: 1
  }
  param {
    lr_mult: 2
    decay_mult: 0
  }
  convolution_param {
    num_output: 384
    pad: 1
    kernel_size: 3
    group: 2
    weight_filler {
      type: "gaussian"
      std: 0.01
    }
    bias_filler {
      type: "constant"
      value: 0.1
    }
    engine: MKL2017
  }
}
layer {
  name: "relu4"
  type: "ReLU"
  bottom: "conv4"
  top: "conv4"
  relu_param {
    engine: MKL2017
  }
}
layer {
  name: "conv5"
  type: "Convolution"
  bottom: "conv4"
  top: "conv5"
  param {
    lr_mult: 1
    decay_mult: 1
  }
  param {
    lr_mult: 2
    decay_mult: 0
  }
  convolution_param {
    num_output: 256
    pad: 1
    kernel_size: 3
    group: 2
    weight_filler {
      type: "gaussian"
      std: 0.01
    }
    bias_filler {
      type: "constant"
      value: 0.1
    }
    engine: MKL2017
  }
}
layer {
  name: "relu5"
  type: "ReLU"
  bottom: "conv5"
  top: "conv5"
  relu_param {
    engine: MKL2017
  }
}
layer {
  name: "pool5"
  type: "Pooling"
  bottom: "conv5"
  top: "pool5"
  pooling_param {
    pool: MAX
    kernel_size: 3
    stride: 2
    engine: MKL2017
  }
}
layer {
  name: "fc6"
  type: "InnerProduct"
  bottom: "pool5"
  top: "fc6"
  param {
    lr_mult: 1
    decay_mult: 1
  }
  param {
    lr_mult: 2
    decay_mult: 0
  }
  inner_product_param {
    num_output: 4096
    weight_filler {
      type: "gaussian"
      std: 0.005
    }
    bias_filler {
      type: "constant"
      value: 0.1
    }
  }
}
layer {
  name: "relu6"
  type: "ReLU"
  bottom: "fc6"
  top: "fc6"
}
layer {
  name: "drop6"
  type: "Dropout"
  bottom: "fc6"
  top: "fc6"
  dropout_param {
    dropout_ratio: 0.5
  }
}
layer {
  name: "fc7"
  type: "InnerProduct"
  bottom: "fc6"
  top: "fc7"
  param {
    lr_mult: 1
    decay_mult: 1
  }
  param {
    lr_mult: 2
    decay_mult: 0
  }
  inner_product_param {
    num_output: 4096
    weight_filler {
      type: "gaussian"
      std: 0.005
    }
    bias_filler {
      type: "constant"
      value: 0.1
    }
  }
}
layer {
  name: "relu7"
  type: "ReLU"
  bottom: "fc7"
  top: "fc7"
}
layer {
  name: "drop7"
  type: "Dropout"
  bottom: "fc7"
  top: "fc7"
  dropout_param {
    dropout_ratio: 0.5
  }
}
layer {
  name: "fc8"
  type: "InnerProduct"
  bottom: "fc7"
  top: "fc8"
  param {
    lr_mult: 1
    decay_mult: 1
  }
  param {
    lr_mult: 2
    decay_mult: 0
  }
  inner_product_param {
    num_output: 1000
    weight_filler {
      type: "gaussian"
      std: 0.01
    }
    bias_filler {
      type: "constant"
      value: 0
    }
  }
}
layer {
  name: "loss"
  type: "SoftmaxWithLoss"
  bottom: "fc8"
  bottom: "label"
  top: "loss"
}
I1109 02:02:37.286381 141869 layer_factory.hpp:114] Creating layer data
I1109 02:02:37.434130 141869 net.cpp:160] Creating Layer data
I1109 02:02:37.482225 141869 net.cpp:570] data -> data
I1109 02:02:37.943375 141869 net.cpp:570] data -> label
I1109 02:02:44.921339 141869 net.cpp:210] Setting up data
I1109 02:02:45.000092 141869 net.cpp:217] Top shape: 32 3 227 227 (4946784)
I1109 02:02:45.107787 141869 net.cpp:217] Top shape: 32 1 1 1 (32)
I1109 02:02:45.114950 141869 net.cpp:225] Memory required for data: 19787264
I1109 02:02:45.181744 141869 layer_factory.hpp:114] Creating layer conv1
I1109 02:02:45.505127 141869 net.cpp:160] Creating Layer conv1
I1109 02:02:45.557775 141869 net.cpp:596] conv1 <- data
I1109 02:02:45.677376 141869 net.cpp:570] conv1 -> conv1
I1109 02:03:18.295533 141869 net.cpp:210] Setting up conv1
I1109 02:03:18.302745 141869 net.cpp:217] Top shape: 32 96 55 55 (9292800)
I1109 02:03:18.303119 141869 net.cpp:225] Memory required for data: 56958464
I1109 02:03:18.577460 141869 layer_factory.hpp:114] Creating layer relu1
I1109 02:03:18.696424 141869 net.cpp:160] Creating Layer relu1
I1109 02:03:18.701030 141869 net.cpp:596] relu1 <- conv1
I1109 02:03:18.733045 141869 net.cpp:557] relu1 -> conv1 (in-place)
I1109 02:03:18.922271 141869 net.cpp:210] Setting up relu1
I1109 02:03:18.924640 141869 net.cpp:217] Top shape: 32 96 55 55 (9292800)
I1109 02:03:18.925035 141869 net.cpp:225] Memory required for data: 94129664
I1109 02:03:18.925271 141869 layer_factory.hpp:114] Creating layer norm1
I1109 02:03:19.028566 141869 net.cpp:160] Creating Layer norm1
I1109 02:03:19.028919 141869 net.cpp:596] norm1 <- conv1
I1109 02:03:19.031414 141869 net.cpp:570] norm1 -> norm1
I1109 02:03:19.253964 141869 net.cpp:210] Setting up norm1
I1109 02:03:19.266623 141869 net.cpp:217] Top shape: 32 96 55 55 (9292800)
I1109 02:03:19.267007 141869 net.cpp:225] Memory required for data: 131300864
I1109 02:03:19.267339 141869 layer_factory.hpp:114] Creating layer pool1
I1109 02:03:19.359376 141869 net.cpp:160] Creating Layer pool1
I1109 02:03:19.359691 141869 net.cpp:596] pool1 <- norm1
I1109 02:03:19.374320 141869 net.cpp:570] pool1 -> pool1
I1109 02:03:19.676687 141869 net.cpp:210] Setting up pool1
I1109 02:03:19.679340 141869 net.cpp:217] Top shape: 32 96 27 27 (2239488)
I1109 02:03:19.679690 141869 net.cpp:225] Memory required for data: 140258816
I1109 02:03:19.679927 141869 layer_factory.hpp:114] Creating layer conv2
I1109 02:03:19.680356 141869 net.cpp:160] Creating Layer conv2
I1109 02:03:19.680625 141869 net.cpp:596] conv2 <- pool1
I1109 02:03:19.681038 141869 net.cpp:570] conv2 -> conv2
I1109 02:03:25.393579 141869 net.cpp:210] Setting up conv2
I1109 02:03:25.393898 141869 net.cpp:217] Top shape: 32 256 27 27 (5971968)
I1109 02:03:25.394304 141869 net.cpp:225] Memory required for data: 164146688
I1109 02:03:25.443984 141869 layer_factory.hpp:114] Creating layer relu2
I1109 02:03:25.444434 141869 net.cpp:160] Creating Layer relu2
I1109 02:03:25.444829 141869 net.cpp:596] relu2 <- conv2
I1109 02:03:25.445113 141869 net.cpp:557] relu2 -> conv2 (in-place)
I1109 02:03:25.445557 141869 net.cpp:210] Setting up relu2
I1109 02:03:25.445817 141869 net.cpp:217] Top shape: 32 256 27 27 (5971968)
I1109 02:03:25.446055 141869 net.cpp:225] Memory required for data: 188034560
I1109 02:03:25.446244 141869 layer_factory.hpp:114] Creating layer norm2
I1109 02:03:25.446492 141869 net.cpp:160] Creating Layer norm2
I1109 02:03:25.446693 141869 net.cpp:596] norm2 <- conv2
I1109 02:03:25.446919 141869 net.cpp:570] norm2 -> norm2
I1109 02:03:25.449043 141869 net.cpp:210] Setting up norm2
I1109 02:03:25.449362 141869 net.cpp:217] Top shape: 32 256 27 27 (5971968)
I1109 02:03:25.449596 141869 net.cpp:225] Memory required for data: 211922432
I1109 02:03:25.449785 141869 layer_factory.hpp:114] Creating layer pool2
I1109 02:03:25.450589 141869 net.cpp:160] Creating Layer pool2
I1109 02:03:25.450872 141869 net.cpp:596] pool2 <- norm2
I1109 02:03:25.451154 141869 net.cpp:570] pool2 -> pool2
I1109 02:03:25.451652 141869 net.cpp:210] Setting up pool2
I1109 02:03:25.451992 141869 net.cpp:217] Top shape: 32 256 13 13 (1384448)
I1109 02:03:25.452224 141869 net.cpp:225] Memory required for data: 217460224
I1109 02:03:25.452426 141869 layer_factory.hpp:114] Creating layer conv3
I1109 02:03:25.452769 141869 net.cpp:160] Creating Layer conv3
I1109 02:03:25.453057 141869 net.cpp:596] conv3 <- pool2
I1109 02:03:25.453308 141869 net.cpp:570] conv3 -> conv3
I1109 02:03:25.951359 141869 net.cpp:210] Setting up conv3
I1109 02:03:25.953799 141869 net.cpp:217] Top shape: 32 384 13 13 (2076672)
I1109 02:03:25.954164 141869 net.cpp:225] Memory required for data: 225766912
I1109 02:03:25.957245 141869 layer_factory.hpp:114] Creating layer relu3
I1109 02:03:25.957651 141869 net.cpp:160] Creating Layer relu3
I1109 02:03:25.957912 141869 net.cpp:596] relu3 <- conv3
I1109 02:03:25.958206 141869 net.cpp:557] relu3 -> conv3 (in-place)
I1109 02:03:25.962851 141869 net.cpp:210] Setting up relu3
I1109 02:03:25.963297 141869 net.cpp:217] Top shape: 32 384 13 13 (2076672)
I1109 02:03:25.963614 141869 net.cpp:225] Memory required for data: 234073600
I1109 02:03:25.963835 141869 layer_factory.hpp:114] Creating layer conv4
I1109 02:03:25.964220 141869 net.cpp:160] Creating Layer conv4
I1109 02:03:25.964484 141869 net.cpp:596] conv4 <- conv3
I1109 02:03:25.964745 141869 net.cpp:570] conv4 -> conv4
I1109 02:03:26.207787 141869 net.cpp:210] Setting up conv4
I1109 02:03:26.208196 141869 net.cpp:217] Top shape: 32 384 13 13 (2076672)
I1109 02:03:26.208613 141869 net.cpp:225] Memory required for data: 242380288
I1109 02:03:26.208981 141869 layer_factory.hpp:114] Creating layer relu4
I1109 02:03:26.209309 141869 net.cpp:160] Creating Layer relu4
I1109 02:03:26.209548 141869 net.cpp:596] relu4 <- conv4
I1109 02:03:26.209791 141869 net.cpp:557] relu4 -> conv4 (in-place)
I1109 02:03:26.221940 141869 net.cpp:210] Setting up relu4
I1109 02:03:26.222287 141869 net.cpp:217] Top shape: 32 384 13 13 (2076672)
I1109 02:03:26.222688 141869 net.cpp:225] Memory required for data: 250686976
I1109 02:03:26.222910 141869 layer_factory.hpp:114] Creating layer conv5
I1109 02:03:26.223285 141869 net.cpp:160] Creating Layer conv5
I1109 02:03:26.223536 141869 net.cpp:596] conv5 <- conv4
I1109 02:03:26.223788 141869 net.cpp:570] conv5 -> conv5
I1109 02:03:26.402910 141869 net.cpp:210] Setting up conv5
I1109 02:03:26.403280 141869 net.cpp:217] Top shape: 32 256 13 13 (1384448)
I1109 02:03:26.403646 141869 net.cpp:225] Memory required for data: 256224768
I1109 02:03:26.408229 141869 layer_factory.hpp:114] Creating layer relu5
I1109 02:03:26.408609 141869 net.cpp:160] Creating Layer relu5
I1109 02:03:26.408884 141869 net.cpp:596] relu5 <- conv5
I1109 02:03:26.409175 141869 net.cpp:557] relu5 -> conv5 (in-place)
I1109 02:03:26.409631 141869 net.cpp:210] Setting up relu5
I1109 02:03:26.409932 141869 net.cpp:217] Top shape: 32 256 13 13 (1384448)
I1109 02:03:26.410162 141869 net.cpp:225] Memory required for data: 261762560
I1109 02:03:26.410358 141869 layer_factory.hpp:114] Creating layer pool5
I1109 02:03:26.410606 141869 net.cpp:160] Creating Layer pool5
I1109 02:03:26.410809 141869 net.cpp:596] pool5 <- conv5
I1109 02:03:26.411023 141869 net.cpp:570] pool5 -> pool5
I1109 02:03:26.411407 141869 net.cpp:210] Setting up pool5
I1109 02:03:26.411645 141869 net.cpp:217] Top shape: 32 256 6 6 (294912)
I1109 02:03:26.411859 141869 net.cpp:225] Memory required for data: 262942208
I1109 02:03:26.412036 141869 layer_factory.hpp:114] Creating layer fc6
I1109 02:03:26.465339 141869 net.cpp:160] Creating Layer fc6
I1109 02:03:26.465643 141869 net.cpp:596] fc6 <- pool5
I1109 02:03:26.466009 141869 net.cpp:570] fc6 -> fc6
I1109 02:03:30.555698 141869 net.cpp:210] Setting up fc6
I1109 02:03:30.556006 141869 net.cpp:217] Top shape: 32 4096 (131072)
I1109 02:03:30.558078 141869 net.cpp:225] Memory required for data: 263466496
I1109 02:03:30.558385 141869 layer_factory.hpp:114] Creating layer relu6
I1109 02:03:30.560917 141869 net.cpp:160] Creating Layer relu6
I1109 02:03:30.561223 141869 net.cpp:596] relu6 <- fc6
I1109 02:03:30.561458 141869 net.cpp:557] relu6 -> fc6 (in-place)
I1109 02:03:30.561882 141869 net.cpp:210] Setting up relu6
I1109 02:03:30.562135 141869 net.cpp:217] Top shape: 32 4096 (131072)
I1109 02:03:30.562361 141869 net.cpp:225] Memory required for data: 263990784
I1109 02:03:30.562549 141869 layer_factory.hpp:114] Creating layer drop6
I1109 02:03:30.582216 141869 net.cpp:160] Creating Layer drop6
I1109 02:03:30.582520 141869 net.cpp:596] drop6 <- fc6
I1109 02:03:30.582890 141869 net.cpp:557] drop6 -> fc6 (in-place)
I1109 02:03:30.686636 141869 net.cpp:210] Setting up drop6
I1109 02:03:30.686931 141869 net.cpp:217] Top shape: 32 4096 (131072)
I1109 02:03:30.687275 141869 net.cpp:225] Memory required for data: 264515072
I1109 02:03:30.687527 141869 layer_factory.hpp:114] Creating layer fc7
I1109 02:03:30.687805 141869 net.cpp:160] Creating Layer fc7
I1109 02:03:30.688020 141869 net.cpp:596] fc7 <- fc6
I1109 02:03:30.688415 141869 net.cpp:570] fc7 -> fc7
I1109 02:03:32.400914 141869 net.cpp:210] Setting up fc7
I1109 02:03:32.401293 141869 net.cpp:217] Top shape: 32 4096 (131072)
I1109 02:03:32.401787 141869 net.cpp:225] Memory required for data: 265039360
I1109 02:03:32.402158 141869 layer_factory.hpp:114] Creating layer relu7
I1109 02:03:32.402499 141869 net.cpp:160] Creating Layer relu7
I1109 02:03:32.402760 141869 net.cpp:596] relu7 <- fc7
I1109 02:03:32.403029 141869 net.cpp:557] relu7 -> fc7 (in-place)
I1109 02:03:32.403492 141869 net.cpp:210] Setting up relu7
I1109 02:03:32.403791 141869 net.cpp:217] Top shape: 32 4096 (131072)
I1109 02:03:32.404042 141869 net.cpp:225] Memory required for data: 265563648
I1109 02:03:32.404286 141869 layer_factory.hpp:114] Creating layer drop7
I1109 02:03:32.404551 141869 net.cpp:160] Creating Layer drop7
I1109 02:03:32.404825 141869 net.cpp:596] drop7 <- fc7
I1109 02:03:32.405103 141869 net.cpp:557] drop7 -> fc7 (in-place)
I1109 02:03:32.405428 141869 net.cpp:210] Setting up drop7
I1109 02:03:32.405659 141869 net.cpp:217] Top shape: 32 4096 (131072)
I1109 02:03:32.405910 141869 net.cpp:225] Memory required for data: 266087936
I1109 02:03:32.406095 141869 layer_factory.hpp:114] Creating layer fc8
I1109 02:03:32.406350 141869 net.cpp:160] Creating Layer fc8
I1109 02:03:32.406559 141869 net.cpp:596] fc8 <- fc7
I1109 02:03:32.406787 141869 net.cpp:570] fc8 -> fc8
I1109 02:03:32.829028 141869 net.cpp:210] Setting up fc8
I1109 02:03:32.829388 141869 net.cpp:217] Top shape: 32 1000 (32000)
I1109 02:03:32.829797 141869 net.cpp:225] Memory required for data: 266215936
I1109 02:03:32.830104 141869 layer_factory.hpp:114] Creating layer loss
I1109 02:03:32.854686 141869 net.cpp:160] Creating Layer loss
I1109 02:03:32.855007 141869 net.cpp:596] loss <- fc8
I1109 02:03:32.856016 141869 net.cpp:596] loss <- label
I1109 02:03:32.883417 141869 net.cpp:570] loss -> loss
I1109 02:03:32.921540 141869 layer_factory.hpp:114] Creating layer loss
…
