…
I1109 00:07:54.643745 138105 net.cpp:484] The NetState phase (0) differed from the phase (1) specified by a rule in layer accuracy
I1109 00:07:55.270922 138105 net.cpp:120] Initializing net from parameters: 
name: "AlexNet"
state {
  phase: TRAIN
  level: 0
  stage: ""
}
layer {
  name: "data"
  type: "DummyData"
  top: "data"
  top: "label"
  include {
    phase: TRAIN
  }
  dummy_data_param {
    data_filler {
      type: "gaussian"
      std: 1
    }
    data_filler {
      type: "constant"
      value: 0
    }
    shape {
      dim: 32
      dim: 3
      dim: 227
      dim: 227
    }
    shape {
      dim: 32
      dim: 1
      dim: 1
      dim: 1
    }
  }
}
layer {
  name: "conv1"
  type: "Convolution"
  bottom: "data"
  top: "conv1"
  param {
    lr_mult: 1
    decay_mult: 1
  }
  param {
    lr_mult: 2
    decay_mult: 0
  }
  convolution_param {
    num_output: 96
    kernel_size: 11
    stride: 4
    weight_filler {
      type: "gaussian"
      std: 0.01
    }
    bias_filler {
      type: "constant"
      value: 0
    }
    engine: MKL2017
  }
}
layer {
  name: "relu1"
  type: "ReLU"
  bottom: "conv1"
  top: "conv1"
  relu_param {
    engine: MKL2017
  }
}
layer {
  name: "norm1"
  type: "LRN"
  bottom: "conv1"
  top: "norm1"
  lrn_param {
    local_size: 5
    alpha: 0.0001
    beta: 0.75
    engine: MKL2017
  }
}
layer {
  name: "pool1"
  type: "Pooling"
  bottom: "norm1"
  top: "pool1"
  pooling_param {
    pool: MAX
    kernel_size: 3
    stride: 2
    engine: MKL2017
  }
}
layer {
  name: "conv2"
  type: "Convolution"
  bottom: "pool1"
  top: "conv2"
  param {
    lr_mult: 1
    decay_mult: 1
  }
  param {
    lr_mult: 2
    decay_mult: 0
  }
  convolution_param {
    num_output: 256
    pad: 2
    kernel_size: 5
    group: 2
    weight_filler {
      type: "gaussian"
      std: 0.01
    }
    bias_filler {
      type: "constant"
      value: 0.1
    }
    engine: MKL2017
  }
}
layer {
  name: "relu2"
  type: "ReLU"
  bottom: "conv2"
  top: "conv2"
  relu_param {
    engine: MKL2017
  }
}
layer {
  name: "norm2"
  type: "LRN"
  bottom: "conv2"
  top: "norm2"
  lrn_param {
    local_size: 5
    alpha: 0.0001
    beta: 0.75
    engine: MKL2017
  }
}
layer {
  name: "pool2"
  type: "Pooling"
  bottom: "norm2"
  top: "pool2"
  pooling_param {
    pool: MAX
    kernel_size: 3
    stride: 2
    engine: MKL2017
  }
}
layer {
  name: "conv3"
  type: "Convolution"
  bottom: "pool2"
  top: "conv3"
  param {
    lr_mult: 1
    decay_mult: 1
  }
  param {
    lr_mult: 2
    decay_mult: 0
  }
  convolution_param {
    num_output: 384
    pad: 1
    kernel_size: 3
    weight_filler {
      type: "gaussian"
      std: 0.01
    }
    bias_filler {
      type: "constant"
      value: 0
    }
    engine: MKL2017
  }
}
layer {
  name: "relu3"
  type: "ReLU"
  bottom: "conv3"
  top: "conv3"
  relu_param {
    engine: MKL2017
  }
}
layer {
  name: "conv4"
  type: "Convolution"
  bottom: "conv3"
  top: "conv4"
  param {
    lr_mult: 1
    decay_mult: 1
  }
  param {
    lr_mult: 2
    decay_mult: 0
  }
  convolution_param {
    num_output: 384
    pad: 1
    kernel_size: 3
    group: 2
    weight_filler {
      type: "gaussian"
      std: 0.01
    }
    bias_filler {
      type: "constant"
      value: 0.1
    }
    engine: MKL2017
  }
}
layer {
  name: "relu4"
  type: "ReLU"
  bottom: "conv4"
  top: "conv4"
  relu_param {
    engine: MKL2017
  }
}
layer {
  name: "conv5"
  type: "Convolution"
  bottom: "conv4"
  top: "conv5"
  param {
    lr_mult: 1
    decay_mult: 1
  }
  param {
    lr_mult: 2
    decay_mult: 0
  }
  convolution_param {
    num_output: 256
    pad: 1
    kernel_size: 3
    group: 2
    weight_filler {
      type: "gaussian"
      std: 0.01
    }
    bias_filler {
      type: "constant"
      value: 0.1
    }
    engine: MKL2017
  }
}
layer {
  name: "relu5"
  type: "ReLU"
  bottom: "conv5"
  top: "conv5"
  relu_param {
    engine: MKL2017
  }
}
layer {
  name: "pool5"
  type: "Pooling"
  bottom: "conv5"
  top: "pool5"
  pooling_param {
    pool: MAX
    kernel_size: 3
    stride: 2
    engine: MKL2017
  }
}
layer {
  name: "fc6"
  type: "InnerProduct"
  bottom: "pool5"
  top: "fc6"
  param {
    lr_mult: 1
    decay_mult: 1
  }
  param {
    lr_mult: 2
    decay_mult: 0
  }
  inner_product_param {
    num_output: 4096
    weight_filler {
      type: "gaussian"
      std: 0.005
    }
    bias_filler {
      type: "constant"
      value: 0.1
    }
  }
}
layer {
  name: "relu6"
  type: "ReLU"
  bottom: "fc6"
  top: "fc6"
}
layer {
  name: "drop6"
  type: "Dropout"
  bottom: "fc6"
  top: "fc6"
  dropout_param {
    dropout_ratio: 0.5
  }
}
layer {
  name: "fc7"
  type: "InnerProduct"
  bottom: "fc6"
  top: "fc7"
  param {
    lr_mult: 1
    decay_mult: 1
  }
  param {
    lr_mult: 2
    decay_mult: 0
  }
  inner_product_param {
    num_output: 4096
    weight_filler {
      type: "gaussian"
      std: 0.005
    }
    bias_filler {
      type: "constant"
      value: 0.1
    }
  }
}
layer {
  name: "relu7"
  type: "ReLU"
  bottom: "fc7"
  top: "fc7"
}
layer {
  name: "drop7"
  type: "Dropout"
  bottom: "fc7"
  top: "fc7"
  dropout_param {
    dropout_ratio: 0.5
  }
}
layer {
  name: "fc8"
  type: "InnerProduct"
  bottom: "fc7"
  top: "fc8"
  param {
    lr_mult: 1
    decay_mult: 1
  }
  param {
    lr_mult: 2
    decay_mult: 0
  }
  inner_product_param {
    num_output: 1000
    weight_filler {
      type: "gaussian"
      std: 0.01
    }
    bias_filler {
      type: "constant"
      value: 0
    }
  }
}
layer {
  name: "loss"
  type: "SoftmaxWithLoss"
  bottom: "fc8"
  bottom: "label"
  top: "loss"
}
I1109 00:07:57.706321 138105 layer_factory.hpp:114] Creating layer data
I1109 00:07:57.853299 138105 net.cpp:160] Creating Layer data
I1109 00:07:57.901864 138105 net.cpp:570] data -> data
I1109 00:07:58.367013 138105 net.cpp:570] data -> label
I1109 00:08:05.389125 138105 net.cpp:210] Setting up data
I1109 00:08:05.472017 138105 net.cpp:217] Top shape: 32 3 227 227 (4946784)
I1109 00:08:05.577029 138105 net.cpp:217] Top shape: 32 1 1 1 (32)
I1109 00:08:05.584941 138105 net.cpp:225] Memory required for data: 19787264
I1109 00:08:05.654244 138105 layer_factory.hpp:114] Creating layer conv1
I1109 00:08:05.980303 138105 net.cpp:160] Creating Layer conv1
I1109 00:08:06.029875 138105 net.cpp:596] conv1 <- data
I1109 00:08:06.148408 138105 net.cpp:570] conv1 -> conv1
I1109 00:08:38.843832 138105 net.cpp:210] Setting up conv1
I1109 00:08:38.851538 138105 net.cpp:217] Top shape: 32 96 55 55 (9292800)
I1109 00:08:38.851964 138105 net.cpp:225] Memory required for data: 56958464
I1109 00:08:39.133616 138105 layer_factory.hpp:114] Creating layer relu1
I1109 00:08:39.253337 138105 net.cpp:160] Creating Layer relu1
I1109 00:08:39.257809 138105 net.cpp:596] relu1 <- conv1
I1109 00:08:39.289573 138105 net.cpp:557] relu1 -> conv1 (in-place)
I1109 00:08:39.476083 138105 net.cpp:210] Setting up relu1
I1109 00:08:39.478461 138105 net.cpp:217] Top shape: 32 96 55 55 (9292800)
I1109 00:08:39.478793 138105 net.cpp:225] Memory required for data: 94129664
I1109 00:08:39.478991 138105 layer_factory.hpp:114] Creating layer norm1
I1109 00:08:39.584364 138105 net.cpp:160] Creating Layer norm1
I1109 00:08:39.584700 138105 net.cpp:596] norm1 <- conv1
I1109 00:08:39.587512 138105 net.cpp:570] norm1 -> norm1
I1109 00:08:39.813889 138105 net.cpp:210] Setting up norm1
I1109 00:08:39.826650 138105 net.cpp:217] Top shape: 32 96 55 55 (9292800)
I1109 00:08:39.827028 138105 net.cpp:225] Memory required for data: 131300864
I1109 00:08:39.827356 138105 layer_factory.hpp:114] Creating layer pool1
I1109 00:08:39.921942 138105 net.cpp:160] Creating Layer pool1
I1109 00:08:39.922252 138105 net.cpp:596] pool1 <- norm1
I1109 00:08:39.936934 138105 net.cpp:570] pool1 -> pool1
I1109 00:08:40.235580 138105 net.cpp:210] Setting up pool1
I1109 00:08:40.238139 138105 net.cpp:217] Top shape: 32 96 27 27 (2239488)
I1109 00:08:40.238469 138105 net.cpp:225] Memory required for data: 140258816
I1109 00:08:40.238723 138105 layer_factory.hpp:114] Creating layer conv2
I1109 00:08:40.239094 138105 net.cpp:160] Creating Layer conv2
I1109 00:08:40.239338 138105 net.cpp:596] conv2 <- pool1
I1109 00:08:40.239574 138105 net.cpp:570] conv2 -> conv2
I1109 00:08:45.992660 138105 net.cpp:210] Setting up conv2
I1109 00:08:45.993036 138105 net.cpp:217] Top shape: 32 256 27 27 (5971968)
I1109 00:08:45.993502 138105 net.cpp:225] Memory required for data: 164146688
I1109 00:08:46.043599 138105 layer_factory.hpp:114] Creating layer relu2
I1109 00:08:46.044008 138105 net.cpp:160] Creating Layer relu2
I1109 00:08:46.044400 138105 net.cpp:596] relu2 <- conv2
I1109 00:08:46.044688 138105 net.cpp:557] relu2 -> conv2 (in-place)
I1109 00:08:46.045189 138105 net.cpp:210] Setting up relu2
I1109 00:08:46.045454 138105 net.cpp:217] Top shape: 32 256 27 27 (5971968)
I1109 00:08:46.045686 138105 net.cpp:225] Memory required for data: 188034560
I1109 00:08:46.045872 138105 layer_factory.hpp:114] Creating layer norm2
I1109 00:08:46.046115 138105 net.cpp:160] Creating Layer norm2
I1109 00:08:46.046317 138105 net.cpp:596] norm2 <- conv2
I1109 00:08:46.046577 138105 net.cpp:570] norm2 -> norm2
I1109 00:08:46.048624 138105 net.cpp:210] Setting up norm2
I1109 00:08:46.048979 138105 net.cpp:217] Top shape: 32 256 27 27 (5971968)
I1109 00:08:46.049216 138105 net.cpp:225] Memory required for data: 211922432
I1109 00:08:46.049399 138105 layer_factory.hpp:114] Creating layer pool2
I1109 00:08:46.049674 138105 net.cpp:160] Creating Layer pool2
I1109 00:08:46.049928 138105 net.cpp:596] pool2 <- norm2
I1109 00:08:46.050227 138105 net.cpp:570] pool2 -> pool2
I1109 00:08:46.050770 138105 net.cpp:210] Setting up pool2
I1109 00:08:46.051008 138105 net.cpp:217] Top shape: 32 256 13 13 (1384448)
I1109 00:08:46.051226 138105 net.cpp:225] Memory required for data: 217460224
I1109 00:08:46.051420 138105 layer_factory.hpp:114] Creating layer conv3
I1109 00:08:46.051744 138105 net.cpp:160] Creating Layer conv3
I1109 00:08:46.051959 138105 net.cpp:596] conv3 <- pool2
I1109 00:08:46.052196 138105 net.cpp:570] conv3 -> conv3
I1109 00:08:46.557006 138105 net.cpp:210] Setting up conv3
I1109 00:08:46.559361 138105 net.cpp:217] Top shape: 32 384 13 13 (2076672)
I1109 00:08:46.559705 138105 net.cpp:225] Memory required for data: 225766912
I1109 00:08:46.562690 138105 layer_factory.hpp:114] Creating layer relu3
I1109 00:08:46.563128 138105 net.cpp:160] Creating Layer relu3
I1109 00:08:46.563380 138105 net.cpp:596] relu3 <- conv3
I1109 00:08:46.563621 138105 net.cpp:557] relu3 -> conv3 (in-place)
I1109 00:08:46.567725 138105 net.cpp:210] Setting up relu3
I1109 00:08:46.568034 138105 net.cpp:217] Top shape: 32 384 13 13 (2076672)
I1109 00:08:46.568287 138105 net.cpp:225] Memory required for data: 234073600
I1109 00:08:46.568483 138105 layer_factory.hpp:114] Creating layer conv4
I1109 00:08:46.568886 138105 net.cpp:160] Creating Layer conv4
I1109 00:08:46.569277 138105 net.cpp:596] conv4 <- conv3
I1109 00:08:46.569589 138105 net.cpp:570] conv4 -> conv4
I1109 00:08:46.812029 138105 net.cpp:210] Setting up conv4
I1109 00:08:46.812422 138105 net.cpp:217] Top shape: 32 384 13 13 (2076672)
I1109 00:08:46.812857 138105 net.cpp:225] Memory required for data: 242380288
I1109 00:08:46.813217 138105 layer_factory.hpp:114] Creating layer relu4
I1109 00:08:46.813515 138105 net.cpp:160] Creating Layer relu4
I1109 00:08:46.813752 138105 net.cpp:596] relu4 <- conv4
I1109 00:08:46.813997 138105 net.cpp:557] relu4 -> conv4 (in-place)
I1109 00:08:46.826395 138105 net.cpp:210] Setting up relu4
I1109 00:08:46.826737 138105 net.cpp:217] Top shape: 32 384 13 13 (2076672)
I1109 00:08:46.827188 138105 net.cpp:225] Memory required for data: 250686976
I1109 00:08:46.827432 138105 layer_factory.hpp:114] Creating layer conv5
I1109 00:08:46.827805 138105 net.cpp:160] Creating Layer conv5
I1109 00:08:46.828053 138105 net.cpp:596] conv5 <- conv4
I1109 00:08:46.828307 138105 net.cpp:570] conv5 -> conv5
I1109 00:08:46.996471 138105 net.cpp:210] Setting up conv5
I1109 00:08:46.996930 138105 net.cpp:217] Top shape: 32 256 13 13 (1384448)
I1109 00:08:46.997340 138105 net.cpp:225] Memory required for data: 256224768
I1109 00:08:47.001994 138105 layer_factory.hpp:114] Creating layer relu5
I1109 00:08:47.004957 138105 net.cpp:160] Creating Layer relu5
I1109 00:08:47.005286 138105 net.cpp:596] relu5 <- conv5
I1109 00:08:47.005581 138105 net.cpp:557] relu5 -> conv5 (in-place)
I1109 00:08:47.006140 138105 net.cpp:210] Setting up relu5
I1109 00:08:47.006429 138105 net.cpp:217] Top shape: 32 256 13 13 (1384448)
I1109 00:08:47.006680 138105 net.cpp:225] Memory required for data: 261762560
I1109 00:08:47.006889 138105 layer_factory.hpp:114] Creating layer pool5
I1109 00:08:47.007153 138105 net.cpp:160] Creating Layer pool5
I1109 00:08:47.007369 138105 net.cpp:596] pool5 <- conv5
I1109 00:08:47.007597 138105 net.cpp:570] pool5 -> pool5
I1109 00:08:47.008039 138105 net.cpp:210] Setting up pool5
I1109 00:08:47.008309 138105 net.cpp:217] Top shape: 32 256 6 6 (294912)
I1109 00:08:47.008545 138105 net.cpp:225] Memory required for data: 262942208
I1109 00:08:47.008901 138105 layer_factory.hpp:114] Creating layer fc6
I1109 00:08:47.062954 138105 net.cpp:160] Creating Layer fc6
I1109 00:08:47.063263 138105 net.cpp:596] fc6 <- pool5
I1109 00:08:47.063639 138105 net.cpp:570] fc6 -> fc6
I1109 00:08:51.173081 138105 net.cpp:210] Setting up fc6
I1109 00:08:51.173375 138105 net.cpp:217] Top shape: 32 4096 (131072)
I1109 00:08:51.175422 138105 net.cpp:225] Memory required for data: 263466496
I1109 00:08:51.175734 138105 layer_factory.hpp:114] Creating layer relu6
I1109 00:08:51.178262 138105 net.cpp:160] Creating Layer relu6
I1109 00:08:51.178601 138105 net.cpp:596] relu6 <- fc6
I1109 00:08:51.178897 138105 net.cpp:557] relu6 -> fc6 (in-place)
I1109 00:08:51.179324 138105 net.cpp:210] Setting up relu6
I1109 00:08:51.179577 138105 net.cpp:217] Top shape: 32 4096 (131072)
I1109 00:08:51.179806 138105 net.cpp:225] Memory required for data: 263990784
I1109 00:08:51.179994 138105 layer_factory.hpp:114] Creating layer drop6
I1109 00:08:51.200276 138105 net.cpp:160] Creating Layer drop6
I1109 00:08:51.200589 138105 net.cpp:596] drop6 <- fc6
I1109 00:08:51.201035 138105 net.cpp:557] drop6 -> fc6 (in-place)
I1109 00:08:51.305613 138105 net.cpp:210] Setting up drop6
I1109 00:08:51.305907 138105 net.cpp:217] Top shape: 32 4096 (131072)
I1109 00:08:51.306251 138105 net.cpp:225] Memory required for data: 264515072
I1109 00:08:51.306498 138105 layer_factory.hpp:114] Creating layer fc7
I1109 00:08:51.306766 138105 net.cpp:160] Creating Layer fc7
I1109 00:08:51.306975 138105 net.cpp:596] fc7 <- fc6
I1109 00:08:51.307364 138105 net.cpp:570] fc7 -> fc7
I1109 00:08:53.029608 138105 net.cpp:210] Setting up fc7
I1109 00:08:53.029968 138105 net.cpp:217] Top shape: 32 4096 (131072)
I1109 00:08:53.030457 138105 net.cpp:225] Memory required for data: 265039360
I1109 00:08:53.030824 138105 layer_factory.hpp:114] Creating layer relu7
I1109 00:08:53.031154 138105 net.cpp:160] Creating Layer relu7
I1109 00:08:53.031409 138105 net.cpp:596] relu7 <- fc7
I1109 00:08:53.031661 138105 net.cpp:557] relu7 -> fc7 (in-place)
I1109 00:08:53.032109 138105 net.cpp:210] Setting up relu7
I1109 00:08:53.032397 138105 net.cpp:217] Top shape: 32 4096 (131072)
I1109 00:08:53.032652 138105 net.cpp:225] Memory required for data: 265563648
I1109 00:08:53.032954 138105 layer_factory.hpp:114] Creating layer drop7
I1109 00:08:53.033219 138105 net.cpp:160] Creating Layer drop7
I1109 00:08:53.033464 138105 net.cpp:596] drop7 <- fc7
I1109 00:08:53.033757 138105 net.cpp:557] drop7 -> fc7 (in-place)
I1109 00:08:53.034024 138105 net.cpp:210] Setting up drop7
I1109 00:08:53.034227 138105 net.cpp:217] Top shape: 32 4096 (131072)
I1109 00:08:53.034448 138105 net.cpp:225] Memory required for data: 266087936
I1109 00:08:53.034633 138105 layer_factory.hpp:114] Creating layer fc8
I1109 00:08:53.034911 138105 net.cpp:160] Creating Layer fc8
I1109 00:08:53.035122 138105 net.cpp:596] fc8 <- fc7
I1109 00:08:53.035351 138105 net.cpp:570] fc8 -> fc8
I1109 00:08:53.461021 138105 net.cpp:210] Setting up fc8
I1109 00:08:53.461375 138105 net.cpp:217] Top shape: 32 1000 (32000)
I1109 00:08:53.461881 138105 net.cpp:225] Memory required for data: 266215936
I1109 00:08:53.462189 138105 layer_factory.hpp:114] Creating layer loss
I1109 00:08:53.486910 138105 net.cpp:160] Creating Layer loss
I1109 00:08:53.487222 138105 net.cpp:596] loss <- fc8
I1109 00:08:53.488170 138105 net.cpp:596] loss <- label
I1109 00:08:53.515396 138105 net.cpp:570] loss -> loss
I1109 00:08:53.552968 138105 layer_factory.hpp:114] Creating layer loss
…
