…
I1108 23:16:56.595883 135804 net.cpp:484] The NetState phase (0) differed from the phase (1) specified by a rule in layer accuracy
I1108 23:16:57.231508 135804 net.cpp:120] Initializing net from parameters: 
name: "AlexNet"
state {
  phase: TRAIN
  level: 0
  stage: ""
}
layer {
  name: "data"
  type: "DummyData"
  top: "data"
  top: "label"
  include {
    phase: TRAIN
  }
  dummy_data_param {
    data_filler {
      type: "gaussian"
      std: 1
    }
    data_filler {
      type: "constant"
      value: 0
    }
    shape {
      dim: 32
      dim: 3
      dim: 227
      dim: 227
    }
    shape {
      dim: 32
      dim: 1
      dim: 1
      dim: 1
    }
  }
}
layer {
  name: "conv1"
  type: "Convolution"
  bottom: "data"
  top: "conv1"
  param {
    lr_mult: 1
    decay_mult: 1
  }
  param {
    lr_mult: 2
    decay_mult: 0
  }
  convolution_param {
    num_output: 96
    kernel_size: 11
    stride: 4
    weight_filler {
      type: "gaussian"
      std: 0.01
    }
    bias_filler {
      type: "constant"
      value: 0
    }
    engine: MKL2017
  }
}
layer {
  name: "relu1"
  type: "ReLU"
  bottom: "conv1"
  top: "conv1"
  relu_param {
    engine: MKL2017
  }
}
layer {
  name: "norm1"
  type: "LRN"
  bottom: "conv1"
  top: "norm1"
  lrn_param {
    local_size: 5
    alpha: 0.0001
    beta: 0.75
    engine: MKL2017
  }
}
layer {
  name: "pool1"
  type: "Pooling"
  bottom: "norm1"
  top: "pool1"
  pooling_param {
    pool: MAX
    kernel_size: 3
    stride: 2
    engine: MKL2017
  }
}
layer {
  name: "conv2"
  type: "Convolution"
  bottom: "pool1"
  top: "conv2"
  param {
    lr_mult: 1
    decay_mult: 1
  }
  param {
    lr_mult: 2
    decay_mult: 0
  }
  convolution_param {
    num_output: 256
    pad: 2
    kernel_size: 5
    group: 2
    weight_filler {
      type: "gaussian"
      std: 0.01
    }
    bias_filler {
      type: "constant"
      value: 0.1
    }
    engine: MKL2017
  }
}
layer {
  name: "relu2"
  type: "ReLU"
  bottom: "conv2"
  top: "conv2"
  relu_param {
    engine: MKL2017
  }
}
layer {
  name: "norm2"
  type: "LRN"
  bottom: "conv2"
  top: "norm2"
  lrn_param {
    local_size: 5
    alpha: 0.0001
    beta: 0.75
    engine: MKL2017
  }
}
layer {
  name: "pool2"
  type: "Pooling"
  bottom: "norm2"
  top: "pool2"
  pooling_param {
    pool: MAX
    kernel_size: 3
    stride: 2
    engine: MKL2017
  }
}
layer {
  name: "conv3"
  type: "Convolution"
  bottom: "pool2"
  top: "conv3"
  param {
    lr_mult: 1
    decay_mult: 1
  }
  param {
    lr_mult: 2
    decay_mult: 0
  }
  convolution_param {
    num_output: 384
    pad: 1
    kernel_size: 3
    weight_filler {
      type: "gaussian"
      std: 0.01
    }
    bias_filler {
      type: "constant"
      value: 0
    }
    engine: MKL2017
  }
}
layer {
  name: "relu3"
  type: "ReLU"
  bottom: "conv3"
  top: "conv3"
  relu_param {
    engine: MKL2017
  }
}
layer {
  name: "conv4"
  type: "Convolution"
  bottom: "conv3"
  top: "conv4"
  param {
    lr_mult: 1
    decay_mult: 1
  }
  param {
    lr_mult: 2
    decay_mult: 0
  }
  convolution_param {
    num_output: 384
    pad: 1
    kernel_size: 3
    group: 2
    weight_filler {
      type: "gaussian"
      std: 0.01
    }
    bias_filler {
      type: "constant"
      value: 0.1
    }
    engine: MKL2017
  }
}
layer {
  name: "relu4"
  type: "ReLU"
  bottom: "conv4"
  top: "conv4"
  relu_param {
    engine: MKL2017
  }
}
layer {
  name: "conv5"
  type: "Convolution"
  bottom: "conv4"
  top: "conv5"
  param {
    lr_mult: 1
    decay_mult: 1
  }
  param {
    lr_mult: 2
    decay_mult: 0
  }
  convolution_param {
    num_output: 256
    pad: 1
    kernel_size: 3
    group: 2
    weight_filler {
      type: "gaussian"
      std: 0.01
    }
    bias_filler {
      type: "constant"
      value: 0.1
    }
    engine: MKL2017
  }
}
layer {
  name: "relu5"
  type: "ReLU"
  bottom: "conv5"
  top: "conv5"
  relu_param {
    engine: MKL2017
  }
}
layer {
  name: "pool5"
  type: "Pooling"
  bottom: "conv5"
  top: "pool5"
  pooling_param {
    pool: MAX
    kernel_size: 3
    stride: 2
    engine: MKL2017
  }
}
layer {
  name: "fc6"
  type: "InnerProduct"
  bottom: "pool5"
  top: "fc6"
  param {
    lr_mult: 1
    decay_mult: 1
  }
  param {
    lr_mult: 2
    decay_mult: 0
  }
  inner_product_param {
    num_output: 4096
    weight_filler {
      type: "gaussian"
      std: 0.005
    }
    bias_filler {
      type: "constant"
      value: 0.1
    }
  }
}
layer {
  name: "relu6"
  type: "ReLU"
  bottom: "fc6"
  top: "fc6"
}
layer {
  name: "drop6"
  type: "Dropout"
  bottom: "fc6"
  top: "fc6"
  dropout_param {
    dropout_ratio: 0.5
  }
}
layer {
  name: "fc7"
  type: "InnerProduct"
  bottom: "fc6"
  top: "fc7"
  param {
    lr_mult: 1
    decay_mult: 1
  }
  param {
    lr_mult: 2
    decay_mult: 0
  }
  inner_product_param {
    num_output: 4096
    weight_filler {
      type: "gaussian"
      std: 0.005
    }
    bias_filler {
      type: "constant"
      value: 0.1
    }
  }
}
layer {
  name: "relu7"
  type: "ReLU"
  bottom: "fc7"
  top: "fc7"
}
layer {
  name: "drop7"
  type: "Dropout"
  bottom: "fc7"
  top: "fc7"
  dropout_param {
    dropout_ratio: 0.5
  }
}
layer {
  name: "fc8"
  type: "InnerProduct"
  bottom: "fc7"
  top: "fc8"
  param {
    lr_mult: 1
    decay_mult: 1
  }
  param {
    lr_mult: 2
    decay_mult: 0
  }
  inner_product_param {
    num_output: 1000
    weight_filler {
      type: "gaussian"
      std: 0.01
    }
    bias_filler {
      type: "constant"
      value: 0
    }
  }
}
layer {
  name: "loss"
  type: "SoftmaxWithLoss"
  bottom: "fc8"
  bottom: "label"
  top: "loss"
}
I1108 23:16:59.685550 135804 layer_factory.hpp:114] Creating layer data
I1108 23:16:59.832526 135804 net.cpp:160] Creating Layer data
I1108 23:16:59.880563 135804 net.cpp:570] data -> data
I1108 23:17:00.342928 135804 net.cpp:570] data -> label
I1108 23:17:07.356407 135804 net.cpp:210] Setting up data
I1108 23:17:07.438402 135804 net.cpp:217] Top shape: 32 3 227 227 (4946784)
I1108 23:17:07.544626 135804 net.cpp:217] Top shape: 32 1 1 1 (32)
I1108 23:17:07.552248 135804 net.cpp:225] Memory required for data: 19787264
I1108 23:17:07.620393 135804 layer_factory.hpp:114] Creating layer conv1
I1108 23:17:07.951908 135804 net.cpp:160] Creating Layer conv1
I1108 23:17:08.002264 135804 net.cpp:596] conv1 <- data
I1108 23:17:08.124629 135804 net.cpp:570] conv1 -> conv1
I1108 23:17:40.872661 135804 net.cpp:210] Setting up conv1
I1108 23:17:40.880898 135804 net.cpp:217] Top shape: 32 96 55 55 (9292800)
I1108 23:17:40.881320 135804 net.cpp:225] Memory required for data: 56958464
I1108 23:17:41.165777 135804 layer_factory.hpp:114] Creating layer relu1
I1108 23:17:41.286469 135804 net.cpp:160] Creating Layer relu1
I1108 23:17:41.291098 135804 net.cpp:596] relu1 <- conv1
I1108 23:17:41.324692 135804 net.cpp:557] relu1 -> conv1 (in-place)
I1108 23:17:41.515121 135804 net.cpp:210] Setting up relu1
I1108 23:17:41.517559 135804 net.cpp:217] Top shape: 32 96 55 55 (9292800)
I1108 23:17:41.517895 135804 net.cpp:225] Memory required for data: 94129664
I1108 23:17:41.518132 135804 layer_factory.hpp:114] Creating layer norm1
I1108 23:17:41.622556 135804 net.cpp:160] Creating Layer norm1
I1108 23:17:41.622870 135804 net.cpp:596] norm1 <- conv1
I1108 23:17:41.625449 135804 net.cpp:570] norm1 -> norm1
I1108 23:17:41.850154 135804 net.cpp:210] Setting up norm1
I1108 23:17:41.862983 135804 net.cpp:217] Top shape: 32 96 55 55 (9292800)
I1108 23:17:41.863384 135804 net.cpp:225] Memory required for data: 131300864
I1108 23:17:41.863798 135804 layer_factory.hpp:114] Creating layer pool1
I1108 23:17:41.958770 135804 net.cpp:160] Creating Layer pool1
I1108 23:17:41.959097 135804 net.cpp:596] pool1 <- norm1
I1108 23:17:41.975633 135804 net.cpp:570] pool1 -> pool1
I1108 23:17:42.281015 135804 net.cpp:210] Setting up pool1
I1108 23:17:42.283571 135804 net.cpp:217] Top shape: 32 96 27 27 (2239488)
I1108 23:17:42.283932 135804 net.cpp:225] Memory required for data: 140258816
I1108 23:17:42.284159 135804 layer_factory.hpp:114] Creating layer conv2
I1108 23:17:42.284548 135804 net.cpp:160] Creating Layer conv2
I1108 23:17:42.284755 135804 net.cpp:596] conv2 <- pool1
I1108 23:17:42.285040 135804 net.cpp:570] conv2 -> conv2
I1108 23:17:48.079574 135804 net.cpp:210] Setting up conv2
I1108 23:17:48.079921 135804 net.cpp:217] Top shape: 32 256 27 27 (5971968)
I1108 23:17:48.080324 135804 net.cpp:225] Memory required for data: 164146688
I1108 23:17:48.131161 135804 layer_factory.hpp:114] Creating layer relu2
I1108 23:17:48.131585 135804 net.cpp:160] Creating Layer relu2
I1108 23:17:48.131916 135804 net.cpp:596] relu2 <- conv2
I1108 23:17:48.132194 135804 net.cpp:557] relu2 -> conv2 (in-place)
I1108 23:17:48.132664 135804 net.cpp:210] Setting up relu2
I1108 23:17:48.132982 135804 net.cpp:217] Top shape: 32 256 27 27 (5971968)
I1108 23:17:48.133216 135804 net.cpp:225] Memory required for data: 188034560
I1108 23:17:48.133407 135804 layer_factory.hpp:114] Creating layer norm2
I1108 23:17:48.133651 135804 net.cpp:160] Creating Layer norm2
I1108 23:17:48.133843 135804 net.cpp:596] norm2 <- conv2
I1108 23:17:48.134109 135804 net.cpp:570] norm2 -> norm2
I1108 23:17:48.136241 135804 net.cpp:210] Setting up norm2
I1108 23:17:48.136546 135804 net.cpp:217] Top shape: 32 256 27 27 (5971968)
I1108 23:17:48.136775 135804 net.cpp:225] Memory required for data: 211922432
I1108 23:17:48.137017 135804 layer_factory.hpp:114] Creating layer pool2
I1108 23:17:48.137977 135804 net.cpp:160] Creating Layer pool2
I1108 23:17:48.138308 135804 net.cpp:596] pool2 <- norm2
I1108 23:17:48.138551 135804 net.cpp:570] pool2 -> pool2
I1108 23:17:48.138944 135804 net.cpp:210] Setting up pool2
I1108 23:17:48.139189 135804 net.cpp:217] Top shape: 32 256 13 13 (1384448)
I1108 23:17:48.139408 135804 net.cpp:225] Memory required for data: 217460224
I1108 23:17:48.139603 135804 layer_factory.hpp:114] Creating layer conv3
I1108 23:17:48.139961 135804 net.cpp:160] Creating Layer conv3
I1108 23:17:48.140194 135804 net.cpp:596] conv3 <- pool2
I1108 23:17:48.140579 135804 net.cpp:570] conv3 -> conv3
I1108 23:17:48.591253 135804 net.cpp:210] Setting up conv3
I1108 23:17:48.593745 135804 net.cpp:217] Top shape: 32 384 13 13 (2076672)
I1108 23:17:48.594128 135804 net.cpp:225] Memory required for data: 225766912
I1108 23:17:48.597141 135804 layer_factory.hpp:114] Creating layer relu3
I1108 23:17:48.597573 135804 net.cpp:160] Creating Layer relu3
I1108 23:17:48.597877 135804 net.cpp:596] relu3 <- conv3
I1108 23:17:48.598109 135804 net.cpp:557] relu3 -> conv3 (in-place)
I1108 23:17:48.602408 135804 net.cpp:210] Setting up relu3
I1108 23:17:48.602735 135804 net.cpp:217] Top shape: 32 384 13 13 (2076672)
I1108 23:17:48.603024 135804 net.cpp:225] Memory required for data: 234073600
I1108 23:17:48.603224 135804 layer_factory.hpp:114] Creating layer conv4
I1108 23:17:48.603592 135804 net.cpp:160] Creating Layer conv4
I1108 23:17:48.603850 135804 net.cpp:596] conv4 <- conv3
I1108 23:17:48.604094 135804 net.cpp:570] conv4 -> conv4
I1108 23:17:48.871219 135804 net.cpp:210] Setting up conv4
I1108 23:17:48.871604 135804 net.cpp:217] Top shape: 32 384 13 13 (2076672)
I1108 23:17:48.871973 135804 net.cpp:225] Memory required for data: 242380288
I1108 23:17:48.872304 135804 layer_factory.hpp:114] Creating layer relu4
I1108 23:17:48.872586 135804 net.cpp:160] Creating Layer relu4
I1108 23:17:48.872833 135804 net.cpp:596] relu4 <- conv4
I1108 23:17:48.873073 135804 net.cpp:557] relu4 -> conv4 (in-place)
I1108 23:17:48.885449 135804 net.cpp:210] Setting up relu4
I1108 23:17:48.885795 135804 net.cpp:217] Top shape: 32 384 13 13 (2076672)
I1108 23:17:48.886149 135804 net.cpp:225] Memory required for data: 250686976
I1108 23:17:48.886385 135804 layer_factory.hpp:114] Creating layer conv5
I1108 23:17:48.886744 135804 net.cpp:160] Creating Layer conv5
I1108 23:17:48.886976 135804 net.cpp:596] conv5 <- conv4
I1108 23:17:48.887208 135804 net.cpp:570] conv5 -> conv5
I1108 23:17:49.057669 135804 net.cpp:210] Setting up conv5
I1108 23:17:49.058066 135804 net.cpp:217] Top shape: 32 256 13 13 (1384448)
I1108 23:17:49.058524 135804 net.cpp:225] Memory required for data: 256224768
I1108 23:17:49.063274 135804 layer_factory.hpp:114] Creating layer relu5
I1108 23:17:49.063694 135804 net.cpp:160] Creating Layer relu5
I1108 23:17:49.063987 135804 net.cpp:596] relu5 <- conv5
I1108 23:17:49.064256 135804 net.cpp:557] relu5 -> conv5 (in-place)
I1108 23:17:49.064723 135804 net.cpp:210] Setting up relu5
I1108 23:17:49.065075 135804 net.cpp:217] Top shape: 32 256 13 13 (1384448)
I1108 23:17:49.065325 135804 net.cpp:225] Memory required for data: 261762560
I1108 23:17:49.065564 135804 layer_factory.hpp:114] Creating layer pool5
I1108 23:17:49.065840 135804 net.cpp:160] Creating Layer pool5
I1108 23:17:49.066074 135804 net.cpp:596] pool5 <- conv5
I1108 23:17:49.066332 135804 net.cpp:570] pool5 -> pool5
I1108 23:17:49.066733 135804 net.cpp:210] Setting up pool5
I1108 23:17:49.067004 135804 net.cpp:217] Top shape: 32 256 6 6 (294912)
I1108 23:17:49.067224 135804 net.cpp:225] Memory required for data: 262942208
I1108 23:17:49.067404 135804 layer_factory.hpp:114] Creating layer fc6
I1108 23:17:49.122565 135804 net.cpp:160] Creating Layer fc6
I1108 23:17:49.122871 135804 net.cpp:596] fc6 <- pool5
I1108 23:17:49.123221 135804 net.cpp:570] fc6 -> fc6
I1108 23:17:53.211522 135804 net.cpp:210] Setting up fc6
I1108 23:17:53.211827 135804 net.cpp:217] Top shape: 32 4096 (131072)
I1108 23:17:53.213956 135804 net.cpp:225] Memory required for data: 263466496
I1108 23:17:53.214259 135804 layer_factory.hpp:114] Creating layer relu6
I1108 23:17:53.216754 135804 net.cpp:160] Creating Layer relu6
I1108 23:17:53.217100 135804 net.cpp:596] relu6 <- fc6
I1108 23:17:53.217325 135804 net.cpp:557] relu6 -> fc6 (in-place)
I1108 23:17:53.217735 135804 net.cpp:210] Setting up relu6
I1108 23:17:53.217985 135804 net.cpp:217] Top shape: 32 4096 (131072)
I1108 23:17:53.218246 135804 net.cpp:225] Memory required for data: 263990784
I1108 23:17:53.218446 135804 layer_factory.hpp:114] Creating layer drop6
I1108 23:17:53.238427 135804 net.cpp:160] Creating Layer drop6
I1108 23:17:53.238729 135804 net.cpp:596] drop6 <- fc6
I1108 23:17:53.239084 135804 net.cpp:557] drop6 -> fc6 (in-place)
I1108 23:17:53.343025 135804 net.cpp:210] Setting up drop6
I1108 23:17:53.343322 135804 net.cpp:217] Top shape: 32 4096 (131072)
I1108 23:17:53.343644 135804 net.cpp:225] Memory required for data: 264515072
I1108 23:17:53.343883 135804 layer_factory.hpp:114] Creating layer fc7
I1108 23:17:53.344144 135804 net.cpp:160] Creating Layer fc7
I1108 23:17:53.344350 135804 net.cpp:596] fc7 <- fc6
I1108 23:17:53.344724 135804 net.cpp:570] fc7 -> fc7
I1108 23:17:55.055639 135804 net.cpp:210] Setting up fc7
I1108 23:17:55.056001 135804 net.cpp:217] Top shape: 32 4096 (131072)
I1108 23:17:55.056418 135804 net.cpp:225] Memory required for data: 265039360
I1108 23:17:55.056776 135804 layer_factory.hpp:114] Creating layer relu7
I1108 23:17:55.057152 135804 net.cpp:160] Creating Layer relu7
I1108 23:17:55.057399 135804 net.cpp:596] relu7 <- fc7
I1108 23:17:55.057651 135804 net.cpp:557] relu7 -> fc7 (in-place)
I1108 23:17:55.058094 135804 net.cpp:210] Setting up relu7
I1108 23:17:55.058383 135804 net.cpp:217] Top shape: 32 4096 (131072)
I1108 23:17:55.058663 135804 net.cpp:225] Memory required for data: 265563648
I1108 23:17:55.058871 135804 layer_factory.hpp:114] Creating layer drop7
I1108 23:17:55.059118 135804 net.cpp:160] Creating Layer drop7
I1108 23:17:55.059394 135804 net.cpp:596] drop7 <- fc7
I1108 23:17:55.059670 135804 net.cpp:557] drop7 -> fc7 (in-place)
I1108 23:17:55.059947 135804 net.cpp:210] Setting up drop7
I1108 23:17:55.060155 135804 net.cpp:217] Top shape: 32 4096 (131072)
I1108 23:17:55.060370 135804 net.cpp:225] Memory required for data: 266087936
I1108 23:17:55.060554 135804 layer_factory.hpp:114] Creating layer fc8
I1108 23:17:55.060844 135804 net.cpp:160] Creating Layer fc8
I1108 23:17:55.061066 135804 net.cpp:596] fc8 <- fc7
I1108 23:17:55.061297 135804 net.cpp:570] fc8 -> fc8
I1108 23:17:55.485765 135804 net.cpp:210] Setting up fc8
I1108 23:17:55.486135 135804 net.cpp:217] Top shape: 32 1000 (32000)
I1108 23:17:55.486568 135804 net.cpp:225] Memory required for data: 266215936
I1108 23:17:55.486892 135804 layer_factory.hpp:114] Creating layer loss
I1108 23:17:55.512042 135804 net.cpp:160] Creating Layer loss
I1108 23:17:55.512358 135804 net.cpp:596] loss <- fc8
I1108 23:17:55.513327 135804 net.cpp:596] loss <- label
I1108 23:17:55.541708 135804 net.cpp:570] loss -> loss
I1108 23:17:55.582121 135804 layer_factory.hpp:114] Creating layer loss
…
