…
I1108 22:55:08.382386 135237 net.cpp:484] The NetState phase (0) differed from the phase (1) specified by a rule in layer accuracy
I1108 22:55:09.010715 135237 net.cpp:120] Initializing net from parameters: 
name: "AlexNet"
state {
  phase: TRAIN
  level: 0
  stage: ""
}
layer {
  name: "data"
  type: "DummyData"
  top: "data"
  top: "label"
  include {
    phase: TRAIN
  }
  dummy_data_param {
    data_filler {
      type: "gaussian"
      std: 1
    }
    data_filler {
      type: "constant"
      value: 0
    }
    shape {
      dim: 32
      dim: 3
      dim: 227
      dim: 227
    }
    shape {
      dim: 32
      dim: 1
      dim: 1
      dim: 1
    }
  }
}
layer {
  name: "conv1"
  type: "Convolution"
  bottom: "data"
  top: "conv1"
  param {
    lr_mult: 1
    decay_mult: 1
  }
  param {
    lr_mult: 2
    decay_mult: 0
  }
  convolution_param {
    num_output: 96
    kernel_size: 11
    stride: 4
    weight_filler {
      type: "gaussian"
      std: 0.01
    }
    bias_filler {
      type: "constant"
      value: 0
    }
    engine: MKL2017
  }
}
layer {
  name: "relu1"
  type: "ReLU"
  bottom: "conv1"
  top: "conv1"
  relu_param {
    engine: MKL2017
  }
}
layer {
  name: "norm1"
  type: "LRN"
  bottom: "conv1"
  top: "norm1"
  lrn_param {
    local_size: 5
    alpha: 0.0001
    beta: 0.75
    engine: MKL2017
  }
}
layer {
  name: "pool1"
  type: "Pooling"
  bottom: "norm1"
  top: "pool1"
  pooling_param {
    pool: MAX
    kernel_size: 3
    stride: 2
    engine: MKL2017
  }
}
layer {
  name: "conv2"
  type: "Convolution"
  bottom: "pool1"
  top: "conv2"
  param {
    lr_mult: 1
    decay_mult: 1
  }
  param {
    lr_mult: 2
    decay_mult: 0
  }
  convolution_param {
    num_output: 256
    pad: 2
    kernel_size: 5
    group: 2
    weight_filler {
      type: "gaussian"
      std: 0.01
    }
    bias_filler {
      type: "constant"
      value: 0.1
    }
    engine: MKL2017
  }
}
layer {
  name: "relu2"
  type: "ReLU"
  bottom: "conv2"
  top: "conv2"
  relu_param {
    engine: MKL2017
  }
}
layer {
  name: "norm2"
  type: "LRN"
  bottom: "conv2"
  top: "norm2"
  lrn_param {
    local_size: 5
    alpha: 0.0001
    beta: 0.75
    engine: MKL2017
  }
}
layer {
  name: "pool2"
  type: "Pooling"
  bottom: "norm2"
  top: "pool2"
  pooling_param {
    pool: MAX
    kernel_size: 3
    stride: 2
    engine: MKL2017
  }
}
layer {
  name: "conv3"
  type: "Convolution"
  bottom: "pool2"
  top: "conv3"
  param {
    lr_mult: 1
    decay_mult: 1
  }
  param {
    lr_mult: 2
    decay_mult: 0
  }
  convolution_param {
    num_output: 384
    pad: 1
    kernel_size: 3
    weight_filler {
      type: "gaussian"
      std: 0.01
    }
    bias_filler {
      type: "constant"
      value: 0
    }
    engine: MKL2017
  }
}
layer {
  name: "relu3"
  type: "ReLU"
  bottom: "conv3"
  top: "conv3"
  relu_param {
    engine: MKL2017
  }
}
layer {
  name: "conv4"
  type: "Convolution"
  bottom: "conv3"
  top: "conv4"
  param {
    lr_mult: 1
    decay_mult: 1
  }
  param {
    lr_mult: 2
    decay_mult: 0
  }
  convolution_param {
    num_output: 384
    pad: 1
    kernel_size: 3
    group: 2
    weight_filler {
      type: "gaussian"
      std: 0.01
    }
    bias_filler {
      type: "constant"
      value: 0.1
    }
    engine: MKL2017
  }
}
layer {
  name: "relu4"
  type: "ReLU"
  bottom: "conv4"
  top: "conv4"
  relu_param {
    engine: MKL2017
  }
}
layer {
  name: "conv5"
  type: "Convolution"
  bottom: "conv4"
  top: "conv5"
  param {
    lr_mult: 1
    decay_mult: 1
  }
  param {
    lr_mult: 2
    decay_mult: 0
  }
  convolution_param {
    num_output: 256
    pad: 1
    kernel_size: 3
    group: 2
    weight_filler {
      type: "gaussian"
      std: 0.01
    }
    bias_filler {
      type: "constant"
      value: 0.1
    }
    engine: MKL2017
  }
}
layer {
  name: "relu5"
  type: "ReLU"
  bottom: "conv5"
  top: "conv5"
  relu_param {
    engine: MKL2017
  }
}
layer {
  name: "pool5"
  type: "Pooling"
  bottom: "conv5"
  top: "pool5"
  pooling_param {
    pool: MAX
    kernel_size: 3
    stride: 2
    engine: MKL2017
  }
}
layer {
  name: "fc6"
  type: "InnerProduct"
  bottom: "pool5"
  top: "fc6"
  param {
    lr_mult: 1
    decay_mult: 1
  }
  param {
    lr_mult: 2
    decay_mult: 0
  }
  inner_product_param {
    num_output: 4096
    weight_filler {
      type: "gaussian"
      std: 0.005
    }
    bias_filler {
      type: "constant"
      value: 0.1
    }
  }
}
layer {
  name: "relu6"
  type: "ReLU"
  bottom: "fc6"
  top: "fc6"
}
layer {
  name: "drop6"
  type: "Dropout"
  bottom: "fc6"
  top: "fc6"
  dropout_param {
    dropout_ratio: 0.5
  }
}
layer {
  name: "fc7"
  type: "InnerProduct"
  bottom: "fc6"
  top: "fc7"
  param {
    lr_mult: 1
    decay_mult: 1
  }
  param {
    lr_mult: 2
    decay_mult: 0
  }
  inner_product_param {
    num_output: 4096
    weight_filler {
      type: "gaussian"
      std: 0.005
    }
    bias_filler {
      type: "constant"
      value: 0.1
    }
  }
}
layer {
  name: "relu7"
  type: "ReLU"
  bottom: "fc7"
  top: "fc7"
}
layer {
  name: "drop7"
  type: "Dropout"
  bottom: "fc7"
  top: "fc7"
  dropout_param {
    dropout_ratio: 0.5
  }
}
layer {
  name: "fc8"
  type: "InnerProduct"
  bottom: "fc7"
  top: "fc8"
  param {
    lr_mult: 1
    decay_mult: 1
  }
  param {
    lr_mult: 2
    decay_mult: 0
  }
  inner_product_param {
    num_output: 1000
    weight_filler {
      type: "gaussian"
      std: 0.01
    }
    bias_filler {
      type: "constant"
      value: 0
    }
  }
}
layer {
  name: "loss"
  type: "SoftmaxWithLoss"
  bottom: "fc8"
  bottom: "label"
  top: "loss"
}
I1108 22:55:11.446563 135237 layer_factory.hpp:114] Creating layer data
I1108 22:55:11.595515 135237 net.cpp:160] Creating Layer data
I1108 22:55:11.643731 135237 net.cpp:570] data -> data
I1108 22:55:12.109547 135237 net.cpp:570] data -> label
I1108 22:55:19.121134 135237 net.cpp:210] Setting up data
I1108 22:55:19.202081 135237 net.cpp:217] Top shape: 32 3 227 227 (4946784)
I1108 22:55:19.306342 135237 net.cpp:217] Top shape: 32 1 1 1 (32)
I1108 22:55:19.313642 135237 net.cpp:225] Memory required for data: 19787264
I1108 22:55:19.382900 135237 layer_factory.hpp:114] Creating layer conv1
I1108 22:55:19.711841 135237 net.cpp:160] Creating Layer conv1
I1108 22:55:19.761945 135237 net.cpp:596] conv1 <- data
I1108 22:55:19.880672 135237 net.cpp:570] conv1 -> conv1
I1108 22:55:52.451669 135237 net.cpp:210] Setting up conv1
I1108 22:55:52.458849 135237 net.cpp:217] Top shape: 32 96 55 55 (9292800)
I1108 22:55:52.459271 135237 net.cpp:225] Memory required for data: 56958464
I1108 22:55:52.740504 135237 layer_factory.hpp:114] Creating layer relu1
I1108 22:55:52.859885 135237 net.cpp:160] Creating Layer relu1
I1108 22:55:52.864418 135237 net.cpp:596] relu1 <- conv1
I1108 22:55:52.896556 135237 net.cpp:557] relu1 -> conv1 (in-place)
I1108 22:55:53.084704 135237 net.cpp:210] Setting up relu1
I1108 22:55:53.087167 135237 net.cpp:217] Top shape: 32 96 55 55 (9292800)
I1108 22:55:53.087539 135237 net.cpp:225] Memory required for data: 94129664
I1108 22:55:53.087759 135237 layer_factory.hpp:114] Creating layer norm1
I1108 22:55:53.191020 135237 net.cpp:160] Creating Layer norm1
I1108 22:55:53.191330 135237 net.cpp:596] norm1 <- conv1
I1108 22:55:53.193882 135237 net.cpp:570] norm1 -> norm1
I1108 22:55:53.419433 135237 net.cpp:210] Setting up norm1
I1108 22:55:53.432224 135237 net.cpp:217] Top shape: 32 96 55 55 (9292800)
I1108 22:55:53.432602 135237 net.cpp:225] Memory required for data: 131300864
I1108 22:55:53.432993 135237 layer_factory.hpp:114] Creating layer pool1
I1108 22:55:53.526024 135237 net.cpp:160] Creating Layer pool1
I1108 22:55:53.526330 135237 net.cpp:596] pool1 <- norm1
I1108 22:55:53.541268 135237 net.cpp:570] pool1 -> pool1
I1108 22:55:53.839143 135237 net.cpp:210] Setting up pool1
I1108 22:55:53.841620 135237 net.cpp:217] Top shape: 32 96 27 27 (2239488)
I1108 22:55:53.841974 135237 net.cpp:225] Memory required for data: 140258816
I1108 22:55:53.842200 135237 layer_factory.hpp:114] Creating layer conv2
I1108 22:55:53.842630 135237 net.cpp:160] Creating Layer conv2
I1108 22:55:53.842881 135237 net.cpp:596] conv2 <- pool1
I1108 22:55:53.843112 135237 net.cpp:570] conv2 -> conv2
I1108 22:55:59.561146 135237 net.cpp:210] Setting up conv2
I1108 22:55:59.561465 135237 net.cpp:217] Top shape: 32 256 27 27 (5971968)
I1108 22:55:59.561879 135237 net.cpp:225] Memory required for data: 164146688
I1108 22:55:59.612397 135237 layer_factory.hpp:114] Creating layer relu2
I1108 22:55:59.612838 135237 net.cpp:160] Creating Layer relu2
I1108 22:55:59.613157 135237 net.cpp:596] relu2 <- conv2
I1108 22:55:59.613440 135237 net.cpp:557] relu2 -> conv2 (in-place)
I1108 22:55:59.613900 135237 net.cpp:210] Setting up relu2
I1108 22:55:59.614174 135237 net.cpp:217] Top shape: 32 256 27 27 (5971968)
I1108 22:55:59.614423 135237 net.cpp:225] Memory required for data: 188034560
I1108 22:55:59.614625 135237 layer_factory.hpp:114] Creating layer norm2
I1108 22:55:59.614903 135237 net.cpp:160] Creating Layer norm2
I1108 22:55:59.615149 135237 net.cpp:596] norm2 <- conv2
I1108 22:55:59.615442 135237 net.cpp:570] norm2 -> norm2
I1108 22:55:59.617629 135237 net.cpp:210] Setting up norm2
I1108 22:55:59.617959 135237 net.cpp:217] Top shape: 32 256 27 27 (5971968)
I1108 22:55:59.618345 135237 net.cpp:225] Memory required for data: 211922432
I1108 22:55:59.618580 135237 layer_factory.hpp:114] Creating layer pool2
I1108 22:55:59.619398 135237 net.cpp:160] Creating Layer pool2
I1108 22:55:59.619678 135237 net.cpp:596] pool2 <- norm2
I1108 22:55:59.619920 135237 net.cpp:570] pool2 -> pool2
I1108 22:55:59.620360 135237 net.cpp:210] Setting up pool2
I1108 22:55:59.620725 135237 net.cpp:217] Top shape: 32 256 13 13 (1384448)
I1108 22:55:59.621099 135237 net.cpp:225] Memory required for data: 217460224
I1108 22:55:59.621404 135237 layer_factory.hpp:114] Creating layer conv3
I1108 22:55:59.621737 135237 net.cpp:160] Creating Layer conv3
I1108 22:55:59.621953 135237 net.cpp:596] conv3 <- pool2
I1108 22:55:59.622189 135237 net.cpp:570] conv3 -> conv3
I1108 22:56:00.101559 135237 net.cpp:210] Setting up conv3
I1108 22:56:00.103991 135237 net.cpp:217] Top shape: 32 384 13 13 (2076672)
I1108 22:56:00.104346 135237 net.cpp:225] Memory required for data: 225766912
I1108 22:56:00.107553 135237 layer_factory.hpp:114] Creating layer relu3
I1108 22:56:00.107964 135237 net.cpp:160] Creating Layer relu3
I1108 22:56:00.108224 135237 net.cpp:596] relu3 <- conv3
I1108 22:56:00.108479 135237 net.cpp:557] relu3 -> conv3 (in-place)
I1108 22:56:00.112715 135237 net.cpp:210] Setting up relu3
I1108 22:56:00.113111 135237 net.cpp:217] Top shape: 32 384 13 13 (2076672)
I1108 22:56:00.113420 135237 net.cpp:225] Memory required for data: 234073600
I1108 22:56:00.113628 135237 layer_factory.hpp:114] Creating layer conv4
I1108 22:56:00.113997 135237 net.cpp:160] Creating Layer conv4
I1108 22:56:00.114284 135237 net.cpp:596] conv4 <- conv3
I1108 22:56:00.114552 135237 net.cpp:570] conv4 -> conv4
I1108 22:56:00.354611 135237 net.cpp:210] Setting up conv4
I1108 22:56:00.354995 135237 net.cpp:217] Top shape: 32 384 13 13 (2076672)
I1108 22:56:00.355461 135237 net.cpp:225] Memory required for data: 242380288
I1108 22:56:00.355813 135237 layer_factory.hpp:114] Creating layer relu4
I1108 22:56:00.356112 135237 net.cpp:160] Creating Layer relu4
I1108 22:56:00.356343 135237 net.cpp:596] relu4 <- conv4
I1108 22:56:00.356590 135237 net.cpp:557] relu4 -> conv4 (in-place)
I1108 22:56:00.368942 135237 net.cpp:210] Setting up relu4
I1108 22:56:00.369284 135237 net.cpp:217] Top shape: 32 384 13 13 (2076672)
I1108 22:56:00.369690 135237 net.cpp:225] Memory required for data: 250686976
I1108 22:56:00.369909 135237 layer_factory.hpp:114] Creating layer conv5
I1108 22:56:00.370277 135237 net.cpp:160] Creating Layer conv5
I1108 22:56:00.370518 135237 net.cpp:596] conv5 <- conv4
I1108 22:56:00.370767 135237 net.cpp:570] conv5 -> conv5
I1108 22:56:00.566686 135237 net.cpp:210] Setting up conv5
I1108 22:56:00.567087 135237 net.cpp:217] Top shape: 32 256 13 13 (1384448)
I1108 22:56:00.567554 135237 net.cpp:225] Memory required for data: 256224768
I1108 22:56:00.572291 135237 layer_factory.hpp:114] Creating layer relu5
I1108 22:56:00.572710 135237 net.cpp:160] Creating Layer relu5
I1108 22:56:00.573040 135237 net.cpp:596] relu5 <- conv5
I1108 22:56:00.573366 135237 net.cpp:557] relu5 -> conv5 (in-place)
I1108 22:56:00.573837 135237 net.cpp:210] Setting up relu5
I1108 22:56:00.574131 135237 net.cpp:217] Top shape: 32 256 13 13 (1384448)
I1108 22:56:00.574390 135237 net.cpp:225] Memory required for data: 261762560
I1108 22:56:00.574610 135237 layer_factory.hpp:114] Creating layer pool5
I1108 22:56:00.574910 135237 net.cpp:160] Creating Layer pool5
I1108 22:56:00.575148 135237 net.cpp:596] pool5 <- conv5
I1108 22:56:00.575402 135237 net.cpp:570] pool5 -> pool5
I1108 22:56:00.575901 135237 net.cpp:210] Setting up pool5
I1108 22:56:00.576162 135237 net.cpp:217] Top shape: 32 256 6 6 (294912)
I1108 22:56:00.576396 135237 net.cpp:225] Memory required for data: 262942208
I1108 22:56:00.576584 135237 layer_factory.hpp:114] Creating layer fc6
I1108 22:56:00.631346 135237 net.cpp:160] Creating Layer fc6
I1108 22:56:00.631655 135237 net.cpp:596] fc6 <- pool5
I1108 22:56:00.632038 135237 net.cpp:570] fc6 -> fc6
I1108 22:56:04.727705 135237 net.cpp:210] Setting up fc6
I1108 22:56:04.728008 135237 net.cpp:217] Top shape: 32 4096 (131072)
I1108 22:56:04.730059 135237 net.cpp:225] Memory required for data: 263466496
I1108 22:56:04.730372 135237 layer_factory.hpp:114] Creating layer relu6
I1108 22:56:04.732874 135237 net.cpp:160] Creating Layer relu6
I1108 22:56:04.733173 135237 net.cpp:596] relu6 <- fc6
I1108 22:56:04.733407 135237 net.cpp:557] relu6 -> fc6 (in-place)
I1108 22:56:04.733836 135237 net.cpp:210] Setting up relu6
I1108 22:56:04.734089 135237 net.cpp:217] Top shape: 32 4096 (131072)
I1108 22:56:04.734365 135237 net.cpp:225] Memory required for data: 263990784
I1108 22:56:04.734571 135237 layer_factory.hpp:114] Creating layer drop6
I1108 22:56:04.754423 135237 net.cpp:160] Creating Layer drop6
I1108 22:56:04.754725 135237 net.cpp:596] drop6 <- fc6
I1108 22:56:04.755097 135237 net.cpp:557] drop6 -> fc6 (in-place)
I1108 22:56:04.858238 135237 net.cpp:210] Setting up drop6
I1108 22:56:04.858531 135237 net.cpp:217] Top shape: 32 4096 (131072)
I1108 22:56:04.858876 135237 net.cpp:225] Memory required for data: 264515072
I1108 22:56:04.859127 135237 layer_factory.hpp:114] Creating layer fc7
I1108 22:56:04.859405 135237 net.cpp:160] Creating Layer fc7
I1108 22:56:04.859622 135237 net.cpp:596] fc7 <- fc6
I1108 22:56:04.860010 135237 net.cpp:570] fc7 -> fc7
I1108 22:56:06.573959 135237 net.cpp:210] Setting up fc7
I1108 22:56:06.574383 135237 net.cpp:217] Top shape: 32 4096 (131072)
I1108 22:56:06.574797 135237 net.cpp:225] Memory required for data: 265039360
I1108 22:56:06.575109 135237 layer_factory.hpp:114] Creating layer relu7
I1108 22:56:06.575417 135237 net.cpp:160] Creating Layer relu7
I1108 22:56:06.575644 135237 net.cpp:596] relu7 <- fc7
I1108 22:56:06.575881 135237 net.cpp:557] relu7 -> fc7 (in-place)
I1108 22:56:06.576310 135237 net.cpp:210] Setting up relu7
I1108 22:56:06.576582 135237 net.cpp:217] Top shape: 32 4096 (131072)
I1108 22:56:06.576890 135237 net.cpp:225] Memory required for data: 265563648
I1108 22:56:06.577105 135237 layer_factory.hpp:114] Creating layer drop7
I1108 22:56:06.577349 135237 net.cpp:160] Creating Layer drop7
I1108 22:56:06.577554 135237 net.cpp:596] drop7 <- fc7
I1108 22:56:06.577827 135237 net.cpp:557] drop7 -> fc7 (in-place)
I1108 22:56:06.578088 135237 net.cpp:210] Setting up drop7
I1108 22:56:06.578285 135237 net.cpp:217] Top shape: 32 4096 (131072)
I1108 22:56:06.578497 135237 net.cpp:225] Memory required for data: 266087936
I1108 22:56:06.578677 135237 layer_factory.hpp:114] Creating layer fc8
I1108 22:56:06.578922 135237 net.cpp:160] Creating Layer fc8
I1108 22:56:06.579110 135237 net.cpp:596] fc8 <- fc7
I1108 22:56:06.579329 135237 net.cpp:570] fc8 -> fc8
I1108 22:56:07.002564 135237 net.cpp:210] Setting up fc8
I1108 22:56:07.006983 135237 net.cpp:217] Top shape: 32 1000 (32000)
I1108 22:56:07.007395 135237 net.cpp:225] Memory required for data: 266215936
I1108 22:56:07.007730 135237 layer_factory.hpp:114] Creating layer loss
I1108 22:56:07.032042 135237 net.cpp:160] Creating Layer loss
I1108 22:56:07.032354 135237 net.cpp:596] loss <- fc8
I1108 22:56:07.033393 135237 net.cpp:596] loss <- label
I1108 22:56:07.060539 135237 net.cpp:570] loss -> loss
I1108 22:56:07.098253 135237 layer_factory.hpp:114] Creating layer loss
…
