…
I1109 03:19:45.984994 144743 net.cpp:484] The NetState phase (0) differed from the phase (1) specified by a rule in layer accuracy
I1109 03:19:46.613996 144743 net.cpp:120] Initializing net from parameters: 
name: "AlexNet"
state {
  phase: TRAIN
  level: 0
  stage: ""
}
layer {
  name: "data"
  type: "DummyData"
  top: "data"
  top: "label"
  include {
    phase: TRAIN
  }
  dummy_data_param {
    data_filler {
      type: "gaussian"
      std: 1
    }
    data_filler {
      type: "constant"
      value: 0
    }
    shape {
      dim: 32
      dim: 3
      dim: 227
      dim: 227
    }
    shape {
      dim: 32
      dim: 1
      dim: 1
      dim: 1
    }
  }
}
layer {
  name: "conv1"
  type: "Convolution"
  bottom: "data"
  top: "conv1"
  param {
    lr_mult: 1
    decay_mult: 1
  }
  param {
    lr_mult: 2
    decay_mult: 0
  }
  convolution_param {
    num_output: 96
    kernel_size: 11
    stride: 4
    weight_filler {
      type: "gaussian"
      std: 0.01
    }
    bias_filler {
      type: "constant"
      value: 0
    }
    engine: MKL2017
  }
}
layer {
  name: "relu1"
  type: "ReLU"
  bottom: "conv1"
  top: "conv1"
  relu_param {
    engine: MKL2017
  }
}
layer {
  name: "norm1"
  type: "LRN"
  bottom: "conv1"
  top: "norm1"
  lrn_param {
    local_size: 5
    alpha: 0.0001
    beta: 0.75
    engine: MKL2017
  }
}
layer {
  name: "pool1"
  type: "Pooling"
  bottom: "norm1"
  top: "pool1"
  pooling_param {
    pool: MAX
    kernel_size: 3
    stride: 2
    engine: MKL2017
  }
}
layer {
  name: "conv2"
  type: "Convolution"
  bottom: "pool1"
  top: "conv2"
  param {
    lr_mult: 1
    decay_mult: 1
  }
  param {
    lr_mult: 2
    decay_mult: 0
  }
  convolution_param {
    num_output: 256
    pad: 2
    kernel_size: 5
    group: 2
    weight_filler {
      type: "gaussian"
      std: 0.01
    }
    bias_filler {
      type: "constant"
      value: 0.1
    }
    engine: MKL2017
  }
}
layer {
  name: "relu2"
  type: "ReLU"
  bottom: "conv2"
  top: "conv2"
  relu_param {
    engine: MKL2017
  }
}
layer {
  name: "norm2"
  type: "LRN"
  bottom: "conv2"
  top: "norm2"
  lrn_param {
    local_size: 5
    alpha: 0.0001
    beta: 0.75
    engine: MKL2017
  }
}
layer {
  name: "pool2"
  type: "Pooling"
  bottom: "norm2"
  top: "pool2"
  pooling_param {
    pool: MAX
    kernel_size: 3
    stride: 2
    engine: MKL2017
  }
}
layer {
  name: "conv3"
  type: "Convolution"
  bottom: "pool2"
  top: "conv3"
  param {
    lr_mult: 1
    decay_mult: 1
  }
  param {
    lr_mult: 2
    decay_mult: 0
  }
  convolution_param {
    num_output: 384
    pad: 1
    kernel_size: 3
    weight_filler {
      type: "gaussian"
      std: 0.01
    }
    bias_filler {
      type: "constant"
      value: 0
    }
    engine: MKL2017
  }
}
layer {
  name: "relu3"
  type: "ReLU"
  bottom: "conv3"
  top: "conv3"
  relu_param {
    engine: MKL2017
  }
}
layer {
  name: "conv4"
  type: "Convolution"
  bottom: "conv3"
  top: "conv4"
  param {
    lr_mult: 1
    decay_mult: 1
  }
  param {
    lr_mult: 2
    decay_mult: 0
  }
  convolution_param {
    num_output: 384
    pad: 1
    kernel_size: 3
    group: 2
    weight_filler {
      type: "gaussian"
      std: 0.01
    }
    bias_filler {
      type: "constant"
      value: 0.1
    }
    engine: MKL2017
  }
}
layer {
  name: "relu4"
  type: "ReLU"
  bottom: "conv4"
  top: "conv4"
  relu_param {
    engine: MKL2017
  }
}
layer {
  name: "conv5"
  type: "Convolution"
  bottom: "conv4"
  top: "conv5"
  param {
    lr_mult: 1
    decay_mult: 1
  }
  param {
    lr_mult: 2
    decay_mult: 0
  }
  convolution_param {
    num_output: 256
    pad: 1
    kernel_size: 3
    group: 2
    weight_filler {
      type: "gaussian"
      std: 0.01
    }
    bias_filler {
      type: "constant"
      value: 0.1
    }
    engine: MKL2017
  }
}
layer {
  name: "relu5"
  type: "ReLU"
  bottom: "conv5"
  top: "conv5"
  relu_param {
    engine: MKL2017
  }
}
layer {
  name: "pool5"
  type: "Pooling"
  bottom: "conv5"
  top: "pool5"
  pooling_param {
    pool: MAX
    kernel_size: 3
    stride: 2
    engine: MKL2017
  }
}
layer {
  name: "fc6"
  type: "InnerProduct"
  bottom: "pool5"
  top: "fc6"
  param {
    lr_mult: 1
    decay_mult: 1
  }
  param {
    lr_mult: 2
    decay_mult: 0
  }
  inner_product_param {
    num_output: 4096
    weight_filler {
      type: "gaussian"
      std: 0.005
    }
    bias_filler {
      type: "constant"
      value: 0.1
    }
  }
}
layer {
  name: "relu6"
  type: "ReLU"
  bottom: "fc6"
  top: "fc6"
}
layer {
  name: "drop6"
  type: "Dropout"
  bottom: "fc6"
  top: "fc6"
  dropout_param {
    dropout_ratio: 0.5
  }
}
layer {
  name: "fc7"
  type: "InnerProduct"
  bottom: "fc6"
  top: "fc7"
  param {
    lr_mult: 1
    decay_mult: 1
  }
  param {
    lr_mult: 2
    decay_mult: 0
  }
  inner_product_param {
    num_output: 4096
    weight_filler {
      type: "gaussian"
      std: 0.005
    }
    bias_filler {
      type: "constant"
      value: 0.1
    }
  }
}
layer {
  name: "relu7"
  type: "ReLU"
  bottom: "fc7"
  top: "fc7"
}
layer {
  name: "drop7"
  type: "Dropout"
  bottom: "fc7"
  top: "fc7"
  dropout_param {
    dropout_ratio: 0.5
  }
}
layer {
  name: "fc8"
  type: "InnerProduct"
  bottom: "fc7"
  top: "fc8"
  param {
    lr_mult: 1
    decay_mult: 1
  }
  param {
    lr_mult: 2
    decay_mult: 0
  }
  inner_product_param {
    num_output: 1000
    weight_filler {
      type: "gaussian"
      std: 0.01
    }
    bias_filler {
      type: "constant"
      value: 0
    }
  }
}
layer {
  name: "loss"
  type: "SoftmaxWithLoss"
  bottom: "fc8"
  bottom: "label"
  top: "loss"
}
I1109 03:19:49.059994 144743 layer_factory.hpp:114] Creating layer data
I1109 03:19:49.209563 144743 net.cpp:160] Creating Layer data
I1109 03:19:49.258191 144743 net.cpp:570] data -> data
I1109 03:19:49.721678 144743 net.cpp:570] data -> label
I1109 03:19:56.742799 144743 net.cpp:210] Setting up data
I1109 03:19:56.822649 144743 net.cpp:217] Top shape: 32 3 227 227 (4946784)
I1109 03:19:56.927377 144743 net.cpp:217] Top shape: 32 1 1 1 (32)
I1109 03:19:56.934571 144743 net.cpp:225] Memory required for data: 19787264
I1109 03:19:57.002116 144743 layer_factory.hpp:114] Creating layer conv1
I1109 03:19:57.335938 144743 net.cpp:160] Creating Layer conv1
I1109 03:19:57.386548 144743 net.cpp:596] conv1 <- data
I1109 03:19:57.506227 144743 net.cpp:570] conv1 -> conv1
I1109 03:20:30.210557 144743 net.cpp:210] Setting up conv1
I1109 03:20:30.216878 144743 net.cpp:217] Top shape: 32 96 55 55 (9292800)
I1109 03:20:30.217260 144743 net.cpp:225] Memory required for data: 56958464
I1109 03:20:30.495723 144743 layer_factory.hpp:114] Creating layer relu1
I1109 03:20:30.616695 144743 net.cpp:160] Creating Layer relu1
I1109 03:20:30.621390 144743 net.cpp:596] relu1 <- conv1
I1109 03:20:30.654727 144743 net.cpp:557] relu1 -> conv1 (in-place)
I1109 03:20:30.842578 144743 net.cpp:210] Setting up relu1
I1109 03:20:30.845059 144743 net.cpp:217] Top shape: 32 96 55 55 (9292800)
I1109 03:20:30.845410 144743 net.cpp:225] Memory required for data: 94129664
I1109 03:20:30.845619 144743 layer_factory.hpp:114] Creating layer norm1
I1109 03:20:30.949838 144743 net.cpp:160] Creating Layer norm1
I1109 03:20:30.950162 144743 net.cpp:596] norm1 <- conv1
I1109 03:20:30.952828 144743 net.cpp:570] norm1 -> norm1
I1109 03:20:31.174656 144743 net.cpp:210] Setting up norm1
I1109 03:20:31.187371 144743 net.cpp:217] Top shape: 32 96 55 55 (9292800)
I1109 03:20:31.187757 144743 net.cpp:225] Memory required for data: 131300864
I1109 03:20:31.188091 144743 layer_factory.hpp:114] Creating layer pool1
I1109 03:20:31.280825 144743 net.cpp:160] Creating Layer pool1
I1109 03:20:31.281146 144743 net.cpp:596] pool1 <- norm1
I1109 03:20:31.295872 144743 net.cpp:570] pool1 -> pool1
I1109 03:20:31.598933 144743 net.cpp:210] Setting up pool1
I1109 03:20:31.601460 144743 net.cpp:217] Top shape: 32 96 27 27 (2239488)
I1109 03:20:31.601836 144743 net.cpp:225] Memory required for data: 140258816
I1109 03:20:31.602068 144743 layer_factory.hpp:114] Creating layer conv2
I1109 03:20:31.602525 144743 net.cpp:160] Creating Layer conv2
I1109 03:20:31.602754 144743 net.cpp:596] conv2 <- pool1
I1109 03:20:31.602991 144743 net.cpp:570] conv2 -> conv2
I1109 03:20:37.345774 144743 net.cpp:210] Setting up conv2
I1109 03:20:37.346096 144743 net.cpp:217] Top shape: 32 256 27 27 (5971968)
I1109 03:20:37.346487 144743 net.cpp:225] Memory required for data: 164146688
I1109 03:20:37.397337 144743 layer_factory.hpp:114] Creating layer relu2
I1109 03:20:37.397745 144743 net.cpp:160] Creating Layer relu2
I1109 03:20:37.398123 144743 net.cpp:596] relu2 <- conv2
I1109 03:20:37.398406 144743 net.cpp:557] relu2 -> conv2 (in-place)
I1109 03:20:37.398869 144743 net.cpp:210] Setting up relu2
I1109 03:20:37.399142 144743 net.cpp:217] Top shape: 32 256 27 27 (5971968)
I1109 03:20:37.399392 144743 net.cpp:225] Memory required for data: 188034560
I1109 03:20:37.399595 144743 layer_factory.hpp:114] Creating layer norm2
I1109 03:20:37.399844 144743 net.cpp:160] Creating Layer norm2
I1109 03:20:37.400049 144743 net.cpp:596] norm2 <- conv2
I1109 03:20:37.400316 144743 net.cpp:570] norm2 -> norm2
I1109 03:20:37.402423 144743 net.cpp:210] Setting up norm2
I1109 03:20:37.402751 144743 net.cpp:217] Top shape: 32 256 27 27 (5971968)
I1109 03:20:37.403003 144743 net.cpp:225] Memory required for data: 211922432
I1109 03:20:37.403201 144743 layer_factory.hpp:114] Creating layer pool2
I1109 03:20:37.404091 144743 net.cpp:160] Creating Layer pool2
I1109 03:20:37.404399 144743 net.cpp:596] pool2 <- norm2
I1109 03:20:37.404661 144743 net.cpp:570] pool2 -> pool2
I1109 03:20:37.405138 144743 net.cpp:210] Setting up pool2
I1109 03:20:37.405416 144743 net.cpp:217] Top shape: 32 256 13 13 (1384448)
I1109 03:20:37.405710 144743 net.cpp:225] Memory required for data: 217460224
I1109 03:20:37.405949 144743 layer_factory.hpp:114] Creating layer conv3
I1109 03:20:37.406376 144743 net.cpp:160] Creating Layer conv3
I1109 03:20:37.406750 144743 net.cpp:596] conv3 <- pool2
I1109 03:20:37.407055 144743 net.cpp:570] conv3 -> conv3
I1109 03:20:37.860918 144743 net.cpp:210] Setting up conv3
I1109 03:20:37.863327 144743 net.cpp:217] Top shape: 32 384 13 13 (2076672)
I1109 03:20:37.863688 144743 net.cpp:225] Memory required for data: 225766912
I1109 03:20:37.866817 144743 layer_factory.hpp:114] Creating layer relu3
I1109 03:20:37.867280 144743 net.cpp:160] Creating Layer relu3
I1109 03:20:37.867547 144743 net.cpp:596] relu3 <- conv3
I1109 03:20:37.867861 144743 net.cpp:557] relu3 -> conv3 (in-place)
I1109 03:20:37.872124 144743 net.cpp:210] Setting up relu3
I1109 03:20:37.872442 144743 net.cpp:217] Top shape: 32 384 13 13 (2076672)
I1109 03:20:37.872740 144743 net.cpp:225] Memory required for data: 234073600
I1109 03:20:37.873011 144743 layer_factory.hpp:114] Creating layer conv4
I1109 03:20:37.873457 144743 net.cpp:160] Creating Layer conv4
I1109 03:20:37.873745 144743 net.cpp:596] conv4 <- conv3
I1109 03:20:37.873996 144743 net.cpp:570] conv4 -> conv4
I1109 03:20:38.116273 144743 net.cpp:210] Setting up conv4
I1109 03:20:38.116665 144743 net.cpp:217] Top shape: 32 384 13 13 (2076672)
I1109 03:20:38.117108 144743 net.cpp:225] Memory required for data: 242380288
I1109 03:20:38.117447 144743 layer_factory.hpp:114] Creating layer relu4
I1109 03:20:38.117766 144743 net.cpp:160] Creating Layer relu4
I1109 03:20:38.118016 144743 net.cpp:596] relu4 <- conv4
I1109 03:20:38.118270 144743 net.cpp:557] relu4 -> conv4 (in-place)
I1109 03:20:38.130563 144743 net.cpp:210] Setting up relu4
I1109 03:20:38.130914 144743 net.cpp:217] Top shape: 32 384 13 13 (2076672)
I1109 03:20:38.131332 144743 net.cpp:225] Memory required for data: 250686976
I1109 03:20:38.131559 144743 layer_factory.hpp:114] Creating layer conv5
I1109 03:20:38.131933 144743 net.cpp:160] Creating Layer conv5
I1109 03:20:38.132187 144743 net.cpp:596] conv5 <- conv4
I1109 03:20:38.132448 144743 net.cpp:570] conv5 -> conv5
I1109 03:20:38.327566 144743 net.cpp:210] Setting up conv5
I1109 03:20:38.327966 144743 net.cpp:217] Top shape: 32 256 13 13 (1384448)
I1109 03:20:38.328429 144743 net.cpp:225] Memory required for data: 256224768
I1109 03:20:38.333340 144743 layer_factory.hpp:114] Creating layer relu5
I1109 03:20:38.333768 144743 net.cpp:160] Creating Layer relu5
I1109 03:20:38.334131 144743 net.cpp:596] relu5 <- conv5
I1109 03:20:38.334419 144743 net.cpp:557] relu5 -> conv5 (in-place)
I1109 03:20:38.334890 144743 net.cpp:210] Setting up relu5
I1109 03:20:38.335191 144743 net.cpp:217] Top shape: 32 256 13 13 (1384448)
I1109 03:20:38.335456 144743 net.cpp:225] Memory required for data: 261762560
I1109 03:20:38.335675 144743 layer_factory.hpp:114] Creating layer pool5
I1109 03:20:38.335985 144743 net.cpp:160] Creating Layer pool5
I1109 03:20:38.336228 144743 net.cpp:596] pool5 <- conv5
I1109 03:20:38.336496 144743 net.cpp:570] pool5 -> pool5
I1109 03:20:38.336949 144743 net.cpp:210] Setting up pool5
I1109 03:20:38.337229 144743 net.cpp:217] Top shape: 32 256 6 6 (294912)
I1109 03:20:38.337465 144743 net.cpp:225] Memory required for data: 262942208
I1109 03:20:38.337649 144743 layer_factory.hpp:114] Creating layer fc6
I1109 03:20:38.392570 144743 net.cpp:160] Creating Layer fc6
I1109 03:20:38.392923 144743 net.cpp:596] fc6 <- pool5
I1109 03:20:38.393308 144743 net.cpp:570] fc6 -> fc6
I1109 03:20:42.481976 144743 net.cpp:210] Setting up fc6
I1109 03:20:42.482286 144743 net.cpp:217] Top shape: 32 4096 (131072)
I1109 03:20:42.484357 144743 net.cpp:225] Memory required for data: 263466496
I1109 03:20:42.484676 144743 layer_factory.hpp:114] Creating layer relu6
I1109 03:20:42.487259 144743 net.cpp:160] Creating Layer relu6
I1109 03:20:42.487563 144743 net.cpp:596] relu6 <- fc6
I1109 03:20:42.487800 144743 net.cpp:557] relu6 -> fc6 (in-place)
I1109 03:20:42.488225 144743 net.cpp:210] Setting up relu6
I1109 03:20:42.488515 144743 net.cpp:217] Top shape: 32 4096 (131072)
I1109 03:20:42.488757 144743 net.cpp:225] Memory required for data: 263990784
I1109 03:20:42.489002 144743 layer_factory.hpp:114] Creating layer drop6
I1109 03:20:42.509171 144743 net.cpp:160] Creating Layer drop6
I1109 03:20:42.509474 144743 net.cpp:596] drop6 <- fc6
I1109 03:20:42.509848 144743 net.cpp:557] drop6 -> fc6 (in-place)
I1109 03:20:42.612927 144743 net.cpp:210] Setting up drop6
I1109 03:20:42.613225 144743 net.cpp:217] Top shape: 32 4096 (131072)
I1109 03:20:42.613571 144743 net.cpp:225] Memory required for data: 264515072
I1109 03:20:42.613819 144743 layer_factory.hpp:114] Creating layer fc7
I1109 03:20:42.614089 144743 net.cpp:160] Creating Layer fc7
I1109 03:20:42.614302 144743 net.cpp:596] fc7 <- fc6
I1109 03:20:42.614696 144743 net.cpp:570] fc7 -> fc7
I1109 03:20:44.327220 144743 net.cpp:210] Setting up fc7
I1109 03:20:44.327580 144743 net.cpp:217] Top shape: 32 4096 (131072)
I1109 03:20:44.327989 144743 net.cpp:225] Memory required for data: 265039360
I1109 03:20:44.328337 144743 layer_factory.hpp:114] Creating layer relu7
I1109 03:20:44.328656 144743 net.cpp:160] Creating Layer relu7
I1109 03:20:44.328961 144743 net.cpp:596] relu7 <- fc7
I1109 03:20:44.329226 144743 net.cpp:557] relu7 -> fc7 (in-place)
I1109 03:20:44.329668 144743 net.cpp:210] Setting up relu7
I1109 03:20:44.329949 144743 net.cpp:217] Top shape: 32 4096 (131072)
I1109 03:20:44.330224 144743 net.cpp:225] Memory required for data: 265563648
I1109 03:20:44.330431 144743 layer_factory.hpp:114] Creating layer drop7
I1109 03:20:44.330678 144743 net.cpp:160] Creating Layer drop7
I1109 03:20:44.330893 144743 net.cpp:596] drop7 <- fc7
I1109 03:20:44.331156 144743 net.cpp:557] drop7 -> fc7 (in-place)
I1109 03:20:44.331421 144743 net.cpp:210] Setting up drop7
I1109 03:20:44.331624 144743 net.cpp:217] Top shape: 32 4096 (131072)
I1109 03:20:44.331838 144743 net.cpp:225] Memory required for data: 266087936
I1109 03:20:44.332018 144743 layer_factory.hpp:114] Creating layer fc8
I1109 03:20:44.332264 144743 net.cpp:160] Creating Layer fc8
I1109 03:20:44.332465 144743 net.cpp:596] fc8 <- fc7
I1109 03:20:44.332693 144743 net.cpp:570] fc8 -> fc8
I1109 03:20:44.754277 144743 net.cpp:210] Setting up fc8
I1109 03:20:44.754632 144743 net.cpp:217] Top shape: 32 1000 (32000)
I1109 03:20:44.755022 144743 net.cpp:225] Memory required for data: 266215936
I1109 03:20:44.755354 144743 layer_factory.hpp:114] Creating layer loss
I1109 03:20:44.779933 144743 net.cpp:160] Creating Layer loss
I1109 03:20:44.780253 144743 net.cpp:596] loss <- fc8
I1109 03:20:44.781204 144743 net.cpp:596] loss <- label
I1109 03:20:44.808743 144743 net.cpp:570] loss -> loss
I1109 03:20:44.846601 144743 layer_factory.hpp:114] Creating layer loss
…
