…
I1108 23:38:58.945243 136316 net.cpp:484] The NetState phase (0) differed from the phase (1) specified by a rule in layer accuracy
I1108 23:38:59.579664 136316 net.cpp:120] Initializing net from parameters: 
name: "AlexNet"
state {
  phase: TRAIN
  level: 0
  stage: ""
}
layer {
  name: "data"
  type: "DummyData"
  top: "data"
  top: "label"
  include {
    phase: TRAIN
  }
  dummy_data_param {
    data_filler {
      type: "gaussian"
      std: 1
    }
    data_filler {
      type: "constant"
      value: 0
    }
    shape {
      dim: 32
      dim: 3
      dim: 227
      dim: 227
    }
    shape {
      dim: 32
      dim: 1
      dim: 1
      dim: 1
    }
  }
}
layer {
  name: "conv1"
  type: "Convolution"
  bottom: "data"
  top: "conv1"
  param {
    lr_mult: 1
    decay_mult: 1
  }
  param {
    lr_mult: 2
    decay_mult: 0
  }
  convolution_param {
    num_output: 96
    kernel_size: 11
    stride: 4
    weight_filler {
      type: "gaussian"
      std: 0.01
    }
    bias_filler {
      type: "constant"
      value: 0
    }
    engine: MKL2017
  }
}
layer {
  name: "relu1"
  type: "ReLU"
  bottom: "conv1"
  top: "conv1"
  relu_param {
    engine: MKL2017
  }
}
layer {
  name: "norm1"
  type: "LRN"
  bottom: "conv1"
  top: "norm1"
  lrn_param {
    local_size: 5
    alpha: 0.0001
    beta: 0.75
    engine: MKL2017
  }
}
layer {
  name: "pool1"
  type: "Pooling"
  bottom: "norm1"
  top: "pool1"
  pooling_param {
    pool: MAX
    kernel_size: 3
    stride: 2
    engine: MKL2017
  }
}
layer {
  name: "conv2"
  type: "Convolution"
  bottom: "pool1"
  top: "conv2"
  param {
    lr_mult: 1
    decay_mult: 1
  }
  param {
    lr_mult: 2
    decay_mult: 0
  }
  convolution_param {
    num_output: 256
    pad: 2
    kernel_size: 5
    group: 2
    weight_filler {
      type: "gaussian"
      std: 0.01
    }
    bias_filler {
      type: "constant"
      value: 0.1
    }
    engine: MKL2017
  }
}
layer {
  name: "relu2"
  type: "ReLU"
  bottom: "conv2"
  top: "conv2"
  relu_param {
    engine: MKL2017
  }
}
layer {
  name: "norm2"
  type: "LRN"
  bottom: "conv2"
  top: "norm2"
  lrn_param {
    local_size: 5
    alpha: 0.0001
    beta: 0.75
    engine: MKL2017
  }
}
layer {
  name: "pool2"
  type: "Pooling"
  bottom: "norm2"
  top: "pool2"
  pooling_param {
    pool: MAX
    kernel_size: 3
    stride: 2
    engine: MKL2017
  }
}
layer {
  name: "conv3"
  type: "Convolution"
  bottom: "pool2"
  top: "conv3"
  param {
    lr_mult: 1
    decay_mult: 1
  }
  param {
    lr_mult: 2
    decay_mult: 0
  }
  convolution_param {
    num_output: 384
    pad: 1
    kernel_size: 3
    weight_filler {
      type: "gaussian"
      std: 0.01
    }
    bias_filler {
      type: "constant"
      value: 0
    }
    engine: MKL2017
  }
}
layer {
  name: "relu3"
  type: "ReLU"
  bottom: "conv3"
  top: "conv3"
  relu_param {
    engine: MKL2017
  }
}
layer {
  name: "conv4"
  type: "Convolution"
  bottom: "conv3"
  top: "conv4"
  param {
    lr_mult: 1
    decay_mult: 1
  }
  param {
    lr_mult: 2
    decay_mult: 0
  }
  convolution_param {
    num_output: 384
    pad: 1
    kernel_size: 3
    group: 2
    weight_filler {
      type: "gaussian"
      std: 0.01
    }
    bias_filler {
      type: "constant"
      value: 0.1
    }
    engine: MKL2017
  }
}
layer {
  name: "relu4"
  type: "ReLU"
  bottom: "conv4"
  top: "conv4"
  relu_param {
    engine: MKL2017
  }
}
layer {
  name: "conv5"
  type: "Convolution"
  bottom: "conv4"
  top: "conv5"
  param {
    lr_mult: 1
    decay_mult: 1
  }
  param {
    lr_mult: 2
    decay_mult: 0
  }
  convolution_param {
    num_output: 256
    pad: 1
    kernel_size: 3
    group: 2
    weight_filler {
      type: "gaussian"
      std: 0.01
    }
    bias_filler {
      type: "constant"
      value: 0.1
    }
    engine: MKL2017
  }
}
layer {
  name: "relu5"
  type: "ReLU"
  bottom: "conv5"
  top: "conv5"
  relu_param {
    engine: MKL2017
  }
}
layer {
  name: "pool5"
  type: "Pooling"
  bottom: "conv5"
  top: "pool5"
  pooling_param {
    pool: MAX
    kernel_size: 3
    stride: 2
    engine: MKL2017
  }
}
layer {
  name: "fc6"
  type: "InnerProduct"
  bottom: "pool5"
  top: "fc6"
  param {
    lr_mult: 1
    decay_mult: 1
  }
  param {
    lr_mult: 2
    decay_mult: 0
  }
  inner_product_param {
    num_output: 4096
    weight_filler {
      type: "gaussian"
      std: 0.005
    }
    bias_filler {
      type: "constant"
      value: 0.1
    }
  }
}
layer {
  name: "relu6"
  type: "ReLU"
  bottom: "fc6"
  top: "fc6"
}
layer {
  name: "drop6"
  type: "Dropout"
  bottom: "fc6"
  top: "fc6"
  dropout_param {
    dropout_ratio: 0.5
  }
}
layer {
  name: "fc7"
  type: "InnerProduct"
  bottom: "fc6"
  top: "fc7"
  param {
    lr_mult: 1
    decay_mult: 1
  }
  param {
    lr_mult: 2
    decay_mult: 0
  }
  inner_product_param {
    num_output: 4096
    weight_filler {
      type: "gaussian"
      std: 0.005
    }
    bias_filler {
      type: "constant"
      value: 0.1
    }
  }
}
layer {
  name: "relu7"
  type: "ReLU"
  bottom: "fc7"
  top: "fc7"
}
layer {
  name: "drop7"
  type: "Dropout"
  bottom: "fc7"
  top: "fc7"
  dropout_param {
    dropout_ratio: 0.5
  }
}
layer {
  name: "fc8"
  type: "InnerProduct"
  bottom: "fc7"
  top: "fc8"
  param {
    lr_mult: 1
    decay_mult: 1
  }
  param {
    lr_mult: 2
    decay_mult: 0
  }
  inner_product_param {
    num_output: 1000
    weight_filler {
      type: "gaussian"
      std: 0.01
    }
    bias_filler {
      type: "constant"
      value: 0
    }
  }
}
layer {
  name: "loss"
  type: "SoftmaxWithLoss"
  bottom: "fc8"
  bottom: "label"
  top: "loss"
}
I1108 23:39:02.019531 136316 layer_factory.hpp:114] Creating layer data
I1108 23:39:02.165750 136316 net.cpp:160] Creating Layer data
I1108 23:39:02.214783 136316 net.cpp:570] data -> data
I1108 23:39:02.677785 136316 net.cpp:570] data -> label
I1108 23:39:09.677114 136316 net.cpp:210] Setting up data
I1108 23:39:09.757635 136316 net.cpp:217] Top shape: 32 3 227 227 (4946784)
I1108 23:39:09.861387 136316 net.cpp:217] Top shape: 32 1 1 1 (32)
I1108 23:39:09.868643 136316 net.cpp:225] Memory required for data: 19787264
I1108 23:39:09.937053 136316 layer_factory.hpp:114] Creating layer conv1
I1108 23:39:10.263151 136316 net.cpp:160] Creating Layer conv1
I1108 23:39:10.315088 136316 net.cpp:596] conv1 <- data
I1108 23:39:10.436343 136316 net.cpp:570] conv1 -> conv1
I1108 23:39:43.213452 136316 net.cpp:210] Setting up conv1
I1108 23:39:43.220305 136316 net.cpp:217] Top shape: 32 96 55 55 (9292800)
I1108 23:39:43.220705 136316 net.cpp:225] Memory required for data: 56958464
I1108 23:39:43.500033 136316 layer_factory.hpp:114] Creating layer relu1
I1108 23:39:43.624229 136316 net.cpp:160] Creating Layer relu1
I1108 23:39:43.628837 136316 net.cpp:596] relu1 <- conv1
I1108 23:39:43.662266 136316 net.cpp:557] relu1 -> conv1 (in-place)
I1108 23:39:43.850898 136316 net.cpp:210] Setting up relu1
I1108 23:39:43.853409 136316 net.cpp:217] Top shape: 32 96 55 55 (9292800)
I1108 23:39:43.853751 136316 net.cpp:225] Memory required for data: 94129664
I1108 23:39:43.854001 136316 layer_factory.hpp:114] Creating layer norm1
I1108 23:39:43.960044 136316 net.cpp:160] Creating Layer norm1
I1108 23:39:43.960361 136316 net.cpp:596] norm1 <- conv1
I1108 23:39:43.962939 136316 net.cpp:570] norm1 -> norm1
I1108 23:39:44.184597 136316 net.cpp:210] Setting up norm1
I1108 23:39:44.197469 136316 net.cpp:217] Top shape: 32 96 55 55 (9292800)
I1108 23:39:44.197839 136316 net.cpp:225] Memory required for data: 131300864
I1108 23:39:44.198148 136316 layer_factory.hpp:114] Creating layer pool1
I1108 23:39:44.291127 136316 net.cpp:160] Creating Layer pool1
I1108 23:39:44.291440 136316 net.cpp:596] pool1 <- norm1
I1108 23:39:44.306047 136316 net.cpp:570] pool1 -> pool1
I1108 23:39:44.606139 136316 net.cpp:210] Setting up pool1
I1108 23:39:44.608667 136316 net.cpp:217] Top shape: 32 96 27 27 (2239488)
I1108 23:39:44.609081 136316 net.cpp:225] Memory required for data: 140258816
I1108 23:39:44.609313 136316 layer_factory.hpp:114] Creating layer conv2
I1108 23:39:44.609688 136316 net.cpp:160] Creating Layer conv2
I1108 23:39:44.609912 136316 net.cpp:596] conv2 <- pool1
I1108 23:39:44.610162 136316 net.cpp:570] conv2 -> conv2
I1108 23:39:50.363009 136316 net.cpp:210] Setting up conv2
I1108 23:39:50.363319 136316 net.cpp:217] Top shape: 32 256 27 27 (5971968)
I1108 23:39:50.363675 136316 net.cpp:225] Memory required for data: 164146688
I1108 23:39:50.413293 136316 layer_factory.hpp:114] Creating layer relu2
I1108 23:39:50.413703 136316 net.cpp:160] Creating Layer relu2
I1108 23:39:50.414028 136316 net.cpp:596] relu2 <- conv2
I1108 23:39:50.414319 136316 net.cpp:557] relu2 -> conv2 (in-place)
I1108 23:39:50.414741 136316 net.cpp:210] Setting up relu2
I1108 23:39:50.415000 136316 net.cpp:217] Top shape: 32 256 27 27 (5971968)
I1108 23:39:50.415232 136316 net.cpp:225] Memory required for data: 188034560
I1108 23:39:50.415424 136316 layer_factory.hpp:114] Creating layer norm2
I1108 23:39:50.415671 136316 net.cpp:160] Creating Layer norm2
I1108 23:39:50.415864 136316 net.cpp:596] norm2 <- conv2
I1108 23:39:50.416097 136316 net.cpp:570] norm2 -> norm2
I1108 23:39:50.418153 136316 net.cpp:210] Setting up norm2
I1108 23:39:50.418476 136316 net.cpp:217] Top shape: 32 256 27 27 (5971968)
I1108 23:39:50.418722 136316 net.cpp:225] Memory required for data: 211922432
I1108 23:39:50.418925 136316 layer_factory.hpp:114] Creating layer pool2
I1108 23:39:50.419764 136316 net.cpp:160] Creating Layer pool2
I1108 23:39:50.420071 136316 net.cpp:596] pool2 <- norm2
I1108 23:39:50.420397 136316 net.cpp:570] pool2 -> pool2
I1108 23:39:50.420871 136316 net.cpp:210] Setting up pool2
I1108 23:39:50.421162 136316 net.cpp:217] Top shape: 32 256 13 13 (1384448)
I1108 23:39:50.421383 136316 net.cpp:225] Memory required for data: 217460224
I1108 23:39:50.421579 136316 layer_factory.hpp:114] Creating layer conv3
I1108 23:39:50.421962 136316 net.cpp:160] Creating Layer conv3
I1108 23:39:50.422211 136316 net.cpp:596] conv3 <- pool2
I1108 23:39:50.422451 136316 net.cpp:570] conv3 -> conv3
I1108 23:39:50.900820 136316 net.cpp:210] Setting up conv3
I1108 23:39:50.903215 136316 net.cpp:217] Top shape: 32 384 13 13 (2076672)
I1108 23:39:50.903550 136316 net.cpp:225] Memory required for data: 225766912
I1108 23:39:50.906704 136316 layer_factory.hpp:114] Creating layer relu3
I1108 23:39:50.907155 136316 net.cpp:160] Creating Layer relu3
I1108 23:39:50.907414 136316 net.cpp:596] relu3 <- conv3
I1108 23:39:50.907688 136316 net.cpp:557] relu3 -> conv3 (in-place)
I1108 23:39:50.911741 136316 net.cpp:210] Setting up relu3
I1108 23:39:50.912045 136316 net.cpp:217] Top shape: 32 384 13 13 (2076672)
I1108 23:39:50.912293 136316 net.cpp:225] Memory required for data: 234073600
I1108 23:39:50.912489 136316 layer_factory.hpp:114] Creating layer conv4
I1108 23:39:50.912932 136316 net.cpp:160] Creating Layer conv4
I1108 23:39:50.913215 136316 net.cpp:596] conv4 <- conv3
I1108 23:39:50.913503 136316 net.cpp:570] conv4 -> conv4
I1108 23:39:51.182595 136316 net.cpp:210] Setting up conv4
I1108 23:39:51.182974 136316 net.cpp:217] Top shape: 32 384 13 13 (2076672)
I1108 23:39:51.183360 136316 net.cpp:225] Memory required for data: 242380288
I1108 23:39:51.183699 136316 layer_factory.hpp:114] Creating layer relu4
I1108 23:39:51.183980 136316 net.cpp:160] Creating Layer relu4
I1108 23:39:51.184208 136316 net.cpp:596] relu4 <- conv4
I1108 23:39:51.184442 136316 net.cpp:557] relu4 -> conv4 (in-place)
I1108 23:39:51.197065 136316 net.cpp:210] Setting up relu4
I1108 23:39:51.197432 136316 net.cpp:217] Top shape: 32 384 13 13 (2076672)
I1108 23:39:51.197803 136316 net.cpp:225] Memory required for data: 250686976
I1108 23:39:51.198051 136316 layer_factory.hpp:114] Creating layer conv5
I1108 23:39:51.198421 136316 net.cpp:160] Creating Layer conv5
I1108 23:39:51.198655 136316 net.cpp:596] conv5 <- conv4
I1108 23:39:51.198902 136316 net.cpp:570] conv5 -> conv5
I1108 23:39:51.366924 136316 net.cpp:210] Setting up conv5
I1108 23:39:51.367308 136316 net.cpp:217] Top shape: 32 256 13 13 (1384448)
I1108 23:39:51.367707 136316 net.cpp:225] Memory required for data: 256224768
I1108 23:39:51.372372 136316 layer_factory.hpp:114] Creating layer relu5
I1108 23:39:51.372818 136316 net.cpp:160] Creating Layer relu5
I1108 23:39:51.373091 136316 net.cpp:596] relu5 <- conv5
I1108 23:39:51.373375 136316 net.cpp:557] relu5 -> conv5 (in-place)
I1108 23:39:51.373849 136316 net.cpp:210] Setting up relu5
I1108 23:39:51.374145 136316 net.cpp:217] Top shape: 32 256 13 13 (1384448)
I1108 23:39:51.374483 136316 net.cpp:225] Memory required for data: 261762560
I1108 23:39:51.374696 136316 layer_factory.hpp:114] Creating layer pool5
I1108 23:39:51.374959 136316 net.cpp:160] Creating Layer pool5
I1108 23:39:51.375167 136316 net.cpp:596] pool5 <- conv5
I1108 23:39:51.375396 136316 net.cpp:570] pool5 -> pool5
I1108 23:39:51.375792 136316 net.cpp:210] Setting up pool5
I1108 23:39:51.376049 136316 net.cpp:217] Top shape: 32 256 6 6 (294912)
I1108 23:39:51.376276 136316 net.cpp:225] Memory required for data: 262942208
I1108 23:39:51.376503 136316 layer_factory.hpp:114] Creating layer fc6
I1108 23:39:51.432492 136316 net.cpp:160] Creating Layer fc6
I1108 23:39:51.432858 136316 net.cpp:596] fc6 <- pool5
I1108 23:39:51.433219 136316 net.cpp:570] fc6 -> fc6
I1108 23:39:55.544816 136316 net.cpp:210] Setting up fc6
I1108 23:39:55.545204 136316 net.cpp:217] Top shape: 32 4096 (131072)
I1108 23:39:55.547319 136316 net.cpp:225] Memory required for data: 263466496
I1108 23:39:55.547636 136316 layer_factory.hpp:114] Creating layer relu6
I1108 23:39:55.550217 136316 net.cpp:160] Creating Layer relu6
I1108 23:39:55.550519 136316 net.cpp:596] relu6 <- fc6
I1108 23:39:55.550755 136316 net.cpp:557] relu6 -> fc6 (in-place)
I1108 23:39:55.551172 136316 net.cpp:210] Setting up relu6
I1108 23:39:55.551437 136316 net.cpp:217] Top shape: 32 4096 (131072)
I1108 23:39:55.551709 136316 net.cpp:225] Memory required for data: 263990784
I1108 23:39:55.551916 136316 layer_factory.hpp:114] Creating layer drop6
I1108 23:39:55.572268 136316 net.cpp:160] Creating Layer drop6
I1108 23:39:55.572572 136316 net.cpp:596] drop6 <- fc6
I1108 23:39:55.573011 136316 net.cpp:557] drop6 -> fc6 (in-place)
I1108 23:39:55.677805 136316 net.cpp:210] Setting up drop6
I1108 23:39:55.678097 136316 net.cpp:217] Top shape: 32 4096 (131072)
I1108 23:39:55.678442 136316 net.cpp:225] Memory required for data: 264515072
I1108 23:39:55.678690 136316 layer_factory.hpp:114] Creating layer fc7
I1108 23:39:55.678961 136316 net.cpp:160] Creating Layer fc7
I1108 23:39:55.679167 136316 net.cpp:596] fc7 <- fc6
I1108 23:39:55.679544 136316 net.cpp:570] fc7 -> fc7
I1108 23:39:57.402263 136316 net.cpp:210] Setting up fc7
I1108 23:39:57.402628 136316 net.cpp:217] Top shape: 32 4096 (131072)
I1108 23:39:57.403046 136316 net.cpp:225] Memory required for data: 265039360
I1108 23:39:57.403415 136316 layer_factory.hpp:114] Creating layer relu7
I1108 23:39:57.403740 136316 net.cpp:160] Creating Layer relu7
I1108 23:39:57.403995 136316 net.cpp:596] relu7 <- fc7
I1108 23:39:57.404253 136316 net.cpp:557] relu7 -> fc7 (in-place)
I1108 23:39:57.404695 136316 net.cpp:210] Setting up relu7
I1108 23:39:57.405072 136316 net.cpp:217] Top shape: 32 4096 (131072)
I1108 23:39:57.405338 136316 net.cpp:225] Memory required for data: 265563648
I1108 23:39:57.405553 136316 layer_factory.hpp:114] Creating layer drop7
I1108 23:39:57.405809 136316 net.cpp:160] Creating Layer drop7
I1108 23:39:57.406051 136316 net.cpp:596] drop7 <- fc7
I1108 23:39:57.406293 136316 net.cpp:557] drop7 -> fc7 (in-place)
I1108 23:39:57.406570 136316 net.cpp:210] Setting up drop7
I1108 23:39:57.406776 136316 net.cpp:217] Top shape: 32 4096 (131072)
I1108 23:39:57.406996 136316 net.cpp:225] Memory required for data: 266087936
I1108 23:39:57.407183 136316 layer_factory.hpp:114] Creating layer fc8
I1108 23:39:57.407438 136316 net.cpp:160] Creating Layer fc8
I1108 23:39:57.407636 136316 net.cpp:596] fc8 <- fc7
I1108 23:39:57.407866 136316 net.cpp:570] fc8 -> fc8
I1108 23:39:57.832099 136316 net.cpp:210] Setting up fc8
I1108 23:39:57.832455 136316 net.cpp:217] Top shape: 32 1000 (32000)
I1108 23:39:57.832871 136316 net.cpp:225] Memory required for data: 266215936
I1108 23:39:57.833210 136316 layer_factory.hpp:114] Creating layer loss
I1108 23:39:57.857969 136316 net.cpp:160] Creating Layer loss
I1108 23:39:57.858285 136316 net.cpp:596] loss <- fc8
I1108 23:39:57.859282 136316 net.cpp:596] loss <- label
I1108 23:39:57.886967 136316 net.cpp:570] loss -> loss
I1108 23:39:57.926080 136316 layer_factory.hpp:114] Creating layer loss
…
