…
I1109 03:09:01.762565 144463 net.cpp:484] The NetState phase (0) differed from the phase (1) specified by a rule in layer accuracy
I1109 03:09:02.393585 144463 net.cpp:120] Initializing net from parameters: 
name: "AlexNet"
state {
  phase: TRAIN
  level: 0
  stage: ""
}
layer {
  name: "data"
  type: "DummyData"
  top: "data"
  top: "label"
  include {
    phase: TRAIN
  }
  dummy_data_param {
    data_filler {
      type: "gaussian"
      std: 1
    }
    data_filler {
      type: "constant"
      value: 0
    }
    shape {
      dim: 32
      dim: 3
      dim: 227
      dim: 227
    }
    shape {
      dim: 32
      dim: 1
      dim: 1
      dim: 1
    }
  }
}
layer {
  name: "conv1"
  type: "Convolution"
  bottom: "data"
  top: "conv1"
  param {
    lr_mult: 1
    decay_mult: 1
  }
  param {
    lr_mult: 2
    decay_mult: 0
  }
  convolution_param {
    num_output: 96
    kernel_size: 11
    stride: 4
    weight_filler {
      type: "gaussian"
      std: 0.01
    }
    bias_filler {
      type: "constant"
      value: 0
    }
    engine: MKL2017
  }
}
layer {
  name: "relu1"
  type: "ReLU"
  bottom: "conv1"
  top: "conv1"
  relu_param {
    engine: MKL2017
  }
}
layer {
  name: "norm1"
  type: "LRN"
  bottom: "conv1"
  top: "norm1"
  lrn_param {
    local_size: 5
    alpha: 0.0001
    beta: 0.75
    engine: MKL2017
  }
}
layer {
  name: "pool1"
  type: "Pooling"
  bottom: "norm1"
  top: "pool1"
  pooling_param {
    pool: MAX
    kernel_size: 3
    stride: 2
    engine: MKL2017
  }
}
layer {
  name: "conv2"
  type: "Convolution"
  bottom: "pool1"
  top: "conv2"
  param {
    lr_mult: 1
    decay_mult: 1
  }
  param {
    lr_mult: 2
    decay_mult: 0
  }
  convolution_param {
    num_output: 256
    pad: 2
    kernel_size: 5
    group: 2
    weight_filler {
      type: "gaussian"
      std: 0.01
    }
    bias_filler {
      type: "constant"
      value: 0.1
    }
    engine: MKL2017
  }
}
layer {
  name: "relu2"
  type: "ReLU"
  bottom: "conv2"
  top: "conv2"
  relu_param {
    engine: MKL2017
  }
}
layer {
  name: "norm2"
  type: "LRN"
  bottom: "conv2"
  top: "norm2"
  lrn_param {
    local_size: 5
    alpha: 0.0001
    beta: 0.75
    engine: MKL2017
  }
}
layer {
  name: "pool2"
  type: "Pooling"
  bottom: "norm2"
  top: "pool2"
  pooling_param {
    pool: MAX
    kernel_size: 3
    stride: 2
    engine: MKL2017
  }
}
layer {
  name: "conv3"
  type: "Convolution"
  bottom: "pool2"
  top: "conv3"
  param {
    lr_mult: 1
    decay_mult: 1
  }
  param {
    lr_mult: 2
    decay_mult: 0
  }
  convolution_param {
    num_output: 384
    pad: 1
    kernel_size: 3
    weight_filler {
      type: "gaussian"
      std: 0.01
    }
    bias_filler {
      type: "constant"
      value: 0
    }
    engine: MKL2017
  }
}
layer {
  name: "relu3"
  type: "ReLU"
  bottom: "conv3"
  top: "conv3"
  relu_param {
    engine: MKL2017
  }
}
layer {
  name: "conv4"
  type: "Convolution"
  bottom: "conv3"
  top: "conv4"
  param {
    lr_mult: 1
    decay_mult: 1
  }
  param {
    lr_mult: 2
    decay_mult: 0
  }
  convolution_param {
    num_output: 384
    pad: 1
    kernel_size: 3
    group: 2
    weight_filler {
      type: "gaussian"
      std: 0.01
    }
    bias_filler {
      type: "constant"
      value: 0.1
    }
    engine: MKL2017
  }
}
layer {
  name: "relu4"
  type: "ReLU"
  bottom: "conv4"
  top: "conv4"
  relu_param {
    engine: MKL2017
  }
}
layer {
  name: "conv5"
  type: "Convolution"
  bottom: "conv4"
  top: "conv5"
  param {
    lr_mult: 1
    decay_mult: 1
  }
  param {
    lr_mult: 2
    decay_mult: 0
  }
  convolution_param {
    num_output: 256
    pad: 1
    kernel_size: 3
    group: 2
    weight_filler {
      type: "gaussian"
      std: 0.01
    }
    bias_filler {
      type: "constant"
      value: 0.1
    }
    engine: MKL2017
  }
}
layer {
  name: "relu5"
  type: "ReLU"
  bottom: "conv5"
  top: "conv5"
  relu_param {
    engine: MKL2017
  }
}
layer {
  name: "pool5"
  type: "Pooling"
  bottom: "conv5"
  top: "pool5"
  pooling_param {
    pool: MAX
    kernel_size: 3
    stride: 2
    engine: MKL2017
  }
}
layer {
  name: "fc6"
  type: "InnerProduct"
  bottom: "pool5"
  top: "fc6"
  param {
    lr_mult: 1
    decay_mult: 1
  }
  param {
    lr_mult: 2
    decay_mult: 0
  }
  inner_product_param {
    num_output: 4096
    weight_filler {
      type: "gaussian"
      std: 0.005
    }
    bias_filler {
      type: "constant"
      value: 0.1
    }
  }
}
layer {
  name: "relu6"
  type: "ReLU"
  bottom: "fc6"
  top: "fc6"
}
layer {
  name: "drop6"
  type: "Dropout"
  bottom: "fc6"
  top: "fc6"
  dropout_param {
    dropout_ratio: 0.5
  }
}
layer {
  name: "fc7"
  type: "InnerProduct"
  bottom: "fc6"
  top: "fc7"
  param {
    lr_mult: 1
    decay_mult: 1
  }
  param {
    lr_mult: 2
    decay_mult: 0
  }
  inner_product_param {
    num_output: 4096
    weight_filler {
      type: "gaussian"
      std: 0.005
    }
    bias_filler {
      type: "constant"
      value: 0.1
    }
  }
}
layer {
  name: "relu7"
  type: "ReLU"
  bottom: "fc7"
  top: "fc7"
}
layer {
  name: "drop7"
  type: "Dropout"
  bottom: "fc7"
  top: "fc7"
  dropout_param {
    dropout_ratio: 0.5
  }
}
layer {
  name: "fc8"
  type: "InnerProduct"
  bottom: "fc7"
  top: "fc8"
  param {
    lr_mult: 1
    decay_mult: 1
  }
  param {
    lr_mult: 2
    decay_mult: 0
  }
  inner_product_param {
    num_output: 1000
    weight_filler {
      type: "gaussian"
      std: 0.01
    }
    bias_filler {
      type: "constant"
      value: 0
    }
  }
}
layer {
  name: "loss"
  type: "SoftmaxWithLoss"
  bottom: "fc8"
  bottom: "label"
  top: "loss"
}
I1109 03:09:04.835809 144463 layer_factory.hpp:114] Creating layer data
I1109 03:09:04.983981 144463 net.cpp:160] Creating Layer data
I1109 03:09:05.032243 144463 net.cpp:570] data -> data
I1109 03:09:05.493329 144463 net.cpp:570] data -> label
I1109 03:09:12.485991 144463 net.cpp:210] Setting up data
I1109 03:09:12.565683 144463 net.cpp:217] Top shape: 32 3 227 227 (4946784)
I1109 03:09:12.669304 144463 net.cpp:217] Top shape: 32 1 1 1 (32)
I1109 03:09:12.676527 144463 net.cpp:225] Memory required for data: 19787264
I1109 03:09:12.743638 144463 layer_factory.hpp:114] Creating layer conv1
I1109 03:09:13.071110 144463 net.cpp:160] Creating Layer conv1
I1109 03:09:13.121006 144463 net.cpp:596] conv1 <- data
I1109 03:09:13.239537 144463 net.cpp:570] conv1 -> conv1
I1109 03:09:46.153260 144463 net.cpp:210] Setting up conv1
I1109 03:09:46.159574 144463 net.cpp:217] Top shape: 32 96 55 55 (9292800)
I1109 03:09:46.159951 144463 net.cpp:225] Memory required for data: 56958464
I1109 03:09:46.440542 144463 layer_factory.hpp:114] Creating layer relu1
I1109 03:09:46.562456 144463 net.cpp:160] Creating Layer relu1
I1109 03:09:46.567450 144463 net.cpp:596] relu1 <- conv1
I1109 03:09:46.601171 144463 net.cpp:557] relu1 -> conv1 (in-place)
I1109 03:09:46.791234 144463 net.cpp:210] Setting up relu1
I1109 03:09:46.793661 144463 net.cpp:217] Top shape: 32 96 55 55 (9292800)
I1109 03:09:46.793998 144463 net.cpp:225] Memory required for data: 94129664
I1109 03:09:46.794231 144463 layer_factory.hpp:114] Creating layer norm1
I1109 03:09:46.898448 144463 net.cpp:160] Creating Layer norm1
I1109 03:09:46.898762 144463 net.cpp:596] norm1 <- conv1
I1109 03:09:46.901327 144463 net.cpp:570] norm1 -> norm1
I1109 03:09:47.124492 144463 net.cpp:210] Setting up norm1
I1109 03:09:47.137328 144463 net.cpp:217] Top shape: 32 96 55 55 (9292800)
I1109 03:09:47.137701 144463 net.cpp:225] Memory required for data: 131300864
I1109 03:09:47.138000 144463 layer_factory.hpp:114] Creating layer pool1
I1109 03:09:47.231073 144463 net.cpp:160] Creating Layer pool1
I1109 03:09:47.231386 144463 net.cpp:596] pool1 <- norm1
I1109 03:09:47.245542 144463 net.cpp:570] pool1 -> pool1
I1109 03:09:47.560480 144463 net.cpp:210] Setting up pool1
I1109 03:09:47.563056 144463 net.cpp:217] Top shape: 32 96 27 27 (2239488)
I1109 03:09:47.563377 144463 net.cpp:225] Memory required for data: 140258816
I1109 03:09:47.563623 144463 layer_factory.hpp:114] Creating layer conv2
I1109 03:09:47.563990 144463 net.cpp:160] Creating Layer conv2
I1109 03:09:47.564239 144463 net.cpp:596] conv2 <- pool1
I1109 03:09:47.564468 144463 net.cpp:570] conv2 -> conv2
I1109 03:09:53.305521 144463 net.cpp:210] Setting up conv2
I1109 03:09:53.305871 144463 net.cpp:217] Top shape: 32 256 27 27 (5971968)
I1109 03:09:53.306259 144463 net.cpp:225] Memory required for data: 164146688
I1109 03:09:53.357367 144463 layer_factory.hpp:114] Creating layer relu2
I1109 03:09:53.357784 144463 net.cpp:160] Creating Layer relu2
I1109 03:09:53.358139 144463 net.cpp:596] relu2 <- conv2
I1109 03:09:53.358384 144463 net.cpp:557] relu2 -> conv2 (in-place)
I1109 03:09:53.358860 144463 net.cpp:210] Setting up relu2
I1109 03:09:53.359125 144463 net.cpp:217] Top shape: 32 256 27 27 (5971968)
I1109 03:09:53.359357 144463 net.cpp:225] Memory required for data: 188034560
I1109 03:09:53.359549 144463 layer_factory.hpp:114] Creating layer norm2
I1109 03:09:53.359786 144463 net.cpp:160] Creating Layer norm2
I1109 03:09:53.359979 144463 net.cpp:596] norm2 <- conv2
I1109 03:09:53.360239 144463 net.cpp:570] norm2 -> norm2
I1109 03:09:53.362385 144463 net.cpp:210] Setting up norm2
I1109 03:09:53.362689 144463 net.cpp:217] Top shape: 32 256 27 27 (5971968)
I1109 03:09:53.362915 144463 net.cpp:225] Memory required for data: 211922432
I1109 03:09:53.363131 144463 layer_factory.hpp:114] Creating layer pool2
I1109 03:09:53.364054 144463 net.cpp:160] Creating Layer pool2
I1109 03:09:53.364341 144463 net.cpp:596] pool2 <- norm2
I1109 03:09:53.364580 144463 net.cpp:570] pool2 -> pool2
I1109 03:09:53.365013 144463 net.cpp:210] Setting up pool2
I1109 03:09:53.365268 144463 net.cpp:217] Top shape: 32 256 13 13 (1384448)
I1109 03:09:53.365487 144463 net.cpp:225] Memory required for data: 217460224
I1109 03:09:53.365680 144463 layer_factory.hpp:114] Creating layer conv3
I1109 03:09:53.366051 144463 net.cpp:160] Creating Layer conv3
I1109 03:09:53.366392 144463 net.cpp:596] conv3 <- pool2
I1109 03:09:53.366714 144463 net.cpp:570] conv3 -> conv3
I1109 03:09:53.846577 144463 net.cpp:210] Setting up conv3
I1109 03:09:53.849006 144463 net.cpp:217] Top shape: 32 384 13 13 (2076672)
I1109 03:09:53.849356 144463 net.cpp:225] Memory required for data: 225766912
I1109 03:09:53.852509 144463 layer_factory.hpp:114] Creating layer relu3
I1109 03:09:53.852959 144463 net.cpp:160] Creating Layer relu3
I1109 03:09:53.853250 144463 net.cpp:596] relu3 <- conv3
I1109 03:09:53.853490 144463 net.cpp:557] relu3 -> conv3 (in-place)
I1109 03:09:53.857714 144463 net.cpp:210] Setting up relu3
I1109 03:09:53.858037 144463 net.cpp:217] Top shape: 32 384 13 13 (2076672)
I1109 03:09:53.858295 144463 net.cpp:225] Memory required for data: 234073600
I1109 03:09:53.858520 144463 layer_factory.hpp:114] Creating layer conv4
I1109 03:09:53.858873 144463 net.cpp:160] Creating Layer conv4
I1109 03:09:53.859118 144463 net.cpp:596] conv4 <- conv3
I1109 03:09:53.859364 144463 net.cpp:570] conv4 -> conv4
I1109 03:09:54.102324 144463 net.cpp:210] Setting up conv4
I1109 03:09:54.102700 144463 net.cpp:217] Top shape: 32 384 13 13 (2076672)
I1109 03:09:54.103086 144463 net.cpp:225] Memory required for data: 242380288
I1109 03:09:54.103420 144463 layer_factory.hpp:114] Creating layer relu4
I1109 03:09:54.103704 144463 net.cpp:160] Creating Layer relu4
I1109 03:09:54.103924 144463 net.cpp:596] relu4 <- conv4
I1109 03:09:54.104153 144463 net.cpp:557] relu4 -> conv4 (in-place)
I1109 03:09:54.116374 144463 net.cpp:210] Setting up relu4
I1109 03:09:54.116717 144463 net.cpp:217] Top shape: 32 384 13 13 (2076672)
I1109 03:09:54.117136 144463 net.cpp:225] Memory required for data: 250686976
I1109 03:09:54.117358 144463 layer_factory.hpp:114] Creating layer conv5
I1109 03:09:54.117743 144463 net.cpp:160] Creating Layer conv5
I1109 03:09:54.117995 144463 net.cpp:596] conv5 <- conv4
I1109 03:09:54.118252 144463 net.cpp:570] conv5 -> conv5
I1109 03:09:54.288190 144463 net.cpp:210] Setting up conv5
I1109 03:09:54.288569 144463 net.cpp:217] Top shape: 32 256 13 13 (1384448)
I1109 03:09:54.289011 144463 net.cpp:225] Memory required for data: 256224768
I1109 03:09:54.293630 144463 layer_factory.hpp:114] Creating layer relu5
I1109 03:09:54.294025 144463 net.cpp:160] Creating Layer relu5
I1109 03:09:54.294306 144463 net.cpp:596] relu5 <- conv5
I1109 03:09:54.294581 144463 net.cpp:557] relu5 -> conv5 (in-place)
I1109 03:09:54.295112 144463 net.cpp:210] Setting up relu5
I1109 03:09:54.295426 144463 net.cpp:217] Top shape: 32 256 13 13 (1384448)
I1109 03:09:54.295667 144463 net.cpp:225] Memory required for data: 261762560
I1109 03:09:54.295873 144463 layer_factory.hpp:114] Creating layer pool5
I1109 03:09:54.296125 144463 net.cpp:160] Creating Layer pool5
I1109 03:09:54.296336 144463 net.cpp:596] pool5 <- conv5
I1109 03:09:54.296558 144463 net.cpp:570] pool5 -> pool5
I1109 03:09:54.296989 144463 net.cpp:210] Setting up pool5
I1109 03:09:54.297312 144463 net.cpp:217] Top shape: 32 256 6 6 (294912)
I1109 03:09:54.297554 144463 net.cpp:225] Memory required for data: 262942208
I1109 03:09:54.297773 144463 layer_factory.hpp:114] Creating layer fc6
I1109 03:09:54.352143 144463 net.cpp:160] Creating Layer fc6
I1109 03:09:54.352448 144463 net.cpp:596] fc6 <- pool5
I1109 03:09:54.352885 144463 net.cpp:570] fc6 -> fc6
I1109 03:09:58.465699 144463 net.cpp:210] Setting up fc6
I1109 03:09:58.466001 144463 net.cpp:217] Top shape: 32 4096 (131072)
I1109 03:09:58.468001 144463 net.cpp:225] Memory required for data: 263466496
I1109 03:09:58.468302 144463 layer_factory.hpp:114] Creating layer relu6
I1109 03:09:58.470870 144463 net.cpp:160] Creating Layer relu6
I1109 03:09:58.471163 144463 net.cpp:596] relu6 <- fc6
I1109 03:09:58.471387 144463 net.cpp:557] relu6 -> fc6 (in-place)
I1109 03:09:58.471804 144463 net.cpp:210] Setting up relu6
I1109 03:09:58.472057 144463 net.cpp:217] Top shape: 32 4096 (131072)
I1109 03:09:58.472318 144463 net.cpp:225] Memory required for data: 263990784
I1109 03:09:58.472517 144463 layer_factory.hpp:114] Creating layer drop6
I1109 03:09:58.492416 144463 net.cpp:160] Creating Layer drop6
I1109 03:09:58.492717 144463 net.cpp:596] drop6 <- fc6
I1109 03:09:58.493130 144463 net.cpp:557] drop6 -> fc6 (in-place)
I1109 03:09:58.596438 144463 net.cpp:210] Setting up drop6
I1109 03:09:58.596736 144463 net.cpp:217] Top shape: 32 4096 (131072)
I1109 03:09:58.597118 144463 net.cpp:225] Memory required for data: 264515072
I1109 03:09:58.597342 144463 layer_factory.hpp:114] Creating layer fc7
I1109 03:09:58.597625 144463 net.cpp:160] Creating Layer fc7
I1109 03:09:58.597847 144463 net.cpp:596] fc7 <- fc6
I1109 03:09:58.598249 144463 net.cpp:570] fc7 -> fc7
I1109 03:10:00.321347 144463 net.cpp:210] Setting up fc7
I1109 03:10:00.321715 144463 net.cpp:217] Top shape: 32 4096 (131072)
I1109 03:10:00.322197 144463 net.cpp:225] Memory required for data: 265039360
I1109 03:10:00.322563 144463 layer_factory.hpp:114] Creating layer relu7
I1109 03:10:00.322898 144463 net.cpp:160] Creating Layer relu7
I1109 03:10:00.323153 144463 net.cpp:596] relu7 <- fc7
I1109 03:10:00.323410 144463 net.cpp:557] relu7 -> fc7 (in-place)
I1109 03:10:00.323863 144463 net.cpp:210] Setting up relu7
I1109 03:10:00.324148 144463 net.cpp:217] Top shape: 32 4096 (131072)
I1109 03:10:00.324393 144463 net.cpp:225] Memory required for data: 265563648
I1109 03:10:00.324587 144463 layer_factory.hpp:114] Creating layer drop7
I1109 03:10:00.324892 144463 net.cpp:160] Creating Layer drop7
I1109 03:10:00.325137 144463 net.cpp:596] drop7 <- fc7
I1109 03:10:00.325397 144463 net.cpp:557] drop7 -> fc7 (in-place)
I1109 03:10:00.325778 144463 net.cpp:210] Setting up drop7
I1109 03:10:00.325984 144463 net.cpp:217] Top shape: 32 4096 (131072)
I1109 03:10:00.326200 144463 net.cpp:225] Memory required for data: 266087936
I1109 03:10:00.326382 144463 layer_factory.hpp:114] Creating layer fc8
I1109 03:10:00.326632 144463 net.cpp:160] Creating Layer fc8
I1109 03:10:00.326836 144463 net.cpp:596] fc8 <- fc7
I1109 03:10:00.327062 144463 net.cpp:570] fc8 -> fc8
I1109 03:10:00.751638 144463 net.cpp:210] Setting up fc8
I1109 03:10:00.751989 144463 net.cpp:217] Top shape: 32 1000 (32000)
I1109 03:10:00.752384 144463 net.cpp:225] Memory required for data: 266215936
I1109 03:10:00.752820 144463 layer_factory.hpp:114] Creating layer loss
I1109 03:10:00.777694 144463 net.cpp:160] Creating Layer loss
I1109 03:10:00.778007 144463 net.cpp:596] loss <- fc8
I1109 03:10:00.778986 144463 net.cpp:596] loss <- label
I1109 03:10:00.808769 144463 net.cpp:570] loss -> loss
I1109 03:10:00.847638 144463 layer_factory.hpp:114] Creating layer loss
…
