…
I1109 02:13:40.591922 142108 net.cpp:484] The NetState phase (0) differed from the phase (1) specified by a rule in layer accuracy
I1109 02:13:41.240190 142108 net.cpp:120] Initializing net from parameters: 
name: "AlexNet"
state {
  phase: TRAIN
  level: 0
  stage: ""
}
layer {
  name: "data"
  type: "DummyData"
  top: "data"
  top: "label"
  include {
    phase: TRAIN
  }
  dummy_data_param {
    data_filler {
      type: "gaussian"
      std: 1
    }
    data_filler {
      type: "constant"
      value: 0
    }
    shape {
      dim: 32
      dim: 3
      dim: 227
      dim: 227
    }
    shape {
      dim: 32
      dim: 1
      dim: 1
      dim: 1
    }
  }
}
layer {
  name: "conv1"
  type: "Convolution"
  bottom: "data"
  top: "conv1"
  param {
    lr_mult: 1
    decay_mult: 1
  }
  param {
    lr_mult: 2
    decay_mult: 0
  }
  convolution_param {
    num_output: 96
    kernel_size: 11
    stride: 4
    weight_filler {
      type: "gaussian"
      std: 0.01
    }
    bias_filler {
      type: "constant"
      value: 0
    }
    engine: MKL2017
  }
}
layer {
  name: "relu1"
  type: "ReLU"
  bottom: "conv1"
  top: "conv1"
  relu_param {
    engine: MKL2017
  }
}
layer {
  name: "norm1"
  type: "LRN"
  bottom: "conv1"
  top: "norm1"
  lrn_param {
    local_size: 5
    alpha: 0.0001
    beta: 0.75
    engine: MKL2017
  }
}
layer {
  name: "pool1"
  type: "Pooling"
  bottom: "norm1"
  top: "pool1"
  pooling_param {
    pool: MAX
    kernel_size: 3
    stride: 2
    engine: MKL2017
  }
}
layer {
  name: "conv2"
  type: "Convolution"
  bottom: "pool1"
  top: "conv2"
  param {
    lr_mult: 1
    decay_mult: 1
  }
  param {
    lr_mult: 2
    decay_mult: 0
  }
  convolution_param {
    num_output: 256
    pad: 2
    kernel_size: 5
    group: 2
    weight_filler {
      type: "gaussian"
      std: 0.01
    }
    bias_filler {
      type: "constant"
      value: 0.1
    }
    engine: MKL2017
  }
}
layer {
  name: "relu2"
  type: "ReLU"
  bottom: "conv2"
  top: "conv2"
  relu_param {
    engine: MKL2017
  }
}
layer {
  name: "norm2"
  type: "LRN"
  bottom: "conv2"
  top: "norm2"
  lrn_param {
    local_size: 5
    alpha: 0.0001
    beta: 0.75
    engine: MKL2017
  }
}
layer {
  name: "pool2"
  type: "Pooling"
  bottom: "norm2"
  top: "pool2"
  pooling_param {
    pool: MAX
    kernel_size: 3
    stride: 2
    engine: MKL2017
  }
}
layer {
  name: "conv3"
  type: "Convolution"
  bottom: "pool2"
  top: "conv3"
  param {
    lr_mult: 1
    decay_mult: 1
  }
  param {
    lr_mult: 2
    decay_mult: 0
  }
  convolution_param {
    num_output: 384
    pad: 1
    kernel_size: 3
    weight_filler {
      type: "gaussian"
      std: 0.01
    }
    bias_filler {
      type: "constant"
      value: 0
    }
    engine: MKL2017
  }
}
layer {
  name: "relu3"
  type: "ReLU"
  bottom: "conv3"
  top: "conv3"
  relu_param {
    engine: MKL2017
  }
}
layer {
  name: "conv4"
  type: "Convolution"
  bottom: "conv3"
  top: "conv4"
  param {
    lr_mult: 1
    decay_mult: 1
  }
  param {
    lr_mult: 2
    decay_mult: 0
  }
  convolution_param {
    num_output: 384
    pad: 1
    kernel_size: 3
    group: 2
    weight_filler {
      type: "gaussian"
      std: 0.01
    }
    bias_filler {
      type: "constant"
      value: 0.1
    }
    engine: MKL2017
  }
}
layer {
  name: "relu4"
  type: "ReLU"
  bottom: "conv4"
  top: "conv4"
  relu_param {
    engine: MKL2017
  }
}
layer {
  name: "conv5"
  type: "Convolution"
  bottom: "conv4"
  top: "conv5"
  param {
    lr_mult: 1
    decay_mult: 1
  }
  param {
    lr_mult: 2
    decay_mult: 0
  }
  convolution_param {
    num_output: 256
    pad: 1
    kernel_size: 3
    group: 2
    weight_filler {
      type: "gaussian"
      std: 0.01
    }
    bias_filler {
      type: "constant"
      value: 0.1
    }
    engine: MKL2017
  }
}
layer {
  name: "relu5"
  type: "ReLU"
  bottom: "conv5"
  top: "conv5"
  relu_param {
    engine: MKL2017
  }
}
layer {
  name: "pool5"
  type: "Pooling"
  bottom: "conv5"
  top: "pool5"
  pooling_param {
    pool: MAX
    kernel_size: 3
    stride: 2
    engine: MKL2017
  }
}
layer {
  name: "fc6"
  type: "InnerProduct"
  bottom: "pool5"
  top: "fc6"
  param {
    lr_mult: 1
    decay_mult: 1
  }
  param {
    lr_mult: 2
    decay_mult: 0
  }
  inner_product_param {
    num_output: 4096
    weight_filler {
      type: "gaussian"
      std: 0.005
    }
    bias_filler {
      type: "constant"
      value: 0.1
    }
  }
}
layer {
  name: "relu6"
  type: "ReLU"
  bottom: "fc6"
  top: "fc6"
}
layer {
  name: "drop6"
  type: "Dropout"
  bottom: "fc6"
  top: "fc6"
  dropout_param {
    dropout_ratio: 0.5
  }
}
layer {
  name: "fc7"
  type: "InnerProduct"
  bottom: "fc6"
  top: "fc7"
  param {
    lr_mult: 1
    decay_mult: 1
  }
  param {
    lr_mult: 2
    decay_mult: 0
  }
  inner_product_param {
    num_output: 4096
    weight_filler {
      type: "gaussian"
      std: 0.005
    }
    bias_filler {
      type: "constant"
      value: 0.1
    }
  }
}
layer {
  name: "relu7"
  type: "ReLU"
  bottom: "fc7"
  top: "fc7"
}
layer {
  name: "drop7"
  type: "Dropout"
  bottom: "fc7"
  top: "fc7"
  dropout_param {
    dropout_ratio: 0.5
  }
}
layer {
  name: "fc8"
  type: "InnerProduct"
  bottom: "fc7"
  top: "fc8"
  param {
    lr_mult: 1
    decay_mult: 1
  }
  param {
    lr_mult: 2
    decay_mult: 0
  }
  inner_product_param {
    num_output: 1000
    weight_filler {
      type: "gaussian"
      std: 0.01
    }
    bias_filler {
      type: "constant"
      value: 0
    }
  }
}
layer {
  name: "loss"
  type: "SoftmaxWithLoss"
  bottom: "fc8"
  bottom: "label"
  top: "loss"
}
I1109 02:13:43.732182 142108 layer_factory.hpp:114] Creating layer data
I1109 02:13:43.881392 142108 net.cpp:160] Creating Layer data
I1109 02:13:43.930696 142108 net.cpp:570] data -> data
I1109 02:13:44.400313 142108 net.cpp:570] data -> label
I1109 02:13:51.501050 142108 net.cpp:210] Setting up data
I1109 02:13:51.583832 142108 net.cpp:217] Top shape: 32 3 227 227 (4946784)
I1109 02:13:51.692464 142108 net.cpp:217] Top shape: 32 1 1 1 (32)
I1109 02:13:51.699816 142108 net.cpp:225] Memory required for data: 19787264
I1109 02:13:51.767668 142108 layer_factory.hpp:114] Creating layer conv1
I1109 02:13:52.095767 142108 net.cpp:160] Creating Layer conv1
I1109 02:13:52.145781 142108 net.cpp:596] conv1 <- data
I1109 02:13:52.265705 142108 net.cpp:570] conv1 -> conv1
I1109 02:14:25.181531 142108 net.cpp:210] Setting up conv1
I1109 02:14:25.187870 142108 net.cpp:217] Top shape: 32 96 55 55 (9292800)
I1109 02:14:25.188247 142108 net.cpp:225] Memory required for data: 56958464
I1109 02:14:25.471148 142108 layer_factory.hpp:114] Creating layer relu1
I1109 02:14:25.591979 142108 net.cpp:160] Creating Layer relu1
I1109 02:14:25.596634 142108 net.cpp:596] relu1 <- conv1
I1109 02:14:25.629302 142108 net.cpp:557] relu1 -> conv1 (in-place)
I1109 02:14:25.820582 142108 net.cpp:210] Setting up relu1
I1109 02:14:25.823015 142108 net.cpp:217] Top shape: 32 96 55 55 (9292800)
I1109 02:14:25.823354 142108 net.cpp:225] Memory required for data: 94129664
I1109 02:14:25.823551 142108 layer_factory.hpp:114] Creating layer norm1
I1109 02:14:25.929631 142108 net.cpp:160] Creating Layer norm1
I1109 02:14:25.929960 142108 net.cpp:596] norm1 <- conv1
I1109 02:14:25.932497 142108 net.cpp:570] norm1 -> norm1
I1109 02:14:26.157507 142108 net.cpp:210] Setting up norm1
I1109 02:14:26.170342 142108 net.cpp:217] Top shape: 32 96 55 55 (9292800)
I1109 02:14:26.170714 142108 net.cpp:225] Memory required for data: 131300864
I1109 02:14:26.171016 142108 layer_factory.hpp:114] Creating layer pool1
I1109 02:14:26.264556 142108 net.cpp:160] Creating Layer pool1
I1109 02:14:26.264910 142108 net.cpp:596] pool1 <- norm1
I1109 02:14:26.279871 142108 net.cpp:570] pool1 -> pool1
I1109 02:14:26.587926 142108 net.cpp:210] Setting up pool1
I1109 02:14:26.590441 142108 net.cpp:217] Top shape: 32 96 27 27 (2239488)
I1109 02:14:26.590768 142108 net.cpp:225] Memory required for data: 140258816
I1109 02:14:26.591014 142108 layer_factory.hpp:114] Creating layer conv2
I1109 02:14:26.591377 142108 net.cpp:160] Creating Layer conv2
I1109 02:14:26.591670 142108 net.cpp:596] conv2 <- pool1
I1109 02:14:26.591929 142108 net.cpp:570] conv2 -> conv2
I1109 02:14:32.378137 142108 net.cpp:210] Setting up conv2
I1109 02:14:32.378478 142108 net.cpp:217] Top shape: 32 256 27 27 (5971968)
I1109 02:14:32.378885 142108 net.cpp:225] Memory required for data: 164146688
I1109 02:14:32.429159 142108 layer_factory.hpp:114] Creating layer relu2
I1109 02:14:32.429613 142108 net.cpp:160] Creating Layer relu2
I1109 02:14:32.429982 142108 net.cpp:596] relu2 <- conv2
I1109 02:14:32.430234 142108 net.cpp:557] relu2 -> conv2 (in-place)
I1109 02:14:32.430675 142108 net.cpp:210] Setting up relu2
I1109 02:14:32.430934 142108 net.cpp:217] Top shape: 32 256 27 27 (5971968)
I1109 02:14:32.431159 142108 net.cpp:225] Memory required for data: 188034560
I1109 02:14:32.431342 142108 layer_factory.hpp:114] Creating layer norm2
I1109 02:14:32.431579 142108 net.cpp:160] Creating Layer norm2
I1109 02:14:32.431771 142108 net.cpp:596] norm2 <- conv2
I1109 02:14:32.431998 142108 net.cpp:570] norm2 -> norm2
I1109 02:14:32.434159 142108 net.cpp:210] Setting up norm2
I1109 02:14:32.434470 142108 net.cpp:217] Top shape: 32 256 27 27 (5971968)
I1109 02:14:32.434698 142108 net.cpp:225] Memory required for data: 211922432
I1109 02:14:32.434885 142108 layer_factory.hpp:114] Creating layer pool2
I1109 02:14:32.435696 142108 net.cpp:160] Creating Layer pool2
I1109 02:14:32.435984 142108 net.cpp:596] pool2 <- norm2
I1109 02:14:32.436259 142108 net.cpp:570] pool2 -> pool2
I1109 02:14:32.436717 142108 net.cpp:210] Setting up pool2
I1109 02:14:32.437149 142108 net.cpp:217] Top shape: 32 256 13 13 (1384448)
I1109 02:14:32.437381 142108 net.cpp:225] Memory required for data: 217460224
I1109 02:14:32.437580 142108 layer_factory.hpp:114] Creating layer conv3
I1109 02:14:32.437921 142108 net.cpp:160] Creating Layer conv3
I1109 02:14:32.438144 142108 net.cpp:596] conv3 <- pool2
I1109 02:14:32.438382 142108 net.cpp:570] conv3 -> conv3
I1109 02:14:32.914197 142108 net.cpp:210] Setting up conv3
I1109 02:14:32.916599 142108 net.cpp:217] Top shape: 32 384 13 13 (2076672)
I1109 02:14:32.917016 142108 net.cpp:225] Memory required for data: 225766912
I1109 02:14:32.920012 142108 layer_factory.hpp:114] Creating layer relu3
I1109 02:14:32.920416 142108 net.cpp:160] Creating Layer relu3
I1109 02:14:32.920675 142108 net.cpp:596] relu3 <- conv3
I1109 02:14:32.921000 142108 net.cpp:557] relu3 -> conv3 (in-place)
I1109 02:14:32.925225 142108 net.cpp:210] Setting up relu3
I1109 02:14:32.925580 142108 net.cpp:217] Top shape: 32 384 13 13 (2076672)
I1109 02:14:32.925827 142108 net.cpp:225] Memory required for data: 234073600
I1109 02:14:32.926020 142108 layer_factory.hpp:114] Creating layer conv4
I1109 02:14:32.926381 142108 net.cpp:160] Creating Layer conv4
I1109 02:14:32.926642 142108 net.cpp:596] conv4 <- conv3
I1109 02:14:32.926887 142108 net.cpp:570] conv4 -> conv4
I1109 02:14:33.200404 142108 net.cpp:210] Setting up conv4
I1109 02:14:33.200856 142108 net.cpp:217] Top shape: 32 384 13 13 (2076672)
I1109 02:14:33.201266 142108 net.cpp:225] Memory required for data: 242380288
I1109 02:14:33.201606 142108 layer_factory.hpp:114] Creating layer relu4
I1109 02:14:33.201918 142108 net.cpp:160] Creating Layer relu4
I1109 02:14:33.202160 142108 net.cpp:596] relu4 <- conv4
I1109 02:14:33.202402 142108 net.cpp:557] relu4 -> conv4 (in-place)
I1109 02:14:33.214617 142108 net.cpp:210] Setting up relu4
I1109 02:14:33.215016 142108 net.cpp:217] Top shape: 32 384 13 13 (2076672)
I1109 02:14:33.215401 142108 net.cpp:225] Memory required for data: 250686976
I1109 02:14:33.215642 142108 layer_factory.hpp:114] Creating layer conv5
I1109 02:14:33.216007 142108 net.cpp:160] Creating Layer conv5
I1109 02:14:33.216253 142108 net.cpp:596] conv5 <- conv4
I1109 02:14:33.216500 142108 net.cpp:570] conv5 -> conv5
I1109 02:14:33.384588 142108 net.cpp:210] Setting up conv5
I1109 02:14:33.385021 142108 net.cpp:217] Top shape: 32 256 13 13 (1384448)
I1109 02:14:33.385471 142108 net.cpp:225] Memory required for data: 256224768
I1109 02:14:33.390156 142108 layer_factory.hpp:114] Creating layer relu5
I1109 02:14:33.390559 142108 net.cpp:160] Creating Layer relu5
I1109 02:14:33.390818 142108 net.cpp:596] relu5 <- conv5
I1109 02:14:33.391084 142108 net.cpp:557] relu5 -> conv5 (in-place)
I1109 02:14:33.391582 142108 net.cpp:210] Setting up relu5
I1109 02:14:33.391885 142108 net.cpp:217] Top shape: 32 256 13 13 (1384448)
I1109 02:14:33.392192 142108 net.cpp:225] Memory required for data: 261762560
I1109 02:14:33.392431 142108 layer_factory.hpp:114] Creating layer pool5
I1109 02:14:33.392693 142108 net.cpp:160] Creating Layer pool5
I1109 02:14:33.392971 142108 net.cpp:596] pool5 <- conv5
I1109 02:14:33.393206 142108 net.cpp:570] pool5 -> pool5
I1109 02:14:33.393612 142108 net.cpp:210] Setting up pool5
I1109 02:14:33.393867 142108 net.cpp:217] Top shape: 32 256 6 6 (294912)
I1109 02:14:33.394088 142108 net.cpp:225] Memory required for data: 262942208
I1109 02:14:33.394271 142108 layer_factory.hpp:114] Creating layer fc6
I1109 02:14:33.449156 142108 net.cpp:160] Creating Layer fc6
I1109 02:14:33.449468 142108 net.cpp:596] fc6 <- pool5
I1109 02:14:33.449848 142108 net.cpp:570] fc6 -> fc6
I1109 02:14:37.540920 142108 net.cpp:210] Setting up fc6
I1109 02:14:37.541220 142108 net.cpp:217] Top shape: 32 4096 (131072)
I1109 02:14:37.543287 142108 net.cpp:225] Memory required for data: 263466496
I1109 02:14:37.543598 142108 layer_factory.hpp:114] Creating layer relu6
I1109 02:14:37.546130 142108 net.cpp:160] Creating Layer relu6
I1109 02:14:37.546433 142108 net.cpp:596] relu6 <- fc6
I1109 02:14:37.546658 142108 net.cpp:557] relu6 -> fc6 (in-place)
I1109 02:14:37.547072 142108 net.cpp:210] Setting up relu6
I1109 02:14:37.547325 142108 net.cpp:217] Top shape: 32 4096 (131072)
I1109 02:14:37.547545 142108 net.cpp:225] Memory required for data: 263990784
I1109 02:14:37.547730 142108 layer_factory.hpp:114] Creating layer drop6
I1109 02:14:37.567713 142108 net.cpp:160] Creating Layer drop6
I1109 02:14:37.568019 142108 net.cpp:596] drop6 <- fc6
I1109 02:14:37.568425 142108 net.cpp:557] drop6 -> fc6 (in-place)
I1109 02:14:37.672984 142108 net.cpp:210] Setting up drop6
I1109 02:14:37.673285 142108 net.cpp:217] Top shape: 32 4096 (131072)
I1109 02:14:37.673678 142108 net.cpp:225] Memory required for data: 264515072
I1109 02:14:37.673918 142108 layer_factory.hpp:114] Creating layer fc7
I1109 02:14:37.674187 142108 net.cpp:160] Creating Layer fc7
I1109 02:14:37.674401 142108 net.cpp:596] fc7 <- fc6
I1109 02:14:37.674782 142108 net.cpp:570] fc7 -> fc7
I1109 02:14:39.385558 142108 net.cpp:210] Setting up fc7
I1109 02:14:39.385936 142108 net.cpp:217] Top shape: 32 4096 (131072)
I1109 02:14:39.386366 142108 net.cpp:225] Memory required for data: 265039360
I1109 02:14:39.386726 142108 layer_factory.hpp:114] Creating layer relu7
I1109 02:14:39.387060 142108 net.cpp:160] Creating Layer relu7
I1109 02:14:39.387310 142108 net.cpp:596] relu7 <- fc7
I1109 02:14:39.387568 142108 net.cpp:557] relu7 -> fc7 (in-place)
I1109 02:14:39.388021 142108 net.cpp:210] Setting up relu7
I1109 02:14:39.388319 142108 net.cpp:217] Top shape: 32 4096 (131072)
I1109 02:14:39.388563 142108 net.cpp:225] Memory required for data: 265563648
I1109 02:14:39.388763 142108 layer_factory.hpp:114] Creating layer drop7
I1109 02:14:39.389101 142108 net.cpp:160] Creating Layer drop7
I1109 02:14:39.389324 142108 net.cpp:596] drop7 <- fc7
I1109 02:14:39.389586 142108 net.cpp:557] drop7 -> fc7 (in-place)
I1109 02:14:39.389963 142108 net.cpp:210] Setting up drop7
I1109 02:14:39.390168 142108 net.cpp:217] Top shape: 32 4096 (131072)
I1109 02:14:39.390386 142108 net.cpp:225] Memory required for data: 266087936
I1109 02:14:39.390575 142108 layer_factory.hpp:114] Creating layer fc8
I1109 02:14:39.390831 142108 net.cpp:160] Creating Layer fc8
I1109 02:14:39.391033 142108 net.cpp:596] fc8 <- fc7
I1109 02:14:39.391261 142108 net.cpp:570] fc8 -> fc8
I1109 02:14:39.814786 142108 net.cpp:210] Setting up fc8
I1109 02:14:39.815157 142108 net.cpp:217] Top shape: 32 1000 (32000)
I1109 02:14:39.815577 142108 net.cpp:225] Memory required for data: 266215936
I1109 02:14:39.815925 142108 layer_factory.hpp:114] Creating layer loss
I1109 02:14:39.841356 142108 net.cpp:160] Creating Layer loss
I1109 02:14:39.841682 142108 net.cpp:596] loss <- fc8
I1109 02:14:39.842579 142108 net.cpp:596] loss <- label
I1109 02:14:39.870678 142108 net.cpp:570] loss -> loss
I1109 02:14:39.909948 142108 layer_factory.hpp:114] Creating layer loss
…
