…
I1109 03:00:48.219691 144290 net.cpp:484] The NetState phase (0) differed from the phase (1) specified by a rule in layer accuracy
I1109 03:00:48.853377 144290 net.cpp:120] Initializing net from parameters: 
name: "AlexNet"
state {
  phase: TRAIN
  level: 0
  stage: ""
}
layer {
  name: "data"
  type: "DummyData"
  top: "data"
  top: "label"
  include {
    phase: TRAIN
  }
  dummy_data_param {
    data_filler {
      type: "gaussian"
      std: 1
    }
    data_filler {
      type: "constant"
      value: 0
    }
    shape {
      dim: 32
      dim: 3
      dim: 227
      dim: 227
    }
    shape {
      dim: 32
      dim: 1
      dim: 1
      dim: 1
    }
  }
}
layer {
  name: "conv1"
  type: "Convolution"
  bottom: "data"
  top: "conv1"
  param {
    lr_mult: 1
    decay_mult: 1
  }
  param {
    lr_mult: 2
    decay_mult: 0
  }
  convolution_param {
    num_output: 96
    kernel_size: 11
    stride: 4
    weight_filler {
      type: "gaussian"
      std: 0.01
    }
    bias_filler {
      type: "constant"
      value: 0
    }
    engine: MKL2017
  }
}
layer {
  name: "relu1"
  type: "ReLU"
  bottom: "conv1"
  top: "conv1"
  relu_param {
    engine: MKL2017
  }
}
layer {
  name: "norm1"
  type: "LRN"
  bottom: "conv1"
  top: "norm1"
  lrn_param {
    local_size: 5
    alpha: 0.0001
    beta: 0.75
    engine: MKL2017
  }
}
layer {
  name: "pool1"
  type: "Pooling"
  bottom: "norm1"
  top: "pool1"
  pooling_param {
    pool: MAX
    kernel_size: 3
    stride: 2
    engine: MKL2017
  }
}
layer {
  name: "conv2"
  type: "Convolution"
  bottom: "pool1"
  top: "conv2"
  param {
    lr_mult: 1
    decay_mult: 1
  }
  param {
    lr_mult: 2
    decay_mult: 0
  }
  convolution_param {
    num_output: 256
    pad: 2
    kernel_size: 5
    group: 2
    weight_filler {
      type: "gaussian"
      std: 0.01
    }
    bias_filler {
      type: "constant"
      value: 0.1
    }
    engine: MKL2017
  }
}
layer {
  name: "relu2"
  type: "ReLU"
  bottom: "conv2"
  top: "conv2"
  relu_param {
    engine: MKL2017
  }
}
layer {
  name: "norm2"
  type: "LRN"
  bottom: "conv2"
  top: "norm2"
  lrn_param {
    local_size: 5
    alpha: 0.0001
    beta: 0.75
    engine: MKL2017
  }
}
layer {
  name: "pool2"
  type: "Pooling"
  bottom: "norm2"
  top: "pool2"
  pooling_param {
    pool: MAX
    kernel_size: 3
    stride: 2
    engine: MKL2017
  }
}
layer {
  name: "conv3"
  type: "Convolution"
  bottom: "pool2"
  top: "conv3"
  param {
    lr_mult: 1
    decay_mult: 1
  }
  param {
    lr_mult: 2
    decay_mult: 0
  }
  convolution_param {
    num_output: 384
    pad: 1
    kernel_size: 3
    weight_filler {
      type: "gaussian"
      std: 0.01
    }
    bias_filler {
      type: "constant"
      value: 0
    }
    engine: MKL2017
  }
}
layer {
  name: "relu3"
  type: "ReLU"
  bottom: "conv3"
  top: "conv3"
  relu_param {
    engine: MKL2017
  }
}
layer {
  name: "conv4"
  type: "Convolution"
  bottom: "conv3"
  top: "conv4"
  param {
    lr_mult: 1
    decay_mult: 1
  }
  param {
    lr_mult: 2
    decay_mult: 0
  }
  convolution_param {
    num_output: 384
    pad: 1
    kernel_size: 3
    group: 2
    weight_filler {
      type: "gaussian"
      std: 0.01
    }
    bias_filler {
      type: "constant"
      value: 0.1
    }
    engine: MKL2017
  }
}
layer {
  name: "relu4"
  type: "ReLU"
  bottom: "conv4"
  top: "conv4"
  relu_param {
    engine: MKL2017
  }
}
layer {
  name: "conv5"
  type: "Convolution"
  bottom: "conv4"
  top: "conv5"
  param {
    lr_mult: 1
    decay_mult: 1
  }
  param {
    lr_mult: 2
    decay_mult: 0
  }
  convolution_param {
    num_output: 256
    pad: 1
    kernel_size: 3
    group: 2
    weight_filler {
      type: "gaussian"
      std: 0.01
    }
    bias_filler {
      type: "constant"
      value: 0.1
    }
    engine: MKL2017
  }
}
layer {
  name: "relu5"
  type: "ReLU"
  bottom: "conv5"
  top: "conv5"
  relu_param {
    engine: MKL2017
  }
}
layer {
  name: "pool5"
  type: "Pooling"
  bottom: "conv5"
  top: "pool5"
  pooling_param {
    pool: MAX
    kernel_size: 3
    stride: 2
    engine: MKL2017
  }
}
layer {
  name: "fc6"
  type: "InnerProduct"
  bottom: "pool5"
  top: "fc6"
  param {
    lr_mult: 1
    decay_mult: 1
  }
  param {
    lr_mult: 2
    decay_mult: 0
  }
  inner_product_param {
    num_output: 4096
    weight_filler {
      type: "gaussian"
      std: 0.005
    }
    bias_filler {
      type: "constant"
      value: 0.1
    }
  }
}
layer {
  name: "relu6"
  type: "ReLU"
  bottom: "fc6"
  top: "fc6"
}
layer {
  name: "drop6"
  type: "Dropout"
  bottom: "fc6"
  top: "fc6"
  dropout_param {
    dropout_ratio: 0.5
  }
}
layer {
  name: "fc7"
  type: "InnerProduct"
  bottom: "fc6"
  top: "fc7"
  param {
    lr_mult: 1
    decay_mult: 1
  }
  param {
    lr_mult: 2
    decay_mult: 0
  }
  inner_product_param {
    num_output: 4096
    weight_filler {
      type: "gaussian"
      std: 0.005
    }
    bias_filler {
      type: "constant"
      value: 0.1
    }
  }
}
layer {
  name: "relu7"
  type: "ReLU"
  bottom: "fc7"
  top: "fc7"
}
layer {
  name: "drop7"
  type: "Dropout"
  bottom: "fc7"
  top: "fc7"
  dropout_param {
    dropout_ratio: 0.5
  }
}
layer {
  name: "fc8"
  type: "InnerProduct"
  bottom: "fc7"
  top: "fc8"
  param {
    lr_mult: 1
    decay_mult: 1
  }
  param {
    lr_mult: 2
    decay_mult: 0
  }
  inner_product_param {
    num_output: 1000
    weight_filler {
      type: "gaussian"
      std: 0.01
    }
    bias_filler {
      type: "constant"
      value: 0
    }
  }
}
layer {
  name: "loss"
  type: "SoftmaxWithLoss"
  bottom: "fc8"
  bottom: "label"
  top: "loss"
}
I1109 03:00:51.301725 144290 layer_factory.hpp:114] Creating layer data
I1109 03:00:51.448971 144290 net.cpp:160] Creating Layer data
I1109 03:00:51.496834 144290 net.cpp:570] data -> data
I1109 03:00:51.964977 144290 net.cpp:570] data -> label
I1109 03:00:58.998251 144290 net.cpp:210] Setting up data
I1109 03:00:59.077414 144290 net.cpp:217] Top shape: 32 3 227 227 (4946784)
I1109 03:00:59.181534 144290 net.cpp:217] Top shape: 32 1 1 1 (32)
I1109 03:00:59.188817 144290 net.cpp:225] Memory required for data: 19787264
I1109 03:00:59.255980 144290 layer_factory.hpp:114] Creating layer conv1
I1109 03:00:59.587045 144290 net.cpp:160] Creating Layer conv1
I1109 03:00:59.637835 144290 net.cpp:596] conv1 <- data
I1109 03:00:59.757448 144290 net.cpp:570] conv1 -> conv1
I1109 03:01:32.452304 144290 net.cpp:210] Setting up conv1
I1109 03:01:32.459484 144290 net.cpp:217] Top shape: 32 96 55 55 (9292800)
I1109 03:01:32.459841 144290 net.cpp:225] Memory required for data: 56958464
I1109 03:01:32.739552 144290 layer_factory.hpp:114] Creating layer relu1
I1109 03:01:32.859926 144290 net.cpp:160] Creating Layer relu1
I1109 03:01:32.864548 144290 net.cpp:596] relu1 <- conv1
I1109 03:01:32.896744 144290 net.cpp:557] relu1 -> conv1 (in-place)
I1109 03:01:33.086446 144290 net.cpp:210] Setting up relu1
I1109 03:01:33.088953 144290 net.cpp:217] Top shape: 32 96 55 55 (9292800)
I1109 03:01:33.089299 144290 net.cpp:225] Memory required for data: 94129664
I1109 03:01:33.089541 144290 layer_factory.hpp:114] Creating layer norm1
I1109 03:01:33.193688 144290 net.cpp:160] Creating Layer norm1
I1109 03:01:33.194006 144290 net.cpp:596] norm1 <- conv1
I1109 03:01:33.196569 144290 net.cpp:570] norm1 -> norm1
I1109 03:01:33.418234 144290 net.cpp:210] Setting up norm1
I1109 03:01:33.431138 144290 net.cpp:217] Top shape: 32 96 55 55 (9292800)
I1109 03:01:33.431522 144290 net.cpp:225] Memory required for data: 131300864
I1109 03:01:33.431833 144290 layer_factory.hpp:114] Creating layer pool1
I1109 03:01:33.528465 144290 net.cpp:160] Creating Layer pool1
I1109 03:01:33.528856 144290 net.cpp:596] pool1 <- norm1
I1109 03:01:33.543895 144290 net.cpp:570] pool1 -> pool1
I1109 03:01:33.843276 144290 net.cpp:210] Setting up pool1
I1109 03:01:33.845790 144290 net.cpp:217] Top shape: 32 96 27 27 (2239488)
I1109 03:01:33.846125 144290 net.cpp:225] Memory required for data: 140258816
I1109 03:01:33.846350 144290 layer_factory.hpp:114] Creating layer conv2
I1109 03:01:33.846755 144290 net.cpp:160] Creating Layer conv2
I1109 03:01:33.846997 144290 net.cpp:596] conv2 <- pool1
I1109 03:01:33.847277 144290 net.cpp:570] conv2 -> conv2
I1109 03:01:39.608764 144290 net.cpp:210] Setting up conv2
I1109 03:01:39.609138 144290 net.cpp:217] Top shape: 32 256 27 27 (5971968)
I1109 03:01:39.609547 144290 net.cpp:225] Memory required for data: 164146688
I1109 03:01:39.661161 144290 layer_factory.hpp:114] Creating layer relu2
I1109 03:01:39.661563 144290 net.cpp:160] Creating Layer relu2
I1109 03:01:39.661941 144290 net.cpp:596] relu2 <- conv2
I1109 03:01:39.662212 144290 net.cpp:557] relu2 -> conv2 (in-place)
I1109 03:01:39.662668 144290 net.cpp:210] Setting up relu2
I1109 03:01:39.662942 144290 net.cpp:217] Top shape: 32 256 27 27 (5971968)
I1109 03:01:39.663183 144290 net.cpp:225] Memory required for data: 188034560
I1109 03:01:39.663378 144290 layer_factory.hpp:114] Creating layer norm2
I1109 03:01:39.663631 144290 net.cpp:160] Creating Layer norm2
I1109 03:01:39.663835 144290 net.cpp:596] norm2 <- conv2
I1109 03:01:39.664063 144290 net.cpp:570] norm2 -> norm2
I1109 03:01:39.666154 144290 net.cpp:210] Setting up norm2
I1109 03:01:39.666486 144290 net.cpp:217] Top shape: 32 256 27 27 (5971968)
I1109 03:01:39.666764 144290 net.cpp:225] Memory required for data: 211922432
I1109 03:01:39.666954 144290 layer_factory.hpp:114] Creating layer pool2
I1109 03:01:39.667805 144290 net.cpp:160] Creating Layer pool2
I1109 03:01:39.668112 144290 net.cpp:596] pool2 <- norm2
I1109 03:01:39.668516 144290 net.cpp:570] pool2 -> pool2
I1109 03:01:39.669025 144290 net.cpp:210] Setting up pool2
I1109 03:01:39.669281 144290 net.cpp:217] Top shape: 32 256 13 13 (1384448)
I1109 03:01:39.669512 144290 net.cpp:225] Memory required for data: 217460224
I1109 03:01:39.669715 144290 layer_factory.hpp:114] Creating layer conv3
I1109 03:01:39.670054 144290 net.cpp:160] Creating Layer conv3
I1109 03:01:39.670279 144290 net.cpp:596] conv3 <- pool2
I1109 03:01:39.670523 144290 net.cpp:570] conv3 -> conv3
I1109 03:01:40.131139 144290 net.cpp:210] Setting up conv3
I1109 03:01:40.133630 144290 net.cpp:217] Top shape: 32 384 13 13 (2076672)
I1109 03:01:40.133991 144290 net.cpp:225] Memory required for data: 225766912
I1109 03:01:40.137202 144290 layer_factory.hpp:114] Creating layer relu3
I1109 03:01:40.137619 144290 net.cpp:160] Creating Layer relu3
I1109 03:01:40.137879 144290 net.cpp:596] relu3 <- conv3
I1109 03:01:40.138161 144290 net.cpp:557] relu3 -> conv3 (in-place)
I1109 03:01:40.142374 144290 net.cpp:210] Setting up relu3
I1109 03:01:40.142693 144290 net.cpp:217] Top shape: 32 384 13 13 (2076672)
I1109 03:01:40.142949 144290 net.cpp:225] Memory required for data: 234073600
I1109 03:01:40.143149 144290 layer_factory.hpp:114] Creating layer conv4
I1109 03:01:40.143515 144290 net.cpp:160] Creating Layer conv4
I1109 03:01:40.143772 144290 net.cpp:596] conv4 <- conv3
I1109 03:01:40.144028 144290 net.cpp:570] conv4 -> conv4
I1109 03:01:40.412714 144290 net.cpp:210] Setting up conv4
I1109 03:01:40.413144 144290 net.cpp:217] Top shape: 32 384 13 13 (2076672)
I1109 03:01:40.413550 144290 net.cpp:225] Memory required for data: 242380288
I1109 03:01:40.413902 144290 layer_factory.hpp:114] Creating layer relu4
I1109 03:01:40.414201 144290 net.cpp:160] Creating Layer relu4
I1109 03:01:40.414438 144290 net.cpp:596] relu4 <- conv4
I1109 03:01:40.414680 144290 net.cpp:557] relu4 -> conv4 (in-place)
I1109 03:01:40.427160 144290 net.cpp:210] Setting up relu4
I1109 03:01:40.427525 144290 net.cpp:217] Top shape: 32 384 13 13 (2076672)
I1109 03:01:40.427881 144290 net.cpp:225] Memory required for data: 250686976
I1109 03:01:40.428134 144290 layer_factory.hpp:114] Creating layer conv5
I1109 03:01:40.428503 144290 net.cpp:160] Creating Layer conv5
I1109 03:01:40.428752 144290 net.cpp:596] conv5 <- conv4
I1109 03:01:40.429067 144290 net.cpp:570] conv5 -> conv5
I1109 03:01:40.597914 144290 net.cpp:210] Setting up conv5
I1109 03:01:40.598315 144290 net.cpp:217] Top shape: 32 256 13 13 (1384448)
I1109 03:01:40.598770 144290 net.cpp:225] Memory required for data: 256224768
I1109 03:01:40.603461 144290 layer_factory.hpp:114] Creating layer relu5
I1109 03:01:40.603868 144290 net.cpp:160] Creating Layer relu5
I1109 03:01:40.604135 144290 net.cpp:596] relu5 <- conv5
I1109 03:01:40.604418 144290 net.cpp:557] relu5 -> conv5 (in-place)
I1109 03:01:40.604974 144290 net.cpp:210] Setting up relu5
I1109 03:01:40.605298 144290 net.cpp:217] Top shape: 32 256 13 13 (1384448)
I1109 03:01:40.605657 144290 net.cpp:225] Memory required for data: 261762560
I1109 03:01:40.605875 144290 layer_factory.hpp:114] Creating layer pool5
I1109 03:01:40.606144 144290 net.cpp:160] Creating Layer pool5
I1109 03:01:40.606374 144290 net.cpp:596] pool5 <- conv5
I1109 03:01:40.606604 144290 net.cpp:570] pool5 -> pool5
I1109 03:01:40.607005 144290 net.cpp:210] Setting up pool5
I1109 03:01:40.607266 144290 net.cpp:217] Top shape: 32 256 6 6 (294912)
I1109 03:01:40.607497 144290 net.cpp:225] Memory required for data: 262942208
I1109 03:01:40.607686 144290 layer_factory.hpp:114] Creating layer fc6
I1109 03:01:40.662917 144290 net.cpp:160] Creating Layer fc6
I1109 03:01:40.663230 144290 net.cpp:596] fc6 <- pool5
I1109 03:01:40.663633 144290 net.cpp:570] fc6 -> fc6
I1109 03:01:44.758280 144290 net.cpp:210] Setting up fc6
I1109 03:01:44.758587 144290 net.cpp:217] Top shape: 32 4096 (131072)
I1109 03:01:44.760614 144290 net.cpp:225] Memory required for data: 263466496
I1109 03:01:44.760982 144290 layer_factory.hpp:114] Creating layer relu6
I1109 03:01:44.763492 144290 net.cpp:160] Creating Layer relu6
I1109 03:01:44.763792 144290 net.cpp:596] relu6 <- fc6
I1109 03:01:44.764024 144290 net.cpp:557] relu6 -> fc6 (in-place)
I1109 03:01:44.764453 144290 net.cpp:210] Setting up relu6
I1109 03:01:44.764710 144290 net.cpp:217] Top shape: 32 4096 (131072)
I1109 03:01:44.764998 144290 net.cpp:225] Memory required for data: 263990784
I1109 03:01:44.765195 144290 layer_factory.hpp:114] Creating layer drop6
I1109 03:01:44.785430 144290 net.cpp:160] Creating Layer drop6
I1109 03:01:44.785738 144290 net.cpp:596] drop6 <- fc6
I1109 03:01:44.786137 144290 net.cpp:557] drop6 -> fc6 (in-place)
I1109 03:01:44.890697 144290 net.cpp:210] Setting up drop6
I1109 03:01:44.891003 144290 net.cpp:217] Top shape: 32 4096 (131072)
I1109 03:01:44.891350 144290 net.cpp:225] Memory required for data: 264515072
I1109 03:01:44.891602 144290 layer_factory.hpp:114] Creating layer fc7
I1109 03:01:44.891881 144290 net.cpp:160] Creating Layer fc7
I1109 03:01:44.892102 144290 net.cpp:596] fc7 <- fc6
I1109 03:01:44.892503 144290 net.cpp:570] fc7 -> fc7
I1109 03:01:46.606578 144290 net.cpp:210] Setting up fc7
I1109 03:01:46.606923 144290 net.cpp:217] Top shape: 32 4096 (131072)
I1109 03:01:46.607302 144290 net.cpp:225] Memory required for data: 265039360
I1109 03:01:46.607651 144290 layer_factory.hpp:114] Creating layer relu7
I1109 03:01:46.607964 144290 net.cpp:160] Creating Layer relu7
I1109 03:01:46.608199 144290 net.cpp:596] relu7 <- fc7
I1109 03:01:46.608446 144290 net.cpp:557] relu7 -> fc7 (in-place)
I1109 03:01:46.608932 144290 net.cpp:210] Setting up relu7
I1109 03:01:46.609227 144290 net.cpp:217] Top shape: 32 4096 (131072)
I1109 03:01:46.609468 144290 net.cpp:225] Memory required for data: 265563648
I1109 03:01:46.609670 144290 layer_factory.hpp:114] Creating layer drop7
I1109 03:01:46.609906 144290 net.cpp:160] Creating Layer drop7
I1109 03:01:46.610152 144290 net.cpp:596] drop7 <- fc7
I1109 03:01:46.610405 144290 net.cpp:557] drop7 -> fc7 (in-place)
I1109 03:01:46.610692 144290 net.cpp:210] Setting up drop7
I1109 03:01:46.610929 144290 net.cpp:217] Top shape: 32 4096 (131072)
I1109 03:01:46.611147 144290 net.cpp:225] Memory required for data: 266087936
I1109 03:01:46.611332 144290 layer_factory.hpp:114] Creating layer fc8
I1109 03:01:46.611584 144290 net.cpp:160] Creating Layer fc8
I1109 03:01:46.611780 144290 net.cpp:596] fc8 <- fc7
I1109 03:01:46.612005 144290 net.cpp:570] fc8 -> fc8
I1109 03:01:47.035086 144290 net.cpp:210] Setting up fc8
I1109 03:01:47.035467 144290 net.cpp:217] Top shape: 32 1000 (32000)
I1109 03:01:47.035892 144290 net.cpp:225] Memory required for data: 266215936
I1109 03:01:47.036257 144290 layer_factory.hpp:114] Creating layer loss
I1109 03:01:47.061362 144290 net.cpp:160] Creating Layer loss
I1109 03:01:47.061736 144290 net.cpp:596] loss <- fc8
I1109 03:01:47.062794 144290 net.cpp:596] loss <- label
I1109 03:01:47.090327 144290 net.cpp:570] loss -> loss
I1109 03:01:47.128103 144290 layer_factory.hpp:114] Creating layer loss
…
