…
I1109 00:38:33.335407 138786 net.cpp:484] The NetState phase (0) differed from the phase (1) specified by a rule in layer accuracy
I1109 00:38:33.967399 138786 net.cpp:120] Initializing net from parameters: 
name: "AlexNet"
state {
  phase: TRAIN
  level: 0
  stage: ""
}
layer {
  name: "data"
  type: "DummyData"
  top: "data"
  top: "label"
  include {
    phase: TRAIN
  }
  dummy_data_param {
    data_filler {
      type: "gaussian"
      std: 1
    }
    data_filler {
      type: "constant"
      value: 0
    }
    shape {
      dim: 32
      dim: 3
      dim: 227
      dim: 227
    }
    shape {
      dim: 32
      dim: 1
      dim: 1
      dim: 1
    }
  }
}
layer {
  name: "conv1"
  type: "Convolution"
  bottom: "data"
  top: "conv1"
  param {
    lr_mult: 1
    decay_mult: 1
  }
  param {
    lr_mult: 2
    decay_mult: 0
  }
  convolution_param {
    num_output: 96
    kernel_size: 11
    stride: 4
    weight_filler {
      type: "gaussian"
      std: 0.01
    }
    bias_filler {
      type: "constant"
      value: 0
    }
    engine: MKL2017
  }
}
layer {
  name: "relu1"
  type: "ReLU"
  bottom: "conv1"
  top: "conv1"
  relu_param {
    engine: MKL2017
  }
}
layer {
  name: "norm1"
  type: "LRN"
  bottom: "conv1"
  top: "norm1"
  lrn_param {
    local_size: 5
    alpha: 0.0001
    beta: 0.75
    engine: MKL2017
  }
}
layer {
  name: "pool1"
  type: "Pooling"
  bottom: "norm1"
  top: "pool1"
  pooling_param {
    pool: MAX
    kernel_size: 3
    stride: 2
    engine: MKL2017
  }
}
layer {
  name: "conv2"
  type: "Convolution"
  bottom: "pool1"
  top: "conv2"
  param {
    lr_mult: 1
    decay_mult: 1
  }
  param {
    lr_mult: 2
    decay_mult: 0
  }
  convolution_param {
    num_output: 256
    pad: 2
    kernel_size: 5
    group: 2
    weight_filler {
      type: "gaussian"
      std: 0.01
    }
    bias_filler {
      type: "constant"
      value: 0.1
    }
    engine: MKL2017
  }
}
layer {
  name: "relu2"
  type: "ReLU"
  bottom: "conv2"
  top: "conv2"
  relu_param {
    engine: MKL2017
  }
}
layer {
  name: "norm2"
  type: "LRN"
  bottom: "conv2"
  top: "norm2"
  lrn_param {
    local_size: 5
    alpha: 0.0001
    beta: 0.75
    engine: MKL2017
  }
}
layer {
  name: "pool2"
  type: "Pooling"
  bottom: "norm2"
  top: "pool2"
  pooling_param {
    pool: MAX
    kernel_size: 3
    stride: 2
    engine: MKL2017
  }
}
layer {
  name: "conv3"
  type: "Convolution"
  bottom: "pool2"
  top: "conv3"
  param {
    lr_mult: 1
    decay_mult: 1
  }
  param {
    lr_mult: 2
    decay_mult: 0
  }
  convolution_param {
    num_output: 384
    pad: 1
    kernel_size: 3
    weight_filler {
      type: "gaussian"
      std: 0.01
    }
    bias_filler {
      type: "constant"
      value: 0
    }
    engine: MKL2017
  }
}
layer {
  name: "relu3"
  type: "ReLU"
  bottom: "conv3"
  top: "conv3"
  relu_param {
    engine: MKL2017
  }
}
layer {
  name: "conv4"
  type: "Convolution"
  bottom: "conv3"
  top: "conv4"
  param {
    lr_mult: 1
    decay_mult: 1
  }
  param {
    lr_mult: 2
    decay_mult: 0
  }
  convolution_param {
    num_output: 384
    pad: 1
    kernel_size: 3
    group: 2
    weight_filler {
      type: "gaussian"
      std: 0.01
    }
    bias_filler {
      type: "constant"
      value: 0.1
    }
    engine: MKL2017
  }
}
layer {
  name: "relu4"
  type: "ReLU"
  bottom: "conv4"
  top: "conv4"
  relu_param {
    engine: MKL2017
  }
}
layer {
  name: "conv5"
  type: "Convolution"
  bottom: "conv4"
  top: "conv5"
  param {
    lr_mult: 1
    decay_mult: 1
  }
  param {
    lr_mult: 2
    decay_mult: 0
  }
  convolution_param {
    num_output: 256
    pad: 1
    kernel_size: 3
    group: 2
    weight_filler {
      type: "gaussian"
      std: 0.01
    }
    bias_filler {
      type: "constant"
      value: 0.1
    }
    engine: MKL2017
  }
}
layer {
  name: "relu5"
  type: "ReLU"
  bottom: "conv5"
  top: "conv5"
  relu_param {
    engine: MKL2017
  }
}
layer {
  name: "pool5"
  type: "Pooling"
  bottom: "conv5"
  top: "pool5"
  pooling_param {
    pool: MAX
    kernel_size: 3
    stride: 2
    engine: MKL2017
  }
}
layer {
  name: "fc6"
  type: "InnerProduct"
  bottom: "pool5"
  top: "fc6"
  param {
    lr_mult: 1
    decay_mult: 1
  }
  param {
    lr_mult: 2
    decay_mult: 0
  }
  inner_product_param {
    num_output: 4096
    weight_filler {
      type: "gaussian"
      std: 0.005
    }
    bias_filler {
      type: "constant"
      value: 0.1
    }
  }
}
layer {
  name: "relu6"
  type: "ReLU"
  bottom: "fc6"
  top: "fc6"
}
layer {
  name: "drop6"
  type: "Dropout"
  bottom: "fc6"
  top: "fc6"
  dropout_param {
    dropout_ratio: 0.5
  }
}
layer {
  name: "fc7"
  type: "InnerProduct"
  bottom: "fc6"
  top: "fc7"
  param {
    lr_mult: 1
    decay_mult: 1
  }
  param {
    lr_mult: 2
    decay_mult: 0
  }
  inner_product_param {
    num_output: 4096
    weight_filler {
      type: "gaussian"
      std: 0.005
    }
    bias_filler {
      type: "constant"
      value: 0.1
    }
  }
}
layer {
  name: "relu7"
  type: "ReLU"
  bottom: "fc7"
  top: "fc7"
}
layer {
  name: "drop7"
  type: "Dropout"
  bottom: "fc7"
  top: "fc7"
  dropout_param {
    dropout_ratio: 0.5
  }
}
layer {
  name: "fc8"
  type: "InnerProduct"
  bottom: "fc7"
  top: "fc8"
  param {
    lr_mult: 1
    decay_mult: 1
  }
  param {
    lr_mult: 2
    decay_mult: 0
  }
  inner_product_param {
    num_output: 1000
    weight_filler {
      type: "gaussian"
      std: 0.01
    }
    bias_filler {
      type: "constant"
      value: 0
    }
  }
}
layer {
  name: "loss"
  type: "SoftmaxWithLoss"
  bottom: "fc8"
  bottom: "label"
  top: "loss"
}
I1109 00:38:36.422721 138786 layer_factory.hpp:114] Creating layer data
I1109 00:38:36.568954 138786 net.cpp:160] Creating Layer data
I1109 00:38:36.616942 138786 net.cpp:570] data -> data
I1109 00:38:37.086020 138786 net.cpp:570] data -> label
I1109 00:38:44.137070 138786 net.cpp:210] Setting up data
I1109 00:38:44.216609 138786 net.cpp:217] Top shape: 32 3 227 227 (4946784)
I1109 00:38:44.320272 138786 net.cpp:217] Top shape: 32 1 1 1 (32)
I1109 00:38:44.328444 138786 net.cpp:225] Memory required for data: 19787264
I1109 00:38:44.397281 138786 layer_factory.hpp:114] Creating layer conv1
I1109 00:38:44.726205 138786 net.cpp:160] Creating Layer conv1
I1109 00:38:44.776579 138786 net.cpp:596] conv1 <- data
I1109 00:38:44.899840 138786 net.cpp:570] conv1 -> conv1
I1109 00:39:17.765936 138786 net.cpp:210] Setting up conv1
I1109 00:39:17.772732 138786 net.cpp:217] Top shape: 32 96 55 55 (9292800)
I1109 00:39:17.773200 138786 net.cpp:225] Memory required for data: 56958464
I1109 00:39:18.054190 138786 layer_factory.hpp:114] Creating layer relu1
I1109 00:39:18.175544 138786 net.cpp:160] Creating Layer relu1
I1109 00:39:18.180172 138786 net.cpp:596] relu1 <- conv1
I1109 00:39:18.212713 138786 net.cpp:557] relu1 -> conv1 (in-place)
I1109 00:39:18.404258 138786 net.cpp:210] Setting up relu1
I1109 00:39:18.406673 138786 net.cpp:217] Top shape: 32 96 55 55 (9292800)
I1109 00:39:18.407011 138786 net.cpp:225] Memory required for data: 94129664
I1109 00:39:18.407244 138786 layer_factory.hpp:114] Creating layer norm1
I1109 00:39:18.511684 138786 net.cpp:160] Creating Layer norm1
I1109 00:39:18.511996 138786 net.cpp:596] norm1 <- conv1
I1109 00:39:18.514538 138786 net.cpp:570] norm1 -> norm1
I1109 00:39:18.735666 138786 net.cpp:210] Setting up norm1
I1109 00:39:18.748405 138786 net.cpp:217] Top shape: 32 96 55 55 (9292800)
I1109 00:39:18.748836 138786 net.cpp:225] Memory required for data: 131300864
I1109 00:39:18.749127 138786 layer_factory.hpp:114] Creating layer pool1
I1109 00:39:18.841951 138786 net.cpp:160] Creating Layer pool1
I1109 00:39:18.842262 138786 net.cpp:596] pool1 <- norm1
I1109 00:39:18.857044 138786 net.cpp:570] pool1 -> pool1
I1109 00:39:19.159191 138786 net.cpp:210] Setting up pool1
I1109 00:39:19.161728 138786 net.cpp:217] Top shape: 32 96 27 27 (2239488)
I1109 00:39:19.162055 138786 net.cpp:225] Memory required for data: 140258816
I1109 00:39:19.162263 138786 layer_factory.hpp:114] Creating layer conv2
I1109 00:39:19.162659 138786 net.cpp:160] Creating Layer conv2
I1109 00:39:19.162889 138786 net.cpp:596] conv2 <- pool1
I1109 00:39:19.163147 138786 net.cpp:570] conv2 -> conv2
I1109 00:39:24.880244 138786 net.cpp:210] Setting up conv2
I1109 00:39:24.880594 138786 net.cpp:217] Top shape: 32 256 27 27 (5971968)
I1109 00:39:24.881062 138786 net.cpp:225] Memory required for data: 164146688
I1109 00:39:24.932164 138786 layer_factory.hpp:114] Creating layer relu2
I1109 00:39:24.932581 138786 net.cpp:160] Creating Layer relu2
I1109 00:39:24.933015 138786 net.cpp:596] relu2 <- conv2
I1109 00:39:24.933293 138786 net.cpp:557] relu2 -> conv2 (in-place)
I1109 00:39:24.933753 138786 net.cpp:210] Setting up relu2
I1109 00:39:24.934020 138786 net.cpp:217] Top shape: 32 256 27 27 (5971968)
I1109 00:39:24.934250 138786 net.cpp:225] Memory required for data: 188034560
I1109 00:39:24.934437 138786 layer_factory.hpp:114] Creating layer norm2
I1109 00:39:24.934675 138786 net.cpp:160] Creating Layer norm2
I1109 00:39:24.934870 138786 net.cpp:596] norm2 <- conv2
I1109 00:39:24.935094 138786 net.cpp:570] norm2 -> norm2
I1109 00:39:24.937377 138786 net.cpp:210] Setting up norm2
I1109 00:39:24.937685 138786 net.cpp:217] Top shape: 32 256 27 27 (5971968)
I1109 00:39:24.937916 138786 net.cpp:225] Memory required for data: 211922432
I1109 00:39:24.938107 138786 layer_factory.hpp:114] Creating layer pool2
I1109 00:39:24.938387 138786 net.cpp:160] Creating Layer pool2
I1109 00:39:24.938606 138786 net.cpp:596] pool2 <- norm2
I1109 00:39:24.938835 138786 net.cpp:570] pool2 -> pool2
I1109 00:39:24.939260 138786 net.cpp:210] Setting up pool2
I1109 00:39:24.939633 138786 net.cpp:217] Top shape: 32 256 13 13 (1384448)
I1109 00:39:24.939921 138786 net.cpp:225] Memory required for data: 217460224
I1109 00:39:24.940125 138786 layer_factory.hpp:114] Creating layer conv3
I1109 00:39:24.940461 138786 net.cpp:160] Creating Layer conv3
I1109 00:39:24.940685 138786 net.cpp:596] conv3 <- pool2
I1109 00:39:24.940973 138786 net.cpp:570] conv3 -> conv3
I1109 00:39:25.431728 138786 net.cpp:210] Setting up conv3
I1109 00:39:25.434236 138786 net.cpp:217] Top shape: 32 384 13 13 (2076672)
I1109 00:39:25.434589 138786 net.cpp:225] Memory required for data: 225766912
I1109 00:39:25.437765 138786 layer_factory.hpp:114] Creating layer relu3
I1109 00:39:25.438163 138786 net.cpp:160] Creating Layer relu3
I1109 00:39:25.438412 138786 net.cpp:596] relu3 <- conv3
I1109 00:39:25.438685 138786 net.cpp:557] relu3 -> conv3 (in-place)
I1109 00:39:25.442817 138786 net.cpp:210] Setting up relu3
I1109 00:39:25.443127 138786 net.cpp:217] Top shape: 32 384 13 13 (2076672)
I1109 00:39:25.443380 138786 net.cpp:225] Memory required for data: 234073600
I1109 00:39:25.443583 138786 layer_factory.hpp:114] Creating layer conv4
I1109 00:39:25.443948 138786 net.cpp:160] Creating Layer conv4
I1109 00:39:25.444205 138786 net.cpp:596] conv4 <- conv3
I1109 00:39:25.444453 138786 net.cpp:570] conv4 -> conv4
I1109 00:39:25.685781 138786 net.cpp:210] Setting up conv4
I1109 00:39:25.686167 138786 net.cpp:217] Top shape: 32 384 13 13 (2076672)
I1109 00:39:25.686560 138786 net.cpp:225] Memory required for data: 242380288
I1109 00:39:25.686902 138786 layer_factory.hpp:114] Creating layer relu4
I1109 00:39:25.687198 138786 net.cpp:160] Creating Layer relu4
I1109 00:39:25.687424 138786 net.cpp:596] relu4 <- conv4
I1109 00:39:25.687659 138786 net.cpp:557] relu4 -> conv4 (in-place)
I1109 00:39:25.699960 138786 net.cpp:210] Setting up relu4
I1109 00:39:25.700271 138786 net.cpp:217] Top shape: 32 384 13 13 (2076672)
I1109 00:39:25.700516 138786 net.cpp:225] Memory required for data: 250686976
I1109 00:39:25.700749 138786 layer_factory.hpp:114] Creating layer conv5
I1109 00:39:25.701192 138786 net.cpp:160] Creating Layer conv5
I1109 00:39:25.701444 138786 net.cpp:596] conv5 <- conv4
I1109 00:39:25.701719 138786 net.cpp:570] conv5 -> conv5
I1109 00:39:25.869577 138786 net.cpp:210] Setting up conv5
I1109 00:39:25.869973 138786 net.cpp:217] Top shape: 32 256 13 13 (1384448)
I1109 00:39:25.870419 138786 net.cpp:225] Memory required for data: 256224768
I1109 00:39:25.875133 138786 layer_factory.hpp:114] Creating layer relu5
I1109 00:39:25.875561 138786 net.cpp:160] Creating Layer relu5
I1109 00:39:25.875807 138786 net.cpp:596] relu5 <- conv5
I1109 00:39:25.876068 138786 net.cpp:557] relu5 -> conv5 (in-place)
I1109 00:39:25.876566 138786 net.cpp:210] Setting up relu5
I1109 00:39:25.876946 138786 net.cpp:217] Top shape: 32 256 13 13 (1384448)
I1109 00:39:25.877202 138786 net.cpp:225] Memory required for data: 261762560
I1109 00:39:25.877408 138786 layer_factory.hpp:114] Creating layer pool5
I1109 00:39:25.877670 138786 net.cpp:160] Creating Layer pool5
I1109 00:39:25.877876 138786 net.cpp:596] pool5 <- conv5
I1109 00:39:25.878093 138786 net.cpp:570] pool5 -> pool5
I1109 00:39:25.878485 138786 net.cpp:210] Setting up pool5
I1109 00:39:25.878739 138786 net.cpp:217] Top shape: 32 256 6 6 (294912)
I1109 00:39:25.878962 138786 net.cpp:225] Memory required for data: 262942208
I1109 00:39:25.879179 138786 layer_factory.hpp:114] Creating layer fc6
I1109 00:39:25.934411 138786 net.cpp:160] Creating Layer fc6
I1109 00:39:25.934722 138786 net.cpp:596] fc6 <- pool5
I1109 00:39:25.935091 138786 net.cpp:570] fc6 -> fc6
I1109 00:39:30.074082 138786 net.cpp:210] Setting up fc6
I1109 00:39:30.074386 138786 net.cpp:217] Top shape: 32 4096 (131072)
I1109 00:39:30.076479 138786 net.cpp:225] Memory required for data: 263466496
I1109 00:39:30.076828 138786 layer_factory.hpp:114] Creating layer relu6
I1109 00:39:30.079344 138786 net.cpp:160] Creating Layer relu6
I1109 00:39:30.079633 138786 net.cpp:596] relu6 <- fc6
I1109 00:39:30.079857 138786 net.cpp:557] relu6 -> fc6 (in-place)
I1109 00:39:30.080274 138786 net.cpp:210] Setting up relu6
I1109 00:39:30.080523 138786 net.cpp:217] Top shape: 32 4096 (131072)
I1109 00:39:30.080745 138786 net.cpp:225] Memory required for data: 263990784
I1109 00:39:30.080988 138786 layer_factory.hpp:114] Creating layer drop6
I1109 00:39:30.100873 138786 net.cpp:160] Creating Layer drop6
I1109 00:39:30.101176 138786 net.cpp:596] drop6 <- fc6
I1109 00:39:30.101541 138786 net.cpp:557] drop6 -> fc6 (in-place)
I1109 00:39:30.204430 138786 net.cpp:210] Setting up drop6
I1109 00:39:30.204725 138786 net.cpp:217] Top shape: 32 4096 (131072)
I1109 00:39:30.205112 138786 net.cpp:225] Memory required for data: 264515072
I1109 00:39:30.205377 138786 layer_factory.hpp:114] Creating layer fc7
I1109 00:39:30.205669 138786 net.cpp:160] Creating Layer fc7
I1109 00:39:30.205886 138786 net.cpp:596] fc7 <- fc6
I1109 00:39:30.206279 138786 net.cpp:570] fc7 -> fc7
I1109 00:39:31.927567 138786 net.cpp:210] Setting up fc7
I1109 00:39:31.927922 138786 net.cpp:217] Top shape: 32 4096 (131072)
I1109 00:39:31.928319 138786 net.cpp:225] Memory required for data: 265039360
I1109 00:39:31.928668 138786 layer_factory.hpp:114] Creating layer relu7
I1109 00:39:31.929044 138786 net.cpp:160] Creating Layer relu7
I1109 00:39:31.929286 138786 net.cpp:596] relu7 <- fc7
I1109 00:39:31.929532 138786 net.cpp:557] relu7 -> fc7 (in-place)
I1109 00:39:31.929972 138786 net.cpp:210] Setting up relu7
I1109 00:39:31.930250 138786 net.cpp:217] Top shape: 32 4096 (131072)
I1109 00:39:31.930490 138786 net.cpp:225] Memory required for data: 265563648
I1109 00:39:31.930686 138786 layer_factory.hpp:114] Creating layer drop7
I1109 00:39:31.930950 138786 net.cpp:160] Creating Layer drop7
I1109 00:39:31.931159 138786 net.cpp:596] drop7 <- fc7
I1109 00:39:31.931391 138786 net.cpp:557] drop7 -> fc7 (in-place)
I1109 00:39:31.931717 138786 net.cpp:210] Setting up drop7
I1109 00:39:31.931951 138786 net.cpp:217] Top shape: 32 4096 (131072)
I1109 00:39:31.932168 138786 net.cpp:225] Memory required for data: 266087936
I1109 00:39:31.932354 138786 layer_factory.hpp:114] Creating layer fc8
I1109 00:39:31.932623 138786 net.cpp:160] Creating Layer fc8
I1109 00:39:31.932870 138786 net.cpp:596] fc8 <- fc7
I1109 00:39:31.933114 138786 net.cpp:570] fc8 -> fc8
I1109 00:39:32.356950 138786 net.cpp:210] Setting up fc8
I1109 00:39:32.357301 138786 net.cpp:217] Top shape: 32 1000 (32000)
I1109 00:39:32.357698 138786 net.cpp:225] Memory required for data: 266215936
I1109 00:39:32.358005 138786 layer_factory.hpp:114] Creating layer loss
I1109 00:39:32.382381 138786 net.cpp:160] Creating Layer loss
I1109 00:39:32.382694 138786 net.cpp:596] loss <- fc8
I1109 00:39:32.383687 138786 net.cpp:596] loss <- label
I1109 00:39:32.411078 138786 net.cpp:570] loss -> loss
I1109 00:39:32.448604 138786 layer_factory.hpp:114] Creating layer loss
…
