…
I1108 23:44:20.867380 136435 net.cpp:484] The NetState phase (0) differed from the phase (1) specified by a rule in layer accuracy
I1108 23:44:21.506429 136435 net.cpp:120] Initializing net from parameters: 
name: "AlexNet"
state {
  phase: TRAIN
  level: 0
  stage: ""
}
layer {
  name: "data"
  type: "DummyData"
  top: "data"
  top: "label"
  include {
    phase: TRAIN
  }
  dummy_data_param {
    data_filler {
      type: "gaussian"
      std: 1
    }
    data_filler {
      type: "constant"
      value: 0
    }
    shape {
      dim: 32
      dim: 3
      dim: 227
      dim: 227
    }
    shape {
      dim: 32
      dim: 1
      dim: 1
      dim: 1
    }
  }
}
layer {
  name: "conv1"
  type: "Convolution"
  bottom: "data"
  top: "conv1"
  param {
    lr_mult: 1
    decay_mult: 1
  }
  param {
    lr_mult: 2
    decay_mult: 0
  }
  convolution_param {
    num_output: 96
    kernel_size: 11
    stride: 4
    weight_filler {
      type: "gaussian"
      std: 0.01
    }
    bias_filler {
      type: "constant"
      value: 0
    }
    engine: MKL2017
  }
}
layer {
  name: "relu1"
  type: "ReLU"
  bottom: "conv1"
  top: "conv1"
  relu_param {
    engine: MKL2017
  }
}
layer {
  name: "norm1"
  type: "LRN"
  bottom: "conv1"
  top: "norm1"
  lrn_param {
    local_size: 5
    alpha: 0.0001
    beta: 0.75
    engine: MKL2017
  }
}
layer {
  name: "pool1"
  type: "Pooling"
  bottom: "norm1"
  top: "pool1"
  pooling_param {
    pool: MAX
    kernel_size: 3
    stride: 2
    engine: MKL2017
  }
}
layer {
  name: "conv2"
  type: "Convolution"
  bottom: "pool1"
  top: "conv2"
  param {
    lr_mult: 1
    decay_mult: 1
  }
  param {
    lr_mult: 2
    decay_mult: 0
  }
  convolution_param {
    num_output: 256
    pad: 2
    kernel_size: 5
    group: 2
    weight_filler {
      type: "gaussian"
      std: 0.01
    }
    bias_filler {
      type: "constant"
      value: 0.1
    }
    engine: MKL2017
  }
}
layer {
  name: "relu2"
  type: "ReLU"
  bottom: "conv2"
  top: "conv2"
  relu_param {
    engine: MKL2017
  }
}
layer {
  name: "norm2"
  type: "LRN"
  bottom: "conv2"
  top: "norm2"
  lrn_param {
    local_size: 5
    alpha: 0.0001
    beta: 0.75
    engine: MKL2017
  }
}
layer {
  name: "pool2"
  type: "Pooling"
  bottom: "norm2"
  top: "pool2"
  pooling_param {
    pool: MAX
    kernel_size: 3
    stride: 2
    engine: MKL2017
  }
}
layer {
  name: "conv3"
  type: "Convolution"
  bottom: "pool2"
  top: "conv3"
  param {
    lr_mult: 1
    decay_mult: 1
  }
  param {
    lr_mult: 2
    decay_mult: 0
  }
  convolution_param {
    num_output: 384
    pad: 1
    kernel_size: 3
    weight_filler {
      type: "gaussian"
      std: 0.01
    }
    bias_filler {
      type: "constant"
      value: 0
    }
    engine: MKL2017
  }
}
layer {
  name: "relu3"
  type: "ReLU"
  bottom: "conv3"
  top: "conv3"
  relu_param {
    engine: MKL2017
  }
}
layer {
  name: "conv4"
  type: "Convolution"
  bottom: "conv3"
  top: "conv4"
  param {
    lr_mult: 1
    decay_mult: 1
  }
  param {
    lr_mult: 2
    decay_mult: 0
  }
  convolution_param {
    num_output: 384
    pad: 1
    kernel_size: 3
    group: 2
    weight_filler {
      type: "gaussian"
      std: 0.01
    }
    bias_filler {
      type: "constant"
      value: 0.1
    }
    engine: MKL2017
  }
}
layer {
  name: "relu4"
  type: "ReLU"
  bottom: "conv4"
  top: "conv4"
  relu_param {
    engine: MKL2017
  }
}
layer {
  name: "conv5"
  type: "Convolution"
  bottom: "conv4"
  top: "conv5"
  param {
    lr_mult: 1
    decay_mult: 1
  }
  param {
    lr_mult: 2
    decay_mult: 0
  }
  convolution_param {
    num_output: 256
    pad: 1
    kernel_size: 3
    group: 2
    weight_filler {
      type: "gaussian"
      std: 0.01
    }
    bias_filler {
      type: "constant"
      value: 0.1
    }
    engine: MKL2017
  }
}
layer {
  name: "relu5"
  type: "ReLU"
  bottom: "conv5"
  top: "conv5"
  relu_param {
    engine: MKL2017
  }
}
layer {
  name: "pool5"
  type: "Pooling"
  bottom: "conv5"
  top: "pool5"
  pooling_param {
    pool: MAX
    kernel_size: 3
    stride: 2
    engine: MKL2017
  }
}
layer {
  name: "fc6"
  type: "InnerProduct"
  bottom: "pool5"
  top: "fc6"
  param {
    lr_mult: 1
    decay_mult: 1
  }
  param {
    lr_mult: 2
    decay_mult: 0
  }
  inner_product_param {
    num_output: 4096
    weight_filler {
      type: "gaussian"
      std: 0.005
    }
    bias_filler {
      type: "constant"
      value: 0.1
    }
  }
}
layer {
  name: "relu6"
  type: "ReLU"
  bottom: "fc6"
  top: "fc6"
}
layer {
  name: "drop6"
  type: "Dropout"
  bottom: "fc6"
  top: "fc6"
  dropout_param {
    dropout_ratio: 0.5
  }
}
layer {
  name: "fc7"
  type: "InnerProduct"
  bottom: "fc6"
  top: "fc7"
  param {
    lr_mult: 1
    decay_mult: 1
  }
  param {
    lr_mult: 2
    decay_mult: 0
  }
  inner_product_param {
    num_output: 4096
    weight_filler {
      type: "gaussian"
      std: 0.005
    }
    bias_filler {
      type: "constant"
      value: 0.1
    }
  }
}
layer {
  name: "relu7"
  type: "ReLU"
  bottom: "fc7"
  top: "fc7"
}
layer {
  name: "drop7"
  type: "Dropout"
  bottom: "fc7"
  top: "fc7"
  dropout_param {
    dropout_ratio: 0.5
  }
}
layer {
  name: "fc8"
  type: "InnerProduct"
  bottom: "fc7"
  top: "fc8"
  param {
    lr_mult: 1
    decay_mult: 1
  }
  param {
    lr_mult: 2
    decay_mult: 0
  }
  inner_product_param {
    num_output: 1000
    weight_filler {
      type: "gaussian"
      std: 0.01
    }
    bias_filler {
      type: "constant"
      value: 0
    }
  }
}
layer {
  name: "loss"
  type: "SoftmaxWithLoss"
  bottom: "fc8"
  bottom: "label"
  top: "loss"
}
I1108 23:44:23.967208 136435 layer_factory.hpp:114] Creating layer data
I1108 23:44:24.114641 136435 net.cpp:160] Creating Layer data
I1108 23:44:24.162869 136435 net.cpp:570] data -> data
I1108 23:44:24.629201 136435 net.cpp:570] data -> label
I1108 23:44:31.705498 136435 net.cpp:210] Setting up data
I1108 23:44:31.785426 136435 net.cpp:217] Top shape: 32 3 227 227 (4946784)
I1108 23:44:31.890508 136435 net.cpp:217] Top shape: 32 1 1 1 (32)
I1108 23:44:31.897310 136435 net.cpp:225] Memory required for data: 19787264
I1108 23:44:31.964586 136435 layer_factory.hpp:114] Creating layer conv1
I1108 23:44:32.290649 136435 net.cpp:160] Creating Layer conv1
I1108 23:44:32.340246 136435 net.cpp:596] conv1 <- data
I1108 23:44:32.459537 136435 net.cpp:570] conv1 -> conv1
I1108 23:45:05.347260 136435 net.cpp:210] Setting up conv1
I1108 23:45:05.354508 136435 net.cpp:217] Top shape: 32 96 55 55 (9292800)
I1108 23:45:05.354858 136435 net.cpp:225] Memory required for data: 56958464
I1108 23:45:05.631489 136435 layer_factory.hpp:114] Creating layer relu1
I1108 23:45:05.751092 136435 net.cpp:160] Creating Layer relu1
I1108 23:45:05.755692 136435 net.cpp:596] relu1 <- conv1
I1108 23:45:05.787797 136435 net.cpp:557] relu1 -> conv1 (in-place)
I1108 23:45:05.978384 136435 net.cpp:210] Setting up relu1
I1108 23:45:05.980767 136435 net.cpp:217] Top shape: 32 96 55 55 (9292800)
I1108 23:45:05.981154 136435 net.cpp:225] Memory required for data: 94129664
I1108 23:45:05.981356 136435 layer_factory.hpp:114] Creating layer norm1
I1108 23:45:06.087208 136435 net.cpp:160] Creating Layer norm1
I1108 23:45:06.087514 136435 net.cpp:596] norm1 <- conv1
I1108 23:45:06.090128 136435 net.cpp:570] norm1 -> norm1
I1108 23:45:06.312741 136435 net.cpp:210] Setting up norm1
I1108 23:45:06.325583 136435 net.cpp:217] Top shape: 32 96 55 55 (9292800)
I1108 23:45:06.325958 136435 net.cpp:225] Memory required for data: 131300864
I1108 23:45:06.326259 136435 layer_factory.hpp:114] Creating layer pool1
I1108 23:45:06.419576 136435 net.cpp:160] Creating Layer pool1
I1108 23:45:06.419891 136435 net.cpp:596] pool1 <- norm1
I1108 23:45:06.434619 136435 net.cpp:570] pool1 -> pool1
I1108 23:45:06.734297 136435 net.cpp:210] Setting up pool1
I1108 23:45:06.736873 136435 net.cpp:217] Top shape: 32 96 27 27 (2239488)
I1108 23:45:06.737201 136435 net.cpp:225] Memory required for data: 140258816
I1108 23:45:06.737440 136435 layer_factory.hpp:114] Creating layer conv2
I1108 23:45:06.737803 136435 net.cpp:160] Creating Layer conv2
I1108 23:45:06.738065 136435 net.cpp:596] conv2 <- pool1
I1108 23:45:06.738292 136435 net.cpp:570] conv2 -> conv2
I1108 23:45:12.485321 136435 net.cpp:210] Setting up conv2
I1108 23:45:12.485653 136435 net.cpp:217] Top shape: 32 256 27 27 (5971968)
I1108 23:45:12.486039 136435 net.cpp:225] Memory required for data: 164146688
I1108 23:45:12.535929 136435 layer_factory.hpp:114] Creating layer relu2
I1108 23:45:12.536337 136435 net.cpp:160] Creating Layer relu2
I1108 23:45:12.536691 136435 net.cpp:596] relu2 <- conv2
I1108 23:45:12.536983 136435 net.cpp:557] relu2 -> conv2 (in-place)
I1108 23:45:12.537434 136435 net.cpp:210] Setting up relu2
I1108 23:45:12.537690 136435 net.cpp:217] Top shape: 32 256 27 27 (5971968)
I1108 23:45:12.537915 136435 net.cpp:225] Memory required for data: 188034560
I1108 23:45:12.538101 136435 layer_factory.hpp:114] Creating layer norm2
I1108 23:45:12.538339 136435 net.cpp:160] Creating Layer norm2
I1108 23:45:12.538528 136435 net.cpp:596] norm2 <- conv2
I1108 23:45:12.538786 136435 net.cpp:570] norm2 -> norm2
I1108 23:45:12.540881 136435 net.cpp:210] Setting up norm2
I1108 23:45:12.541188 136435 net.cpp:217] Top shape: 32 256 27 27 (5971968)
I1108 23:45:12.541414 136435 net.cpp:225] Memory required for data: 211922432
I1108 23:45:12.541597 136435 layer_factory.hpp:114] Creating layer pool2
I1108 23:45:12.542538 136435 net.cpp:160] Creating Layer pool2
I1108 23:45:12.542858 136435 net.cpp:596] pool2 <- norm2
I1108 23:45:12.543097 136435 net.cpp:570] pool2 -> pool2
I1108 23:45:12.543494 136435 net.cpp:210] Setting up pool2
I1108 23:45:12.543733 136435 net.cpp:217] Top shape: 32 256 13 13 (1384448)
I1108 23:45:12.543951 136435 net.cpp:225] Memory required for data: 217460224
I1108 23:45:12.544142 136435 layer_factory.hpp:114] Creating layer conv3
I1108 23:45:12.544466 136435 net.cpp:160] Creating Layer conv3
I1108 23:45:12.544680 136435 net.cpp:596] conv3 <- pool2
I1108 23:45:12.545014 136435 net.cpp:570] conv3 -> conv3
I1108 23:45:13.047400 136435 net.cpp:210] Setting up conv3
I1108 23:45:13.049768 136435 net.cpp:217] Top shape: 32 384 13 13 (2076672)
I1108 23:45:13.050101 136435 net.cpp:225] Memory required for data: 225766912
I1108 23:45:13.053163 136435 layer_factory.hpp:114] Creating layer relu3
I1108 23:45:13.053551 136435 net.cpp:160] Creating Layer relu3
I1108 23:45:13.053789 136435 net.cpp:596] relu3 <- conv3
I1108 23:45:13.054020 136435 net.cpp:557] relu3 -> conv3 (in-place)
I1108 23:45:13.058105 136435 net.cpp:210] Setting up relu3
I1108 23:45:13.058464 136435 net.cpp:217] Top shape: 32 384 13 13 (2076672)
I1108 23:45:13.058732 136435 net.cpp:225] Memory required for data: 234073600
I1108 23:45:13.059003 136435 layer_factory.hpp:114] Creating layer conv4
I1108 23:45:13.059468 136435 net.cpp:160] Creating Layer conv4
I1108 23:45:13.059727 136435 net.cpp:596] conv4 <- conv3
I1108 23:45:13.059975 136435 net.cpp:570] conv4 -> conv4
I1108 23:45:13.302170 136435 net.cpp:210] Setting up conv4
I1108 23:45:13.302551 136435 net.cpp:217] Top shape: 32 384 13 13 (2076672)
I1108 23:45:13.302932 136435 net.cpp:225] Memory required for data: 242380288
I1108 23:45:13.303273 136435 layer_factory.hpp:114] Creating layer relu4
I1108 23:45:13.303558 136435 net.cpp:160] Creating Layer relu4
I1108 23:45:13.303781 136435 net.cpp:596] relu4 <- conv4
I1108 23:45:13.304010 136435 net.cpp:557] relu4 -> conv4 (in-place)
I1108 23:45:13.315930 136435 net.cpp:210] Setting up relu4
I1108 23:45:13.316272 136435 net.cpp:217] Top shape: 32 384 13 13 (2076672)
I1108 23:45:13.316530 136435 net.cpp:225] Memory required for data: 250686976
I1108 23:45:13.316735 136435 layer_factory.hpp:114] Creating layer conv5
I1108 23:45:13.317183 136435 net.cpp:160] Creating Layer conv5
I1108 23:45:13.317423 136435 net.cpp:596] conv5 <- conv4
I1108 23:45:13.317662 136435 net.cpp:570] conv5 -> conv5
I1108 23:45:13.486524 136435 net.cpp:210] Setting up conv5
I1108 23:45:13.486908 136435 net.cpp:217] Top shape: 32 256 13 13 (1384448)
I1108 23:45:13.487303 136435 net.cpp:225] Memory required for data: 256224768
I1108 23:45:13.491919 136435 layer_factory.hpp:114] Creating layer relu5
I1108 23:45:13.492313 136435 net.cpp:160] Creating Layer relu5
I1108 23:45:13.492554 136435 net.cpp:596] relu5 <- conv5
I1108 23:45:13.492852 136435 net.cpp:557] relu5 -> conv5 (in-place)
I1108 23:45:13.493368 136435 net.cpp:210] Setting up relu5
I1108 23:45:13.493657 136435 net.cpp:217] Top shape: 32 256 13 13 (1384448)
I1108 23:45:13.493973 136435 net.cpp:225] Memory required for data: 261762560
I1108 23:45:13.494213 136435 layer_factory.hpp:114] Creating layer pool5
I1108 23:45:13.494472 136435 net.cpp:160] Creating Layer pool5
I1108 23:45:13.494683 136435 net.cpp:596] pool5 <- conv5
I1108 23:45:13.494904 136435 net.cpp:570] pool5 -> pool5
I1108 23:45:13.495301 136435 net.cpp:210] Setting up pool5
I1108 23:45:13.495548 136435 net.cpp:217] Top shape: 32 256 6 6 (294912)
I1108 23:45:13.495767 136435 net.cpp:225] Memory required for data: 262942208
I1108 23:45:13.495949 136435 layer_factory.hpp:114] Creating layer fc6
I1108 23:45:13.550266 136435 net.cpp:160] Creating Layer fc6
I1108 23:45:13.550573 136435 net.cpp:596] fc6 <- pool5
I1108 23:45:13.550962 136435 net.cpp:570] fc6 -> fc6
I1108 23:45:17.638679 136435 net.cpp:210] Setting up fc6
I1108 23:45:17.638978 136435 net.cpp:217] Top shape: 32 4096 (131072)
I1108 23:45:17.641038 136435 net.cpp:225] Memory required for data: 263466496
I1108 23:45:17.641353 136435 layer_factory.hpp:114] Creating layer relu6
I1108 23:45:17.643815 136435 net.cpp:160] Creating Layer relu6
I1108 23:45:17.644104 136435 net.cpp:596] relu6 <- fc6
I1108 23:45:17.644330 136435 net.cpp:557] relu6 -> fc6 (in-place)
I1108 23:45:17.644752 136435 net.cpp:210] Setting up relu6
I1108 23:45:17.645058 136435 net.cpp:217] Top shape: 32 4096 (131072)
I1108 23:45:17.645284 136435 net.cpp:225] Memory required for data: 263990784
I1108 23:45:17.645467 136435 layer_factory.hpp:114] Creating layer drop6
I1108 23:45:17.665246 136435 net.cpp:160] Creating Layer drop6
I1108 23:45:17.665540 136435 net.cpp:596] drop6 <- fc6
I1108 23:45:17.665900 136435 net.cpp:557] drop6 -> fc6 (in-place)
I1108 23:45:17.770387 136435 net.cpp:210] Setting up drop6
I1108 23:45:17.770684 136435 net.cpp:217] Top shape: 32 4096 (131072)
I1108 23:45:17.771013 136435 net.cpp:225] Memory required for data: 264515072
I1108 23:45:17.771255 136435 layer_factory.hpp:114] Creating layer fc7
I1108 23:45:17.771523 136435 net.cpp:160] Creating Layer fc7
I1108 23:45:17.771730 136435 net.cpp:596] fc7 <- fc6
I1108 23:45:17.772109 136435 net.cpp:570] fc7 -> fc7
I1108 23:45:19.482807 136435 net.cpp:210] Setting up fc7
I1108 23:45:19.483146 136435 net.cpp:217] Top shape: 32 4096 (131072)
I1108 23:45:19.483520 136435 net.cpp:225] Memory required for data: 265039360
I1108 23:45:19.483865 136435 layer_factory.hpp:114] Creating layer relu7
I1108 23:45:19.484163 136435 net.cpp:160] Creating Layer relu7
I1108 23:45:19.484386 136435 net.cpp:596] relu7 <- fc7
I1108 23:45:19.484617 136435 net.cpp:557] relu7 -> fc7 (in-place)
I1108 23:45:19.485080 136435 net.cpp:210] Setting up relu7
I1108 23:45:19.485364 136435 net.cpp:217] Top shape: 32 4096 (131072)
I1108 23:45:19.485597 136435 net.cpp:225] Memory required for data: 265563648
I1108 23:45:19.485785 136435 layer_factory.hpp:114] Creating layer drop7
I1108 23:45:19.486008 136435 net.cpp:160] Creating Layer drop7
I1108 23:45:19.486235 136435 net.cpp:596] drop7 <- fc7
I1108 23:45:19.486481 136435 net.cpp:557] drop7 -> fc7 (in-place)
I1108 23:45:19.486752 136435 net.cpp:210] Setting up drop7
I1108 23:45:19.486979 136435 net.cpp:217] Top shape: 32 4096 (131072)
I1108 23:45:19.487187 136435 net.cpp:225] Memory required for data: 266087936
I1108 23:45:19.487363 136435 layer_factory.hpp:114] Creating layer fc8
I1108 23:45:19.487604 136435 net.cpp:160] Creating Layer fc8
I1108 23:45:19.487797 136435 net.cpp:596] fc8 <- fc7
I1108 23:45:19.488055 136435 net.cpp:570] fc8 -> fc8
I1108 23:45:19.912904 136435 net.cpp:210] Setting up fc8
I1108 23:45:19.913267 136435 net.cpp:217] Top shape: 32 1000 (32000)
I1108 23:45:19.913669 136435 net.cpp:225] Memory required for data: 266215936
I1108 23:45:19.914016 136435 layer_factory.hpp:114] Creating layer loss
I1108 23:45:19.939103 136435 net.cpp:160] Creating Layer loss
I1108 23:45:19.939419 136435 net.cpp:596] loss <- fc8
I1108 23:45:19.940371 136435 net.cpp:596] loss <- label
I1108 23:45:19.968092 136435 net.cpp:570] loss -> loss
I1108 23:45:20.006402 136435 layer_factory.hpp:114] Creating layer loss
…
