…
I1109 02:55:04.426403 144172 net.cpp:484] The NetState phase (0) differed from the phase (1) specified by a rule in layer accuracy
I1109 02:55:05.062794 144172 net.cpp:120] Initializing net from parameters: 
name: "AlexNet"
state {
  phase: TRAIN
  level: 0
  stage: ""
}
layer {
  name: "data"
  type: "DummyData"
  top: "data"
  top: "label"
  include {
    phase: TRAIN
  }
  dummy_data_param {
    data_filler {
      type: "gaussian"
      std: 1
    }
    data_filler {
      type: "constant"
      value: 0
    }
    shape {
      dim: 32
      dim: 3
      dim: 227
      dim: 227
    }
    shape {
      dim: 32
      dim: 1
      dim: 1
      dim: 1
    }
  }
}
layer {
  name: "conv1"
  type: "Convolution"
  bottom: "data"
  top: "conv1"
  param {
    lr_mult: 1
    decay_mult: 1
  }
  param {
    lr_mult: 2
    decay_mult: 0
  }
  convolution_param {
    num_output: 96
    kernel_size: 11
    stride: 4
    weight_filler {
      type: "gaussian"
      std: 0.01
    }
    bias_filler {
      type: "constant"
      value: 0
    }
    engine: MKL2017
  }
}
layer {
  name: "relu1"
  type: "ReLU"
  bottom: "conv1"
  top: "conv1"
  relu_param {
    engine: MKL2017
  }
}
layer {
  name: "norm1"
  type: "LRN"
  bottom: "conv1"
  top: "norm1"
  lrn_param {
    local_size: 5
    alpha: 0.0001
    beta: 0.75
    engine: MKL2017
  }
}
layer {
  name: "pool1"
  type: "Pooling"
  bottom: "norm1"
  top: "pool1"
  pooling_param {
    pool: MAX
    kernel_size: 3
    stride: 2
    engine: MKL2017
  }
}
layer {
  name: "conv2"
  type: "Convolution"
  bottom: "pool1"
  top: "conv2"
  param {
    lr_mult: 1
    decay_mult: 1
  }
  param {
    lr_mult: 2
    decay_mult: 0
  }
  convolution_param {
    num_output: 256
    pad: 2
    kernel_size: 5
    group: 2
    weight_filler {
      type: "gaussian"
      std: 0.01
    }
    bias_filler {
      type: "constant"
      value: 0.1
    }
    engine: MKL2017
  }
}
layer {
  name: "relu2"
  type: "ReLU"
  bottom: "conv2"
  top: "conv2"
  relu_param {
    engine: MKL2017
  }
}
layer {
  name: "norm2"
  type: "LRN"
  bottom: "conv2"
  top: "norm2"
  lrn_param {
    local_size: 5
    alpha: 0.0001
    beta: 0.75
    engine: MKL2017
  }
}
layer {
  name: "pool2"
  type: "Pooling"
  bottom: "norm2"
  top: "pool2"
  pooling_param {
    pool: MAX
    kernel_size: 3
    stride: 2
    engine: MKL2017
  }
}
layer {
  name: "conv3"
  type: "Convolution"
  bottom: "pool2"
  top: "conv3"
  param {
    lr_mult: 1
    decay_mult: 1
  }
  param {
    lr_mult: 2
    decay_mult: 0
  }
  convolution_param {
    num_output: 384
    pad: 1
    kernel_size: 3
    weight_filler {
      type: "gaussian"
      std: 0.01
    }
    bias_filler {
      type: "constant"
      value: 0
    }
    engine: MKL2017
  }
}
layer {
  name: "relu3"
  type: "ReLU"
  bottom: "conv3"
  top: "conv3"
  relu_param {
    engine: MKL2017
  }
}
layer {
  name: "conv4"
  type: "Convolution"
  bottom: "conv3"
  top: "conv4"
  param {
    lr_mult: 1
    decay_mult: 1
  }
  param {
    lr_mult: 2
    decay_mult: 0
  }
  convolution_param {
    num_output: 384
    pad: 1
    kernel_size: 3
    group: 2
    weight_filler {
      type: "gaussian"
      std: 0.01
    }
    bias_filler {
      type: "constant"
      value: 0.1
    }
    engine: MKL2017
  }
}
layer {
  name: "relu4"
  type: "ReLU"
  bottom: "conv4"
  top: "conv4"
  relu_param {
    engine: MKL2017
  }
}
layer {
  name: "conv5"
  type: "Convolution"
  bottom: "conv4"
  top: "conv5"
  param {
    lr_mult: 1
    decay_mult: 1
  }
  param {
    lr_mult: 2
    decay_mult: 0
  }
  convolution_param {
    num_output: 256
    pad: 1
    kernel_size: 3
    group: 2
    weight_filler {
      type: "gaussian"
      std: 0.01
    }
    bias_filler {
      type: "constant"
      value: 0.1
    }
    engine: MKL2017
  }
}
layer {
  name: "relu5"
  type: "ReLU"
  bottom: "conv5"
  top: "conv5"
  relu_param {
    engine: MKL2017
  }
}
layer {
  name: "pool5"
  type: "Pooling"
  bottom: "conv5"
  top: "pool5"
  pooling_param {
    pool: MAX
    kernel_size: 3
    stride: 2
    engine: MKL2017
  }
}
layer {
  name: "fc6"
  type: "InnerProduct"
  bottom: "pool5"
  top: "fc6"
  param {
    lr_mult: 1
    decay_mult: 1
  }
  param {
    lr_mult: 2
    decay_mult: 0
  }
  inner_product_param {
    num_output: 4096
    weight_filler {
      type: "gaussian"
      std: 0.005
    }
    bias_filler {
      type: "constant"
      value: 0.1
    }
  }
}
layer {
  name: "relu6"
  type: "ReLU"
  bottom: "fc6"
  top: "fc6"
}
layer {
  name: "drop6"
  type: "Dropout"
  bottom: "fc6"
  top: "fc6"
  dropout_param {
    dropout_ratio: 0.5
  }
}
layer {
  name: "fc7"
  type: "InnerProduct"
  bottom: "fc6"
  top: "fc7"
  param {
    lr_mult: 1
    decay_mult: 1
  }
  param {
    lr_mult: 2
    decay_mult: 0
  }
  inner_product_param {
    num_output: 4096
    weight_filler {
      type: "gaussian"
      std: 0.005
    }
    bias_filler {
      type: "constant"
      value: 0.1
    }
  }
}
layer {
  name: "relu7"
  type: "ReLU"
  bottom: "fc7"
  top: "fc7"
}
layer {
  name: "drop7"
  type: "Dropout"
  bottom: "fc7"
  top: "fc7"
  dropout_param {
    dropout_ratio: 0.5
  }
}
layer {
  name: "fc8"
  type: "InnerProduct"
  bottom: "fc7"
  top: "fc8"
  param {
    lr_mult: 1
    decay_mult: 1
  }
  param {
    lr_mult: 2
    decay_mult: 0
  }
  inner_product_param {
    num_output: 1000
    weight_filler {
      type: "gaussian"
      std: 0.01
    }
    bias_filler {
      type: "constant"
      value: 0
    }
  }
}
layer {
  name: "loss"
  type: "SoftmaxWithLoss"
  bottom: "fc8"
  bottom: "label"
  top: "loss"
}
I1109 02:55:07.542866 144172 layer_factory.hpp:114] Creating layer data
I1109 02:55:07.692936 144172 net.cpp:160] Creating Layer data
I1109 02:55:07.741307 144172 net.cpp:570] data -> data
I1109 02:55:08.214570 144172 net.cpp:570] data -> label
I1109 02:55:15.275282 144172 net.cpp:210] Setting up data
I1109 02:55:15.403390 144172 net.cpp:217] Top shape: 32 3 227 227 (4946784)
I1109 02:55:15.507336 144172 net.cpp:217] Top shape: 32 1 1 1 (32)
I1109 02:55:15.514647 144172 net.cpp:225] Memory required for data: 19787264
I1109 02:55:15.584380 144172 layer_factory.hpp:114] Creating layer conv1
I1109 02:55:15.912866 144172 net.cpp:160] Creating Layer conv1
I1109 02:55:15.962640 144172 net.cpp:596] conv1 <- data
I1109 02:55:16.083647 144172 net.cpp:570] conv1 -> conv1
I1109 02:55:48.648488 144172 net.cpp:210] Setting up conv1
I1109 02:55:48.655459 144172 net.cpp:217] Top shape: 32 96 55 55 (9292800)
I1109 02:55:48.655864 144172 net.cpp:225] Memory required for data: 56958464
I1109 02:55:48.937630 144172 layer_factory.hpp:114] Creating layer relu1
I1109 02:55:49.058584 144172 net.cpp:160] Creating Layer relu1
I1109 02:55:49.063161 144172 net.cpp:596] relu1 <- conv1
I1109 02:55:49.095896 144172 net.cpp:557] relu1 -> conv1 (in-place)
I1109 02:55:49.286625 144172 net.cpp:210] Setting up relu1
I1109 02:55:49.289055 144172 net.cpp:217] Top shape: 32 96 55 55 (9292800)
I1109 02:55:49.289397 144172 net.cpp:225] Memory required for data: 94129664
I1109 02:55:49.289600 144172 layer_factory.hpp:114] Creating layer norm1
I1109 02:55:49.394099 144172 net.cpp:160] Creating Layer norm1
I1109 02:55:49.394412 144172 net.cpp:596] norm1 <- conv1
I1109 02:55:49.396937 144172 net.cpp:570] norm1 -> norm1
I1109 02:55:49.618911 144172 net.cpp:210] Setting up norm1
I1109 02:55:49.631654 144172 net.cpp:217] Top shape: 32 96 55 55 (9292800)
I1109 02:55:49.632036 144172 net.cpp:225] Memory required for data: 131300864
I1109 02:55:49.632341 144172 layer_factory.hpp:114] Creating layer pool1
I1109 02:55:49.725487 144172 net.cpp:160] Creating Layer pool1
I1109 02:55:49.725803 144172 net.cpp:596] pool1 <- norm1
I1109 02:55:49.740636 144172 net.cpp:570] pool1 -> pool1
I1109 02:55:50.043198 144172 net.cpp:210] Setting up pool1
I1109 02:55:50.045703 144172 net.cpp:217] Top shape: 32 96 27 27 (2239488)
I1109 02:55:50.046035 144172 net.cpp:225] Memory required for data: 140258816
I1109 02:55:50.046254 144172 layer_factory.hpp:114] Creating layer conv2
I1109 02:55:50.046651 144172 net.cpp:160] Creating Layer conv2
I1109 02:55:50.046892 144172 net.cpp:596] conv2 <- pool1
I1109 02:55:50.047202 144172 net.cpp:570] conv2 -> conv2
I1109 02:55:55.800225 144172 net.cpp:210] Setting up conv2
I1109 02:55:55.800567 144172 net.cpp:217] Top shape: 32 256 27 27 (5971968)
I1109 02:55:55.801021 144172 net.cpp:225] Memory required for data: 164146688
I1109 02:55:55.851749 144172 layer_factory.hpp:114] Creating layer relu2
I1109 02:55:55.852243 144172 net.cpp:160] Creating Layer relu2
I1109 02:55:55.852607 144172 net.cpp:596] relu2 <- conv2
I1109 02:55:55.852898 144172 net.cpp:557] relu2 -> conv2 (in-place)
I1109 02:55:55.853358 144172 net.cpp:210] Setting up relu2
I1109 02:55:55.853621 144172 net.cpp:217] Top shape: 32 256 27 27 (5971968)
I1109 02:55:55.853850 144172 net.cpp:225] Memory required for data: 188034560
I1109 02:55:55.854037 144172 layer_factory.hpp:114] Creating layer norm2
I1109 02:55:55.854280 144172 net.cpp:160] Creating Layer norm2
I1109 02:55:55.854477 144172 net.cpp:596] norm2 <- conv2
I1109 02:55:55.854707 144172 net.cpp:570] norm2 -> norm2
I1109 02:55:55.856835 144172 net.cpp:210] Setting up norm2
I1109 02:55:55.857156 144172 net.cpp:217] Top shape: 32 256 27 27 (5971968)
I1109 02:55:55.857390 144172 net.cpp:225] Memory required for data: 211922432
I1109 02:55:55.857578 144172 layer_factory.hpp:114] Creating layer pool2
I1109 02:55:55.858423 144172 net.cpp:160] Creating Layer pool2
I1109 02:55:55.858731 144172 net.cpp:596] pool2 <- norm2
I1109 02:55:55.859127 144172 net.cpp:570] pool2 -> pool2
I1109 02:55:55.859586 144172 net.cpp:210] Setting up pool2
I1109 02:55:55.859828 144172 net.cpp:217] Top shape: 32 256 13 13 (1384448)
I1109 02:55:55.860051 144172 net.cpp:225] Memory required for data: 217460224
I1109 02:55:55.860249 144172 layer_factory.hpp:114] Creating layer conv3
I1109 02:55:55.860576 144172 net.cpp:160] Creating Layer conv3
I1109 02:55:55.860827 144172 net.cpp:596] conv3 <- pool2
I1109 02:55:55.861090 144172 net.cpp:570] conv3 -> conv3
I1109 02:55:56.362634 144172 net.cpp:210] Setting up conv3
I1109 02:55:56.365030 144172 net.cpp:217] Top shape: 32 384 13 13 (2076672)
I1109 02:55:56.365381 144172 net.cpp:225] Memory required for data: 225766912
I1109 02:55:56.368517 144172 layer_factory.hpp:114] Creating layer relu3
I1109 02:55:56.368973 144172 net.cpp:160] Creating Layer relu3
I1109 02:55:56.369246 144172 net.cpp:596] relu3 <- conv3
I1109 02:55:56.369500 144172 net.cpp:557] relu3 -> conv3 (in-place)
I1109 02:55:56.373903 144172 net.cpp:210] Setting up relu3
I1109 02:55:56.374217 144172 net.cpp:217] Top shape: 32 384 13 13 (2076672)
I1109 02:55:56.374471 144172 net.cpp:225] Memory required for data: 234073600
I1109 02:55:56.374671 144172 layer_factory.hpp:114] Creating layer conv4
I1109 02:55:56.375036 144172 net.cpp:160] Creating Layer conv4
I1109 02:55:56.375293 144172 net.cpp:596] conv4 <- conv3
I1109 02:55:56.375540 144172 net.cpp:570] conv4 -> conv4
I1109 02:55:56.618139 144172 net.cpp:210] Setting up conv4
I1109 02:55:56.618527 144172 net.cpp:217] Top shape: 32 384 13 13 (2076672)
I1109 02:55:56.618922 144172 net.cpp:225] Memory required for data: 242380288
I1109 02:55:56.619266 144172 layer_factory.hpp:114] Creating layer relu4
I1109 02:55:56.619557 144172 net.cpp:160] Creating Layer relu4
I1109 02:55:56.619786 144172 net.cpp:596] relu4 <- conv4
I1109 02:55:56.620018 144172 net.cpp:557] relu4 -> conv4 (in-place)
I1109 02:55:56.632117 144172 net.cpp:210] Setting up relu4
I1109 02:55:56.632463 144172 net.cpp:217] Top shape: 32 384 13 13 (2076672)
I1109 02:55:56.632886 144172 net.cpp:225] Memory required for data: 250686976
I1109 02:55:56.633178 144172 layer_factory.hpp:114] Creating layer conv5
I1109 02:55:56.633572 144172 net.cpp:160] Creating Layer conv5
I1109 02:55:56.633812 144172 net.cpp:596] conv5 <- conv4
I1109 02:55:56.634059 144172 net.cpp:570] conv5 -> conv5
I1109 02:55:56.802003 144172 net.cpp:210] Setting up conv5
I1109 02:55:56.802393 144172 net.cpp:217] Top shape: 32 256 13 13 (1384448)
I1109 02:55:56.802805 144172 net.cpp:225] Memory required for data: 256224768
I1109 02:55:56.807468 144172 layer_factory.hpp:114] Creating layer relu5
I1109 02:55:56.807871 144172 net.cpp:160] Creating Layer relu5
I1109 02:55:56.808123 144172 net.cpp:596] relu5 <- conv5
I1109 02:55:56.808389 144172 net.cpp:557] relu5 -> conv5 (in-place)
I1109 02:55:56.808934 144172 net.cpp:210] Setting up relu5
I1109 02:55:56.809255 144172 net.cpp:217] Top shape: 32 256 13 13 (1384448)
I1109 02:55:56.809551 144172 net.cpp:225] Memory required for data: 261762560
I1109 02:55:56.809762 144172 layer_factory.hpp:114] Creating layer pool5
I1109 02:55:56.810031 144172 net.cpp:160] Creating Layer pool5
I1109 02:55:56.810247 144172 net.cpp:596] pool5 <- conv5
I1109 02:55:56.810477 144172 net.cpp:570] pool5 -> pool5
I1109 02:55:56.810880 144172 net.cpp:210] Setting up pool5
I1109 02:55:56.811147 144172 net.cpp:217] Top shape: 32 256 6 6 (294912)
I1109 02:55:56.811372 144172 net.cpp:225] Memory required for data: 262942208
I1109 02:55:56.811560 144172 layer_factory.hpp:114] Creating layer fc6
I1109 02:55:56.866071 144172 net.cpp:160] Creating Layer fc6
I1109 02:55:56.866384 144172 net.cpp:596] fc6 <- pool5
I1109 02:55:56.866760 144172 net.cpp:570] fc6 -> fc6
I1109 02:56:00.963475 144172 net.cpp:210] Setting up fc6
I1109 02:56:00.963834 144172 net.cpp:217] Top shape: 32 4096 (131072)
I1109 02:56:00.965962 144172 net.cpp:225] Memory required for data: 263466496
I1109 02:56:00.966271 144172 layer_factory.hpp:114] Creating layer relu6
I1109 02:56:00.968672 144172 net.cpp:160] Creating Layer relu6
I1109 02:56:00.969025 144172 net.cpp:596] relu6 <- fc6
I1109 02:56:00.969271 144172 net.cpp:557] relu6 -> fc6 (in-place)
I1109 02:56:00.969787 144172 net.cpp:210] Setting up relu6
I1109 02:56:00.970041 144172 net.cpp:217] Top shape: 32 4096 (131072)
I1109 02:56:00.970266 144172 net.cpp:225] Memory required for data: 263990784
I1109 02:56:00.970451 144172 layer_factory.hpp:114] Creating layer drop6
I1109 02:56:00.990835 144172 net.cpp:160] Creating Layer drop6
I1109 02:56:00.991152 144172 net.cpp:596] drop6 <- fc6
I1109 02:56:00.991504 144172 net.cpp:557] drop6 -> fc6 (in-place)
I1109 02:56:01.095827 144172 net.cpp:210] Setting up drop6
I1109 02:56:01.096127 144172 net.cpp:217] Top shape: 32 4096 (131072)
I1109 02:56:01.096494 144172 net.cpp:225] Memory required for data: 264515072
I1109 02:56:01.096705 144172 layer_factory.hpp:114] Creating layer fc7
I1109 02:56:01.097021 144172 net.cpp:160] Creating Layer fc7
I1109 02:56:01.097234 144172 net.cpp:596] fc7 <- fc6
I1109 02:56:01.097622 144172 net.cpp:570] fc7 -> fc7
I1109 02:56:02.811031 144172 net.cpp:210] Setting up fc7
I1109 02:56:02.811403 144172 net.cpp:217] Top shape: 32 4096 (131072)
I1109 02:56:02.811851 144172 net.cpp:225] Memory required for data: 265039360
I1109 02:56:02.812191 144172 layer_factory.hpp:114] Creating layer relu7
I1109 02:56:02.812531 144172 net.cpp:160] Creating Layer relu7
I1109 02:56:02.812829 144172 net.cpp:596] relu7 <- fc7
I1109 02:56:02.813118 144172 net.cpp:557] relu7 -> fc7 (in-place)
I1109 02:56:02.813583 144172 net.cpp:210] Setting up relu7
I1109 02:56:02.813886 144172 net.cpp:217] Top shape: 32 4096 (131072)
I1109 02:56:02.814184 144172 net.cpp:225] Memory required for data: 265563648
I1109 02:56:02.814410 144172 layer_factory.hpp:114] Creating layer drop7
I1109 02:56:02.814668 144172 net.cpp:160] Creating Layer drop7
I1109 02:56:02.814911 144172 net.cpp:596] drop7 <- fc7
I1109 02:56:02.815165 144172 net.cpp:557] drop7 -> fc7 (in-place)
I1109 02:56:02.815444 144172 net.cpp:210] Setting up drop7
I1109 02:56:02.815656 144172 net.cpp:217] Top shape: 32 4096 (131072)
I1109 02:56:02.815879 144172 net.cpp:225] Memory required for data: 266087936
I1109 02:56:02.816067 144172 layer_factory.hpp:114] Creating layer fc8
I1109 02:56:02.816326 144172 net.cpp:160] Creating Layer fc8
I1109 02:56:02.816529 144172 net.cpp:596] fc8 <- fc7
I1109 02:56:02.816761 144172 net.cpp:570] fc8 -> fc8
I1109 02:56:03.240010 144172 net.cpp:210] Setting up fc8
I1109 02:56:03.240360 144172 net.cpp:217] Top shape: 32 1000 (32000)
I1109 02:56:03.240746 144172 net.cpp:225] Memory required for data: 266215936
I1109 02:56:03.241129 144172 layer_factory.hpp:114] Creating layer loss
I1109 02:56:03.265877 144172 net.cpp:160] Creating Layer loss
I1109 02:56:03.266197 144172 net.cpp:596] loss <- fc8
I1109 02:56:03.267215 144172 net.cpp:596] loss <- label
I1109 02:56:03.295030 144172 net.cpp:570] loss -> loss
I1109 02:56:03.333191 144172 layer_factory.hpp:114] Creating layer loss
…
