…
I1108 23:22:27.824672 135921 net.cpp:484] The NetState phase (0) differed from the phase (1) specified by a rule in layer accuracy
I1108 23:22:28.465562 135921 net.cpp:120] Initializing net from parameters: 
name: "AlexNet"
state {
  phase: TRAIN
  level: 0
  stage: ""
}
layer {
  name: "data"
  type: "DummyData"
  top: "data"
  top: "label"
  include {
    phase: TRAIN
  }
  dummy_data_param {
    data_filler {
      type: "gaussian"
      std: 1
    }
    data_filler {
      type: "constant"
      value: 0
    }
    shape {
      dim: 32
      dim: 3
      dim: 227
      dim: 227
    }
    shape {
      dim: 32
      dim: 1
      dim: 1
      dim: 1
    }
  }
}
layer {
  name: "conv1"
  type: "Convolution"
  bottom: "data"
  top: "conv1"
  param {
    lr_mult: 1
    decay_mult: 1
  }
  param {
    lr_mult: 2
    decay_mult: 0
  }
  convolution_param {
    num_output: 96
    kernel_size: 11
    stride: 4
    weight_filler {
      type: "gaussian"
      std: 0.01
    }
    bias_filler {
      type: "constant"
      value: 0
    }
    engine: MKL2017
  }
}
layer {
  name: "relu1"
  type: "ReLU"
  bottom: "conv1"
  top: "conv1"
  relu_param {
    engine: MKL2017
  }
}
layer {
  name: "norm1"
  type: "LRN"
  bottom: "conv1"
  top: "norm1"
  lrn_param {
    local_size: 5
    alpha: 0.0001
    beta: 0.75
    engine: MKL2017
  }
}
layer {
  name: "pool1"
  type: "Pooling"
  bottom: "norm1"
  top: "pool1"
  pooling_param {
    pool: MAX
    kernel_size: 3
    stride: 2
    engine: MKL2017
  }
}
layer {
  name: "conv2"
  type: "Convolution"
  bottom: "pool1"
  top: "conv2"
  param {
    lr_mult: 1
    decay_mult: 1
  }
  param {
    lr_mult: 2
    decay_mult: 0
  }
  convolution_param {
    num_output: 256
    pad: 2
    kernel_size: 5
    group: 2
    weight_filler {
      type: "gaussian"
      std: 0.01
    }
    bias_filler {
      type: "constant"
      value: 0.1
    }
    engine: MKL2017
  }
}
layer {
  name: "relu2"
  type: "ReLU"
  bottom: "conv2"
  top: "conv2"
  relu_param {
    engine: MKL2017
  }
}
layer {
  name: "norm2"
  type: "LRN"
  bottom: "conv2"
  top: "norm2"
  lrn_param {
    local_size: 5
    alpha: 0.0001
    beta: 0.75
    engine: MKL2017
  }
}
layer {
  name: "pool2"
  type: "Pooling"
  bottom: "norm2"
  top: "pool2"
  pooling_param {
    pool: MAX
    kernel_size: 3
    stride: 2
    engine: MKL2017
  }
}
layer {
  name: "conv3"
  type: "Convolution"
  bottom: "pool2"
  top: "conv3"
  param {
    lr_mult: 1
    decay_mult: 1
  }
  param {
    lr_mult: 2
    decay_mult: 0
  }
  convolution_param {
    num_output: 384
    pad: 1
    kernel_size: 3
    weight_filler {
      type: "gaussian"
      std: 0.01
    }
    bias_filler {
      type: "constant"
      value: 0
    }
    engine: MKL2017
  }
}
layer {
  name: "relu3"
  type: "ReLU"
  bottom: "conv3"
  top: "conv3"
  relu_param {
    engine: MKL2017
  }
}
layer {
  name: "conv4"
  type: "Convolution"
  bottom: "conv3"
  top: "conv4"
  param {
    lr_mult: 1
    decay_mult: 1
  }
  param {
    lr_mult: 2
    decay_mult: 0
  }
  convolution_param {
    num_output: 384
    pad: 1
    kernel_size: 3
    group: 2
    weight_filler {
      type: "gaussian"
      std: 0.01
    }
    bias_filler {
      type: "constant"
      value: 0.1
    }
    engine: MKL2017
  }
}
layer {
  name: "relu4"
  type: "ReLU"
  bottom: "conv4"
  top: "conv4"
  relu_param {
    engine: MKL2017
  }
}
layer {
  name: "conv5"
  type: "Convolution"
  bottom: "conv4"
  top: "conv5"
  param {
    lr_mult: 1
    decay_mult: 1
  }
  param {
    lr_mult: 2
    decay_mult: 0
  }
  convolution_param {
    num_output: 256
    pad: 1
    kernel_size: 3
    group: 2
    weight_filler {
      type: "gaussian"
      std: 0.01
    }
    bias_filler {
      type: "constant"
      value: 0.1
    }
    engine: MKL2017
  }
}
layer {
  name: "relu5"
  type: "ReLU"
  bottom: "conv5"
  top: "conv5"
  relu_param {
    engine: MKL2017
  }
}
layer {
  name: "pool5"
  type: "Pooling"
  bottom: "conv5"
  top: "pool5"
  pooling_param {
    pool: MAX
    kernel_size: 3
    stride: 2
    engine: MKL2017
  }
}
layer {
  name: "fc6"
  type: "InnerProduct"
  bottom: "pool5"
  top: "fc6"
  param {
    lr_mult: 1
    decay_mult: 1
  }
  param {
    lr_mult: 2
    decay_mult: 0
  }
  inner_product_param {
    num_output: 4096
    weight_filler {
      type: "gaussian"
      std: 0.005
    }
    bias_filler {
      type: "constant"
      value: 0.1
    }
  }
}
layer {
  name: "relu6"
  type: "ReLU"
  bottom: "fc6"
  top: "fc6"
}
layer {
  name: "drop6"
  type: "Dropout"
  bottom: "fc6"
  top: "fc6"
  dropout_param {
    dropout_ratio: 0.5
  }
}
layer {
  name: "fc7"
  type: "InnerProduct"
  bottom: "fc6"
  top: "fc7"
  param {
    lr_mult: 1
    decay_mult: 1
  }
  param {
    lr_mult: 2
    decay_mult: 0
  }
  inner_product_param {
    num_output: 4096
    weight_filler {
      type: "gaussian"
      std: 0.005
    }
    bias_filler {
      type: "constant"
      value: 0.1
    }
  }
}
layer {
  name: "relu7"
  type: "ReLU"
  bottom: "fc7"
  top: "fc7"
}
layer {
  name: "drop7"
  type: "Dropout"
  bottom: "fc7"
  top: "fc7"
  dropout_param {
    dropout_ratio: 0.5
  }
}
layer {
  name: "fc8"
  type: "InnerProduct"
  bottom: "fc7"
  top: "fc8"
  param {
    lr_mult: 1
    decay_mult: 1
  }
  param {
    lr_mult: 2
    decay_mult: 0
  }
  inner_product_param {
    num_output: 1000
    weight_filler {
      type: "gaussian"
      std: 0.01
    }
    bias_filler {
      type: "constant"
      value: 0
    }
  }
}
layer {
  name: "loss"
  type: "SoftmaxWithLoss"
  bottom: "fc8"
  bottom: "label"
  top: "loss"
}
I1108 23:22:30.922224 135921 layer_factory.hpp:114] Creating layer data
I1108 23:22:31.069957 135921 net.cpp:160] Creating Layer data
I1108 23:22:31.118141 135921 net.cpp:570] data -> data
I1108 23:22:31.587808 135921 net.cpp:570] data -> label
I1108 23:22:38.636988 135921 net.cpp:210] Setting up data
I1108 23:22:38.718534 135921 net.cpp:217] Top shape: 32 3 227 227 (4946784)
I1108 23:22:38.823364 135921 net.cpp:217] Top shape: 32 1 1 1 (32)
I1108 23:22:38.830637 135921 net.cpp:225] Memory required for data: 19787264
I1108 23:22:38.897900 135921 layer_factory.hpp:114] Creating layer conv1
I1108 23:22:39.225201 135921 net.cpp:160] Creating Layer conv1
I1108 23:22:39.275029 135921 net.cpp:596] conv1 <- data
I1108 23:22:39.393996 135921 net.cpp:570] conv1 -> conv1
I1108 23:23:12.323781 135921 net.cpp:210] Setting up conv1
I1108 23:23:12.330140 135921 net.cpp:217] Top shape: 32 96 55 55 (9292800)
I1108 23:23:12.330513 135921 net.cpp:225] Memory required for data: 56958464
I1108 23:23:12.617314 135921 layer_factory.hpp:114] Creating layer relu1
I1108 23:23:12.737874 135921 net.cpp:160] Creating Layer relu1
I1108 23:23:12.742494 135921 net.cpp:596] relu1 <- conv1
I1108 23:23:12.774865 135921 net.cpp:557] relu1 -> conv1 (in-place)
I1108 23:23:12.964205 135921 net.cpp:210] Setting up relu1
I1108 23:23:12.966639 135921 net.cpp:217] Top shape: 32 96 55 55 (9292800)
I1108 23:23:12.967018 135921 net.cpp:225] Memory required for data: 94129664
I1108 23:23:12.967236 135921 layer_factory.hpp:114] Creating layer norm1
I1108 23:23:13.072212 135921 net.cpp:160] Creating Layer norm1
I1108 23:23:13.072530 135921 net.cpp:596] norm1 <- conv1
I1108 23:23:13.075057 135921 net.cpp:570] norm1 -> norm1
I1108 23:23:13.296547 135921 net.cpp:210] Setting up norm1
I1108 23:23:13.309273 135921 net.cpp:217] Top shape: 32 96 55 55 (9292800)
I1108 23:23:13.309654 135921 net.cpp:225] Memory required for data: 131300864
I1108 23:23:13.309981 135921 layer_factory.hpp:114] Creating layer pool1
I1108 23:23:13.408632 135921 net.cpp:160] Creating Layer pool1
I1108 23:23:13.409147 135921 net.cpp:596] pool1 <- norm1
I1108 23:23:13.425865 135921 net.cpp:570] pool1 -> pool1
I1108 23:23:13.734673 135921 net.cpp:210] Setting up pool1
I1108 23:23:13.737222 135921 net.cpp:217] Top shape: 32 96 27 27 (2239488)
I1108 23:23:13.737588 135921 net.cpp:225] Memory required for data: 140258816
I1108 23:23:13.737818 135921 layer_factory.hpp:114] Creating layer conv2
I1108 23:23:13.738173 135921 net.cpp:160] Creating Layer conv2
I1108 23:23:13.738404 135921 net.cpp:596] conv2 <- pool1
I1108 23:23:13.738652 135921 net.cpp:570] conv2 -> conv2
I1108 23:23:19.494029 135921 net.cpp:210] Setting up conv2
I1108 23:23:19.494379 135921 net.cpp:217] Top shape: 32 256 27 27 (5971968)
I1108 23:23:19.494825 135921 net.cpp:225] Memory required for data: 164146688
I1108 23:23:19.546726 135921 layer_factory.hpp:114] Creating layer relu2
I1108 23:23:19.547168 135921 net.cpp:160] Creating Layer relu2
I1108 23:23:19.547556 135921 net.cpp:596] relu2 <- conv2
I1108 23:23:19.547834 135921 net.cpp:557] relu2 -> conv2 (in-place)
I1108 23:23:19.548321 135921 net.cpp:210] Setting up relu2
I1108 23:23:19.548605 135921 net.cpp:217] Top shape: 32 256 27 27 (5971968)
I1108 23:23:19.548899 135921 net.cpp:225] Memory required for data: 188034560
I1108 23:23:19.549105 135921 layer_factory.hpp:114] Creating layer norm2
I1108 23:23:19.549365 135921 net.cpp:160] Creating Layer norm2
I1108 23:23:19.549602 135921 net.cpp:596] norm2 <- conv2
I1108 23:23:19.549855 135921 net.cpp:570] norm2 -> norm2
I1108 23:23:19.551970 135921 net.cpp:210] Setting up norm2
I1108 23:23:19.552317 135921 net.cpp:217] Top shape: 32 256 27 27 (5971968)
I1108 23:23:19.552577 135921 net.cpp:225] Memory required for data: 211922432
I1108 23:23:19.552961 135921 layer_factory.hpp:114] Creating layer pool2
I1108 23:23:19.553918 135921 net.cpp:160] Creating Layer pool2
I1108 23:23:19.554225 135921 net.cpp:596] pool2 <- norm2
I1108 23:23:19.554492 135921 net.cpp:570] pool2 -> pool2
I1108 23:23:19.554936 135921 net.cpp:210] Setting up pool2
I1108 23:23:19.555215 135921 net.cpp:217] Top shape: 32 256 13 13 (1384448)
I1108 23:23:19.555459 135921 net.cpp:225] Memory required for data: 217460224
I1108 23:23:19.555794 135921 layer_factory.hpp:114] Creating layer conv3
I1108 23:23:19.556210 135921 net.cpp:160] Creating Layer conv3
I1108 23:23:19.556437 135921 net.cpp:596] conv3 <- pool2
I1108 23:23:19.556684 135921 net.cpp:570] conv3 -> conv3
I1108 23:23:20.065652 135921 net.cpp:210] Setting up conv3
I1108 23:23:20.068017 135921 net.cpp:217] Top shape: 32 384 13 13 (2076672)
I1108 23:23:20.068372 135921 net.cpp:225] Memory required for data: 225766912
I1108 23:23:20.071480 135921 layer_factory.hpp:114] Creating layer relu3
I1108 23:23:20.071904 135921 net.cpp:160] Creating Layer relu3
I1108 23:23:20.072177 135921 net.cpp:596] relu3 <- conv3
I1108 23:23:20.072522 135921 net.cpp:557] relu3 -> conv3 (in-place)
I1108 23:23:20.076699 135921 net.cpp:210] Setting up relu3
I1108 23:23:20.077075 135921 net.cpp:217] Top shape: 32 384 13 13 (2076672)
I1108 23:23:20.077348 135921 net.cpp:225] Memory required for data: 234073600
I1108 23:23:20.077587 135921 layer_factory.hpp:114] Creating layer conv4
I1108 23:23:20.077960 135921 net.cpp:160] Creating Layer conv4
I1108 23:23:20.078218 135921 net.cpp:596] conv4 <- conv3
I1108 23:23:20.078470 135921 net.cpp:570] conv4 -> conv4
I1108 23:23:20.318938 135921 net.cpp:210] Setting up conv4
I1108 23:23:20.319326 135921 net.cpp:217] Top shape: 32 384 13 13 (2076672)
I1108 23:23:20.319712 135921 net.cpp:225] Memory required for data: 242380288
I1108 23:23:20.320060 135921 layer_factory.hpp:114] Creating layer relu4
I1108 23:23:20.320354 135921 net.cpp:160] Creating Layer relu4
I1108 23:23:20.320582 135921 net.cpp:596] relu4 <- conv4
I1108 23:23:20.320866 135921 net.cpp:557] relu4 -> conv4 (in-place)
I1108 23:23:20.333097 135921 net.cpp:210] Setting up relu4
I1108 23:23:20.333447 135921 net.cpp:217] Top shape: 32 384 13 13 (2076672)
I1108 23:23:20.333847 135921 net.cpp:225] Memory required for data: 250686976
I1108 23:23:20.334061 135921 layer_factory.hpp:114] Creating layer conv5
I1108 23:23:20.334430 135921 net.cpp:160] Creating Layer conv5
I1108 23:23:20.334681 135921 net.cpp:596] conv5 <- conv4
I1108 23:23:20.334926 135921 net.cpp:570] conv5 -> conv5
I1108 23:23:20.503156 135921 net.cpp:210] Setting up conv5
I1108 23:23:20.503545 135921 net.cpp:217] Top shape: 32 256 13 13 (1384448)
I1108 23:23:20.503983 135921 net.cpp:225] Memory required for data: 256224768
I1108 23:23:20.508646 135921 layer_factory.hpp:114] Creating layer relu5
I1108 23:23:20.509119 135921 net.cpp:160] Creating Layer relu5
I1108 23:23:20.509414 135921 net.cpp:596] relu5 <- conv5
I1108 23:23:20.509690 135921 net.cpp:557] relu5 -> conv5 (in-place)
I1108 23:23:20.510150 135921 net.cpp:210] Setting up relu5
I1108 23:23:20.510442 135921 net.cpp:217] Top shape: 32 256 13 13 (1384448)
I1108 23:23:20.510694 135921 net.cpp:225] Memory required for data: 261762560
I1108 23:23:20.510906 135921 layer_factory.hpp:114] Creating layer pool5
I1108 23:23:20.511207 135921 net.cpp:160] Creating Layer pool5
I1108 23:23:20.511438 135921 net.cpp:596] pool5 <- conv5
I1108 23:23:20.511678 135921 net.cpp:570] pool5 -> pool5
I1108 23:23:20.512176 135921 net.cpp:210] Setting up pool5
I1108 23:23:20.512434 135921 net.cpp:217] Top shape: 32 256 6 6 (294912)
I1108 23:23:20.512661 135921 net.cpp:225] Memory required for data: 262942208
I1108 23:23:20.512902 135921 layer_factory.hpp:114] Creating layer fc6
I1108 23:23:20.569613 135921 net.cpp:160] Creating Layer fc6
I1108 23:23:20.569941 135921 net.cpp:596] fc6 <- pool5
I1108 23:23:20.570343 135921 net.cpp:570] fc6 -> fc6
I1108 23:23:24.659901 135921 net.cpp:210] Setting up fc6
I1108 23:23:24.660212 135921 net.cpp:217] Top shape: 32 4096 (131072)
I1108 23:23:24.662287 135921 net.cpp:225] Memory required for data: 263466496
I1108 23:23:24.662606 135921 layer_factory.hpp:114] Creating layer relu6
I1108 23:23:24.665186 135921 net.cpp:160] Creating Layer relu6
I1108 23:23:24.665485 135921 net.cpp:596] relu6 <- fc6
I1108 23:23:24.665714 135921 net.cpp:557] relu6 -> fc6 (in-place)
I1108 23:23:24.666131 135921 net.cpp:210] Setting up relu6
I1108 23:23:24.666383 135921 net.cpp:217] Top shape: 32 4096 (131072)
I1108 23:23:24.666651 135921 net.cpp:225] Memory required for data: 263990784
I1108 23:23:24.666852 135921 layer_factory.hpp:114] Creating layer drop6
I1108 23:23:24.686770 135921 net.cpp:160] Creating Layer drop6
I1108 23:23:24.687077 135921 net.cpp:596] drop6 <- fc6
I1108 23:23:24.687450 135921 net.cpp:557] drop6 -> fc6 (in-place)
I1108 23:23:24.790158 135921 net.cpp:210] Setting up drop6
I1108 23:23:24.790463 135921 net.cpp:217] Top shape: 32 4096 (131072)
I1108 23:23:24.790814 135921 net.cpp:225] Memory required for data: 264515072
I1108 23:23:24.791062 135921 layer_factory.hpp:114] Creating layer fc7
I1108 23:23:24.791343 135921 net.cpp:160] Creating Layer fc7
I1108 23:23:24.791555 135921 net.cpp:596] fc7 <- fc6
I1108 23:23:24.791940 135921 net.cpp:570] fc7 -> fc7
I1108 23:23:26.503654 135921 net.cpp:210] Setting up fc7
I1108 23:23:26.504001 135921 net.cpp:217] Top shape: 32 4096 (131072)
I1108 23:23:26.504432 135921 net.cpp:225] Memory required for data: 265039360
I1108 23:23:26.504772 135921 layer_factory.hpp:114] Creating layer relu7
I1108 23:23:26.505126 135921 net.cpp:160] Creating Layer relu7
I1108 23:23:26.505352 135921 net.cpp:596] relu7 <- fc7
I1108 23:23:26.505586 135921 net.cpp:557] relu7 -> fc7 (in-place)
I1108 23:23:26.506012 135921 net.cpp:210] Setting up relu7
I1108 23:23:26.506278 135921 net.cpp:217] Top shape: 32 4096 (131072)
I1108 23:23:26.506515 135921 net.cpp:225] Memory required for data: 265563648
I1108 23:23:26.506702 135921 layer_factory.hpp:114] Creating layer drop7
I1108 23:23:26.506961 135921 net.cpp:160] Creating Layer drop7
I1108 23:23:26.507166 135921 net.cpp:596] drop7 <- fc7
I1108 23:23:26.507411 135921 net.cpp:557] drop7 -> fc7 (in-place)
I1108 23:23:26.507711 135921 net.cpp:210] Setting up drop7
I1108 23:23:26.507912 135921 net.cpp:217] Top shape: 32 4096 (131072)
I1108 23:23:26.508123 135921 net.cpp:225] Memory required for data: 266087936
I1108 23:23:26.508302 135921 layer_factory.hpp:114] Creating layer fc8
I1108 23:23:26.508546 135921 net.cpp:160] Creating Layer fc8
I1108 23:23:26.508739 135921 net.cpp:596] fc8 <- fc7
I1108 23:23:26.509021 135921 net.cpp:570] fc8 -> fc8
I1108 23:23:26.934340 135921 net.cpp:210] Setting up fc8
I1108 23:23:26.934686 135921 net.cpp:217] Top shape: 32 1000 (32000)
I1108 23:23:26.935080 135921 net.cpp:225] Memory required for data: 266215936
I1108 23:23:26.935379 135921 layer_factory.hpp:114] Creating layer loss
I1108 23:23:26.959805 135921 net.cpp:160] Creating Layer loss
I1108 23:23:26.960127 135921 net.cpp:596] loss <- fc8
I1108 23:23:26.961115 135921 net.cpp:596] loss <- label
I1108 23:23:26.988317 135921 net.cpp:570] loss -> loss
I1108 23:23:27.026202 135921 layer_factory.hpp:114] Creating layer loss
…
