…
I1108 22:52:56.970613 135167 net.cpp:484] The NetState phase (0) differed from the phase (1) specified by a rule in layer accuracy
I1108 22:52:56.970980 135167 net.cpp:120] Initializing net from parameters: 
name: "AlexNet"
state {
  phase: TRAIN
  level: 0
  stage: ""
}
layer {
  name: "data"
  type: "DummyData"
  top: "data"
  top: "label"
  include {
    phase: TRAIN
  }
  dummy_data_param {
    data_filler {
      type: "gaussian"
      std: 1
    }
    data_filler {
      type: "constant"
      value: 0
    }
    shape {
      dim: 32
      dim: 3
      dim: 227
      dim: 227
    }
    shape {
      dim: 32
      dim: 1
      dim: 1
      dim: 1
    }
  }
}
layer {
  name: "conv1"
  type: "Convolution"
  bottom: "data"
  top: "conv1"
  param {
    lr_mult: 1
    decay_mult: 1
  }
  param {
    lr_mult: 2
    decay_mult: 0
  }
  convolution_param {
    num_output: 96
    kernel_size: 11
    stride: 4
    weight_filler {
      type: "gaussian"
      std: 0.01
    }
    bias_filler {
      type: "constant"
      value: 0
    }
    engine: MKL2017
  }
}
layer {
  name: "relu1"
  type: "ReLU"
  bottom: "conv1"
  top: "conv1"
  relu_param {
    engine: MKL2017
  }
}
layer {
  name: "norm1"
  type: "LRN"
  bottom: "conv1"
  top: "norm1"
  lrn_param {
    local_size: 5
    alpha: 0.0001
    beta: 0.75
    engine: MKL2017
  }
}
layer {
  name: "pool1"
  type: "Pooling"
  bottom: "norm1"
  top: "pool1"
  pooling_param {
    pool: MAX
    kernel_size: 3
    stride: 2
    engine: MKL2017
  }
}
layer {
  name: "conv2"
  type: "Convolution"
  bottom: "pool1"
  top: "conv2"
  param {
    lr_mult: 1
    decay_mult: 1
  }
  param {
    lr_mult: 2
    decay_mult: 0
  }
  convolution_param {
    num_output: 256
    pad: 2
    kernel_size: 5
    group: 2
    weight_filler {
      type: "gaussian"
      std: 0.01
    }
    bias_filler {
      type: "constant"
      value: 0.1
    }
    engine: MKL2017
  }
}
layer {
  name: "relu2"
  type: "ReLU"
  bottom: "conv2"
  top: "conv2"
  relu_param {
    engine: MKL2017
  }
}
layer {
  name: "norm2"
  type: "LRN"
  bottom: "conv2"
  top: "norm2"
  lrn_param {
    local_size: 5
    alpha: 0.0001
    beta: 0.75
    engine: MKL2017
  }
}
layer {
  name: "pool2"
  type: "Pooling"
  bottom: "norm2"
  top: "pool2"
  pooling_param {
    pool: MAX
    kernel_size: 3
    stride: 2
    engine: MKL2017
  }
}
layer {
  name: "conv3"
  type: "Convolution"
  bottom: "pool2"
  top: "conv3"
  param {
    lr_mult: 1
    decay_mult: 1
  }
  param {
    lr_mult: 2
    decay_mult: 0
  }
  convolution_param {
    num_output: 384
    pad: 1
    kernel_size: 3
    weight_filler {
      type: "gaussian"
      std: 0.01
    }
    bias_filler {
      type: "constant"
      value: 0
    }
    engine: MKL2017
  }
}
layer {
  name: "relu3"
  type: "ReLU"
  bottom: "conv3"
  top: "conv3"
  relu_param {
    engine: MKL2017
  }
}
layer {
  name: "conv4"
  type: "Convolution"
  bottom: "conv3"
  top: "conv4"
  param {
    lr_mult: 1
    decay_mult: 1
  }
  param {
    lr_mult: 2
    decay_mult: 0
  }
  convolution_param {
    num_output: 384
    pad: 1
    kernel_size: 3
    group: 2
    weight_filler {
      type: "gaussian"
      std: 0.01
    }
    bias_filler {
      type: "constant"
      value: 0.1
    }
    engine: MKL2017
  }
}
layer {
  name: "relu4"
  type: "ReLU"
  bottom: "conv4"
  top: "conv4"
  relu_param {
    engine: MKL2017
  }
}
layer {
  name: "conv5"
  type: "Convolution"
  bottom: "conv4"
  top: "conv5"
  param {
    lr_mult: 1
    decay_mult: 1
  }
  param {
    lr_mult: 2
    decay_mult: 0
  }
  convolution_param {
    num_output: 256
    pad: 1
    kernel_size: 3
    group: 2
    weight_filler {
      type: "gaussian"
      std: 0.01
    }
    bias_filler {
      type: "constant"
      value: 0.1
    }
    engine: MKL2017
  }
}
layer {
  name: "relu5"
  type: "ReLU"
  bottom: "conv5"
  top: "conv5"
  relu_param {
    engine: MKL2017
  }
}
layer {
  name: "pool5"
  type: "Pooling"
  bottom: "conv5"
  top: "pool5"
  pooling_param {
    pool: MAX
    kernel_size: 3
    stride: 2
    engine: MKL2017
  }
}
layer {
  name: "fc6"
  type: "InnerProduct"
  bottom: "pool5"
  top: "fc6"
  param {
    lr_mult: 1
    decay_mult: 1
  }
  param {
    lr_mult: 2
    decay_mult: 0
  }
  inner_product_param {
    num_output: 4096
    weight_filler {
      type: "gaussian"
      std: 0.005
    }
    bias_filler {
      type: "constant"
      value: 0.1
    }
  }
}
layer {
  name: "relu6"
  type: "ReLU"
  bottom: "fc6"
  top: "fc6"
}
layer {
  name: "drop6"
  type: "Dropout"
  bottom: "fc6"
  top: "fc6"
  dropout_param {
    dropout_ratio: 0.5
  }
}
layer {
  name: "fc7"
  type: "InnerProduct"
  bottom: "fc6"
  top: "fc7"
  param {
    lr_mult: 1
    decay_mult: 1
  }
  param {
    lr_mult: 2
    decay_mult: 0
  }
  inner_product_param {
    num_output: 4096
    weight_filler {
      type: "gaussian"
      std: 0.005
    }
    bias_filler {
      type: "constant"
      value: 0.1
    }
  }
}
layer {
  name: "relu7"
  type: "ReLU"
  bottom: "fc7"
  top: "fc7"
}
layer {
  name: "drop7"
  type: "Dropout"
  bottom: "fc7"
  top: "fc7"
  dropout_param {
    dropout_ratio: 0.5
  }
}
layer {
  name: "fc8"
  type: "InnerProduct"
  bottom: "fc7"
  top: "fc8"
  param {
    lr_mult: 1
    decay_mult: 1
  }
  param {
    lr_mult: 2
    decay_mult: 0
  }
  inner_product_param {
    num_output: 1000
    weight_filler {
      type: "gaussian"
      std: 0.01
    }
    bias_filler {
      type: "constant"
      value: 0
    }
  }
}
layer {
  name: "loss"
  type: "SoftmaxWithLoss"
  bottom: "fc8"
  bottom: "label"
  top: "loss"
}
I1108 22:52:56.974145 135167 layer_factory.hpp:114] Creating layer data
I1108 22:52:56.974210 135167 net.cpp:160] Creating Layer data
I1108 22:52:56.974242 135167 net.cpp:570] data -> data
I1108 22:52:56.974297 135167 net.cpp:570] data -> label
I1108 22:52:56.998416 135167 net.cpp:210] Setting up data
I1108 22:52:56.998505 135167 net.cpp:217] Top shape: 32 3 227 227 (4946784)
I1108 22:52:56.998561 135167 net.cpp:217] Top shape: 32 1 1 1 (32)
I1108 22:52:56.998594 135167 net.cpp:225] Memory required for data: 19787264
I1108 22:52:56.998626 135167 layer_factory.hpp:114] Creating layer conv1
I1108 22:52:56.998724 135167 net.cpp:160] Creating Layer conv1
I1108 22:52:56.998754 135167 net.cpp:596] conv1 <- data
I1108 22:52:56.998803 135167 net.cpp:570] conv1 -> conv1
I1108 22:52:57.090262 135167 net.cpp:210] Setting up conv1
I1108 22:52:57.090335 135167 net.cpp:217] Top shape: 32 96 55 55 (9292800)
I1108 22:52:57.090374 135167 net.cpp:225] Memory required for data: 56958464
I1108 22:52:57.090461 135167 layer_factory.hpp:114] Creating layer relu1
I1108 22:52:57.090519 135167 net.cpp:160] Creating Layer relu1
I1108 22:52:57.090539 135167 net.cpp:596] relu1 <- conv1
I1108 22:52:57.090571 135167 net.cpp:557] relu1 -> conv1 (in-place)
I1108 22:52:57.090665 135167 net.cpp:210] Setting up relu1
I1108 22:52:57.090687 135167 net.cpp:217] Top shape: 32 96 55 55 (9292800)
I1108 22:52:57.090711 135167 net.cpp:225] Memory required for data: 94129664
I1108 22:52:57.090731 135167 layer_factory.hpp:114] Creating layer norm1
I1108 22:52:57.090782 135167 net.cpp:160] Creating Layer norm1
I1108 22:52:57.090801 135167 net.cpp:596] norm1 <- conv1
I1108 22:52:57.090828 135167 net.cpp:570] norm1 -> norm1
I1108 22:52:57.090894 135167 net.cpp:210] Setting up norm1
I1108 22:52:57.090914 135167 net.cpp:217] Top shape: 32 96 55 55 (9292800)
I1108 22:52:57.091017 135167 net.cpp:225] Memory required for data: 131300864
I1108 22:52:57.091040 135167 layer_factory.hpp:114] Creating layer pool1
I1108 22:52:57.091083 135167 net.cpp:160] Creating Layer pool1
I1108 22:52:57.091101 135167 net.cpp:596] pool1 <- norm1
I1108 22:52:57.091137 135167 net.cpp:570] pool1 -> pool1
I1108 22:52:57.091222 135167 net.cpp:210] Setting up pool1
I1108 22:52:57.091245 135167 net.cpp:217] Top shape: 32 96 27 27 (2239488)
I1108 22:52:57.091271 135167 net.cpp:225] Memory required for data: 140258816
I1108 22:52:57.091290 135167 layer_factory.hpp:114] Creating layer conv2
I1108 22:52:57.091356 135167 net.cpp:160] Creating Layer conv2
I1108 22:52:57.091374 135167 net.cpp:596] conv2 <- pool1
I1108 22:52:57.091404 135167 net.cpp:570] conv2 -> conv2
I1108 22:52:57.195849 135167 net.cpp:210] Setting up conv2
I1108 22:52:57.195945 135167 net.cpp:217] Top shape: 32 256 27 27 (5971968)
I1108 22:52:57.195988 135167 net.cpp:225] Memory required for data: 164146688
I1108 22:52:57.196058 135167 layer_factory.hpp:114] Creating layer relu2
I1108 22:52:57.196123 135167 net.cpp:160] Creating Layer relu2
I1108 22:52:57.196151 135167 net.cpp:596] relu2 <- conv2
I1108 22:52:57.196221 135167 net.cpp:557] relu2 -> conv2 (in-place)
I1108 22:52:57.196326 135167 net.cpp:210] Setting up relu2
I1108 22:52:57.196413 135167 net.cpp:217] Top shape: 32 256 27 27 (5971968)
I1108 22:52:57.196444 135167 net.cpp:225] Memory required for data: 188034560
I1108 22:52:57.196466 135167 layer_factory.hpp:114] Creating layer norm2
I1108 22:52:57.196507 135167 net.cpp:160] Creating Layer norm2
I1108 22:52:57.196528 135167 net.cpp:596] norm2 <- conv2
I1108 22:52:57.196585 135167 net.cpp:570] norm2 -> norm2
I1108 22:52:57.196651 135167 net.cpp:210] Setting up norm2
I1108 22:52:57.196672 135167 net.cpp:217] Top shape: 32 256 27 27 (5971968)
I1108 22:52:57.196697 135167 net.cpp:225] Memory required for data: 211922432
I1108 22:52:57.196717 135167 layer_factory.hpp:114] Creating layer pool2
I1108 22:52:57.196815 135167 net.cpp:160] Creating Layer pool2
I1108 22:52:57.196843 135167 net.cpp:596] pool2 <- norm2
I1108 22:52:57.196873 135167 net.cpp:570] pool2 -> pool2
I1108 22:52:57.196949 135167 net.cpp:210] Setting up pool2
I1108 22:52:57.196970 135167 net.cpp:217] Top shape: 32 256 13 13 (1384448)
I1108 22:52:57.196996 135167 net.cpp:225] Memory required for data: 217460224
I1108 22:52:57.197016 135167 layer_factory.hpp:114] Creating layer conv3
I1108 22:52:57.197094 135167 net.cpp:160] Creating Layer conv3
I1108 22:52:57.197115 135167 net.cpp:596] conv3 <- pool2
I1108 22:52:57.197165 135167 net.cpp:570] conv3 -> conv3
I1108 22:52:57.299602 135167 net.cpp:210] Setting up conv3
I1108 22:52:57.299698 135167 net.cpp:217] Top shape: 32 384 13 13 (2076672)
I1108 22:52:57.299746 135167 net.cpp:225] Memory required for data: 225766912
I1108 22:52:57.299816 135167 layer_factory.hpp:114] Creating layer relu3
I1108 22:52:57.299943 135167 net.cpp:160] Creating Layer relu3
I1108 22:52:57.299983 135167 net.cpp:596] relu3 <- conv3
I1108 22:52:57.300029 135167 net.cpp:557] relu3 -> conv3 (in-place)
I1108 22:52:57.300137 135167 net.cpp:210] Setting up relu3
I1108 22:52:57.300173 135167 net.cpp:217] Top shape: 32 384 13 13 (2076672)
I1108 22:52:57.300209 135167 net.cpp:225] Memory required for data: 234073600
I1108 22:52:57.300262 135167 layer_factory.hpp:114] Creating layer conv4
I1108 22:52:57.300362 135167 net.cpp:160] Creating Layer conv4
I1108 22:52:57.300393 135167 net.cpp:596] conv4 <- conv3
I1108 22:52:57.300433 135167 net.cpp:570] conv4 -> conv4
I1108 22:52:57.392406 135167 net.cpp:210] Setting up conv4
I1108 22:52:57.392498 135167 net.cpp:217] Top shape: 32 384 13 13 (2076672)
I1108 22:52:57.392542 135167 net.cpp:225] Memory required for data: 242380288
I1108 22:52:57.392606 135167 layer_factory.hpp:114] Creating layer relu4
I1108 22:52:57.392683 135167 net.cpp:160] Creating Layer relu4
I1108 22:52:57.392752 135167 net.cpp:596] relu4 <- conv4
I1108 22:52:57.392834 135167 net.cpp:557] relu4 -> conv4 (in-place)
I1108 22:52:57.392951 135167 net.cpp:210] Setting up relu4
I1108 22:52:57.393129 135167 net.cpp:217] Top shape: 32 384 13 13 (2076672)
I1108 22:52:57.393172 135167 net.cpp:225] Memory required for data: 250686976
I1108 22:52:57.393203 135167 layer_factory.hpp:114] Creating layer conv5
I1108 22:52:57.393329 135167 net.cpp:160] Creating Layer conv5
I1108 22:52:57.393359 135167 net.cpp:596] conv5 <- conv4
I1108 22:52:57.393401 135167 net.cpp:570] conv5 -> conv5
I1108 22:52:57.468238 135167 net.cpp:210] Setting up conv5
I1108 22:52:57.468333 135167 net.cpp:217] Top shape: 32 256 13 13 (1384448)
I1108 22:52:57.468382 135167 net.cpp:225] Memory required for data: 256224768
I1108 22:52:57.468461 135167 layer_factory.hpp:114] Creating layer relu5
I1108 22:52:57.468577 135167 net.cpp:160] Creating Layer relu5
I1108 22:52:57.468617 135167 net.cpp:596] relu5 <- conv5
I1108 22:52:57.468662 135167 net.cpp:557] relu5 -> conv5 (in-place)
I1108 22:52:57.468860 135167 net.cpp:210] Setting up relu5
I1108 22:52:57.468905 135167 net.cpp:217] Top shape: 32 256 13 13 (1384448)
I1108 22:52:57.468940 135167 net.cpp:225] Memory required for data: 261762560
I1108 22:52:57.468964 135167 layer_factory.hpp:114] Creating layer pool5
I1108 22:52:57.469013 135167 net.cpp:160] Creating Layer pool5
I1108 22:52:57.469035 135167 net.cpp:596] pool5 <- conv5
I1108 22:52:57.469069 135167 net.cpp:570] pool5 -> pool5
I1108 22:52:57.469166 135167 net.cpp:210] Setting up pool5
I1108 22:52:57.469192 135167 net.cpp:217] Top shape: 32 256 6 6 (294912)
I1108 22:52:57.469221 135167 net.cpp:225] Memory required for data: 262942208
I1108 22:52:57.469244 135167 layer_factory.hpp:114] Creating layer fc6
I1108 22:52:57.469327 135167 net.cpp:160] Creating Layer fc6
I1108 22:52:57.469353 135167 net.cpp:596] fc6 <- pool5
I1108 22:52:57.469391 135167 net.cpp:570] fc6 -> fc6
I1108 22:52:59.230203 135167 net.cpp:210] Setting up fc6
I1108 22:52:59.230324 135167 net.cpp:217] Top shape: 32 4096 (131072)
I1108 22:52:59.230370 135167 net.cpp:225] Memory required for data: 263466496
I1108 22:52:59.230454 135167 layer_factory.hpp:114] Creating layer relu6
I1108 22:52:59.230589 135167 net.cpp:160] Creating Layer relu6
I1108 22:52:59.230628 135167 net.cpp:596] relu6 <- fc6
I1108 22:52:59.230682 135167 net.cpp:557] relu6 -> fc6 (in-place)
I1108 22:52:59.230803 135167 net.cpp:210] Setting up relu6
I1108 22:52:59.230829 135167 net.cpp:217] Top shape: 32 4096 (131072)
I1108 22:52:59.230888 135167 net.cpp:225] Memory required for data: 263990784
I1108 22:52:59.230912 135167 layer_factory.hpp:114] Creating layer drop6
I1108 22:52:59.230969 135167 net.cpp:160] Creating Layer drop6
I1108 22:52:59.230993 135167 net.cpp:596] drop6 <- fc6
I1108 22:52:59.231024 135167 net.cpp:557] drop6 -> fc6 (in-place)
I1108 22:52:59.231075 135167 net.cpp:210] Setting up drop6
I1108 22:52:59.231093 135167 net.cpp:217] Top shape: 32 4096 (131072)
I1108 22:52:59.231118 135167 net.cpp:225] Memory required for data: 264515072
I1108 22:52:59.231137 135167 layer_factory.hpp:114] Creating layer fc7
I1108 22:52:59.231195 135167 net.cpp:160] Creating Layer fc7
I1108 22:52:59.231217 135167 net.cpp:596] fc7 <- fc6
I1108 22:52:59.231254 135167 net.cpp:570] fc7 -> fc7
I1108 22:53:00.016641 135167 net.cpp:210] Setting up fc7
I1108 22:53:00.016765 135167 net.cpp:217] Top shape: 32 4096 (131072)
I1108 22:53:00.016880 135167 net.cpp:225] Memory required for data: 265039360
I1108 22:53:00.016973 135167 layer_factory.hpp:114] Creating layer relu7
I1108 22:53:00.017082 135167 net.cpp:160] Creating Layer relu7
I1108 22:53:00.017129 135167 net.cpp:596] relu7 <- fc7
I1108 22:53:00.017179 135167 net.cpp:557] relu7 -> fc7 (in-place)
I1108 22:53:00.017302 135167 net.cpp:210] Setting up relu7
I1108 22:53:00.017331 135167 net.cpp:217] Top shape: 32 4096 (131072)
I1108 22:53:00.017364 135167 net.cpp:225] Memory required for data: 265563648
I1108 22:53:00.017390 135167 layer_factory.hpp:114] Creating layer drop7
I1108 22:53:00.017438 135167 net.cpp:160] Creating Layer drop7
I1108 22:53:00.017459 135167 net.cpp:596] drop7 <- fc7
I1108 22:53:00.017490 135167 net.cpp:557] drop7 -> fc7 (in-place)
I1108 22:53:00.017623 135167 net.cpp:210] Setting up drop7
I1108 22:53:00.017648 135167 net.cpp:217] Top shape: 32 4096 (131072)
I1108 22:53:00.017676 135167 net.cpp:225] Memory required for data: 266087936
I1108 22:53:00.017699 135167 layer_factory.hpp:114] Creating layer fc8
I1108 22:53:00.017761 135167 net.cpp:160] Creating Layer fc8
I1108 22:53:00.017786 135167 net.cpp:596] fc8 <- fc7
I1108 22:53:00.017824 135167 net.cpp:570] fc8 -> fc8
I1108 22:53:00.210005 135167 net.cpp:210] Setting up fc8
I1108 22:53:00.210121 135167 net.cpp:217] Top shape: 32 1000 (32000)
I1108 22:53:00.210163 135167 net.cpp:225] Memory required for data: 266215936
I1108 22:53:00.210239 135167 layer_factory.hpp:114] Creating layer loss
I1108 22:53:00.210348 135167 net.cpp:160] Creating Layer loss
I1108 22:53:00.210389 135167 net.cpp:596] loss <- fc8
I1108 22:53:00.210425 135167 net.cpp:596] loss <- label
I1108 22:53:00.210501 135167 net.cpp:570] loss -> loss
I1108 22:53:00.210574 135167 layer_factory.hpp:114] Creating layer loss
…
