…
I1031 14:33:25.623682 100548 net.cpp:484] The NetState phase (0) differed from the phase (1) specified by a rule in layer data
I1031 14:33:26.315194 100548 net.cpp:120] Initializing net from parameters: 
name: "HEP_CLASSIFIER"
state {
  phase: TRAIN
  level: 0
  stage: ""
}
layer {
  name: "data"
  type: "DummyData"
  top: "data"
  top: "label"
  include {
    phase: TRAIN
  }
  dummy_data_param {
    data_filler {
      type: "gaussian"
      std: 1
    }
    data_filler {
      type: "constant"
      value: 0
    }
    shape {
      dim: 1
      dim: 3
      dim: 124
      dim: 124
    }
    shape {
      dim: 1
      dim: 1
      dim: 1
      dim: 1
    }
  }
}
layer {
  name: "conv1"
  type: "Convolution"
  bottom: "data"
  top: "conv1"
  convolution_param {
    num_output: 128
    pad: 0
    kernel_size: 3
    stride: 1
    weight_filler {
      type: "msra"
    }
    bias_filler {
      type: "constant"
      value: 0
    }
  }
}
layer {
  name: "relu1"
  type: "ReLU"
  bottom: "conv1"
  top: "conv1"
  relu_param {
    negative_slope: 0.1
  }
}
layer {
  name: "dropout1"
  type: "Dropout"
  bottom: "conv1"
  top: "drop1"
}
layer {
  name: "pool1"
  type: "Pooling"
  bottom: "drop1"
  top: "pool1"
  pooling_param {
    pool: MAX
    kernel_size: 2
    stride: 2
  }
}
layer {
  name: "conv2"
  type: "Convolution"
  bottom: "pool1"
  top: "conv2"
  convolution_param {
    num_output: 128
    pad: 0
    kernel_size: 3
    stride: 1
    weight_filler {
      type: "msra"
    }
    bias_filler {
      type: "constant"
      value: 0
    }
  }
}
layer {
  name: "relu2"
  type: "ReLU"
  bottom: "conv2"
  top: "conv2"
  relu_param {
    negative_slope: 0.1
  }
}
layer {
  name: "dropout2"
  type: "Dropout"
  bottom: "conv2"
  top: "drop2"
}
layer {
  name: "pool2"
  type: "Pooling"
  bottom: "drop2"
  top: "pool2"
  pooling_param {
    pool: MAX
    kernel_size: 2
    stride: 2
  }
}
layer {
  name: "conv3"
  type: "Convolution"
  bottom: "pool2"
  top: "conv3"
  convolution_param {
    num_output: 128
    pad: 0
    kernel_size: 3
    stride: 1
    weight_filler {
      type: "msra"
    }
    bias_filler {
      type: "constant"
      value: 0
    }
  }
}
layer {
  name: "relu3"
  type: "ReLU"
  bottom: "conv3"
  top: "conv3"
  relu_param {
    negative_slope: 0.1
  }
}
layer {
  name: "dropout3"
  type: "Dropout"
  bottom: "conv3"
  top: "drop3"
}
layer {
  name: "pool3"
  type: "Pooling"
  bottom: "drop3"
  top: "pool3"
  pooling_param {
    pool: MAX
    kernel_size: 2
    stride: 2
  }
}
layer {
  name: "conv4"
  type: "Convolution"
  bottom: "pool3"
  top: "conv4"
  convolution_param {
    num_output: 128
    pad: 0
    kernel_size: 3
    stride: 1
    weight_filler {
      type: "msra"
    }
    bias_filler {
      type: "constant"
      value: 0
    }
  }
}
layer {
  name: "relu4"
  type: "ReLU"
  bottom: "conv4"
  top: "conv4"
  relu_param {
    negative_slope: 0.1
  }
}
layer {
  name: "dropout4"
  type: "Dropout"
  bottom: "conv4"
  top: "drop4"
}
layer {
  name: "pool4"
  type: "Pooling"
  bottom: "drop4"
  top: "pool4"
  pooling_param {
    pool: MAX
    kernel_size: 2
    stride: 2
  }
}
layer {
  name: "fc1"
  type: "InnerProduct"
  bottom: "pool4"
  top: "fc1"
  inner_product_param {
    num_output: 1024
    weight_filler {
      type: "msra"
    }
    bias_filler {
      type: "constant"
      value: 0
    }
  }
}
layer {
  name: "dropout5"
  type: "Dropout"
  bottom: "fc1"
  top: "drop5"
}
layer {
  name: "fc2"
  type: "InnerProduct"
  bottom: "drop5"
  top: "fc2"
  inner_product_param {
    num_output: 2
    weight_filler {
      type: "msra"
    }
    bias_filler {
      type: "constant"
      value: 0
    }
  }
}
layer {
  name: "loss"
  type: "SoftmaxWithLoss"
  bottom: "fc2"
  bottom: "label"
}
I1031 14:33:28.760174 100548 layer_factory.hpp:114] Creating layer data
I1031 14:33:28.920090 100548 net.cpp:160] Creating Layer data
I1031 14:33:28.971863 100548 net.cpp:570] data -> data
I1031 14:33:29.471549 100548 net.cpp:570] data -> label
I1031 14:33:37.090647 100548 net.cpp:210] Setting up data
I1031 14:33:37.196301 100548 net.cpp:217] Top shape: 1 3 124 124 (46128)
I1031 14:33:37.303895 100548 net.cpp:217] Top shape: 1 1 1 1 (1)
I1031 14:33:37.312175 100548 net.cpp:225] Memory required for data: 184516
I1031 14:33:37.395484 100548 layer_factory.hpp:114] Creating layer conv1
I1031 14:33:37.744091 100548 net.cpp:160] Creating Layer conv1
I1031 14:33:37.797615 100548 net.cpp:596] conv1 <- data
I1031 14:33:37.924216 100548 net.cpp:570] conv1 -> conv1
I1031 14:34:15.165024 100548 net.cpp:210] Setting up conv1
I1031 14:34:15.241351 100548 net.cpp:217] Top shape: 1 128 122 122 (1905152)
I1031 14:34:15.255102 100548 net.cpp:225] Memory required for data: 7805124
I1031 14:34:15.580826 100548 layer_factory.hpp:114] Creating layer relu1
I1031 14:34:15.730731 100548 net.cpp:160] Creating Layer relu1
I1031 14:34:15.736402 100548 net.cpp:596] relu1 <- conv1
I1031 14:34:15.771036 100548 net.cpp:557] relu1 -> conv1 (in-place)
I1031 14:34:15.993715 100548 net.cpp:210] Setting up relu1
I1031 14:34:15.996322 100548 net.cpp:217] Top shape: 1 128 122 122 (1905152)
I1031 14:34:15.996675 100548 net.cpp:225] Memory required for data: 15425732
I1031 14:34:15.996877 100548 layer_factory.hpp:114] Creating layer dropout1
I1031 14:34:16.028985 100548 net.cpp:160] Creating Layer dropout1
I1031 14:34:16.032542 100548 net.cpp:596] dropout1 <- conv1
I1031 14:34:16.035317 100548 net.cpp:570] dropout1 -> drop1
I1031 14:34:16.146981 100548 net.cpp:210] Setting up dropout1
I1031 14:34:16.160770 100548 net.cpp:217] Top shape: 1 128 122 122 (1905152)
I1031 14:34:16.161171 100548 net.cpp:225] Memory required for data: 23046340
I1031 14:34:16.161531 100548 layer_factory.hpp:114] Creating layer pool1
I1031 14:34:16.267274 100548 net.cpp:160] Creating Layer pool1
I1031 14:34:16.267882 100548 net.cpp:596] pool1 <- drop1
I1031 14:34:16.268203 100548 net.cpp:570] pool1 -> pool1
I1031 14:34:16.696954 100548 net.cpp:210] Setting up pool1
I1031 14:34:16.706058 100548 net.cpp:217] Top shape: 1 128 61 61 (476288)
I1031 14:34:16.706477 100548 net.cpp:225] Memory required for data: 24951492
I1031 14:34:16.706816 100548 layer_factory.hpp:114] Creating layer conv2
I1031 14:34:16.770874 100548 net.cpp:160] Creating Layer conv2
I1031 14:34:16.775535 100548 net.cpp:596] conv2 <- pool1
I1031 14:34:16.791404 100548 net.cpp:570] conv2 -> conv2
I1031 14:34:23.657261 100548 net.cpp:210] Setting up conv2
I1031 14:34:23.660089 100548 net.cpp:217] Top shape: 1 128 59 59 (445568)
I1031 14:34:23.671667 100548 net.cpp:225] Memory required for data: 26733764
I1031 14:34:23.749927 100548 layer_factory.hpp:114] Creating layer relu2
I1031 14:34:23.760890 100548 net.cpp:160] Creating Layer relu2
I1031 14:34:23.769358 100548 net.cpp:596] relu2 <- conv2
I1031 14:34:23.778189 100548 net.cpp:557] relu2 -> conv2 (in-place)
I1031 14:34:23.781157 100548 net.cpp:210] Setting up relu2
I1031 14:34:23.787263 100548 net.cpp:217] Top shape: 1 128 59 59 (445568)
I1031 14:34:23.799553 100548 net.cpp:225] Memory required for data: 28516036
I1031 14:34:23.806041 100548 layer_factory.hpp:114] Creating layer dropout2
I1031 14:34:23.810580 100548 net.cpp:160] Creating Layer dropout2
I1031 14:34:23.812755 100548 net.cpp:596] dropout2 <- conv2
I1031 14:34:23.819093 100548 net.cpp:570] dropout2 -> drop2
I1031 14:34:23.829584 100548 net.cpp:210] Setting up dropout2
I1031 14:34:23.831971 100548 net.cpp:217] Top shape: 1 128 59 59 (445568)
I1031 14:34:23.842366 100548 net.cpp:225] Memory required for data: 30298308
I1031 14:34:23.848933 100548 layer_factory.hpp:114] Creating layer pool2
I1031 14:34:23.857738 100548 net.cpp:160] Creating Layer pool2
I1031 14:34:23.862579 100548 net.cpp:596] pool2 <- drop2
I1031 14:34:23.871249 100548 net.cpp:570] pool2 -> pool2
I1031 14:34:23.877852 100548 net.cpp:210] Setting up pool2
I1031 14:34:23.879678 100548 net.cpp:217] Top shape: 1 128 30 30 (115200)
I1031 14:34:23.886965 100548 net.cpp:225] Memory required for data: 30759108
I1031 14:34:23.893291 100548 layer_factory.hpp:114] Creating layer conv3
I1031 14:34:23.897840 100548 net.cpp:160] Creating Layer conv3
I1031 14:34:23.900614 100548 net.cpp:596] conv3 <- pool2
I1031 14:34:23.907418 100548 net.cpp:570] conv3 -> conv3
I1031 14:34:24.486589 100548 net.cpp:210] Setting up conv3
I1031 14:34:24.494787 100548 net.cpp:217] Top shape: 1 128 28 28 (100352)
I1031 14:34:24.506781 100548 net.cpp:225] Memory required for data: 31160516
I1031 14:34:24.521183 100548 layer_factory.hpp:114] Creating layer relu3
I1031 14:34:24.525697 100548 net.cpp:160] Creating Layer relu3
I1031 14:34:24.531479 100548 net.cpp:596] relu3 <- conv3
I1031 14:34:24.538306 100548 net.cpp:557] relu3 -> conv3 (in-place)
I1031 14:34:24.545142 100548 net.cpp:210] Setting up relu3
I1031 14:34:24.554896 100548 net.cpp:217] Top shape: 1 128 28 28 (100352)
I1031 14:34:24.559113 100548 net.cpp:225] Memory required for data: 31561924
I1031 14:34:24.567342 100548 layer_factory.hpp:114] Creating layer dropout3
I1031 14:34:24.577823 100548 net.cpp:160] Creating Layer dropout3
I1031 14:34:24.586109 100548 net.cpp:596] dropout3 <- conv3
I1031 14:34:24.594503 100548 net.cpp:570] dropout3 -> drop3
I1031 14:34:24.600872 100548 net.cpp:210] Setting up dropout3
I1031 14:34:24.609184 100548 net.cpp:217] Top shape: 1 128 28 28 (100352)
I1031 14:34:24.615567 100548 net.cpp:225] Memory required for data: 31963332
I1031 14:34:24.617789 100548 layer_factory.hpp:114] Creating layer pool3
I1031 14:34:24.624358 100548 net.cpp:160] Creating Layer pool3
I1031 14:34:24.628445 100548 net.cpp:596] pool3 <- drop3
I1031 14:34:24.636405 100548 net.cpp:570] pool3 -> pool3
I1031 14:34:24.636976 100548 net.cpp:210] Setting up pool3
I1031 14:34:24.643699 100548 net.cpp:217] Top shape: 1 128 14 14 (25088)
I1031 14:34:24.653198 100548 net.cpp:225] Memory required for data: 32063684
I1031 14:34:24.660477 100548 layer_factory.hpp:114] Creating layer conv4
I1031 14:34:24.662497 100548 net.cpp:160] Creating Layer conv4
I1031 14:34:24.665254 100548 net.cpp:596] conv4 <- pool3
I1031 14:34:24.673928 100548 net.cpp:570] conv4 -> conv4
I1031 14:34:25.061959 100548 net.cpp:210] Setting up conv4
I1031 14:34:25.063719 100548 net.cpp:217] Top shape: 1 128 12 12 (18432)
I1031 14:34:25.068831 100548 net.cpp:225] Memory required for data: 32137412
I1031 14:34:25.075418 100548 layer_factory.hpp:114] Creating layer relu4
I1031 14:34:25.079825 100548 net.cpp:160] Creating Layer relu4
I1031 14:34:25.083884 100548 net.cpp:596] relu4 <- conv4
I1031 14:34:25.094595 100548 net.cpp:557] relu4 -> conv4 (in-place)
I1031 14:34:25.103431 100548 net.cpp:210] Setting up relu4
I1031 14:34:25.109381 100548 net.cpp:217] Top shape: 1 128 12 12 (18432)
I1031 14:34:25.118139 100548 net.cpp:225] Memory required for data: 32211140
I1031 14:34:25.126437 100548 layer_factory.hpp:114] Creating layer dropout4
I1031 14:34:25.132794 100548 net.cpp:160] Creating Layer dropout4
I1031 14:34:25.135155 100548 net.cpp:596] dropout4 <- conv4
I1031 14:34:25.137235 100548 net.cpp:570] dropout4 -> drop4
I1031 14:34:25.143869 100548 net.cpp:210] Setting up dropout4
I1031 14:34:25.150318 100548 net.cpp:217] Top shape: 1 128 12 12 (18432)
I1031 14:34:25.160727 100548 net.cpp:225] Memory required for data: 32284868
I1031 14:34:25.169070 100548 layer_factory.hpp:114] Creating layer pool4
I1031 14:34:25.177160 100548 net.cpp:160] Creating Layer pool4
I1031 14:34:25.179702 100548 net.cpp:596] pool4 <- drop4
I1031 14:34:25.184563 100548 net.cpp:570] pool4 -> pool4
I1031 14:34:25.202463 100548 net.cpp:210] Setting up pool4
I1031 14:34:25.202811 100548 net.cpp:217] Top shape: 1 128 6 6 (4608)
I1031 14:34:25.205317 100548 net.cpp:225] Memory required for data: 32303300
I1031 14:34:25.205569 100548 layer_factory.hpp:114] Creating layer fc1
I1031 14:34:25.270577 100548 net.cpp:160] Creating Layer fc1
I1031 14:34:25.270918 100548 net.cpp:596] fc1 <- pool4
I1031 14:34:25.271342 100548 net.cpp:570] fc1 -> fc1
I1031 14:34:26.176923 100548 net.cpp:210] Setting up fc1
I1031 14:34:26.185344 100548 net.cpp:217] Top shape: 1 1024 (1024)
I1031 14:34:26.202325 100548 net.cpp:225] Memory required for data: 32307396
I1031 14:34:26.218139 100548 layer_factory.hpp:114] Creating layer dropout5
I1031 14:34:26.224649 100548 net.cpp:160] Creating Layer dropout5
I1031 14:34:26.229473 100548 net.cpp:596] dropout5 <- fc1
I1031 14:34:26.235882 100548 net.cpp:570] dropout5 -> drop5
I1031 14:34:26.238466 100548 net.cpp:210] Setting up dropout5
I1031 14:34:26.240816 100548 net.cpp:217] Top shape: 1 1024 (1024)
I1031 14:34:26.243119 100548 net.cpp:225] Memory required for data: 32311492
I1031 14:34:26.251791 100548 layer_factory.hpp:114] Creating layer fc2
I1031 14:34:26.261168 100548 net.cpp:160] Creating Layer fc2
I1031 14:34:26.270551 100548 net.cpp:596] fc2 <- drop5
I1031 14:34:26.274870 100548 net.cpp:570] fc2 -> fc2
I1031 14:34:26.306231 100548 net.cpp:210] Setting up fc2
I1031 14:34:26.317719 100548 net.cpp:217] Top shape: 1 2 (2)
I1031 14:34:26.324165 100548 net.cpp:225] Memory required for data: 32311500
I1031 14:34:26.334697 100548 layer_factory.hpp:114] Creating layer loss
I1031 14:34:26.369982 100548 net.cpp:160] Creating Layer loss
I1031 14:34:26.378793 100548 net.cpp:596] loss <- fc2
I1031 14:34:26.387646 100548 net.cpp:596] loss <- label
I1031 14:34:26.448034 100548 net.cpp:570] loss -> (automatic)
I1031 14:34:26.507776 100548 layer_factory.hpp:114] Creating layer loss
…
