…
I1031 15:09:19.316244 101811 net.cpp:484] The NetState phase (0) differed from the phase (1) specified by a rule in layer data
I1031 15:09:20.007599 101811 net.cpp:120] Initializing net from parameters: 
name: "HEP_CLASSIFIER"
state {
  phase: TRAIN
  level: 0
  stage: ""
}
layer {
  name: "data"
  type: "DummyData"
  top: "data"
  top: "label"
  include {
    phase: TRAIN
  }
  dummy_data_param {
    data_filler {
      type: "gaussian"
      std: 1
    }
    data_filler {
      type: "constant"
      value: 0
    }
    shape {
      dim: 1
      dim: 3
      dim: 124
      dim: 124
    }
    shape {
      dim: 1
      dim: 1
      dim: 1
      dim: 1
    }
  }
}
layer {
  name: "conv1"
  type: "Convolution"
  bottom: "data"
  top: "conv1"
  convolution_param {
    num_output: 128
    pad: 0
    kernel_size: 3
    stride: 1
    weight_filler {
      type: "msra"
    }
    bias_filler {
      type: "constant"
      value: 0
    }
  }
}
layer {
  name: "relu1"
  type: "ReLU"
  bottom: "conv1"
  top: "conv1"
  relu_param {
    negative_slope: 0.1
  }
}
layer {
  name: "dropout1"
  type: "Dropout"
  bottom: "conv1"
  top: "drop1"
}
layer {
  name: "pool1"
  type: "Pooling"
  bottom: "drop1"
  top: "pool1"
  pooling_param {
    pool: MAX
    kernel_size: 2
    stride: 2
  }
}
layer {
  name: "conv2"
  type: "Convolution"
  bottom: "pool1"
  top: "conv2"
  convolution_param {
    num_output: 128
    pad: 0
    kernel_size: 3
    stride: 1
    weight_filler {
      type: "msra"
    }
    bias_filler {
      type: "constant"
      value: 0
    }
  }
}
layer {
  name: "relu2"
  type: "ReLU"
  bottom: "conv2"
  top: "conv2"
  relu_param {
    negative_slope: 0.1
  }
}
layer {
  name: "dropout2"
  type: "Dropout"
  bottom: "conv2"
  top: "drop2"
}
layer {
  name: "pool2"
  type: "Pooling"
  bottom: "drop2"
  top: "pool2"
  pooling_param {
    pool: MAX
    kernel_size: 2
    stride: 2
  }
}
layer {
  name: "conv3"
  type: "Convolution"
  bottom: "pool2"
  top: "conv3"
  convolution_param {
    num_output: 128
    pad: 0
    kernel_size: 3
    stride: 1
    weight_filler {
      type: "msra"
    }
    bias_filler {
      type: "constant"
      value: 0
    }
  }
}
layer {
  name: "relu3"
  type: "ReLU"
  bottom: "conv3"
  top: "conv3"
  relu_param {
    negative_slope: 0.1
  }
}
layer {
  name: "dropout3"
  type: "Dropout"
  bottom: "conv3"
  top: "drop3"
}
layer {
  name: "pool3"
  type: "Pooling"
  bottom: "drop3"
  top: "pool3"
  pooling_param {
    pool: MAX
    kernel_size: 2
    stride: 2
  }
}
layer {
  name: "conv4"
  type: "Convolution"
  bottom: "pool3"
  top: "conv4"
  convolution_param {
    num_output: 128
    pad: 0
    kernel_size: 3
    stride: 1
    weight_filler {
      type: "msra"
    }
    bias_filler {
      type: "constant"
      value: 0
    }
  }
}
layer {
  name: "relu4"
  type: "ReLU"
  bottom: "conv4"
  top: "conv4"
  relu_param {
    negative_slope: 0.1
  }
}
layer {
  name: "dropout4"
  type: "Dropout"
  bottom: "conv4"
  top: "drop4"
}
layer {
  name: "pool4"
  type: "Pooling"
  bottom: "drop4"
  top: "pool4"
  pooling_param {
    pool: MAX
    kernel_size: 2
    stride: 2
  }
}
layer {
  name: "fc1"
  type: "InnerProduct"
  bottom: "pool4"
  top: "fc1"
  inner_product_param {
    num_output: 1024
    weight_filler {
      type: "msra"
    }
    bias_filler {
      type: "constant"
      value: 0
    }
  }
}
layer {
  name: "dropout5"
  type: "Dropout"
  bottom: "fc1"
  top: "drop5"
}
layer {
  name: "fc2"
  type: "InnerProduct"
  bottom: "drop5"
  top: "fc2"
  inner_product_param {
    num_output: 2
    weight_filler {
      type: "msra"
    }
    bias_filler {
      type: "constant"
      value: 0
    }
  }
}
layer {
  name: "loss"
  type: "SoftmaxWithLoss"
  bottom: "fc2"
  bottom: "label"
}
I1031 15:09:22.423449 101811 layer_factory.hpp:114] Creating layer data
I1031 15:09:22.579402 101811 net.cpp:160] Creating Layer data
I1031 15:09:22.630741 101811 net.cpp:570] data -> data
I1031 15:09:23.123850 101811 net.cpp:570] data -> label
I1031 15:09:30.581274 101811 net.cpp:210] Setting up data
I1031 15:09:30.665447 101811 net.cpp:217] Top shape: 1 3 124 124 (46128)
I1031 15:09:30.771536 101811 net.cpp:217] Top shape: 1 1 1 1 (1)
I1031 15:09:30.778909 101811 net.cpp:225] Memory required for data: 184516
I1031 15:09:30.857722 101811 layer_factory.hpp:114] Creating layer conv1
I1031 15:09:31.208308 101811 net.cpp:160] Creating Layer conv1
I1031 15:09:31.262163 101811 net.cpp:596] conv1 <- data
I1031 15:09:31.393224 101811 net.cpp:570] conv1 -> conv1
I1031 15:10:08.850327 101811 net.cpp:210] Setting up conv1
I1031 15:10:08.925161 101811 net.cpp:217] Top shape: 1 128 122 122 (1905152)
I1031 15:10:08.932930 101811 net.cpp:225] Memory required for data: 7805124
I1031 15:10:09.256664 101811 layer_factory.hpp:114] Creating layer relu1
I1031 15:10:09.392810 101811 net.cpp:160] Creating Layer relu1
I1031 15:10:09.397828 101811 net.cpp:596] relu1 <- conv1
I1031 15:10:09.432888 101811 net.cpp:557] relu1 -> conv1 (in-place)
I1031 15:10:09.652573 101811 net.cpp:210] Setting up relu1
I1031 15:10:09.655238 101811 net.cpp:217] Top shape: 1 128 122 122 (1905152)
I1031 15:10:09.655656 101811 net.cpp:225] Memory required for data: 15425732
I1031 15:10:09.655874 101811 layer_factory.hpp:114] Creating layer dropout1
I1031 15:10:09.688346 101811 net.cpp:160] Creating Layer dropout1
I1031 15:10:09.688681 101811 net.cpp:596] dropout1 <- conv1
I1031 15:10:09.691577 101811 net.cpp:570] dropout1 -> drop1
I1031 15:10:09.818907 101811 net.cpp:210] Setting up dropout1
I1031 15:10:09.833745 101811 net.cpp:217] Top shape: 1 128 122 122 (1905152)
I1031 15:10:09.834194 101811 net.cpp:225] Memory required for data: 23046340
I1031 15:10:09.834583 101811 layer_factory.hpp:114] Creating layer pool1
I1031 15:10:09.939409 101811 net.cpp:160] Creating Layer pool1
I1031 15:10:09.940217 101811 net.cpp:596] pool1 <- drop1
I1031 15:10:09.940574 101811 net.cpp:570] pool1 -> pool1
I1031 15:10:10.368549 101811 net.cpp:210] Setting up pool1
I1031 15:10:10.378377 101811 net.cpp:217] Top shape: 1 128 61 61 (476288)
I1031 15:10:10.378762 101811 net.cpp:225] Memory required for data: 24951492
I1031 15:10:10.379104 101811 layer_factory.hpp:114] Creating layer conv2
I1031 15:10:10.441648 101811 net.cpp:160] Creating Layer conv2
I1031 15:10:10.446182 101811 net.cpp:596] conv2 <- pool1
I1031 15:10:10.461777 101811 net.cpp:570] conv2 -> conv2
I1031 15:10:17.369858 101811 net.cpp:210] Setting up conv2
I1031 15:10:17.379952 101811 net.cpp:217] Top shape: 1 128 59 59 (445568)
I1031 15:10:17.389287 101811 net.cpp:225] Memory required for data: 26733764
I1031 15:10:17.454212 101811 layer_factory.hpp:114] Creating layer relu2
I1031 15:10:17.467187 101811 net.cpp:160] Creating Layer relu2
I1031 15:10:17.477504 101811 net.cpp:596] relu2 <- conv2
I1031 15:10:17.479454 101811 net.cpp:557] relu2 -> conv2 (in-place)
I1031 15:10:17.484922 101811 net.cpp:210] Setting up relu2
I1031 15:10:17.491349 101811 net.cpp:217] Top shape: 1 128 59 59 (445568)
I1031 15:10:17.494010 101811 net.cpp:225] Memory required for data: 28516036
I1031 15:10:17.500444 101811 layer_factory.hpp:114] Creating layer dropout2
I1031 15:10:17.510752 101811 net.cpp:160] Creating Layer dropout2
I1031 15:10:17.516770 101811 net.cpp:596] dropout2 <- conv2
I1031 15:10:17.527420 101811 net.cpp:570] dropout2 -> drop2
I1031 15:10:17.534097 101811 net.cpp:210] Setting up dropout2
I1031 15:10:17.538673 101811 net.cpp:217] Top shape: 1 128 59 59 (445568)
I1031 15:10:17.541087 101811 net.cpp:225] Memory required for data: 30298308
I1031 15:10:17.545939 101811 layer_factory.hpp:114] Creating layer pool2
I1031 15:10:17.554286 101811 net.cpp:160] Creating Layer pool2
I1031 15:10:17.563169 101811 net.cpp:596] pool2 <- drop2
I1031 15:10:17.569335 101811 net.cpp:570] pool2 -> pool2
I1031 15:10:17.576148 101811 net.cpp:210] Setting up pool2
I1031 15:10:17.584720 101811 net.cpp:217] Top shape: 1 128 30 30 (115200)
I1031 15:10:17.587338 101811 net.cpp:225] Memory required for data: 30759108
I1031 15:10:17.594013 101811 layer_factory.hpp:114] Creating layer conv3
I1031 15:10:17.602716 101811 net.cpp:160] Creating Layer conv3
I1031 15:10:17.607338 101811 net.cpp:596] conv3 <- pool2
I1031 15:10:17.611699 101811 net.cpp:570] conv3 -> conv3
I1031 15:10:18.189651 101811 net.cpp:210] Setting up conv3
I1031 15:10:18.192250 101811 net.cpp:217] Top shape: 1 128 28 28 (100352)
I1031 15:10:18.192618 101811 net.cpp:225] Memory required for data: 31160516
I1031 15:10:18.201391 101811 layer_factory.hpp:114] Creating layer relu3
I1031 15:10:18.201828 101811 net.cpp:160] Creating Layer relu3
I1031 15:10:18.202239 101811 net.cpp:596] relu3 <- conv3
I1031 15:10:18.202533 101811 net.cpp:557] relu3 -> conv3 (in-place)
I1031 15:10:18.203222 101811 net.cpp:210] Setting up relu3
I1031 15:10:18.203573 101811 net.cpp:217] Top shape: 1 128 28 28 (100352)
I1031 15:10:18.203843 101811 net.cpp:225] Memory required for data: 31561924
I1031 15:10:18.204057 101811 layer_factory.hpp:114] Creating layer dropout3
I1031 15:10:18.204331 101811 net.cpp:160] Creating Layer dropout3
I1031 15:10:18.204553 101811 net.cpp:596] dropout3 <- conv3
I1031 15:10:18.204807 101811 net.cpp:570] dropout3 -> drop3
I1031 15:10:18.205178 101811 net.cpp:210] Setting up dropout3
I1031 15:10:18.205535 101811 net.cpp:217] Top shape: 1 128 28 28 (100352)
I1031 15:10:18.205801 101811 net.cpp:225] Memory required for data: 31963332
I1031 15:10:18.206017 101811 layer_factory.hpp:114] Creating layer pool3
I1031 15:10:18.206338 101811 net.cpp:160] Creating Layer pool3
I1031 15:10:18.206579 101811 net.cpp:596] pool3 <- drop3
I1031 15:10:18.206831 101811 net.cpp:570] pool3 -> pool3
I1031 15:10:18.207267 101811 net.cpp:210] Setting up pool3
I1031 15:10:18.207579 101811 net.cpp:217] Top shape: 1 128 14 14 (25088)
I1031 15:10:18.207837 101811 net.cpp:225] Memory required for data: 32063684
I1031 15:10:18.208066 101811 layer_factory.hpp:114] Creating layer conv4
I1031 15:10:18.208549 101811 net.cpp:160] Creating Layer conv4
I1031 15:10:18.208906 101811 net.cpp:596] conv4 <- pool3
I1031 15:10:18.209208 101811 net.cpp:570] conv4 -> conv4
I1031 15:10:18.646198 101811 net.cpp:210] Setting up conv4
I1031 15:10:18.650817 101811 net.cpp:217] Top shape: 1 128 12 12 (18432)
I1031 15:10:18.657088 101811 net.cpp:225] Memory required for data: 32137412
I1031 15:10:18.667557 101811 layer_factory.hpp:114] Creating layer relu4
I1031 15:10:18.671509 101811 net.cpp:160] Creating Layer relu4
I1031 15:10:18.673815 101811 net.cpp:596] relu4 <- conv4
I1031 15:10:18.676275 101811 net.cpp:557] relu4 -> conv4 (in-place)
I1031 15:10:18.678813 101811 net.cpp:210] Setting up relu4
I1031 15:10:18.683409 101811 net.cpp:217] Top shape: 1 128 12 12 (18432)
I1031 15:10:18.689406 101811 net.cpp:225] Memory required for data: 32211140
I1031 15:10:18.695916 101811 layer_factory.hpp:114] Creating layer dropout4
I1031 15:10:18.702742 101811 net.cpp:160] Creating Layer dropout4
I1031 15:10:18.709087 101811 net.cpp:596] dropout4 <- conv4
I1031 15:10:18.715481 101811 net.cpp:570] dropout4 -> drop4
I1031 15:10:18.722106 101811 net.cpp:210] Setting up dropout4
I1031 15:10:18.724287 101811 net.cpp:217] Top shape: 1 128 12 12 (18432)
I1031 15:10:18.732684 101811 net.cpp:225] Memory required for data: 32284868
I1031 15:10:18.737213 101811 layer_factory.hpp:114] Creating layer pool4
I1031 15:10:18.745749 101811 net.cpp:160] Creating Layer pool4
I1031 15:10:18.746094 101811 net.cpp:596] pool4 <- drop4
I1031 15:10:18.746379 101811 net.cpp:570] pool4 -> pool4
I1031 15:10:18.774801 101811 net.cpp:210] Setting up pool4
I1031 15:10:18.779104 101811 net.cpp:217] Top shape: 1 128 6 6 (4608)
I1031 15:10:18.781498 101811 net.cpp:225] Memory required for data: 32303300
I1031 15:10:18.783998 101811 layer_factory.hpp:114] Creating layer fc1
I1031 15:10:18.853713 101811 net.cpp:160] Creating Layer fc1
I1031 15:10:18.860479 101811 net.cpp:596] fc1 <- pool4
I1031 15:10:18.871251 101811 net.cpp:570] fc1 -> fc1
I1031 15:10:19.703977 101811 net.cpp:210] Setting up fc1
I1031 15:10:19.714720 101811 net.cpp:217] Top shape: 1 1024 (1024)
I1031 15:10:19.721151 101811 net.cpp:225] Memory required for data: 32307396
I1031 15:10:19.735160 101811 layer_factory.hpp:114] Creating layer dropout5
I1031 15:10:19.741822 101811 net.cpp:160] Creating Layer dropout5
I1031 15:10:19.745916 101811 net.cpp:596] dropout5 <- fc1
I1031 15:10:19.752310 101811 net.cpp:570] dropout5 -> drop5
I1031 15:10:19.758559 101811 net.cpp:210] Setting up dropout5
I1031 15:10:19.761085 101811 net.cpp:217] Top shape: 1 1024 (1024)
I1031 15:10:19.771618 101811 net.cpp:225] Memory required for data: 32311492
I1031 15:10:19.777581 101811 layer_factory.hpp:114] Creating layer fc2
I1031 15:10:19.782827 101811 net.cpp:160] Creating Layer fc2
I1031 15:10:19.789861 101811 net.cpp:596] fc2 <- drop5
I1031 15:10:19.798487 101811 net.cpp:570] fc2 -> fc2
I1031 15:10:19.834038 101811 net.cpp:210] Setting up fc2
I1031 15:10:19.839928 101811 net.cpp:217] Top shape: 1 2 (2)
I1031 15:10:19.850266 101811 net.cpp:225] Memory required for data: 32311500
I1031 15:10:19.854890 101811 layer_factory.hpp:114] Creating layer loss
I1031 15:10:19.893211 101811 net.cpp:160] Creating Layer loss
I1031 15:10:19.895077 101811 net.cpp:596] loss <- fc2
I1031 15:10:19.902999 101811 net.cpp:596] loss <- label
I1031 15:10:19.970516 101811 net.cpp:570] loss -> (automatic)
I1031 15:10:20.022594 101811 layer_factory.hpp:114] Creating layer loss
…
