…
I1031 15:15:11.454629 102008 net.cpp:484] The NetState phase (0) differed from the phase (1) specified by a rule in layer data
I1031 15:15:12.187538 102008 net.cpp:120] Initializing net from parameters: 
name: "HEP_CLASSIFIER"
state {
  phase: TRAIN
  level: 0
  stage: ""
}
layer {
  name: "data"
  type: "DummyData"
  top: "data"
  top: "label"
  include {
    phase: TRAIN
  }
  dummy_data_param {
    data_filler {
      type: "gaussian"
      std: 1
    }
    data_filler {
      type: "constant"
      value: 0
    }
    shape {
      dim: 1
      dim: 3
      dim: 124
      dim: 124
    }
    shape {
      dim: 1
      dim: 1
      dim: 1
      dim: 1
    }
  }
}
layer {
  name: "conv1"
  type: "Convolution"
  bottom: "data"
  top: "conv1"
  convolution_param {
    num_output: 128
    pad: 0
    kernel_size: 3
    stride: 1
    weight_filler {
      type: "msra"
    }
    bias_filler {
      type: "constant"
      value: 0
    }
  }
}
layer {
  name: "relu1"
  type: "ReLU"
  bottom: "conv1"
  top: "conv1"
  relu_param {
    negative_slope: 0.1
  }
}
layer {
  name: "dropout1"
  type: "Dropout"
  bottom: "conv1"
  top: "drop1"
}
layer {
  name: "pool1"
  type: "Pooling"
  bottom: "drop1"
  top: "pool1"
  pooling_param {
    pool: MAX
    kernel_size: 2
    stride: 2
  }
}
layer {
  name: "conv2"
  type: "Convolution"
  bottom: "pool1"
  top: "conv2"
  convolution_param {
    num_output: 128
    pad: 0
    kernel_size: 3
    stride: 1
    weight_filler {
      type: "msra"
    }
    bias_filler {
      type: "constant"
      value: 0
    }
  }
}
layer {
  name: "relu2"
  type: "ReLU"
  bottom: "conv2"
  top: "conv2"
  relu_param {
    negative_slope: 0.1
  }
}
layer {
  name: "dropout2"
  type: "Dropout"
  bottom: "conv2"
  top: "drop2"
}
layer {
  name: "pool2"
  type: "Pooling"
  bottom: "drop2"
  top: "pool2"
  pooling_param {
    pool: MAX
    kernel_size: 2
    stride: 2
  }
}
layer {
  name: "conv3"
  type: "Convolution"
  bottom: "pool2"
  top: "conv3"
  convolution_param {
    num_output: 128
    pad: 0
    kernel_size: 3
    stride: 1
    weight_filler {
      type: "msra"
    }
    bias_filler {
      type: "constant"
      value: 0
    }
  }
}
layer {
  name: "relu3"
  type: "ReLU"
  bottom: "conv3"
  top: "conv3"
  relu_param {
    negative_slope: 0.1
  }
}
layer {
  name: "dropout3"
  type: "Dropout"
  bottom: "conv3"
  top: "drop3"
}
layer {
  name: "pool3"
  type: "Pooling"
  bottom: "drop3"
  top: "pool3"
  pooling_param {
    pool: MAX
    kernel_size: 2
    stride: 2
  }
}
layer {
  name: "conv4"
  type: "Convolution"
  bottom: "pool3"
  top: "conv4"
  convolution_param {
    num_output: 128
    pad: 0
    kernel_size: 3
    stride: 1
    weight_filler {
      type: "msra"
    }
    bias_filler {
      type: "constant"
      value: 0
    }
  }
}
layer {
  name: "relu4"
  type: "ReLU"
  bottom: "conv4"
  top: "conv4"
  relu_param {
    negative_slope: 0.1
  }
}
layer {
  name: "dropout4"
  type: "Dropout"
  bottom: "conv4"
  top: "drop4"
}
layer {
  name: "pool4"
  type: "Pooling"
  bottom: "drop4"
  top: "pool4"
  pooling_param {
    pool: MAX
    kernel_size: 2
    stride: 2
  }
}
layer {
  name: "fc1"
  type: "InnerProduct"
  bottom: "pool4"
  top: "fc1"
  inner_product_param {
    num_output: 1024
    weight_filler {
      type: "msra"
    }
    bias_filler {
      type: "constant"
      value: 0
    }
  }
}
layer {
  name: "dropout5"
  type: "Dropout"
  bottom: "fc1"
  top: "drop5"
}
layer {
  name: "fc2"
  type: "InnerProduct"
  bottom: "drop5"
  top: "fc2"
  inner_product_param {
    num_output: 2
    weight_filler {
      type: "msra"
    }
    bias_filler {
      type: "constant"
      value: 0
    }
  }
}
layer {
  name: "loss"
  type: "SoftmaxWithLoss"
  bottom: "fc2"
  bottom: "label"
}
I1031 15:15:14.733016 102008 layer_factory.hpp:114] Creating layer data
I1031 15:15:14.895195 102008 net.cpp:160] Creating Layer data
I1031 15:15:14.947602 102008 net.cpp:570] data -> data
I1031 15:15:15.448581 102008 net.cpp:570] data -> label
I1031 15:15:22.914615 102008 net.cpp:210] Setting up data
I1031 15:15:22.999184 102008 net.cpp:217] Top shape: 1 3 124 124 (46128)
I1031 15:15:23.106761 102008 net.cpp:217] Top shape: 1 1 1 1 (1)
I1031 15:15:23.116159 102008 net.cpp:225] Memory required for data: 184516
I1031 15:15:23.197904 102008 layer_factory.hpp:114] Creating layer conv1
I1031 15:15:23.555275 102008 net.cpp:160] Creating Layer conv1
I1031 15:15:23.609069 102008 net.cpp:596] conv1 <- data
I1031 15:15:23.740968 102008 net.cpp:570] conv1 -> conv1
I1031 15:16:01.526234 102008 net.cpp:210] Setting up conv1
I1031 15:16:01.604133 102008 net.cpp:217] Top shape: 1 128 122 122 (1905152)
I1031 15:16:01.615200 102008 net.cpp:225] Memory required for data: 7805124
I1031 15:16:01.940932 102008 layer_factory.hpp:114] Creating layer relu1
I1031 15:16:02.099268 102008 net.cpp:160] Creating Layer relu1
I1031 15:16:02.105335 102008 net.cpp:596] relu1 <- conv1
I1031 15:16:02.140229 102008 net.cpp:557] relu1 -> conv1 (in-place)
I1031 15:16:02.370435 102008 net.cpp:210] Setting up relu1
I1031 15:16:02.374071 102008 net.cpp:217] Top shape: 1 128 122 122 (1905152)
I1031 15:16:02.374528 102008 net.cpp:225] Memory required for data: 15425732
I1031 15:16:02.374788 102008 layer_factory.hpp:114] Creating layer dropout1
I1031 15:16:02.410616 102008 net.cpp:160] Creating Layer dropout1
I1031 15:16:02.410987 102008 net.cpp:596] dropout1 <- conv1
I1031 15:16:02.414036 102008 net.cpp:570] dropout1 -> drop1
I1031 15:16:02.530169 102008 net.cpp:210] Setting up dropout1
I1031 15:16:02.544104 102008 net.cpp:217] Top shape: 1 128 122 122 (1905152)
I1031 15:16:02.544504 102008 net.cpp:225] Memory required for data: 23046340
I1031 15:16:02.544842 102008 layer_factory.hpp:114] Creating layer pool1
I1031 15:16:02.654209 102008 net.cpp:160] Creating Layer pool1
I1031 15:16:02.655024 102008 net.cpp:596] pool1 <- drop1
I1031 15:16:02.655424 102008 net.cpp:570] pool1 -> pool1
I1031 15:16:03.078155 102008 net.cpp:210] Setting up pool1
I1031 15:16:03.083719 102008 net.cpp:217] Top shape: 1 128 61 61 (476288)
I1031 15:16:03.084133 102008 net.cpp:225] Memory required for data: 24951492
I1031 15:16:03.084492 102008 layer_factory.hpp:114] Creating layer conv2
I1031 15:16:03.149651 102008 net.cpp:160] Creating Layer conv2
I1031 15:16:03.154247 102008 net.cpp:596] conv2 <- pool1
I1031 15:16:03.170315 102008 net.cpp:570] conv2 -> conv2
I1031 15:16:10.070019 102008 net.cpp:210] Setting up conv2
I1031 15:16:10.074867 102008 net.cpp:217] Top shape: 1 128 59 59 (445568)
I1031 15:16:10.092895 102008 net.cpp:225] Memory required for data: 26733764
I1031 15:16:10.160396 102008 layer_factory.hpp:114] Creating layer relu2
I1031 15:16:10.173954 102008 net.cpp:160] Creating Layer relu2
I1031 15:16:10.182373 102008 net.cpp:596] relu2 <- conv2
I1031 15:16:10.190907 102008 net.cpp:557] relu2 -> conv2 (in-place)
I1031 15:16:10.205579 102008 net.cpp:210] Setting up relu2
I1031 15:16:10.212549 102008 net.cpp:217] Top shape: 1 128 59 59 (445568)
I1031 15:16:10.219040 102008 net.cpp:225] Memory required for data: 28516036
I1031 15:16:10.227284 102008 layer_factory.hpp:114] Creating layer dropout2
I1031 15:16:10.239231 102008 net.cpp:160] Creating Layer dropout2
I1031 15:16:10.249523 102008 net.cpp:596] dropout2 <- conv2
I1031 15:16:10.251567 102008 net.cpp:570] dropout2 -> drop2
I1031 15:16:10.262486 102008 net.cpp:210] Setting up dropout2
I1031 15:16:10.264750 102008 net.cpp:217] Top shape: 1 128 59 59 (445568)
I1031 15:16:10.273890 102008 net.cpp:225] Memory required for data: 30298308
I1031 15:16:10.278301 102008 layer_factory.hpp:114] Creating layer pool2
I1031 15:16:10.280719 102008 net.cpp:160] Creating Layer pool2
I1031 15:16:10.281005 102008 net.cpp:596] pool2 <- drop2
I1031 15:16:10.281276 102008 net.cpp:570] pool2 -> pool2
I1031 15:16:10.290011 102008 net.cpp:210] Setting up pool2
I1031 15:16:10.294430 102008 net.cpp:217] Top shape: 1 128 30 30 (115200)
I1031 15:16:10.294822 102008 net.cpp:225] Memory required for data: 30759108
I1031 15:16:10.311461 102008 layer_factory.hpp:114] Creating layer conv3
I1031 15:16:10.317963 102008 net.cpp:160] Creating Layer conv3
I1031 15:16:10.322031 102008 net.cpp:596] conv3 <- pool2
I1031 15:16:10.328696 102008 net.cpp:570] conv3 -> conv3
I1031 15:16:10.984073 102008 net.cpp:210] Setting up conv3
I1031 15:16:10.990892 102008 net.cpp:217] Top shape: 1 128 28 28 (100352)
I1031 15:16:11.001341 102008 net.cpp:225] Memory required for data: 31160516
I1031 15:16:11.016444 102008 layer_factory.hpp:114] Creating layer relu3
I1031 15:16:11.022899 102008 net.cpp:160] Creating Layer relu3
I1031 15:16:11.030899 102008 net.cpp:596] relu3 <- conv3
I1031 15:16:11.037878 102008 net.cpp:557] relu3 -> conv3 (in-place)
I1031 15:16:11.041082 102008 net.cpp:210] Setting up relu3
I1031 15:16:11.049679 102008 net.cpp:217] Top shape: 1 128 28 28 (100352)
I1031 15:16:11.057767 102008 net.cpp:225] Memory required for data: 31561924
I1031 15:16:11.064949 102008 layer_factory.hpp:114] Creating layer dropout3
I1031 15:16:11.066814 102008 net.cpp:160] Creating Layer dropout3
I1031 15:16:11.067122 102008 net.cpp:596] dropout3 <- conv3
I1031 15:16:11.067447 102008 net.cpp:570] dropout3 -> drop3
I1031 15:16:11.070660 102008 net.cpp:210] Setting up dropout3
I1031 15:16:11.070946 102008 net.cpp:217] Top shape: 1 128 28 28 (100352)
I1031 15:16:11.075062 102008 net.cpp:225] Memory required for data: 31963332
I1031 15:16:11.081590 102008 layer_factory.hpp:114] Creating layer pool3
I1031 15:16:11.094002 102008 net.cpp:160] Creating Layer pool3
I1031 15:16:11.095960 102008 net.cpp:596] pool3 <- drop3
I1031 15:16:11.103273 102008 net.cpp:570] pool3 -> pool3
I1031 15:16:11.112157 102008 net.cpp:210] Setting up pool3
I1031 15:16:11.118146 102008 net.cpp:217] Top shape: 1 128 14 14 (25088)
I1031 15:16:11.122668 102008 net.cpp:225] Memory required for data: 32063684
I1031 15:16:11.125063 102008 layer_factory.hpp:114] Creating layer conv4
I1031 15:16:11.127563 102008 net.cpp:160] Creating Layer conv4
I1031 15:16:11.127863 102008 net.cpp:596] conv4 <- pool3
I1031 15:16:11.128152 102008 net.cpp:570] conv4 -> conv4
I1031 15:16:11.498716 102008 net.cpp:210] Setting up conv4
I1031 15:16:11.501819 102008 net.cpp:217] Top shape: 1 128 12 12 (18432)
I1031 15:16:11.505924 102008 net.cpp:225] Memory required for data: 32137412
I1031 15:16:11.514714 102008 layer_factory.hpp:114] Creating layer relu4
I1031 15:16:11.517232 102008 net.cpp:160] Creating Layer relu4
I1031 15:16:11.521623 102008 net.cpp:596] relu4 <- conv4
I1031 15:16:11.530429 102008 net.cpp:557] relu4 -> conv4 (in-place)
I1031 15:16:11.534888 102008 net.cpp:210] Setting up relu4
I1031 15:16:11.543114 102008 net.cpp:217] Top shape: 1 128 12 12 (18432)
I1031 15:16:11.545511 102008 net.cpp:225] Memory required for data: 32211140
I1031 15:16:11.551342 102008 layer_factory.hpp:114] Creating layer dropout4
I1031 15:16:11.554383 102008 net.cpp:160] Creating Layer dropout4
I1031 15:16:11.560813 102008 net.cpp:596] dropout4 <- conv4
I1031 15:16:11.566890 102008 net.cpp:570] dropout4 -> drop4
I1031 15:16:11.575620 102008 net.cpp:210] Setting up dropout4
I1031 15:16:11.579958 102008 net.cpp:217] Top shape: 1 128 12 12 (18432)
I1031 15:16:11.588400 102008 net.cpp:225] Memory required for data: 32284868
I1031 15:16:11.590306 102008 layer_factory.hpp:114] Creating layer pool4
I1031 15:16:11.593175 102008 net.cpp:160] Creating Layer pool4
I1031 15:16:11.595669 102008 net.cpp:596] pool4 <- drop4
I1031 15:16:11.600435 102008 net.cpp:570] pool4 -> pool4
I1031 15:16:11.622838 102008 net.cpp:210] Setting up pool4
I1031 15:16:11.629783 102008 net.cpp:217] Top shape: 1 128 6 6 (4608)
I1031 15:16:11.638489 102008 net.cpp:225] Memory required for data: 32303300
I1031 15:16:11.643085 102008 layer_factory.hpp:114] Creating layer fc1
I1031 15:16:11.720679 102008 net.cpp:160] Creating Layer fc1
I1031 15:16:11.725142 102008 net.cpp:596] fc1 <- pool4
I1031 15:16:11.731261 102008 net.cpp:570] fc1 -> fc1
I1031 15:16:12.582224 102008 net.cpp:210] Setting up fc1
I1031 15:16:12.585306 102008 net.cpp:217] Top shape: 1 1024 (1024)
I1031 15:16:12.587842 102008 net.cpp:225] Memory required for data: 32307396
I1031 15:16:12.602432 102008 layer_factory.hpp:114] Creating layer dropout5
I1031 15:16:12.615226 102008 net.cpp:160] Creating Layer dropout5
I1031 15:16:12.619487 102008 net.cpp:596] dropout5 <- fc1
I1031 15:16:12.635746 102008 net.cpp:570] dropout5 -> drop5
I1031 15:16:12.644068 102008 net.cpp:210] Setting up dropout5
I1031 15:16:12.646270 102008 net.cpp:217] Top shape: 1 1024 (1024)
I1031 15:16:12.648799 102008 net.cpp:225] Memory required for data: 32311492
I1031 15:16:12.652809 102008 layer_factory.hpp:114] Creating layer fc2
I1031 15:16:12.659749 102008 net.cpp:160] Creating Layer fc2
I1031 15:16:12.665419 102008 net.cpp:596] fc2 <- drop5
I1031 15:16:12.674409 102008 net.cpp:570] fc2 -> fc2
I1031 15:16:12.700099 102008 net.cpp:210] Setting up fc2
I1031 15:16:12.707489 102008 net.cpp:217] Top shape: 1 2 (2)
I1031 15:16:12.713768 102008 net.cpp:225] Memory required for data: 32311500
I1031 15:16:12.720510 102008 layer_factory.hpp:114] Creating layer loss
I1031 15:16:12.756929 102008 net.cpp:160] Creating Layer loss
I1031 15:16:12.763501 102008 net.cpp:596] loss <- fc2
I1031 15:16:12.772125 102008 net.cpp:596] loss <- label
I1031 15:16:12.840598 102008 net.cpp:570] loss -> (automatic)
I1031 15:16:12.896226 102008 layer_factory.hpp:114] Creating layer loss
…
