…
I1031 11:03:26.194278 131063 net.cpp:484] The NetState phase (0) differed from the phase (1) specified by a rule in layer data
I1031 11:03:26.194720 131063 net.cpp:120] Initializing net from parameters: 
name: "HEP_CLASSIFIER"
state {
  phase: TRAIN
  level: 0
  stage: ""
}
layer {
  name: "data"
  type: "DummyData"
  top: "data"
  top: "label"
  include {
    phase: TRAIN
  }
  dummy_data_param {
    data_filler {
      type: "gaussian"
      std: 1
    }
    data_filler {
      type: "constant"
      value: 0
    }
    shape {
      dim: 1
      dim: 3
      dim: 124
      dim: 124
    }
    shape {
      dim: 1
      dim: 1
      dim: 1
      dim: 1
    }
  }
}
layer {
  name: "conv1"
  type: "Convolution"
  bottom: "data"
  top: "conv1"
  convolution_param {
    num_output: 128
    pad: 0
    kernel_size: 3
    stride: 1
    weight_filler {
      type: "msra"
    }
    bias_filler {
      type: "constant"
      value: 0
    }
  }
}
layer {
  name: "relu1"
  type: "ReLU"
  bottom: "conv1"
  top: "conv1"
  relu_param {
    negative_slope: 0.1
  }
}
layer {
  name: "dropout1"
  type: "Dropout"
  bottom: "conv1"
  top: "drop1"
}
layer {
  name: "pool1"
  type: "Pooling"
  bottom: "drop1"
  top: "pool1"
  pooling_param {
    pool: MAX
    kernel_size: 2
    stride: 2
  }
}
layer {
  name: "conv2"
  type: "Convolution"
  bottom: "pool1"
  top: "conv2"
  convolution_param {
    num_output: 128
    pad: 0
    kernel_size: 3
    stride: 1
    weight_filler {
      type: "msra"
    }
    bias_filler {
      type: "constant"
      value: 0
    }
  }
}
layer {
  name: "relu2"
  type: "ReLU"
  bottom: "conv2"
  top: "conv2"
  relu_param {
    negative_slope: 0.1
  }
}
layer {
  name: "dropout2"
  type: "Dropout"
  bottom: "conv2"
  top: "drop2"
}
layer {
  name: "pool2"
  type: "Pooling"
  bottom: "drop2"
  top: "pool2"
  pooling_param {
    pool: MAX
    kernel_size: 2
    stride: 2
  }
}
layer {
  name: "conv3"
  type: "Convolution"
  bottom: "pool2"
  top: "conv3"
  convolution_param {
    num_output: 128
    pad: 0
    kernel_size: 3
    stride: 1
    weight_filler {
      type: "msra"
    }
    bias_filler {
      type: "constant"
      value: 0
    }
  }
}
layer {
  name: "relu3"
  type: "ReLU"
  bottom: "conv3"
  top: "conv3"
  relu_param {
    negative_slope: 0.1
  }
}
layer {
  name: "dropout3"
  type: "Dropout"
  bottom: "conv3"
  top: "drop3"
}
layer {
  name: "pool3"
  type: "Pooling"
  bottom: "drop3"
  top: "pool3"
  pooling_param {
    pool: MAX
    kernel_size: 2
    stride: 2
  }
}
layer {
  name: "conv4"
  type: "Convolution"
  bottom: "pool3"
  top: "conv4"
  convolution_param {
    num_output: 128
    pad: 0
    kernel_size: 3
    stride: 1
    weight_filler {
      type: "msra"
    }
    bias_filler {
      type: "constant"
      value: 0
    }
  }
}
layer {
  name: "relu4"
  type: "ReLU"
  bottom: "conv4"
  top: "conv4"
  relu_param {
    negative_slope: 0.1
  }
}
layer {
  name: "dropout4"
  type: "Dropout"
  bottom: "conv4"
  top: "drop4"
}
layer {
  name: "pool4"
  type: "Pooling"
  bottom: "drop4"
  top: "pool4"
  pooling_param {
    pool: MAX
    kernel_size: 2
    stride: 2
  }
}
layer {
  name: "fc1"
  type: "InnerProduct"
  bottom: "pool4"
  top: "fc1"
  inner_product_param {
    num_output: 1024
    weight_filler {
      type: "msra"
    }
    bias_filler {
      type: "constant"
      value: 0
    }
  }
}
layer {
  name: "dropout5"
  type: "Dropout"
  bottom: "fc1"
  top: "drop5"
}
layer {
  name: "fc2"
  type: "InnerProduct"
  bottom: "drop5"
  top: "fc2"
  inner_product_param {
    num_output: 2
    weight_filler {
      type: "msra"
    }
    bias_filler {
      type: "constant"
      value: 0
    }
  }
}
layer {
  name: "loss"
  type: "SoftmaxWithLoss"
  bottom: "fc2"
  bottom: "label"
}
I1031 11:03:26.197068 131063 layer_factory.hpp:114] Creating layer data
I1031 11:03:26.197134 131063 net.cpp:160] Creating Layer data
I1031 11:03:26.197172 131063 net.cpp:570] data -> data
I1031 11:03:26.197234 131063 net.cpp:570] data -> label
I1031 11:03:26.222920 131063 net.cpp:210] Setting up data
I1031 11:03:26.223033 131063 net.cpp:217] Top shape: 1 3 124 124 (46128)
I1031 11:03:26.223132 131063 net.cpp:217] Top shape: 1 1 1 1 (1)
I1031 11:03:26.223175 131063 net.cpp:225] Memory required for data: 184516
I1031 11:03:26.223214 131063 layer_factory.hpp:114] Creating layer conv1
I1031 11:03:26.223336 131063 net.cpp:160] Creating Layer conv1
I1031 11:03:26.223378 131063 net.cpp:596] conv1 <- data
I1031 11:03:26.223439 131063 net.cpp:570] conv1 -> conv1
I1031 11:03:26.277062 131063 net.cpp:210] Setting up conv1
I1031 11:03:26.277153 131063 net.cpp:217] Top shape: 1 128 122 122 (1905152)
I1031 11:03:26.277191 131063 net.cpp:225] Memory required for data: 7805124
I1031 11:03:26.277307 131063 layer_factory.hpp:114] Creating layer relu1
I1031 11:03:26.277371 131063 net.cpp:160] Creating Layer relu1
I1031 11:03:26.277396 131063 net.cpp:596] relu1 <- conv1
I1031 11:03:26.277433 131063 net.cpp:557] relu1 -> conv1 (in-place)
I1031 11:03:26.277539 131063 net.cpp:210] Setting up relu1
I1031 11:03:26.277564 131063 net.cpp:217] Top shape: 1 128 122 122 (1905152)
I1031 11:03:26.277592 131063 net.cpp:225] Memory required for data: 15425732
I1031 11:03:26.277614 131063 layer_factory.hpp:114] Creating layer dropout1
I1031 11:03:26.277647 131063 net.cpp:160] Creating Layer dropout1
I1031 11:03:26.277668 131063 net.cpp:596] dropout1 <- conv1
I1031 11:03:26.277726 131063 net.cpp:570] dropout1 -> drop1
I1031 11:03:26.277796 131063 net.cpp:210] Setting up dropout1
I1031 11:03:26.277817 131063 net.cpp:217] Top shape: 1 128 122 122 (1905152)
I1031 11:03:26.277843 131063 net.cpp:225] Memory required for data: 23046340
I1031 11:03:26.277865 131063 layer_factory.hpp:114] Creating layer pool1
I1031 11:03:26.277910 131063 net.cpp:160] Creating Layer pool1
I1031 11:03:26.277931 131063 net.cpp:596] pool1 <- drop1
I1031 11:03:26.277988 131063 net.cpp:570] pool1 -> pool1
I1031 11:03:26.278069 131063 net.cpp:210] Setting up pool1
I1031 11:03:26.278090 131063 net.cpp:217] Top shape: 1 128 61 61 (476288)
I1031 11:03:26.278115 131063 net.cpp:225] Memory required for data: 24951492
I1031 11:03:26.278136 131063 layer_factory.hpp:114] Creating layer conv2
I1031 11:03:26.278204 131063 net.cpp:160] Creating Layer conv2
I1031 11:03:26.278224 131063 net.cpp:596] conv2 <- pool1
I1031 11:03:26.278254 131063 net.cpp:570] conv2 -> conv2
I1031 11:03:26.316035 131063 net.cpp:210] Setting up conv2
I1031 11:03:26.316120 131063 net.cpp:217] Top shape: 1 128 59 59 (445568)
I1031 11:03:26.316160 131063 net.cpp:225] Memory required for data: 26733764
I1031 11:03:26.316262 131063 layer_factory.hpp:114] Creating layer relu2
I1031 11:03:26.316336 131063 net.cpp:160] Creating Layer relu2
I1031 11:03:26.316365 131063 net.cpp:596] relu2 <- conv2
I1031 11:03:26.316408 131063 net.cpp:557] relu2 -> conv2 (in-place)
I1031 11:03:26.316510 131063 net.cpp:210] Setting up relu2
I1031 11:03:26.316536 131063 net.cpp:217] Top shape: 1 128 59 59 (445568)
I1031 11:03:26.316570 131063 net.cpp:225] Memory required for data: 28516036
I1031 11:03:26.316593 131063 layer_factory.hpp:114] Creating layer dropout2
I1031 11:03:26.316627 131063 net.cpp:160] Creating Layer dropout2
I1031 11:03:26.316648 131063 net.cpp:596] dropout2 <- conv2
I1031 11:03:26.316737 131063 net.cpp:570] dropout2 -> drop2
I1031 11:03:26.316779 131063 net.cpp:210] Setting up dropout2
I1031 11:03:26.316800 131063 net.cpp:217] Top shape: 1 128 59 59 (445568)
I1031 11:03:26.316828 131063 net.cpp:225] Memory required for data: 30298308
I1031 11:03:26.316957 131063 layer_factory.hpp:114] Creating layer pool2
I1031 11:03:26.317023 131063 net.cpp:160] Creating Layer pool2
I1031 11:03:26.317044 131063 net.cpp:596] pool2 <- drop2
I1031 11:03:26.317073 131063 net.cpp:570] pool2 -> pool2
I1031 11:03:26.317152 131063 net.cpp:210] Setting up pool2
I1031 11:03:26.317172 131063 net.cpp:217] Top shape: 1 128 30 30 (115200)
I1031 11:03:26.317198 131063 net.cpp:225] Memory required for data: 30759108
I1031 11:03:26.317219 131063 layer_factory.hpp:114] Creating layer conv3
I1031 11:03:26.317276 131063 net.cpp:160] Creating Layer conv3
I1031 11:03:26.317297 131063 net.cpp:596] conv3 <- pool2
I1031 11:03:26.317328 131063 net.cpp:570] conv3 -> conv3
I1031 11:03:26.349819 131063 net.cpp:210] Setting up conv3
I1031 11:03:26.349912 131063 net.cpp:217] Top shape: 1 128 28 28 (100352)
I1031 11:03:26.349956 131063 net.cpp:225] Memory required for data: 31160516
I1031 11:03:26.350057 131063 layer_factory.hpp:114] Creating layer relu3
I1031 11:03:26.350123 131063 net.cpp:160] Creating Layer relu3
I1031 11:03:26.350155 131063 net.cpp:596] relu3 <- conv3
I1031 11:03:26.350195 131063 net.cpp:557] relu3 -> conv3 (in-place)
I1031 11:03:26.350335 131063 net.cpp:210] Setting up relu3
I1031 11:03:26.350371 131063 net.cpp:217] Top shape: 1 128 28 28 (100352)
I1031 11:03:26.350406 131063 net.cpp:225] Memory required for data: 31561924
I1031 11:03:26.350432 131063 layer_factory.hpp:114] Creating layer dropout3
I1031 11:03:26.350473 131063 net.cpp:160] Creating Layer dropout3
I1031 11:03:26.350495 131063 net.cpp:596] dropout3 <- conv3
I1031 11:03:26.350529 131063 net.cpp:570] dropout3 -> drop3
I1031 11:03:26.350576 131063 net.cpp:210] Setting up dropout3
I1031 11:03:26.350597 131063 net.cpp:217] Top shape: 1 128 28 28 (100352)
I1031 11:03:26.350625 131063 net.cpp:225] Memory required for data: 31963332
I1031 11:03:26.350647 131063 layer_factory.hpp:114] Creating layer pool3
I1031 11:03:26.350688 131063 net.cpp:160] Creating Layer pool3
I1031 11:03:26.350709 131063 net.cpp:596] pool3 <- drop3
I1031 11:03:26.350741 131063 net.cpp:570] pool3 -> pool3
I1031 11:03:26.350826 131063 net.cpp:210] Setting up pool3
I1031 11:03:26.350877 131063 net.cpp:217] Top shape: 1 128 14 14 (25088)
I1031 11:03:26.350903 131063 net.cpp:225] Memory required for data: 32063684
I1031 11:03:26.350924 131063 layer_factory.hpp:114] Creating layer conv4
I1031 11:03:26.351003 131063 net.cpp:160] Creating Layer conv4
I1031 11:03:26.351027 131063 net.cpp:596] conv4 <- pool3
I1031 11:03:26.351059 131063 net.cpp:570] conv4 -> conv4
I1031 11:03:26.381508 131063 net.cpp:210] Setting up conv4
I1031 11:03:26.381597 131063 net.cpp:217] Top shape: 1 128 12 12 (18432)
I1031 11:03:26.381641 131063 net.cpp:225] Memory required for data: 32137412
I1031 11:03:26.381734 131063 layer_factory.hpp:114] Creating layer relu4
I1031 11:03:26.381820 131063 net.cpp:160] Creating Layer relu4
I1031 11:03:26.381860 131063 net.cpp:596] relu4 <- conv4
I1031 11:03:26.381906 131063 net.cpp:557] relu4 -> conv4 (in-place)
I1031 11:03:26.382014 131063 net.cpp:210] Setting up relu4
I1031 11:03:26.382047 131063 net.cpp:217] Top shape: 1 128 12 12 (18432)
I1031 11:03:26.382083 131063 net.cpp:225] Memory required for data: 32211140
I1031 11:03:26.382109 131063 layer_factory.hpp:114] Creating layer dropout4
I1031 11:03:26.382166 131063 net.cpp:160] Creating Layer dropout4
I1031 11:03:26.382190 131063 net.cpp:596] dropout4 <- conv4
I1031 11:03:26.382225 131063 net.cpp:570] dropout4 -> drop4
I1031 11:03:26.382272 131063 net.cpp:210] Setting up dropout4
I1031 11:03:26.382293 131063 net.cpp:217] Top shape: 1 128 12 12 (18432)
I1031 11:03:26.382397 131063 net.cpp:225] Memory required for data: 32284868
I1031 11:03:26.382421 131063 layer_factory.hpp:114] Creating layer pool4
I1031 11:03:26.382477 131063 net.cpp:160] Creating Layer pool4
I1031 11:03:26.382498 131063 net.cpp:596] pool4 <- drop4
I1031 11:03:26.382536 131063 net.cpp:570] pool4 -> pool4
I1031 11:03:26.382625 131063 net.cpp:210] Setting up pool4
I1031 11:03:26.382648 131063 net.cpp:217] Top shape: 1 128 6 6 (4608)
I1031 11:03:26.382755 131063 net.cpp:225] Memory required for data: 32303300
I1031 11:03:26.382781 131063 layer_factory.hpp:114] Creating layer fc1
I1031 11:03:26.382861 131063 net.cpp:160] Creating Layer fc1
I1031 11:03:26.382884 131063 net.cpp:596] fc1 <- pool4
I1031 11:03:26.382917 131063 net.cpp:570] fc1 -> fc1
I1031 11:03:26.618248 131063 net.cpp:210] Setting up fc1
I1031 11:03:26.618369 131063 net.cpp:217] Top shape: 1 1024 (1024)
I1031 11:03:26.618413 131063 net.cpp:225] Memory required for data: 32307396
I1031 11:03:26.618484 131063 layer_factory.hpp:114] Creating layer dropout5
I1031 11:03:26.618566 131063 net.cpp:160] Creating Layer dropout5
I1031 11:03:26.618638 131063 net.cpp:596] dropout5 <- fc1
I1031 11:03:26.618682 131063 net.cpp:570] dropout5 -> drop5
I1031 11:03:26.618742 131063 net.cpp:210] Setting up dropout5
I1031 11:03:26.618767 131063 net.cpp:217] Top shape: 1 1024 (1024)
I1031 11:03:26.618845 131063 net.cpp:225] Memory required for data: 32311492
I1031 11:03:26.618871 131063 layer_factory.hpp:114] Creating layer fc2
I1031 11:03:26.618921 131063 net.cpp:160] Creating Layer fc2
I1031 11:03:26.618942 131063 net.cpp:596] fc2 <- drop5
I1031 11:03:26.618993 131063 net.cpp:570] fc2 -> fc2
I1031 11:03:26.619238 131063 net.cpp:210] Setting up fc2
I1031 11:03:26.619269 131063 net.cpp:217] Top shape: 1 2 (2)
I1031 11:03:26.619300 131063 net.cpp:225] Memory required for data: 32311500
I1031 11:03:26.619348 131063 layer_factory.hpp:114] Creating layer loss
I1031 11:03:26.619406 131063 net.cpp:160] Creating Layer loss
I1031 11:03:26.619427 131063 net.cpp:596] loss <- fc2
I1031 11:03:26.619453 131063 net.cpp:596] loss <- label
I1031 11:03:26.619488 131063 net.cpp:570] loss -> (automatic)
I1031 11:03:26.619530 131063 layer_factory.hpp:114] Creating layer loss
…
