…
I1031 14:39:45.968767 100749 net.cpp:484] The NetState phase (0) differed from the phase (1) specified by a rule in layer data
I1031 14:39:46.652804 100749 net.cpp:120] Initializing net from parameters: 
name: "HEP_CLASSIFIER"
state {
  phase: TRAIN
  level: 0
  stage: ""
}
layer {
  name: "data"
  type: "DummyData"
  top: "data"
  top: "label"
  include {
    phase: TRAIN
  }
  dummy_data_param {
    data_filler {
      type: "gaussian"
      std: 1
    }
    data_filler {
      type: "constant"
      value: 0
    }
    shape {
      dim: 1
      dim: 3
      dim: 124
      dim: 124
    }
    shape {
      dim: 1
      dim: 1
      dim: 1
      dim: 1
    }
  }
}
layer {
  name: "conv1"
  type: "Convolution"
  bottom: "data"
  top: "conv1"
  convolution_param {
    num_output: 128
    pad: 0
    kernel_size: 3
    stride: 1
    weight_filler {
      type: "msra"
    }
    bias_filler {
      type: "constant"
      value: 0
    }
  }
}
layer {
  name: "relu1"
  type: "ReLU"
  bottom: "conv1"
  top: "conv1"
  relu_param {
    negative_slope: 0.1
  }
}
layer {
  name: "dropout1"
  type: "Dropout"
  bottom: "conv1"
  top: "drop1"
}
layer {
  name: "pool1"
  type: "Pooling"
  bottom: "drop1"
  top: "pool1"
  pooling_param {
    pool: MAX
    kernel_size: 2
    stride: 2
  }
}
layer {
  name: "conv2"
  type: "Convolution"
  bottom: "pool1"
  top: "conv2"
  convolution_param {
    num_output: 128
    pad: 0
    kernel_size: 3
    stride: 1
    weight_filler {
      type: "msra"
    }
    bias_filler {
      type: "constant"
      value: 0
    }
  }
}
layer {
  name: "relu2"
  type: "ReLU"
  bottom: "conv2"
  top: "conv2"
  relu_param {
    negative_slope: 0.1
  }
}
layer {
  name: "dropout2"
  type: "Dropout"
  bottom: "conv2"
  top: "drop2"
}
layer {
  name: "pool2"
  type: "Pooling"
  bottom: "drop2"
  top: "pool2"
  pooling_param {
    pool: MAX
    kernel_size: 2
    stride: 2
  }
}
layer {
  name: "conv3"
  type: "Convolution"
  bottom: "pool2"
  top: "conv3"
  convolution_param {
    num_output: 128
    pad: 0
    kernel_size: 3
    stride: 1
    weight_filler {
      type: "msra"
    }
    bias_filler {
      type: "constant"
      value: 0
    }
  }
}
layer {
  name: "relu3"
  type: "ReLU"
  bottom: "conv3"
  top: "conv3"
  relu_param {
    negative_slope: 0.1
  }
}
layer {
  name: "dropout3"
  type: "Dropout"
  bottom: "conv3"
  top: "drop3"
}
layer {
  name: "pool3"
  type: "Pooling"
  bottom: "drop3"
  top: "pool3"
  pooling_param {
    pool: MAX
    kernel_size: 2
    stride: 2
  }
}
layer {
  name: "conv4"
  type: "Convolution"
  bottom: "pool3"
  top: "conv4"
  convolution_param {
    num_output: 128
    pad: 0
    kernel_size: 3
    stride: 1
    weight_filler {
      type: "msra"
    }
    bias_filler {
      type: "constant"
      value: 0
    }
  }
}
layer {
  name: "relu4"
  type: "ReLU"
  bottom: "conv4"
  top: "conv4"
  relu_param {
    negative_slope: 0.1
  }
}
layer {
  name: "dropout4"
  type: "Dropout"
  bottom: "conv4"
  top: "drop4"
}
layer {
  name: "pool4"
  type: "Pooling"
  bottom: "drop4"
  top: "pool4"
  pooling_param {
    pool: MAX
    kernel_size: 2
    stride: 2
  }
}
layer {
  name: "fc1"
  type: "InnerProduct"
  bottom: "pool4"
  top: "fc1"
  inner_product_param {
    num_output: 1024
    weight_filler {
      type: "msra"
    }
    bias_filler {
      type: "constant"
      value: 0
    }
  }
}
layer {
  name: "dropout5"
  type: "Dropout"
  bottom: "fc1"
  top: "drop5"
}
layer {
  name: "fc2"
  type: "InnerProduct"
  bottom: "drop5"
  top: "fc2"
  inner_product_param {
    num_output: 2
    weight_filler {
      type: "msra"
    }
    bias_filler {
      type: "constant"
      value: 0
    }
  }
}
layer {
  name: "loss"
  type: "SoftmaxWithLoss"
  bottom: "fc2"
  bottom: "label"
}
I1031 14:39:49.075857 100749 layer_factory.hpp:114] Creating layer data
I1031 14:39:49.251948 100749 net.cpp:160] Creating Layer data
I1031 14:39:49.303606 100749 net.cpp:570] data -> data
I1031 14:39:49.801209 100749 net.cpp:570] data -> label
I1031 14:39:57.263200 100749 net.cpp:210] Setting up data
I1031 14:39:57.347836 100749 net.cpp:217] Top shape: 1 3 124 124 (46128)
I1031 14:39:57.454689 100749 net.cpp:217] Top shape: 1 1 1 1 (1)
I1031 14:39:57.462095 100749 net.cpp:225] Memory required for data: 184516
I1031 14:39:57.541224 100749 layer_factory.hpp:114] Creating layer conv1
I1031 14:39:57.892729 100749 net.cpp:160] Creating Layer conv1
I1031 14:39:57.946274 100749 net.cpp:596] conv1 <- data
I1031 14:39:58.074082 100749 net.cpp:570] conv1 -> conv1
I1031 14:40:35.508481 100749 net.cpp:210] Setting up conv1
I1031 14:40:35.579800 100749 net.cpp:217] Top shape: 1 128 122 122 (1905152)
I1031 14:40:35.590461 100749 net.cpp:225] Memory required for data: 7805124
I1031 14:40:35.919487 100749 layer_factory.hpp:114] Creating layer relu1
I1031 14:40:36.062765 100749 net.cpp:160] Creating Layer relu1
I1031 14:40:36.068279 100749 net.cpp:596] relu1 <- conv1
I1031 14:40:36.103754 100749 net.cpp:557] relu1 -> conv1 (in-place)
I1031 14:40:36.325340 100749 net.cpp:210] Setting up relu1
I1031 14:40:36.328025 100749 net.cpp:217] Top shape: 1 128 122 122 (1905152)
I1031 14:40:36.328392 100749 net.cpp:225] Memory required for data: 15425732
I1031 14:40:36.328605 100749 layer_factory.hpp:114] Creating layer dropout1
I1031 14:40:36.361393 100749 net.cpp:160] Creating Layer dropout1
I1031 14:40:36.361723 100749 net.cpp:596] dropout1 <- conv1
I1031 14:40:36.364748 100749 net.cpp:570] dropout1 -> drop1
I1031 14:40:36.477069 100749 net.cpp:210] Setting up dropout1
I1031 14:40:36.490548 100749 net.cpp:217] Top shape: 1 128 122 122 (1905152)
I1031 14:40:36.490948 100749 net.cpp:225] Memory required for data: 23046340
I1031 14:40:36.491291 100749 layer_factory.hpp:114] Creating layer pool1
I1031 14:40:36.594925 100749 net.cpp:160] Creating Layer pool1
I1031 14:40:36.595464 100749 net.cpp:596] pool1 <- drop1
I1031 14:40:36.595808 100749 net.cpp:570] pool1 -> pool1
I1031 14:40:37.019042 100749 net.cpp:210] Setting up pool1
I1031 14:40:37.028422 100749 net.cpp:217] Top shape: 1 128 61 61 (476288)
I1031 14:40:37.028841 100749 net.cpp:225] Memory required for data: 24951492
I1031 14:40:37.029201 100749 layer_factory.hpp:114] Creating layer conv2
I1031 14:40:37.094889 100749 net.cpp:160] Creating Layer conv2
I1031 14:40:37.099550 100749 net.cpp:596] conv2 <- pool1
I1031 14:40:37.115470 100749 net.cpp:570] conv2 -> conv2
I1031 14:40:43.977839 100749 net.cpp:210] Setting up conv2
I1031 14:40:43.986440 100749 net.cpp:217] Top shape: 1 128 59 59 (445568)
I1031 14:40:43.995726 100749 net.cpp:225] Memory required for data: 26733764
I1031 14:40:44.068867 100749 layer_factory.hpp:114] Creating layer relu2
I1031 14:40:44.084066 100749 net.cpp:160] Creating Layer relu2
I1031 14:40:44.092739 100749 net.cpp:596] relu2 <- conv2
I1031 14:40:44.094585 100749 net.cpp:557] relu2 -> conv2 (in-place)
I1031 14:40:44.095523 100749 net.cpp:210] Setting up relu2
I1031 14:40:44.102644 100749 net.cpp:217] Top shape: 1 128 59 59 (445568)
I1031 14:40:44.107030 100749 net.cpp:225] Memory required for data: 28516036
I1031 14:40:44.111661 100749 layer_factory.hpp:114] Creating layer dropout2
I1031 14:40:44.120049 100749 net.cpp:160] Creating Layer dropout2
I1031 14:40:44.125790 100749 net.cpp:596] dropout2 <- conv2
I1031 14:40:44.134351 100749 net.cpp:570] dropout2 -> drop2
I1031 14:40:44.145035 100749 net.cpp:210] Setting up dropout2
I1031 14:40:44.149804 100749 net.cpp:217] Top shape: 1 128 59 59 (445568)
I1031 14:40:44.161881 100749 net.cpp:225] Memory required for data: 30298308
I1031 14:40:44.163728 100749 layer_factory.hpp:114] Creating layer pool2
I1031 14:40:44.169461 100749 net.cpp:160] Creating Layer pool2
I1031 14:40:44.173570 100749 net.cpp:596] pool2 <- drop2
I1031 14:40:44.176414 100749 net.cpp:570] pool2 -> pool2
I1031 14:40:44.184990 100749 net.cpp:210] Setting up pool2
I1031 14:40:44.189313 100749 net.cpp:217] Top shape: 1 128 30 30 (115200)
I1031 14:40:44.198036 100749 net.cpp:225] Memory required for data: 30759108
I1031 14:40:44.206360 100749 layer_factory.hpp:114] Creating layer conv3
I1031 14:40:44.208341 100749 net.cpp:160] Creating Layer conv3
I1031 14:40:44.214948 100749 net.cpp:596] conv3 <- pool2
I1031 14:40:44.219506 100749 net.cpp:570] conv3 -> conv3
I1031 14:40:44.819859 100749 net.cpp:210] Setting up conv3
I1031 14:40:44.826423 100749 net.cpp:217] Top shape: 1 128 28 28 (100352)
I1031 14:40:44.830957 100749 net.cpp:225] Memory required for data: 31160516
I1031 14:40:44.851052 100749 layer_factory.hpp:114] Creating layer relu3
I1031 14:40:44.855548 100749 net.cpp:160] Creating Layer relu3
I1031 14:40:44.857777 100749 net.cpp:596] relu3 <- conv3
I1031 14:40:44.867902 100749 net.cpp:557] relu3 -> conv3 (in-place)
I1031 14:40:44.872680 100749 net.cpp:210] Setting up relu3
I1031 14:40:44.877408 100749 net.cpp:217] Top shape: 1 128 28 28 (100352)
I1031 14:40:44.881880 100749 net.cpp:225] Memory required for data: 31561924
I1031 14:40:44.886345 100749 layer_factory.hpp:114] Creating layer dropout3
I1031 14:40:44.888407 100749 net.cpp:160] Creating Layer dropout3
I1031 14:40:44.888713 100749 net.cpp:596] dropout3 <- conv3
I1031 14:40:44.888989 100749 net.cpp:570] dropout3 -> drop3
I1031 14:40:44.891286 100749 net.cpp:210] Setting up dropout3
I1031 14:40:44.896136 100749 net.cpp:217] Top shape: 1 128 28 28 (100352)
I1031 14:40:44.904737 100749 net.cpp:225] Memory required for data: 31963332
I1031 14:40:44.913002 100749 layer_factory.hpp:114] Creating layer pool3
I1031 14:40:44.922886 100749 net.cpp:160] Creating Layer pool3
I1031 14:40:44.924890 100749 net.cpp:596] pool3 <- drop3
I1031 14:40:44.937302 100749 net.cpp:570] pool3 -> pool3
I1031 14:40:44.950439 100749 net.cpp:210] Setting up pool3
I1031 14:40:44.960708 100749 net.cpp:217] Top shape: 1 128 14 14 (25088)
I1031 14:40:44.969377 100749 net.cpp:225] Memory required for data: 32063684
I1031 14:40:44.977377 100749 layer_factory.hpp:114] Creating layer conv4
I1031 14:40:44.986846 100749 net.cpp:160] Creating Layer conv4
I1031 14:40:45.008358 100749 net.cpp:596] conv4 <- pool3
I1031 14:40:45.029682 100749 net.cpp:570] conv4 -> conv4
I1031 14:40:45.377920 100749 net.cpp:210] Setting up conv4
I1031 14:40:45.378204 100749 net.cpp:217] Top shape: 1 128 12 12 (18432)
I1031 14:40:45.378548 100749 net.cpp:225] Memory required for data: 32137412
I1031 14:40:45.378865 100749 layer_factory.hpp:114] Creating layer relu4
I1031 14:40:45.379143 100749 net.cpp:160] Creating Layer relu4
I1031 14:40:45.379351 100749 net.cpp:596] relu4 <- conv4
I1031 14:40:45.379652 100749 net.cpp:557] relu4 -> conv4 (in-place)
I1031 14:40:45.380105 100749 net.cpp:210] Setting up relu4
I1031 14:40:45.380362 100749 net.cpp:217] Top shape: 1 128 12 12 (18432)
I1031 14:40:45.380605 100749 net.cpp:225] Memory required for data: 32211140
I1031 14:40:45.380810 100749 layer_factory.hpp:114] Creating layer dropout4
I1031 14:40:45.381048 100749 net.cpp:160] Creating Layer dropout4
I1031 14:40:45.381248 100749 net.cpp:596] dropout4 <- conv4
I1031 14:40:45.381500 100749 net.cpp:570] dropout4 -> drop4
I1031 14:40:45.381860 100749 net.cpp:210] Setting up dropout4
I1031 14:40:45.382138 100749 net.cpp:217] Top shape: 1 128 12 12 (18432)
I1031 14:40:45.382403 100749 net.cpp:225] Memory required for data: 32284868
I1031 14:40:45.382608 100749 layer_factory.hpp:114] Creating layer pool4
I1031 14:40:45.382911 100749 net.cpp:160] Creating Layer pool4
I1031 14:40:45.383131 100749 net.cpp:596] pool4 <- drop4
I1031 14:40:45.383406 100749 net.cpp:570] pool4 -> pool4
I1031 14:40:45.397552 100749 net.cpp:210] Setting up pool4
I1031 14:40:45.397913 100749 net.cpp:217] Top shape: 1 128 6 6 (4608)
I1031 14:40:45.400506 100749 net.cpp:225] Memory required for data: 32303300
I1031 14:40:45.400763 100749 layer_factory.hpp:114] Creating layer fc1
I1031 14:40:45.463508 100749 net.cpp:160] Creating Layer fc1
I1031 14:40:45.469841 100749 net.cpp:596] fc1 <- pool4
I1031 14:40:45.478456 100749 net.cpp:570] fc1 -> fc1
I1031 14:40:46.376562 100749 net.cpp:210] Setting up fc1
I1031 14:40:46.381734 100749 net.cpp:217] Top shape: 1 1024 (1024)
I1031 14:40:46.388988 100749 net.cpp:225] Memory required for data: 32307396
I1031 14:40:46.404393 100749 layer_factory.hpp:114] Creating layer dropout5
I1031 14:40:46.414793 100749 net.cpp:160] Creating Layer dropout5
I1031 14:40:46.422786 100749 net.cpp:596] dropout5 <- fc1
I1031 14:40:46.431627 100749 net.cpp:570] dropout5 -> drop5
I1031 14:40:46.433616 100749 net.cpp:210] Setting up dropout5
I1031 14:40:46.441099 100749 net.cpp:217] Top shape: 1 1024 (1024)
I1031 14:40:46.449617 100749 net.cpp:225] Memory required for data: 32311492
I1031 14:40:46.456214 100749 layer_factory.hpp:114] Creating layer fc2
I1031 14:40:46.462414 100749 net.cpp:160] Creating Layer fc2
I1031 14:40:46.498700 100749 net.cpp:596] fc2 <- drop5
I1031 14:40:46.507501 100749 net.cpp:570] fc2 -> fc2
I1031 14:40:46.546355 100749 net.cpp:210] Setting up fc2
I1031 14:40:46.556018 100749 net.cpp:217] Top shape: 1 2 (2)
I1031 14:40:46.566174 100749 net.cpp:225] Memory required for data: 32311500
I1031 14:40:46.575040 100749 layer_factory.hpp:114] Creating layer loss
I1031 14:40:46.607414 100749 net.cpp:160] Creating Layer loss
I1031 14:40:46.615726 100749 net.cpp:596] loss <- fc2
I1031 14:40:46.624828 100749 net.cpp:596] loss <- label
I1031 14:40:46.688966 100749 net.cpp:570] loss -> (automatic)
I1031 14:40:46.751340 100749 layer_factory.hpp:114] Creating layer loss
…
