…
I1031 13:45:19.916247 98767 net.cpp:484] The NetState phase (0) differed from the phase (1) specified by a rule in layer data
I1031 13:45:20.607818 98767 net.cpp:120] Initializing net from parameters: 
name: "HEP_CLASSIFIER"
state {
  phase: TRAIN
  level: 0
  stage: ""
}
layer {
  name: "data"
  type: "DummyData"
  top: "data"
  top: "label"
  include {
    phase: TRAIN
  }
  dummy_data_param {
    data_filler {
      type: "gaussian"
      std: 1
    }
    data_filler {
      type: "constant"
      value: 0
    }
    shape {
      dim: 1
      dim: 3
      dim: 124
      dim: 124
    }
    shape {
      dim: 1
      dim: 1
      dim: 1
      dim: 1
    }
  }
}
layer {
  name: "conv1"
  type: "Convolution"
  bottom: "data"
  top: "conv1"
  convolution_param {
    num_output: 128
    pad: 0
    kernel_size: 3
    stride: 1
    weight_filler {
      type: "msra"
    }
    bias_filler {
      type: "constant"
      value: 0
    }
  }
}
layer {
  name: "relu1"
  type: "ReLU"
  bottom: "conv1"
  top: "conv1"
  relu_param {
    negative_slope: 0.1
  }
}
layer {
  name: "dropout1"
  type: "Dropout"
  bottom: "conv1"
  top: "drop1"
}
layer {
  name: "pool1"
  type: "Pooling"
  bottom: "drop1"
  top: "pool1"
  pooling_param {
    pool: MAX
    kernel_size: 2
    stride: 2
  }
}
layer {
  name: "conv2"
  type: "Convolution"
  bottom: "pool1"
  top: "conv2"
  convolution_param {
    num_output: 128
    pad: 0
    kernel_size: 3
    stride: 1
    weight_filler {
      type: "msra"
    }
    bias_filler {
      type: "constant"
      value: 0
    }
  }
}
layer {
  name: "relu2"
  type: "ReLU"
  bottom: "conv2"
  top: "conv2"
  relu_param {
    negative_slope: 0.1
  }
}
layer {
  name: "dropout2"
  type: "Dropout"
  bottom: "conv2"
  top: "drop2"
}
layer {
  name: "pool2"
  type: "Pooling"
  bottom: "drop2"
  top: "pool2"
  pooling_param {
    pool: MAX
    kernel_size: 2
    stride: 2
  }
}
layer {
  name: "conv3"
  type: "Convolution"
  bottom: "pool2"
  top: "conv3"
  convolution_param {
    num_output: 128
    pad: 0
    kernel_size: 3
    stride: 1
    weight_filler {
      type: "msra"
    }
    bias_filler {
      type: "constant"
      value: 0
    }
  }
}
layer {
  name: "relu3"
  type: "ReLU"
  bottom: "conv3"
  top: "conv3"
  relu_param {
    negative_slope: 0.1
  }
}
layer {
  name: "dropout3"
  type: "Dropout"
  bottom: "conv3"
  top: "drop3"
}
layer {
  name: "pool3"
  type: "Pooling"
  bottom: "drop3"
  top: "pool3"
  pooling_param {
    pool: MAX
    kernel_size: 2
    stride: 2
  }
}
layer {
  name: "conv4"
  type: "Convolution"
  bottom: "pool3"
  top: "conv4"
  convolution_param {
    num_output: 128
    pad: 0
    kernel_size: 3
    stride: 1
    weight_filler {
      type: "msra"
    }
    bias_filler {
      type: "constant"
      value: 0
    }
  }
}
layer {
  name: "relu4"
  type: "ReLU"
  bottom: "conv4"
  top: "conv4"
  relu_param {
    negative_slope: 0.1
  }
}
layer {
  name: "dropout4"
  type: "Dropout"
  bottom: "conv4"
  top: "drop4"
}
layer {
  name: "pool4"
  type: "Pooling"
  bottom: "drop4"
  top: "pool4"
  pooling_param {
    pool: MAX
    kernel_size: 2
    stride: 2
  }
}
layer {
  name: "fc1"
  type: "InnerProduct"
  bottom: "pool4"
  top: "fc1"
  inner_product_param {
    num_output: 1024
    weight_filler {
      type: "msra"
    }
    bias_filler {
      type: "constant"
      value: 0
    }
  }
}
layer {
  name: "dropout5"
  type: "Dropout"
  bottom: "fc1"
  top: "drop5"
}
layer {
  name: "fc2"
  type: "InnerProduct"
  bottom: "drop5"
  top: "fc2"
  inner_product_param {
    num_output: 2
    weight_filler {
      type: "msra"
    }
    bias_filler {
      type: "constant"
      value: 0
    }
  }
}
layer {
  name: "loss"
  type: "SoftmaxWithLoss"
  bottom: "fc2"
  bottom: "label"
}
I1031 13:45:23.051314 98767 layer_factory.hpp:114] Creating layer data
I1031 13:45:23.228816 98767 net.cpp:160] Creating Layer data
I1031 13:45:23.280194 98767 net.cpp:570] data -> data
I1031 13:45:23.780300 98767 net.cpp:570] data -> label
I1031 13:45:31.294651 98767 net.cpp:210] Setting up data
I1031 13:45:31.379130 98767 net.cpp:217] Top shape: 1 3 124 124 (46128)
I1031 13:45:31.486433 98767 net.cpp:217] Top shape: 1 1 1 1 (1)
I1031 13:45:31.493836 98767 net.cpp:225] Memory required for data: 184516
I1031 13:45:31.572966 98767 layer_factory.hpp:114] Creating layer conv1
I1031 13:45:31.929666 98767 net.cpp:160] Creating Layer conv1
I1031 13:45:31.984220 98767 net.cpp:596] conv1 <- data
I1031 13:45:32.112356 98767 net.cpp:570] conv1 -> conv1
I1031 13:46:09.365634 98767 net.cpp:210] Setting up conv1
I1031 13:46:09.450064 98767 net.cpp:217] Top shape: 1 128 122 122 (1905152)
I1031 13:46:09.459735 98767 net.cpp:225] Memory required for data: 7805124
I1031 13:46:09.785761 98767 layer_factory.hpp:114] Creating layer relu1
I1031 13:46:09.934890 98767 net.cpp:160] Creating Layer relu1
I1031 13:46:09.940794 98767 net.cpp:596] relu1 <- conv1
I1031 13:46:09.976529 98767 net.cpp:557] relu1 -> conv1 (in-place)
I1031 13:46:10.203899 98767 net.cpp:210] Setting up relu1
I1031 13:46:10.206555 98767 net.cpp:217] Top shape: 1 128 122 122 (1905152)
I1031 13:46:10.206934 98767 net.cpp:225] Memory required for data: 15425732
I1031 13:46:10.207156 98767 layer_factory.hpp:114] Creating layer dropout1
I1031 13:46:10.241029 98767 net.cpp:160] Creating Layer dropout1
I1031 13:46:10.241376 98767 net.cpp:596] dropout1 <- conv1
I1031 13:46:10.244187 98767 net.cpp:570] dropout1 -> drop1
I1031 13:46:10.356071 98767 net.cpp:210] Setting up dropout1
I1031 13:46:10.369652 98767 net.cpp:217] Top shape: 1 128 122 122 (1905152)
I1031 13:46:10.370048 98767 net.cpp:225] Memory required for data: 23046340
I1031 13:46:10.370388 98767 layer_factory.hpp:114] Creating layer pool1
I1031 13:46:10.478677 98767 net.cpp:160] Creating Layer pool1
I1031 13:46:10.478997 98767 net.cpp:596] pool1 <- drop1
I1031 13:46:10.479337 98767 net.cpp:570] pool1 -> pool1
I1031 13:46:10.887400 98767 net.cpp:210] Setting up pool1
I1031 13:46:10.896073 98767 net.cpp:217] Top shape: 1 128 61 61 (476288)
I1031 13:46:10.896477 98767 net.cpp:225] Memory required for data: 24951492
I1031 13:46:10.896769 98767 layer_factory.hpp:114] Creating layer conv2
I1031 13:46:10.958158 98767 net.cpp:160] Creating Layer conv2
I1031 13:46:10.962586 98767 net.cpp:596] conv2 <- pool1
I1031 13:46:10.977830 98767 net.cpp:570] conv2 -> conv2
I1031 13:46:17.827461 98767 net.cpp:210] Setting up conv2
I1031 13:46:17.836352 98767 net.cpp:217] Top shape: 1 128 59 59 (445568)
I1031 13:46:17.845912 98767 net.cpp:225] Memory required for data: 26733764
I1031 13:46:17.921653 98767 layer_factory.hpp:114] Creating layer relu2
I1031 13:46:17.957167 98767 net.cpp:160] Creating Layer relu2
I1031 13:46:17.964342 98767 net.cpp:596] relu2 <- conv2
I1031 13:46:17.971285 98767 net.cpp:557] relu2 -> conv2 (in-place)
I1031 13:46:17.982319 98767 net.cpp:210] Setting up relu2
I1031 13:46:17.986316 98767 net.cpp:217] Top shape: 1 128 59 59 (445568)
I1031 13:46:17.994702 98767 net.cpp:225] Memory required for data: 28516036
I1031 13:46:18.003412 98767 layer_factory.hpp:114] Creating layer dropout2
I1031 13:46:18.009232 98767 net.cpp:160] Creating Layer dropout2
I1031 13:46:18.016497 98767 net.cpp:596] dropout2 <- conv2
I1031 13:46:18.025343 98767 net.cpp:570] dropout2 -> drop2
I1031 13:46:18.029398 98767 net.cpp:210] Setting up dropout2
I1031 13:46:18.031780 98767 net.cpp:217] Top shape: 1 128 59 59 (445568)
I1031 13:46:18.042469 98767 net.cpp:225] Memory required for data: 30298308
I1031 13:46:18.050796 98767 layer_factory.hpp:114] Creating layer pool2
I1031 13:46:18.055308 98767 net.cpp:160] Creating Layer pool2
I1031 13:46:18.057781 98767 net.cpp:596] pool2 <- drop2
I1031 13:46:18.060159 98767 net.cpp:570] pool2 -> pool2
I1031 13:46:18.072732 98767 net.cpp:210] Setting up pool2
I1031 13:46:18.074585 98767 net.cpp:217] Top shape: 1 128 30 30 (115200)
I1031 13:46:18.077296 98767 net.cpp:225] Memory required for data: 30759108
I1031 13:46:18.089979 98767 layer_factory.hpp:114] Creating layer conv3
I1031 13:46:18.091995 98767 net.cpp:160] Creating Layer conv3
I1031 13:46:18.104943 98767 net.cpp:596] conv3 <- pool2
I1031 13:46:18.109467 98767 net.cpp:570] conv3 -> conv3
I1031 13:46:18.702687 98767 net.cpp:210] Setting up conv3
I1031 13:46:18.713896 98767 net.cpp:217] Top shape: 1 128 28 28 (100352)
I1031 13:46:18.722523 98767 net.cpp:225] Memory required for data: 31160516
I1031 13:46:18.738610 98767 layer_factory.hpp:114] Creating layer relu3
I1031 13:46:18.747772 98767 net.cpp:160] Creating Layer relu3
I1031 13:46:18.756117 98767 net.cpp:596] relu3 <- conv3
I1031 13:46:18.758366 98767 net.cpp:557] relu3 -> conv3 (in-place)
I1031 13:46:18.765394 98767 net.cpp:210] Setting up relu3
I1031 13:46:18.773387 98767 net.cpp:217] Top shape: 1 128 28 28 (100352)
I1031 13:46:18.782105 98767 net.cpp:225] Memory required for data: 31561924
I1031 13:46:18.790233 98767 layer_factory.hpp:114] Creating layer dropout3
I1031 13:46:18.794975 98767 net.cpp:160] Creating Layer dropout3
I1031 13:46:18.801483 98767 net.cpp:596] dropout3 <- conv3
I1031 13:46:18.803793 98767 net.cpp:570] dropout3 -> drop3
I1031 13:46:18.809840 98767 net.cpp:210] Setting up dropout3
I1031 13:46:18.816190 98767 net.cpp:217] Top shape: 1 128 28 28 (100352)
I1031 13:46:18.820564 98767 net.cpp:225] Memory required for data: 31963332
I1031 13:46:18.826900 98767 layer_factory.hpp:114] Creating layer pool3
I1031 13:46:18.837519 98767 net.cpp:160] Creating Layer pool3
I1031 13:46:18.839941 98767 net.cpp:596] pool3 <- drop3
I1031 13:46:18.844406 98767 net.cpp:570] pool3 -> pool3
I1031 13:46:18.848670 98767 net.cpp:210] Setting up pool3
I1031 13:46:18.848958 98767 net.cpp:217] Top shape: 1 128 14 14 (25088)
I1031 13:46:18.855659 98767 net.cpp:225] Memory required for data: 32063684
I1031 13:46:18.866487 98767 layer_factory.hpp:114] Creating layer conv4
I1031 13:46:18.872993 98767 net.cpp:160] Creating Layer conv4
I1031 13:46:18.877463 98767 net.cpp:596] conv4 <- pool3
I1031 13:46:18.890075 98767 net.cpp:570] conv4 -> conv4
I1031 13:46:19.276408 98767 net.cpp:210] Setting up conv4
I1031 13:46:19.282315 98767 net.cpp:217] Top shape: 1 128 12 12 (18432)
I1031 13:46:19.292889 98767 net.cpp:225] Memory required for data: 32137412
I1031 13:46:19.304466 98767 layer_factory.hpp:114] Creating layer relu4
I1031 13:46:19.315210 98767 net.cpp:160] Creating Layer relu4
I1031 13:46:19.318976 98767 net.cpp:596] relu4 <- conv4
I1031 13:46:19.325950 98767 net.cpp:557] relu4 -> conv4 (in-place)
I1031 13:46:19.334491 98767 net.cpp:210] Setting up relu4
I1031 13:46:19.345271 98767 net.cpp:217] Top shape: 1 128 12 12 (18432)
I1031 13:46:19.354339 98767 net.cpp:225] Memory required for data: 32211140
I1031 13:46:19.364959 98767 layer_factory.hpp:114] Creating layer dropout4
I1031 13:46:19.371400 98767 net.cpp:160] Creating Layer dropout4
I1031 13:46:19.382339 98767 net.cpp:596] dropout4 <- conv4
I1031 13:46:19.394923 98767 net.cpp:570] dropout4 -> drop4
I1031 13:46:19.403048 98767 net.cpp:210] Setting up dropout4
I1031 13:46:19.409976 98767 net.cpp:217] Top shape: 1 128 12 12 (18432)
I1031 13:46:19.417937 98767 net.cpp:225] Memory required for data: 32284868
I1031 13:46:19.422760 98767 layer_factory.hpp:114] Creating layer pool4
I1031 13:46:19.431850 98767 net.cpp:160] Creating Layer pool4
I1031 13:46:19.441045 98767 net.cpp:596] pool4 <- drop4
I1031 13:46:19.452834 98767 net.cpp:570] pool4 -> pool4
I1031 13:46:19.467764 98767 net.cpp:210] Setting up pool4
I1031 13:46:19.468112 98767 net.cpp:217] Top shape: 1 128 6 6 (4608)
I1031 13:46:19.470556 98767 net.cpp:225] Memory required for data: 32303300
I1031 13:46:19.470808 98767 layer_factory.hpp:114] Creating layer fc1
I1031 13:46:19.534970 98767 net.cpp:160] Creating Layer fc1
I1031 13:46:19.535311 98767 net.cpp:596] fc1 <- pool4
I1031 13:46:19.535758 98767 net.cpp:570] fc1 -> fc1
I1031 13:46:20.401078 98767 net.cpp:210] Setting up fc1
I1031 13:46:20.403709 98767 net.cpp:217] Top shape: 1 1024 (1024)
I1031 13:46:20.408519 98767 net.cpp:225] Memory required for data: 32307396
I1031 13:46:20.417537 98767 layer_factory.hpp:114] Creating layer dropout5
I1031 13:46:20.422070 98767 net.cpp:160] Creating Layer dropout5
I1031 13:46:20.424496 98767 net.cpp:596] dropout5 <- fc1
I1031 13:46:20.437222 98767 net.cpp:570] dropout5 -> drop5
I1031 13:46:20.443837 98767 net.cpp:210] Setting up dropout5
I1031 13:46:20.448465 98767 net.cpp:217] Top shape: 1 1024 (1024)
I1031 13:46:20.448865 98767 net.cpp:225] Memory required for data: 32311492
I1031 13:46:20.457749 98767 layer_factory.hpp:114] Creating layer fc2
I1031 13:46:20.465703 98767 net.cpp:160] Creating Layer fc2
I1031 13:46:20.472442 98767 net.cpp:596] fc2 <- drop5
I1031 13:46:20.480722 98767 net.cpp:570] fc2 -> fc2
I1031 13:46:20.507411 98767 net.cpp:210] Setting up fc2
I1031 13:46:20.523048 98767 net.cpp:217] Top shape: 1 2 (2)
I1031 13:46:20.531971 98767 net.cpp:225] Memory required for data: 32311500
I1031 13:46:20.540833 98767 layer_factory.hpp:114] Creating layer loss
I1031 13:46:20.576012 98767 net.cpp:160] Creating Layer loss
I1031 13:46:20.581895 98767 net.cpp:596] loss <- fc2
I1031 13:46:20.593608 98767 net.cpp:596] loss <- label
I1031 13:46:20.649626 98767 net.cpp:570] loss -> (automatic)
I1031 13:46:20.692149 98767 layer_factory.hpp:114] Creating layer loss
…
