…
I1031 13:32:02.971163 98262 net.cpp:484] The NetState phase (0) differed from the phase (1) specified by a rule in layer data
I1031 13:32:03.677436 98262 net.cpp:120] Initializing net from parameters: 
name: "HEP_CLASSIFIER"
state {
  phase: TRAIN
  level: 0
  stage: ""
}
layer {
  name: "data"
  type: "DummyData"
  top: "data"
  top: "label"
  include {
    phase: TRAIN
  }
  dummy_data_param {
    data_filler {
      type: "gaussian"
      std: 1
    }
    data_filler {
      type: "constant"
      value: 0
    }
    shape {
      dim: 1
      dim: 3
      dim: 124
      dim: 124
    }
    shape {
      dim: 1
      dim: 1
      dim: 1
      dim: 1
    }
  }
}
layer {
  name: "conv1"
  type: "Convolution"
  bottom: "data"
  top: "conv1"
  convolution_param {
    num_output: 128
    pad: 0
    kernel_size: 3
    stride: 1
    weight_filler {
      type: "msra"
    }
    bias_filler {
      type: "constant"
      value: 0
    }
  }
}
layer {
  name: "relu1"
  type: "ReLU"
  bottom: "conv1"
  top: "conv1"
  relu_param {
    negative_slope: 0.1
  }
}
layer {
  name: "dropout1"
  type: "Dropout"
  bottom: "conv1"
  top: "drop1"
}
layer {
  name: "pool1"
  type: "Pooling"
  bottom: "drop1"
  top: "pool1"
  pooling_param {
    pool: MAX
    kernel_size: 2
    stride: 2
  }
}
layer {
  name: "conv2"
  type: "Convolution"
  bottom: "pool1"
  top: "conv2"
  convolution_param {
    num_output: 128
    pad: 0
    kernel_size: 3
    stride: 1
    weight_filler {
      type: "msra"
    }
    bias_filler {
      type: "constant"
      value: 0
    }
  }
}
layer {
  name: "relu2"
  type: "ReLU"
  bottom: "conv2"
  top: "conv2"
  relu_param {
    negative_slope: 0.1
  }
}
layer {
  name: "dropout2"
  type: "Dropout"
  bottom: "conv2"
  top: "drop2"
}
layer {
  name: "pool2"
  type: "Pooling"
  bottom: "drop2"
  top: "pool2"
  pooling_param {
    pool: MAX
    kernel_size: 2
    stride: 2
  }
}
layer {
  name: "conv3"
  type: "Convolution"
  bottom: "pool2"
  top: "conv3"
  convolution_param {
    num_output: 128
    pad: 0
    kernel_size: 3
    stride: 1
    weight_filler {
      type: "msra"
    }
    bias_filler {
      type: "constant"
      value: 0
    }
  }
}
layer {
  name: "relu3"
  type: "ReLU"
  bottom: "conv3"
  top: "conv3"
  relu_param {
    negative_slope: 0.1
  }
}
layer {
  name: "dropout3"
  type: "Dropout"
  bottom: "conv3"
  top: "drop3"
}
layer {
  name: "pool3"
  type: "Pooling"
  bottom: "drop3"
  top: "pool3"
  pooling_param {
    pool: MAX
    kernel_size: 2
    stride: 2
  }
}
layer {
  name: "conv4"
  type: "Convolution"
  bottom: "pool3"
  top: "conv4"
  convolution_param {
    num_output: 128
    pad: 0
    kernel_size: 3
    stride: 1
    weight_filler {
      type: "msra"
    }
    bias_filler {
      type: "constant"
      value: 0
    }
  }
}
layer {
  name: "relu4"
  type: "ReLU"
  bottom: "conv4"
  top: "conv4"
  relu_param {
    negative_slope: 0.1
  }
}
layer {
  name: "dropout4"
  type: "Dropout"
  bottom: "conv4"
  top: "drop4"
}
layer {
  name: "pool4"
  type: "Pooling"
  bottom: "drop4"
  top: "pool4"
  pooling_param {
    pool: MAX
    kernel_size: 2
    stride: 2
  }
}
layer {
  name: "fc1"
  type: "InnerProduct"
  bottom: "pool4"
  top: "fc1"
  inner_product_param {
    num_output: 1024
    weight_filler {
      type: "msra"
    }
    bias_filler {
      type: "constant"
      value: 0
    }
  }
}
layer {
  name: "dropout5"
  type: "Dropout"
  bottom: "fc1"
  top: "drop5"
}
layer {
  name: "fc2"
  type: "InnerProduct"
  bottom: "drop5"
  top: "fc2"
  inner_product_param {
    num_output: 2
    weight_filler {
      type: "msra"
    }
    bias_filler {
      type: "constant"
      value: 0
    }
  }
}
layer {
  name: "loss"
  type: "SoftmaxWithLoss"
  bottom: "fc2"
  bottom: "label"
}
I1031 13:32:06.118772 98262 layer_factory.hpp:114] Creating layer data
I1031 13:32:06.278020 98262 net.cpp:160] Creating Layer data
I1031 13:32:06.329110 98262 net.cpp:570] data -> data
I1031 13:32:06.822917 98262 net.cpp:570] data -> label
I1031 13:32:14.355715 98262 net.cpp:210] Setting up data
I1031 13:32:14.439621 98262 net.cpp:217] Top shape: 1 3 124 124 (46128)
I1031 13:32:14.546022 98262 net.cpp:217] Top shape: 1 1 1 1 (1)
I1031 13:32:14.553400 98262 net.cpp:225] Memory required for data: 184516
I1031 13:32:14.632144 98262 layer_factory.hpp:114] Creating layer conv1
I1031 13:32:14.977108 98262 net.cpp:160] Creating Layer conv1
I1031 13:32:15.030228 98262 net.cpp:596] conv1 <- data
I1031 13:32:15.159080 98262 net.cpp:570] conv1 -> conv1
I1031 13:32:52.452499 98262 net.cpp:210] Setting up conv1
I1031 13:32:52.530547 98262 net.cpp:217] Top shape: 1 128 122 122 (1905152)
I1031 13:32:52.541767 98262 net.cpp:225] Memory required for data: 7805124
I1031 13:32:52.875205 98262 layer_factory.hpp:114] Creating layer relu1
I1031 13:32:53.017364 98262 net.cpp:160] Creating Layer relu1
I1031 13:32:53.022532 98262 net.cpp:596] relu1 <- conv1
I1031 13:32:53.058017 98262 net.cpp:557] relu1 -> conv1 (in-place)
I1031 13:32:53.275543 98262 net.cpp:210] Setting up relu1
I1031 13:32:53.278153 98262 net.cpp:217] Top shape: 1 128 122 122 (1905152)
I1031 13:32:53.278508 98262 net.cpp:225] Memory required for data: 15425732
I1031 13:32:53.278712 98262 layer_factory.hpp:114] Creating layer dropout1
I1031 13:32:53.311331 98262 net.cpp:160] Creating Layer dropout1
I1031 13:32:53.311714 98262 net.cpp:596] dropout1 <- conv1
I1031 13:32:53.314476 98262 net.cpp:570] dropout1 -> drop1
I1031 13:32:53.432287 98262 net.cpp:210] Setting up dropout1
I1031 13:32:53.446405 98262 net.cpp:217] Top shape: 1 128 122 122 (1905152)
I1031 13:32:53.446808 98262 net.cpp:225] Memory required for data: 23046340
I1031 13:32:53.447093 98262 layer_factory.hpp:114] Creating layer pool1
I1031 13:32:53.551698 98262 net.cpp:160] Creating Layer pool1
I1031 13:32:53.552309 98262 net.cpp:596] pool1 <- drop1
I1031 13:32:53.552649 98262 net.cpp:570] pool1 -> pool1
I1031 13:32:53.962528 98262 net.cpp:210] Setting up pool1
I1031 13:32:53.971474 98262 net.cpp:217] Top shape: 1 128 61 61 (476288)
I1031 13:32:53.971848 98262 net.cpp:225] Memory required for data: 24951492
I1031 13:32:53.972143 98262 layer_factory.hpp:114] Creating layer conv2
I1031 13:32:54.035837 98262 net.cpp:160] Creating Layer conv2
I1031 13:32:54.040244 98262 net.cpp:596] conv2 <- pool1
I1031 13:32:54.055613 98262 net.cpp:570] conv2 -> conv2
I1031 13:33:00.963250 98262 net.cpp:210] Setting up conv2
I1031 13:33:00.969467 98262 net.cpp:217] Top shape: 1 128 59 59 (445568)
I1031 13:33:00.984844 98262 net.cpp:225] Memory required for data: 26733764
I1031 13:33:01.059278 98262 layer_factory.hpp:114] Creating layer relu2
I1031 13:33:01.066259 98262 net.cpp:160] Creating Layer relu2
I1031 13:33:01.072813 98262 net.cpp:596] relu2 <- conv2
I1031 13:33:01.076951 98262 net.cpp:557] relu2 -> conv2 (in-place)
I1031 13:33:01.084424 98262 net.cpp:210] Setting up relu2
I1031 13:33:01.090279 98262 net.cpp:217] Top shape: 1 128 59 59 (445568)
I1031 13:33:01.098994 98262 net.cpp:225] Memory required for data: 28516036
I1031 13:33:01.105505 98262 layer_factory.hpp:114] Creating layer dropout2
I1031 13:33:01.109858 98262 net.cpp:160] Creating Layer dropout2
I1031 13:33:01.125458 98262 net.cpp:596] dropout2 <- conv2
I1031 13:33:01.134624 98262 net.cpp:570] dropout2 -> drop2
I1031 13:33:01.136813 98262 net.cpp:210] Setting up dropout2
I1031 13:33:01.141088 98262 net.cpp:217] Top shape: 1 128 59 59 (445568)
I1031 13:33:01.145579 98262 net.cpp:225] Memory required for data: 30298308
I1031 13:33:01.147423 98262 layer_factory.hpp:114] Creating layer pool2
I1031 13:33:01.150866 98262 net.cpp:160] Creating Layer pool2
I1031 13:33:01.154959 98262 net.cpp:596] pool2 <- drop2
I1031 13:33:01.166095 98262 net.cpp:570] pool2 -> pool2
I1031 13:33:01.168622 98262 net.cpp:210] Setting up pool2
I1031 13:33:01.177503 98262 net.cpp:217] Top shape: 1 128 30 30 (115200)
I1031 13:33:01.189136 98262 net.cpp:225] Memory required for data: 30759108
I1031 13:33:01.196719 98262 layer_factory.hpp:114] Creating layer conv3
I1031 13:33:01.204244 98262 net.cpp:160] Creating Layer conv3
I1031 13:33:01.208705 98262 net.cpp:596] conv3 <- pool2
I1031 13:33:01.217314 98262 net.cpp:570] conv3 -> conv3
I1031 13:33:01.869081 98262 net.cpp:210] Setting up conv3
I1031 13:33:01.890544 98262 net.cpp:217] Top shape: 1 128 28 28 (100352)
I1031 13:33:01.893807 98262 net.cpp:225] Memory required for data: 31160516
I1031 13:33:01.908144 98262 layer_factory.hpp:114] Creating layer relu3
I1031 13:33:01.914759 98262 net.cpp:160] Creating Layer relu3
I1031 13:33:01.922857 98262 net.cpp:596] relu3 <- conv3
I1031 13:33:01.927316 98262 net.cpp:557] relu3 -> conv3 (in-place)
I1031 13:33:01.932266 98262 net.cpp:210] Setting up relu3
I1031 13:33:01.936807 98262 net.cpp:217] Top shape: 1 128 28 28 (100352)
I1031 13:33:01.950947 98262 net.cpp:225] Memory required for data: 31561924
I1031 13:33:01.955533 98262 layer_factory.hpp:114] Creating layer dropout3
I1031 13:33:01.968243 98262 net.cpp:160] Creating Layer dropout3
I1031 13:33:01.972510 98262 net.cpp:596] dropout3 <- conv3
I1031 13:33:01.980767 98262 net.cpp:570] dropout3 -> drop3
I1031 13:33:01.993513 98262 net.cpp:210] Setting up dropout3
I1031 13:33:02.001932 98262 net.cpp:217] Top shape: 1 128 28 28 (100352)
I1031 13:33:02.008471 98262 net.cpp:225] Memory required for data: 31963332
I1031 13:33:02.012850 98262 layer_factory.hpp:114] Creating layer pool3
I1031 13:33:02.018999 98262 net.cpp:160] Creating Layer pool3
I1031 13:33:02.027356 98262 net.cpp:596] pool3 <- drop3
I1031 13:33:02.031592 98262 net.cpp:570] pool3 -> pool3
I1031 13:33:02.040586 98262 net.cpp:210] Setting up pool3
I1031 13:33:02.040947 98262 net.cpp:217] Top shape: 1 128 14 14 (25088)
I1031 13:33:02.041201 98262 net.cpp:225] Memory required for data: 32063684
I1031 13:33:02.041425 98262 layer_factory.hpp:114] Creating layer conv4
I1031 13:33:02.041795 98262 net.cpp:160] Creating Layer conv4
I1031 13:33:02.042028 98262 net.cpp:596] conv4 <- pool3
I1031 13:33:02.042289 98262 net.cpp:570] conv4 -> conv4
I1031 13:33:02.397375 98262 net.cpp:210] Setting up conv4
I1031 13:33:02.399794 98262 net.cpp:217] Top shape: 1 128 12 12 (18432)
I1031 13:33:02.402190 98262 net.cpp:225] Memory required for data: 32137412
I1031 13:33:02.410658 98262 layer_factory.hpp:114] Creating layer relu4
I1031 13:33:02.415489 98262 net.cpp:160] Creating Layer relu4
I1031 13:33:02.419811 98262 net.cpp:596] relu4 <- conv4
I1031 13:33:02.420207 98262 net.cpp:557] relu4 -> conv4 (in-place)
I1031 13:33:02.420742 98262 net.cpp:210] Setting up relu4
I1031 13:33:02.425323 98262 net.cpp:217] Top shape: 1 128 12 12 (18432)
I1031 13:33:02.435655 98262 net.cpp:225] Memory required for data: 32211140
I1031 13:33:02.440223 98262 layer_factory.hpp:114] Creating layer dropout4
I1031 13:33:02.446625 98262 net.cpp:160] Creating Layer dropout4
I1031 13:33:02.453143 98262 net.cpp:596] dropout4 <- conv4
I1031 13:33:02.458976 98262 net.cpp:570] dropout4 -> drop4
I1031 13:33:02.465358 98262 net.cpp:210] Setting up dropout4
I1031 13:33:02.471626 98262 net.cpp:217] Top shape: 1 128 12 12 (18432)
I1031 13:33:02.478224 98262 net.cpp:225] Memory required for data: 32284868
I1031 13:33:02.482604 98262 layer_factory.hpp:114] Creating layer pool4
I1031 13:33:02.485049 98262 net.cpp:160] Creating Layer pool4
I1031 13:33:02.485369 98262 net.cpp:596] pool4 <- drop4
I1031 13:33:02.487774 98262 net.cpp:570] pool4 -> pool4
I1031 13:33:02.516367 98262 net.cpp:210] Setting up pool4
I1031 13:33:02.526237 98262 net.cpp:217] Top shape: 1 128 6 6 (4608)
I1031 13:33:02.535089 98262 net.cpp:225] Memory required for data: 32303300
I1031 13:33:02.539660 98262 layer_factory.hpp:114] Creating layer fc1
I1031 13:33:02.603934 98262 net.cpp:160] Creating Layer fc1
I1031 13:33:02.612396 98262 net.cpp:596] fc1 <- pool4
I1031 13:33:02.614436 98262 net.cpp:570] fc1 -> fc1
I1031 13:33:03.482342 98262 net.cpp:210] Setting up fc1
I1031 13:33:03.497251 98262 net.cpp:217] Top shape: 1 1024 (1024)
I1031 13:33:03.499490 98262 net.cpp:225] Memory required for data: 32307396
I1031 13:33:03.516377 98262 layer_factory.hpp:114] Creating layer dropout5
I1031 13:33:03.526798 98262 net.cpp:160] Creating Layer dropout5
I1031 13:33:03.533138 98262 net.cpp:596] dropout5 <- fc1
I1031 13:33:03.537778 98262 net.cpp:570] dropout5 -> drop5
I1031 13:33:03.550493 98262 net.cpp:210] Setting up dropout5
I1031 13:33:03.552971 98262 net.cpp:217] Top shape: 1 1024 (1024)
I1031 13:33:03.557669 98262 net.cpp:225] Memory required for data: 32311492
I1031 13:33:03.562129 98262 layer_factory.hpp:114] Creating layer fc2
I1031 13:33:03.568758 98262 net.cpp:160] Creating Layer fc2
I1031 13:33:03.570581 98262 net.cpp:596] fc2 <- drop5
I1031 13:33:03.581645 98262 net.cpp:570] fc2 -> fc2
I1031 13:33:03.616766 98262 net.cpp:210] Setting up fc2
I1031 13:33:03.626441 98262 net.cpp:217] Top shape: 1 2 (2)
I1031 13:33:03.636817 98262 net.cpp:225] Memory required for data: 32311500
I1031 13:33:03.645370 98262 layer_factory.hpp:114] Creating layer loss
I1031 13:33:03.673979 98262 net.cpp:160] Creating Layer loss
I1031 13:33:03.684378 98262 net.cpp:596] loss <- fc2
I1031 13:33:03.693871 98262 net.cpp:596] loss <- label
I1031 13:33:03.757529 98262 net.cpp:570] loss -> (automatic)
I1031 13:33:03.804463 98262 layer_factory.hpp:114] Creating layer loss
…
