…
I1031 14:15:42.838063 99880 net.cpp:484] The NetState phase (0) differed from the phase (1) specified by a rule in layer data
I1031 14:15:43.522784 99880 net.cpp:120] Initializing net from parameters: 
name: "HEP_CLASSIFIER"
state {
  phase: TRAIN
  level: 0
  stage: ""
}
layer {
  name: "data"
  type: "DummyData"
  top: "data"
  top: "label"
  include {
    phase: TRAIN
  }
  dummy_data_param {
    data_filler {
      type: "gaussian"
      std: 1
    }
    data_filler {
      type: "constant"
      value: 0
    }
    shape {
      dim: 1
      dim: 3
      dim: 124
      dim: 124
    }
    shape {
      dim: 1
      dim: 1
      dim: 1
      dim: 1
    }
  }
}
layer {
  name: "conv1"
  type: "Convolution"
  bottom: "data"
  top: "conv1"
  convolution_param {
    num_output: 128
    pad: 0
    kernel_size: 3
    stride: 1
    weight_filler {
      type: "msra"
    }
    bias_filler {
      type: "constant"
      value: 0
    }
  }
}
layer {
  name: "relu1"
  type: "ReLU"
  bottom: "conv1"
  top: "conv1"
  relu_param {
    negative_slope: 0.1
  }
}
layer {
  name: "dropout1"
  type: "Dropout"
  bottom: "conv1"
  top: "drop1"
}
layer {
  name: "pool1"
  type: "Pooling"
  bottom: "drop1"
  top: "pool1"
  pooling_param {
    pool: MAX
    kernel_size: 2
    stride: 2
  }
}
layer {
  name: "conv2"
  type: "Convolution"
  bottom: "pool1"
  top: "conv2"
  convolution_param {
    num_output: 128
    pad: 0
    kernel_size: 3
    stride: 1
    weight_filler {
      type: "msra"
    }
    bias_filler {
      type: "constant"
      value: 0
    }
  }
}
layer {
  name: "relu2"
  type: "ReLU"
  bottom: "conv2"
  top: "conv2"
  relu_param {
    negative_slope: 0.1
  }
}
layer {
  name: "dropout2"
  type: "Dropout"
  bottom: "conv2"
  top: "drop2"
}
layer {
  name: "pool2"
  type: "Pooling"
  bottom: "drop2"
  top: "pool2"
  pooling_param {
    pool: MAX
    kernel_size: 2
    stride: 2
  }
}
layer {
  name: "conv3"
  type: "Convolution"
  bottom: "pool2"
  top: "conv3"
  convolution_param {
    num_output: 128
    pad: 0
    kernel_size: 3
    stride: 1
    weight_filler {
      type: "msra"
    }
    bias_filler {
      type: "constant"
      value: 0
    }
  }
}
layer {
  name: "relu3"
  type: "ReLU"
  bottom: "conv3"
  top: "conv3"
  relu_param {
    negative_slope: 0.1
  }
}
layer {
  name: "dropout3"
  type: "Dropout"
  bottom: "conv3"
  top: "drop3"
}
layer {
  name: "pool3"
  type: "Pooling"
  bottom: "drop3"
  top: "pool3"
  pooling_param {
    pool: MAX
    kernel_size: 2
    stride: 2
  }
}
layer {
  name: "conv4"
  type: "Convolution"
  bottom: "pool3"
  top: "conv4"
  convolution_param {
    num_output: 128
    pad: 0
    kernel_size: 3
    stride: 1
    weight_filler {
      type: "msra"
    }
    bias_filler {
      type: "constant"
      value: 0
    }
  }
}
layer {
  name: "relu4"
  type: "ReLU"
  bottom: "conv4"
  top: "conv4"
  relu_param {
    negative_slope: 0.1
  }
}
layer {
  name: "dropout4"
  type: "Dropout"
  bottom: "conv4"
  top: "drop4"
}
layer {
  name: "pool4"
  type: "Pooling"
  bottom: "drop4"
  top: "pool4"
  pooling_param {
    pool: MAX
    kernel_size: 2
    stride: 2
  }
}
layer {
  name: "fc1"
  type: "InnerProduct"
  bottom: "pool4"
  top: "fc1"
  inner_product_param {
    num_output: 1024
    weight_filler {
      type: "msra"
    }
    bias_filler {
      type: "constant"
      value: 0
    }
  }
}
layer {
  name: "dropout5"
  type: "Dropout"
  bottom: "fc1"
  top: "drop5"
}
layer {
  name: "fc2"
  type: "InnerProduct"
  bottom: "drop5"
  top: "fc2"
  inner_product_param {
    num_output: 2
    weight_filler {
      type: "msra"
    }
    bias_filler {
      type: "constant"
      value: 0
    }
  }
}
layer {
  name: "loss"
  type: "SoftmaxWithLoss"
  bottom: "fc2"
  bottom: "label"
}
I1031 14:15:45.943724 99880 layer_factory.hpp:114] Creating layer data
I1031 14:15:46.101114 99880 net.cpp:160] Creating Layer data
I1031 14:15:46.152047 99880 net.cpp:570] data -> data
I1031 14:15:46.644745 99880 net.cpp:570] data -> label
I1031 14:15:54.176914 99880 net.cpp:210] Setting up data
I1031 14:15:54.260587 99880 net.cpp:217] Top shape: 1 3 124 124 (46128)
I1031 14:15:54.367061 99880 net.cpp:217] Top shape: 1 1 1 1 (1)
I1031 14:15:54.375994 99880 net.cpp:225] Memory required for data: 184516
I1031 14:15:54.456805 99880 layer_factory.hpp:114] Creating layer conv1
I1031 14:15:54.802953 99880 net.cpp:160] Creating Layer conv1
I1031 14:15:54.858770 99880 net.cpp:596] conv1 <- data
I1031 14:15:54.990139 99880 net.cpp:570] conv1 -> conv1
I1031 14:16:32.430143 99880 net.cpp:210] Setting up conv1
I1031 14:16:32.501849 99880 net.cpp:217] Top shape: 1 128 122 122 (1905152)
I1031 14:16:32.511710 99880 net.cpp:225] Memory required for data: 7805124
I1031 14:16:32.847337 99880 layer_factory.hpp:114] Creating layer relu1
I1031 14:16:32.986631 99880 net.cpp:160] Creating Layer relu1
I1031 14:16:32.992321 99880 net.cpp:596] relu1 <- conv1
I1031 14:16:33.027227 99880 net.cpp:557] relu1 -> conv1 (in-place)
I1031 14:16:33.269503 99880 net.cpp:210] Setting up relu1
I1031 14:16:33.272444 99880 net.cpp:217] Top shape: 1 128 122 122 (1905152)
I1031 14:16:33.272852 99880 net.cpp:225] Memory required for data: 15425732
I1031 14:16:33.273119 99880 layer_factory.hpp:114] Creating layer dropout1
I1031 14:16:33.306900 99880 net.cpp:160] Creating Layer dropout1
I1031 14:16:33.307255 99880 net.cpp:596] dropout1 <- conv1
I1031 14:16:33.310250 99880 net.cpp:570] dropout1 -> drop1
I1031 14:16:33.424289 99880 net.cpp:210] Setting up dropout1
I1031 14:16:33.438531 99880 net.cpp:217] Top shape: 1 128 122 122 (1905152)
I1031 14:16:33.439324 99880 net.cpp:225] Memory required for data: 23046340
I1031 14:16:33.439752 99880 layer_factory.hpp:114] Creating layer pool1
I1031 14:16:33.540850 99880 net.cpp:160] Creating Layer pool1
I1031 14:16:33.541187 99880 net.cpp:596] pool1 <- drop1
I1031 14:16:33.541564 99880 net.cpp:570] pool1 -> pool1
I1031 14:16:33.947974 99880 net.cpp:210] Setting up pool1
I1031 14:16:33.952683 99880 net.cpp:217] Top shape: 1 128 61 61 (476288)
I1031 14:16:33.953063 99880 net.cpp:225] Memory required for data: 24951492
I1031 14:16:33.953372 99880 layer_factory.hpp:114] Creating layer conv2
I1031 14:16:34.020668 99880 net.cpp:160] Creating Layer conv2
I1031 14:16:34.033170 99880 net.cpp:596] conv2 <- pool1
I1031 14:16:34.049010 99880 net.cpp:570] conv2 -> conv2
I1031 14:16:40.865947 99880 net.cpp:210] Setting up conv2
I1031 14:16:40.868662 99880 net.cpp:217] Top shape: 1 128 59 59 (445568)
I1031 14:16:40.882551 99880 net.cpp:225] Memory required for data: 26733764
I1031 14:16:40.956663 99880 layer_factory.hpp:114] Creating layer relu2
I1031 14:16:40.964694 99880 net.cpp:160] Creating Layer relu2
I1031 14:16:40.968964 99880 net.cpp:596] relu2 <- conv2
I1031 14:16:40.975904 99880 net.cpp:557] relu2 -> conv2 (in-place)
I1031 14:16:40.986028 99880 net.cpp:210] Setting up relu2
I1031 14:16:40.988719 99880 net.cpp:217] Top shape: 1 128 59 59 (445568)
I1031 14:16:40.989135 99880 net.cpp:225] Memory required for data: 28516036
I1031 14:16:40.993810 99880 layer_factory.hpp:114] Creating layer dropout2
I1031 14:16:41.007855 99880 net.cpp:160] Creating Layer dropout2
I1031 14:16:41.011726 99880 net.cpp:596] dropout2 <- conv2
I1031 14:16:41.024049 99880 net.cpp:570] dropout2 -> drop2
I1031 14:16:41.033529 99880 net.cpp:210] Setting up dropout2
I1031 14:16:41.037971 99880 net.cpp:217] Top shape: 1 128 59 59 (445568)
I1031 14:16:41.046648 99880 net.cpp:225] Memory required for data: 30298308
I1031 14:16:41.055140 99880 layer_factory.hpp:114] Creating layer pool2
I1031 14:16:41.060004 99880 net.cpp:160] Creating Layer pool2
I1031 14:16:41.069928 99880 net.cpp:596] pool2 <- drop2
I1031 14:16:41.077194 99880 net.cpp:570] pool2 -> pool2
I1031 14:16:41.081670 99880 net.cpp:210] Setting up pool2
I1031 14:16:41.087959 99880 net.cpp:217] Top shape: 1 128 30 30 (115200)
I1031 14:16:41.100205 99880 net.cpp:225] Memory required for data: 30759108
I1031 14:16:41.104959 99880 layer_factory.hpp:114] Creating layer conv3
I1031 14:16:41.111537 99880 net.cpp:160] Creating Layer conv3
I1031 14:16:41.119936 99880 net.cpp:596] conv3 <- pool2
I1031 14:16:41.121915 99880 net.cpp:570] conv3 -> conv3
I1031 14:16:41.752046 99880 net.cpp:210] Setting up conv3
I1031 14:16:41.762727 99880 net.cpp:217] Top shape: 1 128 28 28 (100352)
I1031 14:16:41.767235 99880 net.cpp:225] Memory required for data: 31160516
I1031 14:16:41.787972 99880 layer_factory.hpp:114] Creating layer relu3
I1031 14:16:41.794770 99880 net.cpp:160] Creating Layer relu3
I1031 14:16:41.797080 99880 net.cpp:596] relu3 <- conv3
I1031 14:16:41.801800 99880 net.cpp:557] relu3 -> conv3 (in-place)
I1031 14:16:41.814216 99880 net.cpp:210] Setting up relu3
I1031 14:16:41.824988 99880 net.cpp:217] Top shape: 1 128 28 28 (100352)
I1031 14:16:41.833588 99880 net.cpp:225] Memory required for data: 31561924
I1031 14:16:41.838331 99880 layer_factory.hpp:114] Creating layer dropout3
I1031 14:16:41.848515 99880 net.cpp:160] Creating Layer dropout3
I1031 14:16:41.860309 99880 net.cpp:596] dropout3 <- conv3
I1031 14:16:41.866703 99880 net.cpp:570] dropout3 -> drop3
I1031 14:16:41.869169 99880 net.cpp:210] Setting up dropout3
I1031 14:16:41.875943 99880 net.cpp:217] Top shape: 1 128 28 28 (100352)
I1031 14:16:41.882109 99880 net.cpp:225] Memory required for data: 31963332
I1031 14:16:41.890283 99880 layer_factory.hpp:114] Creating layer pool3
I1031 14:16:41.894889 99880 net.cpp:160] Creating Layer pool3
I1031 14:16:41.896879 99880 net.cpp:596] pool3 <- drop3
I1031 14:16:41.906086 99880 net.cpp:570] pool3 -> pool3
I1031 14:16:41.916868 99880 net.cpp:210] Setting up pool3
I1031 14:16:41.924528 99880 net.cpp:217] Top shape: 1 128 14 14 (25088)
I1031 14:16:41.927757 99880 net.cpp:225] Memory required for data: 32063684
I1031 14:16:41.930083 99880 layer_factory.hpp:114] Creating layer conv4
I1031 14:16:41.933213 99880 net.cpp:160] Creating Layer conv4
I1031 14:16:41.937237 99880 net.cpp:596] conv4 <- pool3
I1031 14:16:41.938256 99880 net.cpp:570] conv4 -> conv4
I1031 14:16:42.296066 99880 net.cpp:210] Setting up conv4
I1031 14:16:42.306269 99880 net.cpp:217] Top shape: 1 128 12 12 (18432)
I1031 14:16:42.312930 99880 net.cpp:225] Memory required for data: 32137412
I1031 14:16:42.319541 99880 layer_factory.hpp:114] Creating layer relu4
I1031 14:16:42.323806 99880 net.cpp:160] Creating Layer relu4
I1031 14:16:42.326228 99880 net.cpp:596] relu4 <- conv4
I1031 14:16:42.334736 99880 net.cpp:557] relu4 -> conv4 (in-place)
I1031 14:16:42.339154 99880 net.cpp:210] Setting up relu4
I1031 14:16:42.345872 99880 net.cpp:217] Top shape: 1 128 12 12 (18432)
I1031 14:16:42.352102 99880 net.cpp:225] Memory required for data: 32211140
I1031 14:16:42.358867 99880 layer_factory.hpp:114] Creating layer dropout4
I1031 14:16:42.364353 99880 net.cpp:160] Creating Layer dropout4
I1031 14:16:42.370753 99880 net.cpp:596] dropout4 <- conv4
I1031 14:16:42.381206 99880 net.cpp:570] dropout4 -> drop4
I1031 14:16:42.391681 99880 net.cpp:210] Setting up dropout4
I1031 14:16:42.393707 99880 net.cpp:217] Top shape: 1 128 12 12 (18432)
I1031 14:16:42.396685 99880 net.cpp:225] Memory required for data: 32284868
I1031 14:16:42.408818 99880 layer_factory.hpp:114] Creating layer pool4
I1031 14:16:42.417282 99880 net.cpp:160] Creating Layer pool4
I1031 14:16:42.426165 99880 net.cpp:596] pool4 <- drop4
I1031 14:16:42.434586 99880 net.cpp:570] pool4 -> pool4
I1031 14:16:42.461107 99880 net.cpp:210] Setting up pool4
I1031 14:16:42.465401 99880 net.cpp:217] Top shape: 1 128 6 6 (4608)
I1031 14:16:42.467804 99880 net.cpp:225] Memory required for data: 32303300
I1031 14:16:42.472450 99880 layer_factory.hpp:114] Creating layer fc1
I1031 14:16:42.540271 99880 net.cpp:160] Creating Layer fc1
I1031 14:16:42.546803 99880 net.cpp:596] fc1 <- pool4
I1031 14:16:42.553390 99880 net.cpp:570] fc1 -> fc1
I1031 14:16:43.431205 99880 net.cpp:210] Setting up fc1
I1031 14:16:43.445726 99880 net.cpp:217] Top shape: 1 1024 (1024)
I1031 14:16:43.456428 99880 net.cpp:225] Memory required for data: 32307396
I1031 14:16:43.471706 99880 layer_factory.hpp:114] Creating layer dropout5
I1031 14:16:43.481456 99880 net.cpp:160] Creating Layer dropout5
I1031 14:16:43.492478 99880 net.cpp:596] dropout5 <- fc1
I1031 14:16:43.494422 99880 net.cpp:570] dropout5 -> drop5
I1031 14:16:43.494817 99880 net.cpp:210] Setting up dropout5
I1031 14:16:43.500278 99880 net.cpp:217] Top shape: 1 1024 (1024)
I1031 14:16:43.510793 99880 net.cpp:225] Memory required for data: 32311492
I1031 14:16:43.518426 99880 layer_factory.hpp:114] Creating layer fc2
I1031 14:16:43.528749 99880 net.cpp:160] Creating Layer fc2
I1031 14:16:43.530870 99880 net.cpp:596] fc2 <- drop5
I1031 14:16:43.535758 99880 net.cpp:570] fc2 -> fc2
I1031 14:16:43.574461 99880 net.cpp:210] Setting up fc2
I1031 14:16:43.592170 99880 net.cpp:217] Top shape: 1 2 (2)
I1031 14:16:43.598567 99880 net.cpp:225] Memory required for data: 32311500
I1031 14:16:43.605839 99880 layer_factory.hpp:114] Creating layer loss
I1031 14:16:43.634181 99880 net.cpp:160] Creating Layer loss
I1031 14:16:43.638635 99880 net.cpp:596] loss <- fc2
I1031 14:16:43.650135 99880 net.cpp:596] loss <- label
I1031 14:16:43.716084 99880 net.cpp:570] loss -> (automatic)
I1031 14:16:43.773808 99880 layer_factory.hpp:114] Creating layer loss
…
