…
I1031 13:51:18.342142 98998 net.cpp:484] The NetState phase (0) differed from the phase (1) specified by a rule in layer data
I1031 13:51:19.024948 98998 net.cpp:120] Initializing net from parameters: 
name: "HEP_CLASSIFIER"
state {
  phase: TRAIN
  level: 0
  stage: ""
}
layer {
  name: "data"
  type: "DummyData"
  top: "data"
  top: "label"
  include {
    phase: TRAIN
  }
  dummy_data_param {
    data_filler {
      type: "gaussian"
      std: 1
    }
    data_filler {
      type: "constant"
      value: 0
    }
    shape {
      dim: 1
      dim: 3
      dim: 124
      dim: 124
    }
    shape {
      dim: 1
      dim: 1
      dim: 1
      dim: 1
    }
  }
}
layer {
  name: "conv1"
  type: "Convolution"
  bottom: "data"
  top: "conv1"
  convolution_param {
    num_output: 128
    pad: 0
    kernel_size: 3
    stride: 1
    weight_filler {
      type: "msra"
    }
    bias_filler {
      type: "constant"
      value: 0
    }
  }
}
layer {
  name: "relu1"
  type: "ReLU"
  bottom: "conv1"
  top: "conv1"
  relu_param {
    negative_slope: 0.1
  }
}
layer {
  name: "dropout1"
  type: "Dropout"
  bottom: "conv1"
  top: "drop1"
}
layer {
  name: "pool1"
  type: "Pooling"
  bottom: "drop1"
  top: "pool1"
  pooling_param {
    pool: MAX
    kernel_size: 2
    stride: 2
  }
}
layer {
  name: "conv2"
  type: "Convolution"
  bottom: "pool1"
  top: "conv2"
  convolution_param {
    num_output: 128
    pad: 0
    kernel_size: 3
    stride: 1
    weight_filler {
      type: "msra"
    }
    bias_filler {
      type: "constant"
      value: 0
    }
  }
}
layer {
  name: "relu2"
  type: "ReLU"
  bottom: "conv2"
  top: "conv2"
  relu_param {
    negative_slope: 0.1
  }
}
layer {
  name: "dropout2"
  type: "Dropout"
  bottom: "conv2"
  top: "drop2"
}
layer {
  name: "pool2"
  type: "Pooling"
  bottom: "drop2"
  top: "pool2"
  pooling_param {
    pool: MAX
    kernel_size: 2
    stride: 2
  }
}
layer {
  name: "conv3"
  type: "Convolution"
  bottom: "pool2"
  top: "conv3"
  convolution_param {
    num_output: 128
    pad: 0
    kernel_size: 3
    stride: 1
    weight_filler {
      type: "msra"
    }
    bias_filler {
      type: "constant"
      value: 0
    }
  }
}
layer {
  name: "relu3"
  type: "ReLU"
  bottom: "conv3"
  top: "conv3"
  relu_param {
    negative_slope: 0.1
  }
}
layer {
  name: "dropout3"
  type: "Dropout"
  bottom: "conv3"
  top: "drop3"
}
layer {
  name: "pool3"
  type: "Pooling"
  bottom: "drop3"
  top: "pool3"
  pooling_param {
    pool: MAX
    kernel_size: 2
    stride: 2
  }
}
layer {
  name: "conv4"
  type: "Convolution"
  bottom: "pool3"
  top: "conv4"
  convolution_param {
    num_output: 128
    pad: 0
    kernel_size: 3
    stride: 1
    weight_filler {
      type: "msra"
    }
    bias_filler {
      type: "constant"
      value: 0
    }
  }
}
layer {
  name: "relu4"
  type: "ReLU"
  bottom: "conv4"
  top: "conv4"
  relu_param {
    negative_slope: 0.1
  }
}
layer {
  name: "dropout4"
  type: "Dropout"
  bottom: "conv4"
  top: "drop4"
}
layer {
  name: "pool4"
  type: "Pooling"
  bottom: "drop4"
  top: "pool4"
  pooling_param {
    pool: MAX
    kernel_size: 2
    stride: 2
  }
}
layer {
  name: "fc1"
  type: "InnerProduct"
  bottom: "pool4"
  top: "fc1"
  inner_product_param {
    num_output: 1024
    weight_filler {
      type: "msra"
    }
    bias_filler {
      type: "constant"
      value: 0
    }
  }
}
layer {
  name: "dropout5"
  type: "Dropout"
  bottom: "fc1"
  top: "drop5"
}
layer {
  name: "fc2"
  type: "InnerProduct"
  bottom: "drop5"
  top: "fc2"
  inner_product_param {
    num_output: 2
    weight_filler {
      type: "msra"
    }
    bias_filler {
      type: "constant"
      value: 0
    }
  }
}
layer {
  name: "loss"
  type: "SoftmaxWithLoss"
  bottom: "fc2"
  bottom: "label"
}
I1031 13:51:21.445044 98998 layer_factory.hpp:114] Creating layer data
I1031 13:51:21.602028 98998 net.cpp:160] Creating Layer data
I1031 13:51:21.652796 98998 net.cpp:570] data -> data
I1031 13:51:22.147682 98998 net.cpp:570] data -> label
I1031 13:51:29.604066 98998 net.cpp:210] Setting up data
I1031 13:51:29.687695 98998 net.cpp:217] Top shape: 1 3 124 124 (46128)
I1031 13:51:29.793985 98998 net.cpp:217] Top shape: 1 1 1 1 (1)
I1031 13:51:29.801463 98998 net.cpp:225] Memory required for data: 184516
I1031 13:51:29.880478 98998 layer_factory.hpp:114] Creating layer conv1
I1031 13:51:30.232136 98998 net.cpp:160] Creating Layer conv1
I1031 13:51:30.285769 98998 net.cpp:596] conv1 <- data
I1031 13:51:30.412681 98998 net.cpp:570] conv1 -> conv1
I1031 13:52:07.958642 98998 net.cpp:210] Setting up conv1
I1031 13:52:08.034447 98998 net.cpp:217] Top shape: 1 128 122 122 (1905152)
I1031 13:52:08.042497 98998 net.cpp:225] Memory required for data: 7805124
I1031 13:52:08.367240 98998 layer_factory.hpp:114] Creating layer relu1
I1031 13:52:08.521028 98998 net.cpp:160] Creating Layer relu1
I1031 13:52:08.526301 98998 net.cpp:596] relu1 <- conv1
I1031 13:52:08.561465 98998 net.cpp:557] relu1 -> conv1 (in-place)
I1031 13:52:08.777595 98998 net.cpp:210] Setting up relu1
I1031 13:52:08.780263 98998 net.cpp:217] Top shape: 1 128 122 122 (1905152)
I1031 13:52:08.780635 98998 net.cpp:225] Memory required for data: 15425732
I1031 13:52:08.780851 98998 layer_factory.hpp:114] Creating layer dropout1
I1031 13:52:08.813809 98998 net.cpp:160] Creating Layer dropout1
I1031 13:52:08.814147 98998 net.cpp:596] dropout1 <- conv1
I1031 13:52:08.817026 98998 net.cpp:570] dropout1 -> drop1
I1031 13:52:08.931267 98998 net.cpp:210] Setting up dropout1
I1031 13:52:08.945070 98998 net.cpp:217] Top shape: 1 128 122 122 (1905152)
I1031 13:52:08.945477 98998 net.cpp:225] Memory required for data: 23046340
I1031 13:52:08.945827 98998 layer_factory.hpp:114] Creating layer pool1
I1031 13:52:09.047782 98998 net.cpp:160] Creating Layer pool1
I1031 13:52:09.048527 98998 net.cpp:596] pool1 <- drop1
I1031 13:52:09.048877 98998 net.cpp:570] pool1 -> pool1
I1031 13:52:09.460240 98998 net.cpp:210] Setting up pool1
I1031 13:52:09.465251 98998 net.cpp:217] Top shape: 1 128 61 61 (476288)
I1031 13:52:09.465661 98998 net.cpp:225] Memory required for data: 24951492
I1031 13:52:09.465972 98998 layer_factory.hpp:114] Creating layer conv2
I1031 13:52:09.531045 98998 net.cpp:160] Creating Layer conv2
I1031 13:52:09.535648 98998 net.cpp:596] conv2 <- pool1
I1031 13:52:09.551215 98998 net.cpp:570] conv2 -> conv2
I1031 13:52:16.477617 98998 net.cpp:210] Setting up conv2
I1031 13:52:16.486050 98998 net.cpp:217] Top shape: 1 128 59 59 (445568)
I1031 13:52:16.495461 98998 net.cpp:225] Memory required for data: 26733764
I1031 13:52:16.567961 98998 layer_factory.hpp:114] Creating layer relu2
I1031 13:52:16.578624 98998 net.cpp:160] Creating Layer relu2
I1031 13:52:16.584784 98998 net.cpp:596] relu2 <- conv2
I1031 13:52:16.591833 98998 net.cpp:557] relu2 -> conv2 (in-place)
I1031 13:52:16.596371 98998 net.cpp:210] Setting up relu2
I1031 13:52:16.600601 98998 net.cpp:217] Top shape: 1 128 59 59 (445568)
I1031 13:52:16.605623 98998 net.cpp:225] Memory required for data: 28516036
I1031 13:52:16.619864 98998 layer_factory.hpp:114] Creating layer dropout2
I1031 13:52:16.621927 98998 net.cpp:160] Creating Layer dropout2
I1031 13:52:16.634555 98998 net.cpp:596] dropout2 <- conv2
I1031 13:52:16.641548 98998 net.cpp:570] dropout2 -> drop2
I1031 13:52:16.645097 98998 net.cpp:210] Setting up dropout2
I1031 13:52:16.653710 98998 net.cpp:217] Top shape: 1 128 59 59 (445568)
I1031 13:52:16.660358 98998 net.cpp:225] Memory required for data: 30298308
I1031 13:52:16.668750 98998 layer_factory.hpp:114] Creating layer pool2
I1031 13:52:16.675112 98998 net.cpp:160] Creating Layer pool2
I1031 13:52:16.677664 98998 net.cpp:596] pool2 <- drop2
I1031 13:52:16.689836 98998 net.cpp:570] pool2 -> pool2
I1031 13:52:16.696451 98998 net.cpp:210] Setting up pool2
I1031 13:52:16.700824 98998 net.cpp:217] Top shape: 1 128 30 30 (115200)
I1031 13:52:16.705315 98998 net.cpp:225] Memory required for data: 30759108
I1031 13:52:16.713842 98998 layer_factory.hpp:114] Creating layer conv3
I1031 13:52:16.716055 98998 net.cpp:160] Creating Layer conv3
I1031 13:52:16.723220 98998 net.cpp:596] conv3 <- pool2
I1031 13:52:16.732188 98998 net.cpp:570] conv3 -> conv3
I1031 13:52:17.346652 98998 net.cpp:210] Setting up conv3
I1031 13:52:17.355279 98998 net.cpp:217] Top shape: 1 128 28 28 (100352)
I1031 13:52:17.361805 98998 net.cpp:225] Memory required for data: 31160516
I1031 13:52:17.381693 98998 layer_factory.hpp:114] Creating layer relu3
I1031 13:52:17.386373 98998 net.cpp:160] Creating Layer relu3
I1031 13:52:17.386739 98998 net.cpp:596] relu3 <- conv3
I1031 13:52:17.393707 98998 net.cpp:557] relu3 -> conv3 (in-place)
I1031 13:52:17.405952 98998 net.cpp:210] Setting up relu3
I1031 13:52:17.408773 98998 net.cpp:217] Top shape: 1 128 28 28 (100352)
I1031 13:52:17.414705 98998 net.cpp:225] Memory required for data: 31561924
I1031 13:52:17.419275 98998 layer_factory.hpp:114] Creating layer dropout3
I1031 13:52:17.424008 98998 net.cpp:160] Creating Layer dropout3
I1031 13:52:17.432828 98998 net.cpp:596] dropout3 <- conv3
I1031 13:52:17.441272 98998 net.cpp:570] dropout3 -> drop3
I1031 13:52:17.451732 98998 net.cpp:210] Setting up dropout3
I1031 13:52:17.456293 98998 net.cpp:217] Top shape: 1 128 28 28 (100352)
I1031 13:52:17.462376 98998 net.cpp:225] Memory required for data: 31963332
I1031 13:52:17.468430 98998 layer_factory.hpp:114] Creating layer pool3
I1031 13:52:17.477509 98998 net.cpp:160] Creating Layer pool3
I1031 13:52:17.479789 98998 net.cpp:596] pool3 <- drop3
I1031 13:52:17.484741 98998 net.cpp:570] pool3 -> pool3
I1031 13:52:17.497026 98998 net.cpp:210] Setting up pool3
I1031 13:52:17.501729 98998 net.cpp:217] Top shape: 1 128 14 14 (25088)
I1031 13:52:17.512136 98998 net.cpp:225] Memory required for data: 32063684
I1031 13:52:17.518582 98998 layer_factory.hpp:114] Creating layer conv4
I1031 13:52:17.520890 98998 net.cpp:160] Creating Layer conv4
I1031 13:52:17.525998 98998 net.cpp:596] conv4 <- pool3
I1031 13:52:17.531939 98998 net.cpp:570] conv4 -> conv4
I1031 13:52:17.917573 98998 net.cpp:210] Setting up conv4
I1031 13:52:17.925273 98998 net.cpp:217] Top shape: 1 128 12 12 (18432)
I1031 13:52:17.928411 98998 net.cpp:225] Memory required for data: 32137412
I1031 13:52:17.935014 98998 layer_factory.hpp:114] Creating layer relu4
I1031 13:52:17.937328 98998 net.cpp:160] Creating Layer relu4
I1031 13:52:17.937628 98998 net.cpp:596] relu4 <- conv4
I1031 13:52:17.939420 98998 net.cpp:557] relu4 -> conv4 (in-place)
I1031 13:52:17.943948 98998 net.cpp:210] Setting up relu4
I1031 13:52:17.950765 98998 net.cpp:217] Top shape: 1 128 12 12 (18432)
I1031 13:52:17.955433 98998 net.cpp:225] Memory required for data: 32211140
I1031 13:52:17.957224 98998 layer_factory.hpp:114] Creating layer dropout4
I1031 13:52:17.960042 98998 net.cpp:160] Creating Layer dropout4
I1031 13:52:17.966477 98998 net.cpp:596] dropout4 <- conv4
I1031 13:52:17.970644 98998 net.cpp:570] dropout4 -> drop4
I1031 13:52:17.971091 98998 net.cpp:210] Setting up dropout4
I1031 13:52:17.971410 98998 net.cpp:217] Top shape: 1 128 12 12 (18432)
I1031 13:52:17.980115 98998 net.cpp:225] Memory required for data: 32284868
I1031 13:52:17.984496 98998 layer_factory.hpp:114] Creating layer pool4
I1031 13:52:17.989027 98998 net.cpp:160] Creating Layer pool4
I1031 13:52:17.991411 98998 net.cpp:596] pool4 <- drop4
I1031 13:52:18.002030 98998 net.cpp:570] pool4 -> pool4
I1031 13:52:18.020539 98998 net.cpp:210] Setting up pool4
I1031 13:52:18.025596 98998 net.cpp:217] Top shape: 1 128 6 6 (4608)
I1031 13:52:18.037917 98998 net.cpp:225] Memory required for data: 32303300
I1031 13:52:18.046357 98998 layer_factory.hpp:114] Creating layer fc1
I1031 13:52:18.114104 98998 net.cpp:160] Creating Layer fc1
I1031 13:52:18.121268 98998 net.cpp:596] fc1 <- pool4
I1031 13:52:18.124195 98998 net.cpp:570] fc1 -> fc1
I1031 13:52:19.005640 98998 net.cpp:210] Setting up fc1
I1031 13:52:19.008280 98998 net.cpp:217] Top shape: 1 1024 (1024)
I1031 13:52:19.008725 98998 net.cpp:225] Memory required for data: 32307396
I1031 13:52:19.019688 98998 layer_factory.hpp:114] Creating layer dropout5
I1031 13:52:19.032284 98998 net.cpp:160] Creating Layer dropout5
I1031 13:52:19.040938 98998 net.cpp:596] dropout5 <- fc1
I1031 13:52:19.049785 98998 net.cpp:570] dropout5 -> drop5
I1031 13:52:19.052165 98998 net.cpp:210] Setting up dropout5
I1031 13:52:19.052450 98998 net.cpp:217] Top shape: 1 1024 (1024)
I1031 13:52:19.058774 98998 net.cpp:225] Memory required for data: 32311492
I1031 13:52:19.065099 98998 layer_factory.hpp:114] Creating layer fc2
I1031 13:52:19.071099 98998 net.cpp:160] Creating Layer fc2
I1031 13:52:19.080214 98998 net.cpp:596] fc2 <- drop5
I1031 13:52:19.086731 98998 net.cpp:570] fc2 -> fc2
I1031 13:52:19.121779 98998 net.cpp:210] Setting up fc2
I1031 13:52:19.133201 98998 net.cpp:217] Top shape: 1 2 (2)
I1031 13:52:19.143580 98998 net.cpp:225] Memory required for data: 32311500
I1031 13:52:19.153879 98998 layer_factory.hpp:114] Creating layer loss
I1031 13:52:19.186645 98998 net.cpp:160] Creating Layer loss
I1031 13:52:19.191469 98998 net.cpp:596] loss <- fc2
I1031 13:52:19.202533 98998 net.cpp:596] loss <- label
I1031 13:52:19.270442 98998 net.cpp:570] loss -> (automatic)
I1031 13:52:19.323256 98998 layer_factory.hpp:114] Creating layer loss
…
