…
I1031 13:26:33.184900 98032 net.cpp:484] The NetState phase (0) differed from the phase (1) specified by a rule in layer data
I1031 13:26:33.866019 98032 net.cpp:120] Initializing net from parameters: 
name: "HEP_CLASSIFIER"
state {
  phase: TRAIN
  level: 0
  stage: ""
}
layer {
  name: "data"
  type: "DummyData"
  top: "data"
  top: "label"
  include {
    phase: TRAIN
  }
  dummy_data_param {
    data_filler {
      type: "gaussian"
      std: 1
    }
    data_filler {
      type: "constant"
      value: 0
    }
    shape {
      dim: 1
      dim: 3
      dim: 124
      dim: 124
    }
    shape {
      dim: 1
      dim: 1
      dim: 1
      dim: 1
    }
  }
}
layer {
  name: "conv1"
  type: "Convolution"
  bottom: "data"
  top: "conv1"
  convolution_param {
    num_output: 128
    pad: 0
    kernel_size: 3
    stride: 1
    weight_filler {
      type: "msra"
    }
    bias_filler {
      type: "constant"
      value: 0
    }
  }
}
layer {
  name: "relu1"
  type: "ReLU"
  bottom: "conv1"
  top: "conv1"
  relu_param {
    negative_slope: 0.1
  }
}
layer {
  name: "dropout1"
  type: "Dropout"
  bottom: "conv1"
  top: "drop1"
}
layer {
  name: "pool1"
  type: "Pooling"
  bottom: "drop1"
  top: "pool1"
  pooling_param {
    pool: MAX
    kernel_size: 2
    stride: 2
  }
}
layer {
  name: "conv2"
  type: "Convolution"
  bottom: "pool1"
  top: "conv2"
  convolution_param {
    num_output: 128
    pad: 0
    kernel_size: 3
    stride: 1
    weight_filler {
      type: "msra"
    }
    bias_filler {
      type: "constant"
      value: 0
    }
  }
}
layer {
  name: "relu2"
  type: "ReLU"
  bottom: "conv2"
  top: "conv2"
  relu_param {
    negative_slope: 0.1
  }
}
layer {
  name: "dropout2"
  type: "Dropout"
  bottom: "conv2"
  top: "drop2"
}
layer {
  name: "pool2"
  type: "Pooling"
  bottom: "drop2"
  top: "pool2"
  pooling_param {
    pool: MAX
    kernel_size: 2
    stride: 2
  }
}
layer {
  name: "conv3"
  type: "Convolution"
  bottom: "pool2"
  top: "conv3"
  convolution_param {
    num_output: 128
    pad: 0
    kernel_size: 3
    stride: 1
    weight_filler {
      type: "msra"
    }
    bias_filler {
      type: "constant"
      value: 0
    }
  }
}
layer {
  name: "relu3"
  type: "ReLU"
  bottom: "conv3"
  top: "conv3"
  relu_param {
    negative_slope: 0.1
  }
}
layer {
  name: "dropout3"
  type: "Dropout"
  bottom: "conv3"
  top: "drop3"
}
layer {
  name: "pool3"
  type: "Pooling"
  bottom: "drop3"
  top: "pool3"
  pooling_param {
    pool: MAX
    kernel_size: 2
    stride: 2
  }
}
layer {
  name: "conv4"
  type: "Convolution"
  bottom: "pool3"
  top: "conv4"
  convolution_param {
    num_output: 128
    pad: 0
    kernel_size: 3
    stride: 1
    weight_filler {
      type: "msra"
    }
    bias_filler {
      type: "constant"
      value: 0
    }
  }
}
layer {
  name: "relu4"
  type: "ReLU"
  bottom: "conv4"
  top: "conv4"
  relu_param {
    negative_slope: 0.1
  }
}
layer {
  name: "dropout4"
  type: "Dropout"
  bottom: "conv4"
  top: "drop4"
}
layer {
  name: "pool4"
  type: "Pooling"
  bottom: "drop4"
  top: "pool4"
  pooling_param {
    pool: MAX
    kernel_size: 2
    stride: 2
  }
}
layer {
  name: "fc1"
  type: "InnerProduct"
  bottom: "pool4"
  top: "fc1"
  inner_product_param {
    num_output: 1024
    weight_filler {
      type: "msra"
    }
    bias_filler {
      type: "constant"
      value: 0
    }
  }
}
layer {
  name: "dropout5"
  type: "Dropout"
  bottom: "fc1"
  top: "drop5"
}
layer {
  name: "fc2"
  type: "InnerProduct"
  bottom: "drop5"
  top: "fc2"
  inner_product_param {
    num_output: 2
    weight_filler {
      type: "msra"
    }
    bias_filler {
      type: "constant"
      value: 0
    }
  }
}
layer {
  name: "loss"
  type: "SoftmaxWithLoss"
  bottom: "fc2"
  bottom: "label"
}
I1031 13:26:36.259652 98032 layer_factory.hpp:114] Creating layer data
I1031 13:26:36.415716 98032 net.cpp:160] Creating Layer data
I1031 13:26:36.468377 98032 net.cpp:570] data -> data
I1031 13:26:36.957932 98032 net.cpp:570] data -> label
I1031 13:26:44.360160 98032 net.cpp:210] Setting up data
I1031 13:26:44.443819 98032 net.cpp:217] Top shape: 1 3 124 124 (46128)
I1031 13:26:44.550007 98032 net.cpp:217] Top shape: 1 1 1 1 (1)
I1031 13:26:44.557387 98032 net.cpp:225] Memory required for data: 184516
I1031 13:26:44.637603 98032 layer_factory.hpp:114] Creating layer conv1
I1031 13:26:44.983765 98032 net.cpp:160] Creating Layer conv1
I1031 13:26:45.036859 98032 net.cpp:596] conv1 <- data
I1031 13:26:45.163592 98032 net.cpp:570] conv1 -> conv1
I1031 13:27:22.482177 98032 net.cpp:210] Setting up conv1
I1031 13:27:22.556829 98032 net.cpp:217] Top shape: 1 128 122 122 (1905152)
I1031 13:27:22.566679 98032 net.cpp:225] Memory required for data: 7805124
I1031 13:27:22.888937 98032 layer_factory.hpp:114] Creating layer relu1
I1031 13:27:23.030422 98032 net.cpp:160] Creating Layer relu1
I1031 13:27:23.035761 98032 net.cpp:596] relu1 <- conv1
I1031 13:27:23.071163 98032 net.cpp:557] relu1 -> conv1 (in-place)
I1031 13:27:23.285982 98032 net.cpp:210] Setting up relu1
I1031 13:27:23.288662 98032 net.cpp:217] Top shape: 1 128 122 122 (1905152)
I1031 13:27:23.289023 98032 net.cpp:225] Memory required for data: 15425732
I1031 13:27:23.289263 98032 layer_factory.hpp:114] Creating layer dropout1
I1031 13:27:23.321451 98032 net.cpp:160] Creating Layer dropout1
I1031 13:27:23.321779 98032 net.cpp:596] dropout1 <- conv1
I1031 13:27:23.324615 98032 net.cpp:570] dropout1 -> drop1
I1031 13:27:23.446770 98032 net.cpp:210] Setting up dropout1
I1031 13:27:23.460925 98032 net.cpp:217] Top shape: 1 128 122 122 (1905152)
I1031 13:27:23.461326 98032 net.cpp:225] Memory required for data: 23046340
I1031 13:27:23.461697 98032 layer_factory.hpp:114] Creating layer pool1
I1031 13:27:23.561630 98032 net.cpp:160] Creating Layer pool1
I1031 13:27:23.562041 98032 net.cpp:596] pool1 <- drop1
I1031 13:27:23.562423 98032 net.cpp:570] pool1 -> pool1
I1031 13:27:23.980079 98032 net.cpp:210] Setting up pool1
I1031 13:27:23.984904 98032 net.cpp:217] Top shape: 1 128 61 61 (476288)
I1031 13:27:23.985278 98032 net.cpp:225] Memory required for data: 24951492
I1031 13:27:23.985570 98032 layer_factory.hpp:114] Creating layer conv2
I1031 13:27:24.046365 98032 net.cpp:160] Creating Layer conv2
I1031 13:27:24.050659 98032 net.cpp:596] conv2 <- pool1
I1031 13:27:24.065760 98032 net.cpp:570] conv2 -> conv2
I1031 13:27:30.900931 98032 net.cpp:210] Setting up conv2
I1031 13:27:30.901325 98032 net.cpp:217] Top shape: 1 128 59 59 (445568)
I1031 13:27:30.907668 98032 net.cpp:225] Memory required for data: 26733764
I1031 13:27:30.970636 98032 layer_factory.hpp:114] Creating layer relu2
I1031 13:27:30.976090 98032 net.cpp:160] Creating Layer relu2
I1031 13:27:30.984308 98032 net.cpp:596] relu2 <- conv2
I1031 13:27:30.992998 98032 net.cpp:557] relu2 -> conv2 (in-place)
I1031 13:27:31.001736 98032 net.cpp:210] Setting up relu2
I1031 13:27:31.016317 98032 net.cpp:217] Top shape: 1 128 59 59 (445568)
I1031 13:27:31.019330 98032 net.cpp:225] Memory required for data: 28516036
I1031 13:27:31.023929 98032 layer_factory.hpp:114] Creating layer dropout2
I1031 13:27:31.030508 98032 net.cpp:160] Creating Layer dropout2
I1031 13:27:31.038877 98032 net.cpp:596] dropout2 <- conv2
I1031 13:27:31.049767 98032 net.cpp:570] dropout2 -> drop2
I1031 13:27:31.052196 98032 net.cpp:210] Setting up dropout2
I1031 13:27:31.056843 98032 net.cpp:217] Top shape: 1 128 59 59 (445568)
I1031 13:27:31.063232 98032 net.cpp:225] Memory required for data: 30298308
I1031 13:27:31.065613 98032 layer_factory.hpp:114] Creating layer pool2
I1031 13:27:31.075745 98032 net.cpp:160] Creating Layer pool2
I1031 13:27:31.078243 98032 net.cpp:596] pool2 <- drop2
I1031 13:27:31.084877 98032 net.cpp:570] pool2 -> pool2
I1031 13:27:31.095335 98032 net.cpp:210] Setting up pool2
I1031 13:27:31.099989 98032 net.cpp:217] Top shape: 1 128 30 30 (115200)
I1031 13:27:31.106269 98032 net.cpp:225] Memory required for data: 30759108
I1031 13:27:31.110581 98032 layer_factory.hpp:114] Creating layer conv3
I1031 13:27:31.115284 98032 net.cpp:160] Creating Layer conv3
I1031 13:27:31.123797 98032 net.cpp:596] conv3 <- pool2
I1031 13:27:31.128252 98032 net.cpp:570] conv3 -> conv3
I1031 13:27:31.728417 98032 net.cpp:210] Setting up conv3
I1031 13:27:31.738716 98032 net.cpp:217] Top shape: 1 128 28 28 (100352)
I1031 13:27:31.744868 98032 net.cpp:225] Memory required for data: 31160516
I1031 13:27:31.763172 98032 layer_factory.hpp:114] Creating layer relu3
I1031 13:27:31.768026 98032 net.cpp:160] Creating Layer relu3
I1031 13:27:31.778300 98032 net.cpp:596] relu3 <- conv3
I1031 13:27:31.784272 98032 net.cpp:557] relu3 -> conv3 (in-place)
I1031 13:27:31.786696 98032 net.cpp:210] Setting up relu3
I1031 13:27:31.799232 98032 net.cpp:217] Top shape: 1 128 28 28 (100352)
I1031 13:27:31.809653 98032 net.cpp:225] Memory required for data: 31561924
I1031 13:27:31.815850 98032 layer_factory.hpp:114] Creating layer dropout3
I1031 13:27:31.826215 98032 net.cpp:160] Creating Layer dropout3
I1031 13:27:31.832139 98032 net.cpp:596] dropout3 <- conv3
I1031 13:27:31.836632 98032 net.cpp:570] dropout3 -> drop3
I1031 13:27:31.841092 98032 net.cpp:210] Setting up dropout3
I1031 13:27:31.847479 98032 net.cpp:217] Top shape: 1 128 28 28 (100352)
I1031 13:27:31.847913 98032 net.cpp:225] Memory required for data: 31963332
I1031 13:27:31.862498 98032 layer_factory.hpp:114] Creating layer pool3
I1031 13:27:31.868922 98032 net.cpp:160] Creating Layer pool3
I1031 13:27:31.871475 98032 net.cpp:596] pool3 <- drop3
I1031 13:27:31.880414 98032 net.cpp:570] pool3 -> pool3
I1031 13:27:31.882659 98032 net.cpp:210] Setting up pool3
I1031 13:27:31.885375 98032 net.cpp:217] Top shape: 1 128 14 14 (25088)
I1031 13:27:31.889858 98032 net.cpp:225] Memory required for data: 32063684
I1031 13:27:31.906203 98032 layer_factory.hpp:114] Creating layer conv4
I1031 13:27:31.912232 98032 net.cpp:160] Creating Layer conv4
I1031 13:27:31.917237 98032 net.cpp:596] conv4 <- pool3
I1031 13:27:31.927259 98032 net.cpp:570] conv4 -> conv4
I1031 13:27:32.323942 98032 net.cpp:210] Setting up conv4
I1031 13:27:32.333884 98032 net.cpp:217] Top shape: 1 128 12 12 (18432)
I1031 13:27:32.341104 98032 net.cpp:225] Memory required for data: 32137412
I1031 13:27:32.353947 98032 layer_factory.hpp:114] Creating layer relu4
I1031 13:27:32.362515 98032 net.cpp:160] Creating Layer relu4
I1031 13:27:32.364261 98032 net.cpp:596] relu4 <- conv4
I1031 13:27:32.368865 98032 net.cpp:557] relu4 -> conv4 (in-place)
I1031 13:27:32.373642 98032 net.cpp:210] Setting up relu4
I1031 13:27:32.376058 98032 net.cpp:217] Top shape: 1 128 12 12 (18432)
I1031 13:27:32.382211 98032 net.cpp:225] Memory required for data: 32211140
I1031 13:27:32.384706 98032 layer_factory.hpp:114] Creating layer dropout4
I1031 13:27:32.398488 98032 net.cpp:160] Creating Layer dropout4
I1031 13:27:32.403314 98032 net.cpp:596] dropout4 <- conv4
I1031 13:27:32.411782 98032 net.cpp:570] dropout4 -> drop4
I1031 13:27:32.414048 98032 net.cpp:210] Setting up dropout4
I1031 13:27:32.414327 98032 net.cpp:217] Top shape: 1 128 12 12 (18432)
I1031 13:27:32.422657 98032 net.cpp:225] Memory required for data: 32284868
I1031 13:27:32.430589 98032 layer_factory.hpp:114] Creating layer pool4
I1031 13:27:32.438887 98032 net.cpp:160] Creating Layer pool4
I1031 13:27:32.447165 98032 net.cpp:596] pool4 <- drop4
I1031 13:27:32.452879 98032 net.cpp:570] pool4 -> pool4
I1031 13:27:32.468204 98032 net.cpp:210] Setting up pool4
I1031 13:27:32.470660 98032 net.cpp:217] Top shape: 1 128 6 6 (4608)
I1031 13:27:32.473095 98032 net.cpp:225] Memory required for data: 32303300
I1031 13:27:32.483692 98032 layer_factory.hpp:114] Creating layer fc1
I1031 13:27:32.548707 98032 net.cpp:160] Creating Layer fc1
I1031 13:27:32.555171 98032 net.cpp:596] fc1 <- pool4
I1031 13:27:32.557814 98032 net.cpp:570] fc1 -> fc1
I1031 13:27:33.399313 98032 net.cpp:210] Setting up fc1
I1031 13:27:33.403914 98032 net.cpp:217] Top shape: 1 1024 (1024)
I1031 13:27:33.410429 98032 net.cpp:225] Memory required for data: 32307396
I1031 13:27:33.419430 98032 layer_factory.hpp:114] Creating layer dropout5
I1031 13:27:33.423914 98032 net.cpp:160] Creating Layer dropout5
I1031 13:27:33.426429 98032 net.cpp:596] dropout5 <- fc1
I1031 13:27:33.430414 98032 net.cpp:570] dropout5 -> drop5
I1031 13:27:33.430806 98032 net.cpp:210] Setting up dropout5
I1031 13:27:33.437677 98032 net.cpp:217] Top shape: 1 1024 (1024)
I1031 13:27:33.444365 98032 net.cpp:225] Memory required for data: 32311492
I1031 13:27:33.452739 98032 layer_factory.hpp:114] Creating layer fc2
I1031 13:27:33.457231 98032 net.cpp:160] Creating Layer fc2
I1031 13:27:33.461087 98032 net.cpp:596] fc2 <- drop5
I1031 13:27:33.465973 98032 net.cpp:570] fc2 -> fc2
I1031 13:27:33.501862 98032 net.cpp:210] Setting up fc2
I1031 13:27:33.520836 98032 net.cpp:217] Top shape: 1 2 (2)
I1031 13:27:33.530764 98032 net.cpp:225] Memory required for data: 32311500
I1031 13:27:33.544232 98032 layer_factory.hpp:114] Creating layer loss
I1031 13:27:33.576660 98032 net.cpp:160] Creating Layer loss
I1031 13:27:33.581318 98032 net.cpp:596] loss <- fc2
I1031 13:27:33.590389 98032 net.cpp:596] loss <- label
I1031 13:27:33.652191 98032 net.cpp:570] loss -> (automatic)
I1031 13:27:33.717710 98032 layer_factory.hpp:114] Creating layer loss
…
