…
I1031 13:41:25.219074 98616 net.cpp:484] The NetState phase (0) differed from the phase (1) specified by a rule in layer data
I1031 13:41:25.910341 98616 net.cpp:120] Initializing net from parameters: 
name: "HEP_CLASSIFIER"
state {
  phase: TRAIN
  level: 0
  stage: ""
}
layer {
  name: "data"
  type: "DummyData"
  top: "data"
  top: "label"
  include {
    phase: TRAIN
  }
  dummy_data_param {
    data_filler {
      type: "gaussian"
      std: 1
    }
    data_filler {
      type: "constant"
      value: 0
    }
    shape {
      dim: 1
      dim: 3
      dim: 124
      dim: 124
    }
    shape {
      dim: 1
      dim: 1
      dim: 1
      dim: 1
    }
  }
}
layer {
  name: "conv1"
  type: "Convolution"
  bottom: "data"
  top: "conv1"
  convolution_param {
    num_output: 128
    pad: 0
    kernel_size: 3
    stride: 1
    weight_filler {
      type: "msra"
    }
    bias_filler {
      type: "constant"
      value: 0
    }
  }
}
layer {
  name: "relu1"
  type: "ReLU"
  bottom: "conv1"
  top: "conv1"
  relu_param {
    negative_slope: 0.1
  }
}
layer {
  name: "dropout1"
  type: "Dropout"
  bottom: "conv1"
  top: "drop1"
}
layer {
  name: "pool1"
  type: "Pooling"
  bottom: "drop1"
  top: "pool1"
  pooling_param {
    pool: MAX
    kernel_size: 2
    stride: 2
  }
}
layer {
  name: "conv2"
  type: "Convolution"
  bottom: "pool1"
  top: "conv2"
  convolution_param {
    num_output: 128
    pad: 0
    kernel_size: 3
    stride: 1
    weight_filler {
      type: "msra"
    }
    bias_filler {
      type: "constant"
      value: 0
    }
  }
}
layer {
  name: "relu2"
  type: "ReLU"
  bottom: "conv2"
  top: "conv2"
  relu_param {
    negative_slope: 0.1
  }
}
layer {
  name: "dropout2"
  type: "Dropout"
  bottom: "conv2"
  top: "drop2"
}
layer {
  name: "pool2"
  type: "Pooling"
  bottom: "drop2"
  top: "pool2"
  pooling_param {
    pool: MAX
    kernel_size: 2
    stride: 2
  }
}
layer {
  name: "conv3"
  type: "Convolution"
  bottom: "pool2"
  top: "conv3"
  convolution_param {
    num_output: 128
    pad: 0
    kernel_size: 3
    stride: 1
    weight_filler {
      type: "msra"
    }
    bias_filler {
      type: "constant"
      value: 0
    }
  }
}
layer {
  name: "relu3"
  type: "ReLU"
  bottom: "conv3"
  top: "conv3"
  relu_param {
    negative_slope: 0.1
  }
}
layer {
  name: "dropout3"
  type: "Dropout"
  bottom: "conv3"
  top: "drop3"
}
layer {
  name: "pool3"
  type: "Pooling"
  bottom: "drop3"
  top: "pool3"
  pooling_param {
    pool: MAX
    kernel_size: 2
    stride: 2
  }
}
layer {
  name: "conv4"
  type: "Convolution"
  bottom: "pool3"
  top: "conv4"
  convolution_param {
    num_output: 128
    pad: 0
    kernel_size: 3
    stride: 1
    weight_filler {
      type: "msra"
    }
    bias_filler {
      type: "constant"
      value: 0
    }
  }
}
layer {
  name: "relu4"
  type: "ReLU"
  bottom: "conv4"
  top: "conv4"
  relu_param {
    negative_slope: 0.1
  }
}
layer {
  name: "dropout4"
  type: "Dropout"
  bottom: "conv4"
  top: "drop4"
}
layer {
  name: "pool4"
  type: "Pooling"
  bottom: "drop4"
  top: "pool4"
  pooling_param {
    pool: MAX
    kernel_size: 2
    stride: 2
  }
}
layer {
  name: "fc1"
  type: "InnerProduct"
  bottom: "pool4"
  top: "fc1"
  inner_product_param {
    num_output: 1024
    weight_filler {
      type: "msra"
    }
    bias_filler {
      type: "constant"
      value: 0
    }
  }
}
layer {
  name: "dropout5"
  type: "Dropout"
  bottom: "fc1"
  top: "drop5"
}
layer {
  name: "fc2"
  type: "InnerProduct"
  bottom: "drop5"
  top: "fc2"
  inner_product_param {
    num_output: 2
    weight_filler {
      type: "msra"
    }
    bias_filler {
      type: "constant"
      value: 0
    }
  }
}
layer {
  name: "loss"
  type: "SoftmaxWithLoss"
  bottom: "fc2"
  bottom: "label"
}
I1031 13:41:28.361403 98616 layer_factory.hpp:114] Creating layer data
I1031 13:41:28.521009 98616 net.cpp:160] Creating Layer data
I1031 13:41:28.572820 98616 net.cpp:570] data -> data
I1031 13:41:29.083703 98616 net.cpp:570] data -> label
I1031 13:41:36.624538 98616 net.cpp:210] Setting up data
I1031 13:41:36.709466 98616 net.cpp:217] Top shape: 1 3 124 124 (46128)
I1031 13:41:36.817061 98616 net.cpp:217] Top shape: 1 1 1 1 (1)
I1031 13:41:36.824512 98616 net.cpp:225] Memory required for data: 184516
I1031 13:41:36.907692 98616 layer_factory.hpp:114] Creating layer conv1
I1031 13:41:37.261109 98616 net.cpp:160] Creating Layer conv1
I1031 13:41:37.314703 98616 net.cpp:596] conv1 <- data
I1031 13:41:37.442982 98616 net.cpp:570] conv1 -> conv1
I1031 13:42:14.974726 98616 net.cpp:210] Setting up conv1
I1031 13:42:15.046888 98616 net.cpp:217] Top shape: 1 128 122 122 (1905152)
I1031 13:42:15.056995 98616 net.cpp:225] Memory required for data: 7805124
I1031 13:42:15.379072 98616 layer_factory.hpp:114] Creating layer relu1
I1031 13:42:15.509325 98616 net.cpp:160] Creating Layer relu1
I1031 13:42:15.514281 98616 net.cpp:596] relu1 <- conv1
I1031 13:42:15.549422 98616 net.cpp:557] relu1 -> conv1 (in-place)
I1031 13:42:15.766487 98616 net.cpp:210] Setting up relu1
I1031 13:42:15.769153 98616 net.cpp:217] Top shape: 1 128 122 122 (1905152)
I1031 13:42:15.769520 98616 net.cpp:225] Memory required for data: 15425732
I1031 13:42:15.769742 98616 layer_factory.hpp:114] Creating layer dropout1
I1031 13:42:15.802497 98616 net.cpp:160] Creating Layer dropout1
I1031 13:42:15.802830 98616 net.cpp:596] dropout1 <- conv1
I1031 13:42:15.805652 98616 net.cpp:570] dropout1 -> drop1
I1031 13:42:15.930178 98616 net.cpp:210] Setting up dropout1
I1031 13:42:15.944720 98616 net.cpp:217] Top shape: 1 128 122 122 (1905152)
I1031 13:42:15.945152 98616 net.cpp:225] Memory required for data: 23046340
I1031 13:42:15.945533 98616 layer_factory.hpp:114] Creating layer pool1
I1031 13:42:16.051915 98616 net.cpp:160] Creating Layer pool1
I1031 13:42:16.056540 98616 net.cpp:596] pool1 <- drop1
I1031 13:42:16.056938 98616 net.cpp:570] pool1 -> pool1
I1031 13:42:16.474892 98616 net.cpp:210] Setting up pool1
I1031 13:42:16.480474 98616 net.cpp:217] Top shape: 1 128 61 61 (476288)
I1031 13:42:16.480981 98616 net.cpp:225] Memory required for data: 24951492
I1031 13:42:16.481287 98616 layer_factory.hpp:114] Creating layer conv2
I1031 13:42:16.544319 98616 net.cpp:160] Creating Layer conv2
I1031 13:42:16.548776 98616 net.cpp:596] conv2 <- pool1
I1031 13:42:16.565913 98616 net.cpp:570] conv2 -> conv2
I1031 13:42:23.436710 98616 net.cpp:210] Setting up conv2
I1031 13:42:23.439172 98616 net.cpp:217] Top shape: 1 128 59 59 (445568)
I1031 13:42:23.453171 98616 net.cpp:225] Memory required for data: 26733764
I1031 13:42:23.520426 98616 layer_factory.hpp:114] Creating layer relu2
I1031 13:42:23.527319 98616 net.cpp:160] Creating Layer relu2
I1031 13:42:23.539788 98616 net.cpp:596] relu2 <- conv2
I1031 13:42:23.546721 98616 net.cpp:557] relu2 -> conv2 (in-place)
I1031 13:42:23.549482 98616 net.cpp:210] Setting up relu2
I1031 13:42:23.558503 98616 net.cpp:217] Top shape: 1 128 59 59 (445568)
I1031 13:42:23.564659 98616 net.cpp:225] Memory required for data: 28516036
I1031 13:42:23.569245 98616 layer_factory.hpp:114] Creating layer dropout2
I1031 13:42:23.573498 98616 net.cpp:160] Creating Layer dropout2
I1031 13:42:23.577797 98616 net.cpp:596] dropout2 <- conv2
I1031 13:42:23.580535 98616 net.cpp:570] dropout2 -> drop2
I1031 13:42:23.582898 98616 net.cpp:210] Setting up dropout2
I1031 13:42:23.587353 98616 net.cpp:217] Top shape: 1 128 59 59 (445568)
I1031 13:42:23.591955 98616 net.cpp:225] Memory required for data: 30298308
I1031 13:42:23.596385 98616 layer_factory.hpp:114] Creating layer pool2
I1031 13:42:23.606886 98616 net.cpp:160] Creating Layer pool2
I1031 13:42:23.611723 98616 net.cpp:596] pool2 <- drop2
I1031 13:42:23.615732 98616 net.cpp:570] pool2 -> pool2
I1031 13:42:23.621137 98616 net.cpp:210] Setting up pool2
I1031 13:42:23.622973 98616 net.cpp:217] Top shape: 1 128 30 30 (115200)
I1031 13:42:23.625883 98616 net.cpp:225] Memory required for data: 30759108
I1031 13:42:23.630131 98616 layer_factory.hpp:114] Creating layer conv3
I1031 13:42:23.637266 98616 net.cpp:160] Creating Layer conv3
I1031 13:42:23.642982 98616 net.cpp:596] conv3 <- pool2
I1031 13:42:23.647799 98616 net.cpp:570] conv3 -> conv3
I1031 13:42:24.246539 98616 net.cpp:210] Setting up conv3
I1031 13:42:24.256119 98616 net.cpp:217] Top shape: 1 128 28 28 (100352)
I1031 13:42:24.260494 98616 net.cpp:225] Memory required for data: 31160516
I1031 13:42:24.285166 98616 layer_factory.hpp:114] Creating layer relu3
I1031 13:42:24.289655 98616 net.cpp:160] Creating Layer relu3
I1031 13:42:24.296249 98616 net.cpp:596] relu3 <- conv3
I1031 13:42:24.308598 98616 net.cpp:557] relu3 -> conv3 (in-place)
I1031 13:42:24.319334 98616 net.cpp:210] Setting up relu3
I1031 13:42:24.321656 98616 net.cpp:217] Top shape: 1 128 28 28 (100352)
I1031 13:42:24.328598 98616 net.cpp:225] Memory required for data: 31561924
I1031 13:42:24.333112 98616 layer_factory.hpp:114] Creating layer dropout3
I1031 13:42:24.335119 98616 net.cpp:160] Creating Layer dropout3
I1031 13:42:24.341131 98616 net.cpp:596] dropout3 <- conv3
I1031 13:42:24.350275 98616 net.cpp:570] dropout3 -> drop3
I1031 13:42:24.360522 98616 net.cpp:210] Setting up dropout3
I1031 13:42:24.365113 98616 net.cpp:217] Top shape: 1 128 28 28 (100352)
I1031 13:42:24.365525 98616 net.cpp:225] Memory required for data: 31963332
I1031 13:42:24.375275 98616 layer_factory.hpp:114] Creating layer pool3
I1031 13:42:24.379809 98616 net.cpp:160] Creating Layer pool3
I1031 13:42:24.382349 98616 net.cpp:596] pool3 <- drop3
I1031 13:42:24.390944 98616 net.cpp:570] pool3 -> pool3
I1031 13:42:24.395416 98616 net.cpp:210] Setting up pool3
I1031 13:42:24.403831 98616 net.cpp:217] Top shape: 1 128 14 14 (25088)
I1031 13:42:24.408360 98616 net.cpp:225] Memory required for data: 32063684
I1031 13:42:24.412694 98616 layer_factory.hpp:114] Creating layer conv4
I1031 13:42:24.417637 98616 net.cpp:160] Creating Layer conv4
I1031 13:42:24.421468 98616 net.cpp:596] conv4 <- pool3
I1031 13:42:24.424157 98616 net.cpp:570] conv4 -> conv4
I1031 13:42:24.773655 98616 net.cpp:210] Setting up conv4
I1031 13:42:24.773938 98616 net.cpp:217] Top shape: 1 128 12 12 (18432)
I1031 13:42:24.774301 98616 net.cpp:225] Memory required for data: 32137412
I1031 13:42:24.774617 98616 layer_factory.hpp:114] Creating layer relu4
I1031 13:42:24.774899 98616 net.cpp:160] Creating Layer relu4
I1031 13:42:24.775112 98616 net.cpp:596] relu4 <- conv4
I1031 13:42:24.775408 98616 net.cpp:557] relu4 -> conv4 (in-place)
I1031 13:42:24.775871 98616 net.cpp:210] Setting up relu4
I1031 13:42:24.776134 98616 net.cpp:217] Top shape: 1 128 12 12 (18432)
I1031 13:42:24.776384 98616 net.cpp:225] Memory required for data: 32211140
I1031 13:42:24.776592 98616 layer_factory.hpp:114] Creating layer dropout4
I1031 13:42:24.776830 98616 net.cpp:160] Creating Layer dropout4
I1031 13:42:24.777035 98616 net.cpp:596] dropout4 <- conv4
I1031 13:42:24.777285 98616 net.cpp:570] dropout4 -> drop4
I1031 13:42:24.777606 98616 net.cpp:210] Setting up dropout4
I1031 13:42:24.777920 98616 net.cpp:217] Top shape: 1 128 12 12 (18432)
I1031 13:42:24.778194 98616 net.cpp:225] Memory required for data: 32284868
I1031 13:42:24.778401 98616 layer_factory.hpp:114] Creating layer pool4
I1031 13:42:24.778704 98616 net.cpp:160] Creating Layer pool4
I1031 13:42:24.778929 98616 net.cpp:596] pool4 <- drop4
I1031 13:42:24.779173 98616 net.cpp:570] pool4 -> pool4
I1031 13:42:24.793354 98616 net.cpp:210] Setting up pool4
I1031 13:42:24.793717 98616 net.cpp:217] Top shape: 1 128 6 6 (4608)
I1031 13:42:24.796285 98616 net.cpp:225] Memory required for data: 32303300
I1031 13:42:24.796542 98616 layer_factory.hpp:114] Creating layer fc1
I1031 13:42:24.863116 98616 net.cpp:160] Creating Layer fc1
I1031 13:42:24.867565 98616 net.cpp:596] fc1 <- pool4
I1031 13:42:24.875826 98616 net.cpp:570] fc1 -> fc1
I1031 13:42:25.738801 98616 net.cpp:210] Setting up fc1
I1031 13:42:25.747479 98616 net.cpp:217] Top shape: 1 1024 (1024)
I1031 13:42:25.750023 98616 net.cpp:225] Memory required for data: 32307396
I1031 13:42:25.767138 98616 layer_factory.hpp:114] Creating layer dropout5
I1031 13:42:25.773273 98616 net.cpp:160] Creating Layer dropout5
I1031 13:42:25.775722 98616 net.cpp:596] dropout5 <- fc1
I1031 13:42:25.782241 98616 net.cpp:570] dropout5 -> drop5
I1031 13:42:25.786119 98616 net.cpp:210] Setting up dropout5
I1031 13:42:25.790891 98616 net.cpp:217] Top shape: 1 1024 (1024)
I1031 13:42:25.793911 98616 net.cpp:225] Memory required for data: 32311492
I1031 13:42:25.798430 98616 layer_factory.hpp:114] Creating layer fc2
I1031 13:42:25.803228 98616 net.cpp:160] Creating Layer fc2
I1031 13:42:25.811353 98616 net.cpp:596] fc2 <- drop5
I1031 13:42:25.819983 98616 net.cpp:570] fc2 -> fc2
I1031 13:42:25.853657 98616 net.cpp:210] Setting up fc2
I1031 13:42:25.862763 98616 net.cpp:217] Top shape: 1 2 (2)
I1031 13:42:25.871965 98616 net.cpp:225] Memory required for data: 32311500
I1031 13:42:25.876605 98616 layer_factory.hpp:114] Creating layer loss
I1031 13:42:25.906831 98616 net.cpp:160] Creating Layer loss
I1031 13:42:25.914911 98616 net.cpp:596] loss <- fc2
I1031 13:42:25.922134 98616 net.cpp:596] loss <- label
I1031 13:42:25.986140 98616 net.cpp:570] loss -> (automatic)
I1031 13:42:26.030432 98616 layer_factory.hpp:114] Creating layer loss
…
