…
I1031 14:09:06.317469 99682 net.cpp:484] The NetState phase (0) differed from the phase (1) specified by a rule in layer data
I1031 14:09:07.004331 99682 net.cpp:120] Initializing net from parameters: 
name: "HEP_CLASSIFIER"
state {
  phase: TRAIN
  level: 0
  stage: ""
}
layer {
  name: "data"
  type: "DummyData"
  top: "data"
  top: "label"
  include {
    phase: TRAIN
  }
  dummy_data_param {
    data_filler {
      type: "gaussian"
      std: 1
    }
    data_filler {
      type: "constant"
      value: 0
    }
    shape {
      dim: 1
      dim: 3
      dim: 124
      dim: 124
    }
    shape {
      dim: 1
      dim: 1
      dim: 1
      dim: 1
    }
  }
}
layer {
  name: "conv1"
  type: "Convolution"
  bottom: "data"
  top: "conv1"
  convolution_param {
    num_output: 128
    pad: 0
    kernel_size: 3
    stride: 1
    weight_filler {
      type: "msra"
    }
    bias_filler {
      type: "constant"
      value: 0
    }
  }
}
layer {
  name: "relu1"
  type: "ReLU"
  bottom: "conv1"
  top: "conv1"
  relu_param {
    negative_slope: 0.1
  }
}
layer {
  name: "dropout1"
  type: "Dropout"
  bottom: "conv1"
  top: "drop1"
}
layer {
  name: "pool1"
  type: "Pooling"
  bottom: "drop1"
  top: "pool1"
  pooling_param {
    pool: MAX
    kernel_size: 2
    stride: 2
  }
}
layer {
  name: "conv2"
  type: "Convolution"
  bottom: "pool1"
  top: "conv2"
  convolution_param {
    num_output: 128
    pad: 0
    kernel_size: 3
    stride: 1
    weight_filler {
      type: "msra"
    }
    bias_filler {
      type: "constant"
      value: 0
    }
  }
}
layer {
  name: "relu2"
  type: "ReLU"
  bottom: "conv2"
  top: "conv2"
  relu_param {
    negative_slope: 0.1
  }
}
layer {
  name: "dropout2"
  type: "Dropout"
  bottom: "conv2"
  top: "drop2"
}
layer {
  name: "pool2"
  type: "Pooling"
  bottom: "drop2"
  top: "pool2"
  pooling_param {
    pool: MAX
    kernel_size: 2
    stride: 2
  }
}
layer {
  name: "conv3"
  type: "Convolution"
  bottom: "pool2"
  top: "conv3"
  convolution_param {
    num_output: 128
    pad: 0
    kernel_size: 3
    stride: 1
    weight_filler {
      type: "msra"
    }
    bias_filler {
      type: "constant"
      value: 0
    }
  }
}
layer {
  name: "relu3"
  type: "ReLU"
  bottom: "conv3"
  top: "conv3"
  relu_param {
    negative_slope: 0.1
  }
}
layer {
  name: "dropout3"
  type: "Dropout"
  bottom: "conv3"
  top: "drop3"
}
layer {
  name: "pool3"
  type: "Pooling"
  bottom: "drop3"
  top: "pool3"
  pooling_param {
    pool: MAX
    kernel_size: 2
    stride: 2
  }
}
layer {
  name: "conv4"
  type: "Convolution"
  bottom: "pool3"
  top: "conv4"
  convolution_param {
    num_output: 128
    pad: 0
    kernel_size: 3
    stride: 1
    weight_filler {
      type: "msra"
    }
    bias_filler {
      type: "constant"
      value: 0
    }
  }
}
layer {
  name: "relu4"
  type: "ReLU"
  bottom: "conv4"
  top: "conv4"
  relu_param {
    negative_slope: 0.1
  }
}
layer {
  name: "dropout4"
  type: "Dropout"
  bottom: "conv4"
  top: "drop4"
}
layer {
  name: "pool4"
  type: "Pooling"
  bottom: "drop4"
  top: "pool4"
  pooling_param {
    pool: MAX
    kernel_size: 2
    stride: 2
  }
}
layer {
  name: "fc1"
  type: "InnerProduct"
  bottom: "pool4"
  top: "fc1"
  inner_product_param {
    num_output: 1024
    weight_filler {
      type: "msra"
    }
    bias_filler {
      type: "constant"
      value: 0
    }
  }
}
layer {
  name: "dropout5"
  type: "Dropout"
  bottom: "fc1"
  top: "drop5"
}
layer {
  name: "fc2"
  type: "InnerProduct"
  bottom: "drop5"
  top: "fc2"
  inner_product_param {
    num_output: 2
    weight_filler {
      type: "msra"
    }
    bias_filler {
      type: "constant"
      value: 0
    }
  }
}
layer {
  name: "loss"
  type: "SoftmaxWithLoss"
  bottom: "fc2"
  bottom: "label"
}
I1031 14:09:09.417047 99682 layer_factory.hpp:114] Creating layer data
I1031 14:09:09.574945 99682 net.cpp:160] Creating Layer data
I1031 14:09:09.625589 99682 net.cpp:570] data -> data
I1031 14:09:10.117372 99682 net.cpp:570] data -> label
I1031 14:09:17.571758 99682 net.cpp:210] Setting up data
I1031 14:09:17.657737 99682 net.cpp:217] Top shape: 1 3 124 124 (46128)
I1031 14:09:17.765398 99682 net.cpp:217] Top shape: 1 1 1 1 (1)
I1031 14:09:17.772759 99682 net.cpp:225] Memory required for data: 184516
I1031 14:09:17.851109 99682 layer_factory.hpp:114] Creating layer conv1
I1031 14:09:18.200093 99682 net.cpp:160] Creating Layer conv1
I1031 14:09:18.253208 99682 net.cpp:596] conv1 <- data
I1031 14:09:18.379020 99682 net.cpp:570] conv1 -> conv1
I1031 14:09:55.621778 99682 net.cpp:210] Setting up conv1
I1031 14:09:55.703513 99682 net.cpp:217] Top shape: 1 128 122 122 (1905152)
I1031 14:09:55.708806 99682 net.cpp:225] Memory required for data: 7805124
I1031 14:09:56.027565 99682 layer_factory.hpp:114] Creating layer relu1
I1031 14:09:56.168601 99682 net.cpp:160] Creating Layer relu1
I1031 14:09:56.173804 99682 net.cpp:596] relu1 <- conv1
I1031 14:09:56.208842 99682 net.cpp:557] relu1 -> conv1 (in-place)
I1031 14:09:56.425036 99682 net.cpp:210] Setting up relu1
I1031 14:09:56.427712 99682 net.cpp:217] Top shape: 1 128 122 122 (1905152)
I1031 14:09:56.428089 99682 net.cpp:225] Memory required for data: 15425732
I1031 14:09:56.428313 99682 layer_factory.hpp:114] Creating layer dropout1
I1031 14:09:56.460949 99682 net.cpp:160] Creating Layer dropout1
I1031 14:09:56.461284 99682 net.cpp:596] dropout1 <- conv1
I1031 14:09:56.464138 99682 net.cpp:570] dropout1 -> drop1
I1031 14:09:56.582682 99682 net.cpp:210] Setting up dropout1
I1031 14:09:56.596828 99682 net.cpp:217] Top shape: 1 128 122 122 (1905152)
I1031 14:09:56.597249 99682 net.cpp:225] Memory required for data: 23046340
I1031 14:09:56.597579 99682 layer_factory.hpp:114] Creating layer pool1
I1031 14:09:56.701184 99682 net.cpp:160] Creating Layer pool1
I1031 14:09:56.701521 99682 net.cpp:596] pool1 <- drop1
I1031 14:09:56.701917 99682 net.cpp:570] pool1 -> pool1
I1031 14:09:57.128414 99682 net.cpp:210] Setting up pool1
I1031 14:09:57.137377 99682 net.cpp:217] Top shape: 1 128 61 61 (476288)
I1031 14:09:57.137778 99682 net.cpp:225] Memory required for data: 24951492
I1031 14:09:57.138113 99682 layer_factory.hpp:114] Creating layer conv2
I1031 14:09:57.201066 99682 net.cpp:160] Creating Layer conv2
I1031 14:09:57.205505 99682 net.cpp:596] conv2 <- pool1
I1031 14:09:57.221233 99682 net.cpp:570] conv2 -> conv2
I1031 14:10:04.065392 99682 net.cpp:210] Setting up conv2
I1031 14:10:04.068476 99682 net.cpp:217] Top shape: 1 128 59 59 (445568)
I1031 14:10:04.083714 99682 net.cpp:225] Memory required for data: 26733764
I1031 14:10:04.145915 99682 layer_factory.hpp:114] Creating layer relu2
I1031 14:10:04.163928 99682 net.cpp:160] Creating Layer relu2
I1031 14:10:04.169677 99682 net.cpp:596] relu2 <- conv2
I1031 14:10:04.176168 99682 net.cpp:557] relu2 -> conv2 (in-place)
I1031 14:10:04.188758 99682 net.cpp:210] Setting up relu2
I1031 14:10:04.190711 99682 net.cpp:217] Top shape: 1 128 59 59 (445568)
I1031 14:10:04.202296 99682 net.cpp:225] Memory required for data: 28516036
I1031 14:10:04.204897 99682 layer_factory.hpp:114] Creating layer dropout2
I1031 14:10:04.209883 99682 net.cpp:160] Creating Layer dropout2
I1031 14:10:04.212312 99682 net.cpp:596] dropout2 <- conv2
I1031 14:10:04.214644 99682 net.cpp:570] dropout2 -> drop2
I1031 14:10:04.220909 99682 net.cpp:210] Setting up dropout2
I1031 14:10:04.221223 99682 net.cpp:217] Top shape: 1 128 59 59 (445568)
I1031 14:10:04.227073 99682 net.cpp:225] Memory required for data: 30298308
I1031 14:10:04.239138 99682 layer_factory.hpp:114] Creating layer pool2
I1031 14:10:04.245582 99682 net.cpp:160] Creating Layer pool2
I1031 14:10:04.252446 99682 net.cpp:596] pool2 <- drop2
I1031 14:10:04.254266 99682 net.cpp:570] pool2 -> pool2
I1031 14:10:04.254822 99682 net.cpp:210] Setting up pool2
I1031 14:10:04.263723 99682 net.cpp:217] Top shape: 1 128 30 30 (115200)
I1031 14:10:04.264152 99682 net.cpp:225] Memory required for data: 30759108
I1031 14:10:04.270227 99682 layer_factory.hpp:114] Creating layer conv3
I1031 14:10:04.277196 99682 net.cpp:160] Creating Layer conv3
I1031 14:10:04.285856 99682 net.cpp:596] conv3 <- pool2
I1031 14:10:04.288173 99682 net.cpp:570] conv3 -> conv3
I1031 14:10:04.904513 99682 net.cpp:210] Setting up conv3
I1031 14:10:04.913074 99682 net.cpp:217] Top shape: 1 128 28 28 (100352)
I1031 14:10:04.919453 99682 net.cpp:225] Memory required for data: 31160516
I1031 14:10:04.938865 99682 layer_factory.hpp:114] Creating layer relu3
I1031 14:10:04.947154 99682 net.cpp:160] Creating Layer relu3
I1031 14:10:04.949558 99682 net.cpp:596] relu3 <- conv3
I1031 14:10:04.956003 99682 net.cpp:557] relu3 -> conv3 (in-place)
I1031 14:10:04.964359 99682 net.cpp:210] Setting up relu3
I1031 14:10:04.974853 99682 net.cpp:217] Top shape: 1 128 28 28 (100352)
I1031 14:10:04.977288 99682 net.cpp:225] Memory required for data: 31561924
I1031 14:10:04.981660 99682 layer_factory.hpp:114] Creating layer dropout3
I1031 14:10:04.983347 99682 net.cpp:160] Creating Layer dropout3
I1031 14:10:04.991220 99682 net.cpp:596] dropout3 <- conv3
I1031 14:10:04.997824 99682 net.cpp:570] dropout3 -> drop3
I1031 14:10:04.998280 99682 net.cpp:210] Setting up dropout3
I1031 14:10:05.006395 99682 net.cpp:217] Top shape: 1 128 28 28 (100352)
I1031 14:10:05.008920 99682 net.cpp:225] Memory required for data: 31963332
I1031 14:10:05.019445 99682 layer_factory.hpp:114] Creating layer pool3
I1031 14:10:05.029953 99682 net.cpp:160] Creating Layer pool3
I1031 14:10:05.034054 99682 net.cpp:596] pool3 <- drop3
I1031 14:10:05.042762 99682 net.cpp:570] pool3 -> pool3
I1031 14:10:05.047418 99682 net.cpp:210] Setting up pool3
I1031 14:10:05.049172 99682 net.cpp:217] Top shape: 1 128 14 14 (25088)
I1031 14:10:05.053938 99682 net.cpp:225] Memory required for data: 32063684
I1031 14:10:05.058722 99682 layer_factory.hpp:114] Creating layer conv4
I1031 14:10:05.063597 99682 net.cpp:160] Creating Layer conv4
I1031 14:10:05.071694 99682 net.cpp:596] conv4 <- pool3
I1031 14:10:05.076005 99682 net.cpp:570] conv4 -> conv4
I1031 14:10:05.450444 99682 net.cpp:210] Setting up conv4
I1031 14:10:05.459447 99682 net.cpp:217] Top shape: 1 128 12 12 (18432)
I1031 14:10:05.464943 99682 net.cpp:225] Memory required for data: 32137412
I1031 14:10:05.471817 99682 layer_factory.hpp:114] Creating layer relu4
I1031 14:10:05.477865 99682 net.cpp:160] Creating Layer relu4
I1031 14:10:05.490536 99682 net.cpp:596] relu4 <- conv4
I1031 14:10:05.494957 99682 net.cpp:557] relu4 -> conv4 (in-place)
I1031 14:10:05.498952 99682 net.cpp:210] Setting up relu4
I1031 14:10:05.510244 99682 net.cpp:217] Top shape: 1 128 12 12 (18432)
I1031 14:10:05.517274 99682 net.cpp:225] Memory required for data: 32211140
I1031 14:10:05.517576 99682 layer_factory.hpp:114] Creating layer dropout4
I1031 14:10:05.517855 99682 net.cpp:160] Creating Layer dropout4
I1031 14:10:05.518074 99682 net.cpp:596] dropout4 <- conv4
I1031 14:10:05.518345 99682 net.cpp:570] dropout4 -> drop4
I1031 14:10:05.518656 99682 net.cpp:210] Setting up dropout4
I1031 14:10:05.518869 99682 net.cpp:217] Top shape: 1 128 12 12 (18432)
I1031 14:10:05.519117 99682 net.cpp:225] Memory required for data: 32284868
I1031 14:10:05.519320 99682 layer_factory.hpp:114] Creating layer pool4
I1031 14:10:05.519667 99682 net.cpp:160] Creating Layer pool4
I1031 14:10:05.519881 99682 net.cpp:596] pool4 <- drop4
I1031 14:10:05.520119 99682 net.cpp:570] pool4 -> pool4
I1031 14:10:05.533818 99682 net.cpp:210] Setting up pool4
I1031 14:10:05.534178 99682 net.cpp:217] Top shape: 1 128 6 6 (4608)
I1031 14:10:05.536696 99682 net.cpp:225] Memory required for data: 32303300
I1031 14:10:05.536958 99682 layer_factory.hpp:114] Creating layer fc1
I1031 14:10:05.600778 99682 net.cpp:160] Creating Layer fc1
I1031 14:10:05.601115 99682 net.cpp:596] fc1 <- pool4
I1031 14:10:05.601534 99682 net.cpp:570] fc1 -> fc1
I1031 14:10:06.481273 99682 net.cpp:210] Setting up fc1
I1031 14:10:06.489807 99682 net.cpp:217] Top shape: 1 1024 (1024)
I1031 14:10:06.498723 99682 net.cpp:225] Memory required for data: 32307396
I1031 14:10:06.517801 99682 layer_factory.hpp:114] Creating layer dropout5
I1031 14:10:06.521793 99682 net.cpp:160] Creating Layer dropout5
I1031 14:10:06.530097 99682 net.cpp:596] dropout5 <- fc1
I1031 14:10:06.538539 99682 net.cpp:570] dropout5 -> drop5
I1031 14:10:06.544155 99682 net.cpp:210] Setting up dropout5
I1031 14:10:06.549230 99682 net.cpp:217] Top shape: 1 1024 (1024)
I1031 14:10:06.563081 99682 net.cpp:225] Memory required for data: 32311492
I1031 14:10:06.571887 99682 layer_factory.hpp:114] Creating layer fc2
I1031 14:10:06.576117 99682 net.cpp:160] Creating Layer fc2
I1031 14:10:06.580476 99682 net.cpp:596] fc2 <- drop5
I1031 14:10:06.590948 99682 net.cpp:570] fc2 -> fc2
I1031 14:10:06.629247 99682 net.cpp:210] Setting up fc2
I1031 14:10:06.642144 99682 net.cpp:217] Top shape: 1 2 (2)
I1031 14:10:06.653498 99682 net.cpp:225] Memory required for data: 32311500
I1031 14:10:06.657851 99682 layer_factory.hpp:114] Creating layer loss
I1031 14:10:06.690336 99682 net.cpp:160] Creating Layer loss
I1031 14:10:06.694774 99682 net.cpp:596] loss <- fc2
I1031 14:10:06.699573 99682 net.cpp:596] loss <- label
I1031 14:10:06.766064 99682 net.cpp:570] loss -> (automatic)
I1031 14:10:06.834967 99682 layer_factory.hpp:114] Creating layer loss
…
