…
I1031 11:15:59.503223 131454 net.cpp:484] The NetState phase (0) differed from the phase (1) specified by a rule in layer data
I1031 11:16:00.222721 131454 net.cpp:120] Initializing net from parameters: 
name: "HEP_CLASSIFIER"
state {
  phase: TRAIN
  level: 0
  stage: ""
}
layer {
  name: "data"
  type: "DummyData"
  top: "data"
  top: "label"
  include {
    phase: TRAIN
  }
  dummy_data_param {
    data_filler {
      type: "gaussian"
      std: 1
    }
    data_filler {
      type: "constant"
      value: 0
    }
    shape {
      dim: 1
      dim: 3
      dim: 124
      dim: 124
    }
    shape {
      dim: 1
      dim: 1
      dim: 1
      dim: 1
    }
  }
}
layer {
  name: "conv1"
  type: "Convolution"
  bottom: "data"
  top: "conv1"
  convolution_param {
    num_output: 128
    pad: 0
    kernel_size: 3
    stride: 1
    weight_filler {
      type: "msra"
    }
    bias_filler {
      type: "constant"
      value: 0
    }
  }
}
layer {
  name: "relu1"
  type: "ReLU"
  bottom: "conv1"
  top: "conv1"
  relu_param {
    negative_slope: 0.1
  }
}
layer {
  name: "dropout1"
  type: "Dropout"
  bottom: "conv1"
  top: "drop1"
}
layer {
  name: "pool1"
  type: "Pooling"
  bottom: "drop1"
  top: "pool1"
  pooling_param {
    pool: MAX
    kernel_size: 2
    stride: 2
  }
}
layer {
  name: "conv2"
  type: "Convolution"
  bottom: "pool1"
  top: "conv2"
  convolution_param {
    num_output: 128
    pad: 0
    kernel_size: 3
    stride: 1
    weight_filler {
      type: "msra"
    }
    bias_filler {
      type: "constant"
      value: 0
    }
  }
}
layer {
  name: "relu2"
  type: "ReLU"
  bottom: "conv2"
  top: "conv2"
  relu_param {
    negative_slope: 0.1
  }
}
layer {
  name: "dropout2"
  type: "Dropout"
  bottom: "conv2"
  top: "drop2"
}
layer {
  name: "pool2"
  type: "Pooling"
  bottom: "drop2"
  top: "pool2"
  pooling_param {
    pool: MAX
    kernel_size: 2
    stride: 2
  }
}
layer {
  name: "conv3"
  type: "Convolution"
  bottom: "pool2"
  top: "conv3"
  convolution_param {
    num_output: 128
    pad: 0
    kernel_size: 3
    stride: 1
    weight_filler {
      type: "msra"
    }
    bias_filler {
      type: "constant"
      value: 0
    }
  }
}
layer {
  name: "relu3"
  type: "ReLU"
  bottom: "conv3"
  top: "conv3"
  relu_param {
    negative_slope: 0.1
  }
}
layer {
  name: "dropout3"
  type: "Dropout"
  bottom: "conv3"
  top: "drop3"
}
layer {
  name: "pool3"
  type: "Pooling"
  bottom: "drop3"
  top: "pool3"
  pooling_param {
    pool: MAX
    kernel_size: 2
    stride: 2
  }
}
layer {
  name: "conv4"
  type: "Convolution"
  bottom: "pool3"
  top: "conv4"
  convolution_param {
    num_output: 128
    pad: 0
    kernel_size: 3
    stride: 1
    weight_filler {
      type: "msra"
    }
    bias_filler {
      type: "constant"
      value: 0
    }
  }
}
layer {
  name: "relu4"
  type: "ReLU"
  bottom: "conv4"
  top: "conv4"
  relu_param {
    negative_slope: 0.1
  }
}
layer {
  name: "dropout4"
  type: "Dropout"
  bottom: "conv4"
  top: "drop4"
}
layer {
  name: "pool4"
  type: "Pooling"
  bottom: "drop4"
  top: "pool4"
  pooling_param {
    pool: MAX
    kernel_size: 2
    stride: 2
  }
}
layer {
  name: "fc1"
  type: "InnerProduct"
  bottom: "pool4"
  top: "fc1"
  inner_product_param {
    num_output: 1024
    weight_filler {
      type: "msra"
    }
    bias_filler {
      type: "constant"
      value: 0
    }
  }
}
layer {
  name: "dropout5"
  type: "Dropout"
  bottom: "fc1"
  top: "drop5"
}
layer {
  name: "fc2"
  type: "InnerProduct"
  bottom: "drop5"
  top: "fc2"
  inner_product_param {
    num_output: 2
    weight_filler {
      type: "msra"
    }
    bias_filler {
      type: "constant"
      value: 0
    }
  }
}
layer {
  name: "loss"
  type: "SoftmaxWithLoss"
  bottom: "fc2"
  bottom: "label"
}
I1031 11:16:02.742120 131454 layer_factory.hpp:114] Creating layer data
I1031 11:16:02.910852 131454 net.cpp:160] Creating Layer data
I1031 11:16:02.964289 131454 net.cpp:570] data -> data
I1031 11:16:03.478469 131454 net.cpp:570] data -> label
I1031 11:16:11.244119 131454 net.cpp:210] Setting up data
I1031 11:16:11.332126 131454 net.cpp:217] Top shape: 1 3 124 124 (46128)
I1031 11:16:11.445453 131454 net.cpp:217] Top shape: 1 1 1 1 (1)
I1031 11:16:11.453528 131454 net.cpp:225] Memory required for data: 184516
I1031 11:16:11.538060 131454 layer_factory.hpp:114] Creating layer conv1
I1031 11:16:11.905061 131454 net.cpp:160] Creating Layer conv1
I1031 11:16:11.960958 131454 net.cpp:596] conv1 <- data
I1031 11:16:12.094172 131454 net.cpp:570] conv1 -> conv1
I1031 11:16:50.448325 131454 net.cpp:210] Setting up conv1
I1031 11:16:50.527915 131454 net.cpp:217] Top shape: 1 128 122 122 (1905152)
I1031 11:16:50.539227 131454 net.cpp:225] Memory required for data: 7805124
I1031 11:16:50.883532 131454 layer_factory.hpp:114] Creating layer relu1
I1031 11:16:51.024461 131454 net.cpp:160] Creating Layer relu1
I1031 11:16:51.029669 131454 net.cpp:596] relu1 <- conv1
I1031 11:16:51.066203 131454 net.cpp:557] relu1 -> conv1 (in-place)
I1031 11:16:51.305830 131454 net.cpp:210] Setting up relu1
I1031 11:16:51.309481 131454 net.cpp:217] Top shape: 1 128 122 122 (1905152)
I1031 11:16:51.309957 131454 net.cpp:225] Memory required for data: 15425732
I1031 11:16:51.310226 131454 layer_factory.hpp:114] Creating layer dropout1
I1031 11:16:51.345964 131454 net.cpp:160] Creating Layer dropout1
I1031 11:16:51.346390 131454 net.cpp:596] dropout1 <- conv1
I1031 11:16:51.349666 131454 net.cpp:570] dropout1 -> drop1
I1031 11:16:51.469604 131454 net.cpp:210] Setting up dropout1
I1031 11:16:51.484086 131454 net.cpp:217] Top shape: 1 128 122 122 (1905152)
I1031 11:16:51.484503 131454 net.cpp:225] Memory required for data: 23046340
I1031 11:16:51.484884 131454 layer_factory.hpp:114] Creating layer pool1
I1031 11:16:51.597946 131454 net.cpp:160] Creating Layer pool1
I1031 11:16:51.598681 131454 net.cpp:596] pool1 <- drop1
I1031 11:16:51.599081 131454 net.cpp:570] pool1 -> pool1
I1031 11:16:52.035254 131454 net.cpp:210] Setting up pool1
I1031 11:16:52.040515 131454 net.cpp:217] Top shape: 1 128 61 61 (476288)
I1031 11:16:52.040921 131454 net.cpp:225] Memory required for data: 24951492
I1031 11:16:52.041265 131454 layer_factory.hpp:114] Creating layer conv2
I1031 11:16:52.106695 131454 net.cpp:160] Creating Layer conv2
I1031 11:16:52.111284 131454 net.cpp:596] conv2 <- pool1
I1031 11:16:52.127347 131454 net.cpp:570] conv2 -> conv2
I1031 11:16:59.053531 131454 net.cpp:210] Setting up conv2
I1031 11:16:59.053910 131454 net.cpp:217] Top shape: 1 128 59 59 (445568)
I1031 11:16:59.059995 131454 net.cpp:225] Memory required for data: 26733764
I1031 11:16:59.118554 131454 layer_factory.hpp:114] Creating layer relu2
I1031 11:16:59.119029 131454 net.cpp:160] Creating Layer relu2
I1031 11:16:59.119371 131454 net.cpp:596] relu2 <- conv2
I1031 11:16:59.119745 131454 net.cpp:557] relu2 -> conv2 (in-place)
I1031 11:16:59.120236 131454 net.cpp:210] Setting up relu2
I1031 11:16:59.120522 131454 net.cpp:217] Top shape: 1 128 59 59 (445568)
I1031 11:16:59.120782 131454 net.cpp:225] Memory required for data: 28516036
I1031 11:16:59.120990 131454 layer_factory.hpp:114] Creating layer dropout2
I1031 11:16:59.121237 131454 net.cpp:160] Creating Layer dropout2
I1031 11:16:59.121450 131454 net.cpp:596] dropout2 <- conv2
I1031 11:16:59.121808 131454 net.cpp:570] dropout2 -> drop2
I1031 11:16:59.122124 131454 net.cpp:210] Setting up dropout2
I1031 11:16:59.122540 131454 net.cpp:217] Top shape: 1 128 59 59 (445568)
I1031 11:16:59.122884 131454 net.cpp:225] Memory required for data: 30298308
I1031 11:16:59.123136 131454 layer_factory.hpp:114] Creating layer pool2
I1031 11:16:59.123453 131454 net.cpp:160] Creating Layer pool2
I1031 11:16:59.123693 131454 net.cpp:596] pool2 <- drop2
I1031 11:16:59.123960 131454 net.cpp:570] pool2 -> pool2
I1031 11:16:59.124413 131454 net.cpp:210] Setting up pool2
I1031 11:16:59.124696 131454 net.cpp:217] Top shape: 1 128 30 30 (115200)
I1031 11:16:59.124938 131454 net.cpp:225] Memory required for data: 30759108
I1031 11:16:59.125167 131454 layer_factory.hpp:114] Creating layer conv3
I1031 11:16:59.125576 131454 net.cpp:160] Creating Layer conv3
I1031 11:16:59.125941 131454 net.cpp:596] conv3 <- pool2
I1031 11:16:59.126250 131454 net.cpp:570] conv3 -> conv3
I1031 11:16:59.668112 131454 net.cpp:210] Setting up conv3
I1031 11:16:59.670691 131454 net.cpp:217] Top shape: 1 128 28 28 (100352)
I1031 11:16:59.671077 131454 net.cpp:225] Memory required for data: 31160516
I1031 11:16:59.679618 131454 layer_factory.hpp:114] Creating layer relu3
I1031 11:16:59.680088 131454 net.cpp:160] Creating Layer relu3
I1031 11:16:59.680452 131454 net.cpp:596] relu3 <- conv3
I1031 11:16:59.680779 131454 net.cpp:557] relu3 -> conv3 (in-place)
I1031 11:16:59.681442 131454 net.cpp:210] Setting up relu3
I1031 11:16:59.681757 131454 net.cpp:217] Top shape: 1 128 28 28 (100352)
I1031 11:16:59.682036 131454 net.cpp:225] Memory required for data: 31561924
I1031 11:16:59.682255 131454 layer_factory.hpp:114] Creating layer dropout3
I1031 11:16:59.682615 131454 net.cpp:160] Creating Layer dropout3
I1031 11:16:59.682870 131454 net.cpp:596] dropout3 <- conv3
I1031 11:16:59.683291 131454 net.cpp:570] dropout3 -> drop3
I1031 11:16:59.683696 131454 net.cpp:210] Setting up dropout3
I1031 11:16:59.683931 131454 net.cpp:217] Top shape: 1 128 28 28 (100352)
I1031 11:16:59.684175 131454 net.cpp:225] Memory required for data: 31963332
I1031 11:16:59.684375 131454 layer_factory.hpp:114] Creating layer pool3
I1031 11:16:59.684656 131454 net.cpp:160] Creating Layer pool3
I1031 11:16:59.684876 131454 net.cpp:596] pool3 <- drop3
I1031 11:16:59.685129 131454 net.cpp:570] pool3 -> pool3
I1031 11:16:59.685557 131454 net.cpp:210] Setting up pool3
I1031 11:16:59.685864 131454 net.cpp:217] Top shape: 1 128 14 14 (25088)
I1031 11:16:59.686240 131454 net.cpp:225] Memory required for data: 32063684
I1031 11:16:59.686560 131454 layer_factory.hpp:114] Creating layer conv4
I1031 11:16:59.686980 131454 net.cpp:160] Creating Layer conv4
I1031 11:16:59.687218 131454 net.cpp:596] conv4 <- pool3
I1031 11:16:59.687466 131454 net.cpp:570] conv4 -> conv4
I1031 11:17:00.041957 131454 net.cpp:210] Setting up conv4
I1031 11:17:00.042279 131454 net.cpp:217] Top shape: 1 128 12 12 (18432)
I1031 11:17:00.042781 131454 net.cpp:225] Memory required for data: 32137412
I1031 11:17:00.043151 131454 layer_factory.hpp:114] Creating layer relu4
I1031 11:17:00.043503 131454 net.cpp:160] Creating Layer relu4
I1031 11:17:00.043774 131454 net.cpp:596] relu4 <- conv4
I1031 11:17:00.044049 131454 net.cpp:557] relu4 -> conv4 (in-place)
I1031 11:17:00.044577 131454 net.cpp:210] Setting up relu4
I1031 11:17:00.044881 131454 net.cpp:217] Top shape: 1 128 12 12 (18432)
I1031 11:17:00.045153 131454 net.cpp:225] Memory required for data: 32211140
I1031 11:17:00.045372 131454 layer_factory.hpp:114] Creating layer dropout4
I1031 11:17:00.045624 131454 net.cpp:160] Creating Layer dropout4
I1031 11:17:00.045882 131454 net.cpp:596] dropout4 <- conv4
I1031 11:17:00.046144 131454 net.cpp:570] dropout4 -> drop4
I1031 11:17:00.046509 131454 net.cpp:210] Setting up dropout4
I1031 11:17:00.046779 131454 net.cpp:217] Top shape: 1 128 12 12 (18432)
I1031 11:17:00.047034 131454 net.cpp:225] Memory required for data: 32284868
I1031 11:17:00.047233 131454 layer_factory.hpp:114] Creating layer pool4
I1031 11:17:00.047530 131454 net.cpp:160] Creating Layer pool4
I1031 11:17:00.047754 131454 net.cpp:596] pool4 <- drop4
I1031 11:17:00.047992 131454 net.cpp:570] pool4 -> pool4
I1031 11:17:00.061499 131454 net.cpp:210] Setting up pool4
I1031 11:17:00.062124 131454 net.cpp:217] Top shape: 1 128 6 6 (4608)
I1031 11:17:00.064621 131454 net.cpp:225] Memory required for data: 32303300
I1031 11:17:00.064877 131454 layer_factory.hpp:114] Creating layer fc1
I1031 11:17:00.125026 131454 net.cpp:160] Creating Layer fc1
I1031 11:17:00.125371 131454 net.cpp:596] fc1 <- pool4
I1031 11:17:00.125805 131454 net.cpp:570] fc1 -> fc1
I1031 11:17:00.981212 131454 net.cpp:210] Setting up fc1
I1031 11:17:00.981915 131454 net.cpp:217] Top shape: 1 1024 (1024)
I1031 11:17:00.982358 131454 net.cpp:225] Memory required for data: 32307396
I1031 11:17:00.987308 131454 layer_factory.hpp:114] Creating layer dropout5
I1031 11:17:00.987732 131454 net.cpp:160] Creating Layer dropout5
I1031 11:17:00.987983 131454 net.cpp:596] dropout5 <- fc1
I1031 11:17:00.988250 131454 net.cpp:570] dropout5 -> drop5
I1031 11:17:00.988562 131454 net.cpp:210] Setting up dropout5
I1031 11:17:00.988796 131454 net.cpp:217] Top shape: 1 1024 (1024)
I1031 11:17:00.989059 131454 net.cpp:225] Memory required for data: 32311492
I1031 11:17:00.989277 131454 layer_factory.hpp:114] Creating layer fc2
I1031 11:17:00.989573 131454 net.cpp:160] Creating Layer fc2
I1031 11:17:00.989975 131454 net.cpp:596] fc2 <- drop5
I1031 11:17:00.990270 131454 net.cpp:570] fc2 -> fc2
I1031 11:17:00.998653 131454 net.cpp:210] Setting up fc2
I1031 11:17:01.000083 131454 net.cpp:217] Top shape: 1 2 (2)
I1031 11:17:01.004775 131454 net.cpp:225] Memory required for data: 32311500
I1031 11:17:01.005254 131454 layer_factory.hpp:114] Creating layer loss
I1031 11:17:01.032004 131454 net.cpp:160] Creating Layer loss
I1031 11:17:01.032346 131454 net.cpp:596] loss <- fc2
I1031 11:17:01.033330 131454 net.cpp:596] loss <- label
I1031 11:17:01.083520 131454 net.cpp:570] loss -> (automatic)
I1031 11:17:01.118752 131454 layer_factory.hpp:114] Creating layer loss
…
