…
I1031 11:45:22.178131 94382 net.cpp:484] The NetState phase (0) differed from the phase (1) specified by a rule in layer data
I1031 11:45:22.872498 94382 net.cpp:120] Initializing net from parameters: 
name: "HEP_CLASSIFIER"
state {
  phase: TRAIN
  level: 0
  stage: ""
}
layer {
  name: "data"
  type: "DummyData"
  top: "data"
  top: "label"
  include {
    phase: TRAIN
  }
  dummy_data_param {
    data_filler {
      type: "gaussian"
      std: 1
    }
    data_filler {
      type: "constant"
      value: 0
    }
    shape {
      dim: 1
      dim: 3
      dim: 124
      dim: 124
    }
    shape {
      dim: 1
      dim: 1
      dim: 1
      dim: 1
    }
  }
}
layer {
  name: "conv1"
  type: "Convolution"
  bottom: "data"
  top: "conv1"
  convolution_param {
    num_output: 128
    pad: 0
    kernel_size: 3
    stride: 1
    weight_filler {
      type: "msra"
    }
    bias_filler {
      type: "constant"
      value: 0
    }
  }
}
layer {
  name: "relu1"
  type: "ReLU"
  bottom: "conv1"
  top: "conv1"
  relu_param {
    negative_slope: 0.1
  }
}
layer {
  name: "dropout1"
  type: "Dropout"
  bottom: "conv1"
  top: "drop1"
}
layer {
  name: "pool1"
  type: "Pooling"
  bottom: "drop1"
  top: "pool1"
  pooling_param {
    pool: MAX
    kernel_size: 2
    stride: 2
  }
}
layer {
  name: "conv2"
  type: "Convolution"
  bottom: "pool1"
  top: "conv2"
  convolution_param {
    num_output: 128
    pad: 0
    kernel_size: 3
    stride: 1
    weight_filler {
      type: "msra"
    }
    bias_filler {
      type: "constant"
      value: 0
    }
  }
}
layer {
  name: "relu2"
  type: "ReLU"
  bottom: "conv2"
  top: "conv2"
  relu_param {
    negative_slope: 0.1
  }
}
layer {
  name: "dropout2"
  type: "Dropout"
  bottom: "conv2"
  top: "drop2"
}
layer {
  name: "pool2"
  type: "Pooling"
  bottom: "drop2"
  top: "pool2"
  pooling_param {
    pool: MAX
    kernel_size: 2
    stride: 2
  }
}
layer {
  name: "conv3"
  type: "Convolution"
  bottom: "pool2"
  top: "conv3"
  convolution_param {
    num_output: 128
    pad: 0
    kernel_size: 3
    stride: 1
    weight_filler {
      type: "msra"
    }
    bias_filler {
      type: "constant"
      value: 0
    }
  }
}
layer {
  name: "relu3"
  type: "ReLU"
  bottom: "conv3"
  top: "conv3"
  relu_param {
    negative_slope: 0.1
  }
}
layer {
  name: "dropout3"
  type: "Dropout"
  bottom: "conv3"
  top: "drop3"
}
layer {
  name: "pool3"
  type: "Pooling"
  bottom: "drop3"
  top: "pool3"
  pooling_param {
    pool: MAX
    kernel_size: 2
    stride: 2
  }
}
layer {
  name: "conv4"
  type: "Convolution"
  bottom: "pool3"
  top: "conv4"
  convolution_param {
    num_output: 128
    pad: 0
    kernel_size: 3
    stride: 1
    weight_filler {
      type: "msra"
    }
    bias_filler {
      type: "constant"
      value: 0
    }
  }
}
layer {
  name: "relu4"
  type: "ReLU"
  bottom: "conv4"
  top: "conv4"
  relu_param {
    negative_slope: 0.1
  }
}
layer {
  name: "dropout4"
  type: "Dropout"
  bottom: "conv4"
  top: "drop4"
}
layer {
  name: "pool4"
  type: "Pooling"
  bottom: "drop4"
  top: "pool4"
  pooling_param {
    pool: MAX
    kernel_size: 2
    stride: 2
  }
}
layer {
  name: "fc1"
  type: "InnerProduct"
  bottom: "pool4"
  top: "fc1"
  inner_product_param {
    num_output: 1024
    weight_filler {
      type: "msra"
    }
    bias_filler {
      type: "constant"
      value: 0
    }
  }
}
layer {
  name: "dropout5"
  type: "Dropout"
  bottom: "fc1"
  top: "drop5"
}
layer {
  name: "fc2"
  type: "InnerProduct"
  bottom: "drop5"
  top: "fc2"
  inner_product_param {
    num_output: 2
    weight_filler {
      type: "msra"
    }
    bias_filler {
      type: "constant"
      value: 0
    }
  }
}
layer {
  name: "loss"
  type: "SoftmaxWithLoss"
  bottom: "fc2"
  bottom: "label"
}
I1031 11:45:25.298151 94382 layer_factory.hpp:114] Creating layer data
I1031 11:45:25.455812 94382 net.cpp:160] Creating Layer data
I1031 11:45:25.507760 94382 net.cpp:570] data -> data
I1031 11:45:26.003978 94382 net.cpp:570] data -> label
I1031 11:45:33.512233 94382 net.cpp:210] Setting up data
I1031 11:45:33.595511 94382 net.cpp:217] Top shape: 1 3 124 124 (46128)
I1031 11:45:33.701711 94382 net.cpp:217] Top shape: 1 1 1 1 (1)
I1031 11:45:33.709069 94382 net.cpp:225] Memory required for data: 184516
I1031 11:45:33.791158 94382 layer_factory.hpp:114] Creating layer conv1
I1031 11:45:34.138856 94382 net.cpp:160] Creating Layer conv1
I1031 11:45:34.195190 94382 net.cpp:596] conv1 <- data
I1031 11:45:34.322720 94382 net.cpp:570] conv1 -> conv1
I1031 11:46:11.887812 94382 net.cpp:210] Setting up conv1
I1031 11:46:11.966328 94382 net.cpp:217] Top shape: 1 128 122 122 (1905152)
I1031 11:46:11.973368 94382 net.cpp:225] Memory required for data: 7805124
I1031 11:46:12.307164 94382 layer_factory.hpp:114] Creating layer relu1
I1031 11:46:12.445276 94382 net.cpp:160] Creating Layer relu1
I1031 11:46:12.450975 94382 net.cpp:596] relu1 <- conv1
I1031 11:46:12.486527 94382 net.cpp:557] relu1 -> conv1 (in-place)
I1031 11:46:12.709480 94382 net.cpp:210] Setting up relu1
I1031 11:46:12.712604 94382 net.cpp:217] Top shape: 1 128 122 122 (1905152)
I1031 11:46:12.713062 94382 net.cpp:225] Memory required for data: 15425732
I1031 11:46:12.713325 94382 layer_factory.hpp:114] Creating layer dropout1
I1031 11:46:12.747992 94382 net.cpp:160] Creating Layer dropout1
I1031 11:46:12.748347 94382 net.cpp:596] dropout1 <- conv1
I1031 11:46:12.751298 94382 net.cpp:570] dropout1 -> drop1
I1031 11:46:12.866997 94382 net.cpp:210] Setting up dropout1
I1031 11:46:12.881063 94382 net.cpp:217] Top shape: 1 128 122 122 (1905152)
I1031 11:46:12.881423 94382 net.cpp:225] Memory required for data: 23046340
I1031 11:46:12.881644 94382 layer_factory.hpp:114] Creating layer pool1
I1031 11:46:12.992532 94382 net.cpp:160] Creating Layer pool1
I1031 11:46:12.992872 94382 net.cpp:596] pool1 <- drop1
I1031 11:46:12.993284 94382 net.cpp:570] pool1 -> pool1
I1031 11:46:13.420816 94382 net.cpp:210] Setting up pool1
I1031 11:46:13.429993 94382 net.cpp:217] Top shape: 1 128 61 61 (476288)
I1031 11:46:13.430388 94382 net.cpp:225] Memory required for data: 24951492
I1031 11:46:13.430685 94382 layer_factory.hpp:114] Creating layer conv2
I1031 11:46:13.493283 94382 net.cpp:160] Creating Layer conv2
I1031 11:46:13.497773 94382 net.cpp:596] conv2 <- pool1
I1031 11:46:13.513358 94382 net.cpp:570] conv2 -> conv2
I1031 11:46:20.351287 94382 net.cpp:210] Setting up conv2
I1031 11:46:20.353514 94382 net.cpp:217] Top shape: 1 128 59 59 (445568)
I1031 11:46:20.366255 94382 net.cpp:225] Memory required for data: 26733764
I1031 11:46:20.440137 94382 layer_factory.hpp:114] Creating layer relu2
I1031 11:46:20.451767 94382 net.cpp:160] Creating Layer relu2
I1031 11:46:20.453562 94382 net.cpp:596] relu2 <- conv2
I1031 11:46:20.463004 94382 net.cpp:557] relu2 -> conv2 (in-place)
I1031 11:46:20.466037 94382 net.cpp:210] Setting up relu2
I1031 11:46:20.468637 94382 net.cpp:217] Top shape: 1 128 59 59 (445568)
I1031 11:46:20.470971 94382 net.cpp:225] Memory required for data: 28516036
I1031 11:46:20.477677 94382 layer_factory.hpp:114] Creating layer dropout2
I1031 11:46:20.484035 94382 net.cpp:160] Creating Layer dropout2
I1031 11:46:20.486461 94382 net.cpp:596] dropout2 <- conv2
I1031 11:46:20.501018 94382 net.cpp:570] dropout2 -> drop2
I1031 11:46:20.503162 94382 net.cpp:210] Setting up dropout2
I1031 11:46:20.512480 94382 net.cpp:217] Top shape: 1 128 59 59 (445568)
I1031 11:46:20.519058 94382 net.cpp:225] Memory required for data: 30298308
I1031 11:46:20.523882 94382 layer_factory.hpp:114] Creating layer pool2
I1031 11:46:20.525800 94382 net.cpp:160] Creating Layer pool2
I1031 11:46:20.528465 94382 net.cpp:596] pool2 <- drop2
I1031 11:46:20.530867 94382 net.cpp:570] pool2 -> pool2
I1031 11:46:20.533756 94382 net.cpp:210] Setting up pool2
I1031 11:46:20.538375 94382 net.cpp:217] Top shape: 1 128 30 30 (115200)
I1031 11:46:20.549087 94382 net.cpp:225] Memory required for data: 30759108
I1031 11:46:20.554757 94382 layer_factory.hpp:114] Creating layer conv3
I1031 11:46:20.563976 94382 net.cpp:160] Creating Layer conv3
I1031 11:46:20.570336 94382 net.cpp:596] conv3 <- pool2
I1031 11:46:20.574322 94382 net.cpp:570] conv3 -> conv3
I1031 11:46:21.188629 94382 net.cpp:210] Setting up conv3
I1031 11:46:21.195294 94382 net.cpp:217] Top shape: 1 128 28 28 (100352)
I1031 11:46:21.204421 94382 net.cpp:225] Memory required for data: 31160516
I1031 11:46:21.222597 94382 layer_factory.hpp:114] Creating layer relu3
I1031 11:46:21.231721 94382 net.cpp:160] Creating Layer relu3
I1031 11:46:21.236032 94382 net.cpp:596] relu3 <- conv3
I1031 11:46:21.246968 94382 net.cpp:557] relu3 -> conv3 (in-place)
I1031 11:46:21.251333 94382 net.cpp:210] Setting up relu3
I1031 11:46:21.262142 94382 net.cpp:217] Top shape: 1 128 28 28 (100352)
I1031 11:46:21.270017 94382 net.cpp:225] Memory required for data: 31561924
I1031 11:46:21.277510 94382 layer_factory.hpp:114] Creating layer dropout3
I1031 11:46:21.289702 94382 net.cpp:160] Creating Layer dropout3
I1031 11:46:21.294184 94382 net.cpp:596] dropout3 <- conv3
I1031 11:46:21.304986 94382 net.cpp:570] dropout3 -> drop3
I1031 11:46:21.309617 94382 net.cpp:210] Setting up dropout3
I1031 11:46:21.318054 94382 net.cpp:217] Top shape: 1 128 28 28 (100352)
I1031 11:46:21.326679 94382 net.cpp:225] Memory required for data: 31963332
I1031 11:46:21.334784 94382 layer_factory.hpp:114] Creating layer pool3
I1031 11:46:21.341513 94382 net.cpp:160] Creating Layer pool3
I1031 11:46:21.343685 94382 net.cpp:596] pool3 <- drop3
I1031 11:46:21.347723 94382 net.cpp:570] pool3 -> pool3
I1031 11:46:21.350848 94382 net.cpp:210] Setting up pool3
I1031 11:46:21.353174 94382 net.cpp:217] Top shape: 1 128 14 14 (25088)
I1031 11:46:21.359707 94382 net.cpp:225] Memory required for data: 32063684
I1031 11:46:21.370740 94382 layer_factory.hpp:114] Creating layer conv4
I1031 11:46:21.379039 94382 net.cpp:160] Creating Layer conv4
I1031 11:46:21.380672 94382 net.cpp:596] conv4 <- pool3
I1031 11:46:21.389400 94382 net.cpp:570] conv4 -> conv4
I1031 11:46:21.774493 94382 net.cpp:210] Setting up conv4
I1031 11:46:21.779682 94382 net.cpp:217] Top shape: 1 128 12 12 (18432)
I1031 11:46:21.780076 94382 net.cpp:225] Memory required for data: 32137412
I1031 11:46:21.780375 94382 layer_factory.hpp:114] Creating layer relu4
I1031 11:46:21.780653 94382 net.cpp:160] Creating Layer relu4
I1031 11:46:21.780864 94382 net.cpp:596] relu4 <- conv4
I1031 11:46:21.781116 94382 net.cpp:557] relu4 -> conv4 (in-place)
I1031 11:46:21.781574 94382 net.cpp:210] Setting up relu4
I1031 11:46:21.781849 94382 net.cpp:217] Top shape: 1 128 12 12 (18432)
I1031 11:46:21.782093 94382 net.cpp:225] Memory required for data: 32211140
I1031 11:46:21.782295 94382 layer_factory.hpp:114] Creating layer dropout4
I1031 11:46:21.782531 94382 net.cpp:160] Creating Layer dropout4
I1031 11:46:21.782732 94382 net.cpp:596] dropout4 <- conv4
I1031 11:46:21.782980 94382 net.cpp:570] dropout4 -> drop4
I1031 11:46:21.783299 94382 net.cpp:210] Setting up dropout4
I1031 11:46:21.783665 94382 net.cpp:217] Top shape: 1 128 12 12 (18432)
I1031 11:46:21.783931 94382 net.cpp:225] Memory required for data: 32284868
I1031 11:46:21.784137 94382 layer_factory.hpp:114] Creating layer pool4
I1031 11:46:21.784443 94382 net.cpp:160] Creating Layer pool4
I1031 11:46:21.784664 94382 net.cpp:596] pool4 <- drop4
I1031 11:46:21.784904 94382 net.cpp:570] pool4 -> pool4
I1031 11:46:21.798957 94382 net.cpp:210] Setting up pool4
I1031 11:46:21.799322 94382 net.cpp:217] Top shape: 1 128 6 6 (4608)
I1031 11:46:21.801856 94382 net.cpp:225] Memory required for data: 32303300
I1031 11:46:21.802114 94382 layer_factory.hpp:114] Creating layer fc1
I1031 11:46:21.866698 94382 net.cpp:160] Creating Layer fc1
I1031 11:46:21.867043 94382 net.cpp:596] fc1 <- pool4
I1031 11:46:21.867496 94382 net.cpp:570] fc1 -> fc1
I1031 11:46:22.746739 94382 net.cpp:210] Setting up fc1
I1031 11:46:22.749990 94382 net.cpp:217] Top shape: 1 1024 (1024)
I1031 11:46:22.752774 94382 net.cpp:225] Memory required for data: 32307396
I1031 11:46:22.764089 94382 layer_factory.hpp:114] Creating layer dropout5
I1031 11:46:22.774648 94382 net.cpp:160] Creating Layer dropout5
I1031 11:46:22.785574 94382 net.cpp:596] dropout5 <- fc1
I1031 11:46:22.787675 94382 net.cpp:570] dropout5 -> drop5
I1031 11:46:22.792317 94382 net.cpp:210] Setting up dropout5
I1031 11:46:22.794551 94382 net.cpp:217] Top shape: 1 1024 (1024)
I1031 11:46:22.803339 94382 net.cpp:225] Memory required for data: 32311492
I1031 11:46:22.816267 94382 layer_factory.hpp:114] Creating layer fc2
I1031 11:46:22.825119 94382 net.cpp:160] Creating Layer fc2
I1031 11:46:22.833245 94382 net.cpp:596] fc2 <- drop5
I1031 11:46:22.839958 94382 net.cpp:570] fc2 -> fc2
I1031 11:46:22.874837 94382 net.cpp:210] Setting up fc2
I1031 11:46:22.900712 94382 net.cpp:217] Top shape: 1 2 (2)
I1031 11:46:22.915313 94382 net.cpp:225] Memory required for data: 32311500
I1031 11:46:22.923920 94382 layer_factory.hpp:114] Creating layer loss
I1031 11:46:22.956205 94382 net.cpp:160] Creating Layer loss
I1031 11:46:22.967519 94382 net.cpp:596] loss <- fc2
I1031 11:46:22.982341 94382 net.cpp:596] loss <- label
I1031 11:46:23.040838 94382 net.cpp:570] loss -> (automatic)
I1031 11:46:23.083132 94382 layer_factory.hpp:114] Creating layer loss
…
