…
I1031 12:54:33.893867 96932 net.cpp:484] The NetState phase (0) differed from the phase (1) specified by a rule in layer data
I1031 12:54:34.575825 96932 net.cpp:120] Initializing net from parameters: 
name: "HEP_CLASSIFIER"
state {
  phase: TRAIN
  level: 0
  stage: ""
}
layer {
  name: "data"
  type: "DummyData"
  top: "data"
  top: "label"
  include {
    phase: TRAIN
  }
  dummy_data_param {
    data_filler {
      type: "gaussian"
      std: 1
    }
    data_filler {
      type: "constant"
      value: 0
    }
    shape {
      dim: 1
      dim: 3
      dim: 124
      dim: 124
    }
    shape {
      dim: 1
      dim: 1
      dim: 1
      dim: 1
    }
  }
}
layer {
  name: "conv1"
  type: "Convolution"
  bottom: "data"
  top: "conv1"
  convolution_param {
    num_output: 128
    pad: 0
    kernel_size: 3
    stride: 1
    weight_filler {
      type: "msra"
    }
    bias_filler {
      type: "constant"
      value: 0
    }
  }
}
layer {
  name: "relu1"
  type: "ReLU"
  bottom: "conv1"
  top: "conv1"
  relu_param {
    negative_slope: 0.1
  }
}
layer {
  name: "dropout1"
  type: "Dropout"
  bottom: "conv1"
  top: "drop1"
}
layer {
  name: "pool1"
  type: "Pooling"
  bottom: "drop1"
  top: "pool1"
  pooling_param {
    pool: MAX
    kernel_size: 2
    stride: 2
  }
}
layer {
  name: "conv2"
  type: "Convolution"
  bottom: "pool1"
  top: "conv2"
  convolution_param {
    num_output: 128
    pad: 0
    kernel_size: 3
    stride: 1
    weight_filler {
      type: "msra"
    }
    bias_filler {
      type: "constant"
      value: 0
    }
  }
}
layer {
  name: "relu2"
  type: "ReLU"
  bottom: "conv2"
  top: "conv2"
  relu_param {
    negative_slope: 0.1
  }
}
layer {
  name: "dropout2"
  type: "Dropout"
  bottom: "conv2"
  top: "drop2"
}
layer {
  name: "pool2"
  type: "Pooling"
  bottom: "drop2"
  top: "pool2"
  pooling_param {
    pool: MAX
    kernel_size: 2
    stride: 2
  }
}
layer {
  name: "conv3"
  type: "Convolution"
  bottom: "pool2"
  top: "conv3"
  convolution_param {
    num_output: 128
    pad: 0
    kernel_size: 3
    stride: 1
    weight_filler {
      type: "msra"
    }
    bias_filler {
      type: "constant"
      value: 0
    }
  }
}
layer {
  name: "relu3"
  type: "ReLU"
  bottom: "conv3"
  top: "conv3"
  relu_param {
    negative_slope: 0.1
  }
}
layer {
  name: "dropout3"
  type: "Dropout"
  bottom: "conv3"
  top: "drop3"
}
layer {
  name: "pool3"
  type: "Pooling"
  bottom: "drop3"
  top: "pool3"
  pooling_param {
    pool: MAX
    kernel_size: 2
    stride: 2
  }
}
layer {
  name: "conv4"
  type: "Convolution"
  bottom: "pool3"
  top: "conv4"
  convolution_param {
    num_output: 128
    pad: 0
    kernel_size: 3
    stride: 1
    weight_filler {
      type: "msra"
    }
    bias_filler {
      type: "constant"
      value: 0
    }
  }
}
layer {
  name: "relu4"
  type: "ReLU"
  bottom: "conv4"
  top: "conv4"
  relu_param {
    negative_slope: 0.1
  }
}
layer {
  name: "dropout4"
  type: "Dropout"
  bottom: "conv4"
  top: "drop4"
}
layer {
  name: "pool4"
  type: "Pooling"
  bottom: "drop4"
  top: "pool4"
  pooling_param {
    pool: MAX
    kernel_size: 2
    stride: 2
  }
}
layer {
  name: "fc1"
  type: "InnerProduct"
  bottom: "pool4"
  top: "fc1"
  inner_product_param {
    num_output: 1024
    weight_filler {
      type: "msra"
    }
    bias_filler {
      type: "constant"
      value: 0
    }
  }
}
layer {
  name: "dropout5"
  type: "Dropout"
  bottom: "fc1"
  top: "drop5"
}
layer {
  name: "fc2"
  type: "InnerProduct"
  bottom: "drop5"
  top: "fc2"
  inner_product_param {
    num_output: 2
    weight_filler {
      type: "msra"
    }
    bias_filler {
      type: "constant"
      value: 0
    }
  }
}
layer {
  name: "loss"
  type: "SoftmaxWithLoss"
  bottom: "fc2"
  bottom: "label"
}
I1031 12:54:37.000377 96932 layer_factory.hpp:114] Creating layer data
I1031 12:54:37.161368 96932 net.cpp:160] Creating Layer data
I1031 12:54:37.212646 96932 net.cpp:570] data -> data
I1031 12:54:37.709089 96932 net.cpp:570] data -> label
I1031 12:54:45.286192 96932 net.cpp:210] Setting up data
I1031 12:54:45.373564 96932 net.cpp:217] Top shape: 1 3 124 124 (46128)
I1031 12:54:45.480911 96932 net.cpp:217] Top shape: 1 1 1 1 (1)
I1031 12:54:45.488325 96932 net.cpp:225] Memory required for data: 184516
I1031 12:54:45.566931 96932 layer_factory.hpp:114] Creating layer conv1
I1031 12:54:45.918678 96932 net.cpp:160] Creating Layer conv1
I1031 12:54:45.972486 96932 net.cpp:596] conv1 <- data
I1031 12:54:46.098714 96932 net.cpp:570] conv1 -> conv1
I1031 12:55:23.512228 96932 net.cpp:210] Setting up conv1
I1031 12:55:23.581804 96932 net.cpp:217] Top shape: 1 128 122 122 (1905152)
I1031 12:55:23.597920 96932 net.cpp:225] Memory required for data: 7805124
I1031 12:55:23.923473 96932 layer_factory.hpp:114] Creating layer relu1
I1031 12:55:24.058939 96932 net.cpp:160] Creating Layer relu1
I1031 12:55:24.064126 96932 net.cpp:596] relu1 <- conv1
I1031 12:55:24.099231 96932 net.cpp:557] relu1 -> conv1 (in-place)
I1031 12:55:24.314775 96932 net.cpp:210] Setting up relu1
I1031 12:55:24.317423 96932 net.cpp:217] Top shape: 1 128 122 122 (1905152)
I1031 12:55:24.317792 96932 net.cpp:225] Memory required for data: 15425732
I1031 12:55:24.318004 96932 layer_factory.hpp:114] Creating layer dropout1
I1031 12:55:24.351143 96932 net.cpp:160] Creating Layer dropout1
I1031 12:55:24.351516 96932 net.cpp:596] dropout1 <- conv1
I1031 12:55:24.354187 96932 net.cpp:570] dropout1 -> drop1
I1031 12:55:24.470686 96932 net.cpp:210] Setting up dropout1
I1031 12:55:24.484848 96932 net.cpp:217] Top shape: 1 128 122 122 (1905152)
I1031 12:55:24.485265 96932 net.cpp:225] Memory required for data: 23046340
I1031 12:55:24.485647 96932 layer_factory.hpp:114] Creating layer pool1
I1031 12:55:24.591017 96932 net.cpp:160] Creating Layer pool1
I1031 12:55:24.591341 96932 net.cpp:596] pool1 <- drop1
I1031 12:55:24.591743 96932 net.cpp:570] pool1 -> pool1
I1031 12:55:24.999717 96932 net.cpp:210] Setting up pool1
I1031 12:55:25.004621 96932 net.cpp:217] Top shape: 1 128 61 61 (476288)
I1031 12:55:25.005026 96932 net.cpp:225] Memory required for data: 24951492
I1031 12:55:25.005331 96932 layer_factory.hpp:114] Creating layer conv2
I1031 12:55:25.066663 96932 net.cpp:160] Creating Layer conv2
I1031 12:55:25.071066 96932 net.cpp:596] conv2 <- pool1
I1031 12:55:25.086335 96932 net.cpp:570] conv2 -> conv2
I1031 12:55:31.827698 96932 net.cpp:210] Setting up conv2
I1031 12:55:31.828142 96932 net.cpp:217] Top shape: 1 128 59 59 (445568)
I1031 12:55:31.834594 96932 net.cpp:225] Memory required for data: 26733764
I1031 12:55:31.896741 96932 layer_factory.hpp:114] Creating layer relu2
I1031 12:55:31.897797 96932 net.cpp:160] Creating Layer relu2
I1031 12:55:31.898133 96932 net.cpp:596] relu2 <- conv2
I1031 12:55:31.898427 96932 net.cpp:557] relu2 -> conv2 (in-place)
I1031 12:55:31.898921 96932 net.cpp:210] Setting up relu2
I1031 12:55:31.899225 96932 net.cpp:217] Top shape: 1 128 59 59 (445568)
I1031 12:55:31.899554 96932 net.cpp:225] Memory required for data: 28516036
I1031 12:55:31.899776 96932 layer_factory.hpp:114] Creating layer dropout2
I1031 12:55:31.900027 96932 net.cpp:160] Creating Layer dropout2
I1031 12:55:31.900244 96932 net.cpp:596] dropout2 <- conv2
I1031 12:55:31.900593 96932 net.cpp:570] dropout2 -> drop2
I1031 12:55:31.900986 96932 net.cpp:210] Setting up dropout2
I1031 12:55:31.901229 96932 net.cpp:217] Top shape: 1 128 59 59 (445568)
I1031 12:55:31.901481 96932 net.cpp:225] Memory required for data: 30298308
I1031 12:55:31.901705 96932 layer_factory.hpp:114] Creating layer pool2
I1031 12:55:31.902005 96932 net.cpp:160] Creating Layer pool2
I1031 12:55:31.902233 96932 net.cpp:596] pool2 <- drop2
I1031 12:55:31.902480 96932 net.cpp:570] pool2 -> pool2
I1031 12:55:31.902909 96932 net.cpp:210] Setting up pool2
I1031 12:55:31.903167 96932 net.cpp:217] Top shape: 1 128 30 30 (115200)
I1031 12:55:31.903473 96932 net.cpp:225] Memory required for data: 30759108
I1031 12:55:31.903774 96932 layer_factory.hpp:114] Creating layer conv3
I1031 12:55:31.904199 96932 net.cpp:160] Creating Layer conv3
I1031 12:55:31.904443 96932 net.cpp:596] conv3 <- pool2
I1031 12:55:31.904712 96932 net.cpp:570] conv3 -> conv3
I1031 12:55:32.541702 96932 net.cpp:210] Setting up conv3
I1031 12:55:32.550784 96932 net.cpp:217] Top shape: 1 128 28 28 (100352)
I1031 12:55:32.555727 96932 net.cpp:225] Memory required for data: 31160516
I1031 12:55:32.576175 96932 layer_factory.hpp:114] Creating layer relu3
I1031 12:55:32.581790 96932 net.cpp:160] Creating Layer relu3
I1031 12:55:32.587792 96932 net.cpp:596] relu3 <- conv3
I1031 12:55:32.594471 96932 net.cpp:557] relu3 -> conv3 (in-place)
I1031 12:55:32.601441 96932 net.cpp:210] Setting up relu3
I1031 12:55:32.604233 96932 net.cpp:217] Top shape: 1 128 28 28 (100352)
I1031 12:55:32.614768 96932 net.cpp:225] Memory required for data: 31561924
I1031 12:55:32.623710 96932 layer_factory.hpp:114] Creating layer dropout3
I1031 12:55:32.629413 96932 net.cpp:160] Creating Layer dropout3
I1031 12:55:32.632051 96932 net.cpp:596] dropout3 <- conv3
I1031 12:55:32.636442 96932 net.cpp:570] dropout3 -> drop3
I1031 12:55:32.642671 96932 net.cpp:210] Setting up dropout3
I1031 12:55:32.644953 96932 net.cpp:217] Top shape: 1 128 28 28 (100352)
I1031 12:55:32.653291 96932 net.cpp:225] Memory required for data: 31963332
I1031 12:55:32.655843 96932 layer_factory.hpp:114] Creating layer pool3
I1031 12:55:32.666092 96932 net.cpp:160] Creating Layer pool3
I1031 12:55:32.670254 96932 net.cpp:596] pool3 <- drop3
I1031 12:55:32.674862 96932 net.cpp:570] pool3 -> pool3
I1031 12:55:32.681298 96932 net.cpp:210] Setting up pool3
I1031 12:55:32.687875 96932 net.cpp:217] Top shape: 1 128 14 14 (25088)
I1031 12:55:32.693665 96932 net.cpp:225] Memory required for data: 32063684
I1031 12:55:32.698513 96932 layer_factory.hpp:114] Creating layer conv4
I1031 12:55:32.700857 96932 net.cpp:160] Creating Layer conv4
I1031 12:55:32.703616 96932 net.cpp:596] conv4 <- pool3
I1031 12:55:32.710209 96932 net.cpp:570] conv4 -> conv4
I1031 12:55:33.083758 96932 net.cpp:210] Setting up conv4
I1031 12:55:33.090708 96932 net.cpp:217] Top shape: 1 128 12 12 (18432)
I1031 12:55:33.097831 96932 net.cpp:225] Memory required for data: 32137412
I1031 12:55:33.105888 96932 layer_factory.hpp:114] Creating layer relu4
I1031 12:55:33.113312 96932 net.cpp:160] Creating Layer relu4
I1031 12:55:33.123922 96932 net.cpp:596] relu4 <- conv4
I1031 12:55:33.132616 96932 net.cpp:557] relu4 -> conv4 (in-place)
I1031 12:55:33.139024 96932 net.cpp:210] Setting up relu4
I1031 12:55:33.145841 96932 net.cpp:217] Top shape: 1 128 12 12 (18432)
I1031 12:55:33.148257 96932 net.cpp:225] Memory required for data: 32211140
I1031 12:55:33.162955 96932 layer_factory.hpp:114] Creating layer dropout4
I1031 12:55:33.167441 96932 net.cpp:160] Creating Layer dropout4
I1031 12:55:33.174003 96932 net.cpp:596] dropout4 <- conv4
I1031 12:55:33.180512 96932 net.cpp:570] dropout4 -> drop4
I1031 12:55:33.182993 96932 net.cpp:210] Setting up dropout4
I1031 12:55:33.183275 96932 net.cpp:217] Top shape: 1 128 12 12 (18432)
I1031 12:55:33.187816 96932 net.cpp:225] Memory required for data: 32284868
I1031 12:55:33.190326 96932 layer_factory.hpp:114] Creating layer pool4
I1031 12:55:33.194718 96932 net.cpp:160] Creating Layer pool4
I1031 12:55:33.204905 96932 net.cpp:596] pool4 <- drop4
I1031 12:55:33.213412 96932 net.cpp:570] pool4 -> pool4
I1031 12:55:33.230531 96932 net.cpp:210] Setting up pool4
I1031 12:55:33.235258 96932 net.cpp:217] Top shape: 1 128 6 6 (4608)
I1031 12:55:33.247880 96932 net.cpp:225] Memory required for data: 32303300
I1031 12:55:33.254470 96932 layer_factory.hpp:114] Creating layer fc1
I1031 12:55:33.323946 96932 net.cpp:160] Creating Layer fc1
I1031 12:55:33.333082 96932 net.cpp:596] fc1 <- pool4
I1031 12:55:33.343961 96932 net.cpp:570] fc1 -> fc1
I1031 12:55:34.220697 96932 net.cpp:210] Setting up fc1
I1031 12:55:34.221024 96932 net.cpp:217] Top shape: 1 1024 (1024)
I1031 12:55:34.221385 96932 net.cpp:225] Memory required for data: 32307396
I1031 12:55:34.226635 96932 layer_factory.hpp:114] Creating layer dropout5
I1031 12:55:34.227039 96932 net.cpp:160] Creating Layer dropout5
I1031 12:55:34.227273 96932 net.cpp:596] dropout5 <- fc1
I1031 12:55:34.227622 96932 net.cpp:570] dropout5 -> drop5
I1031 12:55:34.228073 96932 net.cpp:210] Setting up dropout5
I1031 12:55:34.228329 96932 net.cpp:217] Top shape: 1 1024 (1024)
I1031 12:55:34.228584 96932 net.cpp:225] Memory required for data: 32311492
I1031 12:55:34.228793 96932 layer_factory.hpp:114] Creating layer fc2
I1031 12:55:34.229095 96932 net.cpp:160] Creating Layer fc2
I1031 12:55:34.229321 96932 net.cpp:596] fc2 <- drop5
I1031 12:55:34.229589 96932 net.cpp:570] fc2 -> fc2
I1031 12:55:34.240972 96932 net.cpp:210] Setting up fc2
I1031 12:55:34.242429 96932 net.cpp:217] Top shape: 1 2 (2)
I1031 12:55:34.244971 96932 net.cpp:225] Memory required for data: 32311500
I1031 12:55:34.245429 96932 layer_factory.hpp:114] Creating layer loss
I1031 12:55:34.274756 96932 net.cpp:160] Creating Layer loss
I1031 12:55:34.275102 96932 net.cpp:596] loss <- fc2
I1031 12:55:34.276114 96932 net.cpp:596] loss <- label
I1031 12:55:34.331701 96932 net.cpp:570] loss -> (automatic)
I1031 12:55:34.376368 96932 layer_factory.hpp:114] Creating layer loss
…
