…
I1031 13:57:08.871001 99233 net.cpp:484] The NetState phase (0) differed from the phase (1) specified by a rule in layer data
I1031 13:57:09.571837 99233 net.cpp:120] Initializing net from parameters: 
name: "HEP_CLASSIFIER"
state {
  phase: TRAIN
  level: 0
  stage: ""
}
layer {
  name: "data"
  type: "DummyData"
  top: "data"
  top: "label"
  include {
    phase: TRAIN
  }
  dummy_data_param {
    data_filler {
      type: "gaussian"
      std: 1
    }
    data_filler {
      type: "constant"
      value: 0
    }
    shape {
      dim: 1
      dim: 3
      dim: 124
      dim: 124
    }
    shape {
      dim: 1
      dim: 1
      dim: 1
      dim: 1
    }
  }
}
layer {
  name: "conv1"
  type: "Convolution"
  bottom: "data"
  top: "conv1"
  convolution_param {
    num_output: 128
    pad: 0
    kernel_size: 3
    stride: 1
    weight_filler {
      type: "msra"
    }
    bias_filler {
      type: "constant"
      value: 0
    }
  }
}
layer {
  name: "relu1"
  type: "ReLU"
  bottom: "conv1"
  top: "conv1"
  relu_param {
    negative_slope: 0.1
  }
}
layer {
  name: "dropout1"
  type: "Dropout"
  bottom: "conv1"
  top: "drop1"
}
layer {
  name: "pool1"
  type: "Pooling"
  bottom: "drop1"
  top: "pool1"
  pooling_param {
    pool: MAX
    kernel_size: 2
    stride: 2
  }
}
layer {
  name: "conv2"
  type: "Convolution"
  bottom: "pool1"
  top: "conv2"
  convolution_param {
    num_output: 128
    pad: 0
    kernel_size: 3
    stride: 1
    weight_filler {
      type: "msra"
    }
    bias_filler {
      type: "constant"
      value: 0
    }
  }
}
layer {
  name: "relu2"
  type: "ReLU"
  bottom: "conv2"
  top: "conv2"
  relu_param {
    negative_slope: 0.1
  }
}
layer {
  name: "dropout2"
  type: "Dropout"
  bottom: "conv2"
  top: "drop2"
}
layer {
  name: "pool2"
  type: "Pooling"
  bottom: "drop2"
  top: "pool2"
  pooling_param {
    pool: MAX
    kernel_size: 2
    stride: 2
  }
}
layer {
  name: "conv3"
  type: "Convolution"
  bottom: "pool2"
  top: "conv3"
  convolution_param {
    num_output: 128
    pad: 0
    kernel_size: 3
    stride: 1
    weight_filler {
      type: "msra"
    }
    bias_filler {
      type: "constant"
      value: 0
    }
  }
}
layer {
  name: "relu3"
  type: "ReLU"
  bottom: "conv3"
  top: "conv3"
  relu_param {
    negative_slope: 0.1
  }
}
layer {
  name: "dropout3"
  type: "Dropout"
  bottom: "conv3"
  top: "drop3"
}
layer {
  name: "pool3"
  type: "Pooling"
  bottom: "drop3"
  top: "pool3"
  pooling_param {
    pool: MAX
    kernel_size: 2
    stride: 2
  }
}
layer {
  name: "conv4"
  type: "Convolution"
  bottom: "pool3"
  top: "conv4"
  convolution_param {
    num_output: 128
    pad: 0
    kernel_size: 3
    stride: 1
    weight_filler {
      type: "msra"
    }
    bias_filler {
      type: "constant"
      value: 0
    }
  }
}
layer {
  name: "relu4"
  type: "ReLU"
  bottom: "conv4"
  top: "conv4"
  relu_param {
    negative_slope: 0.1
  }
}
layer {
  name: "dropout4"
  type: "Dropout"
  bottom: "conv4"
  top: "drop4"
}
layer {
  name: "pool4"
  type: "Pooling"
  bottom: "drop4"
  top: "pool4"
  pooling_param {
    pool: MAX
    kernel_size: 2
    stride: 2
  }
}
layer {
  name: "fc1"
  type: "InnerProduct"
  bottom: "pool4"
  top: "fc1"
  inner_product_param {
    num_output: 1024
    weight_filler {
      type: "msra"
    }
    bias_filler {
      type: "constant"
      value: 0
    }
  }
}
layer {
  name: "dropout5"
  type: "Dropout"
  bottom: "fc1"
  top: "drop5"
}
layer {
  name: "fc2"
  type: "InnerProduct"
  bottom: "drop5"
  top: "fc2"
  inner_product_param {
    num_output: 2
    weight_filler {
      type: "msra"
    }
    bias_filler {
      type: "constant"
      value: 0
    }
  }
}
layer {
  name: "loss"
  type: "SoftmaxWithLoss"
  bottom: "fc2"
  bottom: "label"
}
I1031 13:57:11.985975 99233 layer_factory.hpp:114] Creating layer data
I1031 13:57:12.143029 99233 net.cpp:160] Creating Layer data
I1031 13:57:12.193861 99233 net.cpp:570] data -> data
I1031 13:57:12.712703 99233 net.cpp:570] data -> label
I1031 13:57:20.188910 99233 net.cpp:210] Setting up data
I1031 13:57:20.272805 99233 net.cpp:217] Top shape: 1 3 124 124 (46128)
I1031 13:57:20.381474 99233 net.cpp:217] Top shape: 1 1 1 1 (1)
I1031 13:57:20.389163 99233 net.cpp:225] Memory required for data: 184516
I1031 13:57:20.471516 99233 layer_factory.hpp:114] Creating layer conv1
I1031 13:57:20.820133 99233 net.cpp:160] Creating Layer conv1
I1031 13:57:20.873421 99233 net.cpp:596] conv1 <- data
I1031 13:57:21.000046 99233 net.cpp:570] conv1 -> conv1
I1031 13:57:58.209913 99233 net.cpp:210] Setting up conv1
I1031 13:57:58.280748 99233 net.cpp:217] Top shape: 1 128 122 122 (1905152)
I1031 13:57:58.308287 99233 net.cpp:225] Memory required for data: 7805124
I1031 13:57:58.625082 99233 layer_factory.hpp:114] Creating layer relu1
I1031 13:57:58.766584 99233 net.cpp:160] Creating Layer relu1
I1031 13:57:58.771831 99233 net.cpp:596] relu1 <- conv1
I1031 13:57:58.806788 99233 net.cpp:557] relu1 -> conv1 (in-place)
I1031 13:57:59.019496 99233 net.cpp:210] Setting up relu1
I1031 13:57:59.022104 99233 net.cpp:217] Top shape: 1 128 122 122 (1905152)
I1031 13:57:59.022464 99233 net.cpp:225] Memory required for data: 15425732
I1031 13:57:59.022680 99233 layer_factory.hpp:114] Creating layer dropout1
I1031 13:57:59.054901 99233 net.cpp:160] Creating Layer dropout1
I1031 13:57:59.055238 99233 net.cpp:596] dropout1 <- conv1
I1031 13:57:59.058085 99233 net.cpp:570] dropout1 -> drop1
I1031 13:57:59.168824 99233 net.cpp:210] Setting up dropout1
I1031 13:57:59.182209 99233 net.cpp:217] Top shape: 1 128 122 122 (1905152)
I1031 13:57:59.182602 99233 net.cpp:225] Memory required for data: 23046340
I1031 13:57:59.182936 99233 layer_factory.hpp:114] Creating layer pool1
I1031 13:57:59.282743 99233 net.cpp:160] Creating Layer pool1
I1031 13:57:59.283550 99233 net.cpp:596] pool1 <- drop1
I1031 13:57:59.283984 99233 net.cpp:570] pool1 -> pool1
I1031 13:57:59.694721 99233 net.cpp:210] Setting up pool1
I1031 13:57:59.703583 99233 net.cpp:217] Top shape: 1 128 61 61 (476288)
I1031 13:57:59.704105 99233 net.cpp:225] Memory required for data: 24951492
I1031 13:57:59.704433 99233 layer_factory.hpp:114] Creating layer conv2
I1031 13:57:59.766788 99233 net.cpp:160] Creating Layer conv2
I1031 13:57:59.771226 99233 net.cpp:596] conv2 <- pool1
I1031 13:57:59.786653 99233 net.cpp:570] conv2 -> conv2
I1031 13:58:06.538249 99233 net.cpp:210] Setting up conv2
I1031 13:58:06.551107 99233 net.cpp:217] Top shape: 1 128 59 59 (445568)
I1031 13:58:06.560472 99233 net.cpp:225] Memory required for data: 26733764
I1031 13:58:06.621793 99233 layer_factory.hpp:114] Creating layer relu2
I1031 13:58:06.634021 99233 net.cpp:160] Creating Layer relu2
I1031 13:58:06.636690 99233 net.cpp:596] relu2 <- conv2
I1031 13:58:06.641541 99233 net.cpp:557] relu2 -> conv2 (in-place)
I1031 13:58:06.651084 99233 net.cpp:210] Setting up relu2
I1031 13:58:06.657454 99233 net.cpp:217] Top shape: 1 128 59 59 (445568)
I1031 13:58:06.669987 99233 net.cpp:225] Memory required for data: 28516036
I1031 13:58:06.678416 99233 layer_factory.hpp:114] Creating layer dropout2
I1031 13:58:06.685437 99233 net.cpp:160] Creating Layer dropout2
I1031 13:58:06.691851 99233 net.cpp:596] dropout2 <- conv2
I1031 13:58:06.698366 99233 net.cpp:570] dropout2 -> drop2
I1031 13:58:06.706786 99233 net.cpp:210] Setting up dropout2
I1031 13:58:06.709282 99233 net.cpp:217] Top shape: 1 128 59 59 (445568)
I1031 13:58:06.725581 99233 net.cpp:225] Memory required for data: 30298308
I1031 13:58:06.733906 99233 layer_factory.hpp:114] Creating layer pool2
I1031 13:58:06.735819 99233 net.cpp:160] Creating Layer pool2
I1031 13:58:06.740998 99233 net.cpp:596] pool2 <- drop2
I1031 13:58:06.753157 99233 net.cpp:570] pool2 -> pool2
I1031 13:58:06.757655 99233 net.cpp:210] Setting up pool2
I1031 13:58:06.770148 99233 net.cpp:217] Top shape: 1 128 30 30 (115200)
I1031 13:58:06.778131 99233 net.cpp:225] Memory required for data: 30759108
I1031 13:58:06.787154 99233 layer_factory.hpp:114] Creating layer conv3
I1031 13:58:06.793824 99233 net.cpp:160] Creating Layer conv3
I1031 13:58:06.798185 99233 net.cpp:596] conv3 <- pool2
I1031 13:58:06.806520 99233 net.cpp:570] conv3 -> conv3
I1031 13:58:07.380928 99233 net.cpp:210] Setting up conv3
I1031 13:58:07.393244 99233 net.cpp:217] Top shape: 1 128 28 28 (100352)
I1031 13:58:07.396121 99233 net.cpp:225] Memory required for data: 31160516
I1031 13:58:07.421741 99233 layer_factory.hpp:114] Creating layer relu3
I1031 13:58:07.432166 99233 net.cpp:160] Creating Layer relu3
I1031 13:58:07.436550 99233 net.cpp:596] relu3 <- conv3
I1031 13:58:07.444676 99233 net.cpp:557] relu3 -> conv3 (in-place)
I1031 13:58:07.447327 99233 net.cpp:210] Setting up relu3
I1031 13:58:07.460239 99233 net.cpp:217] Top shape: 1 128 28 28 (100352)
I1031 13:58:07.464691 99233 net.cpp:225] Memory required for data: 31561924
I1031 13:58:07.469377 99233 layer_factory.hpp:114] Creating layer dropout3
I1031 13:58:07.476016 99233 net.cpp:160] Creating Layer dropout3
I1031 13:58:07.484220 99233 net.cpp:596] dropout3 <- conv3
I1031 13:58:07.490794 99233 net.cpp:570] dropout3 -> drop3
I1031 13:58:07.501353 99233 net.cpp:210] Setting up dropout3
I1031 13:58:07.501718 99233 net.cpp:217] Top shape: 1 128 28 28 (100352)
I1031 13:58:07.512339 99233 net.cpp:225] Memory required for data: 31963332
I1031 13:58:07.520414 99233 layer_factory.hpp:114] Creating layer pool3
I1031 13:58:07.534765 99233 net.cpp:160] Creating Layer pool3
I1031 13:58:07.535140 99233 net.cpp:596] pool3 <- drop3
I1031 13:58:07.545662 99233 net.cpp:570] pool3 -> pool3
I1031 13:58:07.552552 99233 net.cpp:210] Setting up pool3
I1031 13:58:07.558954 99233 net.cpp:217] Top shape: 1 128 14 14 (25088)
I1031 13:58:07.561544 99233 net.cpp:225] Memory required for data: 32063684
I1031 13:58:07.566051 99233 layer_factory.hpp:114] Creating layer conv4
I1031 13:58:07.570339 99233 net.cpp:160] Creating Layer conv4
I1031 13:58:07.582294 99233 net.cpp:596] conv4 <- pool3
I1031 13:58:07.586977 99233 net.cpp:570] conv4 -> conv4
I1031 13:58:07.927636 99233 net.cpp:210] Setting up conv4
I1031 13:58:07.927928 99233 net.cpp:217] Top shape: 1 128 12 12 (18432)
I1031 13:58:07.928290 99233 net.cpp:225] Memory required for data: 32137412
I1031 13:58:07.928611 99233 layer_factory.hpp:114] Creating layer relu4
I1031 13:58:07.928894 99233 net.cpp:160] Creating Layer relu4
I1031 13:58:07.929110 99233 net.cpp:596] relu4 <- conv4
I1031 13:58:07.929363 99233 net.cpp:557] relu4 -> conv4 (in-place)
I1031 13:58:07.929816 99233 net.cpp:210] Setting up relu4
I1031 13:58:07.930085 99233 net.cpp:217] Top shape: 1 128 12 12 (18432)
I1031 13:58:07.930331 99233 net.cpp:225] Memory required for data: 32211140
I1031 13:58:07.930536 99233 layer_factory.hpp:114] Creating layer dropout4
I1031 13:58:07.930773 99233 net.cpp:160] Creating Layer dropout4
I1031 13:58:07.930975 99233 net.cpp:596] dropout4 <- conv4
I1031 13:58:07.931263 99233 net.cpp:570] dropout4 -> drop4
I1031 13:58:07.931715 99233 net.cpp:210] Setting up dropout4
I1031 13:58:07.931957 99233 net.cpp:217] Top shape: 1 128 12 12 (18432)
I1031 13:58:07.940431 99233 net.cpp:225] Memory required for data: 32284868
I1031 13:58:07.946997 99233 layer_factory.hpp:114] Creating layer pool4
I1031 13:58:07.951496 99233 net.cpp:160] Creating Layer pool4
I1031 13:58:07.955695 99233 net.cpp:596] pool4 <- drop4
I1031 13:58:07.960115 99233 net.cpp:570] pool4 -> pool4
I1031 13:58:07.986196 99233 net.cpp:210] Setting up pool4
I1031 13:58:07.994966 99233 net.cpp:217] Top shape: 1 128 6 6 (4608)
I1031 13:58:08.003624 99233 net.cpp:225] Memory required for data: 32303300
I1031 13:58:08.008038 99233 layer_factory.hpp:114] Creating layer fc1
I1031 13:58:08.073714 99233 net.cpp:160] Creating Layer fc1
I1031 13:58:08.081795 99233 net.cpp:596] fc1 <- pool4
I1031 13:58:08.086621 99233 net.cpp:570] fc1 -> fc1
I1031 13:58:08.997041 99233 net.cpp:210] Setting up fc1
I1031 13:58:09.005662 99233 net.cpp:217] Top shape: 1 1024 (1024)
I1031 13:58:09.007695 99233 net.cpp:225] Memory required for data: 32307396
I1031 13:58:09.019647 99233 layer_factory.hpp:114] Creating layer dropout5
I1031 13:58:09.024158 99233 net.cpp:160] Creating Layer dropout5
I1031 13:58:09.024510 99233 net.cpp:596] dropout5 <- fc1
I1031 13:58:09.029050 99233 net.cpp:570] dropout5 -> drop5
I1031 13:58:09.033316 99233 net.cpp:210] Setting up dropout5
I1031 13:58:09.035620 99233 net.cpp:217] Top shape: 1 1024 (1024)
I1031 13:58:09.039871 99233 net.cpp:225] Memory required for data: 32311492
I1031 13:58:09.042307 99233 layer_factory.hpp:114] Creating layer fc2
I1031 13:58:09.050612 99233 net.cpp:160] Creating Layer fc2
I1031 13:58:09.052989 99233 net.cpp:596] fc2 <- drop5
I1031 13:58:09.055850 99233 net.cpp:570] fc2 -> fc2
I1031 13:58:09.095029 99233 net.cpp:210] Setting up fc2
I1031 13:58:09.108947 99233 net.cpp:217] Top shape: 1 2 (2)
I1031 13:58:09.119258 99233 net.cpp:225] Memory required for data: 32311500
I1031 13:58:09.123667 99233 layer_factory.hpp:114] Creating layer loss
I1031 13:58:09.154767 99233 net.cpp:160] Creating Layer loss
I1031 13:58:09.157333 99233 net.cpp:596] loss <- fc2
I1031 13:58:09.179443 99233 net.cpp:596] loss <- label
I1031 13:58:09.239850 99233 net.cpp:570] loss -> (automatic)
I1031 13:58:09.290808 99233 layer_factory.hpp:114] Creating layer loss
…
