…
I1031 13:37:33.856840 98438 net.cpp:484] The NetState phase (0) differed from the phase (1) specified by a rule in layer data
I1031 13:37:34.555526 98438 net.cpp:120] Initializing net from parameters: 
name: "HEP_CLASSIFIER"
state {
  phase: TRAIN
  level: 0
  stage: ""
}
layer {
  name: "data"
  type: "DummyData"
  top: "data"
  top: "label"
  include {
    phase: TRAIN
  }
  dummy_data_param {
    data_filler {
      type: "gaussian"
      std: 1
    }
    data_filler {
      type: "constant"
      value: 0
    }
    shape {
      dim: 1
      dim: 3
      dim: 124
      dim: 124
    }
    shape {
      dim: 1
      dim: 1
      dim: 1
      dim: 1
    }
  }
}
layer {
  name: "conv1"
  type: "Convolution"
  bottom: "data"
  top: "conv1"
  convolution_param {
    num_output: 128
    pad: 0
    kernel_size: 3
    stride: 1
    weight_filler {
      type: "msra"
    }
    bias_filler {
      type: "constant"
      value: 0
    }
  }
}
layer {
  name: "relu1"
  type: "ReLU"
  bottom: "conv1"
  top: "conv1"
  relu_param {
    negative_slope: 0.1
  }
}
layer {
  name: "dropout1"
  type: "Dropout"
  bottom: "conv1"
  top: "drop1"
}
layer {
  name: "pool1"
  type: "Pooling"
  bottom: "drop1"
  top: "pool1"
  pooling_param {
    pool: MAX
    kernel_size: 2
    stride: 2
  }
}
layer {
  name: "conv2"
  type: "Convolution"
  bottom: "pool1"
  top: "conv2"
  convolution_param {
    num_output: 128
    pad: 0
    kernel_size: 3
    stride: 1
    weight_filler {
      type: "msra"
    }
    bias_filler {
      type: "constant"
      value: 0
    }
  }
}
layer {
  name: "relu2"
  type: "ReLU"
  bottom: "conv2"
  top: "conv2"
  relu_param {
    negative_slope: 0.1
  }
}
layer {
  name: "dropout2"
  type: "Dropout"
  bottom: "conv2"
  top: "drop2"
}
layer {
  name: "pool2"
  type: "Pooling"
  bottom: "drop2"
  top: "pool2"
  pooling_param {
    pool: MAX
    kernel_size: 2
    stride: 2
  }
}
layer {
  name: "conv3"
  type: "Convolution"
  bottom: "pool2"
  top: "conv3"
  convolution_param {
    num_output: 128
    pad: 0
    kernel_size: 3
    stride: 1
    weight_filler {
      type: "msra"
    }
    bias_filler {
      type: "constant"
      value: 0
    }
  }
}
layer {
  name: "relu3"
  type: "ReLU"
  bottom: "conv3"
  top: "conv3"
  relu_param {
    negative_slope: 0.1
  }
}
layer {
  name: "dropout3"
  type: "Dropout"
  bottom: "conv3"
  top: "drop3"
}
layer {
  name: "pool3"
  type: "Pooling"
  bottom: "drop3"
  top: "pool3"
  pooling_param {
    pool: MAX
    kernel_size: 2
    stride: 2
  }
}
layer {
  name: "conv4"
  type: "Convolution"
  bottom: "pool3"
  top: "conv4"
  convolution_param {
    num_output: 128
    pad: 0
    kernel_size: 3
    stride: 1
    weight_filler {
      type: "msra"
    }
    bias_filler {
      type: "constant"
      value: 0
    }
  }
}
layer {
  name: "relu4"
  type: "ReLU"
  bottom: "conv4"
  top: "conv4"
  relu_param {
    negative_slope: 0.1
  }
}
layer {
  name: "dropout4"
  type: "Dropout"
  bottom: "conv4"
  top: "drop4"
}
layer {
  name: "pool4"
  type: "Pooling"
  bottom: "drop4"
  top: "pool4"
  pooling_param {
    pool: MAX
    kernel_size: 2
    stride: 2
  }
}
layer {
  name: "fc1"
  type: "InnerProduct"
  bottom: "pool4"
  top: "fc1"
  inner_product_param {
    num_output: 1024
    weight_filler {
      type: "msra"
    }
    bias_filler {
      type: "constant"
      value: 0
    }
  }
}
layer {
  name: "dropout5"
  type: "Dropout"
  bottom: "fc1"
  top: "drop5"
}
layer {
  name: "fc2"
  type: "InnerProduct"
  bottom: "drop5"
  top: "fc2"
  inner_product_param {
    num_output: 2
    weight_filler {
      type: "msra"
    }
    bias_filler {
      type: "constant"
      value: 0
    }
  }
}
layer {
  name: "loss"
  type: "SoftmaxWithLoss"
  bottom: "fc2"
  bottom: "label"
}
I1031 13:37:36.990612 98438 layer_factory.hpp:114] Creating layer data
I1031 13:37:37.149422 98438 net.cpp:160] Creating Layer data
I1031 13:37:37.201063 98438 net.cpp:570] data -> data
I1031 13:37:37.697278 98438 net.cpp:570] data -> label
I1031 13:37:45.174379 98438 net.cpp:210] Setting up data
I1031 13:37:45.259013 98438 net.cpp:217] Top shape: 1 3 124 124 (46128)
I1031 13:37:45.366094 98438 net.cpp:217] Top shape: 1 1 1 1 (1)
I1031 13:37:45.373570 98438 net.cpp:225] Memory required for data: 184516
I1031 13:37:45.452693 98438 layer_factory.hpp:114] Creating layer conv1
I1031 13:37:45.802006 98438 net.cpp:160] Creating Layer conv1
I1031 13:37:45.855242 98438 net.cpp:596] conv1 <- data
I1031 13:37:45.982847 98438 net.cpp:570] conv1 -> conv1
I1031 13:38:23.296558 98438 net.cpp:210] Setting up conv1
I1031 13:38:23.447178 98438 net.cpp:217] Top shape: 1 128 122 122 (1905152)
I1031 13:38:23.451051 98438 net.cpp:225] Memory required for data: 7805124
I1031 13:38:23.761224 98438 layer_factory.hpp:114] Creating layer relu1
I1031 13:38:23.891505 98438 net.cpp:160] Creating Layer relu1
I1031 13:38:23.896548 98438 net.cpp:596] relu1 <- conv1
I1031 13:38:23.933480 98438 net.cpp:557] relu1 -> conv1 (in-place)
I1031 13:38:24.147526 98438 net.cpp:210] Setting up relu1
I1031 13:38:24.150506 98438 net.cpp:217] Top shape: 1 128 122 122 (1905152)
I1031 13:38:24.150897 98438 net.cpp:225] Memory required for data: 15425732
I1031 13:38:24.151114 98438 layer_factory.hpp:114] Creating layer dropout1
I1031 13:38:24.184367 98438 net.cpp:160] Creating Layer dropout1
I1031 13:38:24.184710 98438 net.cpp:596] dropout1 <- conv1
I1031 13:38:24.187544 98438 net.cpp:570] dropout1 -> drop1
I1031 13:38:24.298671 98438 net.cpp:210] Setting up dropout1
I1031 13:38:24.312191 98438 net.cpp:217] Top shape: 1 128 122 122 (1905152)
I1031 13:38:24.312585 98438 net.cpp:225] Memory required for data: 23046340
I1031 13:38:24.312921 98438 layer_factory.hpp:114] Creating layer pool1
I1031 13:38:24.416957 98438 net.cpp:160] Creating Layer pool1
I1031 13:38:24.417417 98438 net.cpp:596] pool1 <- drop1
I1031 13:38:24.417770 98438 net.cpp:570] pool1 -> pool1
I1031 13:38:24.830359 98438 net.cpp:210] Setting up pool1
I1031 13:38:24.835409 98438 net.cpp:217] Top shape: 1 128 61 61 (476288)
I1031 13:38:24.835837 98438 net.cpp:225] Memory required for data: 24951492
I1031 13:38:24.836148 98438 layer_factory.hpp:114] Creating layer conv2
I1031 13:38:24.897893 98438 net.cpp:160] Creating Layer conv2
I1031 13:38:24.902400 98438 net.cpp:596] conv2 <- pool1
I1031 13:38:24.917714 98438 net.cpp:570] conv2 -> conv2
I1031 13:38:31.817569 98438 net.cpp:210] Setting up conv2
I1031 13:38:31.825975 98438 net.cpp:217] Top shape: 1 128 59 59 (445568)
I1031 13:38:31.833751 98438 net.cpp:225] Memory required for data: 26733764
I1031 13:38:31.913141 98438 layer_factory.hpp:114] Creating layer relu2
I1031 13:38:31.930436 98438 net.cpp:160] Creating Layer relu2
I1031 13:38:31.938814 98438 net.cpp:596] relu2 <- conv2
I1031 13:38:31.943334 98438 net.cpp:557] relu2 -> conv2 (in-place)
I1031 13:38:31.949767 98438 net.cpp:210] Setting up relu2
I1031 13:38:31.958508 98438 net.cpp:217] Top shape: 1 128 59 59 (445568)
I1031 13:38:31.964587 98438 net.cpp:225] Memory required for data: 28516036
I1031 13:38:31.973075 98438 layer_factory.hpp:114] Creating layer dropout2
I1031 13:38:31.977469 98438 net.cpp:160] Creating Layer dropout2
I1031 13:38:31.994335 98438 net.cpp:596] dropout2 <- conv2
I1031 13:38:31.997056 98438 net.cpp:570] dropout2 -> drop2
I1031 13:38:32.001719 98438 net.cpp:210] Setting up dropout2
I1031 13:38:32.006711 98438 net.cpp:217] Top shape: 1 128 59 59 (445568)
I1031 13:38:32.009321 98438 net.cpp:225] Memory required for data: 30298308
I1031 13:38:32.011770 98438 layer_factory.hpp:114] Creating layer pool2
I1031 13:38:32.017765 98438 net.cpp:160] Creating Layer pool2
I1031 13:38:32.020797 98438 net.cpp:596] pool2 <- drop2
I1031 13:38:32.027470 98438 net.cpp:570] pool2 -> pool2
I1031 13:38:32.036612 98438 net.cpp:210] Setting up pool2
I1031 13:38:32.040978 98438 net.cpp:217] Top shape: 1 128 30 30 (115200)
I1031 13:38:32.041399 98438 net.cpp:225] Memory required for data: 30759108
I1031 13:38:32.046165 98438 layer_factory.hpp:114] Creating layer conv3
I1031 13:38:32.048498 98438 net.cpp:160] Creating Layer conv3
I1031 13:38:32.056871 98438 net.cpp:596] conv3 <- pool2
I1031 13:38:32.061421 98438 net.cpp:570] conv3 -> conv3
I1031 13:38:32.700624 98438 net.cpp:210] Setting up conv3
I1031 13:38:32.713356 98438 net.cpp:217] Top shape: 1 128 28 28 (100352)
I1031 13:38:32.721854 98438 net.cpp:225] Memory required for data: 31160516
I1031 13:38:32.740030 98438 layer_factory.hpp:114] Creating layer relu3
I1031 13:38:32.744597 98438 net.cpp:160] Creating Layer relu3
I1031 13:38:32.753005 98438 net.cpp:596] relu3 <- conv3
I1031 13:38:32.761498 98438 net.cpp:557] relu3 -> conv3 (in-place)
I1031 13:38:32.770068 98438 net.cpp:210] Setting up relu3
I1031 13:38:32.776137 98438 net.cpp:217] Top shape: 1 128 28 28 (100352)
I1031 13:38:32.782598 98438 net.cpp:225] Memory required for data: 31561924
I1031 13:38:32.790280 98438 layer_factory.hpp:114] Creating layer dropout3
I1031 13:38:32.798804 98438 net.cpp:160] Creating Layer dropout3
I1031 13:38:32.806991 98438 net.cpp:596] dropout3 <- conv3
I1031 13:38:32.811529 98438 net.cpp:570] dropout3 -> drop3
I1031 13:38:32.815541 98438 net.cpp:210] Setting up dropout3
I1031 13:38:32.820675 98438 net.cpp:217] Top shape: 1 128 28 28 (100352)
I1031 13:38:32.827131 98438 net.cpp:225] Memory required for data: 31963332
I1031 13:38:32.835568 98438 layer_factory.hpp:114] Creating layer pool3
I1031 13:38:32.842116 98438 net.cpp:160] Creating Layer pool3
I1031 13:38:32.844694 98438 net.cpp:596] pool3 <- drop3
I1031 13:38:32.849095 98438 net.cpp:570] pool3 -> pool3
I1031 13:38:32.891466 98438 net.cpp:210] Setting up pool3
I1031 13:38:32.901751 98438 net.cpp:217] Top shape: 1 128 14 14 (25088)
I1031 13:38:32.906584 98438 net.cpp:225] Memory required for data: 32063684
I1031 13:38:32.912598 98438 layer_factory.hpp:114] Creating layer conv4
I1031 13:38:32.915932 98438 net.cpp:160] Creating Layer conv4
I1031 13:38:32.920024 98438 net.cpp:596] conv4 <- pool3
I1031 13:38:32.925153 98438 net.cpp:570] conv4 -> conv4
I1031 13:38:33.281740 98438 net.cpp:210] Setting up conv4
I1031 13:38:33.293925 98438 net.cpp:217] Top shape: 1 128 12 12 (18432)
I1031 13:38:33.302289 98438 net.cpp:225] Memory required for data: 32137412
I1031 13:38:33.308945 98438 layer_factory.hpp:114] Creating layer relu4
I1031 13:38:33.315348 98438 net.cpp:160] Creating Layer relu4
I1031 13:38:33.319916 98438 net.cpp:596] relu4 <- conv4
I1031 13:38:33.328584 98438 net.cpp:557] relu4 -> conv4 (in-place)
I1031 13:38:33.341373 98438 net.cpp:210] Setting up relu4
I1031 13:38:33.347795 98438 net.cpp:217] Top shape: 1 128 12 12 (18432)
I1031 13:38:33.356329 98438 net.cpp:225] Memory required for data: 32211140
I1031 13:38:33.362795 98438 layer_factory.hpp:114] Creating layer dropout4
I1031 13:38:33.366813 98438 net.cpp:160] Creating Layer dropout4
I1031 13:38:33.376288 98438 net.cpp:596] dropout4 <- conv4
I1031 13:38:33.386857 98438 net.cpp:570] dropout4 -> drop4
I1031 13:38:33.391252 98438 net.cpp:210] Setting up dropout4
I1031 13:38:33.393026 98438 net.cpp:217] Top shape: 1 128 12 12 (18432)
I1031 13:38:33.398363 98438 net.cpp:225] Memory required for data: 32284868
I1031 13:38:33.410342 98438 layer_factory.hpp:114] Creating layer pool4
I1031 13:38:33.422965 98438 net.cpp:160] Creating Layer pool4
I1031 13:38:33.429421 98438 net.cpp:596] pool4 <- drop4
I1031 13:38:33.433609 98438 net.cpp:570] pool4 -> pool4
I1031 13:38:33.456689 98438 net.cpp:210] Setting up pool4
I1031 13:38:33.465078 98438 net.cpp:217] Top shape: 1 128 6 6 (4608)
I1031 13:38:33.477327 98438 net.cpp:225] Memory required for data: 32303300
I1031 13:38:33.487830 98438 layer_factory.hpp:114] Creating layer fc1
I1031 13:38:33.558012 98438 net.cpp:160] Creating Layer fc1
I1031 13:38:33.560634 98438 net.cpp:596] fc1 <- pool4
I1031 13:38:33.566110 98438 net.cpp:570] fc1 -> fc1
I1031 13:38:34.381543 98438 net.cpp:210] Setting up fc1
I1031 13:38:34.386332 98438 net.cpp:217] Top shape: 1 1024 (1024)
I1031 13:38:34.399581 98438 net.cpp:225] Memory required for data: 32307396
I1031 13:38:34.417733 98438 layer_factory.hpp:114] Creating layer dropout5
I1031 13:38:34.430166 98438 net.cpp:160] Creating Layer dropout5
I1031 13:38:34.436022 98438 net.cpp:596] dropout5 <- fc1
I1031 13:38:34.446743 98438 net.cpp:570] dropout5 -> drop5
I1031 13:38:34.455258 98438 net.cpp:210] Setting up dropout5
I1031 13:38:34.463791 98438 net.cpp:217] Top shape: 1 1024 (1024)
I1031 13:38:34.472584 98438 net.cpp:225] Memory required for data: 32311492
I1031 13:38:34.479085 98438 layer_factory.hpp:114] Creating layer fc2
I1031 13:38:34.485708 98438 net.cpp:160] Creating Layer fc2
I1031 13:38:34.492167 98438 net.cpp:596] fc2 <- drop5
I1031 13:38:34.496316 98438 net.cpp:570] fc2 -> fc2
I1031 13:38:34.543920 98438 net.cpp:210] Setting up fc2
I1031 13:38:34.555320 98438 net.cpp:217] Top shape: 1 2 (2)
I1031 13:38:34.567953 98438 net.cpp:225] Memory required for data: 32311500
I1031 13:38:34.574479 98438 layer_factory.hpp:114] Creating layer loss
I1031 13:38:34.602843 98438 net.cpp:160] Creating Layer loss
I1031 13:38:34.607421 98438 net.cpp:596] loss <- fc2
I1031 13:38:34.616160 98438 net.cpp:596] loss <- label
I1031 13:38:34.676017 98438 net.cpp:570] loss -> (automatic)
I1031 13:38:34.724673 98438 layer_factory.hpp:114] Creating layer loss
…
