…
I1031 14:57:22.429549 101376 net.cpp:484] The NetState phase (0) differed from the phase (1) specified by a rule in layer data
I1031 14:57:23.119979 101376 net.cpp:120] Initializing net from parameters: 
name: "HEP_CLASSIFIER"
state {
  phase: TRAIN
  level: 0
  stage: ""
}
layer {
  name: "data"
  type: "DummyData"
  top: "data"
  top: "label"
  include {
    phase: TRAIN
  }
  dummy_data_param {
    data_filler {
      type: "gaussian"
      std: 1
    }
    data_filler {
      type: "constant"
      value: 0
    }
    shape {
      dim: 1
      dim: 3
      dim: 124
      dim: 124
    }
    shape {
      dim: 1
      dim: 1
      dim: 1
      dim: 1
    }
  }
}
layer {
  name: "conv1"
  type: "Convolution"
  bottom: "data"
  top: "conv1"
  convolution_param {
    num_output: 128
    pad: 0
    kernel_size: 3
    stride: 1
    weight_filler {
      type: "msra"
    }
    bias_filler {
      type: "constant"
      value: 0
    }
  }
}
layer {
  name: "relu1"
  type: "ReLU"
  bottom: "conv1"
  top: "conv1"
  relu_param {
    negative_slope: 0.1
  }
}
layer {
  name: "dropout1"
  type: "Dropout"
  bottom: "conv1"
  top: "drop1"
}
layer {
  name: "pool1"
  type: "Pooling"
  bottom: "drop1"
  top: "pool1"
  pooling_param {
    pool: MAX
    kernel_size: 2
    stride: 2
  }
}
layer {
  name: "conv2"
  type: "Convolution"
  bottom: "pool1"
  top: "conv2"
  convolution_param {
    num_output: 128
    pad: 0
    kernel_size: 3
    stride: 1
    weight_filler {
      type: "msra"
    }
    bias_filler {
      type: "constant"
      value: 0
    }
  }
}
layer {
  name: "relu2"
  type: "ReLU"
  bottom: "conv2"
  top: "conv2"
  relu_param {
    negative_slope: 0.1
  }
}
layer {
  name: "dropout2"
  type: "Dropout"
  bottom: "conv2"
  top: "drop2"
}
layer {
  name: "pool2"
  type: "Pooling"
  bottom: "drop2"
  top: "pool2"
  pooling_param {
    pool: MAX
    kernel_size: 2
    stride: 2
  }
}
layer {
  name: "conv3"
  type: "Convolution"
  bottom: "pool2"
  top: "conv3"
  convolution_param {
    num_output: 128
    pad: 0
    kernel_size: 3
    stride: 1
    weight_filler {
      type: "msra"
    }
    bias_filler {
      type: "constant"
      value: 0
    }
  }
}
layer {
  name: "relu3"
  type: "ReLU"
  bottom: "conv3"
  top: "conv3"
  relu_param {
    negative_slope: 0.1
  }
}
layer {
  name: "dropout3"
  type: "Dropout"
  bottom: "conv3"
  top: "drop3"
}
layer {
  name: "pool3"
  type: "Pooling"
  bottom: "drop3"
  top: "pool3"
  pooling_param {
    pool: MAX
    kernel_size: 2
    stride: 2
  }
}
layer {
  name: "conv4"
  type: "Convolution"
  bottom: "pool3"
  top: "conv4"
  convolution_param {
    num_output: 128
    pad: 0
    kernel_size: 3
    stride: 1
    weight_filler {
      type: "msra"
    }
    bias_filler {
      type: "constant"
      value: 0
    }
  }
}
layer {
  name: "relu4"
  type: "ReLU"
  bottom: "conv4"
  top: "conv4"
  relu_param {
    negative_slope: 0.1
  }
}
layer {
  name: "dropout4"
  type: "Dropout"
  bottom: "conv4"
  top: "drop4"
}
layer {
  name: "pool4"
  type: "Pooling"
  bottom: "drop4"
  top: "pool4"
  pooling_param {
    pool: MAX
    kernel_size: 2
    stride: 2
  }
}
layer {
  name: "fc1"
  type: "InnerProduct"
  bottom: "pool4"
  top: "fc1"
  inner_product_param {
    num_output: 1024
    weight_filler {
      type: "msra"
    }
    bias_filler {
      type: "constant"
      value: 0
    }
  }
}
layer {
  name: "dropout5"
  type: "Dropout"
  bottom: "fc1"
  top: "drop5"
}
layer {
  name: "fc2"
  type: "InnerProduct"
  bottom: "drop5"
  top: "fc2"
  inner_product_param {
    num_output: 2
    weight_filler {
      type: "msra"
    }
    bias_filler {
      type: "constant"
      value: 0
    }
  }
}
layer {
  name: "loss"
  type: "SoftmaxWithLoss"
  bottom: "fc2"
  bottom: "label"
}
I1031 14:57:25.549113 101376 layer_factory.hpp:114] Creating layer data
I1031 14:57:25.706215 101376 net.cpp:160] Creating Layer data
I1031 14:57:25.757495 101376 net.cpp:570] data -> data
I1031 14:57:26.260963 101376 net.cpp:570] data -> label
I1031 14:57:33.756891 101376 net.cpp:210] Setting up data
I1031 14:57:33.840675 101376 net.cpp:217] Top shape: 1 3 124 124 (46128)
I1031 14:57:33.947418 101376 net.cpp:217] Top shape: 1 1 1 1 (1)
I1031 14:57:33.954741 101376 net.cpp:225] Memory required for data: 184516
I1031 14:57:34.034340 101376 layer_factory.hpp:114] Creating layer conv1
I1031 14:57:34.400455 101376 net.cpp:160] Creating Layer conv1
I1031 14:57:34.453740 101376 net.cpp:596] conv1 <- data
I1031 14:57:34.580199 101376 net.cpp:570] conv1 -> conv1
I1031 14:58:11.773288 101376 net.cpp:210] Setting up conv1
I1031 14:58:11.849617 101376 net.cpp:217] Top shape: 1 128 122 122 (1905152)
I1031 14:58:11.859911 101376 net.cpp:225] Memory required for data: 7805124
I1031 14:58:12.192081 101376 layer_factory.hpp:114] Creating layer relu1
I1031 14:58:12.322237 101376 net.cpp:160] Creating Layer relu1
I1031 14:58:12.327219 101376 net.cpp:596] relu1 <- conv1
I1031 14:58:12.362290 101376 net.cpp:557] relu1 -> conv1 (in-place)
I1031 14:58:12.579021 101376 net.cpp:210] Setting up relu1
I1031 14:58:12.581737 101376 net.cpp:217] Top shape: 1 128 122 122 (1905152)
I1031 14:58:12.582110 101376 net.cpp:225] Memory required for data: 15425732
I1031 14:58:12.582332 101376 layer_factory.hpp:114] Creating layer dropout1
I1031 14:58:12.615803 101376 net.cpp:160] Creating Layer dropout1
I1031 14:58:12.616159 101376 net.cpp:596] dropout1 <- conv1
I1031 14:58:12.618921 101376 net.cpp:570] dropout1 -> drop1
I1031 14:58:12.730774 101376 net.cpp:210] Setting up dropout1
I1031 14:58:12.744523 101376 net.cpp:217] Top shape: 1 128 122 122 (1905152)
I1031 14:58:12.744915 101376 net.cpp:225] Memory required for data: 23046340
I1031 14:58:12.745252 101376 layer_factory.hpp:114] Creating layer pool1
I1031 14:58:12.851794 101376 net.cpp:160] Creating Layer pool1
I1031 14:58:12.852113 101376 net.cpp:596] pool1 <- drop1
I1031 14:58:12.852500 101376 net.cpp:570] pool1 -> pool1
I1031 14:58:13.256711 101376 net.cpp:210] Setting up pool1
I1031 14:58:13.261330 101376 net.cpp:217] Top shape: 1 128 61 61 (476288)
I1031 14:58:13.261705 101376 net.cpp:225] Memory required for data: 24951492
I1031 14:58:13.262012 101376 layer_factory.hpp:114] Creating layer conv2
I1031 14:58:13.324784 101376 net.cpp:160] Creating Layer conv2
I1031 14:58:13.329181 101376 net.cpp:596] conv2 <- pool1
I1031 14:58:13.344728 101376 net.cpp:570] conv2 -> conv2
I1031 14:58:19.863479 101376 net.cpp:210] Setting up conv2
I1031 14:58:19.870338 101376 net.cpp:217] Top shape: 1 128 59 59 (445568)
I1031 14:58:19.880131 101376 net.cpp:225] Memory required for data: 26733764
I1031 14:58:19.947243 101376 layer_factory.hpp:114] Creating layer relu2
I1031 14:58:19.954502 101376 net.cpp:160] Creating Layer relu2
I1031 14:58:19.959300 101376 net.cpp:596] relu2 <- conv2
I1031 14:58:19.965972 101376 net.cpp:557] relu2 -> conv2 (in-place)
I1031 14:58:19.968993 101376 net.cpp:210] Setting up relu2
I1031 14:58:19.973799 101376 net.cpp:217] Top shape: 1 128 59 59 (445568)
I1031 14:58:19.980072 101376 net.cpp:225] Memory required for data: 28516036
I1031 14:58:19.988376 101376 layer_factory.hpp:114] Creating layer dropout2
I1031 14:58:19.995049 101376 net.cpp:160] Creating Layer dropout2
I1031 14:58:20.011884 101376 net.cpp:596] dropout2 <- conv2
I1031 14:58:20.015909 101376 net.cpp:570] dropout2 -> drop2
I1031 14:58:20.022779 101376 net.cpp:210] Setting up dropout2
I1031 14:58:20.027217 101376 net.cpp:217] Top shape: 1 128 59 59 (445568)
I1031 14:58:20.031672 101376 net.cpp:225] Memory required for data: 30298308
I1031 14:58:20.038112 101376 layer_factory.hpp:114] Creating layer pool2
I1031 14:58:20.040307 101376 net.cpp:160] Creating Layer pool2
I1031 14:58:20.040618 101376 net.cpp:596] pool2 <- drop2
I1031 14:58:20.040891 101376 net.cpp:570] pool2 -> pool2
I1031 14:58:20.049612 101376 net.cpp:210] Setting up pool2
I1031 14:58:20.056113 101376 net.cpp:217] Top shape: 1 128 30 30 (115200)
I1031 14:58:20.066354 101376 net.cpp:225] Memory required for data: 30759108
I1031 14:58:20.069347 101376 layer_factory.hpp:114] Creating layer conv3
I1031 14:58:20.073889 101376 net.cpp:160] Creating Layer conv3
I1031 14:58:20.076429 101376 net.cpp:596] conv3 <- pool2
I1031 14:58:20.086782 101376 net.cpp:570] conv3 -> conv3
I1031 14:58:20.723945 101376 net.cpp:210] Setting up conv3
I1031 14:58:20.731976 101376 net.cpp:217] Top shape: 1 128 28 28 (100352)
I1031 14:58:20.736964 101376 net.cpp:225] Memory required for data: 31160516
I1031 14:58:20.753075 101376 layer_factory.hpp:114] Creating layer relu3
I1031 14:58:20.761584 101376 net.cpp:160] Creating Layer relu3
I1031 14:58:20.766078 101376 net.cpp:596] relu3 <- conv3
I1031 14:58:20.770377 101376 net.cpp:557] relu3 -> conv3 (in-place)
I1031 14:58:20.779047 101376 net.cpp:210] Setting up relu3
I1031 14:58:20.783697 101376 net.cpp:217] Top shape: 1 128 28 28 (100352)
I1031 14:58:20.791935 101376 net.cpp:225] Memory required for data: 31561924
I1031 14:58:20.801239 101376 layer_factory.hpp:114] Creating layer dropout3
I1031 14:58:20.810698 101376 net.cpp:160] Creating Layer dropout3
I1031 14:58:20.822155 101376 net.cpp:596] dropout3 <- conv3
I1031 14:58:20.825078 101376 net.cpp:570] dropout3 -> drop3
I1031 14:58:20.825503 101376 net.cpp:210] Setting up dropout3
I1031 14:58:20.834040 101376 net.cpp:217] Top shape: 1 128 28 28 (100352)
I1031 14:58:20.838095 101376 net.cpp:225] Memory required for data: 31963332
I1031 14:58:20.846889 101376 layer_factory.hpp:114] Creating layer pool3
I1031 14:58:20.855846 101376 net.cpp:160] Creating Layer pool3
I1031 14:58:20.857920 101376 net.cpp:596] pool3 <- drop3
I1031 14:58:20.860913 101376 net.cpp:570] pool3 -> pool3
I1031 14:58:20.863107 101376 net.cpp:210] Setting up pool3
I1031 14:58:20.865700 101376 net.cpp:217] Top shape: 1 128 14 14 (25088)
I1031 14:58:20.882025 101376 net.cpp:225] Memory required for data: 32063684
I1031 14:58:20.886947 101376 layer_factory.hpp:114] Creating layer conv4
I1031 14:58:20.888876 101376 net.cpp:160] Creating Layer conv4
I1031 14:58:20.891348 101376 net.cpp:596] conv4 <- pool3
I1031 14:58:20.897413 101376 net.cpp:570] conv4 -> conv4
I1031 14:58:21.264880 101376 net.cpp:210] Setting up conv4
I1031 14:58:21.275238 101376 net.cpp:217] Top shape: 1 128 12 12 (18432)
I1031 14:58:21.282189 101376 net.cpp:225] Memory required for data: 32137412
I1031 14:58:21.290062 101376 layer_factory.hpp:114] Creating layer relu4
I1031 14:58:21.298794 101376 net.cpp:160] Creating Layer relu4
I1031 14:58:21.309468 101376 net.cpp:596] relu4 <- conv4
I1031 14:58:21.316318 101376 net.cpp:557] relu4 -> conv4 (in-place)
I1031 14:58:21.318285 101376 net.cpp:210] Setting up relu4
I1031 14:58:21.318579 101376 net.cpp:217] Top shape: 1 128 12 12 (18432)
I1031 14:58:21.321667 101376 net.cpp:225] Memory required for data: 32211140
I1031 14:58:21.323966 101376 layer_factory.hpp:114] Creating layer dropout4
I1031 14:58:21.326314 101376 net.cpp:160] Creating Layer dropout4
I1031 14:58:21.338711 101376 net.cpp:596] dropout4 <- conv4
I1031 14:58:21.351405 101376 net.cpp:570] dropout4 -> drop4
I1031 14:58:21.353984 101376 net.cpp:210] Setting up dropout4
I1031 14:58:21.358845 101376 net.cpp:217] Top shape: 1 128 12 12 (18432)
I1031 14:58:21.367537 101376 net.cpp:225] Memory required for data: 32284868
I1031 14:58:21.371891 101376 layer_factory.hpp:114] Creating layer pool4
I1031 14:58:21.374404 101376 net.cpp:160] Creating Layer pool4
I1031 14:58:21.374687 101376 net.cpp:596] pool4 <- drop4
I1031 14:58:21.374963 101376 net.cpp:570] pool4 -> pool4
I1031 14:58:21.392107 101376 net.cpp:210] Setting up pool4
I1031 14:58:21.396571 101376 net.cpp:217] Top shape: 1 128 6 6 (4608)
I1031 14:58:21.398941 101376 net.cpp:225] Memory required for data: 32303300
I1031 14:58:21.401382 101376 layer_factory.hpp:114] Creating layer fc1
I1031 14:58:21.476115 101376 net.cpp:160] Creating Layer fc1
I1031 14:58:21.484565 101376 net.cpp:596] fc1 <- pool4
I1031 14:58:21.485301 101376 net.cpp:570] fc1 -> fc1
I1031 14:58:22.333644 101376 net.cpp:210] Setting up fc1
I1031 14:58:22.346273 101376 net.cpp:217] Top shape: 1 1024 (1024)
I1031 14:58:22.354694 101376 net.cpp:225] Memory required for data: 32307396
I1031 14:58:22.364308 101376 layer_factory.hpp:114] Creating layer dropout5
I1031 14:58:22.370707 101376 net.cpp:160] Creating Layer dropout5
I1031 14:58:22.376338 101376 net.cpp:596] dropout5 <- fc1
I1031 14:58:22.385169 101376 net.cpp:570] dropout5 -> drop5
I1031 14:58:22.387593 101376 net.cpp:210] Setting up dropout5
I1031 14:58:22.387898 101376 net.cpp:217] Top shape: 1 1024 (1024)
I1031 14:58:22.388157 101376 net.cpp:225] Memory required for data: 32311492
I1031 14:58:22.392475 101376 layer_factory.hpp:114] Creating layer fc2
I1031 14:58:22.398850 101376 net.cpp:160] Creating Layer fc2
I1031 14:58:22.407317 101376 net.cpp:596] fc2 <- drop5
I1031 14:58:22.411885 101376 net.cpp:570] fc2 -> fc2
I1031 14:58:22.438143 101376 net.cpp:210] Setting up fc2
I1031 14:58:22.447665 101376 net.cpp:217] Top shape: 1 2 (2)
I1031 14:58:22.455466 101376 net.cpp:225] Memory required for data: 32311500
I1031 14:58:22.459049 101376 layer_factory.hpp:114] Creating layer loss
I1031 14:58:22.494501 101376 net.cpp:160] Creating Layer loss
I1031 14:58:22.499166 101376 net.cpp:596] loss <- fc2
I1031 14:58:22.508091 101376 net.cpp:596] loss <- label
I1031 14:58:22.572954 101376 net.cpp:570] loss -> (automatic)
I1031 14:58:22.624588 101376 layer_factory.hpp:114] Creating layer loss
…
