…
I1031 11:09:40.988529 131275 net.cpp:484] The NetState phase (0) differed from the phase (1) specified by a rule in layer data
I1031 11:09:41.703269 131275 net.cpp:120] Initializing net from parameters: 
name: "HEP_CLASSIFIER"
state {
  phase: TRAIN
  level: 0
  stage: ""
}
layer {
  name: "data"
  type: "DummyData"
  top: "data"
  top: "label"
  include {
    phase: TRAIN
  }
  dummy_data_param {
    data_filler {
      type: "gaussian"
      std: 1
    }
    data_filler {
      type: "constant"
      value: 0
    }
    shape {
      dim: 1
      dim: 3
      dim: 124
      dim: 124
    }
    shape {
      dim: 1
      dim: 1
      dim: 1
      dim: 1
    }
  }
}
layer {
  name: "conv1"
  type: "Convolution"
  bottom: "data"
  top: "conv1"
  convolution_param {
    num_output: 128
    pad: 0
    kernel_size: 3
    stride: 1
    weight_filler {
      type: "msra"
    }
    bias_filler {
      type: "constant"
      value: 0
    }
  }
}
layer {
  name: "relu1"
  type: "ReLU"
  bottom: "conv1"
  top: "conv1"
  relu_param {
    negative_slope: 0.1
  }
}
layer {
  name: "dropout1"
  type: "Dropout"
  bottom: "conv1"
  top: "drop1"
}
layer {
  name: "pool1"
  type: "Pooling"
  bottom: "drop1"
  top: "pool1"
  pooling_param {
    pool: MAX
    kernel_size: 2
    stride: 2
  }
}
layer {
  name: "conv2"
  type: "Convolution"
  bottom: "pool1"
  top: "conv2"
  convolution_param {
    num_output: 128
    pad: 0
    kernel_size: 3
    stride: 1
    weight_filler {
      type: "msra"
    }
    bias_filler {
      type: "constant"
      value: 0
    }
  }
}
layer {
  name: "relu2"
  type: "ReLU"
  bottom: "conv2"
  top: "conv2"
  relu_param {
    negative_slope: 0.1
  }
}
layer {
  name: "dropout2"
  type: "Dropout"
  bottom: "conv2"
  top: "drop2"
}
layer {
  name: "pool2"
  type: "Pooling"
  bottom: "drop2"
  top: "pool2"
  pooling_param {
    pool: MAX
    kernel_size: 2
    stride: 2
  }
}
layer {
  name: "conv3"
  type: "Convolution"
  bottom: "pool2"
  top: "conv3"
  convolution_param {
    num_output: 128
    pad: 0
    kernel_size: 3
    stride: 1
    weight_filler {
      type: "msra"
    }
    bias_filler {
      type: "constant"
      value: 0
    }
  }
}
layer {
  name: "relu3"
  type: "ReLU"
  bottom: "conv3"
  top: "conv3"
  relu_param {
    negative_slope: 0.1
  }
}
layer {
  name: "dropout3"
  type: "Dropout"
  bottom: "conv3"
  top: "drop3"
}
layer {
  name: "pool3"
  type: "Pooling"
  bottom: "drop3"
  top: "pool3"
  pooling_param {
    pool: MAX
    kernel_size: 2
    stride: 2
  }
}
layer {
  name: "conv4"
  type: "Convolution"
  bottom: "pool3"
  top: "conv4"
  convolution_param {
    num_output: 128
    pad: 0
    kernel_size: 3
    stride: 1
    weight_filler {
      type: "msra"
    }
    bias_filler {
      type: "constant"
      value: 0
    }
  }
}
layer {
  name: "relu4"
  type: "ReLU"
  bottom: "conv4"
  top: "conv4"
  relu_param {
    negative_slope: 0.1
  }
}
layer {
  name: "dropout4"
  type: "Dropout"
  bottom: "conv4"
  top: "drop4"
}
layer {
  name: "pool4"
  type: "Pooling"
  bottom: "drop4"
  top: "pool4"
  pooling_param {
    pool: MAX
    kernel_size: 2
    stride: 2
  }
}
layer {
  name: "fc1"
  type: "InnerProduct"
  bottom: "pool4"
  top: "fc1"
  inner_product_param {
    num_output: 1024
    weight_filler {
      type: "msra"
    }
    bias_filler {
      type: "constant"
      value: 0
    }
  }
}
layer {
  name: "dropout5"
  type: "Dropout"
  bottom: "fc1"
  top: "drop5"
}
layer {
  name: "fc2"
  type: "InnerProduct"
  bottom: "drop5"
  top: "fc2"
  inner_product_param {
    num_output: 2
    weight_filler {
      type: "msra"
    }
    bias_filler {
      type: "constant"
      value: 0
    }
  }
}
layer {
  name: "loss"
  type: "SoftmaxWithLoss"
  bottom: "fc2"
  bottom: "label"
}
I1031 11:09:44.223995 131275 layer_factory.hpp:114] Creating layer data
I1031 11:09:44.387361 131275 net.cpp:160] Creating Layer data
I1031 11:09:44.440443 131275 net.cpp:570] data -> data
I1031 11:09:44.958973 131275 net.cpp:570] data -> label
I1031 11:09:52.765288 131275 net.cpp:210] Setting up data
I1031 11:09:52.852716 131275 net.cpp:217] Top shape: 1 3 124 124 (46128)
I1031 11:09:52.964462 131275 net.cpp:217] Top shape: 1 1 1 1 (1)
I1031 11:09:52.972198 131275 net.cpp:225] Memory required for data: 184516
I1031 11:09:53.056843 131275 layer_factory.hpp:114] Creating layer conv1
I1031 11:09:53.423991 131275 net.cpp:160] Creating Layer conv1
I1031 11:09:53.479737 131275 net.cpp:596] conv1 <- data
I1031 11:09:53.612640 131275 net.cpp:570] conv1 -> conv1
I1031 11:10:31.762493 131275 net.cpp:210] Setting up conv1
I1031 11:10:31.832815 131275 net.cpp:217] Top shape: 1 128 122 122 (1905152)
I1031 11:10:31.839226 131275 net.cpp:225] Memory required for data: 7805124
I1031 11:10:32.177409 131275 layer_factory.hpp:114] Creating layer relu1
I1031 11:10:32.327021 131275 net.cpp:160] Creating Layer relu1
I1031 11:10:32.332507 131275 net.cpp:596] relu1 <- conv1
I1031 11:10:32.368980 131275 net.cpp:557] relu1 -> conv1 (in-place)
I1031 11:10:32.598450 131275 net.cpp:210] Setting up relu1
I1031 11:10:32.601867 131275 net.cpp:217] Top shape: 1 128 122 122 (1905152)
I1031 11:10:32.602216 131275 net.cpp:225] Memory required for data: 15425732
I1031 11:10:32.602468 131275 layer_factory.hpp:114] Creating layer dropout1
I1031 11:10:32.635680 131275 net.cpp:160] Creating Layer dropout1
I1031 11:10:32.636020 131275 net.cpp:596] dropout1 <- conv1
I1031 11:10:32.638903 131275 net.cpp:570] dropout1 -> drop1
I1031 11:10:32.754585 131275 net.cpp:210] Setting up dropout1
I1031 11:10:32.768548 131275 net.cpp:217] Top shape: 1 128 122 122 (1905152)
I1031 11:10:32.768956 131275 net.cpp:225] Memory required for data: 23046340
I1031 11:10:32.769302 131275 layer_factory.hpp:114] Creating layer pool1
I1031 11:10:32.881463 131275 net.cpp:160] Creating Layer pool1
I1031 11:10:32.881909 131275 net.cpp:596] pool1 <- drop1
I1031 11:10:32.882227 131275 net.cpp:570] pool1 -> pool1
I1031 11:10:33.310176 131275 net.cpp:210] Setting up pool1
I1031 11:10:33.319193 131275 net.cpp:217] Top shape: 1 128 61 61 (476288)
I1031 11:10:33.319571 131275 net.cpp:225] Memory required for data: 24951492
I1031 11:10:33.319869 131275 layer_factory.hpp:114] Creating layer conv2
I1031 11:10:33.383970 131275 net.cpp:160] Creating Layer conv2
I1031 11:10:33.388548 131275 net.cpp:596] conv2 <- pool1
I1031 11:10:33.404461 131275 net.cpp:570] conv2 -> conv2
I1031 11:10:40.466708 131275 net.cpp:210] Setting up conv2
I1031 11:10:40.467160 131275 net.cpp:217] Top shape: 1 128 59 59 (445568)
I1031 11:10:40.473016 131275 net.cpp:225] Memory required for data: 26733764
I1031 11:10:40.529722 131275 layer_factory.hpp:114] Creating layer relu2
I1031 11:10:40.530241 131275 net.cpp:160] Creating Layer relu2
I1031 11:10:40.530642 131275 net.cpp:596] relu2 <- conv2
I1031 11:10:40.530995 131275 net.cpp:557] relu2 -> conv2 (in-place)
I1031 11:10:40.531703 131275 net.cpp:210] Setting up relu2
I1031 11:10:40.531994 131275 net.cpp:217] Top shape: 1 128 59 59 (445568)
I1031 11:10:40.532240 131275 net.cpp:225] Memory required for data: 28516036
I1031 11:10:40.532443 131275 layer_factory.hpp:114] Creating layer dropout2
I1031 11:10:40.532693 131275 net.cpp:160] Creating Layer dropout2
I1031 11:10:40.532893 131275 net.cpp:596] dropout2 <- conv2
I1031 11:10:40.533123 131275 net.cpp:570] dropout2 -> drop2
I1031 11:10:40.533430 131275 net.cpp:210] Setting up dropout2
I1031 11:10:40.533643 131275 net.cpp:217] Top shape: 1 128 59 59 (445568)
I1031 11:10:40.533905 131275 net.cpp:225] Memory required for data: 30298308
I1031 11:10:40.534113 131275 layer_factory.hpp:114] Creating layer pool2
I1031 11:10:40.534564 131275 net.cpp:160] Creating Layer pool2
I1031 11:10:40.534873 131275 net.cpp:596] pool2 <- drop2
I1031 11:10:40.535145 131275 net.cpp:570] pool2 -> pool2
I1031 11:10:40.535615 131275 net.cpp:210] Setting up pool2
I1031 11:10:40.535883 131275 net.cpp:217] Top shape: 1 128 30 30 (115200)
I1031 11:10:40.536134 131275 net.cpp:225] Memory required for data: 30759108
I1031 11:10:40.536339 131275 layer_factory.hpp:114] Creating layer conv3
I1031 11:10:40.536700 131275 net.cpp:160] Creating Layer conv3
I1031 11:10:40.536932 131275 net.cpp:596] conv3 <- pool2
I1031 11:10:40.537184 131275 net.cpp:570] conv3 -> conv3
I1031 11:10:41.119392 131275 net.cpp:210] Setting up conv3
I1031 11:10:41.121994 131275 net.cpp:217] Top shape: 1 128 28 28 (100352)
I1031 11:10:41.122426 131275 net.cpp:225] Memory required for data: 31160516
I1031 11:10:41.131031 131275 layer_factory.hpp:114] Creating layer relu3
I1031 11:10:41.131510 131275 net.cpp:160] Creating Layer relu3
I1031 11:10:41.131880 131275 net.cpp:596] relu3 <- conv3
I1031 11:10:41.132197 131275 net.cpp:557] relu3 -> conv3 (in-place)
I1031 11:10:41.132858 131275 net.cpp:210] Setting up relu3
I1031 11:10:41.133178 131275 net.cpp:217] Top shape: 1 128 28 28 (100352)
I1031 11:10:41.133443 131275 net.cpp:225] Memory required for data: 31561924
I1031 11:10:41.133651 131275 layer_factory.hpp:114] Creating layer dropout3
I1031 11:10:41.133914 131275 net.cpp:160] Creating Layer dropout3
I1031 11:10:41.134145 131275 net.cpp:596] dropout3 <- conv3
I1031 11:10:41.134435 131275 net.cpp:570] dropout3 -> drop3
I1031 11:10:41.134766 131275 net.cpp:210] Setting up dropout3
I1031 11:10:41.135032 131275 net.cpp:217] Top shape: 1 128 28 28 (100352)
I1031 11:10:41.135304 131275 net.cpp:225] Memory required for data: 31963332
I1031 11:10:41.135664 131275 layer_factory.hpp:114] Creating layer pool3
I1031 11:10:41.136029 131275 net.cpp:160] Creating Layer pool3
I1031 11:10:41.136255 131275 net.cpp:596] pool3 <- drop3
I1031 11:10:41.136513 131275 net.cpp:570] pool3 -> pool3
I1031 11:10:41.136950 131275 net.cpp:210] Setting up pool3
I1031 11:10:41.137224 131275 net.cpp:217] Top shape: 1 128 14 14 (25088)
I1031 11:10:41.137459 131275 net.cpp:225] Memory required for data: 32063684
I1031 11:10:41.137665 131275 layer_factory.hpp:114] Creating layer conv4
I1031 11:10:41.138010 131275 net.cpp:160] Creating Layer conv4
I1031 11:10:41.138249 131275 net.cpp:596] conv4 <- pool3
I1031 11:10:41.138550 131275 net.cpp:570] conv4 -> conv4
I1031 11:10:41.452074 131275 net.cpp:210] Setting up conv4
I1031 11:10:41.452436 131275 net.cpp:217] Top shape: 1 128 12 12 (18432)
I1031 11:10:41.452903 131275 net.cpp:225] Memory required for data: 32137412
I1031 11:10:41.453306 131275 layer_factory.hpp:114] Creating layer relu4
I1031 11:10:41.453654 131275 net.cpp:160] Creating Layer relu4
I1031 11:10:41.453913 131275 net.cpp:596] relu4 <- conv4
I1031 11:10:41.454176 131275 net.cpp:557] relu4 -> conv4 (in-place)
I1031 11:10:41.454725 131275 net.cpp:210] Setting up relu4
I1031 11:10:41.455036 131275 net.cpp:217] Top shape: 1 128 12 12 (18432)
I1031 11:10:41.455301 131275 net.cpp:225] Memory required for data: 32211140
I1031 11:10:41.455509 131275 layer_factory.hpp:114] Creating layer dropout4
I1031 11:10:41.455780 131275 net.cpp:160] Creating Layer dropout4
I1031 11:10:41.456008 131275 net.cpp:596] dropout4 <- conv4
I1031 11:10:41.456265 131275 net.cpp:570] dropout4 -> drop4
I1031 11:10:41.456609 131275 net.cpp:210] Setting up dropout4
I1031 11:10:41.456837 131275 net.cpp:217] Top shape: 1 128 12 12 (18432)
I1031 11:10:41.457069 131275 net.cpp:225] Memory required for data: 32284868
I1031 11:10:41.457264 131275 layer_factory.hpp:114] Creating layer pool4
I1031 11:10:41.457563 131275 net.cpp:160] Creating Layer pool4
I1031 11:10:41.457787 131275 net.cpp:596] pool4 <- drop4
I1031 11:10:41.458019 131275 net.cpp:570] pool4 -> pool4
I1031 11:10:41.471534 131275 net.cpp:210] Setting up pool4
I1031 11:10:41.471902 131275 net.cpp:217] Top shape: 1 128 6 6 (4608)
I1031 11:10:41.474352 131275 net.cpp:225] Memory required for data: 32303300
I1031 11:10:41.474622 131275 layer_factory.hpp:114] Creating layer fc1
I1031 11:10:41.535945 131275 net.cpp:160] Creating Layer fc1
I1031 11:10:41.536274 131275 net.cpp:596] fc1 <- pool4
I1031 11:10:41.536696 131275 net.cpp:570] fc1 -> fc1
I1031 11:10:42.366698 131275 net.cpp:210] Setting up fc1
I1031 11:10:42.367692 131275 net.cpp:217] Top shape: 1 1024 (1024)
I1031 11:10:42.368119 131275 net.cpp:225] Memory required for data: 32307396
I1031 11:10:42.372905 131275 layer_factory.hpp:114] Creating layer dropout5
I1031 11:10:42.373301 131275 net.cpp:160] Creating Layer dropout5
I1031 11:10:42.373530 131275 net.cpp:596] dropout5 <- fc1
I1031 11:10:42.373766 131275 net.cpp:570] dropout5 -> drop5
I1031 11:10:42.374115 131275 net.cpp:210] Setting up dropout5
I1031 11:10:42.374424 131275 net.cpp:217] Top shape: 1 1024 (1024)
I1031 11:10:42.374668 131275 net.cpp:225] Memory required for data: 32311492
I1031 11:10:42.374864 131275 layer_factory.hpp:114] Creating layer fc2
I1031 11:10:42.375136 131275 net.cpp:160] Creating Layer fc2
I1031 11:10:42.375516 131275 net.cpp:596] fc2 <- drop5
I1031 11:10:42.375780 131275 net.cpp:570] fc2 -> fc2
I1031 11:10:42.384040 131275 net.cpp:210] Setting up fc2
I1031 11:10:42.385277 131275 net.cpp:217] Top shape: 1 2 (2)
I1031 11:10:42.387575 131275 net.cpp:225] Memory required for data: 32311500
I1031 11:10:42.387905 131275 layer_factory.hpp:114] Creating layer loss
I1031 11:10:42.414399 131275 net.cpp:160] Creating Layer loss
I1031 11:10:42.414734 131275 net.cpp:596] loss <- fc2
I1031 11:10:42.415742 131275 net.cpp:596] loss <- label
I1031 11:10:42.466523 131275 net.cpp:570] loss -> (automatic)
I1031 11:10:42.502198 131275 layer_factory.hpp:114] Creating layer loss
…
