…
I1031 14:21:37.918661 100109 net.cpp:484] The NetState phase (0) differed from the phase (1) specified by a rule in layer data
I1031 14:21:38.610242 100109 net.cpp:120] Initializing net from parameters: 
name: "HEP_CLASSIFIER"
state {
  phase: TRAIN
  level: 0
  stage: ""
}
layer {
  name: "data"
  type: "DummyData"
  top: "data"
  top: "label"
  include {
    phase: TRAIN
  }
  dummy_data_param {
    data_filler {
      type: "gaussian"
      std: 1
    }
    data_filler {
      type: "constant"
      value: 0
    }
    shape {
      dim: 1
      dim: 3
      dim: 124
      dim: 124
    }
    shape {
      dim: 1
      dim: 1
      dim: 1
      dim: 1
    }
  }
}
layer {
  name: "conv1"
  type: "Convolution"
  bottom: "data"
  top: "conv1"
  convolution_param {
    num_output: 128
    pad: 0
    kernel_size: 3
    stride: 1
    weight_filler {
      type: "msra"
    }
    bias_filler {
      type: "constant"
      value: 0
    }
  }
}
layer {
  name: "relu1"
  type: "ReLU"
  bottom: "conv1"
  top: "conv1"
  relu_param {
    negative_slope: 0.1
  }
}
layer {
  name: "dropout1"
  type: "Dropout"
  bottom: "conv1"
  top: "drop1"
}
layer {
  name: "pool1"
  type: "Pooling"
  bottom: "drop1"
  top: "pool1"
  pooling_param {
    pool: MAX
    kernel_size: 2
    stride: 2
  }
}
layer {
  name: "conv2"
  type: "Convolution"
  bottom: "pool1"
  top: "conv2"
  convolution_param {
    num_output: 128
    pad: 0
    kernel_size: 3
    stride: 1
    weight_filler {
      type: "msra"
    }
    bias_filler {
      type: "constant"
      value: 0
    }
  }
}
layer {
  name: "relu2"
  type: "ReLU"
  bottom: "conv2"
  top: "conv2"
  relu_param {
    negative_slope: 0.1
  }
}
layer {
  name: "dropout2"
  type: "Dropout"
  bottom: "conv2"
  top: "drop2"
}
layer {
  name: "pool2"
  type: "Pooling"
  bottom: "drop2"
  top: "pool2"
  pooling_param {
    pool: MAX
    kernel_size: 2
    stride: 2
  }
}
layer {
  name: "conv3"
  type: "Convolution"
  bottom: "pool2"
  top: "conv3"
  convolution_param {
    num_output: 128
    pad: 0
    kernel_size: 3
    stride: 1
    weight_filler {
      type: "msra"
    }
    bias_filler {
      type: "constant"
      value: 0
    }
  }
}
layer {
  name: "relu3"
  type: "ReLU"
  bottom: "conv3"
  top: "conv3"
  relu_param {
    negative_slope: 0.1
  }
}
layer {
  name: "dropout3"
  type: "Dropout"
  bottom: "conv3"
  top: "drop3"
}
layer {
  name: "pool3"
  type: "Pooling"
  bottom: "drop3"
  top: "pool3"
  pooling_param {
    pool: MAX
    kernel_size: 2
    stride: 2
  }
}
layer {
  name: "conv4"
  type: "Convolution"
  bottom: "pool3"
  top: "conv4"
  convolution_param {
    num_output: 128
    pad: 0
    kernel_size: 3
    stride: 1
    weight_filler {
      type: "msra"
    }
    bias_filler {
      type: "constant"
      value: 0
    }
  }
}
layer {
  name: "relu4"
  type: "ReLU"
  bottom: "conv4"
  top: "conv4"
  relu_param {
    negative_slope: 0.1
  }
}
layer {
  name: "dropout4"
  type: "Dropout"
  bottom: "conv4"
  top: "drop4"
}
layer {
  name: "pool4"
  type: "Pooling"
  bottom: "drop4"
  top: "pool4"
  pooling_param {
    pool: MAX
    kernel_size: 2
    stride: 2
  }
}
layer {
  name: "fc1"
  type: "InnerProduct"
  bottom: "pool4"
  top: "fc1"
  inner_product_param {
    num_output: 1024
    weight_filler {
      type: "msra"
    }
    bias_filler {
      type: "constant"
      value: 0
    }
  }
}
layer {
  name: "dropout5"
  type: "Dropout"
  bottom: "fc1"
  top: "drop5"
}
layer {
  name: "fc2"
  type: "InnerProduct"
  bottom: "drop5"
  top: "fc2"
  inner_product_param {
    num_output: 2
    weight_filler {
      type: "msra"
    }
    bias_filler {
      type: "constant"
      value: 0
    }
  }
}
layer {
  name: "loss"
  type: "SoftmaxWithLoss"
  bottom: "fc2"
  bottom: "label"
}
I1031 14:21:41.038410 100109 layer_factory.hpp:114] Creating layer data
I1031 14:21:41.215842 100109 net.cpp:160] Creating Layer data
I1031 14:21:41.267249 100109 net.cpp:570] data -> data
I1031 14:21:41.764991 100109 net.cpp:570] data -> label
I1031 14:21:49.229362 100109 net.cpp:210] Setting up data
I1031 14:21:49.313539 100109 net.cpp:217] Top shape: 1 3 124 124 (46128)
I1031 14:21:49.420871 100109 net.cpp:217] Top shape: 1 1 1 1 (1)
I1031 14:21:49.428306 100109 net.cpp:225] Memory required for data: 184516
I1031 14:21:49.507036 100109 layer_factory.hpp:114] Creating layer conv1
I1031 14:21:49.857962 100109 net.cpp:160] Creating Layer conv1
I1031 14:21:49.911949 100109 net.cpp:596] conv1 <- data
I1031 14:21:50.040272 100109 net.cpp:570] conv1 -> conv1
I1031 14:22:27.425184 100109 net.cpp:210] Setting up conv1
I1031 14:22:27.497203 100109 net.cpp:217] Top shape: 1 128 122 122 (1905152)
I1031 14:22:27.500854 100109 net.cpp:225] Memory required for data: 7805124
I1031 14:22:27.828410 100109 layer_factory.hpp:114] Creating layer relu1
I1031 14:22:27.966872 100109 net.cpp:160] Creating Layer relu1
I1031 14:22:27.972193 100109 net.cpp:596] relu1 <- conv1
I1031 14:22:28.007936 100109 net.cpp:557] relu1 -> conv1 (in-place)
I1031 14:22:28.230773 100109 net.cpp:210] Setting up relu1
I1031 14:22:28.233403 100109 net.cpp:217] Top shape: 1 128 122 122 (1905152)
I1031 14:22:28.233760 100109 net.cpp:225] Memory required for data: 15425732
I1031 14:22:28.233966 100109 layer_factory.hpp:114] Creating layer dropout1
I1031 14:22:28.266886 100109 net.cpp:160] Creating Layer dropout1
I1031 14:22:28.267220 100109 net.cpp:596] dropout1 <- conv1
I1031 14:22:28.270148 100109 net.cpp:570] dropout1 -> drop1
I1031 14:22:28.388718 100109 net.cpp:210] Setting up dropout1
I1031 14:22:28.402958 100109 net.cpp:217] Top shape: 1 128 122 122 (1905152)
I1031 14:22:28.403391 100109 net.cpp:225] Memory required for data: 23046340
I1031 14:22:28.403712 100109 layer_factory.hpp:114] Creating layer pool1
I1031 14:22:28.510498 100109 net.cpp:160] Creating Layer pool1
I1031 14:22:28.510967 100109 net.cpp:596] pool1 <- drop1
I1031 14:22:28.511324 100109 net.cpp:570] pool1 -> pool1
I1031 14:22:28.928655 100109 net.cpp:210] Setting up pool1
I1031 14:22:28.933802 100109 net.cpp:217] Top shape: 1 128 61 61 (476288)
I1031 14:22:28.934180 100109 net.cpp:225] Memory required for data: 24951492
I1031 14:22:28.934497 100109 layer_factory.hpp:114] Creating layer conv2
I1031 14:22:28.997369 100109 net.cpp:160] Creating Layer conv2
I1031 14:22:29.001865 100109 net.cpp:596] conv2 <- pool1
I1031 14:22:29.019007 100109 net.cpp:570] conv2 -> conv2
I1031 14:22:35.948720 100109 net.cpp:210] Setting up conv2
I1031 14:22:35.949247 100109 net.cpp:217] Top shape: 1 128 59 59 (445568)
I1031 14:22:35.955996 100109 net.cpp:225] Memory required for data: 26733764
I1031 14:22:36.020617 100109 layer_factory.hpp:114] Creating layer relu2
I1031 14:22:36.034015 100109 net.cpp:160] Creating Layer relu2
I1031 14:22:36.042299 100109 net.cpp:596] relu2 <- conv2
I1031 14:22:36.054713 100109 net.cpp:557] relu2 -> conv2 (in-place)
I1031 14:22:36.059619 100109 net.cpp:210] Setting up relu2
I1031 14:22:36.066006 100109 net.cpp:217] Top shape: 1 128 59 59 (445568)
I1031 14:22:36.070744 100109 net.cpp:225] Memory required for data: 28516036
I1031 14:22:36.080740 100109 layer_factory.hpp:114] Creating layer dropout2
I1031 14:22:36.089197 100109 net.cpp:160] Creating Layer dropout2
I1031 14:22:36.095736 100109 net.cpp:596] dropout2 <- conv2
I1031 14:22:36.108671 100109 net.cpp:570] dropout2 -> drop2
I1031 14:22:36.115068 100109 net.cpp:210] Setting up dropout2
I1031 14:22:36.119354 100109 net.cpp:217] Top shape: 1 128 59 59 (445568)
I1031 14:22:36.127734 100109 net.cpp:225] Memory required for data: 30298308
I1031 14:22:36.137892 100109 layer_factory.hpp:114] Creating layer pool2
I1031 14:22:36.142518 100109 net.cpp:160] Creating Layer pool2
I1031 14:22:36.150665 100109 net.cpp:596] pool2 <- drop2
I1031 14:22:36.156751 100109 net.cpp:570] pool2 -> pool2
I1031 14:22:36.159996 100109 net.cpp:210] Setting up pool2
I1031 14:22:36.170198 100109 net.cpp:217] Top shape: 1 128 30 30 (115200)
I1031 14:22:36.178481 100109 net.cpp:225] Memory required for data: 30759108
I1031 14:22:36.182796 100109 layer_factory.hpp:114] Creating layer conv3
I1031 14:22:36.189220 100109 net.cpp:160] Creating Layer conv3
I1031 14:22:36.198350 100109 net.cpp:596] conv3 <- pool2
I1031 14:22:36.202687 100109 net.cpp:570] conv3 -> conv3
I1031 14:22:36.785272 100109 net.cpp:210] Setting up conv3
I1031 14:22:36.797492 100109 net.cpp:217] Top shape: 1 128 28 28 (100352)
I1031 14:22:36.805937 100109 net.cpp:225] Memory required for data: 31160516
I1031 14:22:36.818032 100109 layer_factory.hpp:114] Creating layer relu3
I1031 14:22:36.824551 100109 net.cpp:160] Creating Layer relu3
I1031 14:22:36.828838 100109 net.cpp:596] relu3 <- conv3
I1031 14:22:36.837350 100109 net.cpp:557] relu3 -> conv3 (in-place)
I1031 14:22:36.842278 100109 net.cpp:210] Setting up relu3
I1031 14:22:36.847198 100109 net.cpp:217] Top shape: 1 128 28 28 (100352)
I1031 14:22:36.855823 100109 net.cpp:225] Memory required for data: 31561924
I1031 14:22:36.864320 100109 layer_factory.hpp:114] Creating layer dropout3
I1031 14:22:36.872798 100109 net.cpp:160] Creating Layer dropout3
I1031 14:22:36.877290 100109 net.cpp:596] dropout3 <- conv3
I1031 14:22:36.883946 100109 net.cpp:570] dropout3 -> drop3
I1031 14:22:36.888448 100109 net.cpp:210] Setting up dropout3
I1031 14:22:36.898445 100109 net.cpp:217] Top shape: 1 128 28 28 (100352)
I1031 14:22:36.908948 100109 net.cpp:225] Memory required for data: 31963332
I1031 14:22:36.917261 100109 layer_factory.hpp:114] Creating layer pool3
I1031 14:22:36.919304 100109 net.cpp:160] Creating Layer pool3
I1031 14:22:36.929787 100109 net.cpp:596] pool3 <- drop3
I1031 14:22:36.938220 100109 net.cpp:570] pool3 -> pool3
I1031 14:22:36.940506 100109 net.cpp:210] Setting up pool3
I1031 14:22:36.945040 100109 net.cpp:217] Top shape: 1 128 14 14 (25088)
I1031 14:22:36.947441 100109 net.cpp:225] Memory required for data: 32063684
I1031 14:22:36.953933 100109 layer_factory.hpp:114] Creating layer conv4
I1031 14:22:36.962513 100109 net.cpp:160] Creating Layer conv4
I1031 14:22:36.969125 100109 net.cpp:596] conv4 <- pool3
I1031 14:22:36.980912 100109 net.cpp:570] conv4 -> conv4
I1031 14:22:37.364373 100109 net.cpp:210] Setting up conv4
I1031 14:22:37.370826 100109 net.cpp:217] Top shape: 1 128 12 12 (18432)
I1031 14:22:37.375416 100109 net.cpp:225] Memory required for data: 32137412
I1031 14:22:37.391664 100109 layer_factory.hpp:114] Creating layer relu4
I1031 14:22:37.398128 100109 net.cpp:160] Creating Layer relu4
I1031 14:22:37.400279 100109 net.cpp:596] relu4 <- conv4
I1031 14:22:37.406430 100109 net.cpp:557] relu4 -> conv4 (in-place)
I1031 14:22:37.411694 100109 net.cpp:210] Setting up relu4
I1031 14:22:37.416401 100109 net.cpp:217] Top shape: 1 128 12 12 (18432)
I1031 14:22:37.423029 100109 net.cpp:225] Memory required for data: 32211140
I1031 14:22:37.437124 100109 layer_factory.hpp:114] Creating layer dropout4
I1031 14:22:37.439148 100109 net.cpp:160] Creating Layer dropout4
I1031 14:22:37.442078 100109 net.cpp:596] dropout4 <- conv4
I1031 14:22:37.448822 100109 net.cpp:570] dropout4 -> drop4
I1031 14:22:37.457116 100109 net.cpp:210] Setting up dropout4
I1031 14:22:37.459336 100109 net.cpp:217] Top shape: 1 128 12 12 (18432)
I1031 14:22:37.465957 100109 net.cpp:225] Memory required for data: 32284868
I1031 14:22:37.472587 100109 layer_factory.hpp:114] Creating layer pool4
I1031 14:22:37.479274 100109 net.cpp:160] Creating Layer pool4
I1031 14:22:37.487184 100109 net.cpp:596] pool4 <- drop4
I1031 14:22:37.492905 100109 net.cpp:570] pool4 -> pool4
I1031 14:22:37.517549 100109 net.cpp:210] Setting up pool4
I1031 14:22:37.525333 100109 net.cpp:217] Top shape: 1 128 6 6 (4608)
I1031 14:22:37.534754 100109 net.cpp:225] Memory required for data: 32303300
I1031 14:22:37.541000 100109 layer_factory.hpp:114] Creating layer fc1
I1031 14:22:37.611673 100109 net.cpp:160] Creating Layer fc1
I1031 14:22:37.616159 100109 net.cpp:596] fc1 <- pool4
I1031 14:22:37.620339 100109 net.cpp:570] fc1 -> fc1
I1031 14:22:38.493816 100109 net.cpp:210] Setting up fc1
I1031 14:22:38.502207 100109 net.cpp:217] Top shape: 1 1024 (1024)
I1031 14:22:38.506606 100109 net.cpp:225] Memory required for data: 32307396
I1031 14:22:38.515488 100109 layer_factory.hpp:114] Creating layer dropout5
I1031 14:22:38.524109 100109 net.cpp:160] Creating Layer dropout5
I1031 14:22:38.528331 100109 net.cpp:596] dropout5 <- fc1
I1031 14:22:38.533184 100109 net.cpp:570] dropout5 -> drop5
I1031 14:22:38.543676 100109 net.cpp:210] Setting up dropout5
I1031 14:22:38.545936 100109 net.cpp:217] Top shape: 1 1024 (1024)
I1031 14:22:38.550884 100109 net.cpp:225] Memory required for data: 32311492
I1031 14:22:38.557210 100109 layer_factory.hpp:114] Creating layer fc2
I1031 14:22:38.561678 100109 net.cpp:160] Creating Layer fc2
I1031 14:22:38.572711 100109 net.cpp:596] fc2 <- drop5
I1031 14:22:38.579416 100109 net.cpp:570] fc2 -> fc2
I1031 14:22:38.608559 100109 net.cpp:210] Setting up fc2
I1031 14:22:38.616164 100109 net.cpp:217] Top shape: 1 2 (2)
I1031 14:22:38.626541 100109 net.cpp:225] Memory required for data: 32311500
I1031 14:22:38.635176 100109 layer_factory.hpp:114] Creating layer loss
I1031 14:22:38.665426 100109 net.cpp:160] Creating Layer loss
I1031 14:22:38.670119 100109 net.cpp:596] loss <- fc2
I1031 14:22:38.679023 100109 net.cpp:596] loss <- label
I1031 14:22:38.739982 100109 net.cpp:570] loss -> (automatic)
I1031 14:22:38.787228 100109 layer_factory.hpp:114] Creating layer loss
…
