…
I1031 12:42:45.512867 96505 net.cpp:484] The NetState phase (0) differed from the phase (1) specified by a rule in layer data
I1031 12:42:46.194919 96505 net.cpp:120] Initializing net from parameters: 
name: "HEP_CLASSIFIER"
state {
  phase: TRAIN
  level: 0
  stage: ""
}
layer {
  name: "data"
  type: "DummyData"
  top: "data"
  top: "label"
  include {
    phase: TRAIN
  }
  dummy_data_param {
    data_filler {
      type: "gaussian"
      std: 1
    }
    data_filler {
      type: "constant"
      value: 0
    }
    shape {
      dim: 1
      dim: 3
      dim: 124
      dim: 124
    }
    shape {
      dim: 1
      dim: 1
      dim: 1
      dim: 1
    }
  }
}
layer {
  name: "conv1"
  type: "Convolution"
  bottom: "data"
  top: "conv1"
  convolution_param {
    num_output: 128
    pad: 0
    kernel_size: 3
    stride: 1
    weight_filler {
      type: "msra"
    }
    bias_filler {
      type: "constant"
      value: 0
    }
  }
}
layer {
  name: "relu1"
  type: "ReLU"
  bottom: "conv1"
  top: "conv1"
  relu_param {
    negative_slope: 0.1
  }
}
layer {
  name: "dropout1"
  type: "Dropout"
  bottom: "conv1"
  top: "drop1"
}
layer {
  name: "pool1"
  type: "Pooling"
  bottom: "drop1"
  top: "pool1"
  pooling_param {
    pool: MAX
    kernel_size: 2
    stride: 2
  }
}
layer {
  name: "conv2"
  type: "Convolution"
  bottom: "pool1"
  top: "conv2"
  convolution_param {
    num_output: 128
    pad: 0
    kernel_size: 3
    stride: 1
    weight_filler {
      type: "msra"
    }
    bias_filler {
      type: "constant"
      value: 0
    }
  }
}
layer {
  name: "relu2"
  type: "ReLU"
  bottom: "conv2"
  top: "conv2"
  relu_param {
    negative_slope: 0.1
  }
}
layer {
  name: "dropout2"
  type: "Dropout"
  bottom: "conv2"
  top: "drop2"
}
layer {
  name: "pool2"
  type: "Pooling"
  bottom: "drop2"
  top: "pool2"
  pooling_param {
    pool: MAX
    kernel_size: 2
    stride: 2
  }
}
layer {
  name: "conv3"
  type: "Convolution"
  bottom: "pool2"
  top: "conv3"
  convolution_param {
    num_output: 128
    pad: 0
    kernel_size: 3
    stride: 1
    weight_filler {
      type: "msra"
    }
    bias_filler {
      type: "constant"
      value: 0
    }
  }
}
layer {
  name: "relu3"
  type: "ReLU"
  bottom: "conv3"
  top: "conv3"
  relu_param {
    negative_slope: 0.1
  }
}
layer {
  name: "dropout3"
  type: "Dropout"
  bottom: "conv3"
  top: "drop3"
}
layer {
  name: "pool3"
  type: "Pooling"
  bottom: "drop3"
  top: "pool3"
  pooling_param {
    pool: MAX
    kernel_size: 2
    stride: 2
  }
}
layer {
  name: "conv4"
  type: "Convolution"
  bottom: "pool3"
  top: "conv4"
  convolution_param {
    num_output: 128
    pad: 0
    kernel_size: 3
    stride: 1
    weight_filler {
      type: "msra"
    }
    bias_filler {
      type: "constant"
      value: 0
    }
  }
}
layer {
  name: "relu4"
  type: "ReLU"
  bottom: "conv4"
  top: "conv4"
  relu_param {
    negative_slope: 0.1
  }
}
layer {
  name: "dropout4"
  type: "Dropout"
  bottom: "conv4"
  top: "drop4"
}
layer {
  name: "pool4"
  type: "Pooling"
  bottom: "drop4"
  top: "pool4"
  pooling_param {
    pool: MAX
    kernel_size: 2
    stride: 2
  }
}
layer {
  name: "fc1"
  type: "InnerProduct"
  bottom: "pool4"
  top: "fc1"
  inner_product_param {
    num_output: 1024
    weight_filler {
      type: "msra"
    }
    bias_filler {
      type: "constant"
      value: 0
    }
  }
}
layer {
  name: "dropout5"
  type: "Dropout"
  bottom: "fc1"
  top: "drop5"
}
layer {
  name: "fc2"
  type: "InnerProduct"
  bottom: "drop5"
  top: "fc2"
  inner_product_param {
    num_output: 2
    weight_filler {
      type: "msra"
    }
    bias_filler {
      type: "constant"
      value: 0
    }
  }
}
layer {
  name: "loss"
  type: "SoftmaxWithLoss"
  bottom: "fc2"
  bottom: "label"
}
I1031 12:42:48.625880 96505 layer_factory.hpp:114] Creating layer data
I1031 12:42:48.784713 96505 net.cpp:160] Creating Layer data
I1031 12:42:48.835564 96505 net.cpp:570] data -> data
I1031 12:42:49.329066 96505 net.cpp:570] data -> label
I1031 12:42:56.778909 96505 net.cpp:210] Setting up data
I1031 12:42:56.864934 96505 net.cpp:217] Top shape: 1 3 124 124 (46128)
I1031 12:42:56.974791 96505 net.cpp:217] Top shape: 1 1 1 1 (1)
I1031 12:42:56.983062 96505 net.cpp:225] Memory required for data: 184516
I1031 12:42:57.064122 96505 layer_factory.hpp:114] Creating layer conv1
I1031 12:42:57.428413 96505 net.cpp:160] Creating Layer conv1
I1031 12:42:57.481241 96505 net.cpp:596] conv1 <- data
I1031 12:42:57.607501 96505 net.cpp:570] conv1 -> conv1
I1031 12:43:35.071832 96505 net.cpp:210] Setting up conv1
I1031 12:43:35.136843 96505 net.cpp:217] Top shape: 1 128 122 122 (1905152)
I1031 12:43:35.144328 96505 net.cpp:225] Memory required for data: 7805124
I1031 12:43:35.462713 96505 layer_factory.hpp:114] Creating layer relu1
I1031 12:43:35.604526 96505 net.cpp:160] Creating Layer relu1
I1031 12:43:35.609899 96505 net.cpp:596] relu1 <- conv1
I1031 12:43:35.644327 96505 net.cpp:557] relu1 -> conv1 (in-place)
I1031 12:43:35.862373 96505 net.cpp:210] Setting up relu1
I1031 12:43:35.865150 96505 net.cpp:217] Top shape: 1 128 122 122 (1905152)
I1031 12:43:35.865517 96505 net.cpp:225] Memory required for data: 15425732
I1031 12:43:35.865731 96505 layer_factory.hpp:114] Creating layer dropout1
I1031 12:43:35.898428 96505 net.cpp:160] Creating Layer dropout1
I1031 12:43:35.898763 96505 net.cpp:596] dropout1 <- conv1
I1031 12:43:35.901656 96505 net.cpp:570] dropout1 -> drop1
I1031 12:43:36.021942 96505 net.cpp:210] Setting up dropout1
I1031 12:43:36.036239 96505 net.cpp:217] Top shape: 1 128 122 122 (1905152)
I1031 12:43:36.036664 96505 net.cpp:225] Memory required for data: 23046340
I1031 12:43:36.037016 96505 layer_factory.hpp:114] Creating layer pool1
I1031 12:43:36.141716 96505 net.cpp:160] Creating Layer pool1
I1031 12:43:36.142457 96505 net.cpp:596] pool1 <- drop1
I1031 12:43:36.142866 96505 net.cpp:570] pool1 -> pool1
I1031 12:43:36.565385 96505 net.cpp:210] Setting up pool1
I1031 12:43:36.574990 96505 net.cpp:217] Top shape: 1 128 61 61 (476288)
I1031 12:43:36.575496 96505 net.cpp:225] Memory required for data: 24951492
I1031 12:43:36.575822 96505 layer_factory.hpp:114] Creating layer conv2
I1031 12:43:36.642562 96505 net.cpp:160] Creating Layer conv2
I1031 12:43:36.647126 96505 net.cpp:596] conv2 <- pool1
I1031 12:43:36.663235 96505 net.cpp:570] conv2 -> conv2
I1031 12:43:43.495100 96505 net.cpp:210] Setting up conv2
I1031 12:43:43.498309 96505 net.cpp:217] Top shape: 1 128 59 59 (445568)
I1031 12:43:43.510144 96505 net.cpp:225] Memory required for data: 26733764
I1031 12:43:43.582947 96505 layer_factory.hpp:114] Creating layer relu2
I1031 12:43:43.593619 96505 net.cpp:160] Creating Layer relu2
I1031 12:43:43.603117 96505 net.cpp:596] relu2 <- conv2
I1031 12:43:43.611697 96505 net.cpp:557] relu2 -> conv2 (in-place)
I1031 12:43:43.624799 96505 net.cpp:210] Setting up relu2
I1031 12:43:43.630918 96505 net.cpp:217] Top shape: 1 128 59 59 (445568)
I1031 12:43:43.637527 96505 net.cpp:225] Memory required for data: 28516036
I1031 12:43:43.647955 96505 layer_factory.hpp:114] Creating layer dropout2
I1031 12:43:43.652458 96505 net.cpp:160] Creating Layer dropout2
I1031 12:43:43.654276 96505 net.cpp:596] dropout2 <- conv2
I1031 12:43:43.667410 96505 net.cpp:570] dropout2 -> drop2
I1031 12:43:43.669684 96505 net.cpp:210] Setting up dropout2
I1031 12:43:43.674136 96505 net.cpp:217] Top shape: 1 128 59 59 (445568)
I1031 12:43:43.682582 96505 net.cpp:225] Memory required for data: 30298308
I1031 12:43:43.689070 96505 layer_factory.hpp:114] Creating layer pool2
I1031 12:43:43.693629 96505 net.cpp:160] Creating Layer pool2
I1031 12:43:43.700223 96505 net.cpp:596] pool2 <- drop2
I1031 12:43:43.708838 96505 net.cpp:570] pool2 -> pool2
I1031 12:43:43.711536 96505 net.cpp:210] Setting up pool2
I1031 12:43:43.717319 96505 net.cpp:217] Top shape: 1 128 30 30 (115200)
I1031 12:43:43.729997 96505 net.cpp:225] Memory required for data: 30759108
I1031 12:43:43.735347 96505 layer_factory.hpp:114] Creating layer conv3
I1031 12:43:43.743325 96505 net.cpp:160] Creating Layer conv3
I1031 12:43:43.752048 96505 net.cpp:596] conv3 <- pool2
I1031 12:43:43.762508 96505 net.cpp:570] conv3 -> conv3
I1031 12:43:44.358662 96505 net.cpp:210] Setting up conv3
I1031 12:43:44.365177 96505 net.cpp:217] Top shape: 1 128 28 28 (100352)
I1031 12:43:44.367686 96505 net.cpp:225] Memory required for data: 31160516
I1031 12:43:44.383563 96505 layer_factory.hpp:114] Creating layer relu3
I1031 12:43:44.395704 96505 net.cpp:160] Creating Layer relu3
I1031 12:43:44.398067 96505 net.cpp:596] relu3 <- conv3
I1031 12:43:44.405014 96505 net.cpp:557] relu3 -> conv3 (in-place)
I1031 12:43:44.411664 96505 net.cpp:210] Setting up relu3
I1031 12:43:44.418145 96505 net.cpp:217] Top shape: 1 128 28 28 (100352)
I1031 12:43:44.424752 96505 net.cpp:225] Memory required for data: 31561924
I1031 12:43:44.435125 96505 layer_factory.hpp:114] Creating layer dropout3
I1031 12:43:44.441982 96505 net.cpp:160] Creating Layer dropout3
I1031 12:43:44.450412 96505 net.cpp:596] dropout3 <- conv3
I1031 12:43:44.456794 96505 net.cpp:570] dropout3 -> drop3
I1031 12:43:44.459602 96505 net.cpp:210] Setting up dropout3
I1031 12:43:44.461172 96505 net.cpp:217] Top shape: 1 128 28 28 (100352)
I1031 12:43:44.464278 96505 net.cpp:225] Memory required for data: 31963332
I1031 12:43:44.474730 96505 layer_factory.hpp:114] Creating layer pool3
I1031 12:43:44.481823 96505 net.cpp:160] Creating Layer pool3
I1031 12:43:44.484113 96505 net.cpp:596] pool3 <- drop3
I1031 12:43:44.494799 96505 net.cpp:570] pool3 -> pool3
I1031 12:43:44.501778 96505 net.cpp:210] Setting up pool3
I1031 12:43:44.503964 96505 net.cpp:217] Top shape: 1 128 14 14 (25088)
I1031 12:43:44.508842 96505 net.cpp:225] Memory required for data: 32063684
I1031 12:43:44.519351 96505 layer_factory.hpp:114] Creating layer conv4
I1031 12:43:44.527998 96505 net.cpp:160] Creating Layer conv4
I1031 12:43:44.536361 96505 net.cpp:596] conv4 <- pool3
I1031 12:43:44.548749 96505 net.cpp:570] conv4 -> conv4
I1031 12:43:44.924342 96505 net.cpp:210] Setting up conv4
I1031 12:43:44.926226 96505 net.cpp:217] Top shape: 1 128 12 12 (18432)
I1031 12:43:44.933843 96505 net.cpp:225] Memory required for data: 32137412
I1031 12:43:44.940554 96505 layer_factory.hpp:114] Creating layer relu4
I1031 12:43:44.950858 96505 net.cpp:160] Creating Layer relu4
I1031 12:43:44.954973 96505 net.cpp:596] relu4 <- conv4
I1031 12:43:44.965198 96505 net.cpp:557] relu4 -> conv4 (in-place)
I1031 12:43:44.978808 96505 net.cpp:210] Setting up relu4
I1031 12:43:44.983180 96505 net.cpp:217] Top shape: 1 128 12 12 (18432)
I1031 12:43:44.987833 96505 net.cpp:225] Memory required for data: 32211140
I1031 12:43:44.994515 96505 layer_factory.hpp:114] Creating layer dropout4
I1031 12:43:45.000980 96505 net.cpp:160] Creating Layer dropout4
I1031 12:43:45.009032 96505 net.cpp:596] dropout4 <- conv4
I1031 12:43:45.013463 96505 net.cpp:570] dropout4 -> drop4
I1031 12:43:45.025998 96505 net.cpp:210] Setting up dropout4
I1031 12:43:45.028376 96505 net.cpp:217] Top shape: 1 128 12 12 (18432)
I1031 12:43:45.034550 96505 net.cpp:225] Memory required for data: 32284868
I1031 12:43:45.036718 96505 layer_factory.hpp:114] Creating layer pool4
I1031 12:43:45.043551 96505 net.cpp:160] Creating Layer pool4
I1031 12:43:45.053903 96505 net.cpp:596] pool4 <- drop4
I1031 12:43:45.057842 96505 net.cpp:570] pool4 -> pool4
I1031 12:43:45.080641 96505 net.cpp:210] Setting up pool4
I1031 12:43:45.087427 96505 net.cpp:217] Top shape: 1 128 6 6 (4608)
I1031 12:43:45.093822 96505 net.cpp:225] Memory required for data: 32303300
I1031 12:43:45.095876 96505 layer_factory.hpp:114] Creating layer fc1
I1031 12:43:45.164402 96505 net.cpp:160] Creating Layer fc1
I1031 12:43:45.169134 96505 net.cpp:596] fc1 <- pool4
I1031 12:43:45.176342 96505 net.cpp:570] fc1 -> fc1
I1031 12:43:46.070089 96505 net.cpp:210] Setting up fc1
I1031 12:43:46.078531 96505 net.cpp:217] Top shape: 1 1024 (1024)
I1031 12:43:46.086941 96505 net.cpp:225] Memory required for data: 32307396
I1031 12:43:46.096053 96505 layer_factory.hpp:114] Creating layer dropout5
I1031 12:43:46.106565 96505 net.cpp:160] Creating Layer dropout5
I1031 12:43:46.115175 96505 net.cpp:596] dropout5 <- fc1
I1031 12:43:46.126128 96505 net.cpp:570] dropout5 -> drop5
I1031 12:43:46.132225 96505 net.cpp:210] Setting up dropout5
I1031 12:43:46.144989 96505 net.cpp:217] Top shape: 1 1024 (1024)
I1031 12:43:46.155474 96505 net.cpp:225] Memory required for data: 32311492
I1031 12:43:46.159942 96505 layer_factory.hpp:114] Creating layer fc2
I1031 12:43:46.166280 96505 net.cpp:160] Creating Layer fc2
I1031 12:43:46.171860 96505 net.cpp:596] fc2 <- drop5
I1031 12:43:46.178697 96505 net.cpp:570] fc2 -> fc2
I1031 12:43:46.204926 96505 net.cpp:210] Setting up fc2
I1031 12:43:46.218052 96505 net.cpp:217] Top shape: 1 2 (2)
I1031 12:43:46.227288 96505 net.cpp:225] Memory required for data: 32311500
I1031 12:43:46.234194 96505 layer_factory.hpp:114] Creating layer loss
I1031 12:43:46.266661 96505 net.cpp:160] Creating Layer loss
I1031 12:43:46.275118 96505 net.cpp:596] loss <- fc2
I1031 12:43:46.285823 96505 net.cpp:596] loss <- label
I1031 12:43:46.350528 96505 net.cpp:570] loss -> (automatic)
I1031 12:43:46.404225 96505 layer_factory.hpp:114] Creating layer loss
…
