…
I1031 13:19:23.024811 97800 net.cpp:484] The NetState phase (0) differed from the phase (1) specified by a rule in layer data
I1031 13:19:23.725589 97800 net.cpp:120] Initializing net from parameters: 
name: "HEP_CLASSIFIER"
state {
  phase: TRAIN
  level: 0
  stage: ""
}
layer {
  name: "data"
  type: "DummyData"
  top: "data"
  top: "label"
  include {
    phase: TRAIN
  }
  dummy_data_param {
    data_filler {
      type: "gaussian"
      std: 1
    }
    data_filler {
      type: "constant"
      value: 0
    }
    shape {
      dim: 1
      dim: 3
      dim: 124
      dim: 124
    }
    shape {
      dim: 1
      dim: 1
      dim: 1
      dim: 1
    }
  }
}
layer {
  name: "conv1"
  type: "Convolution"
  bottom: "data"
  top: "conv1"
  convolution_param {
    num_output: 128
    pad: 0
    kernel_size: 3
    stride: 1
    weight_filler {
      type: "msra"
    }
    bias_filler {
      type: "constant"
      value: 0
    }
  }
}
layer {
  name: "relu1"
  type: "ReLU"
  bottom: "conv1"
  top: "conv1"
  relu_param {
    negative_slope: 0.1
  }
}
layer {
  name: "dropout1"
  type: "Dropout"
  bottom: "conv1"
  top: "drop1"
}
layer {
  name: "pool1"
  type: "Pooling"
  bottom: "drop1"
  top: "pool1"
  pooling_param {
    pool: MAX
    kernel_size: 2
    stride: 2
  }
}
layer {
  name: "conv2"
  type: "Convolution"
  bottom: "pool1"
  top: "conv2"
  convolution_param {
    num_output: 128
    pad: 0
    kernel_size: 3
    stride: 1
    weight_filler {
      type: "msra"
    }
    bias_filler {
      type: "constant"
      value: 0
    }
  }
}
layer {
  name: "relu2"
  type: "ReLU"
  bottom: "conv2"
  top: "conv2"
  relu_param {
    negative_slope: 0.1
  }
}
layer {
  name: "dropout2"
  type: "Dropout"
  bottom: "conv2"
  top: "drop2"
}
layer {
  name: "pool2"
  type: "Pooling"
  bottom: "drop2"
  top: "pool2"
  pooling_param {
    pool: MAX
    kernel_size: 2
    stride: 2
  }
}
layer {
  name: "conv3"
  type: "Convolution"
  bottom: "pool2"
  top: "conv3"
  convolution_param {
    num_output: 128
    pad: 0
    kernel_size: 3
    stride: 1
    weight_filler {
      type: "msra"
    }
    bias_filler {
      type: "constant"
      value: 0
    }
  }
}
layer {
  name: "relu3"
  type: "ReLU"
  bottom: "conv3"
  top: "conv3"
  relu_param {
    negative_slope: 0.1
  }
}
layer {
  name: "dropout3"
  type: "Dropout"
  bottom: "conv3"
  top: "drop3"
}
layer {
  name: "pool3"
  type: "Pooling"
  bottom: "drop3"
  top: "pool3"
  pooling_param {
    pool: MAX
    kernel_size: 2
    stride: 2
  }
}
layer {
  name: "conv4"
  type: "Convolution"
  bottom: "pool3"
  top: "conv4"
  convolution_param {
    num_output: 128
    pad: 0
    kernel_size: 3
    stride: 1
    weight_filler {
      type: "msra"
    }
    bias_filler {
      type: "constant"
      value: 0
    }
  }
}
layer {
  name: "relu4"
  type: "ReLU"
  bottom: "conv4"
  top: "conv4"
  relu_param {
    negative_slope: 0.1
  }
}
layer {
  name: "dropout4"
  type: "Dropout"
  bottom: "conv4"
  top: "drop4"
}
layer {
  name: "pool4"
  type: "Pooling"
  bottom: "drop4"
  top: "pool4"
  pooling_param {
    pool: MAX
    kernel_size: 2
    stride: 2
  }
}
layer {
  name: "fc1"
  type: "InnerProduct"
  bottom: "pool4"
  top: "fc1"
  inner_product_param {
    num_output: 1024
    weight_filler {
      type: "msra"
    }
    bias_filler {
      type: "constant"
      value: 0
    }
  }
}
layer {
  name: "dropout5"
  type: "Dropout"
  bottom: "fc1"
  top: "drop5"
}
layer {
  name: "fc2"
  type: "InnerProduct"
  bottom: "drop5"
  top: "fc2"
  inner_product_param {
    num_output: 2
    weight_filler {
      type: "msra"
    }
    bias_filler {
      type: "constant"
      value: 0
    }
  }
}
layer {
  name: "loss"
  type: "SoftmaxWithLoss"
  bottom: "fc2"
  bottom: "label"
}
I1031 13:19:26.166820 97800 layer_factory.hpp:114] Creating layer data
I1031 13:19:26.324038 97800 net.cpp:160] Creating Layer data
I1031 13:19:26.375694 97800 net.cpp:570] data -> data
I1031 13:19:26.872241 97800 net.cpp:570] data -> label
I1031 13:19:34.336117 97800 net.cpp:210] Setting up data
I1031 13:19:34.420054 97800 net.cpp:217] Top shape: 1 3 124 124 (46128)
I1031 13:19:34.526772 97800 net.cpp:217] Top shape: 1 1 1 1 (1)
I1031 13:19:34.535717 97800 net.cpp:225] Memory required for data: 184516
I1031 13:19:34.617239 97800 layer_factory.hpp:114] Creating layer conv1
I1031 13:19:34.964135 97800 net.cpp:160] Creating Layer conv1
I1031 13:19:35.017206 97800 net.cpp:596] conv1 <- data
I1031 13:19:35.146903 97800 net.cpp:570] conv1 -> conv1
I1031 13:20:12.852859 97800 net.cpp:210] Setting up conv1
I1031 13:20:12.930629 97800 net.cpp:217] Top shape: 1 128 122 122 (1905152)
I1031 13:20:12.939528 97800 net.cpp:225] Memory required for data: 7805124
I1031 13:20:13.267258 97800 layer_factory.hpp:114] Creating layer relu1
I1031 13:20:13.398457 97800 net.cpp:160] Creating Layer relu1
I1031 13:20:13.403517 97800 net.cpp:596] relu1 <- conv1
I1031 13:20:13.438347 97800 net.cpp:557] relu1 -> conv1 (in-place)
I1031 13:20:13.654314 97800 net.cpp:210] Setting up relu1
I1031 13:20:13.656956 97800 net.cpp:217] Top shape: 1 128 122 122 (1905152)
I1031 13:20:13.657320 97800 net.cpp:225] Memory required for data: 15425732
I1031 13:20:13.657534 97800 layer_factory.hpp:114] Creating layer dropout1
I1031 13:20:13.690062 97800 net.cpp:160] Creating Layer dropout1
I1031 13:20:13.690393 97800 net.cpp:596] dropout1 <- conv1
I1031 13:20:13.693207 97800 net.cpp:570] dropout1 -> drop1
I1031 13:20:13.815950 97800 net.cpp:210] Setting up dropout1
I1031 13:20:13.830020 97800 net.cpp:217] Top shape: 1 128 122 122 (1905152)
I1031 13:20:13.830451 97800 net.cpp:225] Memory required for data: 23046340
I1031 13:20:13.830824 97800 layer_factory.hpp:114] Creating layer pool1
I1031 13:20:13.933861 97800 net.cpp:160] Creating Layer pool1
I1031 13:20:13.934207 97800 net.cpp:596] pool1 <- drop1
I1031 13:20:13.934607 97800 net.cpp:570] pool1 -> pool1
I1031 13:20:14.351650 97800 net.cpp:210] Setting up pool1
I1031 13:20:14.356735 97800 net.cpp:217] Top shape: 1 128 61 61 (476288)
I1031 13:20:14.357120 97800 net.cpp:225] Memory required for data: 24951492
I1031 13:20:14.357422 97800 layer_factory.hpp:114] Creating layer conv2
I1031 13:20:14.420490 97800 net.cpp:160] Creating Layer conv2
I1031 13:20:14.426342 97800 net.cpp:596] conv2 <- pool1
I1031 13:20:14.441886 97800 net.cpp:570] conv2 -> conv2
I1031 13:20:21.314450 97800 net.cpp:210] Setting up conv2
I1031 13:20:21.316967 97800 net.cpp:217] Top shape: 1 128 59 59 (445568)
I1031 13:20:21.327853 97800 net.cpp:225] Memory required for data: 26733764
I1031 13:20:21.392395 97800 layer_factory.hpp:114] Creating layer relu2
I1031 13:20:21.398999 97800 net.cpp:160] Creating Layer relu2
I1031 13:20:21.401362 97800 net.cpp:596] relu2 <- conv2
I1031 13:20:21.409047 97800 net.cpp:557] relu2 -> conv2 (in-place)
I1031 13:20:21.413545 97800 net.cpp:210] Setting up relu2
I1031 13:20:21.415812 97800 net.cpp:217] Top shape: 1 128 59 59 (445568)
I1031 13:20:21.418419 97800 net.cpp:225] Memory required for data: 28516036
I1031 13:20:21.426718 97800 layer_factory.hpp:114] Creating layer dropout2
I1031 13:20:21.431226 97800 net.cpp:160] Creating Layer dropout2
I1031 13:20:21.437331 97800 net.cpp:596] dropout2 <- conv2
I1031 13:20:21.443717 97800 net.cpp:570] dropout2 -> drop2
I1031 13:20:21.448176 97800 net.cpp:210] Setting up dropout2
I1031 13:20:21.458644 97800 net.cpp:217] Top shape: 1 128 59 59 (445568)
I1031 13:20:21.463084 97800 net.cpp:225] Memory required for data: 30298308
I1031 13:20:21.467852 97800 layer_factory.hpp:114] Creating layer pool2
I1031 13:20:21.474293 97800 net.cpp:160] Creating Layer pool2
I1031 13:20:21.480984 97800 net.cpp:596] pool2 <- drop2
I1031 13:20:21.485348 97800 net.cpp:570] pool2 -> pool2
I1031 13:20:21.485891 97800 net.cpp:210] Setting up pool2
I1031 13:20:21.488142 97800 net.cpp:217] Top shape: 1 128 30 30 (115200)
I1031 13:20:21.496809 97800 net.cpp:225] Memory required for data: 30759108
I1031 13:20:21.506680 97800 layer_factory.hpp:114] Creating layer conv3
I1031 13:20:21.511318 97800 net.cpp:160] Creating Layer conv3
I1031 13:20:21.515086 97800 net.cpp:596] conv3 <- pool2
I1031 13:20:21.523551 97800 net.cpp:570] conv3 -> conv3
I1031 13:20:22.123953 97800 net.cpp:210] Setting up conv3
I1031 13:20:22.132205 97800 net.cpp:217] Top shape: 1 128 28 28 (100352)
I1031 13:20:22.134680 97800 net.cpp:225] Memory required for data: 31160516
I1031 13:20:22.150416 97800 layer_factory.hpp:114] Creating layer relu3
I1031 13:20:22.154788 97800 net.cpp:160] Creating Layer relu3
I1031 13:20:22.157207 97800 net.cpp:596] relu3 <- conv3
I1031 13:20:22.161861 97800 net.cpp:557] relu3 -> conv3 (in-place)
I1031 13:20:22.170405 97800 net.cpp:210] Setting up relu3
I1031 13:20:22.182731 97800 net.cpp:217] Top shape: 1 128 28 28 (100352)
I1031 13:20:22.189438 97800 net.cpp:225] Memory required for data: 31561924
I1031 13:20:22.198098 97800 layer_factory.hpp:114] Creating layer dropout3
I1031 13:20:22.200121 97800 net.cpp:160] Creating Layer dropout3
I1031 13:20:22.200429 97800 net.cpp:596] dropout3 <- conv3
I1031 13:20:22.200708 97800 net.cpp:570] dropout3 -> drop3
I1031 13:20:22.205653 97800 net.cpp:210] Setting up dropout3
I1031 13:20:22.207553 97800 net.cpp:217] Top shape: 1 128 28 28 (100352)
I1031 13:20:22.212249 97800 net.cpp:225] Memory required for data: 31963332
I1031 13:20:22.216938 97800 layer_factory.hpp:114] Creating layer pool3
I1031 13:20:22.224941 97800 net.cpp:160] Creating Layer pool3
I1031 13:20:22.229466 97800 net.cpp:596] pool3 <- drop3
I1031 13:20:22.231958 97800 net.cpp:570] pool3 -> pool3
I1031 13:20:22.236421 97800 net.cpp:210] Setting up pool3
I1031 13:20:22.242141 97800 net.cpp:217] Top shape: 1 128 14 14 (25088)
I1031 13:20:22.251225 97800 net.cpp:225] Memory required for data: 32063684
I1031 13:20:22.259693 97800 layer_factory.hpp:114] Creating layer conv4
I1031 13:20:22.265997 97800 net.cpp:160] Creating Layer conv4
I1031 13:20:22.268508 97800 net.cpp:596] conv4 <- pool3
I1031 13:20:22.275001 97800 net.cpp:570] conv4 -> conv4
I1031 13:20:22.678911 97800 net.cpp:210] Setting up conv4
I1031 13:20:22.689286 97800 net.cpp:217] Top shape: 1 128 12 12 (18432)
I1031 13:20:22.699256 97800 net.cpp:225] Memory required for data: 32137412
I1031 13:20:22.709733 97800 layer_factory.hpp:114] Creating layer relu4
I1031 13:20:22.715839 97800 net.cpp:160] Creating Layer relu4
I1031 13:20:22.725844 97800 net.cpp:596] relu4 <- conv4
I1031 13:20:22.732872 97800 net.cpp:557] relu4 -> conv4 (in-place)
I1031 13:20:22.739339 97800 net.cpp:210] Setting up relu4
I1031 13:20:22.751662 97800 net.cpp:217] Top shape: 1 128 12 12 (18432)
I1031 13:20:22.760036 97800 net.cpp:225] Memory required for data: 32211140
I1031 13:20:22.768640 97800 layer_factory.hpp:114] Creating layer dropout4
I1031 13:20:22.776738 97800 net.cpp:160] Creating Layer dropout4
I1031 13:20:22.785318 97800 net.cpp:596] dropout4 <- conv4
I1031 13:20:22.791669 97800 net.cpp:570] dropout4 -> drop4
I1031 13:20:22.796351 97800 net.cpp:210] Setting up dropout4
I1031 13:20:22.798405 97800 net.cpp:217] Top shape: 1 128 12 12 (18432)
I1031 13:20:22.809474 97800 net.cpp:225] Memory required for data: 32284868
I1031 13:20:22.811578 97800 layer_factory.hpp:114] Creating layer pool4
I1031 13:20:22.817790 97800 net.cpp:160] Creating Layer pool4
I1031 13:20:22.821802 97800 net.cpp:596] pool4 <- drop4
I1031 13:20:22.832281 97800 net.cpp:570] pool4 -> pool4
I1031 13:20:22.855173 97800 net.cpp:210] Setting up pool4
I1031 13:20:22.861562 97800 net.cpp:217] Top shape: 1 128 6 6 (4608)
I1031 13:20:22.867357 97800 net.cpp:225] Memory required for data: 32303300
I1031 13:20:22.870579 97800 layer_factory.hpp:114] Creating layer fc1
I1031 13:20:22.936432 97800 net.cpp:160] Creating Layer fc1
I1031 13:20:22.940474 97800 net.cpp:596] fc1 <- pool4
I1031 13:20:22.942247 97800 net.cpp:570] fc1 -> fc1
I1031 13:20:23.821467 97800 net.cpp:210] Setting up fc1
I1031 13:20:23.825789 97800 net.cpp:217] Top shape: 1 1024 (1024)
I1031 13:20:23.828253 97800 net.cpp:225] Memory required for data: 32307396
I1031 13:20:23.840733 97800 layer_factory.hpp:114] Creating layer dropout5
I1031 13:20:23.849998 97800 net.cpp:160] Creating Layer dropout5
I1031 13:20:23.856346 97800 net.cpp:596] dropout5 <- fc1
I1031 13:20:23.862776 97800 net.cpp:570] dropout5 -> drop5
I1031 13:20:23.874938 97800 net.cpp:210] Setting up dropout5
I1031 13:20:23.881655 97800 net.cpp:217] Top shape: 1 1024 (1024)
I1031 13:20:23.885929 97800 net.cpp:225] Memory required for data: 32311492
I1031 13:20:23.891799 97800 layer_factory.hpp:114] Creating layer fc2
I1031 13:20:23.898756 97800 net.cpp:160] Creating Layer fc2
I1031 13:20:23.900928 97800 net.cpp:596] fc2 <- drop5
I1031 13:20:23.903779 97800 net.cpp:570] fc2 -> fc2
I1031 13:20:23.929939 97800 net.cpp:210] Setting up fc2
I1031 13:20:23.945402 97800 net.cpp:217] Top shape: 1 2 (2)
I1031 13:20:23.957815 97800 net.cpp:225] Memory required for data: 32311500
I1031 13:20:23.965966 97800 layer_factory.hpp:114] Creating layer loss
I1031 13:20:23.994557 97800 net.cpp:160] Creating Layer loss
I1031 13:20:24.005233 97800 net.cpp:596] loss <- fc2
I1031 13:20:24.013943 97800 net.cpp:596] loss <- label
I1031 13:20:24.083989 97800 net.cpp:570] loss -> (automatic)
I1031 13:20:24.140110 97800 layer_factory.hpp:114] Creating layer loss
…
