…
I1031 14:45:31.403273 100944 net.cpp:484] The NetState phase (0) differed from the phase (1) specified by a rule in layer data
I1031 14:45:32.096184 100944 net.cpp:120] Initializing net from parameters: 
name: "HEP_CLASSIFIER"
state {
  phase: TRAIN
  level: 0
  stage: ""
}
layer {
  name: "data"
  type: "DummyData"
  top: "data"
  top: "label"
  include {
    phase: TRAIN
  }
  dummy_data_param {
    data_filler {
      type: "gaussian"
      std: 1
    }
    data_filler {
      type: "constant"
      value: 0
    }
    shape {
      dim: 1
      dim: 3
      dim: 124
      dim: 124
    }
    shape {
      dim: 1
      dim: 1
      dim: 1
      dim: 1
    }
  }
}
layer {
  name: "conv1"
  type: "Convolution"
  bottom: "data"
  top: "conv1"
  convolution_param {
    num_output: 128
    pad: 0
    kernel_size: 3
    stride: 1
    weight_filler {
      type: "msra"
    }
    bias_filler {
      type: "constant"
      value: 0
    }
  }
}
layer {
  name: "relu1"
  type: "ReLU"
  bottom: "conv1"
  top: "conv1"
  relu_param {
    negative_slope: 0.1
  }
}
layer {
  name: "dropout1"
  type: "Dropout"
  bottom: "conv1"
  top: "drop1"
}
layer {
  name: "pool1"
  type: "Pooling"
  bottom: "drop1"
  top: "pool1"
  pooling_param {
    pool: MAX
    kernel_size: 2
    stride: 2
  }
}
layer {
  name: "conv2"
  type: "Convolution"
  bottom: "pool1"
  top: "conv2"
  convolution_param {
    num_output: 128
    pad: 0
    kernel_size: 3
    stride: 1
    weight_filler {
      type: "msra"
    }
    bias_filler {
      type: "constant"
      value: 0
    }
  }
}
layer {
  name: "relu2"
  type: "ReLU"
  bottom: "conv2"
  top: "conv2"
  relu_param {
    negative_slope: 0.1
  }
}
layer {
  name: "dropout2"
  type: "Dropout"
  bottom: "conv2"
  top: "drop2"
}
layer {
  name: "pool2"
  type: "Pooling"
  bottom: "drop2"
  top: "pool2"
  pooling_param {
    pool: MAX
    kernel_size: 2
    stride: 2
  }
}
layer {
  name: "conv3"
  type: "Convolution"
  bottom: "pool2"
  top: "conv3"
  convolution_param {
    num_output: 128
    pad: 0
    kernel_size: 3
    stride: 1
    weight_filler {
      type: "msra"
    }
    bias_filler {
      type: "constant"
      value: 0
    }
  }
}
layer {
  name: "relu3"
  type: "ReLU"
  bottom: "conv3"
  top: "conv3"
  relu_param {
    negative_slope: 0.1
  }
}
layer {
  name: "dropout3"
  type: "Dropout"
  bottom: "conv3"
  top: "drop3"
}
layer {
  name: "pool3"
  type: "Pooling"
  bottom: "drop3"
  top: "pool3"
  pooling_param {
    pool: MAX
    kernel_size: 2
    stride: 2
  }
}
layer {
  name: "conv4"
  type: "Convolution"
  bottom: "pool3"
  top: "conv4"
  convolution_param {
    num_output: 128
    pad: 0
    kernel_size: 3
    stride: 1
    weight_filler {
      type: "msra"
    }
    bias_filler {
      type: "constant"
      value: 0
    }
  }
}
layer {
  name: "relu4"
  type: "ReLU"
  bottom: "conv4"
  top: "conv4"
  relu_param {
    negative_slope: 0.1
  }
}
layer {
  name: "dropout4"
  type: "Dropout"
  bottom: "conv4"
  top: "drop4"
}
layer {
  name: "pool4"
  type: "Pooling"
  bottom: "drop4"
  top: "pool4"
  pooling_param {
    pool: MAX
    kernel_size: 2
    stride: 2
  }
}
layer {
  name: "fc1"
  type: "InnerProduct"
  bottom: "pool4"
  top: "fc1"
  inner_product_param {
    num_output: 1024
    weight_filler {
      type: "msra"
    }
    bias_filler {
      type: "constant"
      value: 0
    }
  }
}
layer {
  name: "dropout5"
  type: "Dropout"
  bottom: "fc1"
  top: "drop5"
}
layer {
  name: "fc2"
  type: "InnerProduct"
  bottom: "drop5"
  top: "fc2"
  inner_product_param {
    num_output: 2
    weight_filler {
      type: "msra"
    }
    bias_filler {
      type: "constant"
      value: 0
    }
  }
}
layer {
  name: "loss"
  type: "SoftmaxWithLoss"
  bottom: "fc2"
  bottom: "label"
}
I1031 14:45:34.528348 100944 layer_factory.hpp:114] Creating layer data
I1031 14:45:34.688205 100944 net.cpp:160] Creating Layer data
I1031 14:45:34.739194 100944 net.cpp:570] data -> data
I1031 14:45:35.232197 100944 net.cpp:570] data -> label
I1031 14:45:42.789419 100944 net.cpp:210] Setting up data
I1031 14:45:42.873978 100944 net.cpp:217] Top shape: 1 3 124 124 (46128)
I1031 14:45:42.980371 100944 net.cpp:217] Top shape: 1 1 1 1 (1)
I1031 14:45:42.987725 100944 net.cpp:225] Memory required for data: 184516
I1031 14:45:43.066563 100944 layer_factory.hpp:114] Creating layer conv1
I1031 14:45:43.422183 100944 net.cpp:160] Creating Layer conv1
I1031 14:45:43.475546 100944 net.cpp:596] conv1 <- data
I1031 14:45:43.605568 100944 net.cpp:570] conv1 -> conv1
I1031 14:46:20.995733 100944 net.cpp:210] Setting up conv1
I1031 14:46:21.078783 100944 net.cpp:217] Top shape: 1 128 122 122 (1905152)
I1031 14:46:21.087338 100944 net.cpp:225] Memory required for data: 7805124
I1031 14:46:21.403771 100944 layer_factory.hpp:114] Creating layer relu1
I1031 14:46:21.535866 100944 net.cpp:160] Creating Layer relu1
I1031 14:46:21.540930 100944 net.cpp:596] relu1 <- conv1
I1031 14:46:21.575779 100944 net.cpp:557] relu1 -> conv1 (in-place)
I1031 14:46:21.792666 100944 net.cpp:210] Setting up relu1
I1031 14:46:21.795341 100944 net.cpp:217] Top shape: 1 128 122 122 (1905152)
I1031 14:46:21.795758 100944 net.cpp:225] Memory required for data: 15425732
I1031 14:46:21.795980 100944 layer_factory.hpp:114] Creating layer dropout1
I1031 14:46:21.828763 100944 net.cpp:160] Creating Layer dropout1
I1031 14:46:21.829125 100944 net.cpp:596] dropout1 <- conv1
I1031 14:46:21.831889 100944 net.cpp:570] dropout1 -> drop1
I1031 14:46:21.959684 100944 net.cpp:210] Setting up dropout1
I1031 14:46:21.975075 100944 net.cpp:217] Top shape: 1 128 122 122 (1905152)
I1031 14:46:21.975586 100944 net.cpp:225] Memory required for data: 23046340
I1031 14:46:21.975989 100944 layer_factory.hpp:114] Creating layer pool1
I1031 14:46:22.080598 100944 net.cpp:160] Creating Layer pool1
I1031 14:46:22.081465 100944 net.cpp:596] pool1 <- drop1
I1031 14:46:22.081893 100944 net.cpp:570] pool1 -> pool1
I1031 14:46:22.500810 100944 net.cpp:210] Setting up pool1
I1031 14:46:22.509887 100944 net.cpp:217] Top shape: 1 128 61 61 (476288)
I1031 14:46:22.510272 100944 net.cpp:225] Memory required for data: 24951492
I1031 14:46:22.510633 100944 layer_factory.hpp:114] Creating layer conv2
I1031 14:46:22.576185 100944 net.cpp:160] Creating Layer conv2
I1031 14:46:22.580875 100944 net.cpp:596] conv2 <- pool1
I1031 14:46:22.597177 100944 net.cpp:570] conv2 -> conv2
I1031 14:46:29.468035 100944 net.cpp:210] Setting up conv2
I1031 14:46:29.476343 100944 net.cpp:217] Top shape: 1 128 59 59 (445568)
I1031 14:46:29.485529 100944 net.cpp:225] Memory required for data: 26733764
I1031 14:46:29.561502 100944 layer_factory.hpp:114] Creating layer relu2
I1031 14:46:29.574226 100944 net.cpp:160] Creating Layer relu2
I1031 14:46:29.582990 100944 net.cpp:596] relu2 <- conv2
I1031 14:46:29.585482 100944 net.cpp:557] relu2 -> conv2 (in-place)
I1031 14:46:29.594466 100944 net.cpp:210] Setting up relu2
I1031 14:46:29.605355 100944 net.cpp:217] Top shape: 1 128 59 59 (445568)
I1031 14:46:29.608150 100944 net.cpp:225] Memory required for data: 28516036
I1031 14:46:29.617285 100944 layer_factory.hpp:114] Creating layer dropout2
I1031 14:46:29.617776 100944 net.cpp:160] Creating Layer dropout2
I1031 14:46:29.627815 100944 net.cpp:596] dropout2 <- conv2
I1031 14:46:29.638701 100944 net.cpp:570] dropout2 -> drop2
I1031 14:46:29.647110 100944 net.cpp:210] Setting up dropout2
I1031 14:46:29.651638 100944 net.cpp:217] Top shape: 1 128 59 59 (445568)
I1031 14:46:29.653693 100944 net.cpp:225] Memory required for data: 30298308
I1031 14:46:29.658928 100944 layer_factory.hpp:114] Creating layer pool2
I1031 14:46:29.663486 100944 net.cpp:160] Creating Layer pool2
I1031 14:46:29.666072 100944 net.cpp:596] pool2 <- drop2
I1031 14:46:29.676553 100944 net.cpp:570] pool2 -> pool2
I1031 14:46:29.682677 100944 net.cpp:210] Setting up pool2
I1031 14:46:29.685691 100944 net.cpp:217] Top shape: 1 128 30 30 (115200)
I1031 14:46:29.695708 100944 net.cpp:225] Memory required for data: 30759108
I1031 14:46:29.696142 100944 layer_factory.hpp:114] Creating layer conv3
I1031 14:46:29.710805 100944 net.cpp:160] Creating Layer conv3
I1031 14:46:29.723326 100944 net.cpp:596] conv3 <- pool2
I1031 14:46:29.723889 100944 net.cpp:570] conv3 -> conv3
I1031 14:46:30.318856 100944 net.cpp:210] Setting up conv3
I1031 14:46:30.327873 100944 net.cpp:217] Top shape: 1 128 28 28 (100352)
I1031 14:46:30.333664 100944 net.cpp:225] Memory required for data: 31160516
I1031 14:46:30.352665 100944 layer_factory.hpp:114] Creating layer relu3
I1031 14:46:30.354588 100944 net.cpp:160] Creating Layer relu3
I1031 14:46:30.371101 100944 net.cpp:596] relu3 <- conv3
I1031 14:46:30.379525 100944 net.cpp:557] relu3 -> conv3 (in-place)
I1031 14:46:30.390184 100944 net.cpp:210] Setting up relu3
I1031 14:46:30.398056 100944 net.cpp:217] Top shape: 1 128 28 28 (100352)
I1031 14:46:30.404440 100944 net.cpp:225] Memory required for data: 31561924
I1031 14:46:30.410384 100944 layer_factory.hpp:114] Creating layer dropout3
I1031 14:46:30.417353 100944 net.cpp:160] Creating Layer dropout3
I1031 14:46:30.422998 100944 net.cpp:596] dropout3 <- conv3
I1031 14:46:30.423497 100944 net.cpp:570] dropout3 -> drop3
I1031 14:46:30.423894 100944 net.cpp:210] Setting up dropout3
I1031 14:46:30.428344 100944 net.cpp:217] Top shape: 1 128 28 28 (100352)
I1031 14:46:30.430579 100944 net.cpp:225] Memory required for data: 31963332
I1031 14:46:30.435348 100944 layer_factory.hpp:114] Creating layer pool3
I1031 14:46:30.437659 100944 net.cpp:160] Creating Layer pool3
I1031 14:46:30.437978 100944 net.cpp:596] pool3 <- drop3
I1031 14:46:30.438256 100944 net.cpp:570] pool3 -> pool3
I1031 14:46:30.447017 100944 net.cpp:210] Setting up pool3
I1031 14:46:30.451071 100944 net.cpp:217] Top shape: 1 128 14 14 (25088)
I1031 14:46:30.453268 100944 net.cpp:225] Memory required for data: 32063684
I1031 14:46:30.455760 100944 layer_factory.hpp:114] Creating layer conv4
I1031 14:46:30.468601 100944 net.cpp:160] Creating Layer conv4
I1031 14:46:30.479538 100944 net.cpp:596] conv4 <- pool3
I1031 14:46:30.482287 100944 net.cpp:570] conv4 -> conv4
I1031 14:46:30.851214 100944 net.cpp:210] Setting up conv4
I1031 14:46:30.859671 100944 net.cpp:217] Top shape: 1 128 12 12 (18432)
I1031 14:46:30.861876 100944 net.cpp:225] Memory required for data: 32137412
I1031 14:46:30.866756 100944 layer_factory.hpp:114] Creating layer relu4
I1031 14:46:30.867137 100944 net.cpp:160] Creating Layer relu4
I1031 14:46:30.871702 100944 net.cpp:596] relu4 <- conv4
I1031 14:46:30.878149 100944 net.cpp:557] relu4 -> conv4 (in-place)
I1031 14:46:30.880825 100944 net.cpp:210] Setting up relu4
I1031 14:46:30.889456 100944 net.cpp:217] Top shape: 1 128 12 12 (18432)
I1031 14:46:30.900096 100944 net.cpp:225] Memory required for data: 32211140
I1031 14:46:30.900533 100944 layer_factory.hpp:114] Creating layer dropout4
I1031 14:46:30.910995 100944 net.cpp:160] Creating Layer dropout4
I1031 14:46:30.921193 100944 net.cpp:596] dropout4 <- conv4
I1031 14:46:30.929770 100944 net.cpp:570] dropout4 -> drop4
I1031 14:46:30.930279 100944 net.cpp:210] Setting up dropout4
I1031 14:46:30.934487 100944 net.cpp:217] Top shape: 1 128 12 12 (18432)
I1031 14:46:30.942746 100944 net.cpp:225] Memory required for data: 32284868
I1031 14:46:30.943181 100944 layer_factory.hpp:114] Creating layer pool4
I1031 14:46:30.949501 100944 net.cpp:160] Creating Layer pool4
I1031 14:46:30.949921 100944 net.cpp:596] pool4 <- drop4
I1031 14:46:30.954268 100944 net.cpp:570] pool4 -> pool4
I1031 14:46:30.973201 100944 net.cpp:210] Setting up pool4
I1031 14:46:30.981672 100944 net.cpp:217] Top shape: 1 128 6 6 (4608)
I1031 14:46:30.986232 100944 net.cpp:225] Memory required for data: 32303300
I1031 14:46:30.994688 100944 layer_factory.hpp:114] Creating layer fc1
I1031 14:46:31.066777 100944 net.cpp:160] Creating Layer fc1
I1031 14:46:31.067580 100944 net.cpp:596] fc1 <- pool4
I1031 14:46:31.068048 100944 net.cpp:570] fc1 -> fc1
I1031 14:46:31.943053 100944 net.cpp:210] Setting up fc1
I1031 14:46:31.947679 100944 net.cpp:217] Top shape: 1 1024 (1024)
I1031 14:46:31.952342 100944 net.cpp:225] Memory required for data: 32307396
I1031 14:46:31.959230 100944 layer_factory.hpp:114] Creating layer dropout5
I1031 14:46:31.967221 100944 net.cpp:160] Creating Layer dropout5
I1031 14:46:31.970118 100944 net.cpp:596] dropout5 <- fc1
I1031 14:46:31.976537 100944 net.cpp:570] dropout5 -> drop5
I1031 14:46:31.983220 100944 net.cpp:210] Setting up dropout5
I1031 14:46:31.989684 100944 net.cpp:217] Top shape: 1 1024 (1024)
I1031 14:46:31.991701 100944 net.cpp:225] Memory required for data: 32311492
I1031 14:46:32.001934 100944 layer_factory.hpp:114] Creating layer fc2
I1031 14:46:32.011255 100944 net.cpp:160] Creating Layer fc2
I1031 14:46:32.016446 100944 net.cpp:596] fc2 <- drop5
I1031 14:46:32.027081 100944 net.cpp:570] fc2 -> fc2
I1031 14:46:32.063577 100944 net.cpp:210] Setting up fc2
I1031 14:46:32.072885 100944 net.cpp:217] Top shape: 1 2 (2)
I1031 14:46:32.085247 100944 net.cpp:225] Memory required for data: 32311500
I1031 14:46:32.091814 100944 layer_factory.hpp:114] Creating layer loss
I1031 14:46:32.129360 100944 net.cpp:160] Creating Layer loss
I1031 14:46:32.134168 100944 net.cpp:596] loss <- fc2
I1031 14:46:32.137451 100944 net.cpp:596] loss <- label
I1031 14:46:32.203773 100944 net.cpp:570] loss -> (automatic)
I1031 14:46:32.261092 100944 layer_factory.hpp:114] Creating layer loss
…
