…
I1031 12:48:19.546514 96737 net.cpp:484] The NetState phase (0) differed from the phase (1) specified by a rule in layer data
I1031 12:48:20.237949 96737 net.cpp:120] Initializing net from parameters: 
name: "HEP_CLASSIFIER"
state {
  phase: TRAIN
  level: 0
  stage: ""
}
layer {
  name: "data"
  type: "DummyData"
  top: "data"
  top: "label"
  include {
    phase: TRAIN
  }
  dummy_data_param {
    data_filler {
      type: "gaussian"
      std: 1
    }
    data_filler {
      type: "constant"
      value: 0
    }
    shape {
      dim: 1
      dim: 3
      dim: 124
      dim: 124
    }
    shape {
      dim: 1
      dim: 1
      dim: 1
      dim: 1
    }
  }
}
layer {
  name: "conv1"
  type: "Convolution"
  bottom: "data"
  top: "conv1"
  convolution_param {
    num_output: 128
    pad: 0
    kernel_size: 3
    stride: 1
    weight_filler {
      type: "msra"
    }
    bias_filler {
      type: "constant"
      value: 0
    }
  }
}
layer {
  name: "relu1"
  type: "ReLU"
  bottom: "conv1"
  top: "conv1"
  relu_param {
    negative_slope: 0.1
  }
}
layer {
  name: "dropout1"
  type: "Dropout"
  bottom: "conv1"
  top: "drop1"
}
layer {
  name: "pool1"
  type: "Pooling"
  bottom: "drop1"
  top: "pool1"
  pooling_param {
    pool: MAX
    kernel_size: 2
    stride: 2
  }
}
layer {
  name: "conv2"
  type: "Convolution"
  bottom: "pool1"
  top: "conv2"
  convolution_param {
    num_output: 128
    pad: 0
    kernel_size: 3
    stride: 1
    weight_filler {
      type: "msra"
    }
    bias_filler {
      type: "constant"
      value: 0
    }
  }
}
layer {
  name: "relu2"
  type: "ReLU"
  bottom: "conv2"
  top: "conv2"
  relu_param {
    negative_slope: 0.1
  }
}
layer {
  name: "dropout2"
  type: "Dropout"
  bottom: "conv2"
  top: "drop2"
}
layer {
  name: "pool2"
  type: "Pooling"
  bottom: "drop2"
  top: "pool2"
  pooling_param {
    pool: MAX
    kernel_size: 2
    stride: 2
  }
}
layer {
  name: "conv3"
  type: "Convolution"
  bottom: "pool2"
  top: "conv3"
  convolution_param {
    num_output: 128
    pad: 0
    kernel_size: 3
    stride: 1
    weight_filler {
      type: "msra"
    }
    bias_filler {
      type: "constant"
      value: 0
    }
  }
}
layer {
  name: "relu3"
  type: "ReLU"
  bottom: "conv3"
  top: "conv3"
  relu_param {
    negative_slope: 0.1
  }
}
layer {
  name: "dropout3"
  type: "Dropout"
  bottom: "conv3"
  top: "drop3"
}
layer {
  name: "pool3"
  type: "Pooling"
  bottom: "drop3"
  top: "pool3"
  pooling_param {
    pool: MAX
    kernel_size: 2
    stride: 2
  }
}
layer {
  name: "conv4"
  type: "Convolution"
  bottom: "pool3"
  top: "conv4"
  convolution_param {
    num_output: 128
    pad: 0
    kernel_size: 3
    stride: 1
    weight_filler {
      type: "msra"
    }
    bias_filler {
      type: "constant"
      value: 0
    }
  }
}
layer {
  name: "relu4"
  type: "ReLU"
  bottom: "conv4"
  top: "conv4"
  relu_param {
    negative_slope: 0.1
  }
}
layer {
  name: "dropout4"
  type: "Dropout"
  bottom: "conv4"
  top: "drop4"
}
layer {
  name: "pool4"
  type: "Pooling"
  bottom: "drop4"
  top: "pool4"
  pooling_param {
    pool: MAX
    kernel_size: 2
    stride: 2
  }
}
layer {
  name: "fc1"
  type: "InnerProduct"
  bottom: "pool4"
  top: "fc1"
  inner_product_param {
    num_output: 1024
    weight_filler {
      type: "msra"
    }
    bias_filler {
      type: "constant"
      value: 0
    }
  }
}
layer {
  name: "dropout5"
  type: "Dropout"
  bottom: "fc1"
  top: "drop5"
}
layer {
  name: "fc2"
  type: "InnerProduct"
  bottom: "drop5"
  top: "fc2"
  inner_product_param {
    num_output: 2
    weight_filler {
      type: "msra"
    }
    bias_filler {
      type: "constant"
      value: 0
    }
  }
}
layer {
  name: "loss"
  type: "SoftmaxWithLoss"
  bottom: "fc2"
  bottom: "label"
}
I1031 12:48:22.667536 96737 layer_factory.hpp:114] Creating layer data
I1031 12:48:22.826613 96737 net.cpp:160] Creating Layer data
I1031 12:48:22.877629 96737 net.cpp:570] data -> data
I1031 12:48:23.374233 96737 net.cpp:570] data -> label
I1031 12:48:30.858105 96737 net.cpp:210] Setting up data
I1031 12:48:30.945024 96737 net.cpp:217] Top shape: 1 3 124 124 (46128)
I1031 12:48:31.054127 96737 net.cpp:217] Top shape: 1 1 1 1 (1)
I1031 12:48:31.080577 96737 net.cpp:225] Memory required for data: 184516
I1031 12:48:31.163172 96737 layer_factory.hpp:114] Creating layer conv1
I1031 12:48:31.509795 96737 net.cpp:160] Creating Layer conv1
I1031 12:48:31.563139 96737 net.cpp:596] conv1 <- data
I1031 12:48:31.690320 96737 net.cpp:570] conv1 -> conv1
I1031 12:49:09.176236 96737 net.cpp:210] Setting up conv1
I1031 12:49:09.248643 96737 net.cpp:217] Top shape: 1 128 122 122 (1905152)
I1031 12:49:09.268928 96737 net.cpp:225] Memory required for data: 7805124
I1031 12:49:09.605296 96737 layer_factory.hpp:114] Creating layer relu1
I1031 12:49:09.750958 96737 net.cpp:160] Creating Layer relu1
I1031 12:49:09.756639 96737 net.cpp:596] relu1 <- conv1
I1031 12:49:09.793102 96737 net.cpp:557] relu1 -> conv1 (in-place)
I1031 12:49:10.010257 96737 net.cpp:210] Setting up relu1
I1031 12:49:10.018944 96737 net.cpp:217] Top shape: 1 128 122 122 (1905152)
I1031 12:49:10.019630 96737 net.cpp:225] Memory required for data: 15425732
I1031 12:49:10.020077 96737 layer_factory.hpp:114] Creating layer dropout1
I1031 12:49:10.055724 96737 net.cpp:160] Creating Layer dropout1
I1031 12:49:10.057132 96737 net.cpp:596] dropout1 <- conv1
I1031 12:49:10.060092 96737 net.cpp:570] dropout1 -> drop1
I1031 12:49:10.174007 96737 net.cpp:210] Setting up dropout1
I1031 12:49:10.188019 96737 net.cpp:217] Top shape: 1 128 122 122 (1905152)
I1031 12:49:10.188413 96737 net.cpp:225] Memory required for data: 23046340
I1031 12:49:10.188765 96737 layer_factory.hpp:114] Creating layer pool1
I1031 12:49:10.292611 96737 net.cpp:160] Creating Layer pool1
I1031 12:49:10.293308 96737 net.cpp:596] pool1 <- drop1
I1031 12:49:10.293720 96737 net.cpp:570] pool1 -> pool1
I1031 12:49:10.710822 96737 net.cpp:210] Setting up pool1
I1031 12:49:10.719815 96737 net.cpp:217] Top shape: 1 128 61 61 (476288)
I1031 12:49:10.720194 96737 net.cpp:225] Memory required for data: 24951492
I1031 12:49:10.720520 96737 layer_factory.hpp:114] Creating layer conv2
I1031 12:49:10.783920 96737 net.cpp:160] Creating Layer conv2
I1031 12:49:10.788414 96737 net.cpp:596] conv2 <- pool1
I1031 12:49:10.804097 96737 net.cpp:570] conv2 -> conv2
I1031 12:49:17.618276 96737 net.cpp:210] Setting up conv2
I1031 12:49:17.620622 96737 net.cpp:217] Top shape: 1 128 59 59 (445568)
I1031 12:49:17.630056 96737 net.cpp:225] Memory required for data: 26733764
I1031 12:49:17.696701 96737 layer_factory.hpp:114] Creating layer relu2
I1031 12:49:17.709836 96737 net.cpp:160] Creating Layer relu2
I1031 12:49:17.716321 96737 net.cpp:596] relu2 <- conv2
I1031 12:49:17.731257 96737 net.cpp:557] relu2 -> conv2 (in-place)
I1031 12:49:17.748302 96737 net.cpp:210] Setting up relu2
I1031 12:49:17.754647 96737 net.cpp:217] Top shape: 1 128 59 59 (445568)
I1031 12:49:17.766759 96737 net.cpp:225] Memory required for data: 28516036
I1031 12:49:17.773687 96737 layer_factory.hpp:114] Creating layer dropout2
I1031 12:49:17.777797 96737 net.cpp:160] Creating Layer dropout2
I1031 12:49:17.784345 96737 net.cpp:596] dropout2 <- conv2
I1031 12:49:17.795110 96737 net.cpp:570] dropout2 -> drop2
I1031 12:49:17.799607 96737 net.cpp:210] Setting up dropout2
I1031 12:49:17.804018 96737 net.cpp:217] Top shape: 1 128 59 59 (445568)
I1031 12:49:17.804424 96737 net.cpp:225] Memory required for data: 30298308
I1031 12:49:17.810467 96737 layer_factory.hpp:114] Creating layer pool2
I1031 12:49:17.817337 96737 net.cpp:160] Creating Layer pool2
I1031 12:49:17.819803 96737 net.cpp:596] pool2 <- drop2
I1031 12:49:17.828533 96737 net.cpp:570] pool2 -> pool2
I1031 12:49:17.832881 96737 net.cpp:210] Setting up pool2
I1031 12:49:17.839095 96737 net.cpp:217] Top shape: 1 128 30 30 (115200)
I1031 12:49:17.847798 96737 net.cpp:225] Memory required for data: 30759108
I1031 12:49:17.856305 96737 layer_factory.hpp:114] Creating layer conv3
I1031 12:49:17.876912 96737 net.cpp:160] Creating Layer conv3
I1031 12:49:17.877238 96737 net.cpp:596] conv3 <- pool2
I1031 12:49:17.877496 96737 net.cpp:570] conv3 -> conv3
I1031 12:49:18.469763 96737 net.cpp:210] Setting up conv3
I1031 12:49:18.478205 96737 net.cpp:217] Top shape: 1 128 28 28 (100352)
I1031 12:49:18.486703 96737 net.cpp:225] Memory required for data: 31160516
I1031 12:49:18.502882 96737 layer_factory.hpp:114] Creating layer relu3
I1031 12:49:18.512154 96737 net.cpp:160] Creating Layer relu3
I1031 12:49:18.522083 96737 net.cpp:596] relu3 <- conv3
I1031 12:49:18.529139 96737 net.cpp:557] relu3 -> conv3 (in-place)
I1031 12:49:18.548297 96737 net.cpp:210] Setting up relu3
I1031 12:49:18.557126 96737 net.cpp:217] Top shape: 1 128 28 28 (100352)
I1031 12:49:18.563684 96737 net.cpp:225] Memory required for data: 31561924
I1031 12:49:18.572185 96737 layer_factory.hpp:114] Creating layer dropout3
I1031 12:49:18.578397 96737 net.cpp:160] Creating Layer dropout3
I1031 12:49:18.580713 96737 net.cpp:596] dropout3 <- conv3
I1031 12:49:18.585108 96737 net.cpp:570] dropout3 -> drop3
I1031 12:49:18.589537 96737 net.cpp:210] Setting up dropout3
I1031 12:49:18.591933 96737 net.cpp:217] Top shape: 1 128 28 28 (100352)
I1031 12:49:18.596560 96737 net.cpp:225] Memory required for data: 31963332
I1031 12:49:18.606410 96737 layer_factory.hpp:114] Creating layer pool3
I1031 12:49:18.609002 96737 net.cpp:160] Creating Layer pool3
I1031 12:49:18.613713 96737 net.cpp:596] pool3 <- drop3
I1031 12:49:18.623843 96737 net.cpp:570] pool3 -> pool3
I1031 12:49:18.632360 96737 net.cpp:210] Setting up pool3
I1031 12:49:18.644765 96737 net.cpp:217] Top shape: 1 128 14 14 (25088)
I1031 12:49:18.650918 96737 net.cpp:225] Memory required for data: 32063684
I1031 12:49:18.653734 96737 layer_factory.hpp:114] Creating layer conv4
I1031 12:49:18.656182 96737 net.cpp:160] Creating Layer conv4
I1031 12:49:18.658313 96737 net.cpp:596] conv4 <- pool3
I1031 12:49:18.660954 96737 net.cpp:570] conv4 -> conv4
I1031 12:49:19.049219 96737 net.cpp:210] Setting up conv4
I1031 12:49:19.053798 96737 net.cpp:217] Top shape: 1 128 12 12 (18432)
I1031 12:49:19.056417 96737 net.cpp:225] Memory required for data: 32137412
I1031 12:49:19.060976 96737 layer_factory.hpp:114] Creating layer relu4
I1031 12:49:19.070766 96737 net.cpp:160] Creating Layer relu4
I1031 12:49:19.073303 96737 net.cpp:596] relu4 <- conv4
I1031 12:49:19.089067 96737 net.cpp:557] relu4 -> conv4 (in-place)
I1031 12:49:19.095484 96737 net.cpp:210] Setting up relu4
I1031 12:49:19.100208 96737 net.cpp:217] Top shape: 1 128 12 12 (18432)
I1031 12:49:19.108587 96737 net.cpp:225] Memory required for data: 32211140
I1031 12:49:19.124989 96737 layer_factory.hpp:114] Creating layer dropout4
I1031 12:49:19.131342 96737 net.cpp:160] Creating Layer dropout4
I1031 12:49:19.135220 96737 net.cpp:596] dropout4 <- conv4
I1031 12:49:19.138617 96737 net.cpp:570] dropout4 -> drop4
I1031 12:49:19.147238 96737 net.cpp:210] Setting up dropout4
I1031 12:49:19.151696 96737 net.cpp:217] Top shape: 1 128 12 12 (18432)
I1031 12:49:19.156148 96737 net.cpp:225] Memory required for data: 32284868
I1031 12:49:19.162752 96737 layer_factory.hpp:114] Creating layer pool4
I1031 12:49:19.166846 96737 net.cpp:160] Creating Layer pool4
I1031 12:49:19.175720 96737 net.cpp:596] pool4 <- drop4
I1031 12:49:19.181874 96737 net.cpp:570] pool4 -> pool4
I1031 12:49:19.196982 96737 net.cpp:210] Setting up pool4
I1031 12:49:19.197338 96737 net.cpp:217] Top shape: 1 128 6 6 (4608)
I1031 12:49:19.199877 96737 net.cpp:225] Memory required for data: 32303300
I1031 12:49:19.200131 96737 layer_factory.hpp:114] Creating layer fc1
I1031 12:49:19.264669 96737 net.cpp:160] Creating Layer fc1
I1031 12:49:19.265010 96737 net.cpp:596] fc1 <- pool4
I1031 12:49:19.265440 96737 net.cpp:570] fc1 -> fc1
I1031 12:49:20.145213 96737 net.cpp:210] Setting up fc1
I1031 12:49:20.149667 96737 net.cpp:217] Top shape: 1 1024 (1024)
I1031 12:49:20.160195 96737 net.cpp:225] Memory required for data: 32307396
I1031 12:49:20.173254 96737 layer_factory.hpp:114] Creating layer dropout5
I1031 12:49:20.181704 96737 net.cpp:160] Creating Layer dropout5
I1031 12:49:20.199020 96737 net.cpp:596] dropout5 <- fc1
I1031 12:49:20.203183 96737 net.cpp:570] dropout5 -> drop5
I1031 12:49:20.209303 96737 net.cpp:210] Setting up dropout5
I1031 12:49:20.218225 96737 net.cpp:217] Top shape: 1 1024 (1024)
I1031 12:49:20.230319 96737 net.cpp:225] Memory required for data: 32311492
I1031 12:49:20.233335 96737 layer_factory.hpp:114] Creating layer fc2
I1031 12:49:20.245246 96737 net.cpp:160] Creating Layer fc2
I1031 12:49:20.250524 96737 net.cpp:596] fc2 <- drop5
I1031 12:49:20.258329 96737 net.cpp:570] fc2 -> fc2
I1031 12:49:20.300209 96737 net.cpp:210] Setting up fc2
I1031 12:49:20.313684 96737 net.cpp:217] Top shape: 1 2 (2)
I1031 12:49:20.324369 96737 net.cpp:225] Memory required for data: 32311500
I1031 12:49:20.332991 96737 layer_factory.hpp:114] Creating layer loss
I1031 12:49:20.362964 96737 net.cpp:160] Creating Layer loss
I1031 12:49:20.371789 96737 net.cpp:596] loss <- fc2
I1031 12:49:20.382026 96737 net.cpp:596] loss <- label
I1031 12:49:20.448015 96737 net.cpp:570] loss -> (automatic)
I1031 12:49:20.509526 96737 layer_factory.hpp:114] Creating layer loss
…
