…
I1031 13:13:09.871673 97572 net.cpp:484] The NetState phase (0) differed from the phase (1) specified by a rule in layer data
I1031 13:13:10.562130 97572 net.cpp:120] Initializing net from parameters: 
name: "HEP_CLASSIFIER"
state {
  phase: TRAIN
  level: 0
  stage: ""
}
layer {
  name: "data"
  type: "DummyData"
  top: "data"
  top: "label"
  include {
    phase: TRAIN
  }
  dummy_data_param {
    data_filler {
      type: "gaussian"
      std: 1
    }
    data_filler {
      type: "constant"
      value: 0
    }
    shape {
      dim: 1
      dim: 3
      dim: 124
      dim: 124
    }
    shape {
      dim: 1
      dim: 1
      dim: 1
      dim: 1
    }
  }
}
layer {
  name: "conv1"
  type: "Convolution"
  bottom: "data"
  top: "conv1"
  convolution_param {
    num_output: 128
    pad: 0
    kernel_size: 3
    stride: 1
    weight_filler {
      type: "msra"
    }
    bias_filler {
      type: "constant"
      value: 0
    }
  }
}
layer {
  name: "relu1"
  type: "ReLU"
  bottom: "conv1"
  top: "conv1"
  relu_param {
    negative_slope: 0.1
  }
}
layer {
  name: "dropout1"
  type: "Dropout"
  bottom: "conv1"
  top: "drop1"
}
layer {
  name: "pool1"
  type: "Pooling"
  bottom: "drop1"
  top: "pool1"
  pooling_param {
    pool: MAX
    kernel_size: 2
    stride: 2
  }
}
layer {
  name: "conv2"
  type: "Convolution"
  bottom: "pool1"
  top: "conv2"
  convolution_param {
    num_output: 128
    pad: 0
    kernel_size: 3
    stride: 1
    weight_filler {
      type: "msra"
    }
    bias_filler {
      type: "constant"
      value: 0
    }
  }
}
layer {
  name: "relu2"
  type: "ReLU"
  bottom: "conv2"
  top: "conv2"
  relu_param {
    negative_slope: 0.1
  }
}
layer {
  name: "dropout2"
  type: "Dropout"
  bottom: "conv2"
  top: "drop2"
}
layer {
  name: "pool2"
  type: "Pooling"
  bottom: "drop2"
  top: "pool2"
  pooling_param {
    pool: MAX
    kernel_size: 2
    stride: 2
  }
}
layer {
  name: "conv3"
  type: "Convolution"
  bottom: "pool2"
  top: "conv3"
  convolution_param {
    num_output: 128
    pad: 0
    kernel_size: 3
    stride: 1
    weight_filler {
      type: "msra"
    }
    bias_filler {
      type: "constant"
      value: 0
    }
  }
}
layer {
  name: "relu3"
  type: "ReLU"
  bottom: "conv3"
  top: "conv3"
  relu_param {
    negative_slope: 0.1
  }
}
layer {
  name: "dropout3"
  type: "Dropout"
  bottom: "conv3"
  top: "drop3"
}
layer {
  name: "pool3"
  type: "Pooling"
  bottom: "drop3"
  top: "pool3"
  pooling_param {
    pool: MAX
    kernel_size: 2
    stride: 2
  }
}
layer {
  name: "conv4"
  type: "Convolution"
  bottom: "pool3"
  top: "conv4"
  convolution_param {
    num_output: 128
    pad: 0
    kernel_size: 3
    stride: 1
    weight_filler {
      type: "msra"
    }
    bias_filler {
      type: "constant"
      value: 0
    }
  }
}
layer {
  name: "relu4"
  type: "ReLU"
  bottom: "conv4"
  top: "conv4"
  relu_param {
    negative_slope: 0.1
  }
}
layer {
  name: "dropout4"
  type: "Dropout"
  bottom: "conv4"
  top: "drop4"
}
layer {
  name: "pool4"
  type: "Pooling"
  bottom: "drop4"
  top: "pool4"
  pooling_param {
    pool: MAX
    kernel_size: 2
    stride: 2
  }
}
layer {
  name: "fc1"
  type: "InnerProduct"
  bottom: "pool4"
  top: "fc1"
  inner_product_param {
    num_output: 1024
    weight_filler {
      type: "msra"
    }
    bias_filler {
      type: "constant"
      value: 0
    }
  }
}
layer {
  name: "dropout5"
  type: "Dropout"
  bottom: "fc1"
  top: "drop5"
}
layer {
  name: "fc2"
  type: "InnerProduct"
  bottom: "drop5"
  top: "fc2"
  inner_product_param {
    num_output: 2
    weight_filler {
      type: "msra"
    }
    bias_filler {
      type: "constant"
      value: 0
    }
  }
}
layer {
  name: "loss"
  type: "SoftmaxWithLoss"
  bottom: "fc2"
  bottom: "label"
}
I1031 13:13:12.994181 97572 layer_factory.hpp:114] Creating layer data
I1031 13:13:13.154235 97572 net.cpp:160] Creating Layer data
I1031 13:13:13.205708 97572 net.cpp:570] data -> data
I1031 13:13:13.699471 97572 net.cpp:570] data -> label
I1031 13:13:21.170392 97572 net.cpp:210] Setting up data
I1031 13:13:21.257194 97572 net.cpp:217] Top shape: 1 3 124 124 (46128)
I1031 13:13:21.365597 97572 net.cpp:217] Top shape: 1 1 1 1 (1)
I1031 13:13:21.373142 97572 net.cpp:225] Memory required for data: 184516
I1031 13:13:21.455814 97572 layer_factory.hpp:114] Creating layer conv1
I1031 13:13:21.803745 97572 net.cpp:160] Creating Layer conv1
I1031 13:13:21.857023 97572 net.cpp:596] conv1 <- data
I1031 13:13:21.983932 97572 net.cpp:570] conv1 -> conv1
I1031 13:13:59.167474 97572 net.cpp:210] Setting up conv1
I1031 13:13:59.306711 97572 net.cpp:217] Top shape: 1 128 122 122 (1905152)
I1031 13:13:59.316794 97572 net.cpp:225] Memory required for data: 7805124
I1031 13:13:59.620947 97572 layer_factory.hpp:114] Creating layer relu1
I1031 13:13:59.754890 97572 net.cpp:160] Creating Layer relu1
I1031 13:13:59.760061 97572 net.cpp:596] relu1 <- conv1
I1031 13:13:59.795485 97572 net.cpp:557] relu1 -> conv1 (in-place)
I1031 13:14:00.012662 97572 net.cpp:210] Setting up relu1
I1031 13:14:00.015290 97572 net.cpp:217] Top shape: 1 128 122 122 (1905152)
I1031 13:14:00.015722 97572 net.cpp:225] Memory required for data: 15425732
I1031 13:14:00.015944 97572 layer_factory.hpp:114] Creating layer dropout1
I1031 13:14:00.048717 97572 net.cpp:160] Creating Layer dropout1
I1031 13:14:00.049062 97572 net.cpp:596] dropout1 <- conv1
I1031 13:14:00.051985 97572 net.cpp:570] dropout1 -> drop1
I1031 13:14:00.171828 97572 net.cpp:210] Setting up dropout1
I1031 13:14:00.185588 97572 net.cpp:217] Top shape: 1 128 122 122 (1905152)
I1031 13:14:00.185995 97572 net.cpp:225] Memory required for data: 23046340
I1031 13:14:00.186347 97572 layer_factory.hpp:114] Creating layer pool1
I1031 13:14:00.288584 97572 net.cpp:160] Creating Layer pool1
I1031 13:14:00.293295 97572 net.cpp:596] pool1 <- drop1
I1031 13:14:00.293649 97572 net.cpp:570] pool1 -> pool1
I1031 13:14:00.721915 97572 net.cpp:210] Setting up pool1
I1031 13:14:00.727180 97572 net.cpp:217] Top shape: 1 128 61 61 (476288)
I1031 13:14:00.727659 97572 net.cpp:225] Memory required for data: 24951492
I1031 13:14:00.728041 97572 layer_factory.hpp:114] Creating layer conv2
I1031 13:14:00.791793 97572 net.cpp:160] Creating Layer conv2
I1031 13:14:00.796448 97572 net.cpp:596] conv2 <- pool1
I1031 13:14:00.812386 97572 net.cpp:570] conv2 -> conv2
I1031 13:14:07.650416 97572 net.cpp:210] Setting up conv2
I1031 13:14:07.658781 97572 net.cpp:217] Top shape: 1 128 59 59 (445568)
I1031 13:14:07.668287 97572 net.cpp:225] Memory required for data: 26733764
I1031 13:14:07.742807 97572 layer_factory.hpp:114] Creating layer relu2
I1031 13:14:07.754554 97572 net.cpp:160] Creating Layer relu2
I1031 13:14:07.765060 97572 net.cpp:596] relu2 <- conv2
I1031 13:14:07.766949 97572 net.cpp:557] relu2 -> conv2 (in-place)
I1031 13:14:07.778720 97572 net.cpp:210] Setting up relu2
I1031 13:14:07.787416 97572 net.cpp:217] Top shape: 1 128 59 59 (445568)
I1031 13:14:07.791872 97572 net.cpp:225] Memory required for data: 28516036
I1031 13:14:07.796573 97572 layer_factory.hpp:114] Creating layer dropout2
I1031 13:14:07.805268 97572 net.cpp:160] Creating Layer dropout2
I1031 13:14:07.813664 97572 net.cpp:596] dropout2 <- conv2
I1031 13:14:07.815968 97572 net.cpp:570] dropout2 -> drop2
I1031 13:14:07.831432 97572 net.cpp:210] Setting up dropout2
I1031 13:14:07.835862 97572 net.cpp:217] Top shape: 1 128 59 59 (445568)
I1031 13:14:07.844552 97572 net.cpp:225] Memory required for data: 30298308
I1031 13:14:07.853289 97572 layer_factory.hpp:114] Creating layer pool2
I1031 13:14:07.863694 97572 net.cpp:160] Creating Layer pool2
I1031 13:14:07.868180 97572 net.cpp:596] pool2 <- drop2
I1031 13:14:07.870154 97572 net.cpp:570] pool2 -> pool2
I1031 13:14:07.877452 97572 net.cpp:210] Setting up pool2
I1031 13:14:07.882002 97572 net.cpp:217] Top shape: 1 128 30 30 (115200)
I1031 13:14:07.884420 97572 net.cpp:225] Memory required for data: 30759108
I1031 13:14:07.886924 97572 layer_factory.hpp:114] Creating layer conv3
I1031 13:14:07.901229 97572 net.cpp:160] Creating Layer conv3
I1031 13:14:07.905194 97572 net.cpp:596] conv3 <- pool2
I1031 13:14:07.905580 97572 net.cpp:570] conv3 -> conv3
I1031 13:14:08.528719 97572 net.cpp:210] Setting up conv3
I1031 13:14:08.540684 97572 net.cpp:217] Top shape: 1 128 28 28 (100352)
I1031 13:14:08.547389 97572 net.cpp:225] Memory required for data: 31160516
I1031 13:14:08.559571 97572 layer_factory.hpp:114] Creating layer relu3
I1031 13:14:08.570027 97572 net.cpp:160] Creating Layer relu3
I1031 13:14:08.572453 97572 net.cpp:596] relu3 <- conv3
I1031 13:14:08.574535 97572 net.cpp:557] relu3 -> conv3 (in-place)
I1031 13:14:08.583734 97572 net.cpp:210] Setting up relu3
I1031 13:14:08.594537 97572 net.cpp:217] Top shape: 1 128 28 28 (100352)
I1031 13:14:08.604851 97572 net.cpp:225] Memory required for data: 31561924
I1031 13:14:08.610960 97572 layer_factory.hpp:114] Creating layer dropout3
I1031 13:14:08.615767 97572 net.cpp:160] Creating Layer dropout3
I1031 13:14:08.620343 97572 net.cpp:596] dropout3 <- conv3
I1031 13:14:08.626907 97572 net.cpp:570] dropout3 -> drop3
I1031 13:14:08.629416 97572 net.cpp:210] Setting up dropout3
I1031 13:14:08.639140 97572 net.cpp:217] Top shape: 1 128 28 28 (100352)
I1031 13:14:08.643215 97572 net.cpp:225] Memory required for data: 31963332
I1031 13:14:08.647860 97572 layer_factory.hpp:114] Creating layer pool3
I1031 13:14:08.656492 97572 net.cpp:160] Creating Layer pool3
I1031 13:14:08.662436 97572 net.cpp:596] pool3 <- drop3
I1031 13:14:08.664628 97572 net.cpp:570] pool3 -> pool3
I1031 13:14:08.669749 97572 net.cpp:210] Setting up pool3
I1031 13:14:08.674535 97572 net.cpp:217] Top shape: 1 128 14 14 (25088)
I1031 13:14:08.677002 97572 net.cpp:225] Memory required for data: 32063684
I1031 13:14:08.683698 97572 layer_factory.hpp:114] Creating layer conv4
I1031 13:14:08.694223 97572 net.cpp:160] Creating Layer conv4
I1031 13:14:08.702733 97572 net.cpp:596] conv4 <- pool3
I1031 13:14:08.707515 97572 net.cpp:570] conv4 -> conv4
I1031 13:14:09.059870 97572 net.cpp:210] Setting up conv4
I1031 13:14:09.066416 97572 net.cpp:217] Top shape: 1 128 12 12 (18432)
I1031 13:14:09.066962 97572 net.cpp:225] Memory required for data: 32137412
I1031 13:14:09.083760 97572 layer_factory.hpp:114] Creating layer relu4
I1031 13:14:09.088459 97572 net.cpp:160] Creating Layer relu4
I1031 13:14:09.092924 97572 net.cpp:596] relu4 <- conv4
I1031 13:14:09.099336 97572 net.cpp:557] relu4 -> conv4 (in-place)
I1031 13:14:09.104264 97572 net.cpp:210] Setting up relu4
I1031 13:14:09.108767 97572 net.cpp:217] Top shape: 1 128 12 12 (18432)
I1031 13:14:09.110997 97572 net.cpp:225] Memory required for data: 32211140
I1031 13:14:09.113539 97572 layer_factory.hpp:114] Creating layer dropout4
I1031 13:14:09.117974 97572 net.cpp:160] Creating Layer dropout4
I1031 13:14:09.120905 97572 net.cpp:596] dropout4 <- conv4
I1031 13:14:09.125376 97572 net.cpp:570] dropout4 -> drop4
I1031 13:14:09.133611 97572 net.cpp:210] Setting up dropout4
I1031 13:14:09.145546 97572 net.cpp:217] Top shape: 1 128 12 12 (18432)
I1031 13:14:09.151675 97572 net.cpp:225] Memory required for data: 32284868
I1031 13:14:09.156059 97572 layer_factory.hpp:114] Creating layer pool4
I1031 13:14:09.162437 97572 net.cpp:160] Creating Layer pool4
I1031 13:14:09.169137 97572 net.cpp:596] pool4 <- drop4
I1031 13:14:09.175539 97572 net.cpp:570] pool4 -> pool4
I1031 13:14:09.193111 97572 net.cpp:210] Setting up pool4
I1031 13:14:09.197396 97572 net.cpp:217] Top shape: 1 128 6 6 (4608)
I1031 13:14:09.209554 97572 net.cpp:225] Memory required for data: 32303300
I1031 13:14:09.218253 97572 layer_factory.hpp:114] Creating layer fc1
I1031 13:14:09.284667 97572 net.cpp:160] Creating Layer fc1
I1031 13:14:09.295274 97572 net.cpp:596] fc1 <- pool4
I1031 13:14:09.302072 97572 net.cpp:570] fc1 -> fc1
I1031 13:14:10.142333 97572 net.cpp:210] Setting up fc1
I1031 13:14:10.150367 97572 net.cpp:217] Top shape: 1 1024 (1024)
I1031 13:14:10.155457 97572 net.cpp:225] Memory required for data: 32307396
I1031 13:14:10.170639 97572 layer_factory.hpp:114] Creating layer dropout5
I1031 13:14:10.182847 97572 net.cpp:160] Creating Layer dropout5
I1031 13:14:10.185384 97572 net.cpp:596] dropout5 <- fc1
I1031 13:14:10.188220 97572 net.cpp:570] dropout5 -> drop5
I1031 13:14:10.194922 97572 net.cpp:210] Setting up dropout5
I1031 13:14:10.197257 97572 net.cpp:217] Top shape: 1 1024 (1024)
I1031 13:14:10.203817 97572 net.cpp:225] Memory required for data: 32311492
I1031 13:14:10.208262 97572 layer_factory.hpp:114] Creating layer fc2
I1031 13:14:10.210242 97572 net.cpp:160] Creating Layer fc2
I1031 13:14:10.215857 97572 net.cpp:596] fc2 <- drop5
I1031 13:14:10.218375 97572 net.cpp:570] fc2 -> fc2
I1031 13:14:10.252770 97572 net.cpp:210] Setting up fc2
I1031 13:14:10.262187 97572 net.cpp:217] Top shape: 1 2 (2)
I1031 13:14:10.272649 97572 net.cpp:225] Memory required for data: 32311500
I1031 13:14:10.281363 97572 layer_factory.hpp:114] Creating layer loss
I1031 13:14:10.320730 97572 net.cpp:160] Creating Layer loss
I1031 13:14:10.335582 97572 net.cpp:596] loss <- fc2
I1031 13:14:10.346827 97572 net.cpp:596] loss <- label
I1031 13:14:10.406663 97572 net.cpp:570] loss -> (automatic)
I1031 13:14:10.462913 97572 layer_factory.hpp:114] Creating layer loss
…
