…
I1111 08:45:10.485314 218566 net.cpp:484] The NetState phase (0) differed from the phase (1) specified by a rule in layer accuracy
I1111 08:45:10.485693 218566 net.cpp:120] Initializing net from parameters: 
name: "AlexNet"
state {
  phase: TRAIN
  level: 0
  stage: ""
}
layer {
  name: "data"
  type: "DummyData"
  top: "data"
  top: "label"
  include {
    phase: TRAIN
  }
  dummy_data_param {
    data_filler {
      type: "gaussian"
      std: 1
    }
    data_filler {
      type: "constant"
      value: 0
    }
    shape {
      dim: 32
      dim: 3
      dim: 227
      dim: 227
    }
    shape {
      dim: 32
      dim: 1
      dim: 1
      dim: 1
    }
  }
}
layer {
  name: "conv1"
  type: "Convolution"
  bottom: "data"
  top: "conv1"
  param {
    lr_mult: 1
    decay_mult: 1
  }
  param {
    lr_mult: 2
    decay_mult: 0
  }
  convolution_param {
    num_output: 96
    kernel_size: 11
    stride: 4
    weight_filler {
      type: "gaussian"
      std: 0.01
    }
    bias_filler {
      type: "constant"
      value: 0
    }
    engine: MKL2017
  }
}
layer {
  name: "relu1"
  type: "ReLU"
  bottom: "conv1"
  top: "conv1"
  relu_param {
    engine: MKL2017
  }
}
layer {
  name: "norm1"
  type: "LRN"
  bottom: "conv1"
  top: "norm1"
  lrn_param {
    local_size: 5
    alpha: 0.0001
    beta: 0.75
    engine: MKL2017
  }
}
layer {
  name: "pool1"
  type: "Pooling"
  bottom: "norm1"
  top: "pool1"
  pooling_param {
    pool: MAX
    kernel_size: 3
    stride: 2
    engine: MKL2017
  }
}
layer {
  name: "conv2"
  type: "Convolution"
  bottom: "pool1"
  top: "conv2"
  param {
    lr_mult: 1
    decay_mult: 1
  }
  param {
    lr_mult: 2
    decay_mult: 0
  }
  convolution_param {
    num_output: 256
    pad: 2
    kernel_size: 5
    group: 2
    weight_filler {
      type: "gaussian"
      std: 0.01
    }
    bias_filler {
      type: "constant"
      value: 0.1
    }
    engine: MKL2017
  }
}
layer {
  name: "relu2"
  type: "ReLU"
  bottom: "conv2"
  top: "conv2"
  relu_param {
    engine: MKL2017
  }
}
layer {
  name: "norm2"
  type: "LRN"
  bottom: "conv2"
  top: "norm2"
  lrn_param {
    local_size: 5
    alpha: 0.0001
    beta: 0.75
    engine: MKL2017
  }
}
layer {
  name: "pool2"
  type: "Pooling"
  bottom: "norm2"
  top: "pool2"
  pooling_param {
    pool: MAX
    kernel_size: 3
    stride: 2
    engine: MKL2017
  }
}
layer {
  name: "conv3"
  type: "Convolution"
  bottom: "pool2"
  top: "conv3"
  param {
    lr_mult: 1
    decay_mult: 1
  }
  param {
    lr_mult: 2
    decay_mult: 0
  }
  convolution_param {
    num_output: 384
    pad: 1
    kernel_size: 3
    weight_filler {
      type: "gaussian"
      std: 0.01
    }
    bias_filler {
      type: "constant"
      value: 0
    }
    engine: MKL2017
  }
}
layer {
  name: "relu3"
  type: "ReLU"
  bottom: "conv3"
  top: "conv3"
  relu_param {
    engine: MKL2017
  }
}
layer {
  name: "conv4"
  type: "Convolution"
  bottom: "conv3"
  top: "conv4"
  param {
    lr_mult: 1
    decay_mult: 1
  }
  param {
    lr_mult: 2
    decay_mult: 0
  }
  convolution_param {
    num_output: 384
    pad: 1
    kernel_size: 3
    group: 2
    weight_filler {
      type: "gaussian"
      std: 0.01
    }
    bias_filler {
      type: "constant"
      value: 0.1
    }
    engine: MKL2017
  }
}
layer {
  name: "relu4"
  type: "ReLU"
  bottom: "conv4"
  top: "conv4"
  relu_param {
    engine: MKL2017
  }
}
layer {
  name: "conv5"
  type: "Convolution"
  bottom: "conv4"
  top: "conv5"
  param {
    lr_mult: 1
    decay_mult: 1
  }
  param {
    lr_mult: 2
    decay_mult: 0
  }
  convolution_param {
    num_output: 256
    pad: 1
    kernel_size: 3
    group: 2
    weight_filler {
      type: "gaussian"
      std: 0.01
    }
    bias_filler {
      type: "constant"
      value: 0.1
    }
    engine: MKL2017
  }
}
layer {
  name: "relu5"
  type: "ReLU"
  bottom: "conv5"
  top: "conv5"
  relu_param {
    engine: MKL2017
  }
}
layer {
  name: "pool5"
  type: "Pooling"
  bottom: "conv5"
  top: "pool5"
  pooling_param {
    pool: MAX
    kernel_size: 3
    stride: 2
    engine: MKL2017
  }
}
layer {
  name: "fc6"
  type: "InnerProduct"
  bottom: "pool5"
  top: "fc6"
  param {
    lr_mult: 1
    decay_mult: 1
  }
  param {
    lr_mult: 2
    decay_mult: 0
  }
  inner_product_param {
    num_output: 4096
    weight_filler {
      type: "gaussian"
      std: 0.005
    }
    bias_filler {
      type: "constant"
      value: 0.1
    }
  }
}
layer {
  name: "relu6"
  type: "ReLU"
  bottom: "fc6"
  top: "fc6"
}
layer {
  name: "drop6"
  type: "Dropout"
  bottom: "fc6"
  top: "fc6"
  dropout_param {
    dropout_ratio: 0.5
  }
}
layer {
  name: "fc7"
  type: "InnerProduct"
  bottom: "fc6"
  top: "fc7"
  param {
    lr_mult: 1
    decay_mult: 1
  }
  param {
    lr_mult: 2
    decay_mult: 0
  }
  inner_product_param {
    num_output: 4096
    weight_filler {
      type: "gaussian"
      std: 0.005
    }
    bias_filler {
      type: "constant"
      value: 0.1
    }
  }
}
layer {
  name: "relu7"
  type: "ReLU"
  bottom: "fc7"
  top: "fc7"
}
layer {
  name: "drop7"
  type: "Dropout"
  bottom: "fc7"
  top: "fc7"
  dropout_param {
    dropout_ratio: 0.5
  }
}
layer {
  name: "fc8"
  type: "InnerProduct"
  bottom: "fc7"
  top: "fc8"
  param {
    lr_mult: 1
    decay_mult: 1
  }
  param {
    lr_mult: 2
    decay_mult: 0
  }
  inner_product_param {
    num_output: 1000
    weight_filler {
      type: "gaussian"
      std: 0.01
    }
    bias_filler {
      type: "constant"
      value: 0
    }
  }
}
layer {
  name: "loss"
  type: "SoftmaxWithLoss"
  bottom: "fc8"
  bottom: "label"
  top: "loss"
}
I1111 08:45:10.488725 218566 layer_factory.hpp:114] Creating layer data
I1111 08:45:10.488829 218566 net.cpp:160] Creating Layer data
I1111 08:45:10.488867 218566 net.cpp:570] data -> data
I1111 08:45:10.488929 218566 net.cpp:570] data -> label
I1111 08:45:10.513643 218566 net.cpp:210] Setting up data
I1111 08:45:10.513751 218566 net.cpp:217] Top shape: 32 3 227 227 (4946784)
I1111 08:45:10.513821 218566 net.cpp:217] Top shape: 32 1 1 1 (32)
I1111 08:45:10.513903 218566 net.cpp:225] Memory required for data: 19787264
I1111 08:45:10.513954 218566 layer_factory.hpp:114] Creating layer conv1
I1111 08:45:10.514147 218566 net.cpp:160] Creating Layer conv1
I1111 08:45:10.514189 218566 net.cpp:596] conv1 <- data
I1111 08:45:10.514256 218566 net.cpp:570] conv1 -> conv1
I1111 08:45:10.605576 218566 net.cpp:210] Setting up conv1
I1111 08:45:10.605669 218566 net.cpp:217] Top shape: 32 96 55 55 (9292800)
I1111 08:45:10.605722 218566 net.cpp:225] Memory required for data: 56958464
I1111 08:45:10.605803 218566 layer_factory.hpp:114] Creating layer relu1
I1111 08:45:10.605875 218566 net.cpp:160] Creating Layer relu1
I1111 08:45:10.605931 218566 net.cpp:596] relu1 <- conv1
I1111 08:45:10.605969 218566 net.cpp:557] relu1 -> conv1 (in-place)
I1111 08:45:10.606082 218566 net.cpp:210] Setting up relu1
I1111 08:45:10.606111 218566 net.cpp:217] Top shape: 32 96 55 55 (9292800)
I1111 08:45:10.606142 218566 net.cpp:225] Memory required for data: 94129664
I1111 08:45:10.606165 218566 layer_factory.hpp:114] Creating layer norm1
I1111 08:45:10.606237 218566 net.cpp:160] Creating Layer norm1
I1111 08:45:10.606256 218566 net.cpp:596] norm1 <- conv1
I1111 08:45:10.606294 218566 net.cpp:570] norm1 -> norm1
I1111 08:45:10.606365 218566 net.cpp:210] Setting up norm1
I1111 08:45:10.606385 218566 net.cpp:217] Top shape: 32 96 55 55 (9292800)
I1111 08:45:10.606477 218566 net.cpp:225] Memory required for data: 131300864
I1111 08:45:10.606500 218566 layer_factory.hpp:114] Creating layer pool1
I1111 08:45:10.606544 218566 net.cpp:160] Creating Layer pool1
I1111 08:45:10.606564 218566 net.cpp:596] pool1 <- norm1
I1111 08:45:10.606597 218566 net.cpp:570] pool1 -> pool1
I1111 08:45:10.606681 218566 net.cpp:210] Setting up pool1
I1111 08:45:10.606703 218566 net.cpp:217] Top shape: 32 96 27 27 (2239488)
I1111 08:45:10.606729 218566 net.cpp:225] Memory required for data: 140258816
I1111 08:45:10.606750 218566 layer_factory.hpp:114] Creating layer conv2
I1111 08:45:10.606811 218566 net.cpp:160] Creating Layer conv2
I1111 08:45:10.606830 218566 net.cpp:596] conv2 <- pool1
I1111 08:45:10.606860 218566 net.cpp:570] conv2 -> conv2
I1111 08:45:10.707794 218566 net.cpp:210] Setting up conv2
I1111 08:45:10.707882 218566 net.cpp:217] Top shape: 32 256 27 27 (5971968)
I1111 08:45:10.707926 218566 net.cpp:225] Memory required for data: 164146688
I1111 08:45:10.707995 218566 layer_factory.hpp:114] Creating layer relu2
I1111 08:45:10.708062 218566 net.cpp:160] Creating Layer relu2
I1111 08:45:10.708099 218566 net.cpp:596] relu2 <- conv2
I1111 08:45:10.708175 218566 net.cpp:557] relu2 -> conv2 (in-place)
I1111 08:45:10.708283 218566 net.cpp:210] Setting up relu2
I1111 08:45:10.708314 218566 net.cpp:217] Top shape: 32 256 27 27 (5971968)
I1111 08:45:10.708351 218566 net.cpp:225] Memory required for data: 188034560
I1111 08:45:10.708379 218566 layer_factory.hpp:114] Creating layer norm2
I1111 08:45:10.708452 218566 net.cpp:160] Creating Layer norm2
I1111 08:45:10.708472 218566 net.cpp:596] norm2 <- conv2
I1111 08:45:10.708503 218566 net.cpp:570] norm2 -> norm2
I1111 08:45:10.708575 218566 net.cpp:210] Setting up norm2
I1111 08:45:10.708598 218566 net.cpp:217] Top shape: 32 256 27 27 (5971968)
I1111 08:45:10.708624 218566 net.cpp:225] Memory required for data: 211922432
I1111 08:45:10.708647 218566 layer_factory.hpp:114] Creating layer pool2
I1111 08:45:10.708688 218566 net.cpp:160] Creating Layer pool2
I1111 08:45:10.708708 218566 net.cpp:596] pool2 <- norm2
I1111 08:45:10.708758 218566 net.cpp:570] pool2 -> pool2
I1111 08:45:10.708878 218566 net.cpp:210] Setting up pool2
I1111 08:45:10.708907 218566 net.cpp:217] Top shape: 32 256 13 13 (1384448)
I1111 08:45:10.708935 218566 net.cpp:225] Memory required for data: 217460224
I1111 08:45:10.708957 218566 layer_factory.hpp:114] Creating layer conv3
I1111 08:45:10.709044 218566 net.cpp:160] Creating Layer conv3
I1111 08:45:10.709067 218566 net.cpp:596] conv3 <- pool2
I1111 08:45:10.709100 218566 net.cpp:570] conv3 -> conv3
I1111 08:45:10.813601 218566 net.cpp:210] Setting up conv3
I1111 08:45:10.813696 218566 net.cpp:217] Top shape: 32 384 13 13 (2076672)
I1111 08:45:10.813766 218566 net.cpp:225] Memory required for data: 225766912
I1111 08:45:10.813841 218566 layer_factory.hpp:114] Creating layer relu3
I1111 08:45:10.813921 218566 net.cpp:160] Creating Layer relu3
I1111 08:45:10.813993 218566 net.cpp:596] relu3 <- conv3
I1111 08:45:10.814077 218566 net.cpp:557] relu3 -> conv3 (in-place)
I1111 08:45:10.814198 218566 net.cpp:210] Setting up relu3
I1111 08:45:10.814231 218566 net.cpp:217] Top shape: 32 384 13 13 (2076672)
I1111 08:45:10.814267 218566 net.cpp:225] Memory required for data: 234073600
I1111 08:45:10.814293 218566 layer_factory.hpp:114] Creating layer conv4
I1111 08:45:10.814389 218566 net.cpp:160] Creating Layer conv4
I1111 08:45:10.814415 218566 net.cpp:596] conv4 <- conv3
I1111 08:45:10.814488 218566 net.cpp:570] conv4 -> conv4
I1111 08:45:10.905127 218566 net.cpp:210] Setting up conv4
I1111 08:45:10.905220 218566 net.cpp:217] Top shape: 32 384 13 13 (2076672)
I1111 08:45:10.905269 218566 net.cpp:225] Memory required for data: 242380288
I1111 08:45:10.905335 218566 layer_factory.hpp:114] Creating layer relu4
I1111 08:45:10.905413 218566 net.cpp:160] Creating Layer relu4
I1111 08:45:10.905457 218566 net.cpp:596] relu4 <- conv4
I1111 08:45:10.905545 218566 net.cpp:557] relu4 -> conv4 (in-place)
I1111 08:45:10.905668 218566 net.cpp:210] Setting up relu4
I1111 08:45:10.905825 218566 net.cpp:217] Top shape: 32 384 13 13 (2076672)
I1111 08:45:10.905867 218566 net.cpp:225] Memory required for data: 250686976
I1111 08:45:10.905896 218566 layer_factory.hpp:114] Creating layer conv5
I1111 08:45:10.905990 218566 net.cpp:160] Creating Layer conv5
I1111 08:45:10.906019 218566 net.cpp:596] conv5 <- conv4
I1111 08:45:10.906066 218566 net.cpp:570] conv5 -> conv5
I1111 08:45:10.979946 218566 net.cpp:210] Setting up conv5
I1111 08:45:10.980044 218566 net.cpp:217] Top shape: 32 256 13 13 (1384448)
I1111 08:45:10.980099 218566 net.cpp:225] Memory required for data: 256224768
I1111 08:45:10.980214 218566 layer_factory.hpp:114] Creating layer relu5
I1111 08:45:10.980304 218566 net.cpp:160] Creating Layer relu5
I1111 08:45:10.980350 218566 net.cpp:596] relu5 <- conv5
I1111 08:45:10.980401 218566 net.cpp:557] relu5 -> conv5 (in-place)
I1111 08:45:10.980512 218566 net.cpp:210] Setting up relu5
I1111 08:45:10.980552 218566 net.cpp:217] Top shape: 32 256 13 13 (1384448)
I1111 08:45:10.980589 218566 net.cpp:225] Memory required for data: 261762560
I1111 08:45:10.980617 218566 layer_factory.hpp:114] Creating layer pool5
I1111 08:45:10.980716 218566 net.cpp:160] Creating Layer pool5
I1111 08:45:10.980744 218566 net.cpp:596] pool5 <- conv5
I1111 08:45:10.980820 218566 net.cpp:570] pool5 -> pool5
I1111 08:45:10.980932 218566 net.cpp:210] Setting up pool5
I1111 08:45:10.980964 218566 net.cpp:217] Top shape: 32 256 6 6 (294912)
I1111 08:45:10.980998 218566 net.cpp:225] Memory required for data: 262942208
I1111 08:45:10.981020 218566 layer_factory.hpp:114] Creating layer fc6
I1111 08:45:10.981104 218566 net.cpp:160] Creating Layer fc6
I1111 08:45:10.981132 218566 net.cpp:596] fc6 <- pool5
I1111 08:45:10.981169 218566 net.cpp:570] fc6 -> fc6
I1111 08:45:12.742120 218566 net.cpp:210] Setting up fc6
I1111 08:45:12.742245 218566 net.cpp:217] Top shape: 32 4096 (131072)
I1111 08:45:12.742293 218566 net.cpp:225] Memory required for data: 263466496
I1111 08:45:12.742388 218566 layer_factory.hpp:114] Creating layer relu6
I1111 08:45:12.742521 218566 net.cpp:160] Creating Layer relu6
I1111 08:45:12.742576 218566 net.cpp:596] relu6 <- fc6
I1111 08:45:12.742648 218566 net.cpp:557] relu6 -> fc6 (in-place)
I1111 08:45:12.742784 218566 net.cpp:210] Setting up relu6
I1111 08:45:12.742844 218566 net.cpp:217] Top shape: 32 4096 (131072)
I1111 08:45:12.742878 218566 net.cpp:225] Memory required for data: 263990784
I1111 08:45:12.742904 218566 layer_factory.hpp:114] Creating layer drop6
I1111 08:45:12.742965 218566 net.cpp:160] Creating Layer drop6
I1111 08:45:12.742987 218566 net.cpp:596] drop6 <- fc6
I1111 08:45:12.743019 218566 net.cpp:557] drop6 -> fc6 (in-place)
I1111 08:45:12.743077 218566 net.cpp:210] Setting up drop6
I1111 08:45:12.743098 218566 net.cpp:217] Top shape: 32 4096 (131072)
I1111 08:45:12.743124 218566 net.cpp:225] Memory required for data: 264515072
I1111 08:45:12.743144 218566 layer_factory.hpp:114] Creating layer fc7
I1111 08:45:12.743190 218566 net.cpp:160] Creating Layer fc7
I1111 08:45:12.743211 218566 net.cpp:596] fc7 <- fc6
I1111 08:45:12.743253 218566 net.cpp:570] fc7 -> fc7
I1111 08:45:13.528228 218566 net.cpp:210] Setting up fc7
I1111 08:45:13.528352 218566 net.cpp:217] Top shape: 32 4096 (131072)
I1111 08:45:13.528401 218566 net.cpp:225] Memory required for data: 265039360
I1111 08:45:13.528496 218566 layer_factory.hpp:114] Creating layer relu7
I1111 08:45:13.528626 218566 net.cpp:160] Creating Layer relu7
I1111 08:45:13.528679 218566 net.cpp:596] relu7 <- fc7
I1111 08:45:13.528754 218566 net.cpp:557] relu7 -> fc7 (in-place)
I1111 08:45:13.528929 218566 net.cpp:210] Setting up relu7
I1111 08:45:13.528977 218566 net.cpp:217] Top shape: 32 4096 (131072)
I1111 08:45:13.529014 218566 net.cpp:225] Memory required for data: 265563648
I1111 08:45:13.529044 218566 layer_factory.hpp:114] Creating layer drop7
I1111 08:45:13.529112 218566 net.cpp:160] Creating Layer drop7
I1111 08:45:13.529181 218566 net.cpp:596] drop7 <- fc7
I1111 08:45:13.529222 218566 net.cpp:557] drop7 -> fc7 (in-place)
I1111 08:45:13.529376 218566 net.cpp:210] Setting up drop7
I1111 08:45:13.529405 218566 net.cpp:217] Top shape: 32 4096 (131072)
I1111 08:45:13.529438 218566 net.cpp:225] Memory required for data: 266087936
I1111 08:45:13.529461 218566 layer_factory.hpp:114] Creating layer fc8
I1111 08:45:13.529523 218566 net.cpp:160] Creating Layer fc8
I1111 08:45:13.529543 218566 net.cpp:596] fc8 <- fc7
I1111 08:45:13.529595 218566 net.cpp:570] fc8 -> fc8
I1111 08:45:13.721729 218566 net.cpp:210] Setting up fc8
I1111 08:45:13.721848 218566 net.cpp:217] Top shape: 32 1000 (32000)
I1111 08:45:13.721890 218566 net.cpp:225] Memory required for data: 266215936
I1111 08:45:13.721974 218566 layer_factory.hpp:114] Creating layer loss
I1111 08:45:13.722064 218566 net.cpp:160] Creating Layer loss
I1111 08:45:13.722147 218566 net.cpp:596] loss <- fc8
I1111 08:45:13.722190 218566 net.cpp:596] loss <- label
I1111 08:45:13.722250 218566 net.cpp:570] loss -> loss
I1111 08:45:13.722344 218566 layer_factory.hpp:114] Creating layer loss
…
