…
I1013 15:24:43.103102 56847 net.cpp:484] The NetState phase (0) differed from the phase (1) specified by a rule in layer data
I1013 15:24:43.103188 56847 net.cpp:120] Initializing net from parameters: 
name: "HEP_CLASSIFIER"
state {
  phase: TRAIN
  level: 0
  stage: ""
}
layer {
  name: "data"
  type: "DummyData"
  top: "data"
  top: "label"
  include {
    phase: TRAIN
  }
  dummy_data_param {
    data_filler {
      type: "gaussian"
      std: 1
    }
    data_filler {
      type: "constant"
      value: 0
    }
    shape {
      dim: 128
      dim: 3
      dim: 124
      dim: 124
    }
    shape {
      dim: 128
      dim: 1
      dim: 1
      dim: 1
    }
  }
}
layer {
  name: "conv1"
  type: "Convolution"
  bottom: "data"
  top: "conv1"
  convolution_param {
    num_output: 128
    pad: 0
    kernel_size: 3
    stride: 1
    weight_filler {
      type: "msra"
    }
    bias_filler {
      type: "constant"
      value: 0
    }
  }
}
layer {
  name: "relu1"
  type: "ReLU"
  bottom: "conv1"
  top: "conv1"
  relu_param {
    negative_slope: 0.1
  }
}
layer {
  name: "dropout1"
  type: "Dropout"
  bottom: "conv1"
  top: "drop1"
}
layer {
  name: "pool1"
  type: "Pooling"
  bottom: "drop1"
  top: "pool1"
  pooling_param {
    pool: MAX
    kernel_size: 2
    stride: 2
  }
}
layer {
  name: "conv2"
  type: "Convolution"
  bottom: "pool1"
  top: "conv2"
  convolution_param {
    num_output: 128
    pad: 0
    kernel_size: 3
    stride: 1
    weight_filler {
      type: "msra"
    }
    bias_filler {
      type: "constant"
      value: 0
    }
  }
}
layer {
  name: "relu2"
  type: "ReLU"
  bottom: "conv2"
  top: "conv2"
  relu_param {
    negative_slope: 0.1
  }
}
layer {
  name: "dropout2"
  type: "Dropout"
  bottom: "conv2"
  top: "drop2"
}
layer {
  name: "pool2"
  type: "Pooling"
  bottom: "drop2"
  top: "pool2"
  pooling_param {
    pool: MAX
    kernel_size: 2
    stride: 2
  }
}
layer {
  name: "conv3"
  type: "Convolution"
  bottom: "pool2"
  top: "conv3"
  convolution_param {
    num_output: 128
    pad: 0
    kernel_size: 3
    stride: 1
    weight_filler {
      type: "msra"
    }
    bias_filler {
      type: "constant"
      value: 0
    }
  }
}
layer {
  name: "relu3"
  type: "ReLU"
  bottom: "conv3"
  top: "conv3"
  relu_param {
    negative_slope: 0.1
  }
}
layer {
  name: "dropout3"
  type: "Dropout"
  bottom: "conv3"
  top: "drop3"
}
layer {
  name: "pool3"
  type: "Pooling"
  bottom: "drop3"
  top: "pool3"
  pooling_param {
    pool: MAX
    kernel_size: 2
    stride: 2
  }
}
layer {
  name: "conv4"
  type: "Convolution"
  bottom: "pool3"
  top: "conv4"
  convolution_param {
    num_output: 128
    pad: 0
    kernel_size: 3
    stride: 1
    weight_filler {
      type: "msra"
    }
    bias_filler {
      type: "constant"
      value: 0
    }
  }
}
layer {
  name: "relu4"
  type: "ReLU"
  bottom: "conv4"
  top: "conv4"
  relu_param {
    negative_slope: 0.1
  }
}
layer {
  name: "dropout4"
  type: "Dropout"
  bottom: "conv4"
  top: "drop4"
}
layer {
  name: "pool4"
  type: "Pooling"
  bottom: "drop4"
  top: "pool4"
  pooling_param {
    pool: MAX
    kernel_size: 2
    stride: 2
  }
}
layer {
  name: "fc1"
  type: "InnerProduct"
  bottom: "pool4"
  top: "fc1"
  inner_product_param {
    num_output: 1024
    weight_filler {
      type: "msra"
    }
    bias_filler {
      type: "constant"
      value: 0
    }
  }
}
layer {
  name: "dropout5"
  type: "Dropout"
  bottom: "fc1"
  top: "drop5"
}
layer {
  name: "fc2"
  type: "InnerProduct"
  bottom: "drop5"
  top: "fc2"
  inner_product_param {
    num_output: 2
    weight_filler {
      type: "msra"
    }
    bias_filler {
      type: "constant"
      value: 0
    }
  }
}
layer {
  name: "loss"
  type: "SoftmaxWithLoss"
  bottom: "fc2"
  bottom: "label"
}
I1013 15:24:43.103318 56847 layer_factory.hpp:114] Creating layer data
I1013 15:24:43.103327 56847 net.cpp:160] Creating Layer data
I1013 15:24:43.103330 56847 net.cpp:570] data -> data
I1013 15:24:43.103341 56847 net.cpp:570] data -> label
I1013 15:24:43.103596 56847 net.cpp:210] Setting up data
I1013 15:24:43.103603 56847 net.cpp:217] Top shape: 128 3 124 124 (5904384)
I1013 15:24:43.103610 56847 net.cpp:217] Top shape: 128 1 1 1 (128)
I1013 15:24:43.103612 56847 net.cpp:225] Memory required for data: 23618048
I1013 15:24:43.103616 56847 layer_factory.hpp:114] Creating layer conv1
I1013 15:24:43.103631 56847 net.cpp:160] Creating Layer conv1
I1013 15:24:43.103633 56847 net.cpp:596] conv1 <- data
I1013 15:24:43.103639 56847 net.cpp:570] conv1 -> conv1
I1013 15:24:43.124943 56847 net.cpp:210] Setting up conv1
I1013 15:24:43.124959 56847 net.cpp:217] Top shape: 128 128 122 122 (243859456)
I1013 15:24:43.124968 56847 net.cpp:225] Memory required for data: 999055872
I1013 15:24:43.124991 56847 layer_factory.hpp:114] Creating layer relu1
I1013 15:24:43.125025 56847 net.cpp:160] Creating Layer relu1
I1013 15:24:43.125030 56847 net.cpp:596] relu1 <- conv1
I1013 15:24:43.125041 56847 net.cpp:557] relu1 -> conv1 (in-place)
I1013 15:24:43.125069 56847 net.cpp:210] Setting up relu1
I1013 15:24:43.125080 56847 net.cpp:217] Top shape: 128 128 122 122 (243859456)
I1013 15:24:43.125095 56847 net.cpp:225] Memory required for data: 1974493696
I1013 15:24:43.125100 56847 layer_factory.hpp:114] Creating layer dropout1
I1013 15:24:43.125108 56847 net.cpp:160] Creating Layer dropout1
I1013 15:24:43.125113 56847 net.cpp:596] dropout1 <- conv1
I1013 15:24:43.125123 56847 net.cpp:570] dropout1 -> drop1
I1013 15:24:43.125136 56847 net.cpp:210] Setting up dropout1
I1013 15:24:43.125145 56847 net.cpp:217] Top shape: 128 128 122 122 (243859456)
I1013 15:24:43.125152 56847 net.cpp:225] Memory required for data: 2949931520
I1013 15:24:43.125156 56847 layer_factory.hpp:114] Creating layer pool1
I1013 15:24:43.125169 56847 net.cpp:160] Creating Layer pool1
I1013 15:24:43.125182 56847 net.cpp:596] pool1 <- drop1
I1013 15:24:43.125190 56847 net.cpp:570] pool1 -> pool1
I1013 15:24:43.125213 56847 net.cpp:210] Setting up pool1
I1013 15:24:43.125219 56847 net.cpp:217] Top shape: 128 128 61 61 (60964864)
I1013 15:24:43.125226 56847 net.cpp:225] Memory required for data: 3193790976
I1013 15:24:43.125231 56847 layer_factory.hpp:114] Creating layer conv2
I1013 15:24:43.125252 56847 net.cpp:160] Creating Layer conv2
I1013 15:24:43.125257 56847 net.cpp:596] conv2 <- pool1
I1013 15:24:43.125264 56847 net.cpp:570] conv2 -> conv2
I1013 15:24:43.248199 56847 net.cpp:210] Setting up conv2
I1013 15:24:43.248237 56847 net.cpp:217] Top shape: 128 128 59 59 (57032704)
I1013 15:24:43.248250 56847 net.cpp:225] Memory required for data: 3421921792
I1013 15:24:43.248275 56847 layer_factory.hpp:114] Creating layer relu2
I1013 15:24:43.248297 56847 net.cpp:160] Creating Layer relu2
I1013 15:24:43.248303 56847 net.cpp:596] relu2 <- conv2
I1013 15:24:43.248314 56847 net.cpp:557] relu2 -> conv2 (in-place)
I1013 15:24:43.248347 56847 net.cpp:210] Setting up relu2
I1013 15:24:43.248394 56847 net.cpp:217] Top shape: 128 128 59 59 (57032704)
I1013 15:24:43.248448 56847 net.cpp:225] Memory required for data: 3650052608
I1013 15:24:43.248494 56847 layer_factory.hpp:114] Creating layer dropout2
I1013 15:24:43.248533 56847 net.cpp:160] Creating Layer dropout2
I1013 15:24:43.248543 56847 net.cpp:596] dropout2 <- conv2
I1013 15:24:43.248550 56847 net.cpp:570] dropout2 -> drop2
I1013 15:24:43.248569 56847 net.cpp:210] Setting up dropout2
I1013 15:24:43.248574 56847 net.cpp:217] Top shape: 128 128 59 59 (57032704)
I1013 15:24:43.248585 56847 net.cpp:225] Memory required for data: 3878183424
I1013 15:24:43.248590 56847 layer_factory.hpp:114] Creating layer pool2
I1013 15:24:43.248610 56847 net.cpp:160] Creating Layer pool2
I1013 15:24:43.248615 56847 net.cpp:596] pool2 <- drop2
I1013 15:24:43.248621 56847 net.cpp:570] pool2 -> pool2
I1013 15:24:43.248648 56847 net.cpp:210] Setting up pool2
I1013 15:24:43.248688 56847 net.cpp:217] Top shape: 128 128 30 30 (14745600)
I1013 15:24:43.248744 56847 net.cpp:225] Memory required for data: 3937165824
I1013 15:24:43.248754 56847 layer_factory.hpp:114] Creating layer conv3
I1013 15:24:43.248782 56847 net.cpp:160] Creating Layer conv3
I1013 15:24:43.248808 56847 net.cpp:596] conv3 <- pool2
I1013 15:24:43.248854 56847 net.cpp:570] conv3 -> conv3
I1013 15:24:43.283417 56847 net.cpp:210] Setting up conv3
I1013 15:24:43.283447 56847 net.cpp:217] Top shape: 128 128 28 28 (12845056)
I1013 15:24:43.283458 56847 net.cpp:225] Memory required for data: 3988546048
I1013 15:24:43.283479 56847 layer_factory.hpp:114] Creating layer relu3
I1013 15:24:43.283501 56847 net.cpp:160] Creating Layer relu3
I1013 15:24:43.283506 56847 net.cpp:596] relu3 <- conv3
I1013 15:24:43.283519 56847 net.cpp:557] relu3 -> conv3 (in-place)
I1013 15:24:43.283546 56847 net.cpp:210] Setting up relu3
I1013 15:24:43.283579 56847 net.cpp:217] Top shape: 128 128 28 28 (12845056)
I1013 15:24:43.283608 56847 net.cpp:225] Memory required for data: 4039926272
I1013 15:24:43.283661 56847 layer_factory.hpp:114] Creating layer dropout3
I1013 15:24:43.283712 56847 net.cpp:160] Creating Layer dropout3
I1013 15:24:43.283761 56847 net.cpp:596] dropout3 <- conv3
I1013 15:24:43.283803 56847 net.cpp:570] dropout3 -> drop3
I1013 15:24:43.283843 56847 net.cpp:210] Setting up dropout3
I1013 15:24:43.283851 56847 net.cpp:217] Top shape: 128 128 28 28 (12845056)
I1013 15:24:43.283859 56847 net.cpp:225] Memory required for data: 4091306496
I1013 15:24:43.283864 56847 layer_factory.hpp:114] Creating layer pool3
I1013 15:24:43.283884 56847 net.cpp:160] Creating Layer pool3
I1013 15:24:43.283922 56847 net.cpp:596] pool3 <- drop3
I1013 15:24:43.283967 56847 net.cpp:570] pool3 -> pool3
I1013 15:24:43.284000 56847 net.cpp:210] Setting up pool3
I1013 15:24:43.284044 56847 net.cpp:217] Top shape: 128 128 14 14 (3211264)
I1013 15:24:43.284056 56847 net.cpp:225] Memory required for data: 4104151552
I1013 15:24:43.284061 56847 layer_factory.hpp:114] Creating layer conv4
I1013 15:24:43.284088 56847 net.cpp:160] Creating Layer conv4
I1013 15:24:43.284122 56847 net.cpp:596] conv4 <- pool3
I1013 15:24:43.284143 56847 net.cpp:570] conv4 -> conv4
I1013 15:24:43.297857 56847 net.cpp:210] Setting up conv4
I1013 15:24:43.297868 56847 net.cpp:217] Top shape: 128 128 12 12 (2359296)
I1013 15:24:43.297875 56847 net.cpp:225] Memory required for data: 4113588736
I1013 15:24:43.297889 56847 layer_factory.hpp:114] Creating layer relu4
I1013 15:24:43.297900 56847 net.cpp:160] Creating Layer relu4
I1013 15:24:43.297904 56847 net.cpp:596] relu4 <- conv4
I1013 15:24:43.297914 56847 net.cpp:557] relu4 -> conv4 (in-place)
I1013 15:24:43.297935 56847 net.cpp:210] Setting up relu4
I1013 15:24:43.297966 56847 net.cpp:217] Top shape: 128 128 12 12 (2359296)
I1013 15:24:43.297992 56847 net.cpp:225] Memory required for data: 4123025920
I1013 15:24:43.298050 56847 layer_factory.hpp:114] Creating layer dropout4
I1013 15:24:43.298084 56847 net.cpp:160] Creating Layer dropout4
I1013 15:24:43.298117 56847 net.cpp:596] dropout4 <- conv4
I1013 15:24:43.298161 56847 net.cpp:570] dropout4 -> drop4
I1013 15:24:43.298177 56847 net.cpp:210] Setting up dropout4
I1013 15:24:43.298182 56847 net.cpp:217] Top shape: 128 128 12 12 (2359296)
I1013 15:24:43.298188 56847 net.cpp:225] Memory required for data: 4132463104
I1013 15:24:43.298193 56847 layer_factory.hpp:114] Creating layer pool4
I1013 15:24:43.298212 56847 net.cpp:160] Creating Layer pool4
I1013 15:24:43.298244 56847 net.cpp:596] pool4 <- drop4
I1013 15:24:43.298301 56847 net.cpp:570] pool4 -> pool4
I1013 15:24:43.298332 56847 net.cpp:210] Setting up pool4
I1013 15:24:43.298343 56847 net.cpp:217] Top shape: 128 128 6 6 (589824)
I1013 15:24:43.298373 56847 net.cpp:225] Memory required for data: 4134822400
I1013 15:24:43.298416 56847 layer_factory.hpp:114] Creating layer fc1
I1013 15:24:43.298466 56847 net.cpp:160] Creating Layer fc1
I1013 15:24:43.298475 56847 net.cpp:596] fc1 <- pool4
I1013 15:24:43.298487 56847 net.cpp:570] fc1 -> fc1
I1013 15:24:43.368623 56847 net.cpp:210] Setting up fc1
I1013 15:24:43.368633 56847 net.cpp:217] Top shape: 128 1024 (131072)
I1013 15:24:43.368641 56847 net.cpp:225] Memory required for data: 4135346688
I1013 15:24:43.368656 56847 layer_factory.hpp:114] Creating layer dropout5
I1013 15:24:43.368665 56847 net.cpp:160] Creating Layer dropout5
I1013 15:24:43.368670 56847 net.cpp:596] dropout5 <- fc1
I1013 15:24:43.368682 56847 net.cpp:570] dropout5 -> drop5
I1013 15:24:43.368695 56847 net.cpp:210] Setting up dropout5
I1013 15:24:43.368700 56847 net.cpp:217] Top shape: 128 1024 (131072)
I1013 15:24:43.368706 56847 net.cpp:225] Memory required for data: 4135870976
I1013 15:24:43.368711 56847 layer_factory.hpp:114] Creating layer fc2
I1013 15:24:43.368722 56847 net.cpp:160] Creating Layer fc2
I1013 15:24:43.368727 56847 net.cpp:596] fc2 <- drop5
I1013 15:24:43.368736 56847 net.cpp:570] fc2 -> fc2
I1013 15:24:43.368810 56847 net.cpp:210] Setting up fc2
I1013 15:24:43.368821 56847 net.cpp:217] Top shape: 128 2 (256)
I1013 15:24:43.368829 56847 net.cpp:225] Memory required for data: 4135872000
I1013 15:24:43.368842 56847 layer_factory.hpp:114] Creating layer loss
I1013 15:24:43.368854 56847 net.cpp:160] Creating Layer loss
I1013 15:24:43.368860 56847 net.cpp:596] loss <- fc2
I1013 15:24:43.368865 56847 net.cpp:596] loss <- label
I1013 15:24:43.368875 56847 net.cpp:570] loss -> (automatic)
I1013 15:24:43.368885 56847 layer_factory.hpp:114] Creating layer loss
…
