…
I1013 15:24:37.864936 56701 net.cpp:484] The NetState phase (0) differed from the phase (1) specified by a rule in layer data
I1013 15:24:37.865057 56701 net.cpp:120] Initializing net from parameters: 
name: "HEP_CLASSIFIER"
state {
  phase: TRAIN
  level: 0
  stage: ""
}
layer {
  name: "data"
  type: "DummyData"
  top: "data"
  top: "label"
  include {
    phase: TRAIN
  }
  dummy_data_param {
    data_filler {
      type: "gaussian"
      std: 1
    }
    data_filler {
      type: "constant"
      value: 0
    }
    shape {
      dim: 1
      dim: 3
      dim: 124
      dim: 124
    }
    shape {
      dim: 1
      dim: 1
      dim: 1
      dim: 1
    }
  }
}
layer {
  name: "conv1"
  type: "Convolution"
  bottom: "data"
  top: "conv1"
  convolution_param {
    num_output: 128
    pad: 0
    kernel_size: 3
    stride: 1
    weight_filler {
      type: "msra"
    }
    bias_filler {
      type: "constant"
      value: 0
    }
  }
}
layer {
  name: "relu1"
  type: "ReLU"
  bottom: "conv1"
  top: "conv1"
  relu_param {
    negative_slope: 0.1
  }
}
layer {
  name: "dropout1"
  type: "Dropout"
  bottom: "conv1"
  top: "drop1"
}
layer {
  name: "pool1"
  type: "Pooling"
  bottom: "drop1"
  top: "pool1"
  pooling_param {
    pool: MAX
    kernel_size: 2
    stride: 2
  }
}
layer {
  name: "conv2"
  type: "Convolution"
  bottom: "pool1"
  top: "conv2"
  convolution_param {
    num_output: 128
    pad: 0
    kernel_size: 3
    stride: 1
    weight_filler {
      type: "msra"
    }
    bias_filler {
      type: "constant"
      value: 0
    }
  }
}
layer {
  name: "relu2"
  type: "ReLU"
  bottom: "conv2"
  top: "conv2"
  relu_param {
    negative_slope: 0.1
  }
}
layer {
  name: "dropout2"
  type: "Dropout"
  bottom: "conv2"
  top: "drop2"
}
layer {
  name: "pool2"
  type: "Pooling"
  bottom: "drop2"
  top: "pool2"
  pooling_param {
    pool: MAX
    kernel_size: 2
    stride: 2
  }
}
layer {
  name: "conv3"
  type: "Convolution"
  bottom: "pool2"
  top: "conv3"
  convolution_param {
    num_output: 128
    pad: 0
    kernel_size: 3
    stride: 1
    weight_filler {
      type: "msra"
    }
    bias_filler {
      type: "constant"
      value: 0
    }
  }
}
layer {
  name: "relu3"
  type: "ReLU"
  bottom: "conv3"
  top: "conv3"
  relu_param {
    negative_slope: 0.1
  }
}
layer {
  name: "dropout3"
  type: "Dropout"
  bottom: "conv3"
  top: "drop3"
}
layer {
  name: "pool3"
  type: "Pooling"
  bottom: "drop3"
  top: "pool3"
  pooling_param {
    pool: MAX
    kernel_size: 2
    stride: 2
  }
}
layer {
  name: "conv4"
  type: "Convolution"
  bottom: "pool3"
  top: "conv4"
  convolution_param {
    num_output: 128
    pad: 0
    kernel_size: 3
    stride: 1
    weight_filler {
      type: "msra"
    }
    bias_filler {
      type: "constant"
      value: 0
    }
  }
}
layer {
  name: "relu4"
  type: "ReLU"
  bottom: "conv4"
  top: "conv4"
  relu_param {
    negative_slope: 0.1
  }
}
layer {
  name: "dropout4"
  type: "Dropout"
  bottom: "conv4"
  top: "drop4"
}
layer {
  name: "pool4"
  type: "Pooling"
  bottom: "drop4"
  top: "pool4"
  pooling_param {
    pool: MAX
    kernel_size: 2
    stride: 2
  }
}
layer {
  name: "fc1"
  type: "InnerProduct"
  bottom: "pool4"
  top: "fc1"
  inner_product_param {
    num_output: 1024
    weight_filler {
      type: "msra"
    }
    bias_filler {
      type: "constant"
      value: 0
    }
  }
}
layer {
  name: "dropout5"
  type: "Dropout"
  bottom: "fc1"
  top: "drop5"
}
layer {
  name: "fc2"
  type: "InnerProduct"
  bottom: "drop5"
  top: "fc2"
  inner_product_param {
    num_output: 2
    weight_filler {
      type: "msra"
    }
    bias_filler {
      type: "constant"
      value: 0
    }
  }
}
layer {
  name: "loss"
  type: "SoftmaxWithLoss"
  bottom: "fc2"
  bottom: "label"
}
I1013 15:24:37.865176 56701 layer_factory.hpp:114] Creating layer data
I1013 15:24:37.865185 56701 net.cpp:160] Creating Layer data
I1013 15:24:37.865188 56701 net.cpp:570] data -> data
I1013 15:24:37.865200 56701 net.cpp:570] data -> label
I1013 15:24:37.865425 56701 net.cpp:210] Setting up data
I1013 15:24:37.865432 56701 net.cpp:217] Top shape: 1 3 124 124 (46128)
I1013 15:24:37.865442 56701 net.cpp:217] Top shape: 1 1 1 1 (1)
I1013 15:24:37.865445 56701 net.cpp:225] Memory required for data: 184516
I1013 15:24:37.865448 56701 layer_factory.hpp:114] Creating layer conv1
I1013 15:24:37.865461 56701 net.cpp:160] Creating Layer conv1
I1013 15:24:37.865464 56701 net.cpp:596] conv1 <- data
I1013 15:24:37.865470 56701 net.cpp:570] conv1 -> conv1
I1013 15:24:37.877164 56701 net.cpp:210] Setting up conv1
I1013 15:24:37.877182 56701 net.cpp:217] Top shape: 1 128 122 122 (1905152)
I1013 15:24:37.877192 56701 net.cpp:225] Memory required for data: 7805124
I1013 15:24:37.877213 56701 layer_factory.hpp:114] Creating layer relu1
I1013 15:24:37.877241 56701 net.cpp:160] Creating Layer relu1
I1013 15:24:37.877255 56701 net.cpp:596] relu1 <- conv1
I1013 15:24:37.877264 56701 net.cpp:557] relu1 -> conv1 (in-place)
I1013 15:24:37.877288 56701 net.cpp:210] Setting up relu1
I1013 15:24:37.877293 56701 net.cpp:217] Top shape: 1 128 122 122 (1905152)
I1013 15:24:37.877300 56701 net.cpp:225] Memory required for data: 15425732
I1013 15:24:37.877305 56701 layer_factory.hpp:114] Creating layer dropout1
I1013 15:24:37.877315 56701 net.cpp:160] Creating Layer dropout1
I1013 15:24:37.877318 56701 net.cpp:596] dropout1 <- conv1
I1013 15:24:37.877326 56701 net.cpp:570] dropout1 -> drop1
I1013 15:24:37.877338 56701 net.cpp:210] Setting up dropout1
I1013 15:24:37.877351 56701 net.cpp:217] Top shape: 1 128 122 122 (1905152)
I1013 15:24:37.877357 56701 net.cpp:225] Memory required for data: 23046340
I1013 15:24:37.877362 56701 layer_factory.hpp:114] Creating layer pool1
I1013 15:24:37.877374 56701 net.cpp:160] Creating Layer pool1
I1013 15:24:37.877384 56701 net.cpp:596] pool1 <- drop1
I1013 15:24:37.877393 56701 net.cpp:570] pool1 -> pool1
I1013 15:24:37.877423 56701 net.cpp:210] Setting up pool1
I1013 15:24:37.877427 56701 net.cpp:217] Top shape: 1 128 61 61 (476288)
I1013 15:24:37.877434 56701 net.cpp:225] Memory required for data: 24951492
I1013 15:24:37.877439 56701 layer_factory.hpp:114] Creating layer conv2
I1013 15:24:37.877459 56701 net.cpp:160] Creating Layer conv2
I1013 15:24:37.877463 56701 net.cpp:596] conv2 <- pool1
I1013 15:24:37.877477 56701 net.cpp:570] conv2 -> conv2
I1013 15:24:37.889897 56701 net.cpp:210] Setting up conv2
I1013 15:24:37.889915 56701 net.cpp:217] Top shape: 1 128 59 59 (445568)
I1013 15:24:37.889924 56701 net.cpp:225] Memory required for data: 26733764
I1013 15:24:37.889938 56701 layer_factory.hpp:114] Creating layer relu2
I1013 15:24:37.889968 56701 net.cpp:160] Creating Layer relu2
I1013 15:24:37.889976 56701 net.cpp:596] relu2 <- conv2
I1013 15:24:37.889984 56701 net.cpp:557] relu2 -> conv2 (in-place)
I1013 15:24:37.890004 56701 net.cpp:210] Setting up relu2
I1013 15:24:37.890010 56701 net.cpp:217] Top shape: 1 128 59 59 (445568)
I1013 15:24:37.890017 56701 net.cpp:225] Memory required for data: 28516036
I1013 15:24:37.890022 56701 layer_factory.hpp:114] Creating layer dropout2
I1013 15:24:37.890030 56701 net.cpp:160] Creating Layer dropout2
I1013 15:24:37.890034 56701 net.cpp:596] dropout2 <- conv2
I1013 15:24:37.890041 56701 net.cpp:570] dropout2 -> drop2
I1013 15:24:37.890051 56701 net.cpp:210] Setting up dropout2
I1013 15:24:37.890055 56701 net.cpp:217] Top shape: 1 128 59 59 (445568)
I1013 15:24:37.890061 56701 net.cpp:225] Memory required for data: 30298308
I1013 15:24:37.890065 56701 layer_factory.hpp:114] Creating layer pool2
I1013 15:24:37.890080 56701 net.cpp:160] Creating Layer pool2
I1013 15:24:37.890084 56701 net.cpp:596] pool2 <- drop2
I1013 15:24:37.890094 56701 net.cpp:570] pool2 -> pool2
I1013 15:24:37.890113 56701 net.cpp:210] Setting up pool2
I1013 15:24:37.890120 56701 net.cpp:217] Top shape: 1 128 30 30 (115200)
I1013 15:24:37.890125 56701 net.cpp:225] Memory required for data: 30759108
I1013 15:24:37.890130 56701 layer_factory.hpp:114] Creating layer conv3
I1013 15:24:37.890151 56701 net.cpp:160] Creating Layer conv3
I1013 15:24:37.890156 56701 net.cpp:596] conv3 <- pool2
I1013 15:24:37.890166 56701 net.cpp:570] conv3 -> conv3
I1013 15:24:37.896952 56701 net.cpp:210] Setting up conv3
I1013 15:24:37.896962 56701 net.cpp:217] Top shape: 1 128 28 28 (100352)
I1013 15:24:37.896973 56701 net.cpp:225] Memory required for data: 31160516
I1013 15:24:37.896986 56701 layer_factory.hpp:114] Creating layer relu3
I1013 15:24:37.896996 56701 net.cpp:160] Creating Layer relu3
I1013 15:24:37.897006 56701 net.cpp:596] relu3 <- conv3
I1013 15:24:37.897011 56701 net.cpp:557] relu3 -> conv3 (in-place)
I1013 15:24:37.897032 56701 net.cpp:210] Setting up relu3
I1013 15:24:37.897042 56701 net.cpp:217] Top shape: 1 128 28 28 (100352)
I1013 15:24:37.897049 56701 net.cpp:225] Memory required for data: 31561924
I1013 15:24:37.897054 56701 layer_factory.hpp:114] Creating layer dropout3
I1013 15:24:37.897063 56701 net.cpp:160] Creating Layer dropout3
I1013 15:24:37.897069 56701 net.cpp:596] dropout3 <- conv3
I1013 15:24:37.897078 56701 net.cpp:570] dropout3 -> drop3
I1013 15:24:37.897089 56701 net.cpp:210] Setting up dropout3
I1013 15:24:37.897094 56701 net.cpp:217] Top shape: 1 128 28 28 (100352)
I1013 15:24:37.897099 56701 net.cpp:225] Memory required for data: 31963332
I1013 15:24:37.897104 56701 layer_factory.hpp:114] Creating layer pool3
I1013 15:24:37.897115 56701 net.cpp:160] Creating Layer pool3
I1013 15:24:37.897120 56701 net.cpp:596] pool3 <- drop3
I1013 15:24:37.897127 56701 net.cpp:570] pool3 -> pool3
I1013 15:24:37.897150 56701 net.cpp:210] Setting up pool3
I1013 15:24:37.897187 56701 net.cpp:217] Top shape: 1 128 14 14 (25088)
I1013 15:24:37.897222 56701 net.cpp:225] Memory required for data: 32063684
I1013 15:24:37.897248 56701 layer_factory.hpp:114] Creating layer conv4
I1013 15:24:37.897295 56701 net.cpp:160] Creating Layer conv4
I1013 15:24:37.897302 56701 net.cpp:596] conv4 <- pool3
I1013 15:24:37.897310 56701 net.cpp:570] conv4 -> conv4
I1013 15:24:37.902904 56701 net.cpp:210] Setting up conv4
I1013 15:24:37.902915 56701 net.cpp:217] Top shape: 1 128 12 12 (18432)
I1013 15:24:37.902923 56701 net.cpp:225] Memory required for data: 32137412
I1013 15:24:37.902933 56701 layer_factory.hpp:114] Creating layer relu4
I1013 15:24:37.902948 56701 net.cpp:160] Creating Layer relu4
I1013 15:24:37.902953 56701 net.cpp:596] relu4 <- conv4
I1013 15:24:37.902961 56701 net.cpp:557] relu4 -> conv4 (in-place)
I1013 15:24:37.902981 56701 net.cpp:210] Setting up relu4
I1013 15:24:37.903010 56701 net.cpp:217] Top shape: 1 128 12 12 (18432)
I1013 15:24:37.903074 56701 net.cpp:225] Memory required for data: 32211140
I1013 15:24:37.903082 56701 layer_factory.hpp:114] Creating layer dropout4
I1013 15:24:37.903093 56701 net.cpp:160] Creating Layer dropout4
I1013 15:24:37.903097 56701 net.cpp:596] dropout4 <- conv4
I1013 15:24:37.903105 56701 net.cpp:570] dropout4 -> drop4
I1013 15:24:37.903120 56701 net.cpp:210] Setting up dropout4
I1013 15:24:37.903146 56701 net.cpp:217] Top shape: 1 128 12 12 (18432)
I1013 15:24:37.903197 56701 net.cpp:225] Memory required for data: 32284868
I1013 15:24:37.903204 56701 layer_factory.hpp:114] Creating layer pool4
I1013 15:24:37.903228 56701 net.cpp:160] Creating Layer pool4
I1013 15:24:37.903233 56701 net.cpp:596] pool4 <- drop4
I1013 15:24:37.903245 56701 net.cpp:570] pool4 -> pool4
I1013 15:24:37.903302 56701 net.cpp:210] Setting up pool4
I1013 15:24:37.903357 56701 net.cpp:217] Top shape: 1 128 6 6 (4608)
I1013 15:24:37.903369 56701 net.cpp:225] Memory required for data: 32303300
I1013 15:24:37.903374 56701 layer_factory.hpp:114] Creating layer fc1
I1013 15:24:37.903396 56701 net.cpp:160] Creating Layer fc1
I1013 15:24:37.903403 56701 net.cpp:596] fc1 <- pool4
I1013 15:24:37.903411 56701 net.cpp:570] fc1 -> fc1
I1013 15:24:37.973773 56701 net.cpp:210] Setting up fc1
I1013 15:24:37.973785 56701 net.cpp:217] Top shape: 1 1024 (1024)
I1013 15:24:37.973793 56701 net.cpp:225] Memory required for data: 32307396
I1013 15:24:37.973806 56701 layer_factory.hpp:114] Creating layer dropout5
I1013 15:24:37.973816 56701 net.cpp:160] Creating Layer dropout5
I1013 15:24:37.973820 56701 net.cpp:596] dropout5 <- fc1
I1013 15:24:37.973832 56701 net.cpp:570] dropout5 -> drop5
I1013 15:24:37.973845 56701 net.cpp:210] Setting up dropout5
I1013 15:24:37.973850 56701 net.cpp:217] Top shape: 1 1024 (1024)
I1013 15:24:37.973856 56701 net.cpp:225] Memory required for data: 32311492
I1013 15:24:37.973861 56701 layer_factory.hpp:114] Creating layer fc2
I1013 15:24:37.973873 56701 net.cpp:160] Creating Layer fc2
I1013 15:24:37.973878 56701 net.cpp:596] fc2 <- drop5
I1013 15:24:37.973886 56701 net.cpp:570] fc2 -> fc2
I1013 15:24:37.973960 56701 net.cpp:210] Setting up fc2
I1013 15:24:37.974000 56701 net.cpp:217] Top shape: 1 2 (2)
I1013 15:24:37.974050 56701 net.cpp:225] Memory required for data: 32311500
I1013 15:24:37.974093 56701 layer_factory.hpp:114] Creating layer loss
I1013 15:24:37.974136 56701 net.cpp:160] Creating Layer loss
I1013 15:24:37.974169 56701 net.cpp:596] loss <- fc2
I1013 15:24:37.974201 56701 net.cpp:596] loss <- label
I1013 15:24:37.974274 56701 net.cpp:570] loss -> (automatic)
I1013 15:24:37.974290 56701 layer_factory.hpp:114] Creating layer loss
…
