…
I1013 15:25:09.111047 56971 net.cpp:484] The NetState phase (0) differed from the phase (1) specified by a rule in layer data
I1013 15:25:09.111137 56971 net.cpp:120] Initializing net from parameters: 
name: "HEP_CLASSIFIER"
state {
  phase: TRAIN
  level: 0
  stage: ""
}
layer {
  name: "data"
  type: "DummyData"
  top: "data"
  top: "label"
  include {
    phase: TRAIN
  }
  dummy_data_param {
    data_filler {
      type: "gaussian"
      std: 1
    }
    data_filler {
      type: "constant"
      value: 0
    }
    shape {
      dim: 16
      dim: 3
      dim: 124
      dim: 124
    }
    shape {
      dim: 16
      dim: 1
      dim: 1
      dim: 1
    }
  }
}
layer {
  name: "conv1"
  type: "Convolution"
  bottom: "data"
  top: "conv1"
  convolution_param {
    num_output: 128
    pad: 0
    kernel_size: 3
    stride: 1
    weight_filler {
      type: "msra"
    }
    bias_filler {
      type: "constant"
      value: 0
    }
  }
}
layer {
  name: "relu1"
  type: "ReLU"
  bottom: "conv1"
  top: "conv1"
  relu_param {
    negative_slope: 0.1
  }
}
layer {
  name: "dropout1"
  type: "Dropout"
  bottom: "conv1"
  top: "drop1"
}
layer {
  name: "pool1"
  type: "Pooling"
  bottom: "drop1"
  top: "pool1"
  pooling_param {
    pool: MAX
    kernel_size: 2
    stride: 2
  }
}
layer {
  name: "conv2"
  type: "Convolution"
  bottom: "pool1"
  top: "conv2"
  convolution_param {
    num_output: 128
    pad: 0
    kernel_size: 3
    stride: 1
    weight_filler {
      type: "msra"
    }
    bias_filler {
      type: "constant"
      value: 0
    }
  }
}
layer {
  name: "relu2"
  type: "ReLU"
  bottom: "conv2"
  top: "conv2"
  relu_param {
    negative_slope: 0.1
  }
}
layer {
  name: "dropout2"
  type: "Dropout"
  bottom: "conv2"
  top: "drop2"
}
layer {
  name: "pool2"
  type: "Pooling"
  bottom: "drop2"
  top: "pool2"
  pooling_param {
    pool: MAX
    kernel_size: 2
    stride: 2
  }
}
layer {
  name: "conv3"
  type: "Convolution"
  bottom: "pool2"
  top: "conv3"
  convolution_param {
    num_output: 128
    pad: 0
    kernel_size: 3
    stride: 1
    weight_filler {
      type: "msra"
    }
    bias_filler {
      type: "constant"
      value: 0
    }
  }
}
layer {
  name: "relu3"
  type: "ReLU"
  bottom: "conv3"
  top: "conv3"
  relu_param {
    negative_slope: 0.1
  }
}
layer {
  name: "dropout3"
  type: "Dropout"
  bottom: "conv3"
  top: "drop3"
}
layer {
  name: "pool3"
  type: "Pooling"
  bottom: "drop3"
  top: "pool3"
  pooling_param {
    pool: MAX
    kernel_size: 2
    stride: 2
  }
}
layer {
  name: "conv4"
  type: "Convolution"
  bottom: "pool3"
  top: "conv4"
  convolution_param {
    num_output: 128
    pad: 0
    kernel_size: 3
    stride: 1
    weight_filler {
      type: "msra"
    }
    bias_filler {
      type: "constant"
      value: 0
    }
  }
}
layer {
  name: "relu4"
  type: "ReLU"
  bottom: "conv4"
  top: "conv4"
  relu_param {
    negative_slope: 0.1
  }
}
layer {
  name: "dropout4"
  type: "Dropout"
  bottom: "conv4"
  top: "drop4"
}
layer {
  name: "pool4"
  type: "Pooling"
  bottom: "drop4"
  top: "pool4"
  pooling_param {
    pool: MAX
    kernel_size: 2
    stride: 2
  }
}
layer {
  name: "fc1"
  type: "InnerProduct"
  bottom: "pool4"
  top: "fc1"
  inner_product_param {
    num_output: 1024
    weight_filler {
      type: "msra"
    }
    bias_filler {
      type: "constant"
      value: 0
    }
  }
}
layer {
  name: "dropout5"
  type: "Dropout"
  bottom: "fc1"
  top: "drop5"
}
layer {
  name: "fc2"
  type: "InnerProduct"
  bottom: "drop5"
  top: "fc2"
  inner_product_param {
    num_output: 2
    weight_filler {
      type: "msra"
    }
    bias_filler {
      type: "constant"
      value: 0
    }
  }
}
layer {
  name: "loss"
  type: "SoftmaxWithLoss"
  bottom: "fc2"
  bottom: "label"
}
I1013 15:25:09.111261 56971 layer_factory.hpp:114] Creating layer data
I1013 15:25:09.111271 56971 net.cpp:160] Creating Layer data
I1013 15:25:09.111274 56971 net.cpp:570] data -> data
I1013 15:25:09.111285 56971 net.cpp:570] data -> label
I1013 15:25:09.111506 56971 net.cpp:210] Setting up data
I1013 15:25:09.111515 56971 net.cpp:217] Top shape: 16 3 124 124 (738048)
I1013 15:25:09.111524 56971 net.cpp:217] Top shape: 16 1 1 1 (16)
I1013 15:25:09.111527 56971 net.cpp:225] Memory required for data: 2952256
I1013 15:25:09.111531 56971 layer_factory.hpp:114] Creating layer conv1
I1013 15:25:09.111544 56971 net.cpp:160] Creating Layer conv1
I1013 15:25:09.111548 56971 net.cpp:596] conv1 <- data
I1013 15:25:09.111554 56971 net.cpp:570] conv1 -> conv1
I1013 15:25:09.140023 56971 net.cpp:210] Setting up conv1
I1013 15:25:09.140041 56971 net.cpp:217] Top shape: 16 128 122 122 (30482432)
I1013 15:25:09.140049 56971 net.cpp:225] Memory required for data: 124881984
I1013 15:25:09.140071 56971 layer_factory.hpp:114] Creating layer relu1
I1013 15:25:09.140103 56971 net.cpp:160] Creating Layer relu1
I1013 15:25:09.140116 56971 net.cpp:596] relu1 <- conv1
I1013 15:25:09.140126 56971 net.cpp:557] relu1 -> conv1 (in-place)
I1013 15:25:09.140161 56971 net.cpp:210] Setting up relu1
I1013 15:25:09.140172 56971 net.cpp:217] Top shape: 16 128 122 122 (30482432)
I1013 15:25:09.140189 56971 net.cpp:225] Memory required for data: 246811712
I1013 15:25:09.140195 56971 layer_factory.hpp:114] Creating layer dropout1
I1013 15:25:09.140203 56971 net.cpp:160] Creating Layer dropout1
I1013 15:25:09.140208 56971 net.cpp:596] dropout1 <- conv1
I1013 15:25:09.140215 56971 net.cpp:570] dropout1 -> drop1
I1013 15:25:09.140228 56971 net.cpp:210] Setting up dropout1
I1013 15:25:09.140239 56971 net.cpp:217] Top shape: 16 128 122 122 (30482432)
I1013 15:25:09.140245 56971 net.cpp:225] Memory required for data: 368741440
I1013 15:25:09.140249 56971 layer_factory.hpp:114] Creating layer pool1
I1013 15:25:09.140264 56971 net.cpp:160] Creating Layer pool1
I1013 15:25:09.140269 56971 net.cpp:596] pool1 <- drop1
I1013 15:25:09.140280 56971 net.cpp:570] pool1 -> pool1
I1013 15:25:09.140305 56971 net.cpp:210] Setting up pool1
I1013 15:25:09.140311 56971 net.cpp:217] Top shape: 16 128 61 61 (7620608)
I1013 15:25:09.140316 56971 net.cpp:225] Memory required for data: 399223872
I1013 15:25:09.140321 56971 layer_factory.hpp:114] Creating layer conv2
I1013 15:25:09.140342 56971 net.cpp:160] Creating Layer conv2
I1013 15:25:09.140347 56971 net.cpp:596] conv2 <- pool1
I1013 15:25:09.140354 56971 net.cpp:570] conv2 -> conv2
I1013 15:25:09.263372 56971 net.cpp:210] Setting up conv2
I1013 15:25:09.263411 56971 net.cpp:217] Top shape: 16 128 59 59 (7129088)
I1013 15:25:09.263423 56971 net.cpp:225] Memory required for data: 427740224
I1013 15:25:09.263447 56971 layer_factory.hpp:114] Creating layer relu2
I1013 15:25:09.263470 56971 net.cpp:160] Creating Layer relu2
I1013 15:25:09.263476 56971 net.cpp:596] relu2 <- conv2
I1013 15:25:09.263485 56971 net.cpp:557] relu2 -> conv2 (in-place)
I1013 15:25:09.263514 56971 net.cpp:210] Setting up relu2
I1013 15:25:09.263557 56971 net.cpp:217] Top shape: 16 128 59 59 (7129088)
I1013 15:25:09.263609 56971 net.cpp:225] Memory required for data: 456256576
I1013 15:25:09.263662 56971 layer_factory.hpp:114] Creating layer dropout2
I1013 15:25:09.263679 56971 net.cpp:160] Creating Layer dropout2
I1013 15:25:09.263684 56971 net.cpp:596] dropout2 <- conv2
I1013 15:25:09.263691 56971 net.cpp:570] dropout2 -> drop2
I1013 15:25:09.263705 56971 net.cpp:210] Setting up dropout2
I1013 15:25:09.263710 56971 net.cpp:217] Top shape: 16 128 59 59 (7129088)
I1013 15:25:09.263717 56971 net.cpp:225] Memory required for data: 484772928
I1013 15:25:09.263722 56971 layer_factory.hpp:114] Creating layer pool2
I1013 15:25:09.263746 56971 net.cpp:160] Creating Layer pool2
I1013 15:25:09.263751 56971 net.cpp:596] pool2 <- drop2
I1013 15:25:09.263761 56971 net.cpp:570] pool2 -> pool2
I1013 15:25:09.263788 56971 net.cpp:210] Setting up pool2
I1013 15:25:09.263829 56971 net.cpp:217] Top shape: 16 128 30 30 (1843200)
I1013 15:25:09.263893 56971 net.cpp:225] Memory required for data: 492145728
I1013 15:25:09.263901 56971 layer_factory.hpp:114] Creating layer conv3
I1013 15:25:09.263932 56971 net.cpp:160] Creating Layer conv3
I1013 15:25:09.263958 56971 net.cpp:596] conv3 <- pool2
I1013 15:25:09.264000 56971 net.cpp:570] conv3 -> conv3
I1013 15:25:09.298557 56971 net.cpp:210] Setting up conv3
I1013 15:25:09.298588 56971 net.cpp:217] Top shape: 16 128 28 28 (1605632)
I1013 15:25:09.298600 56971 net.cpp:225] Memory required for data: 498568256
I1013 15:25:09.298622 56971 layer_factory.hpp:114] Creating layer relu3
I1013 15:25:09.298645 56971 net.cpp:160] Creating Layer relu3
I1013 15:25:09.298650 56971 net.cpp:596] relu3 <- conv3
I1013 15:25:09.298660 56971 net.cpp:557] relu3 -> conv3 (in-place)
I1013 15:25:09.298689 56971 net.cpp:210] Setting up relu3
I1013 15:25:09.298698 56971 net.cpp:217] Top shape: 16 128 28 28 (1605632)
I1013 15:25:09.298704 56971 net.cpp:225] Memory required for data: 504990784
I1013 15:25:09.298708 56971 layer_factory.hpp:114] Creating layer dropout3
I1013 15:25:09.298723 56971 net.cpp:160] Creating Layer dropout3
I1013 15:25:09.298739 56971 net.cpp:596] dropout3 <- conv3
I1013 15:25:09.298750 56971 net.cpp:570] dropout3 -> drop3
I1013 15:25:09.298764 56971 net.cpp:210] Setting up dropout3
I1013 15:25:09.298770 56971 net.cpp:217] Top shape: 16 128 28 28 (1605632)
I1013 15:25:09.298776 56971 net.cpp:225] Memory required for data: 511413312
I1013 15:25:09.298781 56971 layer_factory.hpp:114] Creating layer pool3
I1013 15:25:09.298796 56971 net.cpp:160] Creating Layer pool3
I1013 15:25:09.298802 56971 net.cpp:596] pool3 <- drop3
I1013 15:25:09.298811 56971 net.cpp:570] pool3 -> pool3
I1013 15:25:09.298836 56971 net.cpp:210] Setting up pool3
I1013 15:25:09.298844 56971 net.cpp:217] Top shape: 16 128 14 14 (401408)
I1013 15:25:09.298851 56971 net.cpp:225] Memory required for data: 513018944
I1013 15:25:09.298856 56971 layer_factory.hpp:114] Creating layer conv4
I1013 15:25:09.298880 56971 net.cpp:160] Creating Layer conv4
I1013 15:25:09.298888 56971 net.cpp:596] conv4 <- pool3
I1013 15:25:09.298902 56971 net.cpp:570] conv4 -> conv4
I1013 15:25:09.312695 56971 net.cpp:210] Setting up conv4
I1013 15:25:09.312713 56971 net.cpp:217] Top shape: 16 128 12 12 (294912)
I1013 15:25:09.312721 56971 net.cpp:225] Memory required for data: 514198592
I1013 15:25:09.312731 56971 layer_factory.hpp:114] Creating layer relu4
I1013 15:25:09.312746 56971 net.cpp:160] Creating Layer relu4
I1013 15:25:09.312750 56971 net.cpp:596] relu4 <- conv4
I1013 15:25:09.312757 56971 net.cpp:557] relu4 -> conv4 (in-place)
I1013 15:25:09.312778 56971 net.cpp:210] Setting up relu4
I1013 15:25:09.312786 56971 net.cpp:217] Top shape: 16 128 12 12 (294912)
I1013 15:25:09.312793 56971 net.cpp:225] Memory required for data: 515378240
I1013 15:25:09.312798 56971 layer_factory.hpp:114] Creating layer dropout4
I1013 15:25:09.312805 56971 net.cpp:160] Creating Layer dropout4
I1013 15:25:09.312810 56971 net.cpp:596] dropout4 <- conv4
I1013 15:25:09.312818 56971 net.cpp:570] dropout4 -> drop4
I1013 15:25:09.312827 56971 net.cpp:210] Setting up dropout4
I1013 15:25:09.312831 56971 net.cpp:217] Top shape: 16 128 12 12 (294912)
I1013 15:25:09.312839 56971 net.cpp:225] Memory required for data: 516557888
I1013 15:25:09.312842 56971 layer_factory.hpp:114] Creating layer pool4
I1013 15:25:09.312860 56971 net.cpp:160] Creating Layer pool4
I1013 15:25:09.312871 56971 net.cpp:596] pool4 <- drop4
I1013 15:25:09.312880 56971 net.cpp:570] pool4 -> pool4
I1013 15:25:09.312901 56971 net.cpp:210] Setting up pool4
I1013 15:25:09.312907 56971 net.cpp:217] Top shape: 16 128 6 6 (73728)
I1013 15:25:09.312914 56971 net.cpp:225] Memory required for data: 516852800
I1013 15:25:09.312924 56971 layer_factory.hpp:114] Creating layer fc1
I1013 15:25:09.312943 56971 net.cpp:160] Creating Layer fc1
I1013 15:25:09.312952 56971 net.cpp:596] fc1 <- pool4
I1013 15:25:09.312959 56971 net.cpp:570] fc1 -> fc1
I1013 15:25:09.383113 56971 net.cpp:210] Setting up fc1
I1013 15:25:09.383124 56971 net.cpp:217] Top shape: 16 1024 (16384)
I1013 15:25:09.383132 56971 net.cpp:225] Memory required for data: 516918336
I1013 15:25:09.383148 56971 layer_factory.hpp:114] Creating layer dropout5
I1013 15:25:09.383157 56971 net.cpp:160] Creating Layer dropout5
I1013 15:25:09.383162 56971 net.cpp:596] dropout5 <- fc1
I1013 15:25:09.383170 56971 net.cpp:570] dropout5 -> drop5
I1013 15:25:09.383183 56971 net.cpp:210] Setting up dropout5
I1013 15:25:09.383191 56971 net.cpp:217] Top shape: 16 1024 (16384)
I1013 15:25:09.383203 56971 net.cpp:225] Memory required for data: 516983872
I1013 15:25:09.383208 56971 layer_factory.hpp:114] Creating layer fc2
I1013 15:25:09.383219 56971 net.cpp:160] Creating Layer fc2
I1013 15:25:09.383226 56971 net.cpp:596] fc2 <- drop5
I1013 15:25:09.383239 56971 net.cpp:570] fc2 -> fc2
I1013 15:25:09.383314 56971 net.cpp:210] Setting up fc2
I1013 15:25:09.383325 56971 net.cpp:217] Top shape: 16 2 (32)
I1013 15:25:09.383337 56971 net.cpp:225] Memory required for data: 516984000
I1013 15:25:09.383347 56971 layer_factory.hpp:114] Creating layer loss
I1013 15:25:09.383359 56971 net.cpp:160] Creating Layer loss
I1013 15:25:09.383365 56971 net.cpp:596] loss <- fc2
I1013 15:25:09.383371 56971 net.cpp:596] loss <- label
I1013 15:25:09.383383 56971 net.cpp:570] loss -> (automatic)
I1013 15:25:09.383395 56971 layer_factory.hpp:114] Creating layer loss
…
