…
I1013 15:24:41.114606 56800 net.cpp:484] The NetState phase (0) differed from the phase (1) specified by a rule in layer data
I1013 15:24:41.114702 56800 net.cpp:120] Initializing net from parameters: 
name: "HEP_CLASSIFIER"
state {
  phase: TRAIN
  level: 0
  stage: ""
}
layer {
  name: "data"
  type: "DummyData"
  top: "data"
  top: "label"
  include {
    phase: TRAIN
  }
  dummy_data_param {
    data_filler {
      type: "gaussian"
      std: 1
    }
    data_filler {
      type: "constant"
      value: 0
    }
    shape {
      dim: 4
      dim: 3
      dim: 124
      dim: 124
    }
    shape {
      dim: 4
      dim: 1
      dim: 1
      dim: 1
    }
  }
}
layer {
  name: "conv1"
  type: "Convolution"
  bottom: "data"
  top: "conv1"
  convolution_param {
    num_output: 128
    pad: 0
    kernel_size: 3
    stride: 1
    weight_filler {
      type: "msra"
    }
    bias_filler {
      type: "constant"
      value: 0
    }
  }
}
layer {
  name: "relu1"
  type: "ReLU"
  bottom: "conv1"
  top: "conv1"
  relu_param {
    negative_slope: 0.1
  }
}
layer {
  name: "dropout1"
  type: "Dropout"
  bottom: "conv1"
  top: "drop1"
}
layer {
  name: "pool1"
  type: "Pooling"
  bottom: "drop1"
  top: "pool1"
  pooling_param {
    pool: MAX
    kernel_size: 2
    stride: 2
  }
}
layer {
  name: "conv2"
  type: "Convolution"
  bottom: "pool1"
  top: "conv2"
  convolution_param {
    num_output: 128
    pad: 0
    kernel_size: 3
    stride: 1
    weight_filler {
      type: "msra"
    }
    bias_filler {
      type: "constant"
      value: 0
    }
  }
}
layer {
  name: "relu2"
  type: "ReLU"
  bottom: "conv2"
  top: "conv2"
  relu_param {
    negative_slope: 0.1
  }
}
layer {
  name: "dropout2"
  type: "Dropout"
  bottom: "conv2"
  top: "drop2"
}
layer {
  name: "pool2"
  type: "Pooling"
  bottom: "drop2"
  top: "pool2"
  pooling_param {
    pool: MAX
    kernel_size: 2
    stride: 2
  }
}
layer {
  name: "conv3"
  type: "Convolution"
  bottom: "pool2"
  top: "conv3"
  convolution_param {
    num_output: 128
    pad: 0
    kernel_size: 3
    stride: 1
    weight_filler {
      type: "msra"
    }
    bias_filler {
      type: "constant"
      value: 0
    }
  }
}
layer {
  name: "relu3"
  type: "ReLU"
  bottom: "conv3"
  top: "conv3"
  relu_param {
    negative_slope: 0.1
  }
}
layer {
  name: "dropout3"
  type: "Dropout"
  bottom: "conv3"
  top: "drop3"
}
layer {
  name: "pool3"
  type: "Pooling"
  bottom: "drop3"
  top: "pool3"
  pooling_param {
    pool: MAX
    kernel_size: 2
    stride: 2
  }
}
layer {
  name: "conv4"
  type: "Convolution"
  bottom: "pool3"
  top: "conv4"
  convolution_param {
    num_output: 128
    pad: 0
    kernel_size: 3
    stride: 1
    weight_filler {
      type: "msra"
    }
    bias_filler {
      type: "constant"
      value: 0
    }
  }
}
layer {
  name: "relu4"
  type: "ReLU"
  bottom: "conv4"
  top: "conv4"
  relu_param {
    negative_slope: 0.1
  }
}
layer {
  name: "dropout4"
  type: "Dropout"
  bottom: "conv4"
  top: "drop4"
}
layer {
  name: "pool4"
  type: "Pooling"
  bottom: "drop4"
  top: "pool4"
  pooling_param {
    pool: MAX
    kernel_size: 2
    stride: 2
  }
}
layer {
  name: "fc1"
  type: "InnerProduct"
  bottom: "pool4"
  top: "fc1"
  inner_product_param {
    num_output: 1024
    weight_filler {
      type: "msra"
    }
    bias_filler {
      type: "constant"
      value: 0
    }
  }
}
layer {
  name: "dropout5"
  type: "Dropout"
  bottom: "fc1"
  top: "drop5"
}
layer {
  name: "fc2"
  type: "InnerProduct"
  bottom: "drop5"
  top: "fc2"
  inner_product_param {
    num_output: 2
    weight_filler {
      type: "msra"
    }
    bias_filler {
      type: "constant"
      value: 0
    }
  }
}
layer {
  name: "loss"
  type: "SoftmaxWithLoss"
  bottom: "fc2"
  bottom: "label"
}
I1013 15:24:41.114830 56800 layer_factory.hpp:114] Creating layer data
I1013 15:24:41.114840 56800 net.cpp:160] Creating Layer data
I1013 15:24:41.114843 56800 net.cpp:570] data -> data
I1013 15:24:41.114855 56800 net.cpp:570] data -> label
I1013 15:24:41.115034 56800 net.cpp:210] Setting up data
I1013 15:24:41.115042 56800 net.cpp:217] Top shape: 4 3 124 124 (184512)
I1013 15:24:41.115051 56800 net.cpp:217] Top shape: 4 1 1 1 (4)
I1013 15:24:41.115054 56800 net.cpp:225] Memory required for data: 738064
I1013 15:24:41.115058 56800 layer_factory.hpp:114] Creating layer conv1
I1013 15:24:41.115072 56800 net.cpp:160] Creating Layer conv1
I1013 15:24:41.115077 56800 net.cpp:596] conv1 <- data
I1013 15:24:41.115082 56800 net.cpp:570] conv1 -> conv1
I1013 15:24:41.127845 56800 net.cpp:210] Setting up conv1
I1013 15:24:41.127857 56800 net.cpp:217] Top shape: 4 128 122 122 (7620608)
I1013 15:24:41.127869 56800 net.cpp:225] Memory required for data: 31220496
I1013 15:24:41.127892 56800 layer_factory.hpp:114] Creating layer relu1
I1013 15:24:41.127907 56800 net.cpp:160] Creating Layer relu1
I1013 15:24:41.127918 56800 net.cpp:596] relu1 <- conv1
I1013 15:24:41.127929 56800 net.cpp:557] relu1 -> conv1 (in-place)
I1013 15:24:41.127959 56800 net.cpp:210] Setting up relu1
I1013 15:24:41.127965 56800 net.cpp:217] Top shape: 4 128 122 122 (7620608)
I1013 15:24:41.127971 56800 net.cpp:225] Memory required for data: 61702928
I1013 15:24:41.127976 56800 layer_factory.hpp:114] Creating layer dropout1
I1013 15:24:41.127986 56800 net.cpp:160] Creating Layer dropout1
I1013 15:24:41.127990 56800 net.cpp:596] dropout1 <- conv1
I1013 15:24:41.127997 56800 net.cpp:570] dropout1 -> drop1
I1013 15:24:41.128010 56800 net.cpp:210] Setting up dropout1
I1013 15:24:41.128015 56800 net.cpp:217] Top shape: 4 128 122 122 (7620608)
I1013 15:24:41.128021 56800 net.cpp:225] Memory required for data: 92185360
I1013 15:24:41.128026 56800 layer_factory.hpp:114] Creating layer pool1
I1013 15:24:41.128037 56800 net.cpp:160] Creating Layer pool1
I1013 15:24:41.128042 56800 net.cpp:596] pool1 <- drop1
I1013 15:24:41.128051 56800 net.cpp:570] pool1 -> pool1
I1013 15:24:41.128078 56800 net.cpp:210] Setting up pool1
I1013 15:24:41.128084 56800 net.cpp:217] Top shape: 4 128 61 61 (1905152)
I1013 15:24:41.128090 56800 net.cpp:225] Memory required for data: 99805968
I1013 15:24:41.128094 56800 layer_factory.hpp:114] Creating layer conv2
I1013 15:24:41.128118 56800 net.cpp:160] Creating Layer conv2
I1013 15:24:41.128123 56800 net.cpp:596] conv2 <- pool1
I1013 15:24:41.128129 56800 net.cpp:570] conv2 -> conv2
I1013 15:24:41.162842 56800 net.cpp:210] Setting up conv2
I1013 15:24:41.162871 56800 net.cpp:217] Top shape: 4 128 59 59 (1782272)
I1013 15:24:41.162883 56800 net.cpp:225] Memory required for data: 106935056
I1013 15:24:41.162905 56800 layer_factory.hpp:114] Creating layer relu2
I1013 15:24:41.162932 56800 net.cpp:160] Creating Layer relu2
I1013 15:24:41.162956 56800 net.cpp:596] relu2 <- conv2
I1013 15:24:41.162972 56800 net.cpp:557] relu2 -> conv2 (in-place)
I1013 15:24:41.163002 56800 net.cpp:210] Setting up relu2
I1013 15:24:41.163007 56800 net.cpp:217] Top shape: 4 128 59 59 (1782272)
I1013 15:24:41.163012 56800 net.cpp:225] Memory required for data: 114064144
I1013 15:24:41.163017 56800 layer_factory.hpp:114] Creating layer dropout2
I1013 15:24:41.163028 56800 net.cpp:160] Creating Layer dropout2
I1013 15:24:41.163033 56800 net.cpp:596] dropout2 <- conv2
I1013 15:24:41.163039 56800 net.cpp:570] dropout2 -> drop2
I1013 15:24:41.163051 56800 net.cpp:210] Setting up dropout2
I1013 15:24:41.163063 56800 net.cpp:217] Top shape: 4 128 59 59 (1782272)
I1013 15:24:41.163069 56800 net.cpp:225] Memory required for data: 121193232
I1013 15:24:41.163072 56800 layer_factory.hpp:114] Creating layer pool2
I1013 15:24:41.163089 56800 net.cpp:160] Creating Layer pool2
I1013 15:24:41.163094 56800 net.cpp:596] pool2 <- drop2
I1013 15:24:41.163103 56800 net.cpp:570] pool2 -> pool2
I1013 15:24:41.163127 56800 net.cpp:210] Setting up pool2
I1013 15:24:41.163132 56800 net.cpp:217] Top shape: 4 128 30 30 (460800)
I1013 15:24:41.163138 56800 net.cpp:225] Memory required for data: 123036432
I1013 15:24:41.163142 56800 layer_factory.hpp:114] Creating layer conv3
I1013 15:24:41.163167 56800 net.cpp:160] Creating Layer conv3
I1013 15:24:41.163172 56800 net.cpp:596] conv3 <- pool2
I1013 15:24:41.163182 56800 net.cpp:570] conv3 -> conv3
I1013 15:24:41.175575 56800 net.cpp:210] Setting up conv3
I1013 15:24:41.175586 56800 net.cpp:217] Top shape: 4 128 28 28 (401408)
I1013 15:24:41.175593 56800 net.cpp:225] Memory required for data: 124642064
I1013 15:24:41.175606 56800 layer_factory.hpp:114] Creating layer relu3
I1013 15:24:41.175621 56800 net.cpp:160] Creating Layer relu3
I1013 15:24:41.175637 56800 net.cpp:596] relu3 <- conv3
I1013 15:24:41.175644 56800 net.cpp:557] relu3 -> conv3 (in-place)
I1013 15:24:41.175662 56800 net.cpp:210] Setting up relu3
I1013 15:24:41.175670 56800 net.cpp:217] Top shape: 4 128 28 28 (401408)
I1013 15:24:41.175678 56800 net.cpp:225] Memory required for data: 126247696
I1013 15:24:41.175681 56800 layer_factory.hpp:114] Creating layer dropout3
I1013 15:24:41.175691 56800 net.cpp:160] Creating Layer dropout3
I1013 15:24:41.175695 56800 net.cpp:596] dropout3 <- conv3
I1013 15:24:41.175703 56800 net.cpp:570] dropout3 -> drop3
I1013 15:24:41.175711 56800 net.cpp:210] Setting up dropout3
I1013 15:24:41.175715 56800 net.cpp:217] Top shape: 4 128 28 28 (401408)
I1013 15:24:41.175721 56800 net.cpp:225] Memory required for data: 127853328
I1013 15:24:41.175726 56800 layer_factory.hpp:114] Creating layer pool3
I1013 15:24:41.175740 56800 net.cpp:160] Creating Layer pool3
I1013 15:24:41.175750 56800 net.cpp:596] pool3 <- drop3
I1013 15:24:41.175766 56800 net.cpp:570] pool3 -> pool3
I1013 15:24:41.175796 56800 net.cpp:210] Setting up pool3
I1013 15:24:41.175802 56800 net.cpp:217] Top shape: 4 128 14 14 (100352)
I1013 15:24:41.175808 56800 net.cpp:225] Memory required for data: 128254736
I1013 15:24:41.175813 56800 layer_factory.hpp:114] Creating layer conv4
I1013 15:24:41.175834 56800 net.cpp:160] Creating Layer conv4
I1013 15:24:41.175842 56800 net.cpp:596] conv4 <- pool3
I1013 15:24:41.175849 56800 net.cpp:570] conv4 -> conv4
I1013 15:24:41.182935 56800 net.cpp:210] Setting up conv4
I1013 15:24:41.182945 56800 net.cpp:217] Top shape: 4 128 12 12 (73728)
I1013 15:24:41.182953 56800 net.cpp:225] Memory required for data: 128549648
I1013 15:24:41.182965 56800 layer_factory.hpp:114] Creating layer relu4
I1013 15:24:41.182976 56800 net.cpp:160] Creating Layer relu4
I1013 15:24:41.182981 56800 net.cpp:596] relu4 <- conv4
I1013 15:24:41.182991 56800 net.cpp:557] relu4 -> conv4 (in-place)
I1013 15:24:41.183024 56800 net.cpp:210] Setting up relu4
I1013 15:24:41.183032 56800 net.cpp:217] Top shape: 4 128 12 12 (73728)
I1013 15:24:41.183038 56800 net.cpp:225] Memory required for data: 128844560
I1013 15:24:41.183043 56800 layer_factory.hpp:114] Creating layer dropout4
I1013 15:24:41.183056 56800 net.cpp:160] Creating Layer dropout4
I1013 15:24:41.183060 56800 net.cpp:596] dropout4 <- conv4
I1013 15:24:41.183068 56800 net.cpp:570] dropout4 -> drop4
I1013 15:24:41.183078 56800 net.cpp:210] Setting up dropout4
I1013 15:24:41.183080 56800 net.cpp:217] Top shape: 4 128 12 12 (73728)
I1013 15:24:41.183087 56800 net.cpp:225] Memory required for data: 129139472
I1013 15:24:41.183091 56800 layer_factory.hpp:114] Creating layer pool4
I1013 15:24:41.183106 56800 net.cpp:160] Creating Layer pool4
I1013 15:24:41.183115 56800 net.cpp:596] pool4 <- drop4
I1013 15:24:41.183122 56800 net.cpp:570] pool4 -> pool4
I1013 15:24:41.183143 56800 net.cpp:210] Setting up pool4
I1013 15:24:41.183149 56800 net.cpp:217] Top shape: 4 128 6 6 (18432)
I1013 15:24:41.183156 56800 net.cpp:225] Memory required for data: 129213200
I1013 15:24:41.183161 56800 layer_factory.hpp:114] Creating layer fc1
I1013 15:24:41.183182 56800 net.cpp:160] Creating Layer fc1
I1013 15:24:41.183187 56800 net.cpp:596] fc1 <- pool4
I1013 15:24:41.183195 56800 net.cpp:570] fc1 -> fc1
I1013 15:24:41.253468 56800 net.cpp:210] Setting up fc1
I1013 15:24:41.253478 56800 net.cpp:217] Top shape: 4 1024 (4096)
I1013 15:24:41.253485 56800 net.cpp:225] Memory required for data: 129229584
I1013 15:24:41.253499 56800 layer_factory.hpp:114] Creating layer dropout5
I1013 15:24:41.253509 56800 net.cpp:160] Creating Layer dropout5
I1013 15:24:41.253515 56800 net.cpp:596] dropout5 <- fc1
I1013 15:24:41.253521 56800 net.cpp:570] dropout5 -> drop5
I1013 15:24:41.253532 56800 net.cpp:210] Setting up dropout5
I1013 15:24:41.253535 56800 net.cpp:217] Top shape: 4 1024 (4096)
I1013 15:24:41.253541 56800 net.cpp:225] Memory required for data: 129245968
I1013 15:24:41.253546 56800 layer_factory.hpp:114] Creating layer fc2
I1013 15:24:41.253558 56800 net.cpp:160] Creating Layer fc2
I1013 15:24:41.253563 56800 net.cpp:596] fc2 <- drop5
I1013 15:24:41.253574 56800 net.cpp:570] fc2 -> fc2
I1013 15:24:41.253649 56800 net.cpp:210] Setting up fc2
I1013 15:24:41.253702 56800 net.cpp:217] Top shape: 4 2 (8)
I1013 15:24:41.253715 56800 net.cpp:225] Memory required for data: 129246000
I1013 15:24:41.253731 56800 layer_factory.hpp:114] Creating layer loss
I1013 15:24:41.253743 56800 net.cpp:160] Creating Layer loss
I1013 15:24:41.253749 56800 net.cpp:596] loss <- fc2
I1013 15:24:41.253756 56800 net.cpp:596] loss <- label
I1013 15:24:41.253768 56800 net.cpp:570] loss -> (automatic)
I1013 15:24:41.253782 56800 layer_factory.hpp:114] Creating layer loss
…
