…
I1013 15:25:35.070767 57122 net.cpp:484] The NetState phase (0) differed from the phase (1) specified by a rule in layer data
I1013 15:25:35.070863 57122 net.cpp:120] Initializing net from parameters: 
name: "HEP_CLASSIFIER"
state {
  phase: TRAIN
  level: 0
  stage: ""
}
layer {
  name: "data"
  type: "DummyData"
  top: "data"
  top: "label"
  include {
    phase: TRAIN
  }
  dummy_data_param {
    data_filler {
      type: "gaussian"
      std: 1
    }
    data_filler {
      type: "constant"
      value: 0
    }
    shape {
      dim: 128
      dim: 3
      dim: 124
      dim: 124
    }
    shape {
      dim: 128
      dim: 1
      dim: 1
      dim: 1
    }
  }
}
layer {
  name: "conv1"
  type: "Convolution"
  bottom: "data"
  top: "conv1"
  convolution_param {
    num_output: 128
    pad: 0
    kernel_size: 3
    stride: 1
    weight_filler {
      type: "msra"
    }
    bias_filler {
      type: "constant"
      value: 0
    }
  }
}
layer {
  name: "relu1"
  type: "ReLU"
  bottom: "conv1"
  top: "conv1"
  relu_param {
    negative_slope: 0.1
  }
}
layer {
  name: "dropout1"
  type: "Dropout"
  bottom: "conv1"
  top: "drop1"
}
layer {
  name: "pool1"
  type: "Pooling"
  bottom: "drop1"
  top: "pool1"
  pooling_param {
    pool: MAX
    kernel_size: 2
    stride: 2
  }
}
layer {
  name: "conv2"
  type: "Convolution"
  bottom: "pool1"
  top: "conv2"
  convolution_param {
    num_output: 128
    pad: 0
    kernel_size: 3
    stride: 1
    weight_filler {
      type: "msra"
    }
    bias_filler {
      type: "constant"
      value: 0
    }
  }
}
layer {
  name: "relu2"
  type: "ReLU"
  bottom: "conv2"
  top: "conv2"
  relu_param {
    negative_slope: 0.1
  }
}
layer {
  name: "dropout2"
  type: "Dropout"
  bottom: "conv2"
  top: "drop2"
}
layer {
  name: "pool2"
  type: "Pooling"
  bottom: "drop2"
  top: "pool2"
  pooling_param {
    pool: MAX
    kernel_size: 2
    stride: 2
  }
}
layer {
  name: "conv3"
  type: "Convolution"
  bottom: "pool2"
  top: "conv3"
  convolution_param {
    num_output: 128
    pad: 0
    kernel_size: 3
    stride: 1
    weight_filler {
      type: "msra"
    }
    bias_filler {
      type: "constant"
      value: 0
    }
  }
}
layer {
  name: "relu3"
  type: "ReLU"
  bottom: "conv3"
  top: "conv3"
  relu_param {
    negative_slope: 0.1
  }
}
layer {
  name: "dropout3"
  type: "Dropout"
  bottom: "conv3"
  top: "drop3"
}
layer {
  name: "pool3"
  type: "Pooling"
  bottom: "drop3"
  top: "pool3"
  pooling_param {
    pool: MAX
    kernel_size: 2
    stride: 2
  }
}
layer {
  name: "conv4"
  type: "Convolution"
  bottom: "pool3"
  top: "conv4"
  convolution_param {
    num_output: 128
    pad: 0
    kernel_size: 3
    stride: 1
    weight_filler {
      type: "msra"
    }
    bias_filler {
      type: "constant"
      value: 0
    }
  }
}
layer {
  name: "relu4"
  type: "ReLU"
  bottom: "conv4"
  top: "conv4"
  relu_param {
    negative_slope: 0.1
  }
}
layer {
  name: "dropout4"
  type: "Dropout"
  bottom: "conv4"
  top: "drop4"
}
layer {
  name: "pool4"
  type: "Pooling"
  bottom: "drop4"
  top: "pool4"
  pooling_param {
    pool: MAX
    kernel_size: 2
    stride: 2
  }
}
layer {
  name: "fc1"
  type: "InnerProduct"
  bottom: "pool4"
  top: "fc1"
  inner_product_param {
    num_output: 1024
    weight_filler {
      type: "msra"
    }
    bias_filler {
      type: "constant"
      value: 0
    }
  }
}
layer {
  name: "dropout5"
  type: "Dropout"
  bottom: "fc1"
  top: "drop5"
}
layer {
  name: "fc2"
  type: "InnerProduct"
  bottom: "drop5"
  top: "fc2"
  inner_product_param {
    num_output: 2
    weight_filler {
      type: "msra"
    }
    bias_filler {
      type: "constant"
      value: 0
    }
  }
}
layer {
  name: "loss"
  type: "SoftmaxWithLoss"
  bottom: "fc2"
  bottom: "label"
}
I1013 15:25:35.070993 57122 layer_factory.hpp:114] Creating layer data
I1013 15:25:35.071003 57122 net.cpp:160] Creating Layer data
I1013 15:25:35.071007 57122 net.cpp:570] data -> data
I1013 15:25:35.071018 57122 net.cpp:570] data -> label
I1013 15:25:35.071210 57122 net.cpp:210] Setting up data
I1013 15:25:35.071218 57122 net.cpp:217] Top shape: 128 3 124 124 (5904384)
I1013 15:25:35.071228 57122 net.cpp:217] Top shape: 128 1 1 1 (128)
I1013 15:25:35.071231 57122 net.cpp:225] Memory required for data: 23618048
I1013 15:25:35.071234 57122 layer_factory.hpp:114] Creating layer conv1
I1013 15:25:35.071249 57122 net.cpp:160] Creating Layer conv1
I1013 15:25:35.071252 57122 net.cpp:596] conv1 <- data
I1013 15:25:35.071259 57122 net.cpp:570] conv1 -> conv1
I1013 15:25:35.092700 57122 net.cpp:210] Setting up conv1
I1013 15:25:35.092717 57122 net.cpp:217] Top shape: 128 128 122 122 (243859456)
I1013 15:25:35.092726 57122 net.cpp:225] Memory required for data: 999055872
I1013 15:25:35.092747 57122 layer_factory.hpp:114] Creating layer relu1
I1013 15:25:35.092780 57122 net.cpp:160] Creating Layer relu1
I1013 15:25:35.092794 57122 net.cpp:596] relu1 <- conv1
I1013 15:25:35.092805 57122 net.cpp:557] relu1 -> conv1 (in-place)
I1013 15:25:35.092839 57122 net.cpp:210] Setting up relu1
I1013 15:25:35.092851 57122 net.cpp:217] Top shape: 128 128 122 122 (243859456)
I1013 15:25:35.092859 57122 net.cpp:225] Memory required for data: 1974493696
I1013 15:25:35.092864 57122 layer_factory.hpp:114] Creating layer dropout1
I1013 15:25:35.092871 57122 net.cpp:160] Creating Layer dropout1
I1013 15:25:35.092875 57122 net.cpp:596] dropout1 <- conv1
I1013 15:25:35.092882 57122 net.cpp:570] dropout1 -> drop1
I1013 15:25:35.092895 57122 net.cpp:210] Setting up dropout1
I1013 15:25:35.092905 57122 net.cpp:217] Top shape: 128 128 122 122 (243859456)
I1013 15:25:35.092916 57122 net.cpp:225] Memory required for data: 2949931520
I1013 15:25:35.092919 57122 layer_factory.hpp:114] Creating layer pool1
I1013 15:25:35.092932 57122 net.cpp:160] Creating Layer pool1
I1013 15:25:35.092942 57122 net.cpp:596] pool1 <- drop1
I1013 15:25:35.092949 57122 net.cpp:570] pool1 -> pool1
I1013 15:25:35.092975 57122 net.cpp:210] Setting up pool1
I1013 15:25:35.092980 57122 net.cpp:217] Top shape: 128 128 61 61 (60964864)
I1013 15:25:35.092988 57122 net.cpp:225] Memory required for data: 3193790976
I1013 15:25:35.092991 57122 layer_factory.hpp:114] Creating layer conv2
I1013 15:25:35.093014 57122 net.cpp:160] Creating Layer conv2
I1013 15:25:35.093019 57122 net.cpp:596] conv2 <- pool1
I1013 15:25:35.093025 57122 net.cpp:570] conv2 -> conv2
I1013 15:25:35.216112 57122 net.cpp:210] Setting up conv2
I1013 15:25:35.216147 57122 net.cpp:217] Top shape: 128 128 59 59 (57032704)
I1013 15:25:35.216161 57122 net.cpp:225] Memory required for data: 3421921792
I1013 15:25:35.216184 57122 layer_factory.hpp:114] Creating layer relu2
I1013 15:25:35.216207 57122 net.cpp:160] Creating Layer relu2
I1013 15:25:35.216213 57122 net.cpp:596] relu2 <- conv2
I1013 15:25:35.216224 57122 net.cpp:557] relu2 -> conv2 (in-place)
I1013 15:25:35.216255 57122 net.cpp:210] Setting up relu2
I1013 15:25:35.216296 57122 net.cpp:217] Top shape: 128 128 59 59 (57032704)
I1013 15:25:35.216348 57122 net.cpp:225] Memory required for data: 3650052608
I1013 15:25:35.216408 57122 layer_factory.hpp:114] Creating layer dropout2
I1013 15:25:35.216420 57122 net.cpp:160] Creating Layer dropout2
I1013 15:25:35.216425 57122 net.cpp:596] dropout2 <- conv2
I1013 15:25:35.216433 57122 net.cpp:570] dropout2 -> drop2
I1013 15:25:35.216447 57122 net.cpp:210] Setting up dropout2
I1013 15:25:35.216451 57122 net.cpp:217] Top shape: 128 128 59 59 (57032704)
I1013 15:25:35.216459 57122 net.cpp:225] Memory required for data: 3878183424
I1013 15:25:35.216464 57122 layer_factory.hpp:114] Creating layer pool2
I1013 15:25:35.216490 57122 net.cpp:160] Creating Layer pool2
I1013 15:25:35.216521 57122 net.cpp:596] pool2 <- drop2
I1013 15:25:35.216529 57122 net.cpp:570] pool2 -> pool2
I1013 15:25:35.216557 57122 net.cpp:210] Setting up pool2
I1013 15:25:35.216562 57122 net.cpp:217] Top shape: 128 128 30 30 (14745600)
I1013 15:25:35.216572 57122 net.cpp:225] Memory required for data: 3937165824
I1013 15:25:35.216576 57122 layer_factory.hpp:114] Creating layer conv3
I1013 15:25:35.216617 57122 net.cpp:160] Creating Layer conv3
I1013 15:25:35.216624 57122 net.cpp:596] conv3 <- pool2
I1013 15:25:35.216631 57122 net.cpp:570] conv3 -> conv3
I1013 15:25:35.251179 57122 net.cpp:210] Setting up conv3
I1013 15:25:35.251207 57122 net.cpp:217] Top shape: 128 128 28 28 (12845056)
I1013 15:25:35.251219 57122 net.cpp:225] Memory required for data: 3988546048
I1013 15:25:35.251242 57122 layer_factory.hpp:114] Creating layer relu3
I1013 15:25:35.251265 57122 net.cpp:160] Creating Layer relu3
I1013 15:25:35.251271 57122 net.cpp:596] relu3 <- conv3
I1013 15:25:35.251279 57122 net.cpp:557] relu3 -> conv3 (in-place)
I1013 15:25:35.251308 57122 net.cpp:210] Setting up relu3
I1013 15:25:35.251363 57122 net.cpp:217] Top shape: 128 128 28 28 (12845056)
I1013 15:25:35.251400 57122 net.cpp:225] Memory required for data: 4039926272
I1013 15:25:35.251408 57122 layer_factory.hpp:114] Creating layer dropout3
I1013 15:25:35.251426 57122 net.cpp:160] Creating Layer dropout3
I1013 15:25:35.251441 57122 net.cpp:596] dropout3 <- conv3
I1013 15:25:35.251449 57122 net.cpp:570] dropout3 -> drop3
I1013 15:25:35.251462 57122 net.cpp:210] Setting up dropout3
I1013 15:25:35.251467 57122 net.cpp:217] Top shape: 128 128 28 28 (12845056)
I1013 15:25:35.251474 57122 net.cpp:225] Memory required for data: 4091306496
I1013 15:25:35.251482 57122 layer_factory.hpp:114] Creating layer pool3
I1013 15:25:35.251497 57122 net.cpp:160] Creating Layer pool3
I1013 15:25:35.251502 57122 net.cpp:596] pool3 <- drop3
I1013 15:25:35.251512 57122 net.cpp:570] pool3 -> pool3
I1013 15:25:35.251538 57122 net.cpp:210] Setting up pool3
I1013 15:25:35.251585 57122 net.cpp:217] Top shape: 128 128 14 14 (3211264)
I1013 15:25:35.251601 57122 net.cpp:225] Memory required for data: 4104151552
I1013 15:25:35.251606 57122 layer_factory.hpp:114] Creating layer conv4
I1013 15:25:35.251633 57122 net.cpp:160] Creating Layer conv4
I1013 15:25:35.251639 57122 net.cpp:596] conv4 <- pool3
I1013 15:25:35.251652 57122 net.cpp:570] conv4 -> conv4
I1013 15:25:35.265432 57122 net.cpp:210] Setting up conv4
I1013 15:25:35.265444 57122 net.cpp:217] Top shape: 128 128 12 12 (2359296)
I1013 15:25:35.265451 57122 net.cpp:225] Memory required for data: 4113588736
I1013 15:25:35.265465 57122 layer_factory.hpp:114] Creating layer relu4
I1013 15:25:35.265476 57122 net.cpp:160] Creating Layer relu4
I1013 15:25:35.265481 57122 net.cpp:596] relu4 <- conv4
I1013 15:25:35.265491 57122 net.cpp:557] relu4 -> conv4 (in-place)
I1013 15:25:35.265511 57122 net.cpp:210] Setting up relu4
I1013 15:25:35.265524 57122 net.cpp:217] Top shape: 128 128 12 12 (2359296)
I1013 15:25:35.265530 57122 net.cpp:225] Memory required for data: 4123025920
I1013 15:25:35.265535 57122 layer_factory.hpp:114] Creating layer dropout4
I1013 15:25:35.265547 57122 net.cpp:160] Creating Layer dropout4
I1013 15:25:35.265552 57122 net.cpp:596] dropout4 <- conv4
I1013 15:25:35.265561 57122 net.cpp:570] dropout4 -> drop4
I1013 15:25:35.265573 57122 net.cpp:210] Setting up dropout4
I1013 15:25:35.265576 57122 net.cpp:217] Top shape: 128 128 12 12 (2359296)
I1013 15:25:35.265583 57122 net.cpp:225] Memory required for data: 4132463104
I1013 15:25:35.265588 57122 layer_factory.hpp:114] Creating layer pool4
I1013 15:25:35.265602 57122 net.cpp:160] Creating Layer pool4
I1013 15:25:35.265606 57122 net.cpp:596] pool4 <- drop4
I1013 15:25:35.265614 57122 net.cpp:570] pool4 -> pool4
I1013 15:25:35.265635 57122 net.cpp:210] Setting up pool4
I1013 15:25:35.265652 57122 net.cpp:217] Top shape: 128 128 6 6 (589824)
I1013 15:25:35.265661 57122 net.cpp:225] Memory required for data: 4134822400
I1013 15:25:35.265668 57122 layer_factory.hpp:114] Creating layer fc1
I1013 15:25:35.265687 57122 net.cpp:160] Creating Layer fc1
I1013 15:25:35.265696 57122 net.cpp:596] fc1 <- pool4
I1013 15:25:35.265705 57122 net.cpp:570] fc1 -> fc1
I1013 15:25:35.335150 57122 net.cpp:210] Setting up fc1
I1013 15:25:35.335161 57122 net.cpp:217] Top shape: 128 1024 (131072)
I1013 15:25:35.335168 57122 net.cpp:225] Memory required for data: 4135346688
I1013 15:25:35.335182 57122 layer_factory.hpp:114] Creating layer dropout5
I1013 15:25:35.335192 57122 net.cpp:160] Creating Layer dropout5
I1013 15:25:35.335196 57122 net.cpp:596] dropout5 <- fc1
I1013 15:25:35.335207 57122 net.cpp:570] dropout5 -> drop5
I1013 15:25:35.335221 57122 net.cpp:210] Setting up dropout5
I1013 15:25:35.335230 57122 net.cpp:217] Top shape: 128 1024 (131072)
I1013 15:25:35.335237 57122 net.cpp:225] Memory required for data: 4135870976
I1013 15:25:35.335242 57122 layer_factory.hpp:114] Creating layer fc2
I1013 15:25:35.335254 57122 net.cpp:160] Creating Layer fc2
I1013 15:25:35.335259 57122 net.cpp:596] fc2 <- drop5
I1013 15:25:35.335268 57122 net.cpp:570] fc2 -> fc2
I1013 15:25:35.335341 57122 net.cpp:210] Setting up fc2
I1013 15:25:35.335352 57122 net.cpp:217] Top shape: 128 2 (256)
I1013 15:25:35.335361 57122 net.cpp:225] Memory required for data: 4135872000
I1013 15:25:35.335371 57122 layer_factory.hpp:114] Creating layer loss
I1013 15:25:35.335384 57122 net.cpp:160] Creating Layer loss
I1013 15:25:35.335392 57122 net.cpp:596] loss <- fc2
I1013 15:25:35.335397 57122 net.cpp:596] loss <- label
I1013 15:25:35.335407 57122 net.cpp:570] loss -> (automatic)
I1013 15:25:35.335418 57122 layer_factory.hpp:114] Creating layer loss
…
