…
I1013 15:23:47.292714 258881 net.cpp:484] The NetState phase (0) differed from the phase (1) specified by a rule in layer data
I1013 15:23:47.293884 258881 net.cpp:120] Initializing net from parameters: 
name: "HEP_CLASSIFIER"
state {
  phase: TRAIN
  level: 0
  stage: ""
}
layer {
  name: "data"
  type: "DummyData"
  top: "data"
  top: "label"
  include {
    phase: TRAIN
  }
  dummy_data_param {
    data_filler {
      type: "gaussian"
      std: 1
    }
    data_filler {
      type: "constant"
      value: 0
    }
    shape {
      dim: 2
      dim: 3
      dim: 124
      dim: 124
    }
    shape {
      dim: 2
      dim: 1
      dim: 1
      dim: 1
    }
  }
}
layer {
  name: "conv1"
  type: "Convolution"
  bottom: "data"
  top: "conv1"
  convolution_param {
    num_output: 128
    pad: 0
    kernel_size: 3
    stride: 1
    weight_filler {
      type: "msra"
    }
    bias_filler {
      type: "constant"
      value: 0
    }
  }
}
layer {
  name: "relu1"
  type: "ReLU"
  bottom: "conv1"
  top: "conv1"
  relu_param {
    negative_slope: 0.1
  }
}
layer {
  name: "dropout1"
  type: "Dropout"
  bottom: "conv1"
  top: "drop1"
}
layer {
  name: "pool1"
  type: "Pooling"
  bottom: "drop1"
  top: "pool1"
  pooling_param {
    pool: MAX
    kernel_size: 2
    stride: 2
  }
}
layer {
  name: "conv2"
  type: "Convolution"
  bottom: "pool1"
  top: "conv2"
  convolution_param {
    num_output: 128
    pad: 0
    kernel_size: 3
    stride: 1
    weight_filler {
      type: "msra"
    }
    bias_filler {
      type: "constant"
      value: 0
    }
  }
}
layer {
  name: "relu2"
  type: "ReLU"
  bottom: "conv2"
  top: "conv2"
  relu_param {
    negative_slope: 0.1
  }
}
layer {
  name: "dropout2"
  type: "Dropout"
  bottom: "conv2"
  top: "drop2"
}
layer {
  name: "pool2"
  type: "Pooling"
  bottom: "drop2"
  top: "pool2"
  pooling_param {
    pool: MAX
    kernel_size: 2
    stride: 2
  }
}
layer {
  name: "conv3"
  type: "Convolution"
  bottom: "pool2"
  top: "conv3"
  convolution_param {
    num_output: 128
    pad: 0
    kernel_size: 3
    stride: 1
    weight_filler {
      type: "msra"
    }
    bias_filler {
      type: "constant"
      value: 0
    }
  }
}
layer {
  name: "relu3"
  type: "ReLU"
  bottom: "conv3"
  top: "conv3"
  relu_param {
    negative_slope: 0.1
  }
}
layer {
  name: "dropout3"
  type: "Dropout"
  bottom: "conv3"
  top: "drop3"
}
layer {
  name: "pool3"
  type: "Pooling"
  bottom: "drop3"
  top: "pool3"
  pooling_param {
    pool: MAX
    kernel_size: 2
    stride: 2
  }
}
layer {
  name: "conv4"
  type: "Convolution"
  bottom: "pool3"
  top: "conv4"
  convolution_param {
    num_output: 128
    pad: 0
    kernel_size: 3
    stride: 1
    weight_filler {
      type: "msra"
    }
    bias_filler {
      type: "constant"
      value: 0
    }
  }
}
layer {
  name: "relu4"
  type: "ReLU"
  bottom: "conv4"
  top: "conv4"
  relu_param {
    negative_slope: 0.1
  }
}
layer {
  name: "dropout4"
  type: "Dropout"
  bottom: "conv4"
  top: "drop4"
}
layer {
  name: "pool4"
  type: "Pooling"
  bottom: "drop4"
  top: "pool4"
  pooling_param {
    pool: MAX
    kernel_size: 2
    stride: 2
  }
}
layer {
  name: "fc1"
  type: "InnerProduct"
  bottom: "pool4"
  top: "fc1"
  inner_product_param {
    num_output: 1024
    weight_filler {
      type: "msra"
    }
    bias_filler {
      type: "constant"
      value: 0
    }
  }
}
layer {
  name: "dropout5"
  type: "Dropout"
  bottom: "fc1"
  top: "drop5"
}
layer {
  name: "fc2"
  type: "InnerProduct"
  bottom: "drop5"
  top: "fc2"
  inner_product_param {
    num_output: 2
    weight_filler {
      type: "msra"
    }
    bias_filler {
      type: "constant"
      value: 0
    }
  }
}
layer {
  name: "loss"
  type: "SoftmaxWithLoss"
  bottom: "fc2"
  bottom: "label"
}
I1013 15:23:47.295541 258881 layer_factory.hpp:114] Creating layer data
I1013 15:23:47.295631 258881 net.cpp:160] Creating Layer data
I1013 15:23:47.295677 258881 net.cpp:570] data -> data
I1013 15:23:47.295755 258881 net.cpp:570] data -> label
I1013 15:23:47.318778 258881 net.cpp:210] Setting up data
I1013 15:23:47.318887 258881 net.cpp:217] Top shape: 2 3 124 124 (92256)
I1013 15:23:47.318959 258881 net.cpp:217] Top shape: 2 1 1 1 (2)
I1013 15:23:47.319000 258881 net.cpp:225] Memory required for data: 369032
I1013 15:23:47.319036 258881 layer_factory.hpp:114] Creating layer conv1
I1013 15:23:47.319159 258881 net.cpp:160] Creating Layer conv1
I1013 15:23:47.319208 258881 net.cpp:596] conv1 <- data
I1013 15:23:47.319294 258881 net.cpp:570] conv1 -> conv1
I1013 15:23:47.435353 258881 net.cpp:210] Setting up conv1
I1013 15:23:47.435434 258881 net.cpp:217] Top shape: 2 128 122 122 (3810304)
I1013 15:23:47.435477 258881 net.cpp:225] Memory required for data: 15610248
I1013 15:23:47.435564 258881 layer_factory.hpp:114] Creating layer relu1
I1013 15:23:47.435636 258881 net.cpp:160] Creating Layer relu1
I1013 15:23:47.435667 258881 net.cpp:596] relu1 <- conv1
I1013 15:23:47.435705 258881 net.cpp:557] relu1 -> conv1 (in-place)
I1013 15:23:47.440438 258881 net.cpp:210] Setting up relu1
I1013 15:23:47.440521 258881 net.cpp:217] Top shape: 2 128 122 122 (3810304)
I1013 15:23:47.440562 258881 net.cpp:225] Memory required for data: 30851464
I1013 15:23:47.440593 258881 layer_factory.hpp:114] Creating layer dropout1
I1013 15:23:47.440639 258881 net.cpp:160] Creating Layer dropout1
I1013 15:23:47.440665 258881 net.cpp:596] dropout1 <- conv1
I1013 15:23:47.440699 258881 net.cpp:570] dropout1 -> drop1
I1013 15:23:47.440758 258881 net.cpp:210] Setting up dropout1
I1013 15:23:47.440784 258881 net.cpp:217] Top shape: 2 128 122 122 (3810304)
I1013 15:23:47.440816 258881 net.cpp:225] Memory required for data: 46092680
I1013 15:23:47.440839 258881 layer_factory.hpp:114] Creating layer pool1
I1013 15:23:47.440929 258881 net.cpp:160] Creating Layer pool1
I1013 15:23:47.440975 258881 net.cpp:596] pool1 <- drop1
I1013 15:23:47.441117 258881 net.cpp:570] pool1 -> pool1
I1013 15:23:47.445776 258881 net.cpp:210] Setting up pool1
I1013 15:23:47.445863 258881 net.cpp:217] Top shape: 2 128 61 61 (952576)
I1013 15:23:47.445904 258881 net.cpp:225] Memory required for data: 49902984
I1013 15:23:47.445931 258881 layer_factory.hpp:114] Creating layer conv2
I1013 15:23:47.446005 258881 net.cpp:160] Creating Layer conv2
I1013 15:23:47.446035 258881 net.cpp:596] conv2 <- pool1
I1013 15:23:47.446075 258881 net.cpp:570] conv2 -> conv2
I1013 15:23:47.556005 258881 net.cpp:210] Setting up conv2
I1013 15:23:47.556102 258881 net.cpp:217] Top shape: 2 128 59 59 (891136)
I1013 15:23:47.556169 258881 net.cpp:225] Memory required for data: 53467528
I1013 15:23:47.556259 258881 layer_factory.hpp:114] Creating layer relu2
I1013 15:23:47.556352 258881 net.cpp:160] Creating Layer relu2
I1013 15:23:47.556404 258881 net.cpp:596] relu2 <- conv2
I1013 15:23:47.556468 258881 net.cpp:557] relu2 -> conv2 (in-place)
I1013 15:23:47.561411 258881 net.cpp:210] Setting up relu2
I1013 15:23:47.561550 258881 net.cpp:217] Top shape: 2 128 59 59 (891136)
I1013 15:23:47.561607 258881 net.cpp:225] Memory required for data: 57032072
I1013 15:23:47.561643 258881 layer_factory.hpp:114] Creating layer dropout2
I1013 15:23:47.561702 258881 net.cpp:160] Creating Layer dropout2
I1013 15:23:47.561736 258881 net.cpp:596] dropout2 <- conv2
I1013 15:23:47.561782 258881 net.cpp:570] dropout2 -> drop2
I1013 15:23:47.561853 258881 net.cpp:210] Setting up dropout2
I1013 15:23:47.561888 258881 net.cpp:217] Top shape: 2 128 59 59 (891136)
I1013 15:23:47.561928 258881 net.cpp:225] Memory required for data: 60596616
I1013 15:23:47.562034 258881 layer_factory.hpp:114] Creating layer pool2
I1013 15:23:47.562322 258881 net.cpp:160] Creating Layer pool2
I1013 15:23:47.562542 258881 net.cpp:596] pool2 <- drop2
I1013 15:23:47.562651 258881 net.cpp:570] pool2 -> pool2
I1013 15:23:47.567252 258881 net.cpp:210] Setting up pool2
I1013 15:23:47.567335 258881 net.cpp:217] Top shape: 2 128 30 30 (230400)
I1013 15:23:47.567378 258881 net.cpp:225] Memory required for data: 61518216
I1013 15:23:47.567406 258881 layer_factory.hpp:114] Creating layer conv3
I1013 15:23:47.567486 258881 net.cpp:160] Creating Layer conv3
I1013 15:23:47.567519 258881 net.cpp:596] conv3 <- pool2
I1013 15:23:47.567564 258881 net.cpp:570] conv3 -> conv3
I1013 15:23:47.658275 258881 net.cpp:210] Setting up conv3
I1013 15:23:47.658368 258881 net.cpp:217] Top shape: 2 128 28 28 (200704)
I1013 15:23:47.658423 258881 net.cpp:225] Memory required for data: 62321032
I1013 15:23:47.658500 258881 layer_factory.hpp:114] Creating layer relu3
I1013 15:23:47.658586 258881 net.cpp:160] Creating Layer relu3
I1013 15:23:47.658632 258881 net.cpp:596] relu3 <- conv3
I1013 15:23:47.658689 258881 net.cpp:557] relu3 -> conv3 (in-place)
I1013 15:23:47.663244 258881 net.cpp:210] Setting up relu3
I1013 15:23:47.663331 258881 net.cpp:217] Top shape: 2 128 28 28 (200704)
I1013 15:23:47.663377 258881 net.cpp:225] Memory required for data: 63123848
I1013 15:23:47.663409 258881 layer_factory.hpp:114] Creating layer dropout3
I1013 15:23:47.663457 258881 net.cpp:160] Creating Layer dropout3
I1013 15:23:47.663487 258881 net.cpp:596] dropout3 <- conv3
I1013 15:23:47.663527 258881 net.cpp:570] dropout3 -> drop3
I1013 15:23:47.663597 258881 net.cpp:210] Setting up dropout3
I1013 15:23:47.663631 258881 net.cpp:217] Top shape: 2 128 28 28 (200704)
I1013 15:23:47.663668 258881 net.cpp:225] Memory required for data: 63926664
I1013 15:23:47.663694 258881 layer_factory.hpp:114] Creating layer pool3
I1013 15:23:47.663753 258881 net.cpp:160] Creating Layer pool3
I1013 15:23:47.663787 258881 net.cpp:596] pool3 <- drop3
I1013 15:23:47.663832 258881 net.cpp:570] pool3 -> pool3
I1013 15:23:47.668500 258881 net.cpp:210] Setting up pool3
I1013 15:23:47.668588 258881 net.cpp:217] Top shape: 2 128 14 14 (50176)
I1013 15:23:47.668634 258881 net.cpp:225] Memory required for data: 64127368
I1013 15:23:47.668664 258881 layer_factory.hpp:114] Creating layer conv4
I1013 15:23:47.668741 258881 net.cpp:160] Creating Layer conv4
I1013 15:23:47.668774 258881 net.cpp:596] conv4 <- pool3
I1013 15:23:47.668819 258881 net.cpp:570] conv4 -> conv4
I1013 15:23:47.750556 258881 net.cpp:210] Setting up conv4
I1013 15:23:47.750643 258881 net.cpp:217] Top shape: 2 128 12 12 (36864)
I1013 15:23:47.750694 258881 net.cpp:225] Memory required for data: 64274824
I1013 15:23:47.750757 258881 layer_factory.hpp:114] Creating layer relu4
I1013 15:23:47.750828 258881 net.cpp:160] Creating Layer relu4
I1013 15:23:47.750867 258881 net.cpp:596] relu4 <- conv4
I1013 15:23:47.750916 258881 net.cpp:557] relu4 -> conv4 (in-place)
I1013 15:23:47.755981 258881 net.cpp:210] Setting up relu4
I1013 15:23:47.756067 258881 net.cpp:217] Top shape: 2 128 12 12 (36864)
I1013 15:23:47.756110 258881 net.cpp:225] Memory required for data: 64422280
I1013 15:23:47.756140 258881 layer_factory.hpp:114] Creating layer dropout4
I1013 15:23:47.756187 258881 net.cpp:160] Creating Layer dropout4
I1013 15:23:47.756213 258881 net.cpp:596] dropout4 <- conv4
I1013 15:23:47.756253 258881 net.cpp:570] dropout4 -> drop4
I1013 15:23:47.756317 258881 net.cpp:210] Setting up dropout4
I1013 15:23:47.756348 258881 net.cpp:217] Top shape: 2 128 12 12 (36864)
I1013 15:23:47.756382 258881 net.cpp:225] Memory required for data: 64569736
I1013 15:23:47.756410 258881 layer_factory.hpp:114] Creating layer pool4
I1013 15:23:47.756469 258881 net.cpp:160] Creating Layer pool4
I1013 15:23:47.756500 258881 net.cpp:596] pool4 <- drop4
I1013 15:23:47.756566 258881 net.cpp:570] pool4 -> pool4
I1013 15:23:47.761096 258881 net.cpp:210] Setting up pool4
I1013 15:23:47.761185 258881 net.cpp:217] Top shape: 2 128 6 6 (9216)
I1013 15:23:47.761257 258881 net.cpp:225] Memory required for data: 64606600
I1013 15:23:47.761288 258881 layer_factory.hpp:114] Creating layer fc1
I1013 15:23:47.761363 258881 net.cpp:160] Creating Layer fc1
I1013 15:23:47.761396 258881 net.cpp:596] fc1 <- pool4
I1013 15:23:47.761441 258881 net.cpp:570] fc1 -> fc1
I1013 15:23:47.997758 258881 net.cpp:210] Setting up fc1
I1013 15:23:47.997843 258881 net.cpp:217] Top shape: 2 1024 (2048)
I1013 15:23:47.997884 258881 net.cpp:225] Memory required for data: 64614792
I1013 15:23:47.997949 258881 layer_factory.hpp:114] Creating layer dropout5
I1013 15:23:47.997995 258881 net.cpp:160] Creating Layer dropout5
I1013 15:23:47.998021 258881 net.cpp:596] dropout5 <- fc1
I1013 15:23:47.998057 258881 net.cpp:570] dropout5 -> drop5
I1013 15:23:47.998116 258881 net.cpp:210] Setting up dropout5
I1013 15:23:47.998142 258881 net.cpp:217] Top shape: 2 1024 (2048)
I1013 15:23:47.998178 258881 net.cpp:225] Memory required for data: 64622984
I1013 15:23:47.998206 258881 layer_factory.hpp:114] Creating layer fc2
I1013 15:23:47.998297 258881 net.cpp:160] Creating Layer fc2
I1013 15:23:47.998427 258881 net.cpp:596] fc2 <- drop5
I1013 15:23:47.998497 258881 net.cpp:570] fc2 -> fc2
I1013 15:23:48.002466 258881 net.cpp:210] Setting up fc2
I1013 15:23:48.002578 258881 net.cpp:217] Top shape: 2 2 (4)
I1013 15:23:48.002619 258881 net.cpp:225] Memory required for data: 64623000
I1013 15:23:48.002674 258881 layer_factory.hpp:114] Creating layer loss
I1013 15:23:48.002738 258881 net.cpp:160] Creating Layer loss
I1013 15:23:48.002770 258881 net.cpp:596] loss <- fc2
I1013 15:23:48.002799 258881 net.cpp:596] loss <- label
I1013 15:23:48.002848 258881 net.cpp:570] loss -> (automatic)
I1013 15:23:48.002913 258881 layer_factory.hpp:114] Creating layer loss
…
