…
I1013 15:24:39.998389 259402 net.cpp:484] The NetState phase (0) differed from the phase (1) specified by a rule in layer data
I1013 15:24:39.998793 259402 net.cpp:120] Initializing net from parameters: 
name: "HEP_CLASSIFIER"
state {
  phase: TRAIN
  level: 0
  stage: ""
}
layer {
  name: "data"
  type: "DummyData"
  top: "data"
  top: "label"
  include {
    phase: TRAIN
  }
  dummy_data_param {
    data_filler {
      type: "gaussian"
      std: 1
    }
    data_filler {
      type: "constant"
      value: 0
    }
    shape {
      dim: 2
      dim: 3
      dim: 124
      dim: 124
    }
    shape {
      dim: 2
      dim: 1
      dim: 1
      dim: 1
    }
  }
}
layer {
  name: "conv1"
  type: "Convolution"
  bottom: "data"
  top: "conv1"
  convolution_param {
    num_output: 128
    pad: 0
    kernel_size: 3
    stride: 1
    weight_filler {
      type: "msra"
    }
    bias_filler {
      type: "constant"
      value: 0
    }
  }
}
layer {
  name: "relu1"
  type: "ReLU"
  bottom: "conv1"
  top: "conv1"
  relu_param {
    negative_slope: 0.1
  }
}
layer {
  name: "dropout1"
  type: "Dropout"
  bottom: "conv1"
  top: "drop1"
}
layer {
  name: "pool1"
  type: "Pooling"
  bottom: "drop1"
  top: "pool1"
  pooling_param {
    pool: MAX
    kernel_size: 2
    stride: 2
  }
}
layer {
  name: "conv2"
  type: "Convolution"
  bottom: "pool1"
  top: "conv2"
  convolution_param {
    num_output: 128
    pad: 0
    kernel_size: 3
    stride: 1
    weight_filler {
      type: "msra"
    }
    bias_filler {
      type: "constant"
      value: 0
    }
  }
}
layer {
  name: "relu2"
  type: "ReLU"
  bottom: "conv2"
  top: "conv2"
  relu_param {
    negative_slope: 0.1
  }
}
layer {
  name: "dropout2"
  type: "Dropout"
  bottom: "conv2"
  top: "drop2"
}
layer {
  name: "pool2"
  type: "Pooling"
  bottom: "drop2"
  top: "pool2"
  pooling_param {
    pool: MAX
    kernel_size: 2
    stride: 2
  }
}
layer {
  name: "conv3"
  type: "Convolution"
  bottom: "pool2"
  top: "conv3"
  convolution_param {
    num_output: 128
    pad: 0
    kernel_size: 3
    stride: 1
    weight_filler {
      type: "msra"
    }
    bias_filler {
      type: "constant"
      value: 0
    }
  }
}
layer {
  name: "relu3"
  type: "ReLU"
  bottom: "conv3"
  top: "conv3"
  relu_param {
    negative_slope: 0.1
  }
}
layer {
  name: "dropout3"
  type: "Dropout"
  bottom: "conv3"
  top: "drop3"
}
layer {
  name: "pool3"
  type: "Pooling"
  bottom: "drop3"
  top: "pool3"
  pooling_param {
    pool: MAX
    kernel_size: 2
    stride: 2
  }
}
layer {
  name: "conv4"
  type: "Convolution"
  bottom: "pool3"
  top: "conv4"
  convolution_param {
    num_output: 128
    pad: 0
    kernel_size: 3
    stride: 1
    weight_filler {
      type: "msra"
    }
    bias_filler {
      type: "constant"
      value: 0
    }
  }
}
layer {
  name: "relu4"
  type: "ReLU"
  bottom: "conv4"
  top: "conv4"
  relu_param {
    negative_slope: 0.1
  }
}
layer {
  name: "dropout4"
  type: "Dropout"
  bottom: "conv4"
  top: "drop4"
}
layer {
  name: "pool4"
  type: "Pooling"
  bottom: "drop4"
  top: "pool4"
  pooling_param {
    pool: MAX
    kernel_size: 2
    stride: 2
  }
}
layer {
  name: "fc1"
  type: "InnerProduct"
  bottom: "pool4"
  top: "fc1"
  inner_product_param {
    num_output: 1024
    weight_filler {
      type: "msra"
    }
    bias_filler {
      type: "constant"
      value: 0
    }
  }
}
layer {
  name: "dropout5"
  type: "Dropout"
  bottom: "fc1"
  top: "drop5"
}
layer {
  name: "fc2"
  type: "InnerProduct"
  bottom: "drop5"
  top: "fc2"
  inner_product_param {
    num_output: 2
    weight_filler {
      type: "msra"
    }
    bias_filler {
      type: "constant"
      value: 0
    }
  }
}
layer {
  name: "loss"
  type: "SoftmaxWithLoss"
  bottom: "fc2"
  bottom: "label"
}
I1013 15:24:40.000277 259402 layer_factory.hpp:114] Creating layer data
I1013 15:24:40.000396 259402 net.cpp:160] Creating Layer data
I1013 15:24:40.000439 259402 net.cpp:570] data -> data
I1013 15:24:40.000524 259402 net.cpp:570] data -> label
I1013 15:24:40.024555 259402 net.cpp:210] Setting up data
I1013 15:24:40.024665 259402 net.cpp:217] Top shape: 2 3 124 124 (92256)
I1013 15:24:40.024731 259402 net.cpp:217] Top shape: 2 1 1 1 (2)
I1013 15:24:40.024771 259402 net.cpp:225] Memory required for data: 369032
I1013 15:24:40.024811 259402 layer_factory.hpp:114] Creating layer conv1
I1013 15:24:40.024935 259402 net.cpp:160] Creating Layer conv1
I1013 15:24:40.024982 259402 net.cpp:596] conv1 <- data
I1013 15:24:40.025074 259402 net.cpp:570] conv1 -> conv1
I1013 15:24:40.140879 259402 net.cpp:210] Setting up conv1
I1013 15:24:40.140969 259402 net.cpp:217] Top shape: 2 128 122 122 (3810304)
I1013 15:24:40.141010 259402 net.cpp:225] Memory required for data: 15610248
I1013 15:24:40.141094 259402 layer_factory.hpp:114] Creating layer relu1
I1013 15:24:40.141165 259402 net.cpp:160] Creating Layer relu1
I1013 15:24:40.141192 259402 net.cpp:596] relu1 <- conv1
I1013 15:24:40.141228 259402 net.cpp:557] relu1 -> conv1 (in-place)
I1013 15:24:40.145953 259402 net.cpp:210] Setting up relu1
I1013 15:24:40.146040 259402 net.cpp:217] Top shape: 2 128 122 122 (3810304)
I1013 15:24:40.146081 259402 net.cpp:225] Memory required for data: 30851464
I1013 15:24:40.146111 259402 layer_factory.hpp:114] Creating layer dropout1
I1013 15:24:40.146154 259402 net.cpp:160] Creating Layer dropout1
I1013 15:24:40.146178 259402 net.cpp:596] dropout1 <- conv1
I1013 15:24:40.146214 259402 net.cpp:570] dropout1 -> drop1
I1013 15:24:40.146271 259402 net.cpp:210] Setting up dropout1
I1013 15:24:40.146296 259402 net.cpp:217] Top shape: 2 128 122 122 (3810304)
I1013 15:24:40.146327 259402 net.cpp:225] Memory required for data: 46092680
I1013 15:24:40.146351 259402 layer_factory.hpp:114] Creating layer pool1
I1013 15:24:40.146417 259402 net.cpp:160] Creating Layer pool1
I1013 15:24:40.146476 259402 net.cpp:596] pool1 <- drop1
I1013 15:24:40.146536 259402 net.cpp:570] pool1 -> pool1
I1013 15:24:40.151109 259402 net.cpp:210] Setting up pool1
I1013 15:24:40.151197 259402 net.cpp:217] Top shape: 2 128 61 61 (952576)
I1013 15:24:40.151238 259402 net.cpp:225] Memory required for data: 49902984
I1013 15:24:40.151265 259402 layer_factory.hpp:114] Creating layer conv2
I1013 15:24:40.151340 259402 net.cpp:160] Creating Layer conv2
I1013 15:24:40.151371 259402 net.cpp:596] conv2 <- pool1
I1013 15:24:40.151409 259402 net.cpp:570] conv2 -> conv2
I1013 15:24:40.262264 259402 net.cpp:210] Setting up conv2
I1013 15:24:40.262362 259402 net.cpp:217] Top shape: 2 128 59 59 (891136)
I1013 15:24:40.262430 259402 net.cpp:225] Memory required for data: 53467528
I1013 15:24:40.262523 259402 layer_factory.hpp:114] Creating layer relu2
I1013 15:24:40.262621 259402 net.cpp:160] Creating Layer relu2
I1013 15:24:40.262676 259402 net.cpp:596] relu2 <- conv2
I1013 15:24:40.262748 259402 net.cpp:557] relu2 -> conv2 (in-place)
I1013 15:24:40.267570 259402 net.cpp:210] Setting up relu2
I1013 15:24:40.267659 259402 net.cpp:217] Top shape: 2 128 59 59 (891136)
I1013 15:24:40.267706 259402 net.cpp:225] Memory required for data: 57032072
I1013 15:24:40.267740 259402 layer_factory.hpp:114] Creating layer dropout2
I1013 15:24:40.267791 259402 net.cpp:160] Creating Layer dropout2
I1013 15:24:40.267822 259402 net.cpp:596] dropout2 <- conv2
I1013 15:24:40.267869 259402 net.cpp:570] dropout2 -> drop2
I1013 15:24:40.267946 259402 net.cpp:210] Setting up dropout2
I1013 15:24:40.267982 259402 net.cpp:217] Top shape: 2 128 59 59 (891136)
I1013 15:24:40.268019 259402 net.cpp:225] Memory required for data: 60596616
I1013 15:24:40.268111 259402 layer_factory.hpp:114] Creating layer pool2
I1013 15:24:40.268309 259402 net.cpp:160] Creating Layer pool2
I1013 15:24:40.268363 259402 net.cpp:596] pool2 <- drop2
I1013 15:24:40.268602 259402 net.cpp:570] pool2 -> pool2
I1013 15:24:40.273557 259402 net.cpp:210] Setting up pool2
I1013 15:24:40.273650 259402 net.cpp:217] Top shape: 2 128 30 30 (230400)
I1013 15:24:40.273712 259402 net.cpp:225] Memory required for data: 61518216
I1013 15:24:40.273746 259402 layer_factory.hpp:114] Creating layer conv3
I1013 15:24:40.273831 259402 net.cpp:160] Creating Layer conv3
I1013 15:24:40.273870 259402 net.cpp:596] conv3 <- pool2
I1013 15:24:40.273923 259402 net.cpp:570] conv3 -> conv3
I1013 15:24:40.365141 259402 net.cpp:210] Setting up conv3
I1013 15:24:40.365241 259402 net.cpp:217] Top shape: 2 128 28 28 (200704)
I1013 15:24:40.365301 259402 net.cpp:225] Memory required for data: 62321032
I1013 15:24:40.365386 259402 layer_factory.hpp:114] Creating layer relu3
I1013 15:24:40.365550 259402 net.cpp:160] Creating Layer relu3
I1013 15:24:40.365617 259402 net.cpp:596] relu3 <- conv3
I1013 15:24:40.365679 259402 net.cpp:557] relu3 -> conv3 (in-place)
I1013 15:24:40.370447 259402 net.cpp:210] Setting up relu3
I1013 15:24:40.370535 259402 net.cpp:217] Top shape: 2 128 28 28 (200704)
I1013 15:24:40.370579 259402 net.cpp:225] Memory required for data: 63123848
I1013 15:24:40.370614 259402 layer_factory.hpp:114] Creating layer dropout3
I1013 15:24:40.370659 259402 net.cpp:160] Creating Layer dropout3
I1013 15:24:40.370689 259402 net.cpp:596] dropout3 <- conv3
I1013 15:24:40.370733 259402 net.cpp:570] dropout3 -> drop3
I1013 15:24:40.370801 259402 net.cpp:210] Setting up dropout3
I1013 15:24:40.370833 259402 net.cpp:217] Top shape: 2 128 28 28 (200704)
I1013 15:24:40.370870 259402 net.cpp:225] Memory required for data: 63926664
I1013 15:24:40.370901 259402 layer_factory.hpp:114] Creating layer pool3
I1013 15:24:40.370960 259402 net.cpp:160] Creating Layer pool3
I1013 15:24:40.370996 259402 net.cpp:596] pool3 <- drop3
I1013 15:24:40.371086 259402 net.cpp:570] pool3 -> pool3
I1013 15:24:40.375612 259402 net.cpp:210] Setting up pool3
I1013 15:24:40.375699 259402 net.cpp:217] Top shape: 2 128 14 14 (50176)
I1013 15:24:40.375741 259402 net.cpp:225] Memory required for data: 64127368
I1013 15:24:40.375769 259402 layer_factory.hpp:114] Creating layer conv4
I1013 15:24:40.375846 259402 net.cpp:160] Creating Layer conv4
I1013 15:24:40.375880 259402 net.cpp:596] conv4 <- pool3
I1013 15:24:40.375926 259402 net.cpp:570] conv4 -> conv4
I1013 15:24:40.457617 259402 net.cpp:210] Setting up conv4
I1013 15:24:40.457708 259402 net.cpp:217] Top shape: 2 128 12 12 (36864)
I1013 15:24:40.457765 259402 net.cpp:225] Memory required for data: 64274824
I1013 15:24:40.457828 259402 layer_factory.hpp:114] Creating layer relu4
I1013 15:24:40.457900 259402 net.cpp:160] Creating Layer relu4
I1013 15:24:40.457937 259402 net.cpp:596] relu4 <- conv4
I1013 15:24:40.457984 259402 net.cpp:557] relu4 -> conv4 (in-place)
I1013 15:24:40.463129 259402 net.cpp:210] Setting up relu4
I1013 15:24:40.463214 259402 net.cpp:217] Top shape: 2 128 12 12 (36864)
I1013 15:24:40.463258 259402 net.cpp:225] Memory required for data: 64422280
I1013 15:24:40.463287 259402 layer_factory.hpp:114] Creating layer dropout4
I1013 15:24:40.463333 259402 net.cpp:160] Creating Layer dropout4
I1013 15:24:40.463359 259402 net.cpp:596] dropout4 <- conv4
I1013 15:24:40.463397 259402 net.cpp:570] dropout4 -> drop4
I1013 15:24:40.463459 259402 net.cpp:210] Setting up dropout4
I1013 15:24:40.463488 259402 net.cpp:217] Top shape: 2 128 12 12 (36864)
I1013 15:24:40.463522 259402 net.cpp:225] Memory required for data: 64569736
I1013 15:24:40.463549 259402 layer_factory.hpp:114] Creating layer pool4
I1013 15:24:40.463601 259402 net.cpp:160] Creating Layer pool4
I1013 15:24:40.463627 259402 net.cpp:596] pool4 <- drop4
I1013 15:24:40.463666 259402 net.cpp:570] pool4 -> pool4
I1013 15:24:40.468219 259402 net.cpp:210] Setting up pool4
I1013 15:24:40.468305 259402 net.cpp:217] Top shape: 2 128 6 6 (9216)
I1013 15:24:40.468376 259402 net.cpp:225] Memory required for data: 64606600
I1013 15:24:40.468407 259402 layer_factory.hpp:114] Creating layer fc1
I1013 15:24:40.468478 259402 net.cpp:160] Creating Layer fc1
I1013 15:24:40.468509 259402 net.cpp:596] fc1 <- pool4
I1013 15:24:40.468552 259402 net.cpp:570] fc1 -> fc1
I1013 15:24:40.704713 259402 net.cpp:210] Setting up fc1
I1013 15:24:40.704798 259402 net.cpp:217] Top shape: 2 1024 (2048)
I1013 15:24:40.704839 259402 net.cpp:225] Memory required for data: 64614792
I1013 15:24:40.704906 259402 layer_factory.hpp:114] Creating layer dropout5
I1013 15:24:40.704954 259402 net.cpp:160] Creating Layer dropout5
I1013 15:24:40.704982 259402 net.cpp:596] dropout5 <- fc1
I1013 15:24:40.705018 259402 net.cpp:570] dropout5 -> drop5
I1013 15:24:40.705076 259402 net.cpp:210] Setting up dropout5
I1013 15:24:40.705102 259402 net.cpp:217] Top shape: 2 1024 (2048)
I1013 15:24:40.705137 259402 net.cpp:225] Memory required for data: 64622984
I1013 15:24:40.705164 259402 layer_factory.hpp:114] Creating layer fc2
I1013 15:24:40.705246 259402 net.cpp:160] Creating Layer fc2
I1013 15:24:40.705287 259402 net.cpp:596] fc2 <- drop5
I1013 15:24:40.705394 259402 net.cpp:570] fc2 -> fc2
I1013 15:24:40.709071 259402 net.cpp:210] Setting up fc2
I1013 15:24:40.709159 259402 net.cpp:217] Top shape: 2 2 (4)
I1013 15:24:40.709199 259402 net.cpp:225] Memory required for data: 64623000
I1013 15:24:40.709255 259402 layer_factory.hpp:114] Creating layer loss
I1013 15:24:40.709313 259402 net.cpp:160] Creating Layer loss
I1013 15:24:40.709342 259402 net.cpp:596] loss <- fc2
I1013 15:24:40.709368 259402 net.cpp:596] loss <- label
I1013 15:24:40.709411 259402 net.cpp:570] loss -> (automatic)
I1013 15:24:40.709496 259402 layer_factory.hpp:114] Creating layer loss
…
