…
I1013 15:23:42.998280 258775 net.cpp:484] The NetState phase (0) differed from the phase (1) specified by a rule in layer data
I1013 15:23:42.999322 258775 net.cpp:120] Initializing net from parameters: 
name: "HEP_CLASSIFIER"
state {
  phase: TRAIN
  level: 0
  stage: ""
}
layer {
  name: "data"
  type: "DummyData"
  top: "data"
  top: "label"
  include {
    phase: TRAIN
  }
  dummy_data_param {
    data_filler {
      type: "gaussian"
      std: 1
    }
    data_filler {
      type: "constant"
      value: 0
    }
    shape {
      dim: 1
      dim: 3
      dim: 124
      dim: 124
    }
    shape {
      dim: 1
      dim: 1
      dim: 1
      dim: 1
    }
  }
}
layer {
  name: "conv1"
  type: "Convolution"
  bottom: "data"
  top: "conv1"
  convolution_param {
    num_output: 128
    pad: 0
    kernel_size: 3
    stride: 1
    weight_filler {
      type: "msra"
    }
    bias_filler {
      type: "constant"
      value: 0
    }
  }
}
layer {
  name: "relu1"
  type: "ReLU"
  bottom: "conv1"
  top: "conv1"
  relu_param {
    negative_slope: 0.1
  }
}
layer {
  name: "dropout1"
  type: "Dropout"
  bottom: "conv1"
  top: "drop1"
}
layer {
  name: "pool1"
  type: "Pooling"
  bottom: "drop1"
  top: "pool1"
  pooling_param {
    pool: MAX
    kernel_size: 2
    stride: 2
  }
}
layer {
  name: "conv2"
  type: "Convolution"
  bottom: "pool1"
  top: "conv2"
  convolution_param {
    num_output: 128
    pad: 0
    kernel_size: 3
    stride: 1
    weight_filler {
      type: "msra"
    }
    bias_filler {
      type: "constant"
      value: 0
    }
  }
}
layer {
  name: "relu2"
  type: "ReLU"
  bottom: "conv2"
  top: "conv2"
  relu_param {
    negative_slope: 0.1
  }
}
layer {
  name: "dropout2"
  type: "Dropout"
  bottom: "conv2"
  top: "drop2"
}
layer {
  name: "pool2"
  type: "Pooling"
  bottom: "drop2"
  top: "pool2"
  pooling_param {
    pool: MAX
    kernel_size: 2
    stride: 2
  }
}
layer {
  name: "conv3"
  type: "Convolution"
  bottom: "pool2"
  top: "conv3"
  convolution_param {
    num_output: 128
    pad: 0
    kernel_size: 3
    stride: 1
    weight_filler {
      type: "msra"
    }
    bias_filler {
      type: "constant"
      value: 0
    }
  }
}
layer {
  name: "relu3"
  type: "ReLU"
  bottom: "conv3"
  top: "conv3"
  relu_param {
    negative_slope: 0.1
  }
}
layer {
  name: "dropout3"
  type: "Dropout"
  bottom: "conv3"
  top: "drop3"
}
layer {
  name: "pool3"
  type: "Pooling"
  bottom: "drop3"
  top: "pool3"
  pooling_param {
    pool: MAX
    kernel_size: 2
    stride: 2
  }
}
layer {
  name: "conv4"
  type: "Convolution"
  bottom: "pool3"
  top: "conv4"
  convolution_param {
    num_output: 128
    pad: 0
    kernel_size: 3
    stride: 1
    weight_filler {
      type: "msra"
    }
    bias_filler {
      type: "constant"
      value: 0
    }
  }
}
layer {
  name: "relu4"
  type: "ReLU"
  bottom: "conv4"
  top: "conv4"
  relu_param {
    negative_slope: 0.1
  }
}
layer {
  name: "dropout4"
  type: "Dropout"
  bottom: "conv4"
  top: "drop4"
}
layer {
  name: "pool4"
  type: "Pooling"
  bottom: "drop4"
  top: "pool4"
  pooling_param {
    pool: MAX
    kernel_size: 2
    stride: 2
  }
}
layer {
  name: "fc1"
  type: "InnerProduct"
  bottom: "pool4"
  top: "fc1"
  inner_product_param {
    num_output: 1024
    weight_filler {
      type: "msra"
    }
    bias_filler {
      type: "constant"
      value: 0
    }
  }
}
layer {
  name: "dropout5"
  type: "Dropout"
  bottom: "fc1"
  top: "drop5"
}
layer {
  name: "fc2"
  type: "InnerProduct"
  bottom: "drop5"
  top: "fc2"
  inner_product_param {
    num_output: 2
    weight_filler {
      type: "msra"
    }
    bias_filler {
      type: "constant"
      value: 0
    }
  }
}
layer {
  name: "loss"
  type: "SoftmaxWithLoss"
  bottom: "fc2"
  bottom: "label"
}
I1013 15:23:43.001402 258775 layer_factory.hpp:114] Creating layer data
I1013 15:23:43.001552 258775 net.cpp:160] Creating Layer data
I1013 15:23:43.001603 258775 net.cpp:570] data -> data
I1013 15:23:43.001689 258775 net.cpp:570] data -> label
I1013 15:23:43.024788 258775 net.cpp:210] Setting up data
I1013 15:23:43.024902 258775 net.cpp:217] Top shape: 1 3 124 124 (46128)
I1013 15:23:43.024969 258775 net.cpp:217] Top shape: 1 1 1 1 (1)
I1013 15:23:43.025004 258775 net.cpp:225] Memory required for data: 184516
I1013 15:23:43.025040 258775 layer_factory.hpp:114] Creating layer conv1
I1013 15:23:43.025161 258775 net.cpp:160] Creating Layer conv1
I1013 15:23:43.025208 258775 net.cpp:596] conv1 <- data
I1013 15:23:43.025292 258775 net.cpp:570] conv1 -> conv1
I1013 15:23:43.150830 258775 net.cpp:210] Setting up conv1
I1013 15:23:43.150913 258775 net.cpp:217] Top shape: 1 128 122 122 (1905152)
I1013 15:23:43.150952 258775 net.cpp:225] Memory required for data: 7805124
I1013 15:23:43.151032 258775 layer_factory.hpp:114] Creating layer relu1
I1013 15:23:43.151099 258775 net.cpp:160] Creating Layer relu1
I1013 15:23:43.151126 258775 net.cpp:596] relu1 <- conv1
I1013 15:23:43.151160 258775 net.cpp:557] relu1 -> conv1 (in-place)
I1013 15:23:43.155789 258775 net.cpp:210] Setting up relu1
I1013 15:23:43.155874 258775 net.cpp:217] Top shape: 1 128 122 122 (1905152)
I1013 15:23:43.155915 258775 net.cpp:225] Memory required for data: 15425732
I1013 15:23:43.155944 258775 layer_factory.hpp:114] Creating layer dropout1
I1013 15:23:43.155990 258775 net.cpp:160] Creating Layer dropout1
I1013 15:23:43.156013 258775 net.cpp:596] dropout1 <- conv1
I1013 15:23:43.156047 258775 net.cpp:570] dropout1 -> drop1
I1013 15:23:43.156103 258775 net.cpp:210] Setting up dropout1
I1013 15:23:43.156128 258775 net.cpp:217] Top shape: 1 128 122 122 (1905152)
I1013 15:23:43.156157 258775 net.cpp:225] Memory required for data: 23046340
I1013 15:23:43.156182 258775 layer_factory.hpp:114] Creating layer pool1
I1013 15:23:43.156244 258775 net.cpp:160] Creating Layer pool1
I1013 15:23:43.156299 258775 net.cpp:596] pool1 <- drop1
I1013 15:23:43.156352 258775 net.cpp:570] pool1 -> pool1
I1013 15:23:43.160815 258775 net.cpp:210] Setting up pool1
I1013 15:23:43.160902 258775 net.cpp:217] Top shape: 1 128 61 61 (476288)
I1013 15:23:43.160948 258775 net.cpp:225] Memory required for data: 24951492
I1013 15:23:43.160977 258775 layer_factory.hpp:114] Creating layer conv2
I1013 15:23:43.161051 258775 net.cpp:160] Creating Layer conv2
I1013 15:23:43.161082 258775 net.cpp:596] conv2 <- pool1
I1013 15:23:43.161123 258775 net.cpp:570] conv2 -> conv2
I1013 15:23:43.256424 258775 net.cpp:210] Setting up conv2
I1013 15:23:43.256520 258775 net.cpp:217] Top shape: 1 128 59 59 (445568)
I1013 15:23:43.256582 258775 net.cpp:225] Memory required for data: 26733764
I1013 15:23:43.256669 258775 layer_factory.hpp:114] Creating layer relu2
I1013 15:23:43.256758 258775 net.cpp:160] Creating Layer relu2
I1013 15:23:43.256803 258775 net.cpp:596] relu2 <- conv2
I1013 15:23:43.256866 258775 net.cpp:557] relu2 -> conv2 (in-place)
I1013 15:23:43.261813 258775 net.cpp:210] Setting up relu2
I1013 15:23:43.261904 258775 net.cpp:217] Top shape: 1 128 59 59 (445568)
I1013 15:23:43.261958 258775 net.cpp:225] Memory required for data: 28516036
I1013 15:23:43.261996 258775 layer_factory.hpp:114] Creating layer dropout2
I1013 15:23:43.262048 258775 net.cpp:160] Creating Layer dropout2
I1013 15:23:43.262082 258775 net.cpp:596] dropout2 <- conv2
I1013 15:23:43.262127 258775 net.cpp:570] dropout2 -> drop2
I1013 15:23:43.262202 258775 net.cpp:210] Setting up dropout2
I1013 15:23:43.262239 258775 net.cpp:217] Top shape: 1 128 59 59 (445568)
I1013 15:23:43.262284 258775 net.cpp:225] Memory required for data: 30298308
I1013 15:23:43.262382 258775 layer_factory.hpp:114] Creating layer pool2
I1013 15:23:43.262614 258775 net.cpp:160] Creating Layer pool2
I1013 15:23:43.262892 258775 net.cpp:596] pool2 <- drop2
I1013 15:23:43.262996 258775 net.cpp:570] pool2 -> pool2
I1013 15:23:43.267624 258775 net.cpp:210] Setting up pool2
I1013 15:23:43.267712 258775 net.cpp:217] Top shape: 1 128 30 30 (115200)
I1013 15:23:43.267755 258775 net.cpp:225] Memory required for data: 30759108
I1013 15:23:43.267781 258775 layer_factory.hpp:114] Creating layer conv3
I1013 15:23:43.267858 258775 net.cpp:160] Creating Layer conv3
I1013 15:23:43.267894 258775 net.cpp:596] conv3 <- pool2
I1013 15:23:43.267940 258775 net.cpp:570] conv3 -> conv3
I1013 15:23:43.355832 258775 net.cpp:210] Setting up conv3
I1013 15:23:43.355928 258775 net.cpp:217] Top shape: 1 128 28 28 (100352)
I1013 15:23:43.355981 258775 net.cpp:225] Memory required for data: 31160516
I1013 15:23:43.356058 258775 layer_factory.hpp:114] Creating layer relu3
I1013 15:23:43.356138 258775 net.cpp:160] Creating Layer relu3
I1013 15:23:43.356178 258775 net.cpp:596] relu3 <- conv3
I1013 15:23:43.356228 258775 net.cpp:557] relu3 -> conv3 (in-place)
I1013 15:23:43.361107 258775 net.cpp:210] Setting up relu3
I1013 15:23:43.361196 258775 net.cpp:217] Top shape: 1 128 28 28 (100352)
I1013 15:23:43.361243 258775 net.cpp:225] Memory required for data: 31561924
I1013 15:23:43.361275 258775 layer_factory.hpp:114] Creating layer dropout3
I1013 15:23:43.361323 258775 net.cpp:160] Creating Layer dropout3
I1013 15:23:43.361352 258775 net.cpp:596] dropout3 <- conv3
I1013 15:23:43.361397 258775 net.cpp:570] dropout3 -> drop3
I1013 15:23:43.361500 258775 net.cpp:210] Setting up dropout3
I1013 15:23:43.361551 258775 net.cpp:217] Top shape: 1 128 28 28 (100352)
I1013 15:23:43.361594 258775 net.cpp:225] Memory required for data: 31963332
I1013 15:23:43.361629 258775 layer_factory.hpp:114] Creating layer pool3
I1013 15:23:43.361737 258775 net.cpp:160] Creating Layer pool3
I1013 15:23:43.361868 258775 net.cpp:596] pool3 <- drop3
I1013 15:23:43.361963 258775 net.cpp:570] pool3 -> pool3
I1013 15:23:43.366818 258775 net.cpp:210] Setting up pool3
I1013 15:23:43.366904 258775 net.cpp:217] Top shape: 1 128 14 14 (25088)
I1013 15:23:43.366943 258775 net.cpp:225] Memory required for data: 32063684
I1013 15:23:43.366971 258775 layer_factory.hpp:114] Creating layer conv4
I1013 15:23:43.367046 258775 net.cpp:160] Creating Layer conv4
I1013 15:23:43.367076 258775 net.cpp:596] conv4 <- pool3
I1013 15:23:43.367116 258775 net.cpp:570] conv4 -> conv4
I1013 15:23:43.447240 258775 net.cpp:210] Setting up conv4
I1013 15:23:43.447327 258775 net.cpp:217] Top shape: 1 128 12 12 (18432)
I1013 15:23:43.447371 258775 net.cpp:225] Memory required for data: 32137412
I1013 15:23:43.447429 258775 layer_factory.hpp:114] Creating layer relu4
I1013 15:23:43.447491 258775 net.cpp:160] Creating Layer relu4
I1013 15:23:43.447523 258775 net.cpp:596] relu4 <- conv4
I1013 15:23:43.447563 258775 net.cpp:557] relu4 -> conv4 (in-place)
I1013 15:23:43.452242 258775 net.cpp:210] Setting up relu4
I1013 15:23:43.452328 258775 net.cpp:217] Top shape: 1 128 12 12 (18432)
I1013 15:23:43.452371 258775 net.cpp:225] Memory required for data: 32211140
I1013 15:23:43.452402 258775 layer_factory.hpp:114] Creating layer dropout4
I1013 15:23:43.452450 258775 net.cpp:160] Creating Layer dropout4
I1013 15:23:43.452477 258775 net.cpp:596] dropout4 <- conv4
I1013 15:23:43.452515 258775 net.cpp:570] dropout4 -> drop4
I1013 15:23:43.452579 258775 net.cpp:210] Setting up dropout4
I1013 15:23:43.452607 258775 net.cpp:217] Top shape: 1 128 12 12 (18432)
I1013 15:23:43.452641 258775 net.cpp:225] Memory required for data: 32284868
I1013 15:23:43.452668 258775 layer_factory.hpp:114] Creating layer pool4
I1013 15:23:43.452729 258775 net.cpp:160] Creating Layer pool4
I1013 15:23:43.452800 258775 net.cpp:596] pool4 <- drop4
I1013 15:23:43.452981 258775 net.cpp:570] pool4 -> pool4
I1013 15:23:43.457531 258775 net.cpp:210] Setting up pool4
I1013 15:23:43.457614 258775 net.cpp:217] Top shape: 1 128 6 6 (4608)
I1013 15:23:43.457687 258775 net.cpp:225] Memory required for data: 32303300
I1013 15:23:43.457720 258775 layer_factory.hpp:114] Creating layer fc1
I1013 15:23:43.457794 258775 net.cpp:160] Creating Layer fc1
I1013 15:23:43.457828 258775 net.cpp:596] fc1 <- pool4
I1013 15:23:43.457873 258775 net.cpp:570] fc1 -> fc1
I1013 15:23:43.694947 258775 net.cpp:210] Setting up fc1
I1013 15:23:43.695032 258775 net.cpp:217] Top shape: 1 1024 (1024)
I1013 15:23:43.695073 258775 net.cpp:225] Memory required for data: 32307396
I1013 15:23:43.695143 258775 layer_factory.hpp:114] Creating layer dropout5
I1013 15:23:43.695194 258775 net.cpp:160] Creating Layer dropout5
I1013 15:23:43.695219 258775 net.cpp:596] dropout5 <- fc1
I1013 15:23:43.695253 258775 net.cpp:570] dropout5 -> drop5
I1013 15:23:43.695309 258775 net.cpp:210] Setting up dropout5
I1013 15:23:43.695338 258775 net.cpp:217] Top shape: 1 1024 (1024)
I1013 15:23:43.695371 258775 net.cpp:225] Memory required for data: 32311492
I1013 15:23:43.695399 258775 layer_factory.hpp:114] Creating layer fc2
I1013 15:23:43.695475 258775 net.cpp:160] Creating Layer fc2
I1013 15:23:43.695508 258775 net.cpp:596] fc2 <- drop5
I1013 15:23:43.695649 258775 net.cpp:570] fc2 -> fc2
I1013 15:23:43.699023 258775 net.cpp:210] Setting up fc2
I1013 15:23:43.699112 258775 net.cpp:217] Top shape: 1 2 (2)
I1013 15:23:43.699151 258775 net.cpp:225] Memory required for data: 32311500
I1013 15:23:43.699206 258775 layer_factory.hpp:114] Creating layer loss
I1013 15:23:43.699275 258775 net.cpp:160] Creating Layer loss
I1013 15:23:43.699306 258775 net.cpp:596] loss <- fc2
I1013 15:23:43.699333 258775 net.cpp:596] loss <- label
I1013 15:23:43.699379 258775 net.cpp:570] loss -> (automatic)
I1013 15:23:43.699442 258775 layer_factory.hpp:114] Creating layer loss
…
