…
I1013 15:23:51.840708 258981 net.cpp:484] The NetState phase (0) differed from the phase (1) specified by a rule in layer data
I1013 15:23:51.841703 258981 net.cpp:120] Initializing net from parameters: 
name: "HEP_CLASSIFIER"
state {
  phase: TRAIN
  level: 0
  stage: ""
}
layer {
  name: "data"
  type: "DummyData"
  top: "data"
  top: "label"
  include {
    phase: TRAIN
  }
  dummy_data_param {
    data_filler {
      type: "gaussian"
      std: 1
    }
    data_filler {
      type: "constant"
      value: 0
    }
    shape {
      dim: 4
      dim: 3
      dim: 124
      dim: 124
    }
    shape {
      dim: 4
      dim: 1
      dim: 1
      dim: 1
    }
  }
}
layer {
  name: "conv1"
  type: "Convolution"
  bottom: "data"
  top: "conv1"
  convolution_param {
    num_output: 128
    pad: 0
    kernel_size: 3
    stride: 1
    weight_filler {
      type: "msra"
    }
    bias_filler {
      type: "constant"
      value: 0
    }
  }
}
layer {
  name: "relu1"
  type: "ReLU"
  bottom: "conv1"
  top: "conv1"
  relu_param {
    negative_slope: 0.1
  }
}
layer {
  name: "dropout1"
  type: "Dropout"
  bottom: "conv1"
  top: "drop1"
}
layer {
  name: "pool1"
  type: "Pooling"
  bottom: "drop1"
  top: "pool1"
  pooling_param {
    pool: MAX
    kernel_size: 2
    stride: 2
  }
}
layer {
  name: "conv2"
  type: "Convolution"
  bottom: "pool1"
  top: "conv2"
  convolution_param {
    num_output: 128
    pad: 0
    kernel_size: 3
    stride: 1
    weight_filler {
      type: "msra"
    }
    bias_filler {
      type: "constant"
      value: 0
    }
  }
}
layer {
  name: "relu2"
  type: "ReLU"
  bottom: "conv2"
  top: "conv2"
  relu_param {
    negative_slope: 0.1
  }
}
layer {
  name: "dropout2"
  type: "Dropout"
  bottom: "conv2"
  top: "drop2"
}
layer {
  name: "pool2"
  type: "Pooling"
  bottom: "drop2"
  top: "pool2"
  pooling_param {
    pool: MAX
    kernel_size: 2
    stride: 2
  }
}
layer {
  name: "conv3"
  type: "Convolution"
  bottom: "pool2"
  top: "conv3"
  convolution_param {
    num_output: 128
    pad: 0
    kernel_size: 3
    stride: 1
    weight_filler {
      type: "msra"
    }
    bias_filler {
      type: "constant"
      value: 0
    }
  }
}
layer {
  name: "relu3"
  type: "ReLU"
  bottom: "conv3"
  top: "conv3"
  relu_param {
    negative_slope: 0.1
  }
}
layer {
  name: "dropout3"
  type: "Dropout"
  bottom: "conv3"
  top: "drop3"
}
layer {
  name: "pool3"
  type: "Pooling"
  bottom: "drop3"
  top: "pool3"
  pooling_param {
    pool: MAX
    kernel_size: 2
    stride: 2
  }
}
layer {
  name: "conv4"
  type: "Convolution"
  bottom: "pool3"
  top: "conv4"
  convolution_param {
    num_output: 128
    pad: 0
    kernel_size: 3
    stride: 1
    weight_filler {
      type: "msra"
    }
    bias_filler {
      type: "constant"
      value: 0
    }
  }
}
layer {
  name: "relu4"
  type: "ReLU"
  bottom: "conv4"
  top: "conv4"
  relu_param {
    negative_slope: 0.1
  }
}
layer {
  name: "dropout4"
  type: "Dropout"
  bottom: "conv4"
  top: "drop4"
}
layer {
  name: "pool4"
  type: "Pooling"
  bottom: "drop4"
  top: "pool4"
  pooling_param {
    pool: MAX
    kernel_size: 2
    stride: 2
  }
}
layer {
  name: "fc1"
  type: "InnerProduct"
  bottom: "pool4"
  top: "fc1"
  inner_product_param {
    num_output: 1024
    weight_filler {
      type: "msra"
    }
    bias_filler {
      type: "constant"
      value: 0
    }
  }
}
layer {
  name: "dropout5"
  type: "Dropout"
  bottom: "fc1"
  top: "drop5"
}
layer {
  name: "fc2"
  type: "InnerProduct"
  bottom: "drop5"
  top: "fc2"
  inner_product_param {
    num_output: 2
    weight_filler {
      type: "msra"
    }
    bias_filler {
      type: "constant"
      value: 0
    }
  }
}
layer {
  name: "loss"
  type: "SoftmaxWithLoss"
  bottom: "fc2"
  bottom: "label"
}
I1013 15:23:51.843371 258981 layer_factory.hpp:114] Creating layer data
I1013 15:23:51.843451 258981 net.cpp:160] Creating Layer data
I1013 15:23:51.843484 258981 net.cpp:570] data -> data
I1013 15:23:51.843555 258981 net.cpp:570] data -> label
I1013 15:23:51.866528 258981 net.cpp:210] Setting up data
I1013 15:23:51.866637 258981 net.cpp:217] Top shape: 4 3 124 124 (184512)
I1013 15:23:51.866708 258981 net.cpp:217] Top shape: 4 1 1 1 (4)
I1013 15:23:51.866751 258981 net.cpp:225] Memory required for data: 738064
I1013 15:23:51.866792 258981 layer_factory.hpp:114] Creating layer conv1
I1013 15:23:51.866920 258981 net.cpp:160] Creating Layer conv1
I1013 15:23:51.866971 258981 net.cpp:596] conv1 <- data
I1013 15:23:51.867069 258981 net.cpp:570] conv1 -> conv1
I1013 15:23:51.985783 258981 net.cpp:210] Setting up conv1
I1013 15:23:51.985868 258981 net.cpp:217] Top shape: 4 128 122 122 (7620608)
I1013 15:23:51.985913 258981 net.cpp:225] Memory required for data: 31220496
I1013 15:23:51.985998 258981 layer_factory.hpp:114] Creating layer relu1
I1013 15:23:51.986070 258981 net.cpp:160] Creating Layer relu1
I1013 15:23:51.986101 258981 net.cpp:596] relu1 <- conv1
I1013 15:23:51.986137 258981 net.cpp:557] relu1 -> conv1 (in-place)
I1013 15:23:51.990820 258981 net.cpp:210] Setting up relu1
I1013 15:23:51.990909 258981 net.cpp:217] Top shape: 4 128 122 122 (7620608)
I1013 15:23:51.990952 258981 net.cpp:225] Memory required for data: 61702928
I1013 15:23:51.990983 258981 layer_factory.hpp:114] Creating layer dropout1
I1013 15:23:51.991029 258981 net.cpp:160] Creating Layer dropout1
I1013 15:23:51.991052 258981 net.cpp:596] dropout1 <- conv1
I1013 15:23:51.991088 258981 net.cpp:570] dropout1 -> drop1
I1013 15:23:51.991147 258981 net.cpp:210] Setting up dropout1
I1013 15:23:51.991174 258981 net.cpp:217] Top shape: 4 128 122 122 (7620608)
I1013 15:23:51.991209 258981 net.cpp:225] Memory required for data: 92185360
I1013 15:23:51.991235 258981 layer_factory.hpp:114] Creating layer pool1
I1013 15:23:51.991329 258981 net.cpp:160] Creating Layer pool1
I1013 15:23:51.991377 258981 net.cpp:596] pool1 <- drop1
I1013 15:23:51.991515 258981 net.cpp:570] pool1 -> pool1
I1013 15:23:51.995990 258981 net.cpp:210] Setting up pool1
I1013 15:23:51.996078 258981 net.cpp:217] Top shape: 4 128 61 61 (1905152)
I1013 15:23:51.996119 258981 net.cpp:225] Memory required for data: 99805968
I1013 15:23:51.996147 258981 layer_factory.hpp:114] Creating layer conv2
I1013 15:23:51.996222 258981 net.cpp:160] Creating Layer conv2
I1013 15:23:51.996253 258981 net.cpp:596] conv2 <- pool1
I1013 15:23:51.996294 258981 net.cpp:570] conv2 -> conv2
I1013 15:23:52.136333 258981 net.cpp:210] Setting up conv2
I1013 15:23:52.136433 258981 net.cpp:217] Top shape: 4 128 59 59 (1782272)
I1013 15:23:52.136505 258981 net.cpp:225] Memory required for data: 106935056
I1013 15:23:52.136597 258981 layer_factory.hpp:114] Creating layer relu2
I1013 15:23:52.136694 258981 net.cpp:160] Creating Layer relu2
I1013 15:23:52.136747 258981 net.cpp:596] relu2 <- conv2
I1013 15:23:52.136813 258981 net.cpp:557] relu2 -> conv2 (in-place)
I1013 15:23:52.142516 258981 net.cpp:210] Setting up relu2
I1013 15:23:52.142608 258981 net.cpp:217] Top shape: 4 128 59 59 (1782272)
I1013 15:23:52.142663 258981 net.cpp:225] Memory required for data: 114064144
I1013 15:23:52.142699 258981 layer_factory.hpp:114] Creating layer dropout2
I1013 15:23:52.142751 258981 net.cpp:160] Creating Layer dropout2
I1013 15:23:52.142789 258981 net.cpp:596] dropout2 <- conv2
I1013 15:23:52.142838 258981 net.cpp:570] dropout2 -> drop2
I1013 15:23:52.142918 258981 net.cpp:210] Setting up dropout2
I1013 15:23:52.142957 258981 net.cpp:217] Top shape: 4 128 59 59 (1782272)
I1013 15:23:52.143007 258981 net.cpp:225] Memory required for data: 121193232
I1013 15:23:52.143128 258981 layer_factory.hpp:114] Creating layer pool2
I1013 15:23:52.143237 258981 net.cpp:160] Creating Layer pool2
I1013 15:23:52.143287 258981 net.cpp:596] pool2 <- drop2
I1013 15:23:52.143347 258981 net.cpp:570] pool2 -> pool2
I1013 15:23:52.148138 258981 net.cpp:210] Setting up pool2
I1013 15:23:52.148224 258981 net.cpp:217] Top shape: 4 128 30 30 (460800)
I1013 15:23:52.148268 258981 net.cpp:225] Memory required for data: 123036432
I1013 15:23:52.148298 258981 layer_factory.hpp:114] Creating layer conv3
I1013 15:23:52.148380 258981 net.cpp:160] Creating Layer conv3
I1013 15:23:52.148416 258981 net.cpp:596] conv3 <- pool2
I1013 15:23:52.148465 258981 net.cpp:570] conv3 -> conv3
I1013 15:23:52.247143 258981 net.cpp:210] Setting up conv3
I1013 15:23:52.247246 258981 net.cpp:217] Top shape: 4 128 28 28 (401408)
I1013 15:23:52.247310 258981 net.cpp:225] Memory required for data: 124642064
I1013 15:23:52.247402 258981 layer_factory.hpp:114] Creating layer relu3
I1013 15:23:52.247498 258981 net.cpp:160] Creating Layer relu3
I1013 15:23:52.247546 258981 net.cpp:596] relu3 <- conv3
I1013 15:23:52.247608 258981 net.cpp:557] relu3 -> conv3 (in-place)
I1013 15:23:52.252810 258981 net.cpp:210] Setting up relu3
I1013 15:23:52.252897 258981 net.cpp:217] Top shape: 4 128 28 28 (401408)
I1013 15:23:52.252938 258981 net.cpp:225] Memory required for data: 126247696
I1013 15:23:52.252969 258981 layer_factory.hpp:114] Creating layer dropout3
I1013 15:23:52.253017 258981 net.cpp:160] Creating Layer dropout3
I1013 15:23:52.253046 258981 net.cpp:596] dropout3 <- conv3
I1013 15:23:52.253088 258981 net.cpp:570] dropout3 -> drop3
I1013 15:23:52.253159 258981 net.cpp:210] Setting up dropout3
I1013 15:23:52.253193 258981 net.cpp:217] Top shape: 4 128 28 28 (401408)
I1013 15:23:52.253232 258981 net.cpp:225] Memory required for data: 127853328
I1013 15:23:52.253262 258981 layer_factory.hpp:114] Creating layer pool3
I1013 15:23:52.253322 258981 net.cpp:160] Creating Layer pool3
I1013 15:23:52.253388 258981 net.cpp:596] pool3 <- drop3
I1013 15:23:52.253645 258981 net.cpp:570] pool3 -> pool3
I1013 15:23:52.258559 258981 net.cpp:210] Setting up pool3
I1013 15:23:52.258646 258981 net.cpp:217] Top shape: 4 128 14 14 (100352)
I1013 15:23:52.258687 258981 net.cpp:225] Memory required for data: 128254736
I1013 15:23:52.258716 258981 layer_factory.hpp:114] Creating layer conv4
I1013 15:23:52.258792 258981 net.cpp:160] Creating Layer conv4
I1013 15:23:52.258828 258981 net.cpp:596] conv4 <- pool3
I1013 15:23:52.258875 258981 net.cpp:570] conv4 -> conv4
I1013 15:23:52.342613 258981 net.cpp:210] Setting up conv4
I1013 15:23:52.342705 258981 net.cpp:217] Top shape: 4 128 12 12 (73728)
I1013 15:23:52.342756 258981 net.cpp:225] Memory required for data: 128549648
I1013 15:23:52.342821 258981 layer_factory.hpp:114] Creating layer relu4
I1013 15:23:52.342893 258981 net.cpp:160] Creating Layer relu4
I1013 15:23:52.342936 258981 net.cpp:596] relu4 <- conv4
I1013 15:23:52.342988 258981 net.cpp:557] relu4 -> conv4 (in-place)
I1013 15:23:52.348130 258981 net.cpp:210] Setting up relu4
I1013 15:23:52.348219 258981 net.cpp:217] Top shape: 4 128 12 12 (73728)
I1013 15:23:52.348263 258981 net.cpp:225] Memory required for data: 128844560
I1013 15:23:52.348295 258981 layer_factory.hpp:114] Creating layer dropout4
I1013 15:23:52.348342 258981 net.cpp:160] Creating Layer dropout4
I1013 15:23:52.348368 258981 net.cpp:596] dropout4 <- conv4
I1013 15:23:52.348407 258981 net.cpp:570] dropout4 -> drop4
I1013 15:23:52.348472 258981 net.cpp:210] Setting up dropout4
I1013 15:23:52.348505 258981 net.cpp:217] Top shape: 4 128 12 12 (73728)
I1013 15:23:52.348539 258981 net.cpp:225] Memory required for data: 129139472
I1013 15:23:52.348567 258981 layer_factory.hpp:114] Creating layer pool4
I1013 15:23:52.348624 258981 net.cpp:160] Creating Layer pool4
I1013 15:23:52.348654 258981 net.cpp:596] pool4 <- drop4
I1013 15:23:52.348696 258981 net.cpp:570] pool4 -> pool4
I1013 15:23:52.353283 258981 net.cpp:210] Setting up pool4
I1013 15:23:52.353371 258981 net.cpp:217] Top shape: 4 128 6 6 (18432)
I1013 15:23:52.353443 258981 net.cpp:225] Memory required for data: 129213200
I1013 15:23:52.353559 258981 layer_factory.hpp:114] Creating layer fc1
I1013 15:23:52.353665 258981 net.cpp:160] Creating Layer fc1
I1013 15:23:52.353915 258981 net.cpp:596] fc1 <- pool4
I1013 15:23:52.353998 258981 net.cpp:570] fc1 -> fc1
I1013 15:23:52.589628 258981 net.cpp:210] Setting up fc1
I1013 15:23:52.589709 258981 net.cpp:217] Top shape: 4 1024 (4096)
I1013 15:23:52.589747 258981 net.cpp:225] Memory required for data: 129229584
I1013 15:23:52.589813 258981 layer_factory.hpp:114] Creating layer dropout5
I1013 15:23:52.589860 258981 net.cpp:160] Creating Layer dropout5
I1013 15:23:52.589885 258981 net.cpp:596] dropout5 <- fc1
I1013 15:23:52.589920 258981 net.cpp:570] dropout5 -> drop5
I1013 15:23:52.589978 258981 net.cpp:210] Setting up dropout5
I1013 15:23:52.590008 258981 net.cpp:217] Top shape: 4 1024 (4096)
I1013 15:23:52.590042 258981 net.cpp:225] Memory required for data: 129245968
I1013 15:23:52.590070 258981 layer_factory.hpp:114] Creating layer fc2
I1013 15:23:52.590152 258981 net.cpp:160] Creating Layer fc2
I1013 15:23:52.590296 258981 net.cpp:596] fc2 <- drop5
I1013 15:23:52.590364 258981 net.cpp:570] fc2 -> fc2
I1013 15:23:52.594482 258981 net.cpp:210] Setting up fc2
I1013 15:23:52.594569 258981 net.cpp:217] Top shape: 4 2 (8)
I1013 15:23:52.594607 258981 net.cpp:225] Memory required for data: 129246000
I1013 15:23:52.594661 258981 layer_factory.hpp:114] Creating layer loss
I1013 15:23:52.594727 258981 net.cpp:160] Creating Layer loss
I1013 15:23:52.594758 258981 net.cpp:596] loss <- fc2
I1013 15:23:52.594785 258981 net.cpp:596] loss <- label
I1013 15:23:52.594830 258981 net.cpp:570] loss -> (automatic)
I1013 15:23:52.594887 258981 layer_factory.hpp:114] Creating layer loss
…
