…
I1013 15:24:29.044711 259298 net.cpp:484] The NetState phase (0) differed from the phase (1) specified by a rule in layer data
I1013 15:24:29.045509 259298 net.cpp:120] Initializing net from parameters: 
name: "HEP_CLASSIFIER"
state {
  phase: TRAIN
  level: 0
  stage: ""
}
layer {
  name: "data"
  type: "DummyData"
  top: "data"
  top: "label"
  include {
    phase: TRAIN
  }
  dummy_data_param {
    data_filler {
      type: "gaussian"
      std: 1
    }
    data_filler {
      type: "constant"
      value: 0
    }
    shape {
      dim: 32
      dim: 3
      dim: 124
      dim: 124
    }
    shape {
      dim: 32
      dim: 1
      dim: 1
      dim: 1
    }
  }
}
layer {
  name: "conv1"
  type: "Convolution"
  bottom: "data"
  top: "conv1"
  convolution_param {
    num_output: 128
    pad: 0
    kernel_size: 3
    stride: 1
    weight_filler {
      type: "msra"
    }
    bias_filler {
      type: "constant"
      value: 0
    }
  }
}
layer {
  name: "relu1"
  type: "ReLU"
  bottom: "conv1"
  top: "conv1"
  relu_param {
    negative_slope: 0.1
  }
}
layer {
  name: "dropout1"
  type: "Dropout"
  bottom: "conv1"
  top: "drop1"
}
layer {
  name: "pool1"
  type: "Pooling"
  bottom: "drop1"
  top: "pool1"
  pooling_param {
    pool: MAX
    kernel_size: 2
    stride: 2
  }
}
layer {
  name: "conv2"
  type: "Convolution"
  bottom: "pool1"
  top: "conv2"
  convolution_param {
    num_output: 128
    pad: 0
    kernel_size: 3
    stride: 1
    weight_filler {
      type: "msra"
    }
    bias_filler {
      type: "constant"
      value: 0
    }
  }
}
layer {
  name: "relu2"
  type: "ReLU"
  bottom: "conv2"
  top: "conv2"
  relu_param {
    negative_slope: 0.1
  }
}
layer {
  name: "dropout2"
  type: "Dropout"
  bottom: "conv2"
  top: "drop2"
}
layer {
  name: "pool2"
  type: "Pooling"
  bottom: "drop2"
  top: "pool2"
  pooling_param {
    pool: MAX
    kernel_size: 2
    stride: 2
  }
}
layer {
  name: "conv3"
  type: "Convolution"
  bottom: "pool2"
  top: "conv3"
  convolution_param {
    num_output: 128
    pad: 0
    kernel_size: 3
    stride: 1
    weight_filler {
      type: "msra"
    }
    bias_filler {
      type: "constant"
      value: 0
    }
  }
}
layer {
  name: "relu3"
  type: "ReLU"
  bottom: "conv3"
  top: "conv3"
  relu_param {
    negative_slope: 0.1
  }
}
layer {
  name: "dropout3"
  type: "Dropout"
  bottom: "conv3"
  top: "drop3"
}
layer {
  name: "pool3"
  type: "Pooling"
  bottom: "drop3"
  top: "pool3"
  pooling_param {
    pool: MAX
    kernel_size: 2
    stride: 2
  }
}
layer {
  name: "conv4"
  type: "Convolution"
  bottom: "pool3"
  top: "conv4"
  convolution_param {
    num_output: 128
    pad: 0
    kernel_size: 3
    stride: 1
    weight_filler {
      type: "msra"
    }
    bias_filler {
      type: "constant"
      value: 0
    }
  }
}
layer {
  name: "relu4"
  type: "ReLU"
  bottom: "conv4"
  top: "conv4"
  relu_param {
    negative_slope: 0.1
  }
}
layer {
  name: "dropout4"
  type: "Dropout"
  bottom: "conv4"
  top: "drop4"
}
layer {
  name: "pool4"
  type: "Pooling"
  bottom: "drop4"
  top: "pool4"
  pooling_param {
    pool: MAX
    kernel_size: 2
    stride: 2
  }
}
layer {
  name: "fc1"
  type: "InnerProduct"
  bottom: "pool4"
  top: "fc1"
  inner_product_param {
    num_output: 1024
    weight_filler {
      type: "msra"
    }
    bias_filler {
      type: "constant"
      value: 0
    }
  }
}
layer {
  name: "dropout5"
  type: "Dropout"
  bottom: "fc1"
  top: "drop5"
}
layer {
  name: "fc2"
  type: "InnerProduct"
  bottom: "drop5"
  top: "fc2"
  inner_product_param {
    num_output: 2
    weight_filler {
      type: "msra"
    }
    bias_filler {
      type: "constant"
      value: 0
    }
  }
}
layer {
  name: "loss"
  type: "SoftmaxWithLoss"
  bottom: "fc2"
  bottom: "label"
}
I1013 15:24:29.047216 259298 layer_factory.hpp:114] Creating layer data
I1013 15:24:29.047297 259298 net.cpp:160] Creating Layer data
I1013 15:24:29.047336 259298 net.cpp:570] data -> data
I1013 15:24:29.047412 259298 net.cpp:570] data -> label
I1013 15:24:29.070168 259298 net.cpp:210] Setting up data
I1013 15:24:29.070279 259298 net.cpp:217] Top shape: 32 3 124 124 (1476096)
I1013 15:24:29.070346 259298 net.cpp:217] Top shape: 32 1 1 1 (32)
I1013 15:24:29.070389 259298 net.cpp:225] Memory required for data: 5904512
I1013 15:24:29.070430 259298 layer_factory.hpp:114] Creating layer conv1
I1013 15:24:29.070557 259298 net.cpp:160] Creating Layer conv1
I1013 15:24:29.070612 259298 net.cpp:596] conv1 <- data
I1013 15:24:29.070704 259298 net.cpp:570] conv1 -> conv1
I1013 15:24:29.229317 259298 net.cpp:210] Setting up conv1
I1013 15:24:29.229415 259298 net.cpp:217] Top shape: 32 128 122 122 (60964864)
I1013 15:24:29.229526 259298 net.cpp:225] Memory required for data: 249763968
I1013 15:24:29.229750 259298 layer_factory.hpp:114] Creating layer relu1
I1013 15:24:29.229867 259298 net.cpp:160] Creating Layer relu1
I1013 15:24:29.229919 259298 net.cpp:596] relu1 <- conv1
I1013 15:24:29.230020 259298 net.cpp:557] relu1 -> conv1 (in-place)
I1013 15:24:29.235481 259298 net.cpp:210] Setting up relu1
I1013 15:24:29.235565 259298 net.cpp:217] Top shape: 32 128 122 122 (60964864)
I1013 15:24:29.235607 259298 net.cpp:225] Memory required for data: 493623424
I1013 15:24:29.235638 259298 layer_factory.hpp:114] Creating layer dropout1
I1013 15:24:29.235685 259298 net.cpp:160] Creating Layer dropout1
I1013 15:24:29.235712 259298 net.cpp:596] dropout1 <- conv1
I1013 15:24:29.235750 259298 net.cpp:570] dropout1 -> drop1
I1013 15:24:29.235817 259298 net.cpp:210] Setting up dropout1
I1013 15:24:29.235852 259298 net.cpp:217] Top shape: 32 128 122 122 (60964864)
I1013 15:24:29.235893 259298 net.cpp:225] Memory required for data: 737482880
I1013 15:24:29.235924 259298 layer_factory.hpp:114] Creating layer pool1
I1013 15:24:29.236032 259298 net.cpp:160] Creating Layer pool1
I1013 15:24:29.236250 259298 net.cpp:596] pool1 <- drop1
I1013 15:24:29.236318 259298 net.cpp:570] pool1 -> pool1
I1013 15:24:29.240948 259298 net.cpp:210] Setting up pool1
I1013 15:24:29.241036 259298 net.cpp:217] Top shape: 32 128 61 61 (15241216)
I1013 15:24:29.241082 259298 net.cpp:225] Memory required for data: 798447744
I1013 15:24:29.241114 259298 layer_factory.hpp:114] Creating layer conv2
I1013 15:24:29.241194 259298 net.cpp:160] Creating Layer conv2
I1013 15:24:29.241230 259298 net.cpp:596] conv2 <- pool1
I1013 15:24:29.241278 259298 net.cpp:570] conv2 -> conv2
I1013 15:24:29.796010 259298 net.cpp:210] Setting up conv2
I1013 15:24:29.796105 259298 net.cpp:217] Top shape: 32 128 59 59 (14258176)
I1013 15:24:29.796171 259298 net.cpp:225] Memory required for data: 855480448
I1013 15:24:29.796262 259298 layer_factory.hpp:114] Creating layer relu2
I1013 15:24:29.796356 259298 net.cpp:160] Creating Layer relu2
I1013 15:24:29.796411 259298 net.cpp:596] relu2 <- conv2
I1013 15:24:29.796478 259298 net.cpp:557] relu2 -> conv2 (in-place)
I1013 15:24:29.800990 259298 net.cpp:210] Setting up relu2
I1013 15:24:29.801077 259298 net.cpp:217] Top shape: 32 128 59 59 (14258176)
I1013 15:24:29.801125 259298 net.cpp:225] Memory required for data: 912513152
I1013 15:24:29.801156 259298 layer_factory.hpp:114] Creating layer dropout2
I1013 15:24:29.801210 259298 net.cpp:160] Creating Layer dropout2
I1013 15:24:29.801244 259298 net.cpp:596] dropout2 <- conv2
I1013 15:24:29.801292 259298 net.cpp:570] dropout2 -> drop2
I1013 15:24:29.801367 259298 net.cpp:210] Setting up dropout2
I1013 15:24:29.801409 259298 net.cpp:217] Top shape: 32 128 59 59 (14258176)
I1013 15:24:29.801457 259298 net.cpp:225] Memory required for data: 969545856
I1013 15:24:29.801602 259298 layer_factory.hpp:114] Creating layer pool2
I1013 15:24:29.801692 259298 net.cpp:160] Creating Layer pool2
I1013 15:24:29.801718 259298 net.cpp:596] pool2 <- drop2
I1013 15:24:29.801758 259298 net.cpp:570] pool2 -> pool2
I1013 15:24:29.805905 259298 net.cpp:210] Setting up pool2
I1013 15:24:29.805991 259298 net.cpp:217] Top shape: 32 128 30 30 (3686400)
I1013 15:24:29.806035 259298 net.cpp:225] Memory required for data: 984291456
I1013 15:24:29.806064 259298 layer_factory.hpp:114] Creating layer conv3
I1013 15:24:29.806171 259298 net.cpp:160] Creating Layer conv3
I1013 15:24:29.806219 259298 net.cpp:596] conv3 <- pool2
I1013 15:24:29.806293 259298 net.cpp:570] conv3 -> conv3
I1013 15:24:30.008227 259298 net.cpp:210] Setting up conv3
I1013 15:24:30.008332 259298 net.cpp:217] Top shape: 32 128 28 28 (3211264)
I1013 15:24:30.008396 259298 net.cpp:225] Memory required for data: 997136512
I1013 15:24:30.008482 259298 layer_factory.hpp:114] Creating layer relu3
I1013 15:24:30.008599 259298 net.cpp:160] Creating Layer relu3
I1013 15:24:30.008658 259298 net.cpp:596] relu3 <- conv3
I1013 15:24:30.008724 259298 net.cpp:557] relu3 -> conv3 (in-place)
I1013 15:24:30.013386 259298 net.cpp:210] Setting up relu3
I1013 15:24:30.013516 259298 net.cpp:217] Top shape: 32 128 28 28 (3211264)
I1013 15:24:30.013568 259298 net.cpp:225] Memory required for data: 1009981568
I1013 15:24:30.013599 259298 layer_factory.hpp:114] Creating layer dropout3
I1013 15:24:30.013662 259298 net.cpp:160] Creating Layer dropout3
I1013 15:24:30.013703 259298 net.cpp:596] dropout3 <- conv3
I1013 15:24:30.013753 259298 net.cpp:570] dropout3 -> drop3
I1013 15:24:30.013823 259298 net.cpp:210] Setting up dropout3
I1013 15:24:30.013856 259298 net.cpp:217] Top shape: 32 128 28 28 (3211264)
I1013 15:24:30.013891 259298 net.cpp:225] Memory required for data: 1022826624
I1013 15:24:30.013917 259298 layer_factory.hpp:114] Creating layer pool3
I1013 15:24:30.013994 259298 net.cpp:160] Creating Layer pool3
I1013 15:24:30.014032 259298 net.cpp:596] pool3 <- drop3
I1013 15:24:30.014092 259298 net.cpp:570] pool3 -> pool3
I1013 15:24:30.017901 259298 net.cpp:210] Setting up pool3
I1013 15:24:30.017982 259298 net.cpp:217] Top shape: 32 128 14 14 (802816)
I1013 15:24:30.018028 259298 net.cpp:225] Memory required for data: 1026037888
I1013 15:24:30.018059 259298 layer_factory.hpp:114] Creating layer conv4
I1013 15:24:30.018162 259298 net.cpp:160] Creating Layer conv4
I1013 15:24:30.018206 259298 net.cpp:596] conv4 <- pool3
I1013 15:24:30.018275 259298 net.cpp:570] conv4 -> conv4
I1013 15:24:30.132485 259298 net.cpp:210] Setting up conv4
I1013 15:24:30.132575 259298 net.cpp:217] Top shape: 32 128 12 12 (589824)
I1013 15:24:30.132658 259298 net.cpp:225] Memory required for data: 1028397184
I1013 15:24:30.132725 259298 layer_factory.hpp:114] Creating layer relu4
I1013 15:24:30.132805 259298 net.cpp:160] Creating Layer relu4
I1013 15:24:30.132844 259298 net.cpp:596] relu4 <- conv4
I1013 15:24:30.132897 259298 net.cpp:557] relu4 -> conv4 (in-place)
I1013 15:24:30.137176 259298 net.cpp:210] Setting up relu4
I1013 15:24:30.137260 259298 net.cpp:217] Top shape: 32 128 12 12 (589824)
I1013 15:24:30.137307 259298 net.cpp:225] Memory required for data: 1030756480
I1013 15:24:30.137339 259298 layer_factory.hpp:114] Creating layer dropout4
I1013 15:24:30.137414 259298 net.cpp:160] Creating Layer dropout4
I1013 15:24:30.137457 259298 net.cpp:596] dropout4 <- conv4
I1013 15:24:30.137544 259298 net.cpp:570] dropout4 -> drop4
I1013 15:24:30.137624 259298 net.cpp:210] Setting up dropout4
I1013 15:24:30.137660 259298 net.cpp:217] Top shape: 32 128 12 12 (589824)
I1013 15:24:30.137701 259298 net.cpp:225] Memory required for data: 1033115776
I1013 15:24:30.137735 259298 layer_factory.hpp:114] Creating layer pool4
I1013 15:24:30.137833 259298 net.cpp:160] Creating Layer pool4
I1013 15:24:30.137871 259298 net.cpp:596] pool4 <- drop4
I1013 15:24:30.137967 259298 net.cpp:570] pool4 -> pool4
I1013 15:24:30.142102 259298 net.cpp:210] Setting up pool4
I1013 15:24:30.142211 259298 net.cpp:217] Top shape: 32 128 6 6 (147456)
I1013 15:24:30.142256 259298 net.cpp:225] Memory required for data: 1033705600
I1013 15:24:30.142284 259298 layer_factory.hpp:114] Creating layer fc1
I1013 15:24:30.142359 259298 net.cpp:160] Creating Layer fc1
I1013 15:24:30.142398 259298 net.cpp:596] fc1 <- pool4
I1013 15:24:30.142446 259298 net.cpp:570] fc1 -> fc1
I1013 15:24:30.378187 259298 net.cpp:210] Setting up fc1
I1013 15:24:30.378273 259298 net.cpp:217] Top shape: 32 1024 (32768)
I1013 15:24:30.378340 259298 net.cpp:225] Memory required for data: 1033836672
I1013 15:24:30.378410 259298 layer_factory.hpp:114] Creating layer dropout5
I1013 15:24:30.378468 259298 net.cpp:160] Creating Layer dropout5
I1013 15:24:30.378499 259298 net.cpp:596] dropout5 <- fc1
I1013 15:24:30.378540 259298 net.cpp:570] dropout5 -> drop5
I1013 15:24:30.378607 259298 net.cpp:210] Setting up dropout5
I1013 15:24:30.378645 259298 net.cpp:217] Top shape: 32 1024 (32768)
I1013 15:24:30.378708 259298 net.cpp:225] Memory required for data: 1033967744
I1013 15:24:30.378736 259298 layer_factory.hpp:114] Creating layer fc2
I1013 15:24:30.378819 259298 net.cpp:160] Creating Layer fc2
I1013 15:24:30.378854 259298 net.cpp:596] fc2 <- drop5
I1013 15:24:30.378913 259298 net.cpp:570] fc2 -> fc2
I1013 15:24:30.382529 259298 net.cpp:210] Setting up fc2
I1013 15:24:30.382613 259298 net.cpp:217] Top shape: 32 2 (64)
I1013 15:24:30.382652 259298 net.cpp:225] Memory required for data: 1033968000
I1013 15:24:30.382709 259298 layer_factory.hpp:114] Creating layer loss
I1013 15:24:30.382771 259298 net.cpp:160] Creating Layer loss
I1013 15:24:30.382802 259298 net.cpp:596] loss <- fc2
I1013 15:24:30.382846 259298 net.cpp:596] loss <- label
I1013 15:24:30.382899 259298 net.cpp:570] loss -> (automatic)
I1013 15:24:30.382972 259298 layer_factory.hpp:114] Creating layer loss
…
