…
I1013 15:24:14.318061 259084 net.cpp:484] The NetState phase (0) differed from the phase (1) specified by a rule in layer data
I1013 15:24:14.318867 259084 net.cpp:120] Initializing net from parameters: 
name: "HEP_CLASSIFIER"
state {
  phase: TRAIN
  level: 0
  stage: ""
}
layer {
  name: "data"
  type: "DummyData"
  top: "data"
  top: "label"
  include {
    phase: TRAIN
  }
  dummy_data_param {
    data_filler {
      type: "gaussian"
      std: 1
    }
    data_filler {
      type: "constant"
      value: 0
    }
    shape {
      dim: 8
      dim: 3
      dim: 124
      dim: 124
    }
    shape {
      dim: 8
      dim: 1
      dim: 1
      dim: 1
    }
  }
}
layer {
  name: "conv1"
  type: "Convolution"
  bottom: "data"
  top: "conv1"
  convolution_param {
    num_output: 128
    pad: 0
    kernel_size: 3
    stride: 1
    weight_filler {
      type: "msra"
    }
    bias_filler {
      type: "constant"
      value: 0
    }
  }
}
layer {
  name: "relu1"
  type: "ReLU"
  bottom: "conv1"
  top: "conv1"
  relu_param {
    negative_slope: 0.1
  }
}
layer {
  name: "dropout1"
  type: "Dropout"
  bottom: "conv1"
  top: "drop1"
}
layer {
  name: "pool1"
  type: "Pooling"
  bottom: "drop1"
  top: "pool1"
  pooling_param {
    pool: MAX
    kernel_size: 2
    stride: 2
  }
}
layer {
  name: "conv2"
  type: "Convolution"
  bottom: "pool1"
  top: "conv2"
  convolution_param {
    num_output: 128
    pad: 0
    kernel_size: 3
    stride: 1
    weight_filler {
      type: "msra"
    }
    bias_filler {
      type: "constant"
      value: 0
    }
  }
}
layer {
  name: "relu2"
  type: "ReLU"
  bottom: "conv2"
  top: "conv2"
  relu_param {
    negative_slope: 0.1
  }
}
layer {
  name: "dropout2"
  type: "Dropout"
  bottom: "conv2"
  top: "drop2"
}
layer {
  name: "pool2"
  type: "Pooling"
  bottom: "drop2"
  top: "pool2"
  pooling_param {
    pool: MAX
    kernel_size: 2
    stride: 2
  }
}
layer {
  name: "conv3"
  type: "Convolution"
  bottom: "pool2"
  top: "conv3"
  convolution_param {
    num_output: 128
    pad: 0
    kernel_size: 3
    stride: 1
    weight_filler {
      type: "msra"
    }
    bias_filler {
      type: "constant"
      value: 0
    }
  }
}
layer {
  name: "relu3"
  type: "ReLU"
  bottom: "conv3"
  top: "conv3"
  relu_param {
    negative_slope: 0.1
  }
}
layer {
  name: "dropout3"
  type: "Dropout"
  bottom: "conv3"
  top: "drop3"
}
layer {
  name: "pool3"
  type: "Pooling"
  bottom: "drop3"
  top: "pool3"
  pooling_param {
    pool: MAX
    kernel_size: 2
    stride: 2
  }
}
layer {
  name: "conv4"
  type: "Convolution"
  bottom: "pool3"
  top: "conv4"
  convolution_param {
    num_output: 128
    pad: 0
    kernel_size: 3
    stride: 1
    weight_filler {
      type: "msra"
    }
    bias_filler {
      type: "constant"
      value: 0
    }
  }
}
layer {
  name: "relu4"
  type: "ReLU"
  bottom: "conv4"
  top: "conv4"
  relu_param {
    negative_slope: 0.1
  }
}
layer {
  name: "dropout4"
  type: "Dropout"
  bottom: "conv4"
  top: "drop4"
}
layer {
  name: "pool4"
  type: "Pooling"
  bottom: "drop4"
  top: "pool4"
  pooling_param {
    pool: MAX
    kernel_size: 2
    stride: 2
  }
}
layer {
  name: "fc1"
  type: "InnerProduct"
  bottom: "pool4"
  top: "fc1"
  inner_product_param {
    num_output: 1024
    weight_filler {
      type: "msra"
    }
    bias_filler {
      type: "constant"
      value: 0
    }
  }
}
layer {
  name: "dropout5"
  type: "Dropout"
  bottom: "fc1"
  top: "drop5"
}
layer {
  name: "fc2"
  type: "InnerProduct"
  bottom: "drop5"
  top: "fc2"
  inner_product_param {
    num_output: 2
    weight_filler {
      type: "msra"
    }
    bias_filler {
      type: "constant"
      value: 0
    }
  }
}
layer {
  name: "loss"
  type: "SoftmaxWithLoss"
  bottom: "fc2"
  bottom: "label"
}
I1013 15:24:14.320644 259084 layer_factory.hpp:114] Creating layer data
I1013 15:24:14.320721 259084 net.cpp:160] Creating Layer data
I1013 15:24:14.320755 259084 net.cpp:570] data -> data
I1013 15:24:14.320822 259084 net.cpp:570] data -> label
I1013 15:24:14.344081 259084 net.cpp:210] Setting up data
I1013 15:24:14.344193 259084 net.cpp:217] Top shape: 8 3 124 124 (369024)
I1013 15:24:14.344255 259084 net.cpp:217] Top shape: 8 1 1 1 (8)
I1013 15:24:14.344290 259084 net.cpp:225] Memory required for data: 1476128
I1013 15:24:14.344322 259084 layer_factory.hpp:114] Creating layer conv1
I1013 15:24:14.344442 259084 net.cpp:160] Creating Layer conv1
I1013 15:24:14.344486 259084 net.cpp:596] conv1 <- data
I1013 15:24:14.344568 259084 net.cpp:570] conv1 -> conv1
I1013 15:24:14.468448 259084 net.cpp:210] Setting up conv1
I1013 15:24:14.468540 259084 net.cpp:217] Top shape: 8 128 122 122 (15241216)
I1013 15:24:14.468590 259084 net.cpp:225] Memory required for data: 62440992
I1013 15:24:14.468691 259084 layer_factory.hpp:114] Creating layer relu1
I1013 15:24:14.468788 259084 net.cpp:160] Creating Layer relu1
I1013 15:24:14.468830 259084 net.cpp:596] relu1 <- conv1
I1013 15:24:14.468883 259084 net.cpp:557] relu1 -> conv1 (in-place)
I1013 15:24:14.474377 259084 net.cpp:210] Setting up relu1
I1013 15:24:14.474465 259084 net.cpp:217] Top shape: 8 128 122 122 (15241216)
I1013 15:24:14.474508 259084 net.cpp:225] Memory required for data: 123405856
I1013 15:24:14.474537 259084 layer_factory.hpp:114] Creating layer dropout1
I1013 15:24:14.474583 259084 net.cpp:160] Creating Layer dropout1
I1013 15:24:14.474609 259084 net.cpp:596] dropout1 <- conv1
I1013 15:24:14.474647 259084 net.cpp:570] dropout1 -> drop1
I1013 15:24:14.474710 259084 net.cpp:210] Setting up dropout1
I1013 15:24:14.474738 259084 net.cpp:217] Top shape: 8 128 122 122 (15241216)
I1013 15:24:14.474777 259084 net.cpp:225] Memory required for data: 184370720
I1013 15:24:14.474809 259084 layer_factory.hpp:114] Creating layer pool1
I1013 15:24:14.474928 259084 net.cpp:160] Creating Layer pool1
I1013 15:24:14.474980 259084 net.cpp:596] pool1 <- drop1
I1013 15:24:14.475021 259084 net.cpp:570] pool1 -> pool1
I1013 15:24:14.479704 259084 net.cpp:210] Setting up pool1
I1013 15:24:14.479794 259084 net.cpp:217] Top shape: 8 128 61 61 (3810304)
I1013 15:24:14.479835 259084 net.cpp:225] Memory required for data: 199611936
I1013 15:24:14.479861 259084 layer_factory.hpp:114] Creating layer conv2
I1013 15:24:14.479935 259084 net.cpp:160] Creating Layer conv2
I1013 15:24:14.479965 259084 net.cpp:596] conv2 <- pool1
I1013 15:24:14.480005 259084 net.cpp:570] conv2 -> conv2
I1013 15:24:14.679890 259084 net.cpp:210] Setting up conv2
I1013 15:24:14.679989 259084 net.cpp:217] Top shape: 8 128 59 59 (3564544)
I1013 15:24:14.680061 259084 net.cpp:225] Memory required for data: 213870112
I1013 15:24:14.680153 259084 layer_factory.hpp:114] Creating layer relu2
I1013 15:24:14.680251 259084 net.cpp:160] Creating Layer relu2
I1013 15:24:14.680305 259084 net.cpp:596] relu2 <- conv2
I1013 15:24:14.680371 259084 net.cpp:557] relu2 -> conv2 (in-place)
I1013 15:24:14.684978 259084 net.cpp:210] Setting up relu2
I1013 15:24:14.685070 259084 net.cpp:217] Top shape: 8 128 59 59 (3564544)
I1013 15:24:14.685122 259084 net.cpp:225] Memory required for data: 228128288
I1013 15:24:14.685154 259084 layer_factory.hpp:114] Creating layer dropout2
I1013 15:24:14.685205 259084 net.cpp:160] Creating Layer dropout2
I1013 15:24:14.685243 259084 net.cpp:596] dropout2 <- conv2
I1013 15:24:14.685293 259084 net.cpp:570] dropout2 -> drop2
I1013 15:24:14.685367 259084 net.cpp:210] Setting up dropout2
I1013 15:24:14.685402 259084 net.cpp:217] Top shape: 8 128 59 59 (3564544)
I1013 15:24:14.685443 259084 net.cpp:225] Memory required for data: 242386464
I1013 15:24:14.685555 259084 layer_factory.hpp:114] Creating layer pool2
I1013 15:24:14.685652 259084 net.cpp:160] Creating Layer pool2
I1013 15:24:14.685722 259084 net.cpp:596] pool2 <- drop2
I1013 15:24:14.685781 259084 net.cpp:570] pool2 -> pool2
I1013 15:24:14.690291 259084 net.cpp:210] Setting up pool2
I1013 15:24:14.690377 259084 net.cpp:217] Top shape: 8 128 30 30 (921600)
I1013 15:24:14.690420 259084 net.cpp:225] Memory required for data: 246072864
I1013 15:24:14.690449 259084 layer_factory.hpp:114] Creating layer conv3
I1013 15:24:14.690541 259084 net.cpp:160] Creating Layer conv3
I1013 15:24:14.690582 259084 net.cpp:596] conv3 <- pool2
I1013 15:24:14.690636 259084 net.cpp:570] conv3 -> conv3
I1013 15:24:14.803900 259084 net.cpp:210] Setting up conv3
I1013 15:24:14.804005 259084 net.cpp:217] Top shape: 8 128 28 28 (802816)
I1013 15:24:14.804075 259084 net.cpp:225] Memory required for data: 249284128
I1013 15:24:14.804167 259084 layer_factory.hpp:114] Creating layer relu3
I1013 15:24:14.804294 259084 net.cpp:160] Creating Layer relu3
I1013 15:24:14.804354 259084 net.cpp:596] relu3 <- conv3
I1013 15:24:14.804420 259084 net.cpp:557] relu3 -> conv3 (in-place)
I1013 15:24:14.809301 259084 net.cpp:210] Setting up relu3
I1013 15:24:14.809391 259084 net.cpp:217] Top shape: 8 128 28 28 (802816)
I1013 15:24:14.809438 259084 net.cpp:225] Memory required for data: 252495392
I1013 15:24:14.809509 259084 layer_factory.hpp:114] Creating layer dropout3
I1013 15:24:14.809576 259084 net.cpp:160] Creating Layer dropout3
I1013 15:24:14.809612 259084 net.cpp:596] dropout3 <- conv3
I1013 15:24:14.809666 259084 net.cpp:570] dropout3 -> drop3
I1013 15:24:14.809738 259084 net.cpp:210] Setting up dropout3
I1013 15:24:14.809772 259084 net.cpp:217] Top shape: 8 128 28 28 (802816)
I1013 15:24:14.809814 259084 net.cpp:225] Memory required for data: 255706656
I1013 15:24:14.809846 259084 layer_factory.hpp:114] Creating layer pool3
I1013 15:24:14.809934 259084 net.cpp:160] Creating Layer pool3
I1013 15:24:14.810015 259084 net.cpp:596] pool3 <- drop3
I1013 15:24:14.810078 259084 net.cpp:570] pool3 -> pool3
I1013 15:24:14.814306 259084 net.cpp:210] Setting up pool3
I1013 15:24:14.814394 259084 net.cpp:217] Top shape: 8 128 14 14 (200704)
I1013 15:24:14.814436 259084 net.cpp:225] Memory required for data: 256509472
I1013 15:24:14.814465 259084 layer_factory.hpp:114] Creating layer conv4
I1013 15:24:14.814556 259084 net.cpp:160] Creating Layer conv4
I1013 15:24:14.814595 259084 net.cpp:596] conv4 <- pool3
I1013 15:24:14.814661 259084 net.cpp:570] conv4 -> conv4
I1013 15:24:14.902762 259084 net.cpp:210] Setting up conv4
I1013 15:24:14.902853 259084 net.cpp:217] Top shape: 8 128 12 12 (147456)
I1013 15:24:14.902942 259084 net.cpp:225] Memory required for data: 257099296
I1013 15:24:14.903017 259084 layer_factory.hpp:114] Creating layer relu4
I1013 15:24:14.903100 259084 net.cpp:160] Creating Layer relu4
I1013 15:24:14.903147 259084 net.cpp:596] relu4 <- conv4
I1013 15:24:14.903205 259084 net.cpp:557] relu4 -> conv4 (in-place)
I1013 15:24:14.908440 259084 net.cpp:210] Setting up relu4
I1013 15:24:14.908529 259084 net.cpp:217] Top shape: 8 128 12 12 (147456)
I1013 15:24:14.908572 259084 net.cpp:225] Memory required for data: 257689120
I1013 15:24:14.908606 259084 layer_factory.hpp:114] Creating layer dropout4
I1013 15:24:14.908665 259084 net.cpp:160] Creating Layer dropout4
I1013 15:24:14.908701 259084 net.cpp:596] dropout4 <- conv4
I1013 15:24:14.908746 259084 net.cpp:570] dropout4 -> drop4
I1013 15:24:14.908813 259084 net.cpp:210] Setting up dropout4
I1013 15:24:14.908845 259084 net.cpp:217] Top shape: 8 128 12 12 (147456)
I1013 15:24:14.908884 259084 net.cpp:225] Memory required for data: 258278944
I1013 15:24:14.908913 259084 layer_factory.hpp:114] Creating layer pool4
I1013 15:24:14.908975 259084 net.cpp:160] Creating Layer pool4
I1013 15:24:14.909005 259084 net.cpp:596] pool4 <- drop4
I1013 15:24:14.909095 259084 net.cpp:570] pool4 -> pool4
I1013 15:24:14.913605 259084 net.cpp:210] Setting up pool4
I1013 15:24:14.913686 259084 net.cpp:217] Top shape: 8 128 6 6 (36864)
I1013 15:24:14.913750 259084 net.cpp:225] Memory required for data: 258426400
I1013 15:24:14.913779 259084 layer_factory.hpp:114] Creating layer fc1
I1013 15:24:14.913851 259084 net.cpp:160] Creating Layer fc1
I1013 15:24:14.913888 259084 net.cpp:596] fc1 <- pool4
I1013 15:24:14.913934 259084 net.cpp:570] fc1 -> fc1
I1013 15:24:15.149852 259084 net.cpp:210] Setting up fc1
I1013 15:24:15.149936 259084 net.cpp:217] Top shape: 8 1024 (8192)
I1013 15:24:15.149998 259084 net.cpp:225] Memory required for data: 258459168
I1013 15:24:15.150068 259084 layer_factory.hpp:114] Creating layer dropout5
I1013 15:24:15.150116 259084 net.cpp:160] Creating Layer dropout5
I1013 15:24:15.150141 259084 net.cpp:596] dropout5 <- fc1
I1013 15:24:15.150178 259084 net.cpp:570] dropout5 -> drop5
I1013 15:24:15.150238 259084 net.cpp:210] Setting up dropout5
I1013 15:24:15.150265 259084 net.cpp:217] Top shape: 8 1024 (8192)
I1013 15:24:15.150300 259084 net.cpp:225] Memory required for data: 258491936
I1013 15:24:15.150352 259084 layer_factory.hpp:114] Creating layer fc2
I1013 15:24:15.150583 259084 net.cpp:160] Creating Layer fc2
I1013 15:24:15.150621 259084 net.cpp:596] fc2 <- drop5
I1013 15:24:15.150671 259084 net.cpp:570] fc2 -> fc2
I1013 15:24:15.154111 259084 net.cpp:210] Setting up fc2
I1013 15:24:15.154201 259084 net.cpp:217] Top shape: 8 2 (16)
I1013 15:24:15.154238 259084 net.cpp:225] Memory required for data: 258492000
I1013 15:24:15.154291 259084 layer_factory.hpp:114] Creating layer loss
I1013 15:24:15.154356 259084 net.cpp:160] Creating Layer loss
I1013 15:24:15.154386 259084 net.cpp:596] loss <- fc2
I1013 15:24:15.154434 259084 net.cpp:596] loss <- label
I1013 15:24:15.154484 259084 net.cpp:570] loss -> (automatic)
I1013 15:24:15.154542 259084 layer_factory.hpp:114] Creating layer loss
…
